cnn_model.pth (torch, 9312 bytes, 3 tensors)

conv1.weight f4 [32, 18, 3]
00000000: 1395 9b3c 0acc c4bc 5f6f e9bb 7f24 8abd
00000010: 0f74 20bd ad02 2abe 9dde 6ebe 207c 473e
00000020: a2f7 bb3d 4122 3cbd ffd2 943e adc4 763e
00000030: 884b b2be d338 f13c 6cc3 e4bd d2c3 9a3e
00000040: dad9 c8be 5d8e bb3d a1da 4fbe 4cbc deba
00000050: 5fbb c33d a04a 06bd 0cf6 39be 8177 823e
00000060: d63c aa3d fbb2 8fbc ef76 9d3b 065c cd3d
00000070: d06d 343e dcdd 603e 6134 cd3c f380 18be
00000080: 1e83 c8bd cbb3 d93d 5279 0ebe 24c1 9e3d
00000090: a395 303e cfee 083e 9946 1b3d 7cd2 063e
000000a0: 4c63 a23c 64b8 7b3e fd35 a5bd 94be aebe
000000b0: 94ed 283e 4b6c edbd b8e8 963b 9730 8cbd
000000c0: c129 0dbe 1a62 933e 5915 6c3e 78bc 9bbe
000000d0: 8468 253e c800 98bd c3d1 21be 03b8 b8bc
000000e0: 82c4 fe3d 9131 07be 252e a13d 27bd 17bd
000000f0: 5830 46be 41d2 e73a 0f37 18be 9ab2 ab3d
00000100: bc5b 4f3e 27af 033e 6607 9bbe 6d19 47be
00000110: 0b27 42be 2043 a83e 688a 8d3d 4ec9 7e3d
00000120: 6b20 733d bb88 523e 3ec4 a33d 6f1c 313d
00000130: e743 46bc e9ce 643c 803b 513e adca 993d
00000140: 5193 dbbd a90d 52be 97fb 46be 02c8 9bbd
00000150: b80b 3b3d 8bd3 883e 4503 9a3e 6b96 ea3d
00000160: 226d 383d 4a12 433e ac6d 283d c0e5 56bd
00000170: f585 143c 7bc8 30bc 4ac5 01bd ee56 11be
00000180: e848 b1bd b821 8dbe 647f c9bd 29bb 193e
00000190: 0964 3b3d da5e a0bc 9ec9 0cbe 909c 5a3e
000001a0: 08c3 033d 9598 3d3e 69cb 1c3e 0e41 5d3e
000001b0: 313f d5bd 2f17 70be 3743 8abe 54fc 04be
000001c0: 9e77 863d d593 90bd c7fc 033d bda4 18be
000001d0: d557 c7bd 43de ad3c 6d2f 16be d5e4 0bbd
000001e0: 05fb 7dbe b552 d4bc 50ad 8ebe 9aad 983d
000001f0: e4b7 04be 9e0b 473e 60cc fabc ff9b 09be
00000200: 8ca6 59bd 6073 36bd 2d8d 823d 5243 7cbd
00000210: 773b 71be c999 9bbc e752 973d c7f5 79bc
00000220: dead 31bc a0a7 fabd 018c 63be 4e6f 4abe
00000230: 92b3 4fbe 66e6 333e 7396 3a3e 1d9e c7be
00000240: 7947 9f3d 9046 0a3d a1bd c43c 67c8 5abd
00000250: 993a 04bd ec88 fe3d 2584 c53e 814b 353e
00000260: 8344 09bf 6a0e f9bd e49c c73c 2b32 ec3d
00000270: 4337 113e 6601 b33e 00dd a13d 616a f73d
00000280: 8e9a 733e 8ad7 98bd 9be8 62be 6fde 62bd
00000290: 9f25 64be 84ef 16bb 47a4 073e 5fd1 7e3d
000002a0: c540 9bbe b9ad 493d e8fa 873c 9449 63bd
000002b0: 7427 533e 8f51 3c3e eed6 f63c 4d2c 1d3e
000002c0: eef7 843d 654a cf3e 9075 4bbd 14c3 033e
000002d0: 53c3 07be bf8a 71be d0a8 ebbd bc45 91be
000002e0: 2eb9 24bd 35a6 b7bc 9f9b 1d3e 4b77 1c3e
000002f0: d4f8 0cbe 3600 803e cc9b e93d 04f1 3b3e
00000300: 6bb4 2c3d 5715 a13e b4a4 213e 6448 54bc
00000310: 5b37 e1bc dfdb d93d b739 17bc 8e4c 65bd
00000320: 065e ffbd 78d8 7d3d 2489 7ebd 45f5 1a3c
00000330: e8ed dcbd 7e17 a6be 58b6 b03d ebc8 143c
00000340: 752e a53c 4501 51bd db48 e43c c300 023e
00000350: 4f76 8d3e 8e2c e1bd 2567 493d 5793 2c3d
00000360: 8094 babd 9193 d8bd afea 5abe 8aa8 703c
00000370: 29c7 4e3e 83ea 6a3e d8d3 40be e11f 363b
00000380: b9f7 05bd fa52 a8be 2f8f 443a 38f0 48bd
00000390: fb6b 0bbe ba6b bbbd 3f90 003e 05bd f33d
000003a0: 5580 b3be 6546 a73d 7bd0 5abe 5a13 42bd
000003b0: b714 dc3d f340 18be 682b 86be d5d4 ef3d
000003c0: 0976 3f3d 3e30 8cbd dd03 74be f3ea 913e
000003d0: 0a3c af3e 4aae ab3e 2b71 a03d da25 043e
000003e0: d0d9 1b3e f33a 083e 21ba 8abe 4a9b 553e
000003f0: 65d7 273d 98ee 9c3c bfe8 b8bd 8649 313e
0.018991983 -0.024023075 -0.007123872 -0.06745242 -0.039173182 -0.16602583 -0.23327108 0.19480944
0.091780916 -0.045931105 0.29067227 0.24098463 -0.3482325 0.029446041 -0.11170086 0.30227524
-0.39228708 0.09158013 -0.20298244 -0.0016993373 0.095572226 -0.03278601 -0.18160266 0.254818
0.08312385 -0.0175414 0.0048054378 0.10027318 0.17620015 0.21959633 0.02504939 -0.1489294
-0.097906336 0.10629996 -0.13913468 0.077516824 0.17244582 0.13372348 0.037909124 0.13166231
0.019822739 0.24582058 -0.08066938 -0.34129775 0.16496879 -0.11592921 0.004605379 -0.06845205
-0.13785459 0.28785783 0.23055018 -0.30417228 0.16153151 -0.07422024 -0.15802674 -0.022548681
0.12439825 -0.13202502 0.078701295 -0.037045624 -0.19354379 0.0017686562 -0.14864753 0.08383675
0.20249838 0.12859784 -0.30279082 -0.19443293 -0.18960206 0.32863712 0.069111645 0.062203698
0.059357088 0.20559971 0.079964146 0.043240007 -0.01210115 0.013965347 0.20432854 0.075093605
-0.10721458 -0.20513023 -0.19431911 -0.07606508 0.045665473 0.26723894 0.3008062 0.11454471
0.045025952 0.19049945 0.041120216 -0.0524652 0.009065141 -0.010789986 -0.03168229 -0.14193317
-0.08656484 -0.27564788 -0.09838751 0.15012802 0.045749698 -0.019576479 -0.13748786 0.21348786
0.03216842 0.18515237 0.1531197 0.21606848 -0.104124434 -0.23446344 -0.27004406 -0.1298688
0.06565784 -0.07059447 0.03222349 -0.14906593 -0.097335495 0.021224147 -0.14666529 -0.034153778
-0.24802788 -0.025918344 -0.27866602 0.07454987 -0.12960774 0.19438025 -0.030615032 -0.13438414
-0.053137347 -0.044543624 0.063745834 -0.06158764 -0.2355784 -0.018994229 0.07388859 -0.015256352
-0.010844676 -0.12239003 -0.22221376 -0.19769022 -0.20283344 0.17568359 0.18221454 -0.38987818
0.07777304 0.0337587 0.024016203 -0.053413775 -0.032282446 0.124284595 0.3857738 0.17704584
-0.53620166 -0.121609524 0.024366803 0.11533006 0.14181237 0.34962004 0.079034805 0.12080837
0.23789427 -0.07462986 -0.22159044 -0.05538791 -0.22279976 -0.0023030946 0.1324626 0.06221139
-0.30322853 0.04923794 0.016599134 -0.05549009 0.20620519 0.18390487 0.030131783 0.1534893
0.06492601 0.40486446 -0.049672663 0.12867385 -0.13258104 -0.23588084 -0.11506808 -0.28373516
-0.040215664 -0.02241812 0.15391396 0.15279882 -0.13766795 0.2500016 0.11406669 0.18353659
0.042164247 0.31461594 0.15785486 -0.012956712 -0.027492216 0.1063764 -0.009230069 -0.05598121
-0.124691054 0.06197402 -0.062142506 0.009457891 -0.107875645 -0.32439798 0.08628529 0.009081106
0.020163754 -0.0510266 0.027866771 0.12695603 0.27629325 -0.10994826 0.049170632 0.0421327
-0.091103554 -0.10575021 -0.21378587 0.01468862 0.20193161 0.22941022 -0.18830812 0.0027789997
-0.03270695 -0.32875806 0.00074981427 -0.049057215 -0.1361541 -0.091514066 0.12555026 0.11901287
-0.35058847 0.081677236 -0.21368591 -0.047381736 0.107461385 -0.14868526 -0.2620499 0.11710516
0.046743426 -0.06845139 -0.23829599 0.28499565 0.34225494 0.3353141 0.07834085 0.12905064
0.15219808 0.13303737 -0.2709513 0.2086002 0.0409769 0.01915674 -0.09028768 0.17313203

conv1.bias f4 [32]
00000000: 4627 14bf 39f2 dfbe 574a e9bd f00a 5fbe
00000010: 10f7 c9be aa8c b5be 4a4d 2cbe a518 84be
00000020: d264 9cbe fb10 19bf 5dfb e9bd 6667 45bf
00000030: 704c 41be d48d 44bf e6f2 acbe 297d 02be
00000040: 64f7 5ebe 6aad c0be 7ba0 fcbd 670b 0bbf
00000050: ad6f 88be 54e9 28bf 63d3 f73d 9959 c7be
00000060: e3f0 17bf 07d1 c0be 6bfc 04bf f41f 85be
00000070: 0e2d c13d 783f 1cbe 07e5 cdbe 6645 33be
-0.57872427 -0.4373949 -0.11391132 -0.21781516 -0.39446306 -0.3545888 -0.16826358 -0.25800052
-0.3054567 -0.59791535 -0.11424897 -0.771109 -0.18876815 -0.7677891 -0.33779067 -0.12743057
-0.2177406 -0.37632304 -0.12335297 -0.54314274 -0.26647702 -0.6598103 0.12100866 -0.38935545
-0.5935194 -0.37659475 -0.5194766 -0.2600094 0.094324216 -0.15258586 -0.40213796 -0.17506942

fc.weight f4 [1, 32]
00000000: a8a3 0e3f 0348 843e 1d20 9ebe 5480 3f3e
00000010: 406c fc3e 7b5b 963e e421 f6bd 6d31 473e
00000020: a4f6 d03e efcc 7a3e fb53 84be b73d 893e
00000030: 77c1 91be a962 153f 5c2d 613e 66e9 99be
00000040: b293 02be 4d05 ea3e 441b 5e3e ab16 a23e
00000050: 4827 8ebe 14df 0d3f bd43 61be 7691 b5be
00000060: 9579 c83e 3001 18be 81a5 27be 1720 a23e
00000070: 3c9c 7ebe fdda 5ebe 56a6 cf3e c317 74be
0.5571847 0.2583619 -0.30883875 0.18701297 0.49301338 0.2936667 -0.12018183 0.19452448
0.40813172 0.24492238 -0.25845322 0.26804897 -0.28467914 0.5835367 0.2198996 -0.3006088
-0.12751654 0.4570717 0.21690089 0.3165792 -0.27764344 0.55418515 -0.21998496 -0.3546254
0.3915526 -0.14844203 -0.16371728 0.31665108 -0.24864286 -0.21763225 0.40556592 -0.2383719
