models/best_lstm.pth (torch, 235916 bytes, 9 tensors)

lstm.weight_ih_l0 f4 [248, 44]
000000 b0 65 0a be 19 14 75 3d 41 c6 d2 bd 25 91 87 3e
       -0.13515353 0.05983362 -0.1029172 0.26477924
000010 8c 0a 7d bd 6f cf aa 3b 46 af 02 3e b9 76 a4 bd
       -0.061777636 0.0052127163 0.12762174 -0.08030457
000020 a0 3f 15 bd a7 4f 58 bd a2 68 fb bd dd 0d b0 3d
       -0.03643763 -0.052810337 -0.122758165 0.08596394
000030 b4 13 b3 3b 11 a1 33 be 1b 2b 3e 3e e5 17 c2 bd
       0.0054649953 -0.1754191 0.18571131 -0.09477214
000040 08 9e 1e bd b1 e0 e6 bc c5 10 b9 bd 12 89 1b 3d
       -0.03872493 -0.028183313 -0.09036402 0.037972517
000050 15 b4 01 3e a4 f2 da 3c 7e 21 6d 3d 67 73 db 3d
       0.12666352 0.026727028 0.05789327 0.107153706
000060 0f 2c 1d 3e 84 4c a9 bd 33 84 0d 3d 6a bd d7 bb
       0.15348838 -0.08266547 0.034549903 -0.006583859
000070 8f de af 3c 6c 46 10 3e ef 9b 99 3d fd 7d 4f bd
       0.021468429 0.14089364 0.07500445 -0.05065726
000080 80 d2 f9 bc ab ad fa 3d 9d 59 f0 3d fe 4c 8b 3d
       -0.030495882 0.12240156 0.117358424 0.068017945
000090 f0 ff b8 3d ba 7a d4 bc 5c cf 3b bd c5 55 40 be
       0.09033191 -0.025937427 -0.04585205 -0.18782718
0000a0 24 74 36 3e e5 6f 10 be 1a 07 1f 3d 88 23 d9 bd
       0.17817742 -0.14105184 0.038825132 -0.1060248
0000b0 b7 71 d5 bd d5 c4 c2 3d d6 46 96 bd e5 5f c1 bc
       -0.1042208 0.09510199 -0.0733773 -0.023605296
0000c0 83 a8 d8 3c 90 cc 11 3e 38 ec 4e 3e 42 97 e9 bd
       0.02644754 0.1423819 0.20207298 -0.11405803
0000d0 0c 1e 03 bd 72 f6 23 3c 5f 64 e4 3c 41 2b 02 bd
       -0.032011077 0.010007488 0.027879892 -0.03177953
0000e0 44 6a 01 bc ba 7e 06 be 1a 77 61 3e 15 01 7c bd
       -0.007898871 -0.1313428 0.2201809 -0.06152447
0000f0 92 29 ac bc b7 bd 54 be e3 36 84 be 43 bc a0 3d
       -0.021015916 -0.20775495 -0.25823125 0.07848408
000100 5d f7 06 be 84 7b 1a bd 00 fe 14 bc 4e a1 eb 3d
       -0.13180299 -0.03771545 -0.009093761 0.11505376
000110 78 82 6a be b4 00 c9 3d e4 b1 2d 3e f0 82 55 be
       -0.22901332 0.09814587 0.16962391 -0.2085073
000120 82 57 12 3e 14 c7 5a 3d f2 b8 26 bd 0f 53 95 bb
       0.14291194 0.053412512 -0.04070372 -0.0045570205
000130 6b 8c 1b bd ec 76 08 be 89 f0 e6 3c 2a 82 c9 3c
       -0.03797571 -0.13326615 0.028190868 0.0245982
000140 50 f3 ff 39 b2 5b a5 3d ce 1e b1 3d 57 c2 14 3d
       0.00048818672 0.0807413 0.08648454 0.03631815
000150 d4 89 fa 3d 9e 4a 08 3e 9e a6 88 3e 11 1d 94 be
       0.1223332 0.13309714 0.2668962 -0.28928426
000160 67 c0 dd 3d 0b fb 39 bd fb 26 7b 3d 4a 31 91 3e
       0.108277135 -0.04540543 0.06131647 0.28357917
000170 b8 54 97 bd e5 3a 5e be 03 42 19 3e c3 fc 8e 3b
       -0.07389206 -0.21702154 0.14966588 0.0043636276
000180 7a 54 dc bd a5 09 0a 3e b0 56 88 bd a3 45 58 3d
       -0.107583 0.13480242 -0.06657159 0.052800786
000190 d2 70 99 bc 2f a6 88 3b 0a 81 b8 bc 30 18 ab 3d
       -0.018730555 0.0041702013 -0.022522468 0.08354223
0001a0 9a 82 3e bd 8c 20 98 3c 57 fa 05 3e 33 14 8f 3d
       -0.04651127 0.018570207 0.13083778 0.069862746
0001b0 8b e6 6e 3e 5c 98 49 be 47 e8 50 bc 32 f5 d5 bc
       0.23330133 -0.19687027 -0.012750692 -0.026117895
0001c0 4c 33 84 3d 5a 3d c3 3d 9b 3b ac bd a8 92 14 bb
       0.064550966 0.09533186 -0.08409806 -0.0022670422
0001d0 9a 04 59 3e 8d e0 de bd fd 5b 07 be bd 65 84 3d
       0.21193162 -0.108826734 -0.13218684 0.064647175
0001e0 03 a2 68 3d 00 43 f7 3c 8f 39 a7 3c d4 cb 39 3d
       0.05679513 0.030183315 0.020413188 0.0453604
0001f0 37 51 85 bd 1e 9a 29 3e b2 de 48 be ae 15 13 bd
       -0.06509631 0.16562697 -0.19616202 -0.035909347
000200 91 b7 b9 3d c1 4e dd bd db 22 e3 3c 1c 58 ce bd
       0.09068216 -0.10806037 0.027726581 -0.10075399
000210 28 b8 74 3e a0 52 de bd a7 ab 1a 3e c4 fe 00 3e
       0.23898375 -0.10855603 0.15104543 0.12597185
000220 45 fd b5 bd cc 7d c2 3c ab 5d 44 be 45 74 ad 3d
       -0.08886198 0.023741625 -0.19176356 0.08469442
000230 c9 a8 0c 3c e3 0f 0e be d2 0c 27 bd d6 a8 f0 bd
       0.008585163 -0.13873248 -0.04078371 -0.11750953
000240 39 68 1e be 96 78 61 3d d2 b1 a7 bc 59 12 2c be
       -0.15469445 0.05504664 -0.020470534 -0.16803874
000250 27 53 3d bc 2f df 18 bd d2 c3 85 3d 74 30 42 be
       -0.01155547 -0.03732222 0.065314904 -0.18963796
000260 a6 3b 1d be 70 e4 f9 bc ea 31 15 3c a5 22 60 bd
       -0.15354785 -0.030504435 0.009106139 -0.05472054
000270 1e 15 d0 bd 06 55 e5 bd 48 b0 61 be 7f 64 18 3e
       -0.10160278 -0.111978576 -0.22039902 0.14882086
000280 01 a1 74 3d cc c8 13 be bf 8f df bd 8e a2 05 be
       0.059723858 -0.14432067 -0.10916089 -0.13050291
000290 d6 7e bf 3d 56 c9 2b 3e 5e 92 66 be 56 01 8f 3c
       0.09350364 0.16776022 -0.22516772 0.017456692
0002a0 83 2b c9 bd f1 5b f1 3c 33 81 d4 3d 22 f5 68 bd
       -0.09822752 0.029462786 0.10376205 -0.056874402
0002b0 3c 4f 23 be 33 8a a6 3d 0b 7f a4 bd 8f 84 f4 bd
       -0.15948194 0.08131828 -0.08032044 -0.11939346
0002c0 d2 a3 5b bd da d0 23 3e 74 7f 97 3d 5d 38 09 3d
       -0.053623028 0.1599764 0.07397357 0.033501018
0002d0 ea ee 17 3e 23 c1 f5 3d fc 43 2f bd a8 fc a7 bd
       0.14837232 0.119997285 -0.042789444 -0.08202487
0002e0 ac bc ca 3c 1d 1f 09 3e da 92 d0 bd 52 54 cd bd
       0.024748169 0.13390775 -0.1018426 -0.100258484
0002f0 72 10 bf 3d 44 dc 40 be 11 24 12 be 78 6d a2 bd
       0.093293086 -0.18834025 -0.1427157 -0.07931036
000300 39 de 53 3d 32 29 69 bd 35 00 c3 bd 02 5d 80 3d
       0.0517256 -0.056924053 -0.09521524 0.0626774
000310 93 7a f8 3d b1 9c 11 3c 2d 85 6e bd 6c 18 05 3e
       0.12132754 0.008887456 -0.058232475 0.12997597
000320 46 38 f2 bd a9 7b 45 3e 38 38 51 bd 38 2e 9d bd
       -0.118271396 0.19285454 -0.051079005 -0.07674831
000330 b4 2c 9f 3c da 6f a7 3d b8 b6 10 be 23 c5 58 3d
       0.019430496 0.08175631 -0.14132202 0.05292238
000340 f8 61 cb bc e2 cf e4 bd 2c 1a 79 3c c9 02 48 3e
       -0.024826989 -0.11172463 0.015203994 0.19532312
000350 e3 27 84 3b d2 c7 ec 3d 07 9e 04 3c ad 7e ce bd
       0.004033075 0.1156155 0.008094317 -0.10082755
000360 f5 fe c8 3d 1a 4e 8c 3c 0a cd c1 bd 17 00 27 be
       0.09814254 0.017127085 -0.09462936 -0.16308628
000370 0c 18 06 3e 9b 76 49 bc fb 8c a5 bd 32 60 ed bd
       0.1309511 -0.012296344 -0.080835305 -0.115906134
000380 da 6f 75 bd 92 7c 1b 3e 43 cb 66 be 5d ff d7 bd
       -0.059921123 0.15184239 -0.22538476 -0.105467536
000390 59 19 a5 bd f2 55 28 bd 94 54 1e be 1e 0b 20 be
       -0.08061475 -0.04109759 -0.15461951 -0.15629241
0003a0 c9 0e 4e bd f7 ac fb bd de f7 89 3d 34 05 ea 3c
       -0.05030707 -0.1228885 0.0673673 0.028566934
0003b0 1d a4 53 3e 9d 4b 05 be 93 2b 7e be 70 66 8b 3c
       0.20668073 -0.13017125 -0.2482131 0.01701662
0003c0 1e 67 4b 3e 87 a5 9d 3c ca 40 28 3d 0d 32 a1 3c
       0.19863555 0.019243969 0.041077413 0.019677186
0003d0 73 38 00 be a1 ca 38 be fb 11 ee bc 96 0f 82 3d
       -0.12521534 -0.18046047 -0.029061308 0.06350629
0003e0 7e e2 90 3b de c4 d1 bd 53 78 e6 3d 88 08 b3 3d
       0.004421531 -0.102426276 0.11253419 0.087418616
0003f0 62 cd 8a bd cc f5 2f 3d 2c a7 e9 3b 89 44 15 be
       -0.06777455 0.04295902 0.007130524 -0.14576925

lstm.weight_hh_l0 f4 [248, 62]
000000 dd 40 0f be 41 0e a5 be 91 52 1e 3e d7 f1 34 3d
       -0.13989587 -0.32237437 0.15461184 0.04417595
000010 3b 30 ed 3d eb 03 3b be 06 4d b9 bd d4 9b 86 be
       0.11581465 -0.18263213 -0.09047894 -0.26290762
000020 0b 3b 2c 3c 75 31 67 be 5b 46 8e be 0e 41 e3 3d
       0.010512124 -0.2257746 -0.27788052 0.110963926
000030 03 49 ac be 70 1b 3d bd 4d d2 95 bd b6 67 62 3d
       -0.33649454 -0.046168745 -0.07315502 0.055274688
000040 2c f6 82 be 4a 82 0d bd 40 9f 9d 3d 5e 82 72 be
       -0.2557844 -0.03454808 0.0769639 -0.23682544
000050 d9 77 d4 bd 23 7a 63 bd 45 d6 76 be 45 3e 48 3e
       -0.103744216 -0.0555364 -0.24105175 0.19555004
000060 a8 b2 97 3e 15 52 24 3e 19 ba c0 bd d7 61 30 be
       0.2962849 0.16046937 -0.09410495 -0.17224823
000070 2d 34 08 bd 21 6b 3b 3d 7b 7e e7 bd 78 82 50 be
       -0.033252884 0.045756463 -0.11303421 -0.2036227
000080 20 43 72 bd 04 cc 22 3d ce 4c 55 3e ae 95 16 3d
       -0.059146047 0.039745346 0.2083008 0.03676384
000090 6c 56 d2 bd 04 2e 53 3e 88 90 30 3e 2d 35 88 3e
       -0.1027039 0.20623022 0.17242634 0.2660307
0000a0 9b 16 c9 bd 90 ea b4 bd c7 27 83 bc f2 0b e9 bd
       -0.09818765 -0.08833802 -0.016010178 -0.113792315
0000b0 59 58 1e be cd d1 aa be 1b 31 6b be f5 6b 13 bd
       -0.1546339 -0.3336319 -0.22967951 -0.035991628
0000c0 d7 3d 5b bd f8 4f b9 3c 34 c8 ac bd 7e 38 45 bd
       -0.053525772 0.02262114 -0.08436623 -0.04814958
0000d0 14 51 ba bb 65 be e8 bd 61 6a 91 bd 12 5b 0e 3e
       -0.005685935 -0.1136444 -0.07100368 0.13901928
0000e0 38 64 32 bd 18 97 1d be b6 4f ed 3d b2 66 e2 3d
       -0.043552607 -0.15389669 0.11587469 0.11054744
0000f0 2b f7 20 be 19 9c bb bc 28 a1 33 3d 10 b5 92 be
       -0.15719287 -0.022901582 0.043854862 -0.28653765
000100 ea 0e 78 3d bb c7 40 3d d5 ec 15 3d 69 62 77 be
       0.0605611 0.047065478 0.036602814 -0.24158634
000110 67 fb f6 bd 13 21 04 be f1 40 ea 3c eb 1a 02 be
       -0.1205967 -0.12903242 0.02859542 -0.12705581
000120 78 cd 64 bd 24 c6 2d 3e 42 37 aa 3d 2e d6 1d be
       -0.055860013 0.16970116 0.08311321 -0.15413734
000130 85 bd 64 bd 5a 02 b5 3c 78 fe 10 3e 4f 15 12 bd
       -0.055844802 0.022095848 0.14159572 -0.035664853
000140 7d b6 91 3d fd 91 32 3c 74 42 8d bd a5 32 49 3d
       0.07114885 0.010899064 -0.068974406 0.049120564
000150 24 63 5f be 5a 27 bf bd cf b5 82 3d b8 64 13 bd
       -0.21815163 -0.093336776 0.063823335 -0.035984725
000160 80 3c fe bd f3 c8 7a be 30 cc 92 3d 6d 52 0d 3e
       -0.12413883 -0.24490719 0.07167852 0.13800974
000170 d2 21 ab 3d d0 27 5a 3d bf 66 08 be b9 23 f5 bd
       0.0835606 0.053260624 -0.13320445 -0.11969704
000180 f5 c3 d4 3d 26 95 d3 bc 9e 24 0c 3e dc 53 51 3e
       0.10388938 -0.025827955 0.13685843 0.20442146
000190 31 33 9b 3a ca a4 66 3e 9a 51 ec 3c 62 63 67 3d
       0.0011840818 0.225238 0.028847504 0.056491263
0001a0 0d ba b4 3c 78 b2 ce bd ea 9a 04 be 29 0c d8 bd
       0.022061372 -0.10092634 -0.1294972 -0.10549194
0001b0 57 b6 0a be cf 20 09 3d c6 ab bc bd 95 ef f9 3c
       -0.1354612 0.033478554 -0.09212451 0.03050975
0001c0 f0 c3 c8 bd ee 83 00 3e f5 95 ce 3d a4 87 27 3d
       -0.09802997 0.12550327 0.10087196 0.04090084
0001d0 ed 3f 39 be 99 5c 24 3e 58 fa 0c be 5d b7 e6 bc
       -0.18090792 0.16050948 -0.13767374 -0.028163606
0001e0 18 48 eb bd 8a fb fb bd 7b 17 b9 bc ef 99 11 3e
       -0.1148836 -0.12303837 -0.022594204 0.14218877
0001f0 b0 c8 9e 3c b3 23 c5 3e d2 e5 18 3e 9a 43 2b 3e
       0.019382805 0.385038 0.1493142 0.16725007
000200 b4 ef cc bd d6 4a 7c 3e 2b 14 1f 3e 67 f5 81 3e
       -0.10006657 0.24637923 0.15535037 0.2538254
000210 bd 17 11 be 47 3f 0a 3e d6 19 8a 3e e5 33 ac be
       -0.14169212 0.13500701 0.26972836 -0.33633342
000220 af 34 15 3e b3 99 f2 3d b3 1e 85 bd a6 e6 13 bd
       0.14570878 0.11845722 -0.06499996 -0.036108635
000230 c5 ef 1f 3e 1c 5a ec 3c fb b8 8d be 9c bd 67 3c
       0.15618809 0.028851561 -0.2768019 0.0141443275
000240 ee 50 f5 bd b7 5d 39 3d 6c 4a 4a 3d b4 6e 8e 3d
       -0.11978327 0.04525539 0.04938738 0.06954709
000250 ed a0 48 be 75 54 15 3e 25 4f ad bd db 36 91 3d
       -0.19592638 0.14582999 -0.08462361 0.07090541
000260 44 03 c7 bd 94 8a 2d bc 2c 69 46 3c ca 83 d1 3e
       -0.0971742 -0.010592122 0.012110036 0.4092086
000270 05 7e 60 3e 91 c8 9e bd 6f b4 8b 3d 8e 5f 01 3d
       0.21923073 -0.07753099 0.06821524 0.03158527
000280 57 fe 3d be 00 37 9e be a0 26 1d be dd f5 fd 3b
       -0.18554054 -0.30901337 -0.15346766 0.0077502565
000290 85 ce b4 3e 9d aa bd 3d 7b e1 3b 3e 1f 95 51 3d
       0.35313812 0.092610575 0.18347733 0.051167604
0002a0 9f 87 43 3d 2b 05 f1 3d 81 63 96 3e bc a6 86 3d
       0.04773676 0.11768564 0.2937279 0.06574771
0002b0 df aa 26 3e 88 63 9e 3d b2 44 05 3e 2e 93 37 be
       0.1627612 0.07733828 0.13014486 -0.17927238
0002c0 cd 40 cd 3d be 5a b9 3d 75 a9 50 3e ba b7 4c be
       0.100221254 0.09050511 0.20377143 -0.19991961
0002d0 b3 dd 2b be 91 2d 09 bc e4 07 94 bd f2 af 00 be
       -0.1678379 -0.00837268 -0.072280675 -0.12567118
0002e0 0a 41 63 3e 84 bb dd bd a2 1e ab 3c 6a ee b2 bd
       0.22192779 -0.108267814 0.02088863 -0.0873688
0002f0 8c b1 f1 bd a3 de 40 be 5c ea 38 3d da 74 9b bd
       -0.118014425 -0.18834929 0.045145378 -0.07590647
000300 48 2f 88 3d f0 39 f6 3d ff 79 96 bd 5a da 21 3e
       0.06649643 0.120227695 -0.07347488 0.15805951
000310 70 a5 c3 bd 9a 88 a3 bd 48 35 f1 bd e8 64 a1 3e
       -0.09553039 -0.07985039 -0.11777741 0.31522298
000320 3c 75 87 bd 4b e0 28 bd f1 de 0e 3d 68 68 13 3e
       -0.066141576 -0.041229527 0.034880582 0.14395297
000330 a5 fd aa 3d ed 21 b2 bc 92 9e 2d 3e 5b 44 a0 bd
       0.0834916 -0.021744693 0.16955021 -0.07825538
000340 f5 8b 4b 3d e1 5d 12 3d 20 d3 36 bd 3c 2d 4d bd
       0.04969402 0.03573406 -0.04463494 -0.050091967
000350 30 1e a4 3c 0e f4 76 bb 0c e4 b3 3d 07 b5 2a be
       0.020033926 -0.003768209 0.08783731 -0.16670619
000360 7c 61 ec 3a 84 48 90 bd a9 af 4c bd 19 6b e3 3d
       0.0018034424 -0.07045081 -0.04997221 0.11104412
000370 03 d5 c9 3d 7e b3 eb 3d 38 f8 1e 3e 04 e8 03 3e
       0.09855082 0.11508845 0.15524375 0.12881476
000380 33 d7 81 bd df c9 ca 3c 2d 61 84 3b e9 4a 34 be
       -0.06339874 0.024754463 0.0040399046 -0.17606701
000390 f1 52 88 bd 8f a3 56 bd b1 5d 83 bd 3d 0e 7b bd
       -0.06656445 -0.052402075 -0.064143546 -0.061292876
0003a0 fc c3 7d 3d 80 31 87 39 37 bb ec bd e5 3e 4b 3e
       0.061954483 0.00025786087 -0.11559146 0.19848211
0003b0 dc 82 ad bd cb fe ba 3c 5a df bc bc 4d 16 6b bd
       -0.08472225 0.022826573 -0.023055721 -0.057394315
0003c0 69 8d bb 3d d4 27 50 3e 40 0d 64 3e 81 ed 84 3d
       0.09157831 0.20327693 0.2227068 0.06490613
0003d0 9b c7 84 bd b3 64 46 3e f6 08 bc 3c 3b ac a8 3d
       -0.06483384 0.19374351 0.022953492 0.08235975
0003e0 09 de 6d 3d e7 8d c9 bd de 8e 2c 3c 2f 3c 6d 3b
       0.058073077 -0.09841519 0.010532109 0.0036199202
0003f0 34 77 2a bd 95 cb 1e bd e0 2f bc bd 59 cd 24 be
       -0.041617587 -0.03876837 -0.09188819 -0.16093959

lstm.bias_ih_l0 f4 [248]
000000 a8 cf 07 3e c3 ec 1a 3e 8a d0 be bd e4 92 93 bd
       0.13262808 0.1512938 -0.093171194 -0.072057515
000010 b4 66 19 bd b4 2c 8a bd 37 fd 2d be 8c 81 94 3d
       -0.03745146 -0.06746808 -0.16991125 0.072512716
000020 74 39 9f 3b 8c 20 3c 3e 04 70 53 3c e9 8e f2 bc
       0.004859144 0.1837179 0.012905125 -0.02960916
000030 c7 d1 88 3d 6b 9b 66 bd 49 fd 7d bc 7a 4c 49 3c
       0.06680637 -0.056300562 -0.015502282 0.0122863
000040 32 d5 8f bd f0 fa 47 3e 9d cd 2d 3e 2d ff 03 bd
       -0.07023086 0.19529319 0.16972966 -0.032225776
000050 9d f2 31 3e b5 f8 99 3b b4 e5 81 bd 41 7d c4 bd
       0.17377706 0.0046988376 -0.063426405 -0.09594203
000060 eb 26 f6 bd 6f 48 6c 3d 7f bf d3 bc b7 87 56 3d
       -0.12019142 0.057686266 -0.025848148 0.05237552
000070 1a 0e 0a 3e ca 87 e9 bd 6c f3 e8 bd de bc ab 3e
       0.13481942 -0.11402853 -0.11374554 0.33542532
000080 1c 57 1b 3e 1d 2a c4 bd 78 12 2f 3d 5b 97 6f 3d
       0.15169948 -0.09578345 0.042742223 0.058493953
000090 76 8c 09 3e 17 9a 3a ba f6 b9 b0 3c 4c a4 dd ba
       0.13432488 -0.0007118298 0.021573048 -0.0016909926
0000a0 0f 90 8e 3c bd 5b 66 bc 2e c1 0d 3e c9 19 4f bd
       0.017402677 -0.014059958 0.13843223 -0.0505617
0000b0 4b ba 29 3d c6 1e 14 3e 59 00 6b 3e cc d8 17 bd
       0.04143743 0.14464864 0.22949351 -0.037071988
0000c0 b7 c2 fa bd ee 14 df 3c 5e be aa bd 60 03 11 3d
       -0.1224417 0.02723166 -0.08337091 0.03540361
0000d0 f2 42 76 3e 65 75 2b be 85 7d 07 3e 91 f1 81 3c
       0.24048975 -0.16744001 0.13231476 0.015862258
0000e0 8d 19 70 bd 79 c8 4a be ee 05 e0 bd 0b af e5 3d
       -0.058618117 -0.19803037 -0.10938631 0.112150274
0000f0 7b 6f 91 bd bf a7 aa 3d 30 bf c6 3d 8c 0f 7e 3d
       -0.07101341 0.08332776 0.09704435 0.062026545
000100 63 e8 ba bd 2e 27 c3 3d f1 d0 ee bb ec f8 ec 3d
       -0.091263555 0.09528957 -0.0072880914 0.115709156
000110 4a 74 93 3d 02 a3 da 3d d8 4b 8b bc 5f 54 1e be
       0.07199915 0.106756225 -0.017003939 -0.15461873
000120 ad a1 e0 bb 53 c6 94 3d 85 fb ff bd 41 c1 f6 3c
       -0.0068552108 0.0726439 -0.124991454 0.030121448
000130 b8 ca 06 3e 58 90 ee bd e1 c3 dd 3d df 06 23 3e
       0.13163269 -0.11648625 0.108283766 0.1592059
000140 35 19 00 3e 35 b0 d1 3d b5 da da 3d ae 7c e7 bd
       0.12509616 0.10238687 0.10686246 -0.11303078
000150 3f ca 5b 3d c7 76 8a bd 6a ef b4 bc 31 d4 28 3d
       0.053659674 -0.06760936 -0.022086818 0.041217986
000160 a1 28 d3 3d e8 02 3c 3e 98 30 48 ba 93 e6 8e bd
       0.10310484 0.18360484 -0.00076366356 -0.06977572
000170 70 ac 5e 3d 69 90 78 3d 42 a7 8f 3d eb fd b1 bc
       0.054363668 0.060684595 0.07014324 -0.021727523
000180 87 9f e8 3c db 03 a5 3c 75 5b 37 3e de e3 24 3e
       0.028396381 0.02014344 0.17905982 0.1610255
000190 d8 bb 73 bd b9 40 49 3e c0 10 ba bd 0e 06 5e 3b
       -0.059505314 0.19653596 -0.09085226 0.003387812
0001a0 0a ed 14 be 3c e5 1a 3c 5e 99 d2 3c 50 8d 5f be
       -0.14543548 0.009454068 0.025707897 -0.2183125
0001b0 56 04 d2 bd 03 91 2f bc be 3e ae bd 8a c7 db bd
       -0.10254733 -0.010715726 -0.08508061 -0.107314184
0001c0 ca 56 a4 3e 61 53 61 3e c5 ac 46 3e dc 8e 80 3d
       0.32097465 0.22004463 0.19401844 0.06277248
0001d0 7f 52 0b 3e c9 40 ed 3d 36 10 f7 3d 30 c5 d1 bd
       0.13605689 0.115846224 0.12063639 -0.10242689
0001e0 f4 22 d1 3b 76 05 2f 3e 81 c7 f3 bd 90 37 75 3e
       0.0063823406 0.17091927 -0.11903287 0.23946977
0001f0 2d 89 d8 bd 69 3c 86 be 77 b5 4b 3e 79 91 9f be
       -0.10573039 -0.26217964 0.19893442 -0.31165674
000200 d8 a2 e3 bb 27 41 18 bd d1 b5 0e be 3f 6a 80 bd
       -0.0069469027 -0.03717151 -0.13936545 -0.06270265
000210 ac 5f 2f 3e 5e 20 a6 bd 35 73 11 be 01 fc 28 3e
       0.1712634 -0.08111642 -0.14204104 0.16502382
000220 e1 69 41 be 65 d7 d5 3b 2c e7 c1 bd a4 4b 56 3e
       -0.18888046 0.006525921 -0.09467921 0.20927292
000230 bf a6 86 be 83 a8 61 be 91 55 58 3e 1a 9a d4 bd
       -0.26299092 -0.22036938 0.21126391 -0.10380955
000240 49 ae b4 3e 35 d0 28 3e ca f5 79 be 1a 10 80 3d
       0.3528922 0.16485675 -0.24410167 0.06253071
000250 13 27 fa 3d 33 82 d3 3d fc ed 83 3e 9e c6 7e be
       0.12214484 0.10327568 0.25767505 -0.24880454
000260 b8 bd 66 3e 68 86 46 be 99 0e 00 be 12 c8 6c 3d
       0.2253331 -0.1938721 -0.12505569 0.05780799
000270 d9 15 8b be ab 72 2d 3d 8d 66 a0 bb e0 da f1 3d
       -0.27165106 0.042345684 -0.0048950375 0.11809325
000280 3f 95 a2 3e 9e 43 91 3e a3 9c 0d 3e 58 54 93 3e
       0.3175449 0.283719 0.13829283 0.28775287
000290 90 ee 4a be 24 11 5e be cb 14 32 be 83 e3 26 bd
       -0.19817567 -0.21686226 -0.17390744 -0.040744316
0002a0 67 0b 5d be ed 30 88 3d 16 19 0e 3c 2a e9 49 bd
       -0.21586381 0.06649957 0.008672973 -0.04929463
0002b0 52 b5 91 bd 70 e1 95 3e db 23 10 be b5 86 96 3e
       -0.07114662 0.29273558 -0.14076178 0.29399648
0002c0 52 f3 88 3e 4c 7d 24 be 6b 3d 8e be f8 8f e3 3d
       0.2674814 -0.16063422 -0.27781233 0.11111444
0002d0 15 a6 7e 3e 95 84 3c be aa 2b e7 bc aa 9d 12 3e
       0.24868043 -0.18409951 -0.028219063 0.14317957
0002e0 5a f4 b8 bd 65 e7 4e 3e 15 f1 d3 3d d9 5a 2d 3d
       -0.09030981 0.20205458 0.10348717 0.042322967
0002f0 63 8e 34 bd cf c3 14 3d e6 94 dd bd 05 19 b5 bd
       -0.044081103 0.03631955 -0.10819416 -0.08842663
000300 95 c3 2f bd fc e6 79 bd 17 4b 39 3d e1 fd fa 3d
       -0.04291113 -0.0610113 0.045237627 0.12255455
000310 1f cd 2a bd 5a 14 7a 3c 95 31 48 be fe b0 15 be
       -0.041699525 0.015263641 -0.19550164 -0.14618298
000320 4d 29 01 be 74 6d 43 bb 64 ae d2 bd 50 ba 54 bd
       -0.12613411 -0.0029819878 -0.102871686 -0.051935494
000330 72 b1 a5 bd aa 9f 97 bd 6b 61 cf 3d 65 73 83 be
       -0.08090486 -0.074035004 0.10126003 -0.25673977
000340 54 3b 43 be e7 bd 06 be a3 68 ec bd 57 cb c9 bd
       -0.190656 -0.1315838 -0.11543395 -0.09853237
000350 7e 71 34 3e 6c da ae bd 61 88 77 bd 0a 70 03 be
       0.17621419 -0.085377544 -0.060432795 -0.12835708
000360 71 65 2a be 20 7f ba 3d dd d6 54 3d b5 42 d5 3d
       -0.1664026 0.091062784 0.051962722 0.10413114
000370 70 d9 0e be a9 51 cd bd 0b 57 9d bc 3d 6d 8f bd
       -0.13950133 -0.10025341 -0.019206544 -0.070032574
000380 f9 b4 c1 bc 41 b6 6a bc 02 aa 0b be db 2d 19 be
       -0.023645865 -0.014325679 -0.13639072 -0.14958899
000390 91 df af 3d 01 8e 4e bc c4 08 5a bc 42 39 5d 3e
       0.08587564 -0.012607099 -0.013307754 0.21603873
0003a0 1e 37 02 3e 0b f9 c0 bb 84 a8 b3 bb 2e 83 96 bd
       0.12716338 -0.0058890632 -0.005482735 -0.07349239
0003b0 6d ee 05 3e a2 b6 b4 3a a7 07 95 3d fd b3 00 3d
       0.13079233 0.0013787339 0.0727685 0.03142165
0003c0 3d 10 23 be d4 b2 53 bd 3c 2c c5 bc 50 4a 7e bd
       -0.15924163 -0.051684216 -0.024068944 -0.06208259
0003d0 d9 94 07 bd 65 ff 7e bd 57 ae a3 bd 56 93 be bd
       -0.033100937 -0.062255282 -0.07992237 -0.09305446

lstm.bias_hh_l0 f4 [248]
000000 a5 49 73 bd b9 72 48 bd 89 5f 74 bd d6 35 b0 bd
       -0.059396405 -0.048937533 -0.059661422 -0.086040184
000010 6e 47 62 bd 10 32 41 3d bb 38 b1 bd 34 68 a6 bd
       -0.055243902 0.047166884 -0.086533986 -0.08125344
000020 ea 83 1c 3e a0 07 d0 3d bd dd 7f 3d 7d cd e3 3c
       0.15284696 0.10157704 0.062467325 0.027807945
000030 ea eb cd bc e9 33 0c bd 56 d5 cf 3d 78 5d 71 bd
       -0.025136907 -0.034229193 0.101481125 -0.05892703
000040 d1 bb 57 bd 22 84 04 3e 57 82 3b 3c 3b 0e 5d 3d
       -0.05266935 0.1294103 0.01144465 0.05396865
000050 1e a6 41 3d 1e 99 86 3d e8 17 17 3d 44 1b 51 be
       0.047277562 0.065721735 0.036888033 -0.20420557
000060 2f d0 a1 3d 7d 81 74 bc 26 7c 0f 3e d9 61 e7 bc
       0.07901036 -0.014923451 0.14012203 -0.0282449
000070 b4 e7 ee bc 1d 3d 25 3c 78 f9 32 be ba aa 70 3e
       -0.029163219 0.010085371 -0.17477977 0.23502627
000080 e0 17 40 3e 3f eb 83 be fc 25 82 3c a5 c8 fa bd
       0.18759108 -0.25765416 0.015887253 -0.12245301
000090 fc 89 10 3e 11 27 f6 3d 2c ac 5e 3d 9d 56 86 3d
       0.14115137 0.1201917 0.054363415 0.06559489
0000a0 5f 47 96 bd 23 16 d9 3c 83 c0 1c 3d b1 c2 87 3d
       -0.07337832 0.026499813 0.03826953 0.06628931
0000b0 b5 c3 1e bd ae 3f 82 3e 6b e6 86 3e fa 35 ae bd
       -0.03876086 0.2543921 0.2634767 -0.08506389
0000c0 e2 27 96 bc 01 5a 2e be c7 b6 5c 3c 4d 5b 96 3d
       -0.018329564 -0.17026521 0.013471312 0.07341633
0000d0 7f 17 06 3d 02 10 4c bd 7a da a6 bd d5 cb 1b 3e
       0.03273725 -0.049819954 -0.0814714 0.15214474
0000e0 1a ee e3 bc 73 5a cd bd de 78 18 be bb 8c ec 3d
       -0.027823497 -0.100270174 -0.14889857 0.1155028
0000f0 c7 9d 8c bd ef 63 fc 3c 62 73 30 3c 89 e0 66 3e
       -0.06866031 0.03080937 0.010769697 0.22546591
000100 b9 11 e6 3d 77 2a 20 3e da ee 9a 3d 2f 57 cb bc
       0.11233849 0.15641199 0.075650886 -0.024821846
000110 a5 f0 21 3e 8c 41 f4 3b fd 9d 9f 3c 32 a8 ed bd
       0.15814455 0.007454103 0.019484514 -0.11604346
000120 be 3d 5f 3d 0b 36 6d 3e 00 48 ff bd 1a 8c cd 3d
       0.05450224 0.23165147 -0.12464905 0.10036488
000130 1c 1c 16 3e 38 bf 93 bd 18 4b ef bd 1f be 56 3d
       0.1465916 -0.072142065 -0.11684245 0.052427407
000140 b0 85 1d 3e 82 36 1f 3e 43 c9 3c 3d 2e b0 c8 3d
       0.15383029 0.15548137 0.046090376 0.097992286
000150 95 6a aa 3d e4 e6 3d be 79 c1 c4 bd 59 13 ca 3d
       0.0832111 -0.18545109 -0.096072145 0.098669715
000160 d8 d8 8b 3e 18 cb 0f 3e 9f e1 00 3e 17 7a 74 bc
       0.27313876 0.14042318 0.12586068 -0.014921687
000170 20 5a 02 3e b3 c2 18 bd 46 dd 0e 3e b2 f7 4e bd
       0.12729692 -0.037295055 0.13951597 -0.05052919
000180 9a 93 f1 bb 3f 50 b0 bc 25 ab f1 3d 59 cd 6a 3e
       -0.007372332 -0.02152264 0.11800221 0.22929896
000190 76 14 6e 3d ad 4b 14 3e 90 92 f7 bc 2c f3 84 3c
       0.05812498 0.14481993 -0.030221254 0.016229235
0001a0 ec 95 9e ba 36 19 58 3c d0 b0 a9 3d c8 3e bf bc
       -0.0012099124 0.0131896045 0.082856774 -0.023345366
0001b0 6a 24 a1 bd 94 70 08 be 86 c3 bc bd fe 01 d8 bd
       -0.078682736 -0.13324195 -0.09216981 -0.10547255
0001c0 49 e9 11 3e 7f da 61 3e 8e d2 5c 3d 9e 7d bf ba
       0.14249147 0.22056006 0.053911738 -0.001460958
0001d0 bc a6 27 3e fb a2 26 3b 59 ee 97 3d 76 61 b7 bd
       0.16372198 0.0025426734 0.07418508 -0.08954136
0001e0 78 4c 8d bd 89 07 47 3e 2c 07 02 3d 76 1d e1 3d
       -0.06899351 0.19436468 0.03174512 0.10991947
0001f0 42 cc 2f 3d 38 bf 00 be 77 c4 75 3e 09 27 9e be
       0.042919405 -0.12572944 0.24000727 -0.30889156
000200 d4 36 2a 3e 3a 31 17 be 9c ee 68 be 41 0e 67 be
       0.16622478 -0.14764872 -0.22747272 -0.22564031
000210 1c 6d 44 3e f0 3d e5 bd 4d cf 66 be ed cc 83 3e
       0.19182247 -0.11193454 -0.22540016 0.25742283
000220 e2 c8 84 be ac d6 ef bc 44 73 68 bd 18 8e f8 3d
       -0.2593451 -0.029277168 -0.05675055 0.12136477
000230 2d 49 3a bd 9d 5f 66 be f9 af 83 3e e9 d7 4f be
       -0.045479942 -0.22497411 0.25720194 -0.20297207
000240 fd 9b a2 3e 75 95 6b bd 15 ac 8d be a9 8b 2a 3d
       0.31759635 -0.05751558 -0.2767035 0.041637097
000250 6b 76 59 3e d0 4d af 3d 4e 28 65 3e 2a ae 50 be
       0.21236579 0.085597634 0.22378656 -0.20378938
000260 6b ed d2 3d e7 1e 60 be c8 ca e9 bd da 7b 04 3d
       0.1029919 -0.21886788 -0.114156306 0.032344677
000270 53 e0 87 be b1 e0 09 3e 8d 31 69 3e 06 99 9b 3d
       -0.26538333 0.13464619 0.22772808 0.07597546
000280 01 ad 90 3e 02 15 ad 3e da 1f 46 bc 9b 4b 88 3e
       0.28256992 0.3380509 -0.012092555 0.26620182
000290 02 2e 77 be d5 1f 92 bd 2d c8 6d be 9e e1 89 be
       -0.24138644 -0.07134978 -0.23220892 -0.26929945
0002a0 af f1 13 be 2f b2 59 bd d8 2c d0 bd 97 52 03 be
       -0.14447664 -0.053148445 -0.10164803 -0.12824474
0002b0 8b 14 1e be 87 e1 cb 3d 33 bf 92 be 27 9c ab 3d
       -0.15437524 0.09955125 -0.28661498 0.08379393
0002c0 09 6a 9a 3e 42 85 37 bc 8e a1 a9 bd d0 93 b9 3d
       0.30159023 -0.011201205 -0.08282767 0.09061396
0002d0 8b bb 02 3e c7 c3 62 be 29 f2 93 bd 81 ff ed 3c
       0.12766854 -0.22144996 -0.07223923 0.029052498
0002e0 92 22 7e be c9 e5 4e 3e 9a 5f 18 3e d6 d6 c2 3b
       -0.24817875 0.20204844 0.14880219 0.0059460206
0002f0 07 db ee 3d 8c c4 80 bc f1 1b 19 be c5 4d 8e 3d
       0.1166287 -0.01571872 -0.14952065 0.06948427
000300 e7 09 40 3d 60 4a a2 3d 2a f6 b8 3d f0 29 64 3e
       0.046884444 0.07924342 0.09031327 0.22281623
000310 0c dc cf bd 89 88 47 be fd e5 86 bb fc 7c 89 be
       -0.101493925 -0.19485678 -0.004116772 -0.26853168
000320 06 2d 85 bd ad d3 d0 bd 95 0d 07 be 74 4c b8 3d
       -0.06502728 -0.10196624 -0.13188775 0.08998957
000330 d6 93 06 be 82 5e 45 bd f8 f4 86 bd 2f 11 ab bd
       -0.13142332 -0.048185833 -0.06589693 -0.08352887
000340 da 8b d9 3b d4 89 4a bd cf 56 56 bd f2 79 01 3d
       0.006638986 -0.04944785 -0.05232888 0.031610437
000350 8a 18 05 3d ae d4 2c 3c 43 09 21 3e 09 f4 1d be
       0.032494105 0.010548754 0.1572619 -0.15425123
000360 66 1e fb bd 06 f5 07 3e 56 1f 1d 3e a2 11 9a 3d
       -0.122616574 0.13277063 0.15343985 0.075228944
000370 1c 98 3b be fe 64 f0 3d ac a0 fc 3d bb ff d3 bb
       -0.18319744 0.11738013 0.12335333 -0.0064696944
000380 dd e7 07 3e d6 98 2b 3d a7 2d 13 bd b1 3f c1 bd
       0.13272043 0.041893803 -0.03593221 -0.09435976
000390 bf 96 10 3e 40 b7 c4 3d a3 24 93 3c 7c 53 50 3e
       0.14120005 0.09605265 0.017961806 0.20344347
0003a0 32 13 87 3e 2b 5f a4 bd be 1a af 3c e9 1b a7 3d
       0.26381832 -0.08025964 0.021375056 0.0815962
0003b0 87 58 55 3e d7 a7 83 bd 02 88 3a 3e e7 c4 9c 3d
       0.20834552 -0.06428497 0.18215945 0.07654744
0003c0 2f de 24 be ff e7 54 be 66 9b ca 3c 35 2b 74 bd
       -0.16100381 -0.20791624 0.024732303 -0.059611518
0003d0 2d aa 25 be 66 0e 8a bb d8 29 3e be fe de cf bc
       -0.16178198 -0.004213142 -0.1857065 -0.025374886

lstm.weight_ih_l1 f4 [248, 62]
000000 aa 43 6f 3d 31 ea ed bd 0a d8 15 3c da cb f2 bc
       0.05841414 -0.11616934 0.009145746 -0.02963822
000010 ac b5 c6 bd e3 5b 03 bd ca bf a6 bd d0 da a9 3d
       -0.0970262 -0.032070052 -0.081420496 0.08293688
000020 f8 8d 0d 3e 4a 3f cf 3d 37 d1 18 3a ab 4c 65 3d
       0.13823688 0.10119493 0.0005829515 0.05598132
000030 05 34 48 bd 0e 4c 3b 3d 4c 21 44 bd 5d 6c b5 bd
       -0.048877735 0.04572683 -0.047883317 -0.08858559
000040 70 00 be 3d f5 e3 86 bd 3e fe 69 3d 20 54 03 be
       0.09277427 -0.06586448 0.05712723 -0.1282506
000050 9b 16 8b bd 97 62 30 bd 6d bf ce 3d 25 54 f7 3c
       -0.06791421 -0.043062773 0.10095105 0.03019149
000060 33 86 8a 3a 09 c7 33 bd dd 4b 2f bb 64 b1 9f 3d
       0.0010568559 -0.043890987 -0.00267481 0.077975065
000070 9c be 13 be c1 c9 95 3d 21 5a 31 3d a1 82 13 bc
       -0.1442818 0.07313872 0.043298844 -0.009003312
000080 5e a6 e9 bd 6f 53 ad bd 5e ea c5 3c 27 fe d8 bd
       -0.11408685 -0.08463179 0.024159607 -0.10595351
000090 7f 14 ee 3d b6 0d 0f be 72 02 9c 3d c0 d2 98 3d
       0.11625003 -0.13970074 0.07617654 0.07462072
0000a0 20 04 c1 3c ad a6 cd 3d 6f 79 b2 3c a0 0b 29 bd
       0.023561537 0.100415565 0.02178642 -0.041270852
0000b0 3f 7d 2d bd 43 2a 23 3e e1 ec 2c bd 2a 93 b3 3d
       -0.042355772 0.1593409 -0.042218093 0.08768304
0000c0 88 e4 d6 3d dd c3 7b bd 7e 2e 5b 3d 0c 71 5b 3d
       0.104928076 -0.061466087 0.053511135 0.053574607
0000d0 17 04 1d 3e 6a 95 42 bd 34 22 29 3d e3 a0 cc bd
       0.15333591 -0.047505774 0.041292384 -0.09991624
0000e0 27 78 1e bd 9a 30 5a 3c a4 3d b8 bd 5b eb 22 be
       -0.038688805 0.013317252 -0.08996132 -0.15910093
0000f0 d8 2e b9 3d 33 12 4a bc 01 7d 81 bd d8 25 08 be
       0.09042138 -0.012333441 -0.06322671 -0.13295686
000100 2f 4f 76 bd 9a 0b 81 be a1 89 31 3c ad 22 c4 3d
       -0.06013411 -0.25204164 0.010836036 0.095769264
000110 4a 7f b3 3b b4 dd 03 bd 27 db 05 be ed 57 52 3d
       0.0054778205 -0.032193854 -0.13071881 0.051353384
000120 1d 0e 22 be be 24 90 3d 12 3e 5f be d5 96 ae bd
       -0.15825696 0.07038258 -0.21801022 -0.08524863
000130 76 e4 e8 bc 7e e1 05 3e 6e 10 04 3d 24 71 17 be
       -0.028429251 0.130743 0.03224223 -0.14789253
000140 38 02 09 bc 93 85 e3 bd 74 e0 17 3e 3b 1a 91 bc
       -0.008362345 -0.11109462 0.14831716 -0.017712703
000150 3d ca 1b be 86 1a 86 bc f8 ec 51 bd 14 3e 44 3c
       -0.15213867 -0.01637007 -0.05125138 0.011977691
000160 0b b2 6e 3e d9 8e e0 bc cd 23 c8 3d bf bd 6a be
       0.23310106 -0.027411865 0.097724535 -0.22923945
000170 c6 30 df bd a0 a8 07 bd 32 d8 bd bd 82 03 83 3d
       -0.10897975 -0.033119798 -0.092697516 0.063971534
000180 68 bf a1 3a 7e 0a 7d 3d 6e 36 5f 3c 92 a2 ce 3c
       0.0012340369 0.061777584 0.013623817 0.025224004
000190 ad 7a 5d bb 42 45 0b 3e 2f 8b 7a bd b0 2a 60 bc
       -0.0033795044 0.13600639 -0.061167892 -0.0136820525
0001a0 99 70 1b be 53 57 f6 bd 40 15 41 bd af a3 84 bd
       -0.15179671 -0.120283745 -0.047139406 -0.06476533
0001b0 63 f3 93 3d bf da 05 be 8c 41 b7 ba 8e 72 cc bd
       0.07224157 -0.13071726 -0.0013981326 -0.09982787
0001c0 4b 70 ed 3c 42 c4 68 bb be c7 03 3e 6e 9a be bd
       0.02898421 -0.003551737 0.12869164 -0.09306799
0001d0 9c 25 49 bd 6b 54 be 3d f6 77 8f 3d b7 e2 21 be
       -0.049108133 0.09293445 0.070053026 -0.15809141
0001e0 f2 45 c3 3c f6 c0 0b 3d 91 ea 69 be 0b 36 3e 3d
       0.023837063 0.03411957 -0.22843386 0.04643826
0001f0 21 bf 89 bd f7 bf 6d be e7 11 89 bd 58 8c b5 bb
       -0.06725908 -0.2321776 -0.06692868 -0.005540412
000200 14 22 76 3d ed 3e 52 bd 3f 73 69 be 25 4e 45 be
       0.060091093 -0.051329542 -0.22797869 -0.19268091
000210 06 26 14 3c 5e 9a 32 bd 5f 3e d2 bd b8 15 44 3e
       0.009042269 -0.043604247 -0.102658026 0.1914891
000220 c9 8b 44 bd 90 69 e7 bd 0f ae 82 bc c2 2d fa 3d
       -0.047984872 -0.11299431 -0.015952138 0.12215759
000230 a9 cd 52 3d f8 33 c0 bd 31 a2 9f 3d d5 1e 19 be
       0.051465664 -0.09384912 0.077946074 -0.14953168
000240 be 85 15 3e a7 cc 12 be d6 d2 00 be 2f 89 97 3d
       0.146018 -0.14335881 -0.12580428 0.073992126
000250 dc a3 f5 3b 0d 26 23 be d3 ea e6 3d 02 a1 29 be
       0.00749634 -0.15932484 0.11275258 -0.16565326
000260 20 c5 c0 bc 08 d4 61 bd 0c 0a 27 be 46 3a a0 3d
       -0.023531497 -0.05513385 -0.16312426 0.07823615
000270 55 f0 81 be 9c ef 43 3e 1e 4d a1 3a 8a 5a 23 bd
       -0.2537867 0.19134372 0.0012306308 -0.039881267
000280 ed 69 71 3d 6e 4f 67 3d 07 7d 11 3e de 25 34 3e
       0.05893891 0.056472234 0.1420785 0.1759257
000290 fa 6f 3d be 25 f9 2c 3d fc 5e 2c be 68 52 2b bc
       -0.18499747 0.04222979 -0.16833109 -0.010456659
0002a0 8c 00 1c bd 5a 0c 54 3d d6 a4 cb 3d 11 d7 bc bd
       -0.03808646 0.051769592 0.09943549 -0.09220708
0002b0 a6 9b 44 be 9d 35 73 bd de e6 e9 bc 44 0f 29 3e
       -0.192 -0.0593773 -0.028552469 0.1650973
0002c0 b8 ea ab 3d 65 fd 65 3c f9 fc 27 bc ac 8f 24 3e
       0.083943784 0.014037465 -0.0102531845 0.16070431
0002d0 98 d4 6b 3e 19 07 e0 3d b5 ee e5 3d a9 51 85 3e
       0.23030317 0.10938854 0.112271704 0.26038864
0002e0 44 85 84 be 6a 03 4c 3d ec 0f 18 be 79 7d 76 3c
       -0.25882924 0.049807943 -0.14849824 0.015044563
0002f0 8f 58 15 3e 01 2a b2 3d d3 b9 c5 3d 98 b9 ec 3d
       0.14584564 0.08699418 0.09654584 0.11558837
000300 9b 93 90 bd 0a 16 93 3d cf ae 54 3a 3d b6 ed 3c
       -0.070594035 0.07181938 0.0008113207 0.029017562
000310 cf 8b f1 bc c7 50 11 bb 3f 29 b8 bd 82 fa 12 bd
       -0.029485611 -0.0022173391 -0.08992242 -0.035883434
000320 9d b5 01 bd e7 e0 8c 3c 75 62 fa bd be b3 29 be
       -0.03166734 0.017197086 -0.122258104 -0.16572472
000330 fd 20 8b bd 84 e2 94 bd fa 9b ae 3d 64 f6 9d 3d
       -0.067934014 -0.07269767 0.08525844 0.07713011
000340 f1 9d 9f 3d fd 70 b9 3d 0c bc 96 3d 77 f7 7c 3d
       0.07793797 0.09054754 0.07360086 0.06175944
000350 18 c7 2a bd 61 db e9 bd dd 97 21 3c c5 c4 c6 bd
       -0.041693777 -0.11418796 0.009862867 -0.097054996
000360 39 e0 b6 bd e9 60 40 3c 94 7a f0 3c 25 e3 c5 bc
       -0.08929486 0.011741855 0.029355325 -0.024156163
000370 ff 49 23 3d 3f 2c 09 bd a6 6c 3e 3e d6 21 bb 3d
       0.03986549 -0.033489462 0.18596134 0.09137313
000380 09 41 c2 bd 31 75 b8 bd 66 17 11 3e 6e d0 80 bc
       -0.09485061 -0.090067275 0.14169082 -0.015724387
000390 a3 8b ff 3a 52 f8 05 bc 3a 0e e9 bd c3 82 72 3d
       0.0019496571 -0.00817688 -0.113796666 0.059206735
0003a0 2c ab 99 bd f7 bb d0 bc 5b e5 dd bd 96 ac 12 bc
       -0.075033516 -0.025480254 -0.10834762 -0.0089522805
0003b0 a8 e5 33 bc 39 ff 4a 3c 41 64 35 3e 19 f4 02 bd
       -0.010980047 0.012389951 0.17714025 -0.03197107
0003c0 7a 63 ac 3d 86 dc d3 bc a1 0b 35 3c 55 62 8e bd
       0.08417411 -0.02586199 0.011050136 -0.06952349
0003d0 22 a0 46 bd 06 cd 04 3b ad 0f d9 bd 99 23 87 3d
       -0.04849256 0.0020263805 -0.10598693 0.065985866
0003e0 99 2e 9d bc 36 c2 14 be 77 2c 08 3d d7 cf 18 be
       -0.019187259 -0.1452721 0.03324553 -0.14923035
0003f0 d1 72 26 bd 2f 72 be 3d 34 41 af 3c ca c9 4f bc
       -0.04063684 0.092991225 0.021393396 -0.012682388

lstm.weight_hh_l1 f4 [248, 62]
000000 14 2f 23 3e a5 4b 2e 3e 37 51 e9 bc ae c0 15 bc
       0.15935928 0.17021044 -0.028481109 -0.009140177
000010 07 7b 02 bd df ba 34 be e4 33 0f be 82 41 8f bc
       -0.03185561 -0.1764941 -0.13984638 -0.017487291
000020 c7 37 1c be a2 26 0b be 0a cc 33 3e a0 d8 14 bd
       -0.15255652 -0.13588956 0.17558303 -0.036339402
000030 db e5 65 bd 8c db df bd 44 93 34 3e aa c8 83 3d
       -0.05612741 -0.10930547 0.17634302 0.06434758
000040 23 2c 12 be a4 2f 3b be f9 ae 18 3e d0 ef dd bd
       -0.1427465 -0.18279892 0.14910497 -0.10836756
000050 42 3e 8b bd 15 ff 2d bd 58 ee 91 3d 13 45 9b 3d
       -0.06798984 -0.042479593 0.071255386 0.07581534
000060 f0 98 53 3d d4 fe 0a bd e6 28 53 3d 43 79 e7 3b
       0.051659524 -0.03393443 0.051552676 0.007064016
000070 0a 53 47 3e a3 d1 27 bd fa 5d 8e bb 11 bb 1d bc
       0.1946527 -0.04097141 -0.004344699 -0.00962712
000080 5b 0d 8a 3c 67 03 67 3d 06 a3 dc bd 48 0a 8b 3c
       0.016852072 0.05639973 -0.10773282 0.016972676
000090 f8 62 ec 3d e3 37 b4 ba 94 17 57 bd e4 da 07 3d
       0.11542314 -0.0013749566 -0.05251272 0.033167735
0000a0 f7 a1 18 be 0f 64 3b 3e 9f fd f8 3d fd 06 3d 3d
       -0.14905535 0.18299888 0.121577494 0.046149243
0000b0 aa d7 12 be ca 3a eb bd 4c 5f c9 3d 1b da ce bc
       -0.14340082 -0.114858225 0.098326296 -0.025250485
0000c0 35 42 0d bd dd 42 20 3e 25 06 34 be c2 36 c7 3d
       -0.034486968 0.15650506 -0.17580469 0.09727241
0000d0 7d 5f 00 3e 90 4b 1a 3e 04 80 1e be 29 b0 16 bd
       0.12536426 0.15067887 -0.15478522 -0.036789093
0000e0 f3 ca b2 3c 6a de 05 be b8 22 9c bc f9 e4 56 3a
       0.02182529 -0.13073125 -0.019059524 0.0008197572
0000f0 cc 96 29 be 5d bc 26 be 93 e4 40 3e e3 2a 4d bc
       -0.1656143 -0.16282792 0.18837194 -0.012522432
000100 b9 d2 c0 3c 65 92 2b bb 9b f6 23 3e d8 de 3d be
       0.02353798 -0.0026179787 0.16012041 -0.1854204
000110 aa 20 45 3d e2 f7 8c bd 51 bd 38 be 6e 56 19 be
       0.048126854 -0.068832174 -0.18040968 -0.14974377
000120 16 08 0e bd ec 07 5b be bb 80 fe bd 39 15 01 be
       -0.03467568 -0.2138974 -0.12426897 -0.12605752
000130 b7 e5 de bc 35 0b d3 3d 51 ec 01 be 91 57 ad bd
       -0.027209146 0.10304872 -0.12687804 -0.084639676
000140 f7 85 cc bc bf 7b c5 bd 53 ee 61 bd ed 7a be bd
       -0.024966223 -0.09642743 -0.055158924 -0.0930079
000150 88 47 a8 bd aa 78 84 3d 32 80 05 3e 72 1f b6 3d
       -0.082167685 0.06468327 0.13037184 0.088927165
000160 0c 6a 98 3c e6 bb e1 3d 46 22 30 3e 3b 6b 6d 3d
       0.018605255 0.11022167 0.17200574 0.05796359
000170 1c 1c 1b 3e da 91 59 3e 71 90 c2 bd fa de 43 bd
       0.15147442 0.21247044 -0.09500206 -0.04782007
000180 1a f7 48 be d3 c7 f7 bc b3 95 20 3e eb fe 0d 3e
       -0.19625512 -0.03024665 0.15682106 0.13866775
000190 ba 57 79 bd e9 5b 12 3d e3 11 8c 3c 70 d7 0c 3e
       -0.06087468 0.035732184 0.017098373 0.13754058
0001a0 50 f1 5e 3d e6 04 3c 3d 13 3f e9 bd 9d e1 6b bd
       0.054429352 0.04590311 -0.113889836 -0.05758821
0001b0 00 d6 b6 3d 0b 32 a1 bd 74 df 90 3d c9 f3 61 3d
       0.08927536 -0.07870873 0.0707387 0.055164132
0001c0 e8 b8 fc bc 86 7b f2 3d 40 9a 34 3e 35 c4 a6 3d
       -0.030849889 0.118399665 0.17636967 0.08142892
0001d0 08 ab 47 be 23 ea 12 3d a3 ea 9f bc 31 8d 5a 3c
       -0.19498837 0.03586782 -0.019521063 0.013339327
0001e0 bd e6 3d 3e 14 51 6b bc c8 3c 70 3d 89 9b 2b be
       0.18545051 -0.014362592 0.058651716 -0.1675855
0001f0 56 a8 52 3d 90 a0 04 3e 38 2f 57 3c e8 df 46 bc
       0.05143007 0.12951875 0.013133816 -0.012138344
000200 fc eb c6 3d 1a e1 b2 bd 6e 92 90 3c 09 fd 6c bd
       0.09712979 -0.08734341 0.017647948 -0.0578585
000210 40 33 28 be bb 21 65 3d 68 9a 7b 3d d3 df ff 3c
       -0.164258 0.05594037 0.06142655 0.031234657
000220 6d 3d ba bd 3e a7 e4 bd aa 62 09 3e 2e 77 16 3e
       -0.09093747 -0.111647114 0.13416544 0.14693901
000230 39 3a 9e bd 7c 7e 65 3c af 0a 1e 3e 75 1b 90 bd
       -0.07725949 0.014007207 0.15433763 -0.07036487
000240 e9 86 07 be e6 3f 1d be ad c9 99 bd 08 44 58 3d
       -0.13235058 -0.15356407 -0.0750917 0.052799255
000250 38 ed 9c 3d dc a9 01 3e f3 d0 23 bd f3 c6 85 bd
       0.076624334 0.12662452 -0.03999419 -0.06532087
000260 71 7d 2a bd 5b d6 da bc 7d 73 b2 3d 5f cf 0c 3e
       -0.041623536 -0.02671354 0.08713434 0.13750981
000270 4b 3e 48 be a1 ae 6b 3d c6 70 42 be d8 2d e7 bd
       -0.19555013 0.057539586 -0.18988332 -0.11288041
000280 11 7a 9c 3c 8b eb b3 3d 41 43 08 3c 45 66 74 3d
       0.019101175 0.08785161 0.008316816 0.059667844
000290 4b a0 2c 3d 83 ae 35 3e 95 14 1f bd 71 4e 3f 3e
       0.042145055 0.17742352 -0.038837988 0.18682267
0002a0 4b 87 23 be 2d e8 0f be 40 e2 e4 3d f5 05 24 3c
       -0.15969579 -0.14053412 0.11175966 0.010011186
0002b0 c1 24 06 3e 6f 04 32 3e 15 63 e6 bc d9 de e9 bc
       0.13099958 0.17384504 -0.028123418 -0.028548645
0002c0 3e 57 30 3e 15 2a 0e 3e ab aa 2f be e2 65 18 3b
       0.1722078 0.1388324 -0.17154948 0.0023254086
0002d0 81 c5 e1 bd 82 17 ee bd 46 1e 02 3e 8e 84 91 3b
       -0.11023999 -0.116255775 0.12706861 0.0044408506
0002e0 5c 95 62 bd fc 29 6a 3c c7 52 4d 3e a8 fb 83 3d
       -0.05531822 0.014292236 0.20051108 0.06444484
0002f0 82 0c 48 be 78 4e 46 3c 3b 0b 2f 3e 6a 63 cd 3c
       -0.19536021 0.012103669 0.17094128 0.025071818
000300 3d aa 6f bb 94 6f 21 3d 3a ad 34 be b3 3d 35 be
       -0.0036569976 0.03941305 -0.17644206 -0.17699318
000310 30 b9 f9 3d f4 f1 41 bd ab ca 57 be c0 cf 08 be
       0.12193525 -0.047349885 -0.21073405 -0.133605
000320 88 52 2d 3e e0 bf 4f 3e 75 03 f1 ba 1a d6 cd bd
       0.16926014 0.20288038 -0.0018387871 -0.10050602
000330 37 b5 89 3d 8c 9d 45 bc ca d9 8b 3d 0b fc e7 3c
       0.06724017 -0.012061488 0.06828649 0.028318426
000340 18 41 06 be e9 31 4a 3e d7 e8 ca 3c 21 81 de 3c
       -0.13110769 0.19745602 0.02476923 0.027161183
000350 7e f9 98 bc 69 bc 4e bd 68 ba 1e 3e b7 5d 53 3e
       -0.018673655 -0.05047265 0.15500796 0.20641218
000360 72 11 33 3e fa a1 77 3d 3c 21 f2 bc 01 71 d8 bc
       0.17487124 0.060457207 -0.029556863 -0.026421072
000370 d7 7d 25 be 05 c4 53 be 6d 49 03 3e 41 14 04 3e
       -0.16161285 -0.20680244 0.12820978 0.12898351
000380 99 be 8d bd 8c 03 4a 3e c7 ab 4d be ad e4 20 3e
       -0.06921119 0.19727916 -0.20085059 0.15712233
000390 8e 21 65 3d fd 65 90 3d 36 81 78 bd 98 53 d8 bd
       0.055940203 0.07050703 -0.0606701 -0.10562819
0003a0 fa 57 43 3d 32 e0 4c be 55 60 dc 3c 8c 83 0f 3e
       0.047691323 -0.20007399 0.026901403 0.14015025
0003b0 11 06 67 bc 0d 63 21 3e 78 6a 05 3d 37 8b 23 3e
       -0.014100567 0.15760441 0.03257224 0.15971075
0003c0 e4 b7 2f be 61 cb 9f bd 1f d6 bf bd 11 4a 18 bb
       -0.17159992 -0.07802463 -0.09367012 -0.0023237506
0003d0 14 f4 6d 3d d6 2a fa 3d 8a 1a 2a be 9d ef 2c be
       0.0580941 0.122152016 -0.16611686 -0.1688828
0003e0 43 66 b1 3c 1b 73 31 3e c5 0d 90 bc 43 17 3a 3d
       0.021655207 0.17329066 -0.01758469 0.04543234
0003f0 f1 7f 06 bd 03 7f c0 bb fa 57 30 be 7a a7 c9 bc
       -0.03283686 -0.005874516 -0.1722106 -0.024615992

lstm.bias_ih_l1 f4 [248]
000000 13 d7 42 3e 9b 76 5d bc 07 ac 90 bd 73 2d 8d 3c
       0.19027357 -0.013517047 -0.070640616 0.017233586
000010 3b 00 1f 3d 5e 7d dd bb b8 37 bb bc 1c 61 c4 bc
       0.03881858 -0.0067593297 -0.022853717 -0.023972087
000020 66 c6 1a 3d 86 e6 40 3d 9a e6 73 bd 8e 41 16 3d
       0.037786864 0.047094844 -0.05954609 0.03668361
000030 09 92 87 3d 9b 55 ff 3d de 00 89 bd f8 8b e9 3d
       0.06619651 0.124675 -0.066896185 0.1140365
000040 9b 36 29 3e f4 fd 79 3d ec 17 66 3c 38 6e f8 3c
       0.16524737 0.061033204 0.014043789 0.030325994
000050 47 62 9e 3d 0e cd 23 3e e7 7a da 3c 97 c2 d8 3d
       0.07733589 0.15996191 0.026669933 0.1058399
000060 a4 cd 03 be 2e e4 ca bd f9 b9 7b bd e1 a6 19 3e
       -0.12871414 -0.09906803 -0.061456654 0.15005066
000070 56 cb 3b 3e 6b e2 9c bd 76 f0 23 3e 38 64 99 bc
       0.18339285 -0.07660373 0.16009697 -0.018724546
000080 5f 4b 06 3e 04 61 2c 3e d8 e4 19 bc 20 1f 33 bb
       0.1311469 0.16833884 -0.0093929395 -0.0027331784
000090 15 a5 86 bd 4e 5c ce bd 60 1d 29 bd ab 37 12 3e
       -0.06574456 -0.100761995 -0.04128778 0.14279048
0000a0 db c6 bd 3d 40 96 5e bd b9 04 29 3e 5e 2f 23 3e
       0.09266444 -0.05434251 0.16505708 0.15936038
0000b0 74 96 89 3d f8 10 3b 3c 07 9a b2 3d 3f 75 d8 bc
       0.0671815 0.01141762 0.08720785 -0.026423095
0000c0 34 c0 7e 3c 84 4c cc 3d 62 03 22 3e 16 94 85 3d
       0.0155487545 0.09975532 0.15821603 0.06522386
0000d0 80 a2 32 bd ca e5 83 bb fb 90 87 3c d7 7f 88 bd
       -0.043612003 -0.0040251957 0.016548624 -0.066650085
0000e0 56 ef 7d bc 12 6a 61 3c 08 3a b6 3d 11 4b 0d be
       -0.015498957 0.013758199 0.08897787 -0.13798167
0000f0 17 64 7b bd 42 48 90 bd 33 d7 ad 3d c1 43 a6 3d
       -0.06137475 -0.07045032 0.084883116 0.08118392
000100 f5 70 19 bd 42 a5 4f 3c c2 6a ba 3d 72 9e d6 b9
       -0.03746124 0.012673678 0.09102394 -0.00040935312
000110 11 07 f5 bb 96 a6 a5 3d eb 9b 4d bc 56 00 aa 3d
       -0.007477649 0.08088414 -0.012549381 0.08300845
000120 85 79 02 3c 32 2c 1f 3e 87 42 55 3d be 08 d2 bd
       0.007963543 0.15544203 0.0520654 -0.10255574
000130 3c 0b ee 3d ee c3 14 bc 6b 25 64 3d 8f ee 90 3d
       0.116232365 -0.009079916 0.055699747 0.070767514
000140 0c c1 80 3c 23 47 f8 3d 5b 38 53 bd 01 4e d1 3d
       0.015717052 0.12122943 -0.051567417 0.10219956
000150 e7 98 92 3d 71 57 de bc bb 39 ba bd 57 b1 eb bc
       0.0715807 -0.027141305 -0.090930425 -0.028771086
000160 f0 7c de 3d d6 8c 02 3e ed 4f 13 3d aa 7f a0 bd
       0.10863674 0.12749037 0.035964895 -0.0783685
000170 d6 7d 9b 3d 16 43 59 bc e5 97 b2 3d a9 a6 a0 3c
       0.07592361 -0.013260623 0.08720378 0.01961072
000180 57 f2 25 3e 35 53 f9 3d ff 02 4f 3d ac 60 d9 3c
       0.16205727 0.121740736 0.050539967 0.026535355
000190 a8 b7 d7 bc 42 08 12 bd 52 4b b6 3d 0f a2 02 3e
       -0.026332691 -0.035652407 0.08901085 0.12757133
0001a0 c3 76 23 3e 3f 1c 90 ba 64 16 ed 3c e2 57 ab bd
       0.15963273 -0.0010994746 0.02894134 -0.08366372
0001b0 74 01 97 bb 73 b9 8e bc ee fa 7e bc e1 94 e3 3c
       -0.0046083275 -0.017422413 -0.015562756 0.027780952
0001c0 2b bc 61 3c 36 65 78 bd 74 57 ec bc 07 3b 7a bc
       0.013777773 -0.060643397 -0.028850295 -0.015272862
0001d0 46 50 a0 3d 3e 97 24 3e 48 38 1d bd c6 c8 8e bd
       0.07827811 0.1607332 -0.038383752 -0.06971888
0001e0 54 0c ce 3d 86 53 85 bd 1d 36 88 bd 4b 7e c2 3c
       0.10060945 -0.065100715 -0.06650946 0.023741862
0001f0 3e 13 3b 3e 4f 4c f9 3d 4e 84 cb bc 68 92 83 bd
       0.18269059 0.12172758 -0.024843361 -0.06424409
000200 b2 55 40 3e 3f fe 24 be 54 dd bf b9 fa 44 37 be
       0.1878269 -0.16112612 -0.0003659526 -0.17897406
000210 ff b3 37 be fe f3 3f be 82 15 3a 3e b0 34 09 be
       -0.17939757 -0.1874542 0.18172267 -0.13399005
000220 2c a6 f4 bd 53 b5 9a bd b4 49 42 bd eb 05 00 3e
       -0.11945757 -0.07554116 -0.04743357 0.12502258
000230 5e 3f af 3c 5b 63 63 bd 04 37 79 3d 69 0d 1f bb
       0.02139252 -0.055514675 0.060843483 -0.0024269468
000240 a0 fd 24 3e ae 64 ef bd 0c e8 ba 3c 76 c9 4a 3e
       0.16112375 -0.11689125 0.022815727 0.19803414
000250 cd bd 9d 3c 4f 5d 39 3d ba 94 21 3e ce 22 05 3e
       0.019255543 0.045255 0.15779391 0.13001558
000260 ce 83 4a 3e 62 cf 9b 3d 4f aa 91 bc 52 91 ef 3d
       0.19776842 0.076079145 -0.017781405 0.116976395
000270 e9 b5 bf bd 79 5c ef 3d 74 ed 11 3d 26 df 07 be
       -0.093608685 0.1168756 0.035626844 -0.13268718
000280 cc 71 a2 bc 0d 53 c9 ba 22 b2 ea bc 80 e7 38 bd
       -0.019829653 -0.0015359834 -0.028649393 -0.04514265
000290 bf 78 33 be ba 66 59 3d b9 4e 08 3d da cb 34 bb
       -0.1752653 0.053076483 0.0332782 -0.0027587325
0002a0 de 28 1a be 53 85 60 bd e1 e0 3e 3e c8 5a b4 bd
       -0.15054652 -0.054814648 0.18640472 -0.08806378
0002b0 bc 4a 53 3e f0 9c 46 3e a1 8c 0c be c7 18 8a 3d
       0.20633978 0.19395804 -0.1372552 0.06743007
0002c0 c3 2b b6 3d fb 98 2d 3e d2 53 64 bd cb 11 12 3d
       0.08895066 0.16952889 -0.055744 0.0356615
0002d0 27 52 4f be 2c ab 8e 3d 17 e3 ec bc 08 a1 49 3d
       -0.20246182 0.06966242 -0.028916879 0.049225837
0002e0 45 36 a4 bd 95 ca 50 be f8 80 51 3e 25 6f 47 3d
       -0.080181636 -0.20389779 0.20459354 0.04868998
0002f0 d7 d6 2f 3e 17 a7 1e 3e af d5 b8 3d 2d 3b b0 3d
       0.17171799 0.15493427 0.09025132 0.08605037
000300 62 61 b1 3d e9 e3 24 3e ad 0b 27 3c 4e c4 01 3e
       0.086611524 0.16102566 0.010195655 0.1267254
000310 bc 57 a5 bd ab 7e bc bc 1d 37 83 bc 08 7c 64 3c
       -0.08073375 -0.023009619 -0.016017491 0.013945587
000320 00 88 86 3c 99 c2 d6 3b 0b 8a 9b 3d f8 e3 31 3e
       0.016422272 0.0065539596 0.07594689 0.1737212
000330 21 ae ff bb fe 4b 90 3d 84 3e 8b 3c 43 36 21 3c
       -0.00780274 0.07045744 0.016997583 0.009839597
000340 d1 fe 31 be 65 e4 4c bd 8b 16 4a 3c 19 23 27 bc
       -0.17382361 -0.0500225 0.012334476 -0.010201239
000350 27 22 20 3e 9b ca 9b 3c 38 cc 33 3e b3 90 81 bd
       0.15638028 0.019017508 0.17558372 -0.06326427
000360 c0 35 ae bd 1b a1 58 3e 00 7d 01 3e 48 f0 a0 bc
       -0.08506346 0.21155207 0.1264534 -0.019645825
000370 8b 50 d8 3d 51 44 50 3c 94 b6 14 be 96 2b 1a be
       0.10562237 0.0127116 -0.14522773 -0.15055689
000380 6c a7 1d 3e 91 6b da 3d 5b 31 6d bd 84 99 1d 3e
       0.15395898 0.10665048 -0.057908397 0.15390593
000390 39 78 9b 3d 39 8e 05 bd 9e f4 47 3c 40 eb df 3d
       0.0759129 -0.032606337 0.012204317 0.10933542
0003a0 ee 78 c8 3d 8a 37 44 3e 35 e5 52 3e 69 60 44 3e
       0.097886905 0.19161811 0.20595248 0.19177403
0003b0 6f a0 af 3d 90 7e 2a 3e e5 8c 85 3d 6a e8 43 3d
       0.08575522 0.16649842 0.06521014 0.04782907
0003c0 28 77 e7 3c 6d df 31 be 07 20 b2 3c d6 75 fb 3b
       0.02825506 -0.17370386 0.021743787 0.0076739592
0003d0 5c b5 95 3d c8 d4 ab bd 86 e1 e1 3d 60 2b 20 3e
       0.07309982 -0.08390194 0.11029343 0.15641546
