models/gru_trial_11.pth (torch, 413630 bytes, 9 tensors)

gru.weight_ih_l0 f4 [297, 44]
00000000: 8f95 253e 51e7 d8bd a828 653d e69b 89bb
00000010: b8dc 30bb 574a b03d 94e3 3dbd bd01 2c3e
00000020: b170 9ebd cb12 8c3d 582a 5bbd b658 653c
00000030: fb10 bfbc 816a ed3c 653b 973d 0c03 6bbd
00000040: 33d3 3e3e 4579 c6bd ec93 533e d491 2ebd
00000050: 68bf 143e fc92 a6bc c677 ab3d 4e95 b9bd
00000060: a59f 7bbd ee9b d63d 6c2b 55bd ed49 6abc
00000070: c369 873d b866 1bbe 5c37 b1bd 3c6f 50be
00000080: 4f5f 223e cd1e e0bd 420b 7dbd 1472 98bd
00000090: 39dc e53d 564b 9abd eb28 663e 4906 123e
000000a0: 7782 9ebd da53 adbd f681 1d3e a28a 48bd
000000b0: 3b67 593d 9ab8 a4bd 6807 d53b fe46 3a3d
000000c0: 79ff 04be c68c 173e 7a9e e13d 8152 0c3e
000000d0: a4fc 13be 453c 473e d005 fa3d 2032 90bc
000000e0: b629 f43d 9e0e 52bd 759b a03d 9248 b03e
000000f0: 5ab2 063c 1817 103d c97b c7bd 3fac 1d3e
00000100: cfb4 cebd a5c8 3d3d e8a5 503d 7928 73bd
00000110: 78bd 7b3c 4a25 df3c 3113 053e e41f 2f3d
00000120: 9a66 0a3e a530 0cbe bbbb 5cbe 7002 9a3c
00000130: 3a57 483d 7177 18be 1fbf 6c3d b9fc bc3d
00000140: 449b c0be 62e0 043e ab9a 36be 70ee 713e
00000150: 750a 2a3e 57c4 f9be 847c 143e b268 7e3e
00000160: e1e9 c7bc 8f26 6bbe c187 6abe ccc7 6b3e
00000170: 7ba9 e93d 19fe d73d 1125 12be f1a7 c03d
00000180: 103b 03bd e0d9 a1bd dddf 14be 7c91 9c3e
00000190: 6d92 71bd cffd 103d 70f9 cdbd 9fe6 01bd
000001a0: f8e4 2e3e 4df7 133e c130 a0bd 9f15 77bd
000001b0: 6ef8 593e 5251 023e fad8 113e fdde 413e
000001c0: 0937 463e 9cf9 35bd 0a76 8abc 55df 06be
000001d0: 3322 373e eeaa ff3d c540 633e 3c70 83bd
000001e0: b293 a03d 6a7d 8dbd 7ea6 eabb d64f cb3d
000001f0: 35c9 a73c abbc 183c 547e 2c3d ffe0 78be
00000200: 8aac f6bd 38e6 553e 5a63 14be c4a6 9e3c
00000210: fb87 473c 59d7 7fbd 1593 073e dbad b3bc
00000220: e8db 33bc 03ac a43b a32f b03d 4862 233d
00000230: e2f0 883c fd96 323e 8234 19bd 585c f33b
00000240: 1c18 2ebc 6e97 8dbb 1464 8c3d c32f 2dbe
00000250: 6eb8 02bd c55e c93d abdb 1b3e 7da7 d63d
00000260: c894 3b3e 921a 6bbd 27f6 53bd 180f e4bd
00000270: 69fa 403e ca07 033d 4ce2 d53b 03a4 ae3d
00000280: fe45 823c d70b 88bd dd42 a9bc 5957 debd
00000290: 58c4 d93d 4dac 27be ced1 c2bb e8d6 96bc
000002a0: eec0 263d 0199 2ebd 39e9 0c3e c16b e73d
000002b0: 02c8 b5bd 701d 38be 3c8a 2eb9 f806 433d
000002c0: b5fb 093e e7dc 6c3c d0c9 1e3d 220e 443d
000002d0: 424f 68bc f597 0fbc ab81 65bd 7736 adbd
000002e0: 2cbe a1be 1c6a 3d3e a314 4bbd 2b2b 5e3d
000002f0: 1e9f f33d 5105 1abd 06c1 ba3d d1cd 793e
00000300: 06aa fcbd 0159 543e ade5 1cbc 6a9f 6b3e
00000310: f7a5 2cbe f722 7dbd 8d1e 41bd 4542 923c
00000320: 32b7 003e 49f0 e7bd 2f8f f7bc 85c1 fcbd
00000330: e8d3 f13c 5b0e 513e 3b6b b6be b15c b83d
00000340: 4812 0dbd 5be7 9fbe 0bf0 593e 1545 803c
00000350: 867d 23be 73d6 373e 0951 8abe c7a5 b83e
00000360: 9bf0 c43e eed7 afbe 20ad 273e cd27 243f
00000370: ea5f 4f3e caa2 16be ba82 ff3c 93a1 903c
00000380: 39bf 353d 96d3 7fbd b7bf a83d 9a42 923d
00000390: a150 ee3c 10b6 12bd 8f7c 21bd 9061 94bd
000003a0: 93b6 483d b549 903d 90c1 4f3d 69a9 05bc
000003b0: a44d e13c cb7d 48bd 5b4b dc3c 9beb b0bd
000003c0: a529 3f3e 3ac2 1ebe 1760 613c 704d 123d
000003d0: ae7e 3ebd 164e f63d 6447 03bd 2e95 f43d
000003e0: c6fd ad3c 9f03 05be c545 31bd 9362 dcbd
000003f0: 68a1 833e a385 773d 1413 2b3b d0c8 8a3d
0.16170333 -0.10590995 0.055946976 -0.0041994927 -0.0026987027 0.08607929 -0.046359614 0.16797538
-0.07736338 0.06839522 -0.05350718 0.013998201 -0.023323527 0.02898145 0.073843755 -0.057375953
0.18635254 -0.09691099 0.20661896 -0.04261954 0.1452614 -0.02033376 0.08372454 -0.09061681
-0.061431546 0.1047896 -0.052043363 -0.014299852 0.06611969 -0.15175903 -0.08653137 -0.20354933
0.1585667 -0.10943375 -0.061778314 -0.07443634 0.11223645 -0.075339004 0.22476546 0.1426021
-0.07739728 -0.08463259 0.15381607 -0.048960336 0.053076964 -0.080430225 0.006501127 0.04547786
-0.1298808 0.14799795 0.11016555 0.13703348 -0.14451844 0.19456585 0.1220814 -0.017602026
0.11922018 -0.05128347 0.07842151 0.34430367 0.008221233 0.035178274 -0.09740407 0.15397738
-0.1009308 0.046333928 0.05093947 -0.05936477 0.015364997 0.02723946 0.12995602 0.042755023
0.13515702 -0.13690431 -0.21555988 0.01879999 0.04891131 -0.14889313 0.057799455 0.092278905
-0.37618458 0.1297622 -0.17832439 0.23626113 0.16605552 -0.48782608 0.14500624 0.24844626
-0.024403514 -0.22963928 -0.22903349 0.23025435 0.11409279 0.10546512 -0.14271952 0.09407032
-0.03203875 -0.079028845 -0.14538522 0.30579746 -0.058977533 0.0353983 -0.10057342 -0.031714078
0.17079532 0.14449807 -0.07821799 -0.060323354 0.21286175 0.12726334 0.14242926 0.1893272
0.19356932 -0.0444275 -0.016901989 -0.13171132 0.1788414 0.12483774 0.22192676 -0.064178914
0.07840671 -0.069086865 -0.0071609607 0.09927337 0.020481685 0.009322326 0.042112663 -0.24304579
-0.12044628 0.20888603 -0.14491025 0.01936663 0.012178416 -0.06246123 0.13239701 -0.021933487
-0.010977723 0.005025388 0.08602836 0.03988865 0.016716424 0.1744041 -0.03740359 0.0074267797
-0.010625865 -0.0043210303 0.06855026 -0.16912751 -0.031914167 0.09832529 0.15220515 0.104811646
0.18318474 -0.057398386 -0.05174842 -0.111356914 0.18845524 0.03198985 0.006527221 0.085273765
0.015902516 -0.06642883 -0.020661766 -0.10856504 0.10633153 -0.16374321 -0.005945421 -0.018413022
0.040711336 -0.042626385 0.13760842 0.11299849 -0.08876039 -0.1797998 -0.0001664543 0.047614068
0.13474925 0.014456964 0.038766682 0.04786504 -0.014179053 -0.008764257 -0.056031864 -0.08457654
-0.31590402 0.18497509 -0.049580228 0.054240387 0.118955836 -0.037602726 0.091188475 0.24394919
-0.12337117 0.20737077 -0.009576243 0.2301003 -0.16860186 -0.061800923 -0.047148276 0.017853865
0.12569883 -0.11325128 -0.030219642 -0.123415984 0.02951999 0.20415632 -0.35628685 0.090020545
-0.034441262 -0.31231198 0.21282975 0.01565794 -0.15965852 0.179529 -0.2701495 0.36063978
0.38464817 -0.3434443 0.16374636 0.6412323 0.20251432 -0.14710537 0.031190265 0.01765517
0.044371817 -0.062457643 0.08239692 0.071416095 0.029091181 -0.03581816 -0.03942543 -0.07245171
0.04900224 0.070453085 0.050721705 -0.008158066 0.027502842 -0.04894809 0.026891401 -0.08638688
0.1866823 -0.15503779 0.01375582 0.03571838 -0.04650753 0.120266125 -0.032050505 0.11942516
0.021239173 -0.12989663 -0.043279428 -0.10760989 0.2570908 0.06043018 0.00261039 0.06776583

gru.weight_hh_l0 f4 [297, 99]
00000000: 6b62 0f3e bfa3 eebc e8cf 2a3d 6e66 66bd
00000010: 70d6 60bd 5fb2 583d 3704 f6bd f8ac 0d3e
00000020: ef77 0f3e b3e6 a8bc 2b7b c23d c444 69be
00000030: ca2f 9a3d ffda 963d b973 73bd a6ef 6dbd
00000040: 68bf ffbd 7e77 7dbd da4a 07be de1d 1dbd
00000050: 5450 cabd 2d36 123b 710e 29be 52cb 61be
00000060: f75b 00bb eb28 953d c122 38be 4a74 a03d
00000070: 50d6 5f3d 8269 34bd 107e 783d abe0 563d
00000080: 0df2 1f3e e3d5 1cbe a625 003e 38f9 9bbc
00000090: 872e dbbd 9ce7 0fbd a1a5 1dbe b8d1 a8ba
000000a0: 95fb 9ebc 0444 0abe 8874 8dbd 1efe e33c
000000b0: 4c91 fc3d b88f 543e df99 6b3e 9ef1 03be
000000c0: c6b3 863d 9717 13be 3d66 93bc eac6 49be
000000d0: 8712 5b3d be32 8abd 8b0e e7bd 09da 2e3e
000000e0: 632b 833d 63d3 1a3e 97ae 723d abec 4bbe
000000f0: 844e 13be 5027 a8bc 07d6 f9bd 964c 4bbe
00000100: ccd7 20bd 772a 4fbc b2e8 143e 06ef 6d3d
00000110: 8b78 803b a72f 88bd a922 26bd 631a 4d3d
00000120: 33ec 163e a638 9cbd 0c33 a13d d5ed cbbd
00000130: 366e 20bd 820d 4ebd 1d32 4d3e 4692 4d3e
00000140: b360 5a3d cf49 60bd 908b 1e3e bbaa 1c3e
00000150: a148 493d a5e2 233e 4cca cd3d b773 4bbe
00000160: e78f 1dbb 92aa 173d d307 25bd 5707 7abd
00000170: 655b 9d3e 5c94 8fbd d067 9d3c cae2 613e
00000180: 275c 00bd 8eea 473e 8890 5bbe 3cfc e2bd
00000190: 62a9 0fbe 38b8 953e d355 b43d ae68 a83d
000001a0: 090f 82be 35cb 8b3e fccd 85bd 3e52 cebd
000001b0: 9c79 7c3e fe24 113d 629d ae3e 063f c93e
000001c0: 9e1d 843e eaa9 8f3d 3189 813c d15b e03e
000001d0: 4e72 733e dbf3 4c3e abbe 3e3d c0af b23b
000001e0: 5600 6c3c c795 01be e508 803e b657 66be
000001f0: e222 a23c 5587 973e 947d e6bd 28b6 763e
00000200: e45d 2e3e 1618 3abd 958b 74be 224d 1dbe
00000210: 0c17 403e 321f 2fbd e1d1 76bd d1b6 18be
00000220: 6842 af3e 9069 0b3e 0572 5f3e c422 703a
00000230: a5d6 153e e4ba 28be f330 983d 03e1 19be
00000240: c2d0 dabe 15a8 f43c d9f9 363e 0de3 aebe
00000250: 8d44 a83e d6a4 133e 2378 89bd 9f41 60be
00000260: 5f1b fe3d 0690 873d 2e93 a9be 4023 80bd
00000270: cc75 eebd 4e2f b2bd ce11 85be 8040 003e
00000280: 63ec a13d 20fe a63d b561 b73d acd7 0cbf
00000290: 9d2d 123d 30cf 59be 204d 26be ba53 d43d
000002a0: 7f95 683e 1a09 08be 6682 94bd 7e43 13bc
000002b0: 4c47 bfbd 446d 8dbe d357 703d 9e88 dc3c
000002c0: ecec 34be 2e3c f53d c870 81be 0848 0d3e
000002d0: f26e 9bbe f45b 1bbe 0f45 ab3c 01c0 4b3e
000002e0: cf6b d0bd ad8a aebe 5d60 573d 0ad5 9cbb
000002f0: 7c9c e33d c3ec b4bd 1323 9a3d 2df4 93bd
00000300: ff68 f13d dcbf 80bd 3ff7 04be ee37 2bbe
00000310: f6ba ae3d 9a65 b3bd 7958 27bd 5329 eebd
00000320: 5b1d 18be 3a82 c53d ac8a 99bd 26b4 c4be
00000330: 81b3 2a3e a647 2e3d f0ed 98be 1af8 973e
00000340: 31a9 c73d dc0f 033e c520 053d be51 553e
00000350: 92df 8d3e 9c7c 2e3e 1fd0 463e b33c 103e
00000360: c77c 09bd 2f0f e33d b5c3 e73d 06c5 17be
00000370: d450 a73c 31ab c03e 13b5 6f3d a870 103e
00000380: 98b0 e13d 84ad 46be bd9f 3ebe cf3a 8b3d
00000390: d25b df3d b64e 27be f7ea 1dbe de3b ed3c
000003a0: 3197 bc3d b92d 54be bf3a 2dbe 0009 f53d
000003b0: cf60 ca3c 999d aa3d d091 97ba 03e1 06bd
000003c0: 26ba 883d 9da7 ca3d fe76 1ebd 3ff2 edbd
000003d0: dcca 0bbe ab06 ec3d 03f6 ffbc 0b46 553d
000003e0: 3b91 4b3d 0af1 9f3d 2f98 fcbc 2451 083e
000003f0: a4ce e73b 0ff3 e6bd 8aa0 37be 24ae 863d
0.14002387 -0.029130815 0.04170218 -0.05625003 -0.054892004 0.052904483 -0.12012523 0.13835514
0.14010595 -0.020617818 0.09496149 -0.22780138 0.07528646 0.07365989 -0.059436534 -0.058089875
-0.1248768 -0.061881535 -0.13212147 -0.03835856 -0.098786026 0.0022310123 -0.16509415 -0.22050217
-0.0019586065 0.07283195 -0.17982008 0.078346804 0.054647744 -0.044045933 0.060667098 0.052460354
0.15619679 -0.15315966 0.12514362 -0.019039735 -0.10702234 -0.03513299 -0.15395214 -0.0012879884
-0.019407073 -0.13502508 -0.06906992 0.027831133 0.12332401 0.2075795 0.23007916 -0.12885138
0.06577258 -0.14364468 -0.017993087 -0.19704786 0.053484466 -0.067479596 -0.11282071 0.17075361
0.0640476 0.151197 0.059248533 -0.199145 -0.1438542 -0.020526558 -0.121990256 -0.19853434
-0.0392683 -0.012644402 0.14541891 0.05808928 0.00392062 -0.06649714 -0.0405604 0.050073992
0.1473854 -0.07627992 0.078710645 -0.09957472 -0.039167605 -0.05030585 0.20038648 0.2007533
0.053314876 -0.05475789 0.15482926 0.15299504 0.04914153 0.16004427 0.10048351 -0.1986836
-0.0024042071 0.037027903 -0.040290665 -0.061042156 0.3073379 -0.07010719 0.01921454 0.2205917
-0.031337883 0.1952307 -0.21441853 -0.11083266 -0.14029458 0.2924211 0.08805432 0.08223091
-0.25402096 0.27303472 -0.06533429 -0.1007428 0.24655765 0.03543567 0.3410445 0.39305896
0.25803846 0.070148304 0.015812488 0.4382005 0.23774073 0.20014898 0.046568554 0.00545308
0.014404377 -0.12654792 0.25006786 -0.22494397 0.019792024 0.29595438 -0.11254421 0.24092925
0.17028004 -0.045433126 -0.23881371 -0.15361455 0.18758792 -0.04275436 -0.06025875 -0.14913489
0.3423035 0.13614488 0.21820839 0.0009160454 0.14632662 -0.16477543 0.07431211 -0.15027241
-0.42737395 0.029865304 0.17868747 -0.341576 0.328648 0.14418349 -0.067123674 -0.21900032
0.12407564 0.06619267 -0.33120102 -0.062567234 -0.11643562 -0.08700429 -0.25990146 0.12524605
0.07906415 0.08153939 0.08954183 -0.5501659 0.03568803 -0.21270442 -0.16240358 0.10367532
0.22713278 -0.13284722 -0.07251434 -0.008988259 -0.09339771 -0.27622426 0.058677506 0.026920613
-0.17668504 0.11974369 -0.25281358 0.13797009 -0.30358082 -0.15171796 0.020906953 0.19897462
-0.10176813 -0.34090176 0.052582134 -0.0047861384 0.111138314 -0.08834221 0.07526221 -0.07224307
0.117876045 -0.06286594 -0.12984942 -0.16720554 0.08531754 -0.08759613 -0.04085586 -0.11628976
-0.14854948 0.09643979 -0.07497153 -0.38418692 0.16670038 0.042548798 -0.29869032 0.29681474
0.097490676 0.12799019 0.032501955 0.20831963 0.27709633 0.17039722 0.1941533 0.14085655
-0.033566263 0.110868804 0.11316625 -0.14821252 0.020424284 0.3763061 0.058522295 0.14105475
0.11020011 -0.19402128 -0.18615623 0.06798326 0.10906185 -0.1633862 -0.15421663 0.028959211
0.09208525 -0.20720567 -0.16916941 0.11964607 0.024704365 0.083308406 -0.0011563841 -0.03292943
0.0667613 0.09895251 -0.0386877 -0.116184704 -0.13651603 0.11524709 -0.031245237 0.05206875
0.04969905 0.078096464 -0.030834286 0.13312203 0.007074194 -0.112768285 -0.17932335 0.065761834

gru.bias_ih_l0 f4 [297]
00000000: 287f aebd 1241 49bc ea63 ef3d 964b a7bb
00000010: e05d dbbc 7c3f 11be ef2a e7bd ad2a 16be
00000020: 8ffd cabd 8327 86bd 246e 3f3d 5388 09be
00000030: 99d6 8d3d f8b9 023d 98c2 f2bc c3dc 843c
00000040: e44e 7abd 547b ffbd e636 46be 715e ebbb
00000050: a417 40be 7e31 8cbd 073d 373e 5ddf 56be
00000060: be19 84bd 07e2 f6bd 85c7 42be 3e24 063c
00000070: fcae e0bd 477f 65bd 8373 22be 3e07 78be
00000080: 83ff 9f3d 33e3 033f 7b0e 19be ccc2 d8bc
00000090: e0b7 a43d e801 d0bc bb13 c0bd 50a4 e3bd
000000a0: 5930 44be 50da e8bd 5e87 e73d f671 f9bd
000000b0: 76bf 65be b5af 7fbd f34b 9abe 7c36 77bd
000000c0: 5d9f 66bd 0a66 0c3d 1820 00be 3ce6 e0bd
000000d0: 5a3c 4bbc 8d49 353e 9798 013d fb8d 0cbe
000000e0: 0c00 85bd 979e 2e3d 1264 1abe c797 8abe
000000f0: 5ef1 0ebd 249d 02be 9f5a 5dbd 7585 733d
00000100: bcfb c1bd 299c 823b 364b 77be 460c 7f3c
00000110: 9eea 3ebd 03bb f2bd 65b8 64bb 282a 0ebd
00000120: 5c8d 51bd 90ac 8fbd 8c5f 6dbe 1013 393e
00000130: 4eae 5dbe d283 8cbd 98cd 93bd 4435 143d
00000140: ad3a 0b3e 0a7f dfbd c580 1b3e ccba 77be
00000150: 6000 42be 8e0e cdbc 8bfc 513e 68c1 b8bd
00000160: 53ee 48bd f633 78bd cfb0 18be d453 1bbe
00000170: cbf4 8abe d9db 9b3d 7884 16bd b5f9 7abe
00000180: 2843 153d 7dc8 9a3d 1674 a8bc ebd0 803c
00000190: a328 0dbe 5891 a4be 0d6e bc3c cfd4 b9bc
000001a0: 5cae a4bb cc06 a73c 6123 93be b49b 1a3e
000001b0: acd6 163e 5857 4b3e 0817 e9bc c2e6 65bd
000001c0: be61 a63d 5850 0bbc cdad 973e 53e0 b9bd
000001d0: 327c 8b3e ced0 d93c 9164 913e c3f5 bb3c
000001e0: 6e8d f4bc dcef e0bc d1b8 803e b094 583d
000001f0: 069a 063e c7cc 903e 7f99 023f f71c 98bd
00000200: d2ab 8dbb ef00 913d 0ccb c83d dba2 23be
00000210: 8a19 cdbe 6626 f03d 1168 3a3e f0a1 143e
00000220: addb 443d 6943 713d 855a 343d 9b59 6f3e
00000230: b955 4bbe eab0 593d e434 a83b 258e 533e
00000240: 5017 c6bc 6281 13bd 24bb bbbb 1a56 c03d
00000250: 0b1c e33d 5719 113e 7f32 86be 94d5 343d
00000260: a474 4d3e c5b6 973d cfb4 3bbd 4d64 9e3c
00000270: 56cd 7d3e a418 9f3d 1867 603e d152 b93c
00000280: 890d 1d3e 86f9 3d3e c2e3 053e 2bd2 9a3d
00000290: 2e73 9e3e a8ab d63c 91fb cbbc 42af 7dbc
000002a0: 0734 273e 631f 18be 0eeb 113e b11d 183e
000002b0: fd9b 5c3d 6fed 7b3d f601 61bd 9f8d ad3d
000002c0: 241b 4dbd 3845 153e 816d d13d 6162 053e
000002d0: 7386 f23d 510a 5ebe 0cb8 e73c 30e4 9d3e
000002e0: cb1d ed3d 2178 8d3e 3548 0cbe 64cd 263e
000002f0: 1a65 023d 890a 063e 7b46 e93d 7e44 613e
00000300: 1859 963e 7c33 683e 83c5 7dbc dfa9 9cbc
00000310: 5417 b0bd 3454 e53d ebb2 743e b990 68be
00000320: 6146 b1be 887a 68be cd2d 833e 1102 fc3d
00000330: 38b1 b43d 0050 0c3e 535f 7e3e 0afd 53be
00000340: c76f 11be c8a7 23be 30b2 77be d1a5 30be
00000350: 6910 18be 01ba 3ebe e256 f43d 6bb3 1abe
00000360: 27d5 bd3d 7464 66be cf32 07be 78f4 6f3e
00000370: ac92 573e 13ff 5bbe 3987 f43c 2138 54be
00000380: 1b32 263d 1b40 b53c dae3 8e3d ec41 113d
00000390: a3f1 28be e38a 393e 6f11 343b 0ef1 e53e
000003a0: aee4 72be fc22 17bd 08be 943e d3d5 a5bd
000003b0: 9d4f 2d3e c60e 11be 06f0 46bd 2184 a73d
000003c0: 80cb 80be 886d 82be c6f4 fa3d 6bec cbbd
000003d0: c78c 83bd 0d1c 4ebe 3f52 1c3e 9f12 8cbe
000003e0: ad9a 953c cbf0 903e 57f0 19bb 1128 e03b
000003f0: a562 2cbe b9a2 7b3e 04ca 0cbe 7f92 d1bc
-0.08520347 -0.01228358 0.11688979 -0.005105446 -0.026778162 -0.14184374 -0.11287486 -0.14664717
-0.09911644 -0.06550505 0.046735898 -0.1343091 0.06925697 0.031915635 -0.029633805 0.016218549
-0.061110392 -0.12474695 -0.1935688 -0.007182889 -0.18759018 -0.068453774 0.17894374 -0.20983644
-0.064502224 -0.1205483 -0.19021423 0.008187352 -0.109708756 -0.056029584 -0.15864377 -0.24221513
0.07812407 0.51518553 -0.1494693 -0.026460074 0.08042884 -0.025391534 -0.09378763 -0.111153245
-0.19159068 -0.11369765 0.11305116 -0.121799394 -0.22436318 -0.062423427 -0.3013607 -0.060354695
-0.056304324 0.034277 -0.12512243 -0.10981414 -0.012404526 0.17703839 0.03163966 -0.13726036
-0.064941496 0.04263171 -0.15077236 -0.27068922 -0.034898154 -0.12755257 -0.0540415 0.059453446
-0.09471843 0.003985901 -0.24149784 0.015566891 -0.046610467 -0.11852076 -0.0034899947 -0.034708172
-0.0511602 -0.070153356 -0.2318098 0.18073678 -0.21648523 -0.0686108 -0.07216948 0.03618361
0.13596602 -0.10912903 0.1518584 -0.24192351 -0.18945456 -0.025031354 0.20506494 -0.09021264
-0.04905541 -0.06059643 -0.14911197 -0.15168697 -0.27139887 0.07610292 -0.036747426 -0.24509318
0.036441 0.07557771 -0.020563167 0.01572462 -0.13785033 -0.32142138 0.023001695 -0.022684483
-0.005025668 0.020388983 -0.2873793 0.15098459 0.14730328 0.19857538 -0.028453365 -0.05612827
0.081241116 -0.008503042 0.29624787 -0.090759896 0.2724319 0.026588824 0.2839704 0.022944337
-0.029852595 -0.027458124 0.25141004 0.052876174 0.13144693 0.28281233 0.51015466 -0.074273996
-0.004323461 0.07080256 0.09804353 -0.15980093 -0.40058547 0.11726074 0.1820376 0.14514899
0.04806106 0.058902178 0.04403164 0.23374026 -0.1985692 0.053147234 0.005133258 0.20659693
-0.024181038 -0.03601206 -0.005729096 0.093914226 0.11089333 0.14169823 -0.262104 0.044148996
0.20064026 0.074079074 -0.04582673 0.019334937 0.2478536 0.07768372 0.21914327 0.022622498
0.15337195 0.18552217 0.13075164 0.075596176 0.3094725 0.026204899 -0.02490023 -0.015483679
0.1632844 -0.14855723 0.14249822 0.14855076 0.0538597 0.06150573 -0.05493351 0.08474278
-0.05007471 0.14577186 0.10225964 0.1302581 0.118420504 -0.21683623 0.028286003 0.30838156
0.11577948 0.27630714 -0.1369942 0.16289288 0.0318347 0.13089956 0.11390396 0.21998784
0.29364848 0.2267589 -0.015488985 -0.01912397 -0.085981995 0.11197701 0.23896377 -0.22711457
-0.34624007 -0.22702992 0.2562088 0.12305082 0.08822864 0.13702393 0.24841051 -0.20701995
-0.14202796 -0.15981972 -0.24189067 -0.17250754 -0.1485001 -0.18625642 0.11930634 -0.15107505
0.09269171 -0.22499257 -0.13202976 0.23433101 0.21052045 -0.21484022 0.029849635 -0.20724536
0.040575128 0.022125294 0.06977053 0.03546326 -0.16498427 0.18119387 0.0027476212 0.44910473
-0.23720047 -0.036898598 0.29051232 -0.08097424 0.16924901 -0.14165792 -0.048568748 0.081794985
-0.25155258 -0.2547419 0.12253718 -0.099572025 -0.064233355 -0.20127888 0.1526575 -0.27357957
0.018262232 0.2830871 -0.00234892 0.006840714 -0.16834505 0.24573793 -0.13748938 -0.02558255

gru.bias_hh_l0 f4 [297]
00000000: ce1c aabc ea0d d2bd 9cb2 e93c e2c1 46be
00000010: 8d2a c9bd 8069 96bb 4742 10be baa4 7fbe
00000020: 798e 05be f34f 64be ae48 bf3d 5ff8 e1bd
00000030: e698 193d bb80 343e b466 afbc a9d8 013e
00000040: 6a25 76bd bd15 dabd b4b4 87be 3145 dfbd
00000050: 3c54 47be 9477 d5bd 9d37 773e 51c2 cdbd
00000060: 88e4 66bd 85d3 07be 446b 81be e3e5 b4bd
00000070: db31 52bd 1ff5 c33c 3349 97bd dcf9 14be
00000080: 956b f5bc 481d 063f b6d6 fdbc 9225 aebd
00000090: 80a4 dc3d e177 903d 7da8 bebd 922f dcbd
000000a0: 3fd0 fcbd 4b66 013b b31a 05bc c2bd a3bd
000000b0: 324b 90bd 1b7d e5bd ace0 30be f066 f0bd
000000c0: 49e7 09be 3122 22bc b617 20be 2663 833d
000000d0: f82e 4a3c a208 563c f319 213e 5c48 993c
000000e0: e6ca 57bc 91af ed3d 4f14 2fbd f388 69be
000000f0: baab 1c3d f6ab bdbd 169a 13be f981 a93d
00000100: 6bd0 edbc 6ae4 d73b dec8 47be acc0 593c
00000110: 88a5 913d 441a 38bd b21a 343d 54c8 29be
00000120: 0aaa a13d 855c 60bd baff 03be 585f 0f3d
00000130: 5874 e3bd 4221 eabc f710 3f3c 0b08 7abb
00000140: d652 3b3e 44cd 303d 3b69 3f3e 3f5e 2cbe
00000150: 0c8e 72be de3e a0bd f42c a23c b57c 2fbe
00000160: 7c5f 063d 059f 5ebd 4fe9 04be 0b6c bebd
00000170: 0adc 03be 78bd dc3d 84d9 c4bc 74b4 21be
00000180: 3d01 5e3d 0787 22bc b470 f73c e7a1 af3d
00000190: 6dd8 41be 566c 36be 3bf8 b3bd f8f9 07bd
000001a0: efa6 28bd b164 083c 2e0c 37be 7622 c13d
000001b0: 9d52 263d d101 863e 8dcb 703c fc7a d1bd
000001c0: b82a 8e3d 7394 ed3d c0d0 6c3e 3b60 03be
000001d0: 1e53 5f3e 25a5 903d 0cde 093e 9386 813c
000001e0: 3de6 6b3d db35 01bd 3743 513e b75a 1a3e
000001f0: 4297 3e3e 6184 2b3e 2c64 e23e 4b1a 33be
00000200: 7b88 b13d 55ce 113e 733a 62bc 74ec cbbd
00000210: f778 ddbe 0449 93b9 c78c 4c3e aebd 903e
00000220: a9d0 92bc d66c 17bc cbfb d63d b56e 173e
00000230: 17fb 68be 6834 3cbd 7d33 f73c 6f10 df3d
00000240: 5d1d 183c f5aa f9bc 1364 a23d 669b e63d
00000250: c462 213e dace cfbc 3cf7 39be f4c8 d23d
00000260: e4a4 4c3e 6022 df3c 7f5f 16bd 7edb 17bd
00000270: eb6c 563e 515c 00bd 2e66 a83e 6d92 84bc
00000280: 5b69 603e ac57 3b3e 6633 8c3d bf29 c43d
00000290: c1a5 9d3e 0999 103e de0e 5abd f6a8 5dbd
000002a0: 634d 293e c4dd 8dbe 1fd3 2d3e 6f0e f63d
000002b0: d1d8 c73d 0a1e 393e e8dc 1bbe 4e10 873d
000002c0: eeb7 d13d c835 063e 178a 873e 23d3 ae3c
000002d0: af7d 223e fcd2 a8be 72e7 a53c 947a 5b3e
000002e0: 97d0 2abd b0bb 2d3e 57b3 dcbd 2cd0 ea3d
000002f0: 2d16 a23d c9d2 793e 0df7 a23d 1d5d 853d
00000300: b03c 813e 2135 293e 8541 81bd 8943 36bc
00000310: 8452 92bd fab3 013d 3e33 233e 2b10 febd
00000320: 53a3 e5be 72e0 4bbe a97a 603e 7509 0b3e
00000330: 872e 753c 80ef 003d 7ffe ab3d 27d6 a3be
00000340: 9b8e 36be 2d20 45bd 21c4 23be d2de 85be
00000350: 659a 46be 218f 49be de5e ef3d 606a 33bc
00000360: 6722 4abd 6358 d3bd d272 69be 3541 7b3e
00000370: fcfd 883e 969a ccbc fb6c 1d3e f109 5abe
00000380: 393f 523d 3fae 80ba bfdc c73c 7c55 093e
00000390: 5d39 56bd 2aba 8a3d 064f 1dbe f3bd f23e
000003a0: f5b4 c0bd 01f1 843c b197 1f3e e08c d9bd
000003b0: 359c 2bbd fdf4 bbbe 2665 f13d d99a 723d
000003c0: 4dbf 83be 89d5 62be c323 163d e828 51bd
000003d0: 7e6b e93d f4ea ce3b 247f 2f3e 9dd2 15be
000003e0: b016 893d 3c6a 263e 8efb 21be 31ec d9bc
000003f0: 878c abbe 87cf 163e c3bb 8f3d 4ccd a2bd
-0.020765688 -0.1025656 0.02852755 -0.19409898 -0.09822569 -0.0045902133 -0.14087783 -0.24965182
-0.1304263 -0.22296123 0.093400344 -0.11033701 0.03749933 0.17627232 -0.021411277 0.12680306
-0.060094275 -0.106486775 -0.26505053 -0.10901869 -0.19465727 -0.10423198 0.24142309 -0.100468285
-0.056370288 -0.13264282 -0.2527715 -0.0883291 -0.051317077 0.023920594 -0.073870085 -0.14548439
-0.029958526 0.5238843 -0.030986171 -0.0850326 0.107735634 0.07054115 -0.0930948 -0.10751261
-0.12344407 0.001974481 -0.008124041 -0.07995178 -0.07045592 -0.112055026 -0.17273206 -0.11738384
-0.13467135 -0.009895847 -0.15634045 0.064153954 0.0123403 0.013063582 0.15732555 0.018711261
-0.013170933 0.11605752 -0.042743977 -0.22806148 0.03824971 -0.092613146 -0.14414248 0.082767434
-0.029030045 0.0065885084 -0.19510219 0.013290565 0.07111651 -0.044946924 0.04397077 -0.16580325
0.078937605 -0.054775734 -0.1289052 0.035003036 -0.11106175 -0.028580312 0.01166176 -0.0038151767
0.18293318 0.043164507 0.18692486 -0.16832827 -0.23686999 -0.07824491 0.019796826 -0.17137416
0.032805905 -0.05435087 -0.12979625 -0.09297951 -0.12876907 0.10778326 -0.0240295 -0.15791494
0.0542004 -0.009919888 0.030205108 0.08575802 -0.18930216 -0.17814764 -0.087875806 -0.033197373
-0.041174825 0.008324788 -0.1787574 0.09430401 0.04060613 0.2617326 0.014696968 -0.102285355
0.06941742 0.1160058 0.23126507 -0.12829678 0.2180905 0.07062749 0.1346361 0.01581124
0.05759262 -0.0315455 0.20435797 0.15073667 0.18612388 0.16749717 0.4421705 -0.17490499
0.0866861 0.14238866 -0.013807881 -0.09957209 -0.4325635 -0.00028092426 0.19975577 0.28269714
-0.017921763 -0.009242257 0.104972444 0.14788325 -0.22752033 -0.045948416 0.030175919 0.10891806
0.0092843445 -0.030477026 0.07929244 0.11260109 0.15760332 -0.02536719 -0.18160719 0.10292235
0.19984776 0.027238071 -0.036712166 -0.03707456 0.20939986 -0.03133804 0.32890457 -0.016183103
0.2191519 0.18295163 0.06845741 0.09578275 0.30790523 0.14120878 -0.053236835 -0.05411621
0.16533427 -0.27708256 0.16975068 0.12014472 0.09758151 0.18077865 -0.15220988 0.06594907
0.1024016 0.13106453 0.26472542 0.021340912 0.15868257 -0.32973468 0.020251963 0.21433479
-0.041702833 0.16966128 -0.10776394 0.11465487 0.07914386 0.24396814 0.079572774 0.065119006
0.25241613 0.16524173 -0.06311325 -0.0111245 -0.07144645 0.03166578 0.15937516 -0.124054275
-0.4485117 -0.19909838 0.21921791 0.13577826 0.014964706 0.031478405 0.08398151 -0.31999323
-0.17827837 -0.04812639 -0.15992786 -0.2614656 -0.19394834 -0.19683506 0.11688016 -0.010950655
-0.049349215 -0.10319593 -0.22797707 0.24536593 0.26756275 -0.024976056 0.15373604 -0.21292855
0.051329825 -0.0009817554 0.024397252 0.13411516 -0.0523008 0.06773789 -0.15362176 0.47410545
-0.09409515 0.0162282 0.1558521 -0.10622573 -0.041897018 -0.3671035 0.11786871 0.059229705
-0.25731888 -0.2215177 0.0366552 -0.051064402 0.11397456 0.0063146297 0.17138344 -0.14631124
0.066937804 0.16251463 -0.15818617 -0.026601883 -0.3350565 0.14727603 0.070182346 -0.079493135

gru.weight_ih_l1 f4 [297, 99]
00000000: 01da 0f3e 87cf f53d 3f80 8f3d 8c92 adbd
00000010: 3add 1d3d a35b d43c 971d 38bd 678c 553d
00000020: 4e85 983d 6c12 913d 4244 8cbd 1622 cdbc
00000030: 978c a73d 388e ec38 a71f 343d 4e86 99bd
00000040: ab98 d8bd 81a7 cbbb 4d0e 293d 8b7e 1bbe
00000050: f0f4 8b3d 0f37 4a3d 8657 19bd 23fb c2bd
00000060: 9f3d 813d 0b70 e0bd 5832 eb3c a7a9 c6bd
00000070: 67f9 8fbd 78db 2c3e 8556 0fbe 051f f13d
00000080: 692d 9dbd 0e50 e53d 8623 84bb 89e2 393c
00000090: 8288 29bd eb70 2abd bd51 98bc ef74 263e
000000a0: 2e2d 8a3d d683 aebd e8b5 9bbd 71a7 a6bc
000000b0: 159b b73d 5354 cb3d 4101 6e3d 3a45 d33c
000000c0: d38e 23be c99e b33c 0a0e 84bd 47df 623e
000000d0: 585f 4ebb 10eb 4dbd 0f3d 083d d882 b43a
000000e0: f8ae 07bd fb6d 513d c80f 7f3c a57a 60bd
000000f0: 25d5 4cbd 86cb 06bc 956d 19be 5a48 eb3d
00000100: 4e1e 5cbe 5109 83bd 94c5 2f3c a1e9 933d
00000110: 2309 d1bd f5af afbc f6b8 53bd d8bf 97bc
00000120: 9448 943d 4fb3 cd3d d5c4 64bd 7d98 0b3d
00000130: 745d cb3c 5d62 1a3c add1 d9bd 1383 2dbd
00000140: a8b0 db3d 2613 e6bc 71ad 873d 20aa 043d
00000150: 990f 983d 1003 6fbc 0345 c2bd b29b c03d
00000160: c5e2 cd3d d778 02be 77de 2b3e 1f14 6ebd
00000170: eb1c 60bd acc3 643d d6fe 1cbe b260 393e
00000180: 0c14 9f3c 0606 96bd 0acb 063e cd62 9bbd
00000190: cea7 733d 6317 213e e054 59bc 7330 13bd
000001a0: 2efa 293c 5dd2 8e3c 7cb0 8fbd 3a5a 983d
000001b0: be23 51bd 273a 33bd 560c 963d 46cf ff3c
000001c0: 7033 65bc ce1c 48bd 2829 a63d be36 25bd
000001d0: 27ae a7bc 2de6 edbd 5635 15be 1692 0c3c
000001e0: e3de f3bc 56fa cebd 0e65 1a3d c686 92bd
000001f0: ef8e 4c3d 6939 b63d e9ed 03bb d652 1a3d
00000200: 0ef8 9ebd e71e b73d bfc8 5e3d f2be e03d
00000210: 9c7d 073e 0699 e83c c06a 3cbc a9e0 60bd
00000220: 5476 b4bd ebab 453b 3853 e4bd ffad 1d3e
00000230: 48f5 563d c418 733d 36a5 26bd 6480 3c3d
00000240: 0fb2 82bd 6ac6 1c3e 1474 303d 981d c7bd
00000250: 8117 163b 644e 273d b2e0 6a3c 66cb 963c
00000260: 8a03 12bd 2bf9 95bc b98f 0d3c 895b 6bbd
00000270: fbac 69bd 1cb1 f5bd 252b 86bd c809 2f3d
00000280: a0d7 79bc 39b3 53bb b00d c6bd fb6a b63c
00000290: 5638 cdbc 644a b83d 045b f53d c961 f13d
000002a0: baaa 9dbd c2e9 643c d2cc 87bc cce1 b0bd
000002b0: 6fd4 4a3c c2d2 fe3b 6a7e 0a3d 2ad9 7b3c
000002c0: a6ba 22ba 9cd0 fb3c d354 f23c 326c 7a3d
000002d0: 1b23 013d 587b 7638 7b28 cebc 280f d13a
000002e0: d04c 623d b96a bebb 1c90 29bd a4d2 e13d
000002f0: 4165 30bd 1929 ce3d 37a6 8abc e496 403d
00000300: a427 a9bc 73f0 29bd 3b68 053e 9758 9dbd
00000310: e9ad 0c3d dfca 9ebd 2bf1 c93c 318b e0bb
00000320: 30ef fc3c f11d 8cbd b72f 0fbc d804 54bd
00000330: 743e 7f3c 5b33 99bd f922 803d 440a 773d
00000340: 7917 25bd c0e2 3a3c 58df 603d 1258 2f3d
00000350: abf8 11bc dfec a23b 6662 2a3e 52e5 5fbc
00000360: a1d8 da3c fd9c c43c 77c0 bc3d 16f6 e8bc
00000370: 5544 66bd fee5 bf3d 350d 553d d201 333b
00000380: 50f7 e43d c0d6 90bd a7f8 abbc a69b 85bc
00000390: 82d5 40bb e8c5 fd3c 1b5a 8dbd a0d7 b73d
000003a0: 9b97 17bd c9e2 4c3d bd9d 36bc 1873 923c
000003b0: b133 c2bd 7450 b13d 26b5 62bd 4022 013e
000003c0: 4044 4f3d 585c fc3d b8b5 27bd 436d bebc
000003d0: f28d 86bd 9ab5 9abd c3e2 0dbe 4234 86bd
000003e0: d8a9 bf3d d3a0 5abd 4302 a4bd 18a4 04be
000003f0: 420a 84bd b9a6 6d3d f89b 11be b7d3 f53c
0.14048006 0.12002473 0.07006883 -0.08475217 0.038541056 0.025922602 -0.044950094 0.05213585
0.07447301 0.07083592 -0.06848957 -0.025040668 0.08181112 0.00011279847 0.0439755 -0.0749632
-0.10575994 -0.0062150364 0.041273404 -0.15184991 0.068338275 0.049368914 -0.037436984 -0.09520557
0.063105814 -0.109588705 0.02871053 -0.09700327 -0.070299916 0.16880596 -0.13997848 0.11773495
-0.07674677 0.1119691 -0.004032555 0.011345514 -0.04138995 -0.041611593 -0.018593663 0.16255544
0.067468986 -0.085212395 -0.07603055 -0.020343514 0.089651264 0.09928193 0.058106665 0.025789846
-0.15972452 0.0219263 -0.0644799 0.22155486 -0.0031489935 -0.050273 0.033261355 0.0013771905
-0.033125848 0.051130276 0.015567727 -0.054804463 -0.050007958 -0.008227235 -0.14983208 0.11488409
-0.21495935 -0.06398261 0.010728259 0.072222956 -0.10206821 -0.021446208 -0.051690064 -0.018524095
0.07240406 0.10043966 -0.055851776 0.03408097 0.024824835 0.009422866 -0.106356956 -0.04236133
0.10727054 -0.028085303 0.06624878 0.032388806 0.0742485 -0.0145881325 -0.09485819 0.094046965
0.100530185 -0.12741409 0.16784082 -0.058124658 -0.05471508 0.05585067 -0.15331587 0.18103293
0.019418739 -0.07325368 0.13163391 -0.07587204 0.059486203 0.15731578 -0.013264865 -0.035934877
0.010374589 0.017434293 -0.070160836 0.07439084 -0.051059477 -0.04375663 0.07326572 0.031226765
-0.013989314 -0.048855595 0.08113319 -0.04033541 -0.020468784 -0.11616168 -0.14571127 0.0085797515
-0.029769367 -0.101063415 0.03769403 -0.07154612 0.049941 0.08897669 -0.002013082 0.037676655
-0.077621564 0.08941441 0.054390665 0.1097392 0.1323151 0.02839328 -0.011500061 -0.054901753
-0.08811632 0.0030162286 -0.11148685 0.15398405 0.052480012 0.05934979 -0.0406849 0.04602088
-0.06381618 0.15310064 0.04307945 -0.097224414 0.0022902193 0.040846244 0.014335798 0.018407535
-0.035647906 -0.01830729 0.008640223 -0.05746034 -0.057049733 -0.119966716 -0.06551198 0.042733938
-0.015249163 -0.003230287 -0.096705794 0.02226781 -0.025051277 0.08998564 0.119802505 0.11786229
-0.07698579 0.013971748 -0.016577158 -0.08636817 0.01237975 0.007776589 0.033811964 0.0153716
-0.00062076224 0.030739121 0.029581463 0.06113834 0.03152762 5.8765843e-05 -0.025165787 0.0015949951
0.055249035 -0.005811062 -0.0413972 0.11026505 -0.043065313 0.100664325 -0.01692496 0.0470189
-0.020648785 -0.041489076 0.13028042 -0.07682913 0.03434554 -0.07753538 0.02465113 -0.0068525304
0.030875772 -0.06841648 -0.008739403 -0.05176243 0.015578855 -0.074804984 0.062566705 0.060312524
-0.04030559 0.0114066005 0.054900497 0.0428086 -0.008909385 0.004972085 0.16639099 -0.013665514
0.026714625 0.02400064 0.09216397 -0.028437655 -0.05621751 0.093700394 0.05201455 0.0027314317
0.111799836 -0.0707221 -0.02099259 -0.01630957 -0.0029424136 0.030978158 -0.06901952 0.08976674
-0.037009817 0.050020967 -0.011146006 0.017877147 -0.094825156 0.08657923 -0.055348538 0.12610722
0.050602198 0.12322301 -0.040944785 -0.02324546 -0.06570043 -0.07554169 -0.13856034 -0.06552936
0.09358567 -0.05337603 -0.08008244 -0.12953222 -0.06447269 0.058020327 -0.14219654 0.03000818

gru.weight_hh_l1 f4 [297, 99]
00000000: a038 723e 6b7c 023e fa39 45be 577f 443b
00000010: e40f 053e 011e 0dbe a8bc d6bd 2ef0 9fbc
00000020: bcec 293d b593 bfbd 547e c2bd 3ed0 8fbd
00000030: 1cb7 8d3d 3152 703d d02e 823d 025c 26be
00000040: 37e5 2e3e 7bee 513e 4d65 33be 5b14 07be
00000050: 076a 5abc 50c7 acbd bf2c b9bc 8fd1 143e
00000060: 6f09 c33b 3715 24be 8d9c 18be 3c39 80bd
00000070: a38d a9bd b79b e33d 87d1 833d 0956 f13d
00000080: 9368 dc3d 9a1b 2c3d e60e c1bc fa75 90bd
00000090: fa33 55be d137 c93d 1c1f 423c d2e4 ca3b
000000a0: 9ad9 44be eaca 21bd a5b7 abbd b6b9 20bd
000000b0: ba6d 383c 23dc f6bd 45d0 b23d d310 2e3d
000000c0: 9210 19be f1e2 aebc f231 f7b9 2dc9 ae3d
000000d0: a795 ddbd 450f 5abd 553b eebd 0f5f 963d
000000e0: 6edf 11be 6651 0dbe 2963 00be 5c09 9ebb
000000f0: 8120 a1bd b031 b63c 0b78 2f3d f2f0 2fbc
00000100: 7941 313e 0fe8 dabd 9d49 9fbc 9664 c13d
00000110: 31f5 203c b0ac cfbc 7fc0 833d 788b f53c
00000120: 6c55 0fbd e7ae 643e dbe4 113e 2454 3b3e
00000130: a45e ddbd 3f0a b03d 5191 26bd 2176 83bc
00000140: 33a0 f83d 81b3 273e 62cb 05be 4cc1 903d
00000150: b4c7 e63c 4895 c5bd 580a 95bd 6116 aa3d
00000160: b901 263d 2aa8 0dbe 73f6 383d 7255 bfbc
00000170: 1097 58be 0f5c af3d 081b 8ebd 8251 0f3e
00000180: c83e 043e 7d2b ac39 d66a 9f3d 9b60 813d
00000190: ae35 2c3d fb9f 20be 60b0 08be 988d 003e
000001a0: b174 2ebe 6b75 f2bc 8df1 19be b156 c3bd
000001b0: fc09 d4bc ebc3 06be 25ff aabc 1337 493d
000001c0: b16e e2bd dc1b a9bb eaf4 23be 89bd 2a3e
000001d0: 0aca 073e 16b3 89bd 4048 15be c47b 9fbd
000001e0: 3134 15be 1ecc 303e e6b4 133e ac46 db3c
000001f0: 4da8 bebd cd96 03be 184d 8dbd a542 b4bd
00000200: 0e9c 9f3c 518a e9bd e263 453e 9af4 973d
00000210: 0fd2 2dbc 9d2c 13bc 677c ddbd 81ff 33be
00000220: d54f 1c3e d096 0cbe b698 493d bdf1 81bd
00000230: 28c1 0abe e72a c0bb 0ecf 61bd 9769 243d
00000240: 7543 57bd a42f 5fba c09e e9bc 8463 18be
00000250: f9af 423c e7e5 0c3e 408b 2b3e 5135 c4bc
00000260: 4b9f 0b3e 581c 92bd 3afc 1b3e 9363 81bd
00000270: 1a43 eebd a5ea 05be 0db0 cb3d b902 c7bd
00000280: 3025 a13d 599b 283e 3db6 fa3d c97c bc3d
00000290: 6ca6 ddbc 9de7 1d3e 905c 0c3e b18b b0bd
000002a0: c25e 36bd 8d0a a23d 4604 af3d 19b2 a1bd
000002b0: 4524 28bd 0b04 483d 55f0 263e f284 30be
000002c0: 317d bdbc 3049 e7bd b9bf 43bd b509 563d
000002d0: 0960 143e b216 12be 9124 293e eca8 21bc
000002e0: 1209 00bd 578a 1bbe ef91 03be 9797 843d
000002f0: 0c34 cebd 4f62 23be 0548 1dbe 9436 33be
00000300: 7a81 29bd 7edc 59bd 625e cb3d efa4 97bd
00000310: 4c53 eeb9 55fc 003e e387 c53c 1959 333e
00000320: 6f73 44be d131 5bbe 9566 253e 3ffc 3dbe
00000330: 5664 6dbd 7a60 33be c279 b4bd 38aa eebd
00000340: 6267 49bd 870b b6bc 4078 b93d d35f 573c
00000350: 4560 ec3d e204 90bd f0b9 883d bc95 263e
00000360: dd14 e1bd 400b 60be c628 c8bd 3ce6 c5bd
00000370: ead9 243e 205a 873d 9e9c 48bc 9bb7 7cbe
00000380: dae3 6b3d 4906 bebd 3666 67bd 6289 db3d
00000390: 98a4 cebd 43b7 a83d cfd8 8b3d 75e4 12bd
000003a0: 7b94 28bd 9c91 93bd 8aac 10be 9be5 a23d
000003b0: cba6 47be 4893 103b 3cd2 d6bd 53dd 0fbe
000003c0: 7941 4a3e 5dab 0cbe 85c1 a1bc 8811 e0bc
000003d0: 2bde 913d 8f37 34be 9af3 48be d005 0e3e
000003e0: 9981 b73d 0ef5 723d 856d 36be 2029 1e3e
000003f0: 65ee 20be 80de 7f3d 7318 ffbd ed57 bbbd
0.23654413 0.12742774 -0.19260398 0.0029983127 0.12994343 -0.13780977 -0.10485202 -0.019523706
0.041485533 -0.09354345 -0.094967514 -0.07022141 0.06919691 0.058672134 0.06356585 -0.16246036
0.17079626 0.2050113 -0.17519112 -0.13191359 -0.013330943 -0.08436453 -0.022604344 0.14533065
0.0059520523 -0.16023718 -0.1490347 -0.062609166 -0.08278968 0.111136846 0.064364485 0.11783988
0.107621334 0.04201851 -0.023566674 -0.07053752 -0.20820609 0.09825099 0.011848237 0.0061918283
-0.19223633 -0.039500155 -0.08384637 -0.039239608 0.01125663 -0.120537065 0.087311305 0.042496514
-0.14947727 -0.021348448 -0.00047148723 0.08534465 -0.108195595 -0.05323722 -0.116324104 0.0734235
-0.14245388 -0.13800582 -0.12537827 -0.004822893 -0.07867528 0.02224049 0.04283909 -0.010738598
0.17310132 -0.10688793 -0.019444281 0.09443013 0.009824083 -0.025350899 0.064332 0.02997373
-0.034993574 0.22332345 0.14247458 0.18293816 -0.10809067 0.08595704 -0.04066593 -0.01604754
0.121399306 0.16377069 -0.13065866 0.070681185 0.028171398 -0.09647614 -0.072773635 0.0830505
0.040528987 -0.13833681 0.045156907 -0.023356173 -0.21151376 0.08562481 -0.069387496 0.13995937
0.12914574 0.00032838798 0.07784049 0.06317254 0.04204338 -0.15686028 -0.13348532 0.12554014
-0.17036702 -0.029597005 -0.1503355 -0.095380194 -0.025883667 -0.13160674 -0.020873616 0.04912479
-0.11056269 -0.005160792 -0.16011396 0.16673864 0.13260666 -0.06723611 -0.14578342 -0.07787278
-0.1457069 0.17265365 0.14424476 0.026767097 -0.093094446 -0.12850495 -0.0689947 -0.08801774
0.019483592 -0.11403335 0.19276384 0.07419701 -0.010609164 -0.008982805 -0.108147435 -0.17577936
0.15264829 -0.13729405 0.049217902 -0.06344936 -0.13550246 -0.0058644894 -0.055129103 0.04013976
-0.052554566 -0.0008513874 -0.02851808 -0.14881712 0.011882775 0.13759576 0.16752338 -0.023951204
0.13634984 -0.071343124 0.15232936 -0.063178204 -0.11633892 -0.13077791 0.099456884 -0.09717316
0.07868421 0.1646551 0.122417904 0.092034884 -0.027056895 0.15420385 0.13707185 -0.08620394
-0.04452396 0.07912169 0.08545737 -0.078952976 -0.041050214 0.04883198 0.16302617 -0.17238215
-0.023130985 -0.11293256 -0.047790263 0.05225535 0.1448976 -0.1426647 0.16517855 -0.009866934
-0.03125865 -0.15189491 -0.12848638 0.06474226 -0.10068521 -0.1595547 -0.15359505 -0.17501289
-0.041383244 -0.053188793 0.099301115 -0.074045055 -0.00045456958 0.12596257 0.024112647 0.17514457
-0.1918466 -0.21405722 0.16152413 -0.18553255 -0.057957016 -0.17517272 -0.08812286 -0.116535604
-0.04917086 -0.022222294 0.09056139 0.013145405 0.115417995 -0.07032181 0.0667609 0.16268057
-0.109903075 -0.21879292 -0.09773402 -0.09663054 0.16098753 0.06608987 -0.012244372 -0.24679415
0.057590343 -0.092785425 -0.05649396 0.10719563 -0.100899875 0.082380794 0.06828462 -0.035862405
-0.041157227 -0.07205507 -0.14128318 0.0795395 -0.1949722 0.0022060443 -0.10489318 -0.14049272
0.19751538 -0.13737245 -0.019745598 -0.02735211 0.07122453 -0.17599319 -0.19624177 0.13869405
0.08960266 0.059315734 -0.17815216 0.15445375 -0.1571594 0.062468052 -0.12455835 -0.0914763

gru.bias_ih_l1 f4 [297]
00000000: 179b 5b3d f7bd ecbd b846 0d3d 9eea 9ebd
00000010: edaf 2e3e c8b6 62bc cf40 f1bd 4660 8dbc
00000020: 8728 23be 4e2d c83d 3753 463d b380 63bd
00000030: 6055 2ebe 6711 8c3d eec5 92bd 4121 e8bd
00000040: 1c92 82bc 74c8 053d eab5 f0bd 993d a93e
00000050: b7b6 f3bd a908 febc 0e3b 43be 4f0a 76bd
00000060: 58af cd3a 6410 133c 2c82 a937 8bfa e93c
00000070: ad3b 77bd 73fb cb3d 1348 293c 049b 93bc
00000080: 7092 25bd 237f 9a3d 6553 4bbd 1c63 debc
00000090: 2d71 81bd b4e2 a2bc 0676 2abd cb26 29bd
000000a0: ae6c 9ebd d2d4 76bd 80fd 0bbe 28af 2b3e
000000b0: 2005 1cbe 0a7e 6abd e4ab 9bbd c2a6 b0bd
000000c0: 5aa2 05be 1bbb a7bd 6f86 053e b624 db3c
000000d0: b35d d4bd bfe1 a6bd 0ee2 393e 3ef0 f53b
000000e0: eb3f 3ebc 4be9 c03d b652 73bc 5fa4 e8bd
000000f0: 9613 ea3c b151 58be d624 71be 920f a83d
00000100: 48ec 9e3d 9819 f9bd 8029 fc3c 4e3b 10be
00000110: 6012 253d 7be2 13bd dff4 0dbe ef8f 5d3e
00000120: 125b bb3d ddf1 b2bd 414d 83bd b138 b7bd
00000130: 4215 483d 8fa4 c9bd f530 5e3c 54ab c7bd
00000140: 3a3d 69bc dd78 0a3d e3d1 a53d de61 06be
00000150: f2f3 40bd f7a6 cebd de13 b3bd 818c 06bd
00000160: 42d9 53be a711 303c 2cfd c73d 0b2b 9e3c
00000170: 86fb 673d 1d0c dc3d b81c f13c 859a d83c
00000180: 29ee ccbd 9e8b 6b3d 5c96 b3bd 7765 153e
00000190: 9945 583d e5cc 73be 290f 39be 776a c63e
000001a0: da22 80be 447a 733d 0210 8abd db03 6f3d
000001b0: 7a0a 253e ea72 b53d c470 0dbf e54a db3e
000001c0: b287 c13d 2f77 67be 6cae ff3e 7074 57bd
000001d0: 2f6f b8bd a4a9 aa3d fd8b 853b af98 043f
000001e0: 888b 0d3e 3159 703e d08a 3ebe f706 453d
000001f0: 585f c8bd a771 f83d 516b 063d e47f 46be
00000200: f255 3b3d 5664 14be 2492 943c 4e98 4bbe
00000210: c84f d6bc 9fef 8ebe 9954 3ebe e5d8 823e
00000220: d20a c13e c2d8 90be de7d 123f 65d5 8fbd
00000230: c77a 0fbe 33b8 44be 3abc 49be ca94 af3c
00000240: bdde 1abe eae9 3c3d e03b 2bbe a2aa a03d
00000250: 3a4c cdbd c215 abbc 6304 df3d de80 a4bd
00000260: 57c4 bbbd 7369 d8bb 5d18 ae3e 19d8 213e
00000270: 10a0 51bd 8e94 68bd 3ebf 79be 9987 2ebe
00000280: bb02 573e 7655 babe a7a2 f3bd a077 2b3e
00000290: fe02 873c 81e3 aebd d4e5 733e 25fa 273e
000002a0: c4fb 493e 5750 13bf 8be9 6abe 0582 05be
000002b0: f3ff 153c 2174 6cbd c537 a23c f900 e7bd
000002c0: 4f2a 29bd 8daf 433e 9022 653e a7cd c93e
000002d0: e41d 993b 88cb b4bd abc1 b53d 3a9b 5c3e
000002e0: 9e26 623e 37c7 a5be 2c50 72be 721d 3b3e
000002f0: a9e8 093f e4de 9cbe a993 25bf fbdd 533e
00000300: c0a0 b0bc 14be 66be b79a b73e d047 d43c
00000310: da0b 463d a686 933c 653e c33e b87a 643e
00000320: 1d76 3abe a7d5 b33c 89f3 113e 7a15 b6be
00000330: 68b4 1cbe b99b 5fbe b989 adbd a838 78be
00000340: 53ed 34be 1e45 9e3e 6e6d d23d 20ec 6dbe
00000350: edf1 ca3d 2cef d5bd 7f05 2a3e 92f8 423e
00000360: 8154 54be 8a3e 77be 5709 87bd 22c9 84bd
00000370: 6938 65bd 0754 5c3e f3d3 47be cc76 6bbe
00000380: 820e 82be 7aa6 89be d680 4f3e f864 f43d
00000390: a492 f8bd 46fa 983e c623 313e 9eeb 24be
000003a0: f709 633e a76b c2bd 0b25 18be d131 1d3e
000003b0: 186a 88be ee6e 673e 571f 94be abfc c8be
000003c0: 1684 4fbd 6196 7abe 6d84 1dbe 7291 55be
000003d0: 79b4 823e 0f0e 84be 9cac 62be 714f 9d3d
000003e0: bdd3 b13e c85c 343e e100 a1be b11f 9a3e
000003f0: 647d a7be fc27 383e f68e 18be 53e5 afbe
0.053614702 -0.115596704 0.03449127 -0.077595934 0.17059298 -0.013837524 -0.117799394 -0.01725782
-0.15933429 0.09774266 0.048419204 -0.05554266 -0.17024755 0.06839257 -0.07166658 -0.11334468
-0.015938811 0.03266187 -0.11753447 0.33054808 -0.119000845 -0.031009989 -0.19065496 -0.060068425
0.0015692515 0.008976076 2.0206986e-05 0.028561851 -0.060359646 0.099600695 0.010332125 -0.018018253
-0.040422857 0.07543781 -0.049640078 -0.027146868 -0.06320415 -0.019883491 -0.041616462 -0.04129676
-0.07735573 -0.060261555 -0.13670921 0.16766036 -0.1523633 -0.057249106 -0.07601145 -0.086255565
-0.13050213 -0.081899844 0.13039564 0.026750904 -0.10369434 -0.081485264 0.1815264 0.0075054457
-0.011611919 0.09419497 -0.014851263 -0.11359476 0.028573792 -0.21124913 -0.23549208 0.08206095
0.07759911 -0.12163085 0.030781507 -0.14085123 0.040300727 -0.03610466 -0.13862942 0.21636938
0.0914823 -0.08737538 -0.064112194 -0.0894636 0.048848398 -0.0984584 0.013561477 -0.09749475
-0.014235789 0.03380667 0.08096673 -0.13123271 -0.047107644 -0.1009044 -0.08744024 -0.03284884
-0.20688346 0.010746396 0.097650856 0.019307634 0.056636356 0.10744498 0.02943264 0.026440868
-0.10006363 0.057506196 -0.08768913 0.14589487 0.05280075 -0.2380863 -0.1807219 0.387531
-0.2502659 0.059442773 -0.067413345 0.058353286 0.16117278 0.08859809 -0.5525019 0.42830577
0.0944971 -0.22604059 0.4993776 -0.052601278 -0.090055816 0.08333138 0.004075526 0.51795477
0.13822758 0.23471524 -0.1860764 0.048102345 -0.097838104 0.121310525 0.03281719 -0.19384724
0.04573626 -0.144914 0.018136092 -0.19882318 -0.02616109 -0.2791719 -0.18586959 0.25556102
0.37703568 -0.28290373 0.5722331 -0.07023124 -0.1401168 -0.19210891 -0.19700709 0.021433253
-0.1512403 0.046121515 -0.16722059 0.078450456 -0.10024305 -0.020884398 0.108895086 -0.08032392
-0.09168308 -0.0066043674 0.34002963 0.15805091 -0.051178038 -0.056782298 -0.2438936 -0.17043914
0.20997135 -0.36393327 -0.11896258 0.16744852 0.016480919 -0.08539487 0.23818141 0.16404016
0.19724947 -0.57544464 -0.22940652 -0.1303788 0.009155261 -0.057727937 0.019801984 -0.112794824
-0.041300114 0.19109936 0.22376466 0.39414713 0.0046727527 -0.08827883 0.0887483 0.21543589
0.22085044 -0.3237855 -0.23663396 0.18272951 0.53870636 -0.30638802 -0.64678437 0.20690148
-0.021561027 -0.22533447 0.35860226 0.02591315 0.048351146 0.018008541 0.3813354 0.22312438
-0.18209119 0.021952463 0.14253058 -0.3556326 -0.15303195 -0.21836747 -0.08473534 -0.24240363
-0.17668657 0.30912107 0.10274778 -0.23234606 0.09909425 -0.10446009 0.16603659 0.19040135
-0.2073536 -0.2414495 -0.06593578 -0.064836755 -0.055962 0.21516429 -0.19514446 -0.22994536
-0.25401694 -0.26884824 0.20263991 0.11933321 -0.121373445 0.29878443 0.17298803 -0.16105506
0.2217177 -0.09493189 -0.14857881 0.15351035 -0.26643443 0.2260091 -0.2893016 -0.3925527
-0.050663076 -0.24471428 -0.15382548 -0.20856264 0.25528315 -0.25791976 -0.22136158 0.07681168
0.34731856 0.17613518 -0.31445983 0.30102304 -0.32712853 0.17984003 -0.14898285 -0.34354648

gru.bias_hh_l1 f4 [297]
00000000: 0a39 083e 6623 a9bd 4c83 d7bd 5101 203c
00000010: 92ed 8d3d d80c cc3d 7e4f aabb fddf 1cbb
00000020: eb25 073c fe57 b5bd 2d39 c2bd 65e0 03bd
00000030: 83cd aebd 4443 ad3d bd2f 04be 5b81 0fbd
00000040: 456f 8f3d a459 003e 75f0 03be 1f1a 613e
00000050: 19e2 2ebe a728 c1bd 3d8c febd e3ee f8bb
00000060: 7bcd adbd 2c57 4c3d c196 0abd 168c e33c
00000070: 55fd aebd ffc8 873d 6d8b a3bc 00a5 dc3c
00000080: 9012 72bd feae 84bc bf00 2dbe 3962 b6bd
00000090: e5c2 ad3d eef4 da3b 06f2 d8bd 2597 f5bd
000000a0: 2cfd c4bd 3d56 2dba 44fa 27be a6f8 293e
000000b0: 0997 ffba e922 313d d1b8 bb3a deb7 56bd
000000c0: 771e 39bd 61b8 67bd 5946 033d ba25 72bb
000000d0: 1a67 0f3d 1519 413d 39e2 b63c 2236 0cbb
000000e0: 9018 30bd 10a7 ce3d d052 093d c807 593c
000000f0: 7ae0 50bd d4aa 69be 7ffe 6cbe 7b90 cc3d
00000100: 14a0 203e ebe8 6fbe 2ef7 23bd cdb8 dabd
00000110: 425b 79bd ac25 0a3b 6d67 9cbe 61ed 653e
00000120: 9fe7 c13c 00e9 213d 791d b9bd 4c18 a33d
00000130: 921f 49bd dbde 67bd bd5e d7bb ea6d d9bd
00000140: 72db 9cbc 987e 3bbc 8060 d73c 3e9d 07be
00000150: f7ec d23c 35c5 c1bd 72ff 96bd 8546 2bbd
00000160: 4c51 5ebe bb15 fa3c 4403 be3d d92c a4bc
00000170: 229d 0bbd 29b2 313e db92 6a3d 9dbe 093d
00000180: 1927 983c 2d53 83bd b870 acbd 35f0 493e
00000190: 2a9c 43bd 409c 84be c375 44be db06 cb3e
000001a0: ba1f 2abe 8a55 05bd b23a d1bc e509 893c
000001b0: 8c27 8d3e ad22 603d c49b bbbe 01b9 a63e
000001c0: fd10 843e ec97 a4be 0c78 103f 4468 343d
000001d0: 9742 21be 4794 183e dd31 a4bc 107c 0b3f
000001e0: e1af 223e 5cd6 813e 1c07 92be 990c fabd
000001f0: 1951 bebd 0e4b 313e e1aa de3d 8ccc 59be
00000200: a40a 6c3d 8b2e 16be c1c8 9ebc c037 60be
00000210: af9c 81bd a19f 7dbe 96f2 b0bd b4af 683e
00000220: 5650 a33e 9f9b 7cbe da0b f83e 3513 5dbb
00000230: 9e83 21be 0f95 24be 2258 0dbe af9f 923d
00000240: ed07 31be 24ab 9cbd 530f 05be 7f79 163e
00000250: 6456 853d ee9a d5bc 59fa b13d 1716 4abe
00000260: 209a 0cbd 6170 4cbd 13ee 9b3e 4989 fa3d
00000270: e514 35be 2706 05bd 6294 febd 8f55 4cbe
00000280: 15ea ae3e d450 78be 8fef 1abe f6e7 1f3e
00000290: fd21 5ebd 1dff 93bd 5fa9 cc3e 1b53 6a3e
000002a0: 6abc c23d 27ab 39bf 9c00 40be d685 80be
000002b0: 60a3 163e ab2b 21be 92c7 77bd 6ee7 38be
000002c0: a570 15bd 5353 693e 3943 d13d 0e08 be3e
000002d0: c7b5 23bc 57c3 523d af7c 423e 953c 773e
000002e0: d480 1b3e d1f8 8cbe 8c2c 98be 4e73 073e
000002f0: 7733 003f 37e6 72be e8b7 ecbe a049 4a3e
00000300: d3b8 0abe 5b03 17be 19a7 c23e 014d 933c
00000310: 0562 b2bd 6575 1cbc 0f89 3e3e 074c 053e
00000320: bde8 15be a5a0 87bd 0f68 3d3e f59a 64be
00000330: 9181 09be bb90 d0bd f200 f83d cfb0 27be
00000340: d119 fabd 7c1d 7b3e 80e0 db3d a40f 01be
00000350: a1e1 4d3e 1d21 19be d659 743e b518 733e
00000360: 7d41 72bd 608b aebe 00ce e43c d98d 4ebe
00000370: b2d3 743c c319 6d3e d490 d2bd 8e7c 35be
00000380: f442 2fbe d2cd d5bd 7fdd d33e 7a92 c93d
00000390: 3273 f6bd 0dfa 1d3e 3212 533e 97c9 68be
000003a0: 9a23 fa3d fb30 fdbd 153a 05be b5ef 913d
000003b0: d5d3 2abe 4d07 a03d 520b 8ebe 533f 88be
000003c0: e740 993d bff4 89be ff86 74be 7678 53be
000003d0: a8e2 313e 5101 17be 3c98 72bd ff59 5e3d
000003e0: c917 7a3e ccd2 813d 4986 32be 60d2 413e
000003f0: ecbc 86be 2697 c13c 8a89 46be 20a9 2bbe
0.13303009 -0.08258705 -0.1052309 0.009765939 0.069300786 0.09963387 -0.0051974645 -0.0023937218
0.008248786 -0.08854674 -0.09483562 -0.03219642 -0.08535292 0.084600955 -0.12908836 -0.035035472
0.07003645 0.12534195 -0.12884696 0.2198262 -0.17078437 -0.09431582 -0.12429092 -0.007596837
-0.08486458 0.04988782 -0.033835176 0.02777676 -0.08544413 0.06630134 -0.019963944 0.026934147
-0.059099734 -0.016196724 -0.16894816 -0.08905453 0.08484439 0.00668203 -0.10593037 -0.11991719
-0.09618601 -0.0006612277 -0.16404063 0.16598758 -0.0019499968 0.043246184 0.0014322047 -0.052421443
-0.04519507 -0.05657232 0.03204951 -0.0036948756 0.035010435 0.04714306 0.022324668 -0.002139457
-0.042992175 0.100904584 0.03352624 0.013246484 -0.050995328 -0.22819072 -0.23143958 0.09988495
0.15686065 -0.23428695 -0.04003065 -0.10679779 -0.060878046 0.0021079583 -0.30547658 0.22453834
0.023670016 0.039528847 -0.090388246 0.07963619 -0.049102373 -0.056609016 -0.006572573 -0.106166676
-0.019147608 -0.0114437565 0.026291132 -0.13243577 0.02574776 -0.094614424 -0.07372941 -0.0418153
-0.217107 0.03052794 0.092779666 -0.020040916 -0.0340854 0.17353119 0.05726896 0.03362905
0.01857333 -0.06412349 -0.08419937 0.19720538 -0.04775635 -0.2590046 -0.19185548 0.39653668
-0.16613665 -0.03255228 -0.025540683 0.01672835 0.27569234 0.05472057 -0.36642277 0.32563022
0.2579421 -0.32147157 0.56433177 0.044044748 -0.15748058 0.14900313 -0.020043308 0.5448618
0.15887405 0.25358856 -0.2852105 -0.12209434 -0.09292812 0.17313787 0.10872436 -0.21269435
0.057627335 -0.14666192 -0.019382836 -0.21896267 -0.06328713 -0.24767925 -0.086400196 0.22723275
0.3189723 -0.2466874 0.48446542 -0.0033733372 -0.15772864 -0.16072486 -0.13803151 0.071593635
-0.1728818 -0.0764983 -0.12994127 0.14694785 0.06510618 -0.026074853 0.08690328 -0.19734989
-0.034326673 -0.04991186 0.30455074 0.12233216 -0.17683752 -0.03247657 -0.124306455 -0.19954513
0.34162965 -0.24249583 -0.15130447 0.1561583 -0.054231633 -0.07226393 0.3997297 0.22883265
0.095085934 -0.7252678 -0.18750232 -0.2510211 0.1471076 -0.15739314 -0.06049306 -0.18057033
-0.03648438 0.22785692 0.102179 0.3711552 -0.00999207 0.05145582 0.18992876 0.24144204
0.15185863 -0.27533582 -0.29721487 0.13227579 0.5007853 -0.23720632 -0.4623406 0.19754648
-0.13547067 -0.14747374 0.3801811 0.017981054 -0.08710102 -0.009549473 0.18606971 0.13017283
-0.14639564 -0.066224374 0.18496726 -0.22324736 -0.13428332 -0.10183855 0.12109555 -0.16376041
-0.12211955 0.24522966 0.10736179 -0.12603623 0.20105602 -0.14954038 0.23862395 0.23739894
-0.059144486 -0.3409071 0.02793026 -0.20171298 0.01494305 0.23154359 -0.1028153 -0.17723295
-0.17115384 -0.10439648 0.41379926 0.09842391 -0.120336905 0.15427418 0.2061241 -0.2273315
0.12213822 -0.12362858 -0.13010438 0.071257986 -0.1668237 0.078138925 -0.27743012 -0.26610813
0.07483082 -0.2694454 -0.23879622 -0.20651421 0.17371619 -0.14746596 -0.059227213 0.054285046
0.24423136 0.063390344 -0.17434038 0.18927908 -0.2631601 0.023631644 -0.19388404 -0.16763735
