models/gru_trial_6.pth (torch, 94960 bytes, 9 tensors)

gru.weight_ih_l0 f4 [129, 44]
00000000: 8cd5 473d 0ce5 eb3c c3ab 21be e70f 5f3d
00000010: 9002 653d 578d 69bc 33be e2bd d957 85bd
00000020: 1102 cc3b 392a f23d 528a f43c c46c 16bb
00000030: 73ff e93d af96 49be ef18 62bd 5126 eb3c
00000040: cc5b 1a3e ba47 073c e949 393c f6e1 cebc
00000050: 82bd be3d 2a77 9f3d faa5 4d3d 6427 763d
00000060: 431a e9bc 23c8 463d eb82 483e 9f1b 4ebe
00000070: 5e48 cbbb 5f66 d8bd 1f3f 0ebc 1218 4a3e
00000080: b261 4cbe 552c 503e 3355 a93d 912d f4bd
00000090: 403f d8bc 9905 5cbd 0f5f 503d 0f7f 4a3e
000000a0: f5aa 0e3e 4b65 843e 5e92 913d 5570 ff3c
000000b0: 238b 2c3e a9f6 253e 9855 6b3d 645f cabb
000000c0: 8b66 b03c 16e4 62bd 51fc 303d 68b7 823c
000000d0: b99a 4ebe 638b 693e e066 59be b901 a2bd
000000e0: 288e af3e d4f2 d93d d559 913c 81c2 a2bd
000000f0: 03f2 d23d 9bb1 6a3e 63cb 2d3b 46d7 443d
00000100: 247a 80be 0a4a af3d ebf2 01be 86a8 a23d
00000110: 7714 b8be 66f1 023c c4a9 a43d b06f 0cbb
00000120: 8a7d b03d 55b0 88bd b1c0 aebe 73b7 3c3c
00000130: 67a0 00be fa78 4ebd bc97 92bc 6b4d 2dbd
00000140: 5fd8 a1bc 0c21 a43e ba4a ecbd f290 acbd
00000150: 5042 6b3e d759 ad3e 3038 a83e 6327 37be
00000160: 6f98 93bd 92f5 cc3d 9261 2e3d 2f08 80be
00000170: 588f d53d c87b 153e 8bab 92bc d29f 0c3d
00000180: 5984 4a3c 99b2 243e 1ddd 6cbd 4d6d 07be
00000190: 1472 3ebd 597b 0a3e bd86 41bd 2de8 18be
000001a0: 67e4 a5bd b7f7 4b3d d1d4 cdbd ae13 aebd
000001b0: ee80 883d 5802 e03d ecd7 32bc 6bef 67bd
000001c0: d017 28be 5517 afbd 1416 0cbc ed3d 4fbe
000001d0: d908 4d3d b933 c33c fe71 0fbe 5c72 00bd
000001e0: e2f1 483b 6c0f 16bd b4a6 32be ed03 8abd
000001f0: 346b 443d 5807 0f3e e372 ae3c 6bec f23d
00000200: 8a4b 0a3c 788c 8e3d 9408 8a3d 195a 0e3e
00000210: a576 d63d 9489 31bd adaa 8d3d 379d aa3d
00000220: 1bfc e13d 26fa 953d b264 093d 247e e83d
00000230: d3d7 9dbd 4e3e 86be f45a 58be 6dde a93d
00000240: 97fa 84bc 8dc6 b4bd 0ee3 503c 49d0 853d
00000250: 0112 e0bd d63b 913d 4a2e 17bd 4056 c03c
00000260: e1a4 d3bd ade8 82bd 2f80 c4bc 131a 31bd
00000270: fdea 5cbc 60b3 3c3d 36f4 8f3d decc 5bbd
00000280: 3306 123e af5a c1bc 5308 e43d 63ad 7a3d
00000290: bcbb b43d db9d 5c3e c59a be3d b0b9 e7bd
000002a0: 6f19 073d 6864 17bd 0f1f 95be 042d d03d
000002b0: 10d6 c43d 6716 a1bc d1c0 62be 23a5 73be
000002c0: c506 943d 337d 293d d544 2a3d 0083 82bd
000002d0: 84b9 b63d ca35 8fbb 4606 08be bdb2 16be
000002e0: 545b 86bd c0a8 e13d 8b40 98bd ad6b 1cbe
000002f0: 2a30 703e 7090 cabd fbad 033d 381a b33d
00000300: 6174 0abd 309e 163e 7122 ddbd 1b53 13be
00000310: 46bb 2fbe bfec 6dbd cd9a 90bd 4ed6 d13d
00000320: 30e1 45be 6b39 2bbd ec9e 11bd 608d 76bd
00000330: 7846 66bd ac4c f7bd 1e59 2abe 35a5 f3bc
00000340: df4e e0bc 0c7e 3b3e d79c 1cbe 5343 a8bc
00000350: e9c7 073e 2971 903d 0598 50be 5897 073e
00000360: 7385 1f3e 1789 3b3e 2f02 823d a22d 0bbd
00000370: 3df8 59be 412b ccbc bcc3 dfbd 63e0 143d
00000380: ce11 203e 904a 99bd 8843 13bd b102 2dbd
00000390: 4bd6 df3d 26e8 1b3e a067 b53d 19c6 4abd
000003a0: 8a24 aa3d 5ba1 19bd eb94 473e 4f96 2a3e
000003b0: 735c e33d adea 52bd 3c2d e0bd c7ff a13d
000003c0: 136a b1bd 78aa c3bd 4447 bebd fb6d 103d
000003d0: 2e1b 0f3e 7edc 93bc 6f2a a4bd 795c 97bd
000003e0: baa5 7a3d 0f93 963d 7f48 d3bd 20e2 483e
000003f0: 7aaf 02be ed3c ebbb 3515 1abe 9d56 c43d
0.04878764 0.028795741 -0.15788178 0.054458525 0.055910647 -0.014254889 -0.11071434 -0.06510896
0.0062258323 0.118244596 0.029851113 -0.0022953013 0.11425676 -0.19686387 -0.05519956 0.028704794
0.1507408 0.008256847 0.011309125 -0.025254231 0.093134895 0.077864006 0.050207116 0.06009616
-0.028454905 0.04853071 0.19581191 -0.20127724 -0.006203695 -0.10566401 -0.008682041 0.19735745
-0.19959143 0.20329411 0.082682036 -0.119227536 -0.026397347 -0.053716276 0.050871905 0.19775032
0.13932402 0.2585853 0.071079955 0.031181494 0.16849951 0.16207375 0.057454675 -0.006175922
0.021533271 -0.0553933 0.043209378 0.015956596 -0.2017621 0.22807078 -0.2123065 -0.07910485
0.34288144 0.10642019 0.01774303 -0.07947255 0.10300066 0.22919314 0.0026518933 0.048056863
-0.25093186 0.08559044 -0.12690322 0.079422995 -0.35953113 0.007992124 0.08040193 -0.0021428876
0.08617695 -0.06674258 -0.34131387 0.011518347 -0.12561189 -0.05040834 -0.017894618 -0.04231016
-0.019756494 0.32056463 -0.115376905 -0.084260836 0.22974515 0.33857605 0.32855368 -0.17886119
-0.07206809 0.10007776 0.04257352 -0.25006244 0.10427731 0.14598 -0.017904064 0.034332104
0.012360656 0.16083755 -0.057828058 -0.13225289 -0.046495512 0.13523616 -0.047247637 -0.14932318
-0.08100205 0.049796786 -0.10050357 -0.08499847 0.066652164 0.10937947 -0.010915738 -0.05662481
-0.16415334 -0.08549372 -0.008550186 -0.20238467 0.050057266 0.023828374 -0.14008328 -0.03135906
0.0030661752 -0.0366358 -0.17446405 -0.0673903 0.0479538 0.13967645 0.021295017 0.118614994
0.0084408615 0.06960386 0.067399174 0.13901557 0.104718484 -0.043344095 0.069173194 0.083307676
0.110344134 0.07323103 0.033543296 0.113521844 -0.07707181 -0.2621941 -0.21128446 0.082943775
-0.016232772 -0.08826933 0.012749447 0.06533868 -0.10940934 0.07091491 -0.03690938 0.023478627
-0.103341825 -0.06392036 -0.023986904 -0.043237757 -0.01348376 0.046069503 0.070290014 -0.053662173
0.14260177 -0.023602812 0.111344 0.06120051 0.0882487 0.21544592 0.09306864 -0.11314714
0.03298324 -0.03696099 -0.29125258 0.10164836 0.09611142 -0.019664003 -0.22143866 -0.23793463
0.07227854 0.041379165 0.04156955 -0.063726425 0.08922103 -0.004370426 -0.13283643 -0.1471662
-0.06560388 0.11018515 -0.074341856 -0.1527545 0.23455873 -0.098908305 0.032148343 0.08745235
-0.033802394 0.14708781 -0.10797585 -0.14387171 -0.17161283 -0.058087107 -0.07060776 0.102459535
-0.19324183 -0.041802805 -0.03555195 -0.06019342 -0.056219548 -0.12075171 -0.16635558 -0.029741863
-0.027381359 0.18309802 -0.15294205 -0.020539915 0.13259853 0.070528336 -0.20370491 0.13241327
0.1557825 0.18314014 0.06348073 -0.033979066 -0.21286102 -0.024922969 -0.10926005 0.036346804
0.15631792 -0.07484925 -0.035953075 -0.042238895 0.10929545 0.15225276 0.088576555 -0.049505327
0.083077505 -0.037507396 0.19490401 0.166589 0.11101618 -0.051493336 -0.10946128 0.07910114
-0.0866281 -0.09553999 -0.092909366 0.035261136 0.13975212 -0.018049475 -0.08015906 -0.07390685
0.061193205 0.07352268 -0.10316562 0.1961751 -0.12762251 -0.007178894 -0.15047152 0.09586833

gru.weight_hh_l0 f4 [129, 43]
00000000: 6e68 2dbe cf1c ccbd c2e4 a63d de4d 5ebe
00000010: a1b0 0c3d 46f0 4cbe b9bb 0cbe 3b83 9d3d
00000020: f865 533e 3dd8 bb3b eb49 d63d 7ad9 153e
00000030: 2069 813e 603d 883e cbb1 b5be 25c2 8b3d
00000040: b957 203e d3ad bcbe 868e f6bc a85f 0ebe
00000050: d568 80bd 1f15 b7bd a620 feba 35b8 e9bc
00000060: 083d babd a564 babd 06f2 3a3e 937d f53d
00000070: 4f06 113e ee39 57bc 9c52 5f3d 7e3b 3c3c
00000080: b14d af3c 9c40 6b3e 3b40 493d fca5 8b3e
00000090: 372e 203e 688a 303e 5c6d 05be 24f9 b3bd
000000a0: 1bf4 07be 5df2 a8be 321f 5bbe 5815 3cbe
000000b0: 9970 e0ba 0b9d 2f3e 57ee 26bd c6d1 913c
000000c0: 54d6 c0bd 2c4c 3d38 6b25 89bd 4b50 2e3d
000000d0: 7717 7cbc 8350 07be 64b7 b73e 2a75 083e
000000e0: 1cd2 d03d 5e9e 4dbe c8fe 2dbe 5010 5b3e
000000f0: 0ec5 98bd cf08 a4bd a41d 15bc 151f b7bd
00000100: c2ab e33d 210b 373d 53a3 8a3c f67a 91be
00000110: 23b8 02be d28d 983c 18c1 533e 2304 9d3d
00000120: 717d 103e 64c2 d73c 5f18 a33d eb2e 083b
00000130: f396 a43d 5070 d5bd 2f86 00bd e788 103e
00000140: ece2 463e 2897 9fbe 252e f5bd a2b4 46be
00000150: b633 20b9 5b6d cbbc 556f 24be e627 9cbe
00000160: 5905 673e ce92 f2bd f052 9d3e db46 5cbd
00000170: 47e8 653b 77e4 e53d 7609 433e 91ca 533e
00000180: f302 07be 399b ad3e e53d 7c3d 7f98 333d
00000190: 1d54 87be 2a60 37be e58f b43b 3bef 97be
000001a0: 9f68 7dbe 3a95 19be 3413 a0bd f304 fa3c
000001b0: 637c 933c e494 003e 43d1 92be 7f0c 373c
000001c0: 6ea8 613e 381d a63e fe4e d83d 3b5c 3bbe
000001d0: c96a fdbd aa03 4c3d cd66 0e3d 8b79 403e
000001e0: dc89 67be 1ba8 5b3e 4de3 093e 5c45 663e
000001f0: 5987 00be 0d3d 383d 3edc 71bd 8c57 19be
00000200: c6c5 d7bd 9648 a1bd e1ab dcbd 5141 733e
00000210: 13d4 9cbe 422a 873d d893 10be 0de6 a43d
00000220: 658d 14bd 9abf 0e3e 89f2 8a3d 9297 e53d
00000230: 9f29 853d d26a 013e f945 033e c5ab 02be
00000240: ef1f 6b3d e485 6b3d 131d 61be 653b 9cbd
00000250: 4bb1 42be 747a 31be 5cbd a33d 6b19 1bbe
00000260: 2261 febd 57b7 64bc e7bb 7cbe 3449 3e3d
00000270: 7cfa a1bc e91b fb3d 61c8 02be ac74 43be
00000280: a489 813d 28a5 303e 7f83 af3d 86f9 12be
00000290: 1aa6 243e c5d4 ba3d 62ee 2e3e d5d1 65be
000002a0: 6d5b 8e3d 5cfd e6bd 4420 67be c0f8 453c
000002b0: 1b25 8cbe 6451 0ebd 274e 1d3e c218 a3bd
000002c0: 28fa c2bd b323 74be 8ca8 b0bc 7a0c 183b
000002d0: e83e b13d 1b5f 5b3b 769a edbd fee8 7b3e
000002e0: d658 81b9 c8ba af3d aba6 9fbe 6100 e53b
000002f0: fb4b a53c 5e5f cbbd 4482 003e ee33 6dbd
00000300: 5c26 d9bd 1806 a4bd 24ab db3d b158 343d
00000310: aab2 22bd 8287 97bd 3f35 0a3e 1dea d43b
00000320: c15e 213e 970b e8bd 2a45 8cbd 06fc e33d
00000330: e949 dc3b d534 883e 2849 6cbe 3157 3cbc
00000340: cbea 943e 2c06 40bc f9ce 80be 3fa7 8dbc
00000350: 5dd3 80be 4acf 4bbe 6da6 72bc f787 17be
00000360: 2f59 0abe b6b4 913c dd24 7dbd ab08 05bd
00000370: 4e25 86be a220 a3bd 3762 5cbd 0516 383e
00000380: 1825 f33c 0ed4 013e 412c ba3d 97b4 513e
00000390: 7b2a 543e 5e22 67be 163a 43be 355a 333e
000003a0: b443 9dbe 804f c2bd 78f7 393d 633c e9bd
000003b0: edf9 913d a741 86bd 84f9 5cbd 7f9f 8cbd
000003c0: b8b0 61be feeb ed3d a01e 883e a2ba 853e
000003d0: cb26 823c caac 74bd 5149 0bbe a19d 813e
000003e0: 1f0b 123e 4700 23be ec94 bb3c 503e 8e3e
000003f0: 569f 653d 5183 6abe d6a8 f6bb 7684 17be
-0.16934368 -0.09966432 0.08149101 -0.21709391 0.034348134 -0.20013532 -0.13743486 0.07691046
0.20644367 0.0057325647 0.104633175 0.14633742 0.25275517 0.26609325 -0.35487208 0.068241395
0.15658464 -0.36851367 -0.030097257 -0.13903677 -0.06269995 -0.089395754 -0.0019388392 -0.02853022
-0.09093672 -0.09101228 0.18256387 0.11986842 0.14162563 -0.01313637 0.05452214 0.011488793
0.02139935 0.22973865 0.04913352 0.27275074 0.1564263 0.17240298 -0.13029999 -0.08787754
-0.13276713 -0.32997409 -0.21398619 -0.18367517 -0.00171234 0.17149751 -0.040754642 0.017800223
-0.0941588 4.5132052e-05 -0.0669659 0.042557042 -0.015386454 -0.13214307 0.35882103 0.13325945
0.10196325 -0.20079944 -0.16991723 0.21392941 -0.0745946 -0.080094926 -0.009101305 -0.08941475
0.111167446 0.044688348 0.016923582 -0.28414124 -0.12765555 0.018622313 0.20679128 0.07666805
0.14110352 0.02633781 0.07963633 0.0020779918 0.08036604 -0.104218125 -0.031377967 0.14114724
0.19422501 -0.3117001 -0.11971692 -0.19404843 -0.00015278053 -0.024832418 -0.16058095 -0.3049919
0.22560634 -0.11844407 0.3072734 -0.05377851 0.0035081075 0.11225217 0.19046578 0.20682742
-0.13184719 0.33907488 0.061582465 0.043846603 -0.2643136 -0.17907777 0.0055103176 -0.29674706
-0.24746941 -0.14998332 -0.07816163 0.030519938 0.018003648 0.12556797 -0.2867528 0.011172413
0.22036907 0.32444167 0.105619416 -0.18296902 -0.12373883 0.04980818 0.034766007 0.18796365
-0.22611183 0.21450846 0.13465615 0.22487396 -0.12551631 0.044980098 -0.05904793 -0.14974803
-0.10535769 -0.07875173 -0.10774971 0.23755385 -0.3063055 0.06599857 -0.14118898 0.08051691
-0.036267657 0.13940278 0.06784541 0.1121055 0.06502079 0.12638405 0.12819661 -0.12760837
0.0574035 0.057500735 -0.21983747 -0.07628516 -0.19012944 -0.17331868 0.07995102 -0.15146415
-0.1242087 -0.013959727 -0.24681054 0.04645653 -0.01977276 0.12261183 -0.12771751 -0.19087476
0.06325081 0.17250502 0.08570003 -0.14352998 0.16078988 0.09122614 0.17083123 -0.22443326
0.06951032 -0.11278793 -0.22570902 0.012083232 -0.2737206 -0.03474559 0.15361844 -0.079637066
-0.0952037 -0.23841743 -0.021564744 0.0023200796 0.086545765 0.0033473435 -0.11601727 0.24600598
-0.00024670985 0.085805476 -0.31181845 0.0069885706 0.020177832 -0.09930299 0.12549692 -0.057910852
-0.106030196 -0.08008975 0.10726002 0.044029895 -0.03972117 -0.07398893 0.13496874 0.006497635
0.15758802 -0.113303356 -0.068491295 0.11132054 0.006722678 0.26602808 -0.23074782 -0.011495397
0.29085383 -0.0117202215 -0.25157908 -0.017291663 -0.25161257 -0.19903293 -0.014810187 -0.1479796
-0.13510583 0.017786365 -0.061802734 -0.03247897 -0.26200336 -0.079652086 -0.053804602 0.1797715
0.029680774 0.12678549 0.09090472 0.20479046 0.2071933 -0.22571704 -0.19065127 0.1751488
-0.30715716 -0.0948782 0.04540202 -0.11388471 0.07127748 -0.06555491 -0.053948894 -0.06866359
-0.22040069 0.116172776 0.26585865 0.26118952 0.015887639 -0.059735097 -0.13602187 0.25315574
0.14262055 -0.15918075 0.02289816 0.27781916 0.056060158 -0.22901656 -0.007527451 -0.14796624

gru.bias_ih_l0 f4 [129]
00000000: d1c1 4a3e 9293 dfbd b3dc 0c3e c337 6f3e
00000010: 23ad 8fbd b434 663e d6c2 46be 5c60 7f3d
00000020: cffd bebd 985e 2b3e 251b 733e 4c3d 0e3e
00000030: ca08 d83d b870 09bd 5213 7fbc 3975 7938
00000040: a3db 5ebe 840e 1e3d c618 21be 665c 83be
00000050: da88 87bd b6e4 8e3d ebce 443d f06f d23d
00000060: b8f1 0d3d 2251 97bd cc70 223e 7d41 30be
00000070: e7ee 17bd c4ba 89bc 6993 053e 7415 f53d
00000080: 3507 ce3d d775 213e 0eb8 b3bd 236c 493d
00000090: 7192 c43c 786c e53d c196 bdbc e375 1b3e
000000a0: d9eb 72bd f65b fc3d 2b02 2a3d 7d7e da3c
000000b0: fc08 a0bd ba56 ddbd 2031 7e3e 67c5 30bc
000000c0: dbaf c53d f99b 79be 10a7 5c3d eb23 cc3d
000000d0: 2def 89bc 47d4 9bbd de38 273e b3dd c73c
000000e0: 08d4 8f3e b67a c53d be19 5fbe 1d7e e13c
000000f0: f893 9dbc 35a6 41be 4ea9 baba dda5 44be
00000100: 6141 7e3e d817 c93d f371 01bd f6d5 233e
00000110: 3e97 06be f77b 0abd 458f 24be f0fb 25be
00000120: be66 9f3d c0ab 873d 3cdb 10be 6535 2b3e
00000130: 7651 9f3d b85c e33c 6362 243d b371 3a3e
00000140: 9dbb 0e3e 9285 bbbd 044c 053e 1e48 9a3b
00000150: 0bc3 43bd e4c5 0ebe b9f9 adbe 2a4c 23be
00000160: dcaf 113d 7fb7 11be e5ba b73d ac9a f1bd
00000170: 7eaa cfbc 6c65 64be b2e1 973e 7982 613e
00000180: c7bd 463e 5f31 5bbd d8e4 213e 36fb 6d3e
00000190: 05f7 71bd 007c f4bd 15fc 1c3e 6643 7cbd
000001a0: 74fc 9d3d 5d60 4fbd ab69 b0bd 8b24 243e
000001b0: 7cb1 a6bd bcc8 1dbe 106b 153d 62d6 9abd
000001c0: e916 043e c264 8d3d 901b 003e 3bdb 62be
000001d0: 90d4 83bd 9181 e0bc eafc e63d 78c4 9c3e
000001e0: 8d20 96be 12c6 703e 2523 143e a36d 4b3e
000001f0: 9827 20be 3043 3a3e d7d9 85be c85f 58be
00000200: 5874 febd
0.19800498 -0.10916819 0.13756065 0.23361115 -0.07015445 0.22481042 -0.19410262 0.062347755
-0.09325754 0.16735303 0.23740824 0.1389057 0.105485514 -0.033554763 -0.015568571 5.94754e-05
-0.21763472 0.038588062 -0.15732107 -0.25656432 -0.06617899 0.06977217 0.048048895 0.10275257
0.03465435 -0.07388522 0.15863341 -0.17212482 -0.03709307 -0.01681269 0.13044514 0.119669825
0.100599684 0.15767609 -0.0877534 0.049175393 0.02399561 0.112023294 -0.023143174 0.15181689
-0.059306953 0.12322228 0.041505974 0.026671642 -0.07814214 -0.108075574 0.24823427 -0.010789252
0.096526824 -0.24375905 0.05387026 0.09967788 -0.01683768 -0.07608848 0.16330287 0.024397707
0.28091455 0.09642546 -0.21787164 0.027525956 -0.019235596 -0.18911059 -0.001424113 -0.19203897
0.24829628 0.09819001 -0.03160281 0.15999588 -0.13143632 -0.03380963 -0.16070278 -0.16209388
0.077832684 0.066245556 -0.14146131 0.16719587 0.07779209 0.027754173 0.04013289 0.18207435
0.13938756 -0.09156336 0.13017279 0.004708304 -0.04779343 -0.13942677 -0.33979586 -0.15947023
0.035568103 -0.14230154 0.08971194 -0.117970794 -0.025349852 -0.22304314 0.2966438 0.22022428
0.19408332 -0.05351388 0.15809953 0.2324036 -0.059073467 -0.119377136 0.15330537 -0.061587714
0.07714167 -0.05062901 -0.086139046 0.16029565 -0.08139321 -0.15408605 0.036479056 -0.075604215
0.12899365 0.06903984 0.12510514 -0.22153942 -0.064370275 -0.027405532 0.11278708 0.30618644
-0.2932171 0.23513058 0.14466532 0.19866042 -0.15640104 0.18189692 -0.2614276 -0.21130288
-0.124245346

gru.bias_hh_l0 f4 [129]
00000000: 9d42 2a3e 106b 6f3d 1271 92bc 1fa3 553e
00000010: b87a 72bd d08a e5bc 0e00 3ebc 2e29 2a3d
00000020: eacc 34bd 0b88 093e 9de5 dc3d 9a55 2a3e
00000030: 16ad bfbb d460 563d bfb7 553d 7173 a43d
00000040: 8f39 8fbe 0a89 0a3e 3069 f9bd 05d2 bcbd
00000050: 3f2d c33d 5452 f53c 5e99 5fbd 2477 7cbc
00000060: 1068 a13d 7c7b 02bc a333 323d ab83 17be
00000070: 56f0 d13d 057b 1c3d 4241 99bd 7e26 213e
00000080: 42b0 5b3d 983b 8fbd b41d 153e 25da 213e
00000090: 560b a4bd 97a4 363d 33cb 393d 5593 063e
000000a0: 4e01 dbbc 1feb 853d 7297 023e 550e 12be
000000b0: c2af 9a3c 3d02 0d3d 0c4c 873e e396 413e
000000c0: 03e7 c83d 0959 4bbd 8da0 953d d9e8 a83c
000000d0: 4bef aa3d 951b 42be d673 0b3b 8b6a 7a3e
000000e0: 8785 fc3d 8837 07bc 1e96 34be d703 023d
000000f0: 01a8 883d 996e 38be 4421 32bd 139c 07be
00000100: 5bbf 153e 4c3f 243d 83ca 62be 4824 243e
00000110: bd9d 983d 969d 933d a9d1 7abd 6a9b 3cbe
00000120: cf80 ec3d 86c3 b13d e5cd 393d 12fa ae3d
00000130: 0301 85bd 8c10 613c 3594 603d f09f 473e
00000140: ed05 623e bb56 c4bc da29 ab3d 9680 56bd
00000150: 0561 d9bd 23bd 2c3d cc04 99be f955 b1bd
00000160: b303 b93d 4ee8 8bbe 4979 a93c ba93 9ebe
00000170: 533a 2cbd bded c5bd f7cc ee3c e27f 8b3e
00000180: 2e57 603e 81f2 b63c 9e6e 573e 554e 873d
00000190: 2f76 d8bd 4fa9 8cbe 5df3 59bd e486 a6be
000001a0: 735f 093e 3a08 333d 847d 81be f8ef 683e
000001b0: d2a5 e0bd 6e04 46bd 62a6 c5bd c189 81be
000001c0: b9f2 253e b2b0 b63d b770 943e f079 71be
000001d0: 5325 36be 7f95 dbbd 8c87 2cbd e9ae 403e
000001e0: a1d7 edbd a134 893e 508e 5f3b bd66 b33e
000001f0: 05db 31be 3c8d 833e 8076 65bd 2e2d 99be
00000200: 1f63 65be
0.16626973 0.058451712 -0.017876182 0.20863007 -0.059199065 -0.028020293 -0.011596693 0.04154318
-0.044140734 0.13430803 0.10785983 0.16634217 -0.005849491 0.052338436 0.052177187 0.08029831
-0.279736 0.13528839 -0.12178266 -0.092197455 0.095301144 0.029946484 -0.05458962 -0.015409265
0.078811765 -0.007964011 0.043506276 -0.14796321 0.102509186 0.038203258 -0.0748315 0.1573734
0.05363489 -0.069937885 0.14562112 0.15805872 -0.08009975 0.04459056 0.0453598 0.1314214
-0.02673402 0.065389864 0.12753084 -0.1426328 0.018882636 0.034425963 0.26425207 0.18905215
0.09809687 -0.049645457 0.07306013 0.020618843 0.08346423 -0.18955834 0.002127876 0.24454705
0.12330156 -0.008252986 -0.1763539 0.031741943 0.06672669 -0.1801094 -0.043488756 -0.13243131
0.14623778 0.040099427 -0.22147565 0.16029465 0.07451961 0.072077915 -0.061235104 -0.18418661
0.11548006 0.08679871 0.045362372 0.08543791 -0.064943336 0.013736855 0.05482884 0.19494605
0.22072573 -0.023967138 0.08357592 -0.052368723 -0.10614208 0.042172562 -0.29886472 -0.08658976
0.09033909 -0.27325672 0.020687716 -0.3097208 -0.04204781 -0.096644856 0.02915047 0.27246004
0.21908256 0.022332432 0.21038291 0.066067375 -0.10569417 -0.27472922 -0.053210605 -0.32524788
0.13415317 0.043709017 -0.25291073 0.22747791 -0.10969128 -0.04834407 -0.09650876 -0.2530041
0.16205873 0.08920421 0.28992245 -0.23581672 -0.17787676 -0.107218735 -0.042121455 0.18816723
-0.116133936 0.26797965 0.0034111924 0.3503932 -0.17368706 0.2569369 -0.056021214 -0.29917282
-0.22401093

gru.weight_ih_l1 f4 [129, 43]
00000000: f685 78be bb45 ec3c b067 393e 4bf1 853d
00000010: 2bd6 343c ffbc e4bd 22dd c43c b927 0fbd
00000020: fc56 6f3d 5672 053d b177 1a3d 2c91 8c3d
00000030: 9bd1 123e 943e 95bc 1307 50bd 1ccc a1bd
00000040: b06f 193e c659 dbbc 937a 02bd 4d67 21be
00000050: fe12 0abc dad6 873c 906a e9bc a65e 203d
00000060: 5925 8c3d 9bfc 9abd 540c 503e 5ae5 a23d
00000070: 603c db3c a2b8 a33d 4af5 22bd 6ff2 dcbd
00000080: 8558 8e3b eaf1 2fbc 0f6d 0dbe 2610 dd3d
00000090: f38f 013e 844d 263c 0662 4ebe 7c91 bb3d
000000a0: 6d37 203d 2ef0 963c 75d7 4cbd c558 39be
000000b0: 5fd4 d2bd f4b8 ed3d ffd3 e9bd 65c2 95bd
000000c0: a590 41bd 86be f03d 88d7 4e3e d85a 523e
000000d0: 6741 da3c 71fa 433d 68d6 043e b2e4 edbd
000000e0: bc6e 263e e93a 5ebe 3a2b 88bd a415 293e
000000f0: b9cc 3f3d a912 50bd 1ca7 303d 6b46 93bc
00000100: 0904 ae3d 4593 f03c 2c73 64bd dd7c acbc
00000110: 3101 f3bd e403 fd3d ca4b 143e 7934 d63d
00000120: 2f0b 69bd f083 dfbd d904 d03c ecfc 163c
00000130: e035 eb3b 964d 92bc f4a3 1cbe d31a ce3c
00000140: ebd8 f63d 3b3a 11be 87fe 983b 6909 0ebe
00000150: 8cc1 e4bd 1029 8e3c dcbe b13c e91e a53d
00000160: f142 623e bfa7 dd3d 9b5a 4bbd f4ad 13be
00000170: 283f 01be 1d3e 4e3d 1152 5b3d fc31 053e
00000180: be08 a1bc 1322 6c3e 378f 413d d774 153e
00000190: 568b 02be ca01 5c3c 6b72 f83d 043c 22be
000001a0: d10c 8dbc 1ec3 c7bd 8831 d9bd 0c08 483d
000001b0: e41c d73c a1a5 be3d 4a63 07bd 64ff 19be
000001c0: da3b 883d 5a58 2c3d 9ffd b7bc 4897 bc3d
000001d0: 3f9b 0f3e f76f 67bd 25aa 03bd 5ac3 fb3c
000001e0: e56b fd3d a550 5cbd 932a 99bd 3a22 283e
000001f0: b13f 42be 4678 28be 989d 24be fa28 a6bb
00000200: ae0b 603c d46a edbd 6060 d53d be34 8e3d
00000210: 5d34 823d e96a 403a b32d 58be 327d 77bd
00000220: e355 e23d 0102 023e 17ef 073c d15e 02bd
00000230: 192b 803e fa43 bcbd b82f 0abd 149b febd
00000240: 772a d23d b883 3e3e 25ec 1bbe d133 f93b
00000250: 5a20 9a3b c83c 9b3d 52a2 b73d 4b4f 0dbe
00000260: e84f a33d 9472 d5bd c009 8bbe a00d e0bc
00000270: 5942 e63d 5036 993d 44f4 4f3d e6a7 01be
00000280: e8c3 f5bd b060 01bd d2d5 d73d ea49 6cbc
00000290: 6b6e 2ebe 0b29 853d 41f0 363e 68ee a5bd
000002a0: 35ae 38ba 3419 9bbd d040 ddbd ce44 0ebd
000002b0: d359 0bbd 7de4 a83d f845 963d 6ef4 623b
000002c0: 5363 03bd b326 03be d219 d6bc 27b1 2cbd
000002d0: 3738 1dbc 1b9a 1d3d 6322 033d bb65 003c
000002e0: 303f 113e d2dd 8f3c eb44 a53d 794a 88bd
000002f0: c2df 153e 15c9 e3bd 761d 973c 4d52 f9bd
00000300: 77db a03d e40f a13d f148 ac3d 89f6 563d
00000310: 5b12 10be 52b1 00be 120c 623d 1304 4f3d
00000320: fc15 f63d ba0e bb3d 39f2 5cbc 2871 1cbe
00000330: 5430 cc3d 6918 7b3e 4cc2 5fbd 1780 233e
00000340: 849c b93d 37c6 4fbd 001e 20be bfdc b5bc
00000350: 44ae 973d 3555 8dbc 8c9c a3bd 6af5 16bd
00000360: b2d8 eabb 1581 923d d273 0fbe de8b d6bd
00000370: 726b b43c 4bea 443d c77f f53d 3f29 0e3d
00000380: 27ba 853c 6cec fbbd 040e 673d 6905 13bd
00000390: 0273 3b3e c2ea 283c 16bf dd3c 5310 053c
000003a0: 8377 323d 5f36 4fbd 0608 c93d 0505 6f3c
000003b0: 79a9 f0bd d9e9 35bd 89c1 0bbd 92be 083d
000003c0: 3c0c 65be 72ea 36bc b7b3 133e 8156 97bd
000003d0: f4fc 633c f3e1 33bd ec02 b93d 930a 363e
000003e0: 11dd 19bb 0e69 81bc b489 1c3e 38ef ef3b
000003f0: 204a f83d df00 43be 1a18 edbc 9de4 f4bd
-0.24269852 0.028841844 0.1810596 0.065401636 0.01103739 -0.11168861 0.024031226 -0.03494999
0.058432564 0.032579742 0.037711803 0.06863627 0.1433777 -0.018218316 -0.050787997 -0.07900259
0.14984012 -0.026776206 -0.031855177 -0.15762062 -0.00842738 0.016581941 -0.028493196 0.039152764
0.06843061 -0.07567712 0.20317203 0.079539016 0.026762187 0.079942 -0.039784707 -0.10788428
0.0043440484 -0.010738829 -0.13811134 0.10794096 0.12652569 0.010150317 -0.2015458 0.09158608
0.03911536 0.018425073 -0.050010163 -0.18100269 -0.10294413 0.11607543 -0.11417388 -0.073124684
-0.047257084 0.117550895 0.20199406 0.20542467 0.026642514 0.04784626 0.12972414 -0.11615886
0.1625318 -0.2170216 -0.0664887 0.16512161 0.046826098 -0.050799046 0.043128118 -0.017977914
0.084968634 0.029367099 -0.0557739 -0.021055633 -0.118654616 0.12354258 0.14482036 0.10459227
-0.05689543 -0.10913837 0.025392937 0.009215575 0.0071780533 -0.017859261 -0.15296918 0.025159275
0.120530926 -0.1418237 0.004669014 -0.13870777 -0.11169729 0.017353565 0.021697454 0.08062536
0.22095849 0.10823011 -0.049646955 -0.14421827 -0.12621748 0.050352205 0.05354506 0.13007349
-0.019657489 0.23059873 0.04725572 0.14595352 -0.12748465 0.013428161 0.121311985 -0.15843207
-0.017218025 -0.097540125 -0.106051505 0.0488358 0.026258893 0.09308935 -0.033053674 -0.1503883
0.06652041 0.042076446 -0.022459803 0.09208542 0.14024065 -0.056503262 -0.032144684 0.0307328
0.12374095 -0.053787846 -0.074788235 0.16419306 -0.18969609 -0.1645213 -0.16075742 -0.0050708028
0.01367466 -0.115926415 0.10418773 0.069436535 0.06357644 0.00073401496 -0.21111183 -0.06042213
0.11051538 0.12696077 0.00829675 -0.031828705 0.2503288 -0.09192653 -0.033736914 -0.124319226
0.10262006 0.18604934 -0.152268 0.007605054 0.0047035636 0.075799525 0.08966507 -0.13799779
0.07974225 -0.10422245 -0.27155876 -0.027350247 0.112431236 0.074810624 0.05077006 -0.12661704
-0.12000257 -0.03158635 0.1053883 -0.014421919 -0.17034309 0.06501969 0.17865087 -0.08102113
-0.0007045002 -0.075731665 -0.10803378 -0.034733586 -0.03402121 0.08246706 0.07337564 0.0034630555
-0.032077145 -0.12807731 -0.026135359 -0.042161133 -0.009595922 0.038477045 0.032015216 0.007836754
0.1418426 0.017561827 0.08069786 -0.066548295 0.14636138 -0.11122338 0.018446665 -0.12173901
0.078543596 0.07864359 0.0841235 0.052481208 -0.14069502 -0.12567642 0.055187292 0.050540995
0.12015912 0.09133668 -0.013485485 -0.1527754 0.09970155 0.2452103 -0.054628655 0.15966831
0.09063056 -0.05072614 -0.15636444 -0.022199987 0.074062854 -0.017252544 -0.07988843 -0.03685514
-0.0071669454 0.07153527 -0.14009026 -0.10475896 0.02202389 0.048075 0.11987262 0.034707304
0.016324116 -0.12300953 0.05640985 -0.03589383 0.18305591 0.010309877 0.027068656 0.008121568
0.043571007 -0.05058896 0.098159835 0.014588599 -0.11751074 -0.044412468 -0.034120116 0.033384867
-0.22367948 -0.011164295 0.14424025 -0.07389546 0.013915289 -0.043916654 0.090337604 0.17777471
-0.0023477713 -0.015797164 0.15286905 0.0073222183 0.12123513 -0.19043301 -0.028942157 -0.11957667

gru.weight_hh_l1 f4 [129, 43]
00000000: 0d3a 92bd bb14 a5bd 3f07 2abd 727a 90be
00000010: b9d1 44bd 5ad8 55bc ed4f 20be 9784 423d
00000020: 4f1b 803c d8fb c8bd dc2e debd 382d f03d
00000030: 8f3b e03d 02e2 7ebe 9eaa 443e 7886 ccbd
00000040: 1f62 bbbd 9f24 0c3d 480e 0d3e b45e b0bc
00000050: bbf8 9fbd 14df f33d 37b4 fdbc 80d9 3b3e
00000060: 5d01 31be 6425 f4bb ee73 0d3e d906 9b3b
00000070: 6b01 13be 9786 56bd 74a8 123c 58fa 6abe
00000080: 2d70 8e3e 157b 303d d600 d2ba b47c c5bd
00000090: 1436 673e 63dc 56be d3ab 173e ea2f 093e
000000a0: e320 8f3e 5a92 543c a22b 253e 517b d6bd
000000b0: 9a1c 713d 2d87 8e3c a014 cdbd e4d2 46be
000000c0: 727d be3c 675c 6bbe de17 4f3e 7699 5bbe
000000d0: 2276 5abe 71ab 31be f616 0f3c 95bc 4c3d
000000e0: a1ff 40be 4c6b 633c 2ee6 fbbd abfe 9abe
000000f0: 676b 063d b983 c63d 601f 50bd ad60 2cbe
00000100: 6562 1e3e 9d6f cdbd 4137 b53c dbda 8f3c
00000110: 2ae5 38be 836f a63d 2272 65be e811 1abe
00000120: 454e 9fbd afab babd ca39 12be b257 913e
00000130: 2d57 b8bc ac9d 693e eda9 79be 60b2 653e
00000140: df31 f4bc f2f6 8b3e 279d e43d fe76 383e
00000150: b175 803e ff36 943e 32ce 3cbd d137 143d
00000160: 89f7 1b3c bcbf c0bd 74bf 92be 0b2f fdbd
00000170: 7077 14be 7a95 e93d 5f8d 4abe 29eb 87be
00000180: 1961 3dbd 1979 ea3d 3ba0 0e3e e3c2 933c
00000190: bfce 673e f5ba 38be cf83 d9bc 2f89 2a3e
000001a0: 7a64 8e3e 2793 3ebe 098e cbbd 7c8b d13b
000001b0: 9cd8 fcbc ad2d 803e 010e 53bd bf49 c9bc
000001c0: 69da ad3c 9f78 71be 8ec0 83bd 3af1 c73b
000001d0: d270 11be 3ff9 38be 7ecc 1f3e 86f1 3c3e
000001e0: 771b 8a3e 898f ccbb 8897 723e a1b5 19be
000001f0: 5533 2b3b 2f76 073e 568f 823e 6954 773e
00000200: 8f20 393e eb40 60be 9ab1 623d b56b 953b
00000210: af4e 89bd e6d1 34be 60ba 03bd f95f 2cbe
00000220: a626 973e 1ebf 6cbe 46b2 4bbc 91cf 483c
00000230: 1eb8 9dba 75cd 223e 4f1e dcbd 8a88 263e
00000240: 7181 28be 5ae2 12be 4e0d 4d3e d9d8 923e
00000250: b9d8 093c 1737 f7bc 6d88 293e 2202 edbc
00000260: 2fc3 cd3b da08 29bd 01aa acbd 3b32 7b3e
00000270: 3f1a 5f3c eb36 8dbd 7d0f 5ebe f0fd 1cbe
00000280: 795e 95bd 4bcd 6d3e 79d7 323d b6ff 8f3e
00000290: c1b4 07be 8971 853e 82aa 43be cb12 383e
000002a0: 0b36 653e b8a5 73bb a2b2 cb3d 4887 863e
000002b0: 8fda 20be 40a5 c73d 101f 233b 598b e13b
000002c0: 11c7 4cbe 778b 2b3d 2413 8d3c 9319 f03d
000002d0: 7f96 b6bd 4e3c 7dbe 5daf a1bd d8eb c43d
000002e0: af35 5b3e 0bbb 04bd 8bb4 983d 657f 1abe
000002f0: ddaa a83c b9d5 063e 2af2 453e 4639 40bd
00000300: 0912 48bd b2ad af3c fe70 33be dc58 1b3e
00000310: 2160 48be 2e6c c6bd 17d4 4f3e c424 14be
00000320: 8681 1abe 3706 4fbe 267d 69be 62bb 8fbe
00000330: 653e 203e c8e0 45be c0b4 213e c216 d43c
00000340: 532d 7a3e 0d2e a3bd 752a d33d 1e92 343e
00000350: 2d57 68bc 9e74 ca3d 6bee c33b e699 18be
00000360: 0312 41be 62e9 ec3d 1da8 e9bd 761e 0f3c
00000370: 66b6 39be 46ff 69bd 3d79 f73c 2581 b7bc
00000380: d83f 7dbe bb84 13be 9fe8 053e 2177 753e
00000390: 781a af3b 6710 493d 2ca4 06be 90f6 28bd
000003a0: fa89 2c3e 3c89 513e 8e38 afbc d62b 65be
000003b0: ae0b 793e 6de0 e8bd c389 053e fe22 55be
000003c0: d730 8abd c744 473d b67f 1cbe 1d4e 1b3d
000003d0: 413a dcbc 33e4 5abd c82d 8ebd 6469 423d
000003e0: 247b 293d 3c25 1b3e 6a2b fcbd 1391 54bd
000003f0: de92 4ebd 909d 6f3e 703f ce3d f289 473d
-0.071399786 -0.08060595 -0.041510817 -0.28218418 -0.04805157 -0.0130520705 -0.1565549 0.04748973
0.015638022 -0.098136604 -0.108487815 0.11727375 0.1094886 -0.24890903 0.1920571 -0.099865854
-0.091495745 0.034214612 0.13774979 -0.021529533 -0.078111134 0.11907783 -0.030969722 0.18344688
-0.17285676 -0.0074507464 0.13813755 0.004731041 -0.1435601 -0.05237445 0.008951295 -0.22947061
0.27819958 0.04308613 -0.0016021978 -0.09642926 0.22579223 -0.20982508 0.1481164 0.13397184
0.27954778 0.012974346 0.16129926 -0.104727395 0.058865167 0.017398441 -0.100136995 -0.19416386
0.023253176 -0.22984467 0.20223948 -0.2144526 -0.21334127 -0.17350556 0.008733502 0.049984533
-0.18847515 0.013880562 -0.12299763 -0.3027242 0.03281727 0.09693093 -0.05081117 -0.16833754
0.15467222 -0.10031054 0.022121074 0.017560413 -0.18056169 0.08126738 -0.2240682 -0.15045893
-0.077786006 -0.09114777 -0.14279857 0.2838722 -0.022502506 0.22814053 -0.24381228 0.22431326
-0.029808937 0.27336842 0.11162787 0.18014142 0.2508979 0.2894821 -0.04609508 0.036186043
0.009519466 -0.094115704 -0.28661692 -0.12362488 -0.14498687 0.114054635 -0.19780491 -0.265466
-0.046235178 0.11448879 0.1392831 0.018037265 0.22637461 -0.18040068 -0.026552109 0.16653894
0.27811033 -0.18610822 -0.099392004 0.0063948017 -0.030865006 0.25034848 -0.051527027 -0.024571298
0.02122231 -0.2358117 -0.06433211 0.0061017545 -0.14203194 -0.1806383 0.15605351 0.18451509
0.2697408 -0.0062426967 0.23690617 -0.15010692 0.0026123126 0.13228677 0.25499982 0.24153294
0.18078826 -0.21899764 0.055345155 0.004559959 -0.06704461 -0.17658195 -0.032160163 -0.16833486
0.29521674 -0.2311978 -0.01243264 0.012256519 -0.0012033021 0.15898688 -0.107479684 0.16263023
-0.16455628 -0.14344159 0.20024607 0.28681067 0.008413487 -0.030177636 0.16555949 -0.028931681
0.006279371 -0.041268207 -0.08430863 0.2453088 0.013617097 -0.068952404 -0.21685596 -0.15331244
-0.0729341 0.23222844 0.043662522 0.2812478 -0.13252546 0.26063183 -0.19108012 0.17975919
0.22383897 -0.0037177633 0.09946181 0.26275086 -0.15708373 0.09748316 0.002489034 0.0068830666
-0.19997813 0.04188105 0.017221041 0.11723628 -0.089154236 -0.24730036 -0.07894776 0.09615296
0.21407197 -0.03240494 0.07456311 -0.1508766 0.020589286 0.13167466 0.1933066 -0.04692962
-0.048845325 0.021445129 -0.17523572 0.15170616 -0.1956792 -0.096886024 0.2029575 -0.1446715
-0.15088472 -0.20217215 -0.22801647 -0.2807265 0.15648802 -0.19324028 0.15791607 0.025889758
0.24431352 -0.07967768 0.103108324 0.17633864 -0.014180941 0.09885524 0.0059793494 -0.14902458
-0.18854527 0.11567952 -0.11409018 0.00873529 -0.18135986 -0.057128213 0.030209178 -0.022400448
-0.24731386 -0.14406101 0.13077019 0.23971225 0.0053437315 0.049087908 -0.13148564 -0.041250765
0.16849509 0.20462507 -0.021389272 -0.22380003 0.24320862 -0.11370931 0.13040833 -0.2081413
-0.06747597 0.048649576 -0.15283093 0.03791629 -0.026883246 -0.053440284 -0.06942326 0.04746379
0.0413772 0.15150923 -0.12312968 -0.051896166 -0.050433032 0.23399949 0.100706935 0.04871554

gru.bias_ih_l1 f4 [129]
00000000: 65d2 b8bd ed14 33be e838 38be 82de 0ebe
00000010: 17aa 9cbc 803f a6bd 8830 413d 873e c2bd
00000020: 1d3a 9cbd f90e 43be 3420 fd3c 0c66 3d3b
00000030: 6576 53bd 64b5 203c 3c82 f73d 07d6 c2bd
00000040: e1e0 383d feb0 37bc 0d4a 06be 8115 e1bd
00000050: 3a76 6c3c 6125 883d ab62 d7bd 7098 83bd
00000060: c264 a2bd 5c7a 2cbe bd27 68bd 0717 6d3d
00000070: 341a 32bd 0fe1 0a3d 1d17 e5bd 8112 d4bd
00000080: cdcd f43d 619c 063e b0a0 8cbc 25f1 06bb
00000090: c174 05bd 7693 e4bc a275 9cbc 5d94 7ebd
000000a0: 4272 d2bd f601 4e3d 22f7 ecbc 795c 8d3c
000000b0: 8532 dbbd 102f 13be 7aaf 46be e078 57be
000000c0: 5f34 37bd c2dc 75be adc1 05be 6893 acbd
000000d0: a325 7a3c b759 91bd 4a60 aebd df30 a0bc
000000e0: 4592 1cbe f9fe 1cbe 4bf1 613c f767 41bd
000000f0: 2889 2abc 085c b2bd 7a8f 1d3c 322c 53be
00000100: 40e9 b4bd af87 9dbd 0b88 e6bd ddec 24bc
00000110: 1af8 52bd d703 7fbe 262b 3abe 0242 54be
00000120: 5a7f 0ebe e078 bcbd ccf1 8abd 4eb3 2c3d
00000130: c49d 30be 20d8 b1bd 89c4 c3bd ccca 1dbe
00000140: b76f 8fbd e8be 6bbe 5731 d73c e9b0 993c
00000150: 4e14 97bc f3b3 36be 949b 02bc 6f17 76be
00000160: 10c7 e93d 973c 74be f2fd 323d 7349 8dbc
00000170: 139c 1ebc dd8d 393e 9f53 15be ebb9 1b3d
00000180: 2596 32be 91d0 663e f13a 6dbc a8b1 55be
00000190: 0e7b fb3d 8814 ed3c 8648 1cbd 8520 b33d
000001a0: b700 48bc 4d30 13bd 3c12 ecbd 88e6 263e
000001b0: 5ba2 8cbc 943c d6bc 1ebd e2bd a52e 43be
000001c0: c2c1 5b3e 94be 70bd ab40 66be 98d8 f3bd
000001d0: 7eaa dbbd be3c 9bbd d64e 193d 722f 523d
000001e0: 61c7 913d 6ac8 e2bc 60c9 163e 1034 87be
000001f0: b101 1dbd cb3d e4bc 495e 023d fbdc 483e
00000200: b250 8b3e
-0.090245046 -0.17488451 -0.17990458 -0.13952067 -0.019124074 -0.081175804 0.047165424 -0.094845824
-0.07628272 -0.1904868 0.030899145 0.0028899936 -0.05162658 0.009808872 0.12085387 -0.09513479
0.045136336 -0.011211632 -0.13114186 -0.1099043 0.014432484 0.066477545 -0.10516866 -0.064255595
-0.07929374 -0.16843551 -0.056678522 0.05788329 -0.04348202 0.03390604 -0.11186049 -0.10355092
0.11953316 0.13145591 -0.017166466 -0.002059051 -0.03258205 -0.027902346 -0.01909906 -0.06215321
-0.10275699 0.05029484 -0.028926436 0.017256008 -0.10702995 -0.14373422 -0.19402876 -0.21042204
-0.04472768 -0.24009994 -0.13062163 -0.08426553 0.015267762 -0.0709719 -0.085144594 -0.019554554
-0.15290172 -0.1533164 0.013790439 -0.04721829 -0.010408677 -0.0870896 0.009616727 -0.20622328
-0.088335514 -0.07691895 -0.11256417 -0.010066238 -0.05150614 -0.24903809 -0.18180522 -0.20728305
-0.13915768 -0.092027426 -0.067844 0.042163186 -0.17247683 -0.08683801 -0.095589705 -0.15409392
-0.0700373 -0.23022044 0.026268644 0.018761115 -0.0184423 -0.17842083 -0.007971663 -0.24032377
0.11414921 -0.23851238 0.043699212 -0.017246937 -0.009680766 0.18120523 -0.1458268 0.038019102
-0.17440088 0.225405 -0.014479385 -0.20868552 0.1227933 0.028940454 -0.0381551 0.08746437
-0.012207202 -0.035934735 -0.115269154 0.16298878 -0.01716726 -0.026151933 -0.110712275 -0.19060762
0.21460631 -0.0587755 -0.22485606 -0.11906546 -0.10725878 -0.07579945 0.0374287 0.05131478
0.07118107 -0.027683455 0.14725256 -0.26406908 -0.03833169 -0.027861496 0.0318282 0.19615547
0.27210003

gru.bias_hh_l1 f4 [129]
00000000: 1841 143c 0e55 123d f9c8 24be 100c deba
00000010: ad36 93bc 2e6c 573d 4316 4f3d a37b f83d
00000020: 92b9 4ebd 264e 18be 4447 08be e845 de3d
00000030: 8ac9 673d 5060 35be 935a 83bc 7c31 033d
00000040: 4311 613b 6adc 7a3d edb7 d93d 32ab 3cbd
00000050: 4799 4f3d b3a7 343c e514 c83d 68b1 c6bd
00000060: 7f96 123e 6fff ecbb 93d7 bebd c65e e9bc
00000070: 0540 bb3d 141b 84bd 2169 1d3e 1384 b53d
00000080: 1ccf 7dbd a4a5 d8bc ce7e fabd c563 2c3d
00000090: 07b5 b83d 62af 8cbd 5599 b83d f79b b6bb
000000a0: 6704 0e3e 023b e7bd c204 dabd c3f9 88be
000000b0: e02b 123d 04cc 2abe 2882 96bd 744e 2a3c
000000c0: 80a9 37be ee3e 62be 080d 8abe fc06 8bbe
000000d0: 3957 38be 3f45 13bb f6f5 31be 664e 12be
000000e0: 2477 fcbc 49fa 5cbe eef1 dfbd 7380 52be
000000f0: 69b3 21be 318a b5bd 1738 f6bd 44e0 54be
00000100: 91da 87be 6c67 81be 8255 d33c 41df 7ebd
00000110: 0a48 e6bd e720 5ebe 75ce 2fbe 7c42 553c
00000120: 4307 3cbe 532b 4abe 3116 b4bc aabe 0fbd
00000130: 70f7 3fbe 5cea 86be 8ef7 05be 9679 2a3d
00000140: 8c4b febc 56df 3cbe 1fc0 68be 6027 7fbe
00000150: 71c1 593a 8e35 ffbd f3a8 4fbe b494 86be
00000160: f66a ff3d e453 81bd 9c21 f7bd 60be 6bbe
00000170: 605d 9ebe 6f2e 903e 54c5 09be c38b 013e
00000180: ce2d 8fbe 47d5 4e3e ce90 a63d cef1 1ebe
00000190: 0d95 0e3e 9f35 8cbd 0b6b 34be 0c2e 823e
000001a0: b3d3 563e 5e98 7dbe 1108 58be 0a4b 993d
000001b0: 3d98 90be 272a 8a3e 1125 fbbd 1c9f b1bc
000001c0: 85c0 953c 7f4e 93be 20bf 81be 625f 6dbd
000001d0: 0704 36be 24a9 5dbe ce98 473e 7db4 073e
000001e0: 49fc 2f3e 6d71 40be 7efe 643d a925 93be
000001f0: 1de8 4c3e f9c0 0c3e 9171 1c3e 4ec7 9a3c
00000200: 0ed4 fb3c
0.009048723 0.035725646 -0.1609229 -0.0016940851 -0.017970407 0.052593403 0.05055834 0.12132957
-0.050469942 -0.14873561 -0.13308436 0.10853177 0.056588687 -0.17712522 -0.0160344 0.032029614
0.0034342564 0.06124536 0.10630784 -0.046061702 0.050683286 0.011026311 0.0976961 -0.09701806
0.14315222 -0.0072325985 -0.09318461 -0.028487574 0.0914307 -0.06450477 0.15372135 0.08863082
-0.061965093 -0.026446171 -0.12231217 0.042087335 0.09018903 -0.06869389 0.09013621 -0.0055727917
0.13868867 -0.11290552 -0.10645439 -0.26753053 0.035686374 -0.16679388 -0.07349044 0.010394681
-0.17935753 -0.22094318 -0.26963067 -0.27153766 -0.18002023 -0.0022471694 -0.17378983 -0.14287719
-0.03081853 -0.21579851 -0.10934816 -0.20556812 -0.15791096 -0.088642485 -0.12022417 -0.20788676
-0.2653394 -0.25274217 0.02579761 -0.06222463 -0.11244209 -0.21692239 -0.17168601 0.013016339
-0.18362145 -0.1974309 -0.021983238 -0.03509394 -0.18746734 -0.26350677 -0.13082716 0.04161986
-0.031041883 -0.18444571 -0.22729538 -0.24917364 0.0008306718 -0.124613866 -0.20279293 -0.26285326
0.12471573 -0.06314829 -0.12066957 -0.23021841 -0.30930614 0.28160426 -0.13454181 0.12650971
-0.27964634 0.20198546 0.08133088 -0.15521929 0.13924046 -0.06846165 -0.17618959 0.25425756
0.20979194 -0.24765155 -0.21096827 0.07485016 -0.2824115 0.26985285 -0.12262929 -0.021682315
0.018280277 -0.28770825 -0.2534113 -0.057952292 -0.17774974 -0.21646553 0.19491884 0.13252445
0.17186083 -0.18793269 0.055906765 -0.2873967 0.20010419 0.13745488 0.15277697 0.018893864
0.030740764

fc.weight f4 [1, 43]
00000000: 99fb adbf 8359 9ebf 1433 a03f d0b7 a1bf
00000010: 01b5 b2bf 4fd4 aabf 90ff 9fbf 803b a23f
00000020: 08a7 a7bf 432c febf ae3c aabf 6ddb b13f
00000030: 0e38 a83f a76c a3bf 9e0b b33f 61d4 b1bf
00000040: 8d09 b0bf 79e7 ae3f 4fb4 a63f 7d69 a9bf
00000050: 2ef9 aebf bccf ac3f e03f a5bf ca82 ae3f
00000060: ed80 acbf 5912 a7bf b59d 9e3f 8ffc a6bf
00000070: ba8f a5bf de0f a9bf 4ccb b1bf 3c11 a9bf
00000080: d2ac ae3f 67e1 b23f b19f 9d3f ed72 adbf
00000090: 2951 a93f e5d2 b2bf 30c6 ae3f 7511 a93f
000000a0: 8e3d a93f 9692 a83f caf5 a53f
-1.3592407 -1.2371067 1.2515588 -1.263422 -1.3961488 -1.3346041 -1.2499866 1.2674408
-1.3097849 -1.9857258 -1.3299768 1.3895088 1.3142107 -1.2767533 1.398792 -1.3892938
-1.3752915 1.366439 1.3023776 -1.3235317 -1.3669794 1.3500896 -1.2910118 1.3633664
-1.3476845 -1.3052474 1.2391878 -1.3045825 -1.2934487 -1.3207967 -1.3890166 -1.3208385
1.364649 1.3975037 1.2314359 -1.3550698 1.3227893 -1.397061 1.3654232 1.3208452
1.322191 1.3169734 1.2965634
