models/gru_trial_8.pth (torch, 619440 bytes, 9 tensors)

gru.weight_ih_l0 f4 [369, 44]
000000 97 c9 b5 bd 9a de e8 bc ff 9f 8d bd c2 39 4c 3d
       -0.08876341 -0.028426457 -0.069152825 0.04985977
000010 12 55 3b 3e 77 89 49 3c 4a 58 b9 3d 30 37 e6 3c
       0.1829417 0.012300841 0.09050043 0.028102487
000020 c3 fc 8f 3d d5 12 81 3e 02 61 a9 3c bf 62 15 3d
       0.07030632 0.2520968 0.02067614 0.036471125
000030 b8 d5 f0 38 cd 50 37 be f9 a6 8a 3e e9 be d8 3c
       0.000114839 -0.17901917 0.27080515 0.02645822
000040 0e 64 11 3d 08 49 d1 ba 9c c9 90 bb 0f e5 64 3c
       0.03549581 -0.00159672 -0.004418565 0.013970627
000050 55 46 07 3d 1c 91 5e be 6b 1d 5e 3d e9 10 93 3c
       0.03302606 -0.21735042 0.054227274 0.0179524
000060 86 14 a0 3e ec 18 d6 bc 38 73 ba bd 8e 5b c5 3b
       0.31265658 -0.02613493 -0.091040075 0.006022877
000070 61 cc 78 3b 34 f4 a4 bc 76 37 7d 3e 68 df eb bd
       0.0037963616 -0.020135976 0.24728188 -0.11517221
000080 ae a0 10 3d 8e 3b 95 be 58 1b 4b 3e 3a b9 0c 3e
       0.035309486 -0.29147 0.1983465 0.13742533
000090 f2 64 5c be 90 19 0a be 5e c6 bc 3c b2 a5 38 3e
       -0.21522883 -0.13486314 0.023043808 0.18031958
0000a0 ce 22 cd bd bb c1 3a be a3 80 ec 3d bc 6c 00 be
       -0.10016404 -0.18237965 0.11547973 -0.12541479
0000b0 2f a4 01 bd 71 b7 71 bd 73 10 99 3c 48 38 6e 3d
       -0.03165072 -0.059012834 0.018684601 0.058159143
0000c0 1c ff d6 bd b2 d2 8a bc fc 64 26 be 86 d0 d9 bc
       -0.10497877 -0.01694617 -0.1624946 -0.02658869
0000d0 90 05 08 bd 03 15 85 3c a7 87 9f 3d d2 f7 aa bd
       -0.03320843 0.01624537 0.077895455 -0.08348049
0000e0 b8 41 14 bd 88 90 1c 3e 15 22 37 bd 50 72 95 3d
       -0.036195487 0.1528951 -0.044710238 0.07297194
0000f0 ea 6e cf bd ba 52 76 bc 25 3b 0f bb 22 03 09 be
       -0.10128577 -0.015034372 -0.0021855321 -0.13380101
000100 c7 2b 19 bb 39 5c c2 3d b6 66 81 bd 83 d9 6b 3d
       -0.002337204 0.09490246 -0.06318419 0.057580482
000110 62 a1 82 be d5 28 3e be 6c f4 38 3d 56 e9 45 3c
       -0.2551375 -0.18570264 0.045154974 0.012079557
000120 a8 36 cb 3a 15 bb 97 bd 58 44 3c bd d0 94 06 3b
       0.001550396 -0.0740873 -0.045963615 0.0020535477
000130 74 ee f4 3c 58 0e e5 bd 92 13 24 be 48 d4 f8 3c
       0.02989886 -0.111843765 -0.1602309 0.030374661
000140 6c b4 1b be 95 ba d2 bd d7 5d 35 3e 4e 73 0a 3e
       -0.15205544 -0.10289494 0.17711578 0.13520548
000150 de d1 00 bd e1 d0 34 3e ff ce 3f 3e 1a cf b3 bc
       -0.031450145 0.17657806 0.18731306 -0.02194934
000160 ae b9 ab 3d 82 34 26 3c 0e 0e 1b be 13 b7 ca 3c
       0.08385025 0.010144355 -0.1514208 0.0247455
000170 42 21 72 be a1 0c 5d 3d 9f 01 1b 3d be 09 31 3d
       -0.236455 0.053967122 0.037843343 0.04322218
000180 41 06 2f 3e af da 0f 3d 0b c4 b3 3c 76 bf dc bd
       0.1709223 0.035120662 0.021944067 -0.10778706
000190 07 44 80 3d 60 cb 89 bd b6 3f c1 bd 25 25 e2 bd
       0.06262975 -0.06728244 -0.0943598 -0.11042241
0001a0 6c b4 c1 bd c6 5a 10 bd 62 b2 99 3d b1 1e 10 be
       -0.09458241 -0.03524282 0.07504727 -0.14074208
0001b0 53 d3 78 bb ea d0 1f 3d 71 b8 65 bd c4 18 69 ba
       -0.0037967756 0.039017595 -0.0560841 -0.0008891935
0001c0 f2 47 02 be a9 6d c7 bd eb 0d 1f bd 7c b7 f4 bd
       -0.12722757 -0.09737713 -0.038831633 -0.11949059
0001d0 4d 7f b8 3d 1e ac 65 be 09 4a 9a be 24 0e 9a be
       0.09008656 -0.22428939 -0.3013461 -0.30088913
0001e0 96 06 56 3e 27 86 78 bd 1a 93 4a 3e 54 e3 5b 3e
       0.2090095 -0.060674813 0.19782677 0.21473438
0001f0 39 de 06 bd 80 c9 81 3e 3b 25 f5 bd 09 e6 d4 3d
       -0.03292677 0.25349045 -0.11969992 0.10395438
000200 ba cc 02 3c a0 6e 2c 3c 53 b7 67 bc f2 0b 89 bd
       0.007983381 0.010524422 -0.014142829 -0.066917315
000210 0e c8 32 3d d6 d7 04 3d b0 50 69 bd 82 d4 b9 ba
       0.04364782 0.0324324 -0.056961715 -0.0014177712
000220 ff b3 79 bd 98 27 62 bc b1 56 bd bd 60 44 8a be
       -0.060962673 -0.013803385 -0.09245051 -0.2700529
000230 e2 79 34 3e 41 6d d7 3d 74 c9 7f 3d 0d 63 48 be
       0.1762462 0.105188854 0.06244798 -0.19569035
000240 fa ea 08 3e 92 b6 97 3d a3 b8 cb bd 3d 0a 2b 3d
       0.13370886 0.074078694 -0.09947326 0.04175781
000250 79 b3 61 bc 3e 88 b3 3d 03 ab f7 bc b2 b3 17 be
       -0.0137757 0.087662205 -0.030232912 -0.14814642
000260 4e 2a 67 ba 5d 07 f1 bd c6 77 9b bd ee 46 3b bd
       -0.00088182546 -0.117689826 -0.07591204 -0.04572194
000270 e1 47 96 be e0 bc 84 be 94 2d 7b 3d 8f bf f2 bd
       -0.29351714 -0.2592535 0.061322764 -0.11852943
000280 07 f1 ca bd 09 6f f7 bd e7 e5 7a be d3 2f 99 3d
       -0.099092536 -0.12081725 -0.24501763 0.07479825
000290 32 9e 88 3c f3 b4 11 3d c3 c6 b4 3c 0c 88 b3 bd
       0.016676996 0.035572957 0.022067433 -0.08766183
0002a0 d7 3d 04 3c 1b f5 99 3d d7 cd bc 3d fb a0 78 3d
       0.008071384 0.07517453 0.09218948 0.060700398
0002b0 27 a9 d6 3d 58 dd 98 3d ba b8 d4 3d 4f 98 42 bd
       0.10481482 0.07464093 0.10386796 -0.047508534
0002c0 64 6f c2 bd c1 a5 b5 3d 24 b5 b3 bd 4a 91 c3 3c
       -0.09493902 0.08869506 -0.08774784 0.02387299
0002d0 59 6e 52 be 42 f3 3a 3d 10 a3 d8 3c 1b d0 1e be
       -0.20549907 0.045642145 0.026444942 -0.15509073
0002e0 2f 10 43 3e 0a 78 b8 3d 8a c6 3d 3e ae 96 34 3d
       0.19049142 0.09007271 0.18532768 0.04408901
0002f0 0f 4f 5a 3e 0b 30 97 bd 82 87 3a be 02 fd 54 bd
       0.21319221 -0.0738221 -0.18215755 -0.0519991
000300 ac 1d 9a 3d 03 81 23 3e 62 c2 a8 3d 7f c0 84 be
       0.07525191 0.15967183 0.082402006 -0.25928113
000310 be a6 6b be 83 49 34 bd 8c 1b 24 be 9e 72 da 3c
       -0.23012826 -0.04401542 -0.16026133 0.026665982
000320 40 2b f4 bd b7 82 08 be 07 98 8b bd 09 e5 3c 3d
       -0.11922312 -0.13331114 -0.06816106 0.046116862
000330 05 04 71 3d 9d 8e de bc af ec ff bd e4 e8 1b be
       0.058841724 -0.027167613 -0.12496316 -0.1522556
000340 16 88 9d 3d 5f 6b 6e be e4 87 4d 3a 7a 1d 06 3d
       0.07691972 -0.23283146 0.00078403787 0.032742955
000350 a3 1f 34 3d 56 27 e6 3d d0 07 a5 bc 66 9c b9 bb
       0.043975484 0.112379715 -0.020145327 -0.005664396
000360 41 15 37 3d 1d 18 26 3e 25 a0 ac 3d 83 03 b5 bd
       0.044698004 0.16220136 0.08428983 -0.088385604
000370 ab 7e 8b 3e 8a e6 fa 3d db a5 8c 3e 85 90 1b be
       0.27245077 0.12251003 0.27470288 -0.15191849
000380 2a fa 2e be 80 bb 19 be b1 ed 62 be 8e 7e c1 3e
       -0.17087618 -0.15012932 -0.22160985 0.37791866
000390 08 bb 61 b8 a1 3d 15 3e 5f 73 d3 bd 90 7e b2 bd
       -5.3818367e-05 0.14574291 -0.1032474 -0.08715546
0003a0 47 81 97 bb 1a af 78 3e e9 b2 36 be 01 11 b8 bc
       -0.0046235654 0.24285546 -0.17841686 -0.022469046
0003b0 7c d3 f7 bd 4e 02 cc 3d 58 2a 27 3e 10 65 68 be
       -0.12100884 0.09961377 0.16324747 -0.22694802
0003c0 36 c4 df 3c 24 35 87 bb 0c 52 06 bd ff cd c9 bc
       0.02731524 -0.004126208 -0.03279309 -0.02463436
0003d0 79 dc 9c be 8f 33 a7 bd 69 1c bc 3d 18 56 11 bd
       -0.30636957 -0.08164131 0.09185106 -0.035482496
0003e0 b1 e9 f0 bd b5 dc f2 bc 94 41 b4 be ab b2 8f be
       -0.11763323 -0.029646257 -0.35206282 -0.28066
0003f0 c8 9e 72 3d c3 e7 ef bc 07 44 00 be 64 c6 66 3d
       0.059233457 -0.029285317 -0.1252595 0.056341544

gru.weight_hh_l0 f4 [369, 123]
000000 a7 3c bb 3c 9c 43 87 be af a9 1c bd 7d e1 e7 bd
       0.02285607 -0.2641877 -0.03824776 -0.11322305
000010 40 c6 5d bb 6b b9 a6 bd 96 5e 10 bd a2 cc 1c 3e
       -0.003384009 -0.081408344 -0.035246454 0.15312436
000020 1e a3 df bd 41 48 a7 3c 5c cb 78 be 6a 27 03 3c
       -0.10919784 0.020420196 -0.24296325 0.0080050025
000030 b9 d6 ba bc cb d2 04 be 32 b1 1a bd 79 40 14 bc
       -0.022807466 -0.12971036 -0.037766643 -0.009048575
000040 08 70 3c 3d 8b 8b 0a bd b8 20 09 be 84 b8 83 3e
       0.04600528 -0.033824485 -0.13391387 0.25726712
000050 52 00 b7 3d 23 22 c3 bd 57 e6 89 bd 83 9b af bd
       0.08935608 -0.095279954 -0.06733387 -0.085745834
000060 e8 b3 93 3d 9d 19 d1 3d dc f7 ad 3d 5e ba 6d 3d
       0.07212049 0.102099635 0.08494541 0.05803906
000070 3a d5 1c 3e 8c 68 2a 3e 4f 47 dc 3c 02 37 f8 3d
       0.15315714 0.16641444 0.026889471 0.12119867
000080 de eb 94 3d 01 0f b9 3d 86 25 cb 3e 1a d5 c2 3d
       0.072715506 0.09036065 0.39677066 0.09513302
000090 d6 b5 36 3c fe c4 08 bb 65 4d da 3d 8f 36 f2 bd
       0.0111517515 -0.002086937 0.10659293 -0.118268125
0000a0 62 ec c5 bd 7f 43 79 3e fd 8c 89 be f5 c3 88 3b
       -0.09664227 0.24342154 -0.26865378 0.0041737505
0000b0 06 4b 3a 3e e9 e3 f3 bd 9c 7d 34 3d 7a f6 31 3e
       0.18192682 -0.11908705 0.044065103 0.1737918
0000c0 a3 7e 3d 3d 8f 9b b8 bd 03 83 0a 3e 9f f5 74 bc
       0.04626335 -0.090140454 0.1352654 -0.014951139
0000d0 0c 6f 11 be f6 45 04 bd ae 8a 68 bd 01 d7 71 3d
       -0.14202517 -0.032293282 -0.05677288 0.059042934
0000e0 f9 14 5d 3d 53 24 6a bd e2 1c 10 3d e8 83 03 bd
       0.05397508 -0.057163548 0.035183795 -0.032108217
0000f0 62 f4 56 bc ca c5 bd 3d 91 f9 0d bd 52 22 01 bc
       -0.013119789 0.09266241 -0.034661833 -0.007881718
000100 1a 99 61 be 72 ac aa 3d 36 ad 8e 3d db d1 24 bd
       -0.2203106 0.083336726 0.06966631 -0.040239196
000110 2c 65 fd 3d ea 9d a1 bd 8b 33 93 3b bc 5c b4 3d
       0.12372813 -0.07891448 0.0044922284 0.0880675
000120 08 5c 19 3e f9 7d 1b 3c bb 48 e8 bd cf bb 9a bd
       0.14976513 0.009490483 -0.11341997 -0.07555353
000130 67 89 1d 3e 9b c8 57 3e 96 c9 8e be 35 c3 00 3e
       0.15384446 0.21072619 -0.27888173 0.12574466
000140 e7 88 ae 3d e1 2a c6 bd 74 2d ee 3d 8a fc 1b 3e
       0.08522206 -0.09676147 0.11629763 0.15233055
000150 3e b9 92 be bd aa b9 bd 78 d2 e6 bd 54 0f 05 3e
       -0.28656954 -0.09065769 -0.112706125 0.12994128
000160 56 77 5c bd b1 dc c2 3d 55 b9 77 bd 2b 00 55 3e
       -0.053824745 0.0951475 -0.06047948 0.20800845
000170 c8 ef 12 be 23 3c 4e 3e ee 92 82 3d a0 99 c0 3b
       -0.14349282 0.20140128 0.06375681 0.0058776885
000180 6d 24 40 3e ba 87 91 bd d2 64 fb bd 49 c8 af bd
       0.18763895 -0.07105966 -0.12275089 -0.08583123
000190 58 32 8e bc fd 9c 8e bd 6a 48 38 be f6 9c 89 3d
       -0.01735799 -0.06963537 -0.17996374 0.06719391
0001a0 82 d0 1c 3d e6 18 f8 3d ad f2 bc bc 54 1a 08 3e
       0.038284786 0.12114124 -0.023064936 0.13291293
0001b0 bb 7f b8 3d 96 a0 19 be b8 fe db 3c 87 22 03 be
       0.09008738 -0.15002665 0.026854858 -0.1280614
0001c0 3b 4e ab bd b9 ba 98 bc 8f f5 4e 3c 78 74 e1 bd
       -0.08364531 -0.018643724 0.012631788 -0.11008543
0001d0 8d d4 c8 3b ce b4 6a be 47 7b ca bd 02 d0 8c 3d
       0.0061288537 -0.22920534 -0.098867945 0.06875612
0001e0 0d f0 ac 3b e7 4d 13 be 6b 11 ff 3d b1 e0 72 be
       0.0052776397 -0.14385186 0.12454494 -0.23718525
0001f0 bb d5 81 bb 6d ad 5b bd 6b cc 43 3e b5 a1 f7 3d
       -0.0039622462 -0.05363219 0.19120948 0.1209139
000200 2d 1b 9a bc 2c 16 1a be b1 a6 26 3e 99 95 0b 3e
       -0.018811787 -0.1504752 0.16274525 0.13631286
000210 d5 8c 36 3d 6e 8a 16 be dc 23 d6 bc a3 42 02 be
       0.0445679 -0.14701244 -0.026140146 -0.12720732
000220 2f e6 91 bd d6 14 ec bd c0 93 11 3d 60 9b c5 3c
       -0.07123982 -0.11527412 0.035541296 0.02412194
000230 6f 90 f1 3d 06 3b 35 bc 15 c5 91 3d 27 f7 e0 bc
       0.11795127 -0.011061436 0.071176685 -0.027461601
000240 22 4e d5 3b 3e d6 f4 3d 7c de 23 bc e0 f3 f1 bd
       0.0065095583 0.11954926 -0.010001775 -0.118140936
000250 06 21 bd 3d f7 a8 1d 3d 54 84 a6 bd 06 98 4b 3d
       0.09234814 0.038491216 -0.08130708 0.049705528
000260 7f 63 4c bd 9d 09 88 bc 41 0b 8f bd f4 17 59 39
       -0.049899574 -0.016606146 -0.069845684 0.00020703656
000270 88 ec 35 be e0 fe 06 3e c9 d1 33 bd d5 95 2d bd
       -0.17766011 0.13183165 -0.04390124 -0.04237922
000280 89 94 1c 3e 67 7e 5b 3d 45 64 0f bc 43 dc 69 3d
       0.15291037 0.053587344 -0.008751933 0.057094824
000290 0f 31 5e 3b 75 86 07 bd e0 f2 c3 3d 3d a5 66 3e
       0.0033903753 -0.033087213 0.09567809 0.22523971
0002a0 8b f9 ad 3d d8 d7 09 be 39 4d 19 3e c9 be ac 3d
       0.08494862 -0.13461244 0.14970864 0.08434827
0002b0 13 f0 15 3d d3 8e b1 bd 76 a1 60 bd 7c fd 89 bd
       0.036605906 -0.0866982 -0.05484148 -0.067378014
0002c0 07 3f ca bd bc 94 11 3e 7e 80 b7 bd da 3d 4a bc
       -0.09875303 0.14216894 -0.08960055 -0.012343848
0002d0 4b f4 f3 bd c5 66 93 3d b8 2a ea 3d 0a bd da 3c
       -0.119118296 0.07197336 0.11433929 0.026701469
0002e0 dc 1e 0b 3e f8 44 e0 bd 9a 62 62 bd 6f 27 33 be
       0.1358599 -0.10950655 -0.055269815 -0.17495511
0002f0 1c 93 2c 3e 23 6f 0d bd 55 c6 fc bd 96 2e 97 bd
       0.16852993 -0.034529816 -0.12342516 -0.073819324
000300 e3 67 30 be 24 cc e2 bd 33 10 e2 3d 69 21 1e be
       -0.1722713 -0.11074093 0.11038246 -0.15442432
000310 d3 dc 1d be 41 db de bd 35 e6 7e bd 30 1b 54 3e
       -0.15416269 -0.10881663 -0.06223126 0.20713496
000320 45 35 ff 3d 80 0d f9 37 aa 8f 16 3e 96 c4 13 3d
       0.12461332 2.96894e-05 0.14703241 0.03607615
000330 64 ce 2b bd 2b 6e cb 3d be 37 72 bc 57 16 2b be
       -0.041944876 0.09933122 -0.014783798 -0.1670774
000340 c1 f0 f1 3d fb 65 0b 3d 6a ba ce 3d 1e aa 19 be
       0.11813498 0.034032803 0.100941494 -0.15006301
000350 d7 22 ca bc 36 ba 7c be 68 3b 08 3e ee d6 6c be
       -0.024674816 -0.24680409 0.13303912 -0.23128864
000360 33 cd 4e bd 25 c4 99 3d a9 08 b0 3d da df 86 3e
       -0.050488662 0.07508115 0.08595402 0.2634266
000370 e5 a5 94 3e b1 83 19 3e 7e 3b 33 3d de f5 b0 3d
       0.29032817 0.14991643 0.043757908 0.086406454
000380 b6 7a 1c 3a 90 85 30 bd 0b c1 24 3e 44 b8 1a 3e
       0.0005969213 -0.043096125 0.16089265 0.15109354
000390 8d b0 6c bd 97 4e 86 bc 92 12 00 be 4f 1b 3e 3c
       -0.05778556 -0.016394896 -0.12507084 0.011603191
0003a0 20 b6 00 3e e7 aa cd 3d 5d 98 9a 3c d8 ae 56 3d
       0.12569475 0.10042363 0.01887148 0.052412838
0003b0 ae 1d 0a bd f4 41 f2 bc 94 6e 73 3d 9e 53 e8 bd
       -0.03371971 -0.029572465 0.059431627 -0.11344074
0003c0 d6 68 80 be d3 0d db 3d a9 1d cf 3c 38 84 ae bc
       -0.25079983 0.10695996 0.025282698 -0.021303281
0003d0 bf 1a fc 3c d1 0c 6e bd fd 9a a8 bd 45 f9 f6 3d
       0.030774472 -0.05811769 -0.08232687 0.12059263
0003e0 3a 54 31 bd be 85 3a be 92 5a c2 bd 7c 82 e9 3c
       -0.043293215 -0.18215081 -0.09489931 0.028504603
0003f0 09 81 01 be 26 26 1a 3e 85 cd 81 be 9d dd 43 be
       -0.1264688 0.15053615 -0.2535211 -0.19127508

gru.bias_ih_l0 f4 [369]
000000 04 fb 20 3d 7b 24 c8 bc a8 2c 7f bd 44 cd 78 3d
       0.039301887 -0.024431458 -0.062298447 0.06074263
000010 13 cd 95 bd cc b2 27 bc bf 33 bb 3d b2 13 7a 3d
       -0.073145054 -0.0102355 0.09140729 0.06105394
000020 2d 56 ae 3c b7 88 01 bd 57 49 21 be 1f b2 1d be
       0.021281326 -0.031624522 -0.15750633 -0.15399979
000030 50 9f cb b9 f0 09 57 bc 73 fa 45 3d 5b 0d 35 be
       -0.00038837874 -0.013124928 0.04833455 -0.17680876
000040 3b 51 20 be de f3 c2 3d 72 7d 8e 3d 73 47 5a bd
       -0.15655987 0.0951917 0.069575205 -0.053290796
000050 ad f3 ca bd c3 25 89 bb 1c 99 21 bd 57 47 08 be
       -0.09909759 -0.0041854098 -0.039452657 -0.13308464
000060 fe cd 50 3b 1c 06 a9 bc 22 70 12 be 4b 5e 24 be
       0.0031861062 -0.020632796 -0.14300588 -0.16051595
000070 21 33 08 3e a6 a5 e1 bd 4a 4c 80 bc 1c 43 91 bd
       0.13300754 -0.11017923 -0.015661377 -0.07092878
000080 7b ff 39 3d 67 4f e5 bb 8c ac 91 bc aa b9 01 3e
       0.04540966 -0.006997991 -0.017782472 0.12668481
000090 ae 73 10 bb c6 31 31 3d 71 98 11 bd a7 05 53 be
       -0.0022041607 0.04326036 -0.03554577 -0.20607625
0000a0 79 94 00 be 55 30 57 bd 8a c0 a5 3c 44 c7 a7 bd
       -0.12556638 -0.052536327 0.020233411 -0.08192304
0000b0 92 4f 91 bd bc f7 84 bc 3d 20 f1 bc aa 79 40 be
       -0.07095255 -0.01623141 -0.029434318 -0.18796411
0000c0 02 8d 01 bd 6c 70 b7 bc be c8 56 bd 12 d8 b1 bd
       -0.031628616 -0.022392474 -0.052437536 -0.0868379
0000d0 89 0f d9 3c b4 87 57 bc 4c 3f 2f 3d 43 4f 22 3d
       0.026496666 -0.013154913 0.042784974 0.03962637
0000e0 d1 ba e8 bd dc 93 f4 bd 6d 0c 91 3d f4 28 03 3e
       -0.113637574 -0.119422644 0.07082448 0.12808591
0000f0 1e 81 67 bd 1d 35 22 be 6c 06 fe bb 82 cd df 3d
       -0.05651962 -0.15840574 -0.0077522304 0.109278694
000100 62 97 c7 3d b7 9f 07 be 2e 32 36 be 8f e3 1e bc
       0.09745671 -0.1324452 -0.1779258 -0.009697809
000110 ce e8 1a be 25 81 fc bd e6 42 f8 bd ea a8 a7 bd
       -0.1512787 -0.1232932 -0.12122135 -0.08186515
000120 e0 20 1e be 39 20 cc bc c4 fc 91 bc 86 c8 25 be
       -0.15442228 -0.024917709 -0.017820723 -0.16189775
000130 12 63 27 be 99 64 ae bd c7 8b ba bd 26 38 78 3d
       -0.16346386 -0.08515281 -0.09108692 0.060600422
000140 af 19 c7 bd 7e 84 ac bd 9c ac 42 bd a6 30 9b bd
       -0.09721696 -0.084237084 -0.047527894 -0.07577638
000150 58 27 81 bd ae 9c 2c 3d a5 1a 22 3e ac b5 78 bd
       -0.06306332 0.04214161 0.15830477 -0.06072013
000160 59 e7 33 be ce 46 8c 3d d7 72 18 3e 59 ec 02 be
       -0.17568721 0.068494424 0.14887558 -0.12785472
000170 d9 a9 b8 bd 58 62 aa 3d 33 26 12 be bb 26 0d 3e
       -0.09016771 0.08319539 -0.14272384 0.13784306
000180 59 35 a5 3d 35 79 a0 3d 3e 25 c7 3d 08 6a b0 3b
       0.08066816 0.078356184 0.097239 0.0053837337
000190 24 86 23 be bd ac 14 bc 74 d2 8f 3c 64 31 cc 3d
       -0.1596914 -0.009074387 0.017556407 0.09970358
0001a0 d3 00 a0 be ec cc 95 3d de 36 27 3c 6b 10 82 bd
       -0.3125063 0.07314476 0.010205952 -0.06350788
0001b0 db ba cd bd 8a 8d 28 3c 49 c1 fc 3a 26 60 e0 bc
       -0.100454055 0.010287652 0.0019283678 -0.027389597
0001c0 ed 0d 07 be d9 30 a1 bd 87 4b 8f 3d 36 1e 8f bd
       -0.13188906 -0.07870645 0.069968276 -0.06988184
0001d0 82 97 b4 bd dc 9f 8b bd ac f2 5a bd 5c c2 cc bc
       -0.0881796 -0.068176 -0.053454086 -0.024995022
0001e0 64 0e 20 3d c3 63 11 3d 8a cc b3 3d 13 ef ff bd
       0.039076224 0.03549553 0.08779247 -0.12496772
0001f0 30 8d a4 3d ee 65 8b 3a cc 9b ab 3d 76 de ec 3b
       0.08034742 0.0010635236 0.08379325 0.007228668
000200 db e9 99 3d f5 e2 db bd 28 f4 d1 3c 7d 81 4d 3e
       0.075153075 -0.10736648 0.025629118 0.20068927
000210 c0 7b ab 3d d7 17 ce 3d 63 f2 98 bb 76 e2 18 3e
       0.08373213 0.10063141 -0.0046675666 0.14930138
000220 51 b5 0e 3e d0 45 68 3c c3 4e 3b be 1e 16 b1 3c
       0.13936354 0.014176801 -0.18291764 0.021616992
000230 43 82 bc 3d 13 4a be bd d2 c2 6b 3d 7e 3f f8 3d
       0.09204533 -0.09291472 0.057558842 0.12121485
000240 09 de 57 3d 6a 35 25 bd 20 4f 94 3c 84 d7 c6 3d
       0.052701984 -0.040334143 0.018104136 0.09709075
000250 67 e5 24 bd 1d a9 eb 3b 2d 6c 52 3e d2 e0 59 3e
       -0.040257838 0.0071917907 0.20549078 0.21277168
000260 cf 2e ef 3d 27 e1 58 3c 30 8e d9 3d fb 5e 91 bd
       0.1167885 0.013237274 0.10622823 -0.07098194
000270 9e 9d 0c be ca 83 f9 bd 36 85 f2 bd 9d d6 af 3d
       -0.13732001 -0.1218334 -0.11841814 0.08585856
000280 c0 20 60 3e 55 2b b5 bd 90 05 82 bc 9f 1d 83 3e
       0.21887493 -0.088461556 -0.015871793 0.25608537
000290 51 0f 9f bd 30 79 eb 3d 63 59 23 be 55 cd 79 bc
       -0.07766593 0.11497724 -0.15952067 -0.015246709
0002a0 7b 43 3a bc 04 e6 66 3c 1f fe 06 3e 2f 14 99 bb
       -0.011368628 0.014092926 0.13182877 -0.0046715955
0002b0 b4 0c d0 3b 88 62 5d 3c d9 82 8c bc dc 5d 32 bd
       0.0063491706 0.013512261 -0.017152237 -0.043546543
0002c0 8a 1e 44 3e 3f 7e 11 3e 7a 36 0b be 08 b2 b8 bd
       0.19152275 0.14208315 -0.13595 -0.09018332
0002d0 66 9b 92 bd 12 fe b6 3d 1c e6 9c 3e d5 0a a6 3d
       -0.07158546 0.08935179 0.3064431 0.08107535
0002e0 6a 57 57 bd 20 2b 3f 3e d1 24 3d 3d 93 c1 22 3c
       -0.0525736 0.18668795 0.04617769 0.009933847
0002f0 00 dc 4f bd f5 fb ec bc 6e bb 37 3e 21 a1 5e bd
       -0.050746918 -0.028928736 0.17942593 -0.054352883
000300 ea da 34 3e f1 e7 d8 3c 5a 34 23 be a7 a6 b9 3d
       0.17661634 0.026477786 -0.1593794 0.090649895
000310 93 ba b4 3c 26 bc 89 bc 38 ff 3b bd 15 97 32 be
       0.022061622 -0.016813349 -0.045897692 -0.17440446
000320 09 c9 b5 bc 2e e1 f3 bc 71 04 59 3d 97 98 5c be
       -0.022190588 -0.02977046 0.05298275 -0.21542583
000330 95 eb 0c 3e 04 40 05 bb 1b 26 56 be ad 9b 0d be
       0.13761742 -0.0020332346 -0.20912974 -0.13828917
000340 87 5c 35 3e 48 8f fb 3d 27 5b 1a 3d a1 53 2a 3d
       0.17711078 0.12283188 0.037684586 0.04158366
000350 de a5 2d 3e a4 2b 5c bb ac 38 52 be f1 3a 03 bb
       0.16957805 -0.0033595348 -0.20529431 -0.0020024145
000360 de e1 91 3e b2 98 18 3e 61 9e 34 bd e4 bd 77 be
       0.28492635 0.14901999 -0.044096354 -0.24193531
000370 80 9e d3 3c 9f a8 00 be dd bb b4 3d ac 77 90 bd
       0.025832415 -0.12564324 0.088248946 -0.070540756
000380 14 d5 4c 3b f7 ca 14 3e 53 71 e6 bd e1 e7 1b be
       0.0031254934 0.1453055 -0.11252084 -0.15225174
000390 d7 db a2 3d 03 44 b8 bd 53 00 bb bd 7d f1 34 3e
       0.079520874 -0.08997347 -0.09130921 0.17670245
0003a0 9b de c2 bd cf a2 df 3d 1f 74 8e 3d 4e 63 8a 3d
       -0.09515115 0.10919725 0.06955742 0.06757222
0003b0 1c ac 91 3d 6d 38 7e be 73 4a 38 3e d4 a2 4e 3d
       0.071129054 -0.24826212 0.1799715 0.050448254
0003c0 1e 45 b4 bd 19 c4 55 3c 25 d0 11 bd ba e5 86 3c
       -0.088022456 0.013047242 -0.035598893 0.016466964
0003d0 a1 e9 f8 3d cf 63 21 3e 03 2e 03 be 8d a0 7d be
       0.12153936 0.1576073 -0.12810521 -0.24768277
0003e0 09 7e 9c bd f6 2f 69 3e 99 6a 94 3d dd 37 1c 3e
       -0.07641227 0.22772202 0.072468944 0.15255685
0003f0 94 bc 83 3e 7a 26 c8 bd 97 c2 2a 3e cf b9 3f 3e
       0.2572981 -0.09772964 0.16675793 0.18723224

gru.bias_hh_l0 f4 [369]
000000 d5 ea d9 bc 06 1e 11 bd 3d 5d 15 3d 6a f0 e9 bb
       -0.026601234 -0.035429023 0.036465872 -0.0071392553
000010 ab d4 99 bc 46 2c f4 bd be 62 a8 3b 6c ca 30 3d
       -0.018778166 -0.11922507 0.005138724 0.043161795
000020 34 33 e1 3d 49 cc 8f bd c4 dc 02 bd 20 46 82 bd
       0.10996094 -0.07021386 -0.03194882 -0.063610315
000030 5c 6c f5 bc dd 0f ec 3c bb 40 e3 3c 4d bf 25 bd
       -0.029958896 0.028816158 0.027740827 -0.04046564
000040 a0 8c ee bd fc f0 a9 3d fa ff 4d 3d 7a a1 8d bd
       -0.11647916 0.08297917 0.050292946 -0.06915565
000050 49 a0 d7 bd 03 68 c1 3c d4 9f 4c bb 8a 49 f3 bd
       -0.10528619 0.023609167 -0.0031223195 -0.11879261
000060 d6 35 01 3d 18 7f 8f 3d 5e ba a1 bd 87 12 25 be
       0.031545483 0.07006663 -0.07896875 -0.16120349
000070 7d 2f c1 3d 59 85 b5 bd d7 bf c8 3b 99 6a 1b bd
       0.09432886 -0.08863325 0.0061263847 -0.037943456
000080 38 ce c7 3d bb 82 55 bd 85 2d 0c bd 41 67 65 3d
       0.0975613 -0.052126627 -0.0342231 0.056006674
000090 77 45 08 bd 96 66 1d bb 41 36 76 bb f6 d3 30 be
       -0.03326937 -0.0024017445 -0.003756896 -0.17268357
0000a0 23 e4 dd bd 9d 1c c7 bc 3b 4a 9e 3b 06 8f 47 3c
       -0.10834529 -0.024305636 0.0048306263 0.012180096
0000b0 b0 23 21 bd 7c 85 e3 bc f0 b0 fe bc de dc 25 be
       -0.039340675 -0.027773611 -0.03109023 -0.16197535
0000c0 79 9b 46 3c e8 d9 19 3d 4a 95 3f 3b 30 d7 94 bc
       0.0121220285 0.037561327 0.002923327 -0.018169016
0000d0 5e fb 9b bd 32 88 f6 bd 67 c6 c1 bd 43 5f 99 3d
       -0.07616304 -0.12037696 -0.0946167 0.07488873
0000e0 db d8 0b be f8 da 0f ba 4b c8 b5 bc 49 c8 bb 3d
       -0.13656943 -0.0005487646 -0.022190234 0.09169061
0000f0 25 5a ba 3d 41 1a 20 be 62 ff 21 be 38 f5 ba bc
       0.09099225 -0.15635015 -0.15820077 -0.022822008
000100 08 72 a5 bb 8b 94 28 be 8c 93 08 be 10 1d 4e bc
       -0.005048994 -0.16462915 -0.13337535 -0.012580171
000110 fe 1e 0f bd 70 98 87 bd 01 7f 84 bd c4 de 82 bc
       -0.034941666 -0.06620872 -0.064695366 -0.015975364
000120 f5 22 88 bd 01 9f 22 3d 5c d3 6a bd 05 ac ec bd
       -0.066472925 0.03970242 -0.057330474 -0.115562476
000130 81 18 57 be 05 44 ec bd 40 f7 59 bd 1a 44 9d 3d
       -0.21005441 -0.11536411 -0.05321431 0.07679005
000140 5d ce a8 bd 1d fd 91 bd df 69 92 bd fa 23 fe bd
       -0.08242486 -0.07128356 -0.071490996 -0.12409206
000150 97 07 54 bd 71 73 73 bd ee 71 42 3d 77 03 f1 bd
       -0.05176505 -0.059436265 0.047471933 -0.11768239
000160 92 34 16 be fc 41 f3 3c a4 92 b6 3b 20 c2 2e 3b
       -0.14668491 0.02969455 0.00557168 0.0026666
000170 b1 fd 06 be c9 84 0a 3e b0 57 0a be 0f 58 29 3e
       -0.13182713 0.13527216 -0.13510013 0.16537498
000180 90 e5 02 bc 64 59 45 bc b4 a6 91 3d 1b 1f 05 bb
       -0.007989302 -0.012045238 0.07111874 -0.002031273
000190 64 a3 43 3b 34 c2 ca 3c ec 1f d9 3c f9 e3 6f 3d
       0.0029852027 0.024750806 0.02650448 0.05856702
0001a0 65 31 31 be ad 4d 8e bd c9 5e 6d 3d 75 a8 44 3d
       -0.17303999 -0.06948409 0.057951722 0.048012216
0001b0 43 54 d3 bd bf f7 a4 bc 4a 1a d1 bc af d6 e0 bb
       -0.10318806 -0.020137666 -0.02552523 -0.00686153
0001c0 62 ef ab bd fd cb 3f bd b6 15 1a 3e ff 8f 22 3d
       -0.08395268 -0.046825398 0.15047345 0.039688107
0001d0 07 ed 50 3d 16 44 f1 bd 41 64 5f 3c 95 2c bd bd
       0.051007297 -0.117805645 0.013634742 -0.09237019
0001e0 30 d3 48 3d a5 5c 16 3a 6d c3 c3 3d 4c 21 65 bd
       0.04902953 0.0005735851 0.09558759 -0.055939957
0001f0 d5 bd 09 3e 0f 07 19 3d 09 5d 83 3d bb 4d d4 3d
       0.13451321 0.037360247 0.064142294 0.103663884
000200 06 a4 54 3d a6 e0 8b bd f5 81 f0 3d 1b ab 59 3e
       0.051914237 -0.06829958 0.11743537 0.21256678
000210 57 f9 4a bc 28 4c fa 3d 9a d9 fe bb 01 96 21 3e
       -0.012388549 0.12221557 -0.007777405 0.15779878
000220 66 da 04 3e 7c c9 20 3d 3e 10 71 be e2 dd 90 3d
       0.12973937 0.03925465 -0.23541352 0.07073571
000230 0f 7d ec 3d 48 b3 64 3d b8 f7 2a 3e 23 3f b8 3d
       0.115472905 0.05583504 0.1669606 0.089964174
000240 1b 4f 05 bd d5 3a 84 bd 14 4e e6 3d 83 42 78 3e
       -0.032546144 -0.06456534 0.11245361 0.24244122
000250 da 16 79 bd 0e 99 9e bc 2c 31 0f 3e 3d 1d 75 3e
       -0.06081281 -0.019360092 0.13983601 0.23936935
000260 7e ce 1b 3d 5b 00 1e bb 9e 24 79 3e d3 fb a3 bd
       0.038038723 -0.0024109099 0.24330375 -0.08007016
000270 fc bc 16 be 58 e3 9d bd 5d fc 37 be be f3 75 3e
       -0.1472053 -0.07709378 -0.17967363 0.24018762
000280 db 74 be 3d 72 72 16 bc 7d bd 32 3d 0c 96 ab 3e
       0.09299632 -0.009182559 0.04363774 0.33512914
000290 e4 3f 8b bc df 22 0e 3e 7f c8 06 be 7d 61 f0 ba
       -0.016998239 0.1388049 -0.1316242 -0.0018339601
0002a0 f4 5a e1 bc 83 3b a2 bd c3 03 b5 3d 92 6b 75 3d
       -0.02750919 -0.07921507 0.08838608 0.05991704
0002b0 8a 5a f5 3d 6e 0d 06 3e bd 1b 9f 3c 1b 43 d0 bd
       0.119801596 0.1309106 0.019422406 -0.10169049
0002c0 84 49 3e 3e 1f 13 c2 3d 05 df 69 bd 7f 52 1b be
       0.18582731 0.09476303 -0.057097454 -0.15168189
0002d0 0f d9 cc bc 74 96 da bc 2b 41 a1 3e b7 47 66 3e
       -0.025005845 -0.02668307 0.31495032 0.22488295
0002e0 71 3a 1c 3c ab f6 39 3e 2c 33 6e 3d 8a 5e d9 3d
       0.009535418 0.18160503 0.05815427 0.10613735
0002f0 09 cd a9 3c 53 af 09 be e7 b8 7b 3e 56 87 c0 bd
       0.020727651 -0.13445787 0.24582253 -0.09400813
000300 11 4b 0c 3e 3d 41 08 3d 70 02 7e be 8d db 9e 3b
       0.1370051 0.03326534 -0.24805617 0.00484795
000310 57 ba 01 3e ca e8 21 bd c7 c6 4a bc 7c ee 2b be
       0.1266874 -0.039528646 -0.012376494 -0.16790193
000320 80 8e 98 3d 4b f7 a1 bb 1c 64 95 3d 5b 3d 39 be
       0.07449055 -0.0049428097 0.07294485 -0.18089812
000330 aa d7 df 3d ba f2 d9 bd ee a2 bd be 19 ff 12 be
       0.109298065 -0.106419995 -0.37038368 -0.14355125
000340 42 7f 4c 3e 84 6f 27 3e 2d 97 97 bc 7f c8 da 3d
       0.1997042 0.16351134 -0.018504703 0.10682773
000350 98 92 90 3d 42 22 28 3c 76 da 35 be 52 4e 09 be
       0.070592105 0.010262074 -0.17759117 -0.13408783
000360 1a 80 6b 3e 5a 18 1d 3d 73 e7 f2 bd 1b d6 67 be
       0.22998086 0.0383533 -0.11860552 -0.22640269
000370 13 c3 b1 3d 92 5f b1 bd 1e 41 05 3e 95 c4 89 bd
       0.086797856 -0.08660807 0.13013121 -0.06726948
000380 e4 fc 70 3d c3 db 22 3e fe c0 50 3c 72 82 c1 bd
       0.058834925 0.15904145 0.012741325 -0.094487086
000390 f6 51 24 3e e7 69 13 be 9e 05 70 3d 80 3b 24 3e
       0.1604689 -0.14395867 0.058599107 0.16038322
0003a0 45 e0 22 be 93 91 e6 3d b3 fb 57 bc 98 41 e0 3d
       -0.15905865 0.11258235 -0.013182568 0.10950011
0003b0 6f b5 36 3c 23 d9 62 be bf 3e 0c 3e fe 3b 87 bc
       0.011151656 -0.22153144 0.1369581 -0.016508099
0003c0 34 f9 32 3d 00 4b 34 3d 9e 94 f5 bd e0 c9 f5 bc
       0.04369469 0.044016838 -0.11991237 -0.030003488
0003d0 59 7a b9 3d 60 a7 90 3e a0 51 09 be 6e 9d 31 be
       0.09056539 0.28252697 -0.13410044 -0.17345211
0003e0 70 f9 d9 bc 43 96 34 3e a7 10 5a 3e 68 66 ff 3d
       -0.026608199 0.17635445 0.21295415 0.12470704
0003f0 ab 4c 99 3e cd 85 77 be 43 74 77 3e b1 a6 98 3d
       0.29941306 -0.24172135 0.24165444 0.07453669

gru.weight_ih_l1 f4 [369, 123]
000000 e8 7b 71 bd 35 b8 19 be e0 f8 d5 3d d4 d8 8c bd
       -0.058956057 -0.15011676 0.1044786 -0.06877294
000010 4d 74 02 be 4a 98 76 bd 46 df 4b bd 0f fc 6d 3d
       -0.12739678 -0.060203828 -0.049773477 0.05810171
000020 35 cb 81 bd 4f 38 12 bd fd f4 91 bd 4e 1d 93 3c
       -0.06337587 -0.03569823 -0.07126806 0.01795831
000030 89 b8 ea 3c 73 a2 d9 bc f4 1c ac bd 8c df 69 3c
       0.028652446 -0.02656672 -0.0840396 0.014274489
000040 8c ab 2b be 1f c1 c5 bc 2f c5 57 bd f1 d0 97 bd
       -0.16764659 -0.024139939 -0.052678283 -0.07412899
000050 a9 c1 a9 bd f7 ac 22 bd bc 60 a1 3d 73 f9 95 bc
       -0.08288891 -0.039715733 0.07879779 -0.018307423
000060 9f a5 54 3d 13 bc 3c bc 1d 0d 4f bd 5b 6b 22 be
       0.05191576 -0.01151945 -0.050549615 -0.15861265
000070 d7 85 9a bd 8a 7f aa bc 13 e9 3a bd 84 f6 41 be
       -0.07545059 -0.020812768 -0.045632433 -0.18941694
000080 b2 20 4e 39 37 41 15 3b 7e 01 53 bc e7 c5 25 3d
       0.00019657871 0.0022774467 -0.012878774 0.040471938
000090 b8 96 48 be a6 67 40 3d c4 55 0d bd ab 15 ea 3b
       -0.19588745 0.046973847 -0.03450562 0.0071436963
0000a0 8d a8 0b bc dd e0 e0 bc 53 fc 4f 3d 64 76 72 3d
       -0.008524072 -0.027450973 0.050777745 0.059194937
0000b0 83 36 df bd 8a 98 3d 3d 96 c7 15 be 14 7f ad bd
       -0.10899069 0.04628805 -0.14626917 -0.08471504
0000c0 e2 d6 1d 3d 25 5f 97 bd d0 c3 eb bd 6b a6 78 bd
       0.038535006 -0.07391194 -0.11511958 -0.060705584
0000d0 74 c6 5b be eb 33 fa bd b2 a8 66 3c a2 5c 96 bd
       -0.21462423 -0.12216934 0.014078306 -0.07341887
0000e0 b6 1f 2b bd d5 4f 92 bd be f6 f7 bc b7 f4 4a bd
       -0.04177829 -0.07144133 -0.030269023 -0.049549785
0000f0 1c 2e f8 3d db 4b 18 3d 4f 38 11 bd e1 8a 70 3c
       0.1211817 0.037181716 -0.03545409 0.014681549
000100 eb 0e f2 3b ba a1 a4 3d 4e f3 d5 bc b3 15 06 3d
       0.0073870323 0.080386594 -0.026116993 0.032735538
000110 80 ff b7 bc 3e c4 9c bd f2 72 98 bd 17 b4 2e 3c
       -0.0224607 -0.07654618 -0.07443799 0.010663054
000120 f8 68 aa 3d 42 3f 16 3d 54 16 03 be 05 7a ac bd
       0.083208025 0.03668142 -0.12801486 -0.08421711
000130 2b 3d 44 3c ab 26 19 bd 30 73 a4 bb 25 a7 6e be
       0.011977474 -0.037390392 -0.005018614 -0.23305948
000140 9c 74 60 bd d0 a1 5b bd 7e d1 21 3d db 38 b2 3c
       -0.054798707 -0.053621113 0.039506428 0.021755626
000150 bf 96 fb 3c 0d 67 5a bd f4 ee ee 3d b2 5f d7 bd
       0.03071153 -0.053320933 0.116666704 -0.10516299
000160 26 2a f9 bc bb e0 93 bd fd 14 73 bd 65 8c af bc
       -0.030415606 -0.07220598 -0.059346188 -0.02142925
000170 f8 26 b2 3c b4 ea f9 3b 2c ce 9f 3d 62 c7 b7 3d
       0.021747097 0.0076268557 0.07802996 0.08973576
000180 85 62 1b bd aa e9 d7 bb 35 5d f4 bc c9 7f cb bd
       -0.037935752 -0.006589134 -0.0298296 -0.099364825
000190 7c 51 9a 39 79 18 cc 3b cb ee 6e 3d 1f d2 1b 3c
       0.0002943388 0.0062285033 0.0583332 0.009510546
0001a0 6c 50 d0 bd d2 41 c9 bd 9a f1 21 3d 92 20 46 bd
       -0.10171589 -0.09827007 0.03953705 -0.048370905
0001b0 1d d0 f4 bd f4 f4 39 bb 6f 2b 79 bd 5f ed 20 3d
       -0.11953757 -0.0028374763 -0.060832437 0.039288875
0001c0 24 11 df bc 79 26 2a 3c 52 6d bb bd fe 07 01 be
       -0.027229853 0.010385149 -0.091517106 -0.12600705
0001d0 82 74 92 3d d2 24 91 bd fc a7 22 be 9b a4 d7 bc
       0.07151128 -0.07087101 -0.15884393 -0.026323607
0001e0 4b b8 04 3d d7 1f a5 bc e3 23 71 3d 5c 2d 24 be
       0.032402318 -0.020156784 0.058872115 -0.16032928
0001f0 11 c7 12 be 8b fb a4 3c a1 a8 58 3d f0 20 c7 bd
       -0.1433375 0.020139476 0.052895192 -0.09723079
000200 9d 15 a6 bc ee 1a ce bc 56 e3 26 be 8a d2 9d 3d
       -0.020273978 -0.025159325 -0.1629766 0.07706173
000210 75 23 08 bc 41 1e 8c 3b 16 8c b1 3c 49 89 33 3c
       -0.008309235 0.0042760675 0.021673243 0.010958024
000220 51 1f 9c 3d 29 13 d2 bc c1 72 8f bd 49 21 43 be
       0.07623161 -0.025643902 -0.070043094 -0.19055666
000230 dc c0 b8 3c 92 46 62 3d 58 7a 8e 3d b6 cb 72 bd
       0.0225529 0.055243082 0.06956929 -0.059276305
000240 f2 29 34 3a 93 7c e4 3d 82 00 8f bd 9e 36 09 3e
       0.00068727054 0.11156573 -0.06982519 0.13399741
000250 94 ae cb bd 86 b7 c0 bd 1a 3f ee bd e7 e4 52 bc
       -0.099454075 -0.09410004 -0.116331294 -0.012871957
000260 78 03 01 3e 94 34 1d bd f3 57 54 bd 7d d5 11 3e
       0.1259898 -0.03838022 -0.051841687 0.14241596
000270 ba 16 95 3d 7a dc f2 bd dd 77 1f 3d b5 64 38 be
       0.072797254 -0.11858459 0.03893267 -0.18007167
000280 71 fe 3c 3e 03 81 d9 bd b7 91 05 be 1e 53 c2 bd
       0.18456437 -0.1062031 -0.13043867 -0.094885096
000290 fd bf 28 3e f6 4c 64 3d c1 d3 f8 bd a4 f8 0b bc
       0.16479488 0.05573746 -0.12149764 -0.008543167
0002a0 a0 53 66 3d 12 36 e0 bd 74 64 2b 3e b1 68 0a be
       0.056232095 -0.10947813 0.16737539 -0.13516499
0002b0 00 e2 29 bd 07 fb ec bd 03 80 14 bd 0c b6 62 be
       -0.041475296 -0.11571317 -0.036254894 -0.22139758
0002c0 5b a7 29 bc cb 3e 25 3e a5 15 9b bd a7 51 80 bd
       -0.010354842 0.16137235 -0.07572488 -0.06265574
0002d0 9d 4a 87 bd 52 a9 08 3e a3 8d 35 be 26 ca 1d 3e
       -0.06606028 0.1334584 -0.17729811 0.15409145
0002e0 73 c8 01 3e f7 e1 20 bd 26 69 b6 bd 5c a4 fd bd
       0.12674122 -0.039277997 -0.08906774 -0.12384865
0002f0 d7 b5 21 bd dd fc 3e 3d 8f 8f b7 3a 14 c5 4b 3e
       -0.039480057 0.046627868 0.0014004576 0.19899398
000300 ab e5 fe bd 94 05 19 be cf 58 16 3e 33 78 f7 bc
       -0.124461494 -0.14943534 0.14682315 -0.030208683
000310 a7 c3 35 bd 43 da de 3d 52 f2 bc 3d 71 fc ae bd
       -0.04437604 0.10881474 0.092259064 -0.08544243
000320 98 21 f1 3d 0d 0f 26 be 9b 5b ce 3d 45 8a fe bd
       0.117739856 -0.16216679 0.10076066 -0.124287166
000330 80 6c ef bd c4 4f 9c 3c ce 68 33 bd 34 6b 39 be
       -0.116906166 0.019081004 -0.04380112 -0.18107301
000340 a3 52 3c bd d4 d8 06 3e 44 60 ce bd 57 6b 9e 3d
       -0.045977246 0.13168651 -0.10076955 0.07735317
000350 ab c4 e1 bc 35 42 25 be ba 71 17 3e 37 20 bc bd
       -0.027559599 -0.16138537 0.14789477 -0.09185832
000360 63 f4 b4 3d 2d 28 18 3d 40 6c f1 3d 9c b7 07 bd
       0.088356756 0.03714769 0.11788225 -0.033134088
000370 c7 71 20 3e f6 5b b8 bc ce 51 65 be 56 de 55 bd
       0.15668403 -0.022504788 -0.22394487 -0.05221399
000380 8a db ba 39 ef 61 1a be ac a9 2f bd ce 67 10 bc
       0.00035640254 -0.15076421 -0.04288642 -0.0088138115
000390 db b6 17 3b 5a 9c 1b 3d ae 24 23 3c f4 91 00 be
       0.0023149762 0.037990905 0.009957476 -0.12555677
0003a0 c5 17 0d 3d 72 37 dd bc e6 2c dc bc f3 d2 c3 3d
       0.034446497 -0.027003977 -0.026876878 0.0956172
0003b0 af cd e7 bd 9c f4 b5 bd c0 74 79 bd ba 96 36 bc
       -0.11318528 -0.08884546 -0.060902357 -0.011144334
0003c0 a0 43 6d 3d d4 21 97 bd fb 89 bd 3d 2b ba 04 3d
       0.05792582 -0.07379499 0.09254833 0.032404106
0003d0 95 3b 67 3c 59 d7 71 3e f1 d5 62 be a0 10 74 3d
       0.014113327 0.23617305 -0.22151925 0.059586167
0003e0 de d1 e1 3d b5 be 94 bd d4 43 4b be a9 a6 d2 bd
       0.11026357 -0.07262937 -0.19850093 -0.10285694
0003f0 67 61 ec bd 47 c1 bd 3d 06 3f 72 bd d7 fc 0a be
       -0.115420155 0.0926538 -0.059142135 -0.13573013

gru.weight_hh_l1 f4 [369, 123]
000000 64 82 60 3c 6f fb 37 3d ac 97 b0 3d 67 97 22 be
       0.013702963 0.04491752 0.08622679 -0.15878068
000010 9c 88 3a be 41 dc e1 bd 41 9e 9f bd c3 67 7e bd
       -0.18216175 -0.11028338 -0.077938564 -0.062110674
000020 db 5a 7e 3d 3d 39 27 bd 59 63 8f 3d 9c 65 18 3e
       0.062098365 -0.04082607 0.07001371 0.14882511
000030 16 a6 03 3d ec cc 55 3d 72 34 b2 bd 90 78 22 3e
       0.032140814 0.05219738 -0.087014094 0.15866303
000040 49 24 28 3e 54 04 3e be ce 89 d4 bd aa 06 0f 3e
       0.16420092 -0.18556339 -0.10377847 0.13967386
000050 c6 9c ba bd 2d d1 ec 3d 99 42 c9 bd ec ac 00 be
       -0.091119334 0.115633346 -0.098271556 -0.12565964
000060 e3 9f 95 bd 7b 1f 2d bd 17 a3 d3 bd b6 81 69 bd
       -0.073058866 -0.04226635 -0.10333841 -0.057008468
000070 27 bf 1b 3e 95 80 75 bd 43 98 66 be 01 3d 1c be
       0.15209638 -0.05993708 -0.2251902 -0.15257646
000080 3b 9f 29 be 14 80 42 be 89 4a cf bd f7 af 04 be
       -0.16564648 -0.1899417 -0.10121638 -0.1295775
000090 72 52 90 bd 0b 51 1d 3e 52 a7 52 3e 40 7f 41 be
       -0.07046975 0.15362947 0.2057164 -0.18896198
0000a0 f4 f9 ab bd 7b 08 41 3e c2 7c 18 3d 00 c0 94 bd
       -0.08397284 0.18850891 0.037228353 -0.072631836
0000b0 a0 58 62 3d 51 5f 06 be fb 99 ab bc c2 7b 2a 3e
       0.0552603 -0.13122298 -0.020947447 0.16648772
0000c0 d4 6c 1b be ee 11 27 3e d9 70 2d be c8 c1 0d 3e
       -0.15178233 0.16315433 -0.16937579 0.13843453
0000d0 f2 81 fe 3d 8a 8d 67 3e 43 cd f2 bd c4 a2 cc 3d
       0.12427129 0.22612587 -0.11855557 0.099919826
0000e0 05 a9 33 be 07 0f 96 3d ce 39 f5 3d 37 9a 15 be
       -0.17544945 0.07327085 0.11973916 -0.1460961
0000f0 5b dc 54 3e d2 0a 3a 3e 81 41 08 bd 40 0d 3b be
       0.20787184 0.1816819 -0.033265594 -0.18266773
000100 a2 ac d8 bc 0b 73 c1 bd ec f4 cc 3d 4c 9f 0d be
       -0.026449505 -0.09445771 0.10007653 -0.13830298
000110 1c 65 be bd 8b a3 e6 3d c6 c1 4f bd 91 f8 c7 3d
       -0.09296629 0.11261662 -0.050721906 0.09764207
000120 59 63 4b 3e 09 23 0d be 70 f6 24 3e 5d 82 cf bc
       0.19862117 -0.13782896 0.16109633 -0.025330717
000130 c6 80 1a bc 27 db 75 3d 04 65 cf bd f5 9b 8c bd
       -0.009430116 0.060023453 -0.10126689 -0.06865684
000140 98 39 2e be 15 9b 21 3e 26 75 08 3d 00 2a e9 bd
       -0.17014158 0.15781815 0.033314846 -0.11384964
000150 3a ea 11 3e 7f 3b 29 be 5d a8 36 3e ea c4 80 3e
       0.14249507 -0.16526602 0.17837663 0.25150234
000160 be 48 af 3d a7 46 fc bc 77 fa 97 3d 9e 39 cc 3d
       0.08558796 -0.030795408 0.07420819 0.09971927
000170 99 87 1f be 02 3d 48 3e f0 c5 f2 3d 58 67 46 3d
       -0.1557907 0.19554523 0.1185416 0.0484384
000180 dc 3c ad 3d 47 ef 40 bd a7 56 41 3e 01 35 9a 3d
       0.08458874 -0.047103193 0.18880711 0.07529641
000190 6c 19 03 bd 54 19 a3 3c 1a 47 1e 3e 2d 37 68 3d
       -0.032006666 0.019909538 0.1545681 0.056693245
0001a0 77 58 16 bd 6c a6 db 3d 84 4c 1e be 0c 90 84 bd
       -0.03670546 0.10725102 -0.15458876 -0.06472787
0001b0 ff df 72 3d fc 26 43 3d 20 48 5c be 0d f5 05 be
       0.05929565 0.0476446 -0.21511889 -0.1308176
0001c0 23 78 78 bd 93 9c f6 3d b6 a9 e4 3d 2b 77 8d 3c
       -0.060661446 0.12041583 0.11165182 0.017268738
0001d0 e1 fe 19 bc 44 08 0e be 82 de ca 3c 70 14 05 be
       -0.009399147 -0.1387034 0.024764303 -0.12996078
0001e0 57 e7 07 3e 36 dc 1c 3e 4a e0 56 bd fa 62 86 3c
       0.13271843 0.15318379 -0.052459992 0.016404618
0001f0 aa 4c 13 3e 33 f8 b1 b9 a3 5d 9f 3b 9c d4 3f be
       0.14384714 -0.00033944994 0.0048634573 -0.18733448
000200 e8 c4 ef bc 94 a6 f1 bd 45 e0 c9 bd 5f 23 f2 3d
       -0.029268697 -0.117993504 -0.09857229 0.11823153
000210 6a c6 1a be 69 05 af 3d b2 5a eb 3c 93 71 cd 3c
       -0.15114751 0.08545954 0.02872977 0.02507857
000220 74 41 4e bd 0f c4 46 bd 39 e7 21 3e cb a1 05 3e
       -0.05035539 -0.04852682 0.1581086 0.1305
000230 12 f3 eb 3b c9 48 ad bd 35 f2 d7 3d a2 9b cf bd
       0.007200607 -0.08461148 0.10544244 -0.101371065
000240 a1 01 58 bc a7 ab 21 be b2 a3 ea bd e7 68 ff bc
       -0.013183982 -0.15788136 -0.11457004 -0.031177951
000250 51 5a c0 bd 0e 51 4b be 22 cb d4 bc 29 7a 1f 3e
       -0.093922265 -0.19855139 -0.025975768 0.15573944
000260 3e bb 34 be bf b7 51 bd 33 ed aa bd cf 99 80 bc
       -0.17649552 -0.051200625 -0.083460234 -0.015698342
000270 28 df 63 be 9e d2 99 bd 2c 66 bd bd dc e1 ef bd
       -0.22253096 -0.07510875 -0.09248003 -0.11713001
000280 a9 d3 9e 3d 94 6c da 3d 97 73 2d be 65 5e a9 bd
       0.07755215 0.10665241 -0.16938625 -0.082699575
000290 62 27 29 3e 67 4e 24 3e 71 9e 19 bc 72 e6 a3 3d
       0.1651893 0.16045533 -0.009376154 0.08002938
0002a0 d5 ca e3 bd 57 ce aa bc b4 5c 19 3e 34 75 99 bd
       -0.111226715 -0.020850344 0.1497677 -0.07493058
0002b0 b0 a1 02 3e 26 d2 0b bd 3c a0 70 3d 71 8b 44 3e
       0.12756991 -0.03413596 0.05874656 0.19193818
0002c0 40 15 15 3e a8 b3 cc bd ba 82 5b 3e 10 76 6e bd
       0.14558887 -0.09995204 0.21436587 -0.058218062
0002d0 c7 2f ef 3c 96 9f 46 3d b5 fb 92 bd b7 0b b6 3d
       0.029197587 0.048492037 -0.071769156 0.08888953
0002e0 02 99 82 3e a7 e6 93 bd f9 36 e8 bd 6e 80 b0 bd
       0.2550736 -0.07221728 -0.1133861 -0.08618246
0002f0 17 06 b3 bd 93 0c c1 3d d2 07 74 bb 07 16 e9 bb
       -0.08741396 0.094262265 -0.0037236107 -0.0071132216
000300 9f 9c 48 3d df b9 d6 3b d4 59 84 3c 7b 70 6d 3e
       0.04897749 0.0065529193 0.016156115 0.23187439
000310 4e f1 8d be 14 11 13 3e 63 7b 51 be 15 01 47 3e
       -0.27723163 0.14361984 -0.20457225 0.19434007
000320 83 ff b8 3c 6e 69 f0 bc 2e 89 6b 3d a8 a0 a7 bd
       0.022582775 -0.029347148 0.05750387 -0.081849396
000330 08 ce 65 3c 12 a2 96 bd 8b 20 05 bd 6b cd 4f 3e
       0.014026172 -0.07355131 -0.03250174 0.20293204
000340 98 14 88 bd 05 cb 79 3e 6c cf 22 3e 5c 71 8f bd
       -0.06644553 0.24393852 0.15899438 -0.070040435
000350 a8 c9 aa bc de af 66 3d d4 33 88 bb 5a 53 74 be
       -0.02084811 0.056320064 -0.004156569 -0.23859921
000360 30 32 8c 3c bf c2 b4 3d 7f 4c ad 3d c8 9b af 3d
       0.017113775 0.08826207 0.08461856 0.08574635
000370 85 5e 9f bd 70 e2 8a 3d 3c 6e da 3c 84 a9 c0 bd
       -0.077817 0.06781471 0.026663892 -0.094073325
000380 70 68 47 be 7b ce 04 bd cf 74 45 3c 6b b0 dd bd
       -0.19473433 -0.032423478 0.012051775 -0.10824665
000390 45 46 2d 3e 9b b5 d6 3c 43 74 24 bd 6c 9b 7a bd
       0.16921337 0.026209643 -0.04014994 -0.061183378
0003a0 88 62 13 3d f1 80 af bd 78 3a 0c be d3 f2 39 be
       0.03598264 -0.085695155 -0.13694179 -0.18159036
0003b0 48 79 77 3c e1 63 91 3d fb ac a7 bd 70 ef 11 be
       0.015104599 0.070991285 -0.0818729 -0.14251494
0003c0 bd b4 18 bd 82 75 c4 3d a1 5f a4 bd 07 55 d9 3d
       -0.03728174 0.09592725 -0.08026052 0.10611921
0003d0 bd 1b 72 3d 0c 3e 7b bd bc 79 06 be 4a 9b 1c 3e
       0.059108485 -0.06133847 -0.13132375 0.15293613
0003e0 f3 39 9c 3d 6a c7 96 3d a2 53 09 bd c4 f6 eb 3d
       0.076282404 0.07362254 -0.033527024 0.11521676
0003f0 f9 60 1e 3d 40 dd 11 bd 3a a7 0b 3d 10 22 23 3d
       0.0386667 -0.03561139 0.034095027 0.039827406

gru.bias_ih_l1 f4 [369]
000000 6f 76 ef 3d e6 6e de bc 4e 4c e1 bd 98 22 fe bd
       0.11692511 -0.02715249 -0.11000882 -0.12408942
000010 b5 e5 32 3d bd 65 12 3d 7d 21 d3 bc da d0 d0 bd
       0.043676097 0.035741556 -0.025772804 -0.10196085
000020 83 68 14 be 11 af 04 be b7 c0 34 be 64 9f 09 bd
       -0.14492993 -0.12957408 -0.1765164 -0.033599272
000030 72 78 8a bb 75 18 5c 3e 44 93 8b bc cd df b9 3d
       -0.004225784 0.21493705 -0.017037995 0.0907589
000040 86 f0 8e 3d e1 bd 0c bd ba f7 1d be ae 41 49 be
       0.0697947 -0.03436077 -0.15426531 -0.19653961
000050 50 85 1e be 88 d0 08 bd ae 94 1a be 40 57 68 bd
       -0.15480542 -0.033401996 -0.1509578 -0.056723833
000060 e9 f1 0c be 87 6a 6c bc 32 32 f7 bd 61 56 58 bd
       -0.13764156 -0.014429695 -0.12070121 -0.052816752
000070 66 6c 02 3d 61 f1 96 bd 74 98 80 3c 35 74 b1 bd
       0.031841658 -0.07370258 0.015697695 -0.08664743
000080 09 17 02 be 0e 2b 70 bd c8 4a 0e be d7 56 23 be
       -0.127041 -0.05863481 -0.13895714 -0.15951096
000090 77 c6 14 be 3f 90 7c bd 6a 40 f7 bd 28 d7 14 be
       -0.14528833 -0.061661 -0.12072833 -0.145352
0000a0 18 6a 08 bd e9 23 65 3c e4 ce b5 bd 21 63 26 be
       -0.033304304 0.013985612 -0.08877352 -0.16248752
0000b0 61 57 13 be 40 c7 ed bc ff da 4c bd f0 2b 88 bd
       -0.14388801 -0.029025674 -0.05001354 -0.066490054
0000c0 35 33 0c be a6 39 0e 3d e6 85 1b bd fb 58 84 be
       -0.13691409 0.034722947 -0.037969492 -0.25849137
0000d0 b7 cb 42 be 37 f7 10 be 8c 24 10 bd 91 5f df 3c
       -0.19023024 -0.14156805 -0.035191104 0.02726725
0000e0 d9 0a 42 bc 52 47 fd bd bd b6 36 3c 2e 4a b3 bd
       -0.011843407 -0.12367119 0.011151967 -0.08754383
0000f0 82 12 57 bd ca 86 0f 3c d6 4e 8f bc 8e eb f7 bd
       -0.052507885 0.008760164 -0.017493647 -0.12105475
000100 29 6e d3 3d 7b 64 bf bc d4 e9 ff bd d8 d9 e5 bd
       0.10323746 -0.023363343 -0.12495771 -0.11223191
000110 d6 a3 19 bd 09 d7 3b be 74 10 51 bd 0a d7 d2 bd
       -0.03750976 -0.18343748 -0.05104108 -0.10294922
000120 32 da b7 bd 5a d4 02 be 07 70 15 3c 0f b2 4e bd
       -0.08977164 -0.12776318 0.009120948 -0.05046278
000130 47 9a 51 be 87 bb 72 be 16 36 06 be fc c3 34 be
       -0.20469008 -0.23704349 -0.1310657 -0.17652887
000140 53 8c e8 bd ec 80 f8 bd b6 2c 1b bd ef 9c c4 bd
       -0.1135489 -0.12133965 -0.037884437 -0.09600245
000150 5d c4 95 bd 12 d7 06 be 28 a5 b3 bd ec 6b c3 bc
       -0.07312844 -0.1316798 -0.087717354 -0.023855172
000160 9c c6 cd bd 24 f7 79 be 8c 9a b1 bd 74 3c 4e be
       -0.10047647 -0.24410683 -0.086720556 -0.20140249
000170 cd c5 21 3d 0d 03 08 be 2b f8 23 be 41 43 d7 bc
       0.03949528 -0.13282414 -0.16012637 -0.026277186
000180 b6 27 51 bd 97 a6 5a bd 18 43 18 bc 87 7d b4 3d
       -0.051063262 -0.05338153 -0.00929334 0.08813005
000190 0e 5b 0e be c5 d7 dd 3d 2a 0a 42 bd 06 f2 38 3b
       -0.13901922 0.108321704 -0.047372974 0.002822043
0001a0 ca 8e 15 be 11 bd 0a bd f2 76 16 be b9 cd d0 bd
       -0.14605251 -0.033871714 -0.14693812 -0.101954885
0001b0 50 6c 2f be 77 c8 57 3d 30 97 5f 3d c3 6f ab bd
       -0.17131162 0.052681413 0.054587543 -0.08370926
0001c0 91 9d 4d bd 37 46 1c be ad 68 b9 bd ba 92 e2 bb
       -0.050199095 -0.1526116 -0.090531684 -0.006914464
0001d0 1d 5e 2f 3d 94 50 08 bd 80 1c b5 3c d4 d6 07 be
       0.042814363 -0.03327997 0.022108316 -0.13265544
0001e0 55 a9 3d bd 1d 30 62 bd e3 8e b8 3d 79 15 07 be
       -0.046304066 -0.055221666 0.090116285 -0.13191785
0001f0 2c df 01 be a7 71 05 be 84 c9 f2 bd 01 54 e6 bd
       -0.1268279 -0.13031636 -0.11854842 -0.11246491
000200 c7 4f 19 3c dd ee 94 bc 28 f5 1c 3b 67 8a b6 3a
       0.009357399 -0.018180305 0.0023949835 0.0013926745
000210 17 c4 32 bd bf 11 3f 3e 4d 58 f8 bd 59 97 ad 3d
       -0.043644037 0.18659113 -0.12126217 0.08476133
000220 40 5b 6b 3d 85 4c 31 bd 8d f2 4d be 2a a9 24 be
       0.05746007 -0.043285865 -0.20112057 -0.16080156
000230 7a 61 da bd 2a bb 8c b9 41 be 16 3d c8 84 bb bd
       -0.106631234 -0.0002684233 0.036802534 -0.091561854
000240 08 fc 64 be da 64 8d bd 26 f1 c8 3d 11 82 83 bd
       -0.22361767 -0.069040015 0.098116204 -0.064212926
000250 ec 37 3d bd b7 4f 2a bd ef f6 95 be e8 44 87 be
       -0.04619591 -0.04157993 -0.29289958 -0.2641976
000260 14 fd 6f bb 91 1f 8c bd d3 91 ad 3d 77 8f 3b bd
       -0.0036619352 -0.06841958 0.084750794 -0.045791116
000270 c9 04 ec bd 74 5f b4 bd 9d 97 17 be a2 47 a1 be
       -0.1152435 -0.08807269 -0.1480393 -0.31499964
000280 85 6a 8b 3d ff f6 c4 3d 54 b7 3d bc 09 6b 88 bd
       0.06807426 0.09617423 -0.011579353 -0.0666104
000290 4d f6 04 be a9 b8 23 3e 70 e2 e4 3c d7 98 00 bd
       -0.12984581 0.15988411 0.027940005 -0.03139576
0002a0 5d 1a 0b be 93 7c 99 3d eb 86 c7 bd 80 6c 41 be
       -0.13584276 0.07494464 -0.097425304 -0.18889046
0002b0 27 39 02 bd 54 4e a0 bd 2c f7 e2 be 72 67 2b be
       -0.031792786 -0.0782744 -0.44329202 -0.1673868
0002c0 57 74 57 3e 4b df 01 3e a3 73 75 be 9b a9 bf bd
       0.21040474 0.12682836 -0.23969893 -0.093585216
0002d0 9c 24 ab bd 6c 1b ae bd 72 62 40 be 80 f3 ad bd
       -0.08356592 -0.08501324 -0.18787554 -0.084937096
0002e0 17 d8 58 bc 84 ff a0 bb f0 4e 1a 3e 5b 97 9d bd
       -0.013235114 -0.0049132723 0.15069175 -0.076948844
0002f0 0a 7a c1 bd 2c f9 18 3c 01 cb 96 bc b0 d9 2e bd
       -0.09447105 0.009336751 -0.018407347 -0.04268807
000300 0c 7c aa bd c8 3b 7f be bc e5 9e 3d 4f f0 0b be
       -0.08324441 -0.24925148 0.07758662 -0.13665889
000310 a3 88 2e be 84 0d 53 bd 56 9d 07 bd e2 73 80 be
       -0.1704431 -0.05152656 -0.03310903 -0.25088412
000320 dc 68 a7 bd 8d b6 66 bd ad 0a b9 3d 78 4a 43 3d
       -0.08174297 -0.056326438 0.09035239 0.04767844
000330 84 c9 83 3d 4f 41 6b bc d7 02 6d bd 94 a1 05 be
       0.064349204 -0.0143588325 -0.057864036 -0.13049918
000340 a1 a4 48 bd ac 0d 58 3e 4d 51 21 3d fa e9 20 3d
       -0.048985127 0.21098965 0.039384175 0.039285637
000350 67 1d 8c be 47 be 86 3e 20 09 79 bd 05 79 f2 bc
       -0.27366182 0.26317045 -0.060799718 -0.029598722
000360 30 44 21 bd ab dc bd bd 2e be 43 be d7 b6 d9 3d
       -0.03937167 -0.09270605 -0.19115517 0.10630577
000370 b6 03 9c 3c 34 2a 10 be 7e d4 22 be 3e bd 23 be
       0.019044738 -0.14078599 -0.15901372 -0.15990159
000380 88 cf 3e 3d c9 4c de bd 5c 3d 2a 3d 74 1c ec bd
       0.046584636 -0.10854489 0.041562423 -0.115288645
000390 4e d8 75 bd e8 ab 72 be 20 96 4f bb 4c 0e ca bd
       -0.060020737 -0.2369839 -0.0031675175 -0.09866008
0003a0 7b 36 32 be 6a 46 e7 bd 19 0d d9 bc 02 c3 d0 bd
       -0.17403595 -0.11292727 -0.026495503 -0.10193445
0003b0 c1 9f df bc 75 3d 7f be b7 30 f4 bd 22 2d 62 3d
       -0.027297856 -0.24925788 -0.11923354 0.055218823
0003c0 41 5c 2f bd 45 f7 84 bd 96 6f dd bc b9 21 a6 bd
       -0.04281259 -0.064924754 -0.027030747 -0.08111901
0003d0 45 83 05 bd 28 11 9d bd dd 3f 86 3d bb ab 26 3e
       -0.03259589 -0.07669288 0.0655515 0.16276447
0003e0 0a 33 2f 3e b3 18 ab be f9 a6 89 be 72 f7 7c be
       0.17109314 -0.33417282 -0.26885203 -0.24703768
0003f0 4c 6c 9a bd 39 61 bf bd f9 90 1a 3e 1b ea 22 be
       -0.07540187 -0.093447156 0.15094365 -0.15909617
