models/gru_trial_2.pth (torch, 172720 bytes, 9 tensors)

gru.weight_ih_l0 f4 [183, 44]
00000000: 7633 6e3d 8678 813e 0d86 3d3c 67e0 bc3c
00000010: bb2c b7be ff5b 05be c96a 09be ec52 d33c
00000020: b57f 6e3e 6693 953d 09c4 fc3d e655 63bd
00000030: 054f b33e 11a4 cc3d d3c7 98bd c6f6 29be
00000040: 09b4 863c 0d14 c03e 7fcf 403e a8a9 20be
00000050: d065 87be 49ad a23e 91b8 613b 0e24 4b3e
00000060: 7dbe c8be 239e 21bd 8b33 c9bd e03c c33d
00000070: c301 be3d e783 19be 0276 2fbe 45a4 80be
00000080: 3162 563e 5173 883d 4464 ef3c 1859 c33d
00000090: 1441 523e 0131 f43e ba1c e3bd d739 2dbd
000000a0: 0d0c 7e3c 1bd6 81bd c65b ad3e b6ee 3abe
000000b0: 06d9 813c ee24 9e3b fb34 2f3c aafe 6cbe
000000c0: 9a11 b63b 9afe d8bc 851f 97be 68cc 47be
000000d0: f49a 3abd bbaa d73c 6a4c 29be ec9d 4abe
000000e0: 0904 0cbe 47bc 1f3e 4547 713d e02f f93d
000000f0: e3a0 f23d 9cb9 20bc c4ac 1a3e 7419 f3bd
00000100: e031 433e 5584 ad3b 333d 07bd 5135 b13d
00000110: 8f83 d2bc 92db 773e 9603 24be e0e3 543e
00000120: 3970 d03d c3f1 91bd 7693 26be 02f2 acbe
00000130: 36df 853e 09f2 b3bd e8d7 6bbd d7f5 863d
00000140: 2bd0 13be 3f01 e6bd 17ab 1a3e b613 d7bd
00000150: b27d 0bbe 1729 16bd e5ad b33d ab38 3d3d
00000160: ff8e 543e 05c7 953d cb72 603d ba9e 3ebd
00000170: ca07 ebbe eb90 51be 7aa9 e5be 3564 873e
00000180: 29b4 bdbd b658 623e 9abd 253e 21dd 4ebe
00000190: c250 f73d 2150 cb3c 7bbd c6bd 72ab 13bd
000001a0: 12c2 d23c 4724 843e 5a57 5c3d 8cfd afbd
000001b0: 5e1d fa3c 781f 983d ef74 b93d f85c 933d
000001c0: 49bb b33d 0813 78bc 4d4e 0bbe e44f 3c3e
000001d0: 3556 bdbc a864 993b 575b 183e cac5 a8be
000001e0: 139c 823e 1659 ccbe be2c 1ebd bca9 bcbc
000001f0: c131 b1bd 527d 9d3e 4eea 203e 4c31 6ebe
00000200: 4d7e e0be 3790 7e3e 6b35 a83e 54d8 6ebc
00000210: 4881 24be 9afc 86bc 76b7 19bd 2967 d93c
00000220: 54a5 7bbd a97b 2f3d 2e43 9c3b 6f55 eabd
00000230: f084 1c3e 4de7 40bd 7d84 253e 7c78 a2bd
00000240: 021f fb3c b676 15be cc29 3f3c 8bda 36bd
00000250: 0a1d b7bd 822f 4f3e 7531 9abc b1cd 9f3e
00000260: 6a9b 143e adbd 973d cf5c df3d 8842 3d3d
00000270: 8cda e83d 5ba2 283e 4e6e 963d efc7 5fbe
00000280: 120b e93d 1f89 0a3e a230 7d3e c812 f1bd
00000290: 804a bd3d 51c5 08bd 4389 5c3e 16ec f13b
000002a0: caf5 11be c5f4 fb3d e76c 22bd 554e e7bd
000002b0: 287e 3dbe 2d85 01be e609 d43d 6f55 b63d
000002c0: b5bf 9dbc a74f 10bc 358f 6ebd f4a7 793e
000002d0: 88fa 78bd 6aba 65be 2912 3c3c 8841 1d3e
000002e0: b5a8 a33d 4b47 523e 7690 ae3d ece5 0f3e
000002f0: 72e4 fdbb aef3 fcbc 5f65 b53c 8dd9 06be
00000300: f267 ae3b 29ad 2abd e85e 263e 2ca9 113e
00000310: cc82 ef3d d93a 463e 8c3b 983d 81d7 26bd
00000320: 8b9c 0b3c 01b3 e23d baf1 22bd 5dcb 913a
00000330: 44fb 12be 1867 793d fe5f 0bbd 8bcf 57be
00000340: 4589 043e 6f8a b6bd fa49 ce3d f2f2 92bc
00000350: ca98 9cbc afb4 683e 12d8 ab3d b07d dfbd
00000360: 2c26 e2bd b4a3 74bd 3986 ca3c a78e 123c
00000370: fb4f 52be 51de f63b e198 a7be 517f 85bc
00000380: 5c1b 863d 91d4 f5bc d515 de3d 425a 6d3c
00000390: a893 d83c a271 173e 38c9 923d 237a c7bd
000003a0: 1020 d13c 6ae1 fc3d 51d4 0c3e a940 6bbc
000003b0: 7c14 79bd f09f 133d 952e 84bd 5061 c5bb
000003c0: edec 483d 9fbb 783d 0fbd e0bc 7738 683d
000003d0: 6249 cdbc 4116 163e f6a9 ccbd 9189 05be
000003e0: 84d8 d63d cabe 113e 59ee 52bd 0984 a43c
000003f0: c866 ff3d 378a a2bd ee59 0a3c 3fc5 14bd
0.058154546 0.25287265 0.011567605 0.023056222 -0.35776314 -0.13023375 -0.13419642 0.025796376
0.23290904 0.07303505 0.12342078 -0.05550184 0.35021225 0.09992231 -0.074599884 -0.16598043
0.01644327 0.37515298 0.18829153 -0.15689719 -0.26444864 0.3177283 0.0034442286 0.19837973
-0.3920783 -0.03945745 -0.09824284 0.09533095 0.0927768 -0.14991723 -0.1713486 -0.25125328
0.20935895 0.0666262 0.029222615 0.09538478 0.20532638 0.47693637 -0.110894635 -0.04229149
0.015505803 -0.063396655 0.3385908 -0.18255123 0.015850555 0.0048261797 0.010693784 -0.23144022
0.0055562975 -0.026488591 -0.29516235 -0.19511569 -0.04555793 0.026326528 -0.16533056 -0.19786805
-0.13673414 0.15599166 0.05890586 0.121673346 0.11847093 -0.009809878 0.15104967 -0.11870089
0.19061995 0.005295316 -0.03301735 0.086527474 -0.025697498 0.24204853 -0.16016993 0.20790052
0.10177655 -0.071261905 -0.1626719 -0.33778387 0.2614686 -0.08786399 -0.05757895 0.06589859
-0.14434879 -0.112307064 0.15104328 -0.105018064 -0.13622168 -0.03666028 0.08773402 0.04619662
0.20757674 0.073133506 0.054796975 -0.046538092 -0.4590438 -0.20465438 -0.44855863 0.2644364
-0.092628784 0.22104153 0.16185609 -0.20201541 0.1207595 0.024818482 -0.09704109 -0.036052175
0.025727306 0.25808927 0.053794242 -0.08593282 0.030531581 0.07427877 0.090555064 0.07195467
0.08775956 -0.015141256 -0.13604088 0.18389851 -0.023112396 0.0046811886 0.14878593 -0.329634
0.255097 -0.39911717 -0.03861689 -0.023030154 -0.08652068 0.30759674 0.1571438 -0.23260993
-0.4384636 0.24859701 0.32853255 -0.014577944 -0.16064942 -0.016477872 -0.037528478 0.026538448
-0.061436966 0.04284254 0.0047687506 -0.114420764 0.15285087 -0.047095586 0.16163822 -0.07933137
0.030654434 -0.14596066 0.01166768 -0.044642013 -0.08941086 0.20232967 -0.018822411 0.31211618
0.14512411 0.07409225 0.10906374 0.046206027 0.113698095 0.16468184 0.07345258 -0.21853612
0.113790646 0.1352887 0.24725583 -0.1177116 0.09242725 -0.0333913 0.21536736 0.00738288
-0.14253917 0.123025455 -0.03965464 -0.112942375 -0.18505156 -0.12648459 0.103534505 0.08903014
-0.019256452 -0.008808053 -0.05824204 0.24380475 -0.0607858 -0.22434393 0.011478939 0.1535703
0.07991163 0.20535009 0.085236475 0.14052552 -0.00774818 -0.030877914 0.022143064 -0.13168927
0.00532245 -0.041669045 0.16247141 0.1422469 0.116948694 0.19358386 0.07433233 -0.040732864
0.0085212095 0.110692985 -0.03978131 0.0011123229 -0.14353663 0.060889333 -0.034027092 -0.21075265
0.12942989 -0.08913123 0.10072704 -0.017938111 -0.019115824 0.22725175 0.083908215 -0.10912645
-0.11042437 -0.059726432 0.024722205 0.008945144 -0.20538323 0.0075338264 -0.32733825 -0.01629606
0.06548187 -0.030008586 0.10844008 0.014486851 0.026437595 0.14789441 0.07167286 -0.097400926
0.025527984 0.12347682 0.13752867 -0.014358678 -0.06081055 0.0360412 -0.06454197 -0.0060235634
0.049054075 0.060725804 -0.0274339 0.056694474 -0.025059406 0.14656927 -0.09993355 -0.13040759
0.10490516 0.14232937 -0.051496837 0.02008249 0.12470776 -0.07936519 0.0084442925 -0.03632092

gru.weight_hh_l0 f4 [183, 61]
00000000: 1dfa 883d d7bf aabd 5f62 cbbd a842 623e
00000010: 8be2 ccbd 08a3 933d 1bca 033c 719d d0bd
00000020: ce60 7fbe 5179 9f3d 24c8 a03d 21ac ad3d
00000030: cf01 303d 7981 8b3d abd1 ad3c 5d64 acbd
00000040: 1e4e dc3d 2820 6dbe 1ea3 f43c de86 d03d
00000050: c949 253d 734b 813e abfc 12be 8b7d 14be
00000060: 35e1 dd3d a3ae a2bc b2ef 583d ed60 073d
00000070: 9258 98bd 3feb 553e de16 bc3d 24fd 57be
00000080: d29a cc3d 0cae 9bbe 56af 0ebe 11da 97bd
00000090: 3d94 663d e4ed 01bc 73d2 11bc afe6 1a3d
000000a0: 0eba 1abe 69e8 31be e56b b33c 8084 37be
000000b0: 52cd 21be da36 3ebd 6d79 1f3e 5053 0cbd
000000c0: 8819 e2bd 2d0e 89bd b99a e8bd 8f68 173e
000000d0: 74ab 293e a403 3dbe e351 d93d 5fd3 823e
000000e0: 8d52 c83c 3a98 e8bd 7ec7 2a3e dccc 66be
000000f0: c140 aabd ac00 0dbd 253c aebd ddf1 b8bc
00000100: 2812 083d 18a1 da3d f1a0 2ebb b4ea afbd
00000110: fbe4 acbc df11 06bd 6050 263e a4e3 66be
00000120: a57b d9bd bd20 0d3d 6c51 68bd 71e4 af3c
00000130: 30ea 5cbd 6080 4cbd f0cd 5abe e951 46bd
00000140: 1581 a6bd 3d3a 393e f786 70bc dc8f ea3c
00000150: 1d0f 86be d61e 3cbe 4042 62bd ba36 8fbc
00000160: 9e97 81bd 8c2b 223e 2714 b63c ebaf 253e
00000170: add1 d93d 71d0 e93a de05 f3ba 57e4 09be
00000180: cfb2 9dbd b4d9 813d 22c1 82bc 5351 9dbd
00000190: fa63 573e 5039 573e 414a 9f3b 8479 1cbe
000001a0: a9ba c93d 22b3 7abe 88a4 80bc 723f 64bb
000001b0: 44e7 a0be a193 37bd 7672 d9bd 3db6 5d3e
000001c0: 0393 a3bd 738e 1b3e e479 fabc b2c2 c9be
000001d0: efdf 1ebd 9cca 33be 0ade e6bd 9aef c13d
000001e0: 9592 13be f4a9 133e 5969 adbe b23f 173e
000001f0: 312d 07be ea68 89bd 27c0 57be b15d 033e
00000200: d4a9 8e3e a989 5dbe 08d2 c83d 1a9a 32be
00000210: 55af 143d de2d ba3c 4380 66bc 4641 84be
00000220: 8409 3f3e 3283 96bd 37fe d0bd 7626 453c
00000230: e25e f2bd 08a5 1dbe fa7d 623e 43b8 113e
00000240: dd8f 3ebe 555a 483d e215 013e 3817 933d
00000250: d5d6 f03d 140a a93d 1e92 0cbd 7ad4 163e
00000260: 6e92 f03c 7742 80be 671f c73d b6b8 c93e
00000270: 848e f3bd 4062 0d3d d18c 1fbe 69cd b9bc
00000280: da6f b93b bf7b 6a3c 5304 4ebe 18c6 2ebe
00000290: 568f cfbd e83b 22be 4d4b 85be 8793 cabd
000002a0: 9c05 4f3e ac47 4cbc c69a 8c3e 6c59 373e
000002b0: c56f db3e d94c a13d fc61 a33d 7886 11be
000002c0: fffd be3d 0cee cdbd fcae 773e 4a66 f9bd
000002d0: ed8f 8ebe eaf5 81be b7e1 263d 05f2 ed3d
000002e0: b96e 1cbd c1cb 5ebe 2479 e53d d74f 3e3e
000002f0: 49d7 48be 4a45 90be f186 253e c19f 943e
00000300: 3f7a 043e 1c4a 1a3e ba84 19be 75ef 6b3e
00000310: cdb1 5d3d a0db ebbd 2671 553d 03a1 103e
00000320: 353b 58bd 5bb5 3f3c 3f05 bb3c 6a19 e4bd
00000330: 2ed5 a9bd 3eda 9e3e 7d6f 28be bab4 423d
00000340: c124 5c3d 54f4 8bbd 67c5 833d d67c 6f3d
00000350: 1240 16be c325 a0bd 88a5 fc3d be5b 913d
00000360: 0e56 12be e960 ddbd 8b1a 933c cb23 a9bd
00000370: bbbc 263e 704a 45bd 5594 65bd a1bf 383e
00000380: e28e bf3d 5de9 05be 3054 273e 5edc 24bd
00000390: c0e7 9fbd 0cfc 693d 4ef1 61be a885 973d
000003a0: cd4f 0abd 98e7 803d e29b 173d ab33 a5bd
000003b0: 9921 c63d e9c7 9bbe 8345 7fbd 4907 903d
000003c0: 24ba c2bd 552b 1cbd c478 98bc e562 0b3e
000003d0: eaae 0b3d 0a08 46be f190 d0bd 727f 0c3e
000003e0: ebf6 093e 26a4 833e 59d1 0d3d 757f a9bd
000003f0: 2083 d6bd 56db 05be aa9d 2d3e a060 21bd
0.0668833 -0.08337372 -0.09930872 0.2209574 -0.10004147 0.0720883 0.008043791 -0.101862796
-0.24939272 0.07786811 0.07850674 0.084800966 0.042970475 0.06811804 0.021218142 -0.0841758
0.10757087 -0.23156798 0.029862937 0.10181974 0.04035357 0.25252876 -0.14354198 -0.14501016
0.108339705 -0.019858664 0.052962966 0.03305142 -0.074387684 0.2089052 0.09184049 -0.21092659
0.09990467 -0.30406225 -0.13934073 -0.0741464 0.056293715 -0.007930253 -0.008900273 0.037817653
-0.15110037 -0.17373814 0.021902034 -0.17921638 -0.1580098 -0.04643903 0.15573664 -0.03425914
-0.11040026 -0.06692157 -0.11357636 0.1478598 0.1656931 -0.1845842 0.10611322 0.25551888
0.024453426 -0.1135716 0.16677663 -0.22539085 -0.08313132 -0.03442447 -0.085075654 -0.022576267
0.03322044 0.106752574 -0.0026646222 -0.08589688 -0.02110528 -0.032731887 0.16241598 -0.22547776
-0.106192864 0.03445505 -0.056718275 0.021471234 -0.053934276 -0.049927115 -0.21367621 -0.04841796
-0.08130089 0.18088622 -0.014680616 0.02863305 -0.26183406 -0.18371138 -0.055238962 -0.01748215
-0.06327747 0.15836924 0.022226406 0.16180389 0.106356956 0.001783861 -0.0018541177 -0.13466011
-0.07700121 0.06340352 -0.015961234 -0.07681527 0.21034232 0.21017957 0.0048611467 -0.1528073
0.09850056 -0.24482396 -0.015703455 -0.0034827855 -0.31426442 -0.044818524 -0.10617535 0.2165155
-0.07987025 0.15191059 -0.0305757 -0.39406353 -0.03878778 -0.17557758 -0.11272819 0.094695285
-0.14411385 0.144203 -0.33869436 0.14770392 -0.13200833 -0.06709464 -0.21069394 0.12828709
0.27863944 -0.21634544 0.09805685 -0.17441598 0.036300022 0.02272695 -0.014068666 -0.2583105
0.18655974 -0.07349242 -0.10204738 0.012033096 -0.11834504 -0.15394986 0.22118369 0.14230447
-0.18609567 0.048914272 0.12606004 0.07182163 0.11759726 0.082538754 -0.034319036 0.14729491
0.029366698 -0.2505071 0.097227864 0.39398736 -0.11892417 0.034517527 -0.15581061 -0.022680955
0.0056590857 0.01431173 -0.20118837 -0.17067754 -0.10134761 -0.15843165 -0.26034012 -0.0989142
0.20216984 -0.01246826 0.27461833 0.17905205 0.4285871 0.07875986 0.079776734 -0.14211452
0.0932579 -0.100551695 0.24187845 -0.12177713 -0.27844182 -0.2538293 0.040742602 0.11618427
-0.03819153 -0.21757413 0.11204746 0.18585144 -0.19613375 -0.28177863 0.16164757 0.29028133
0.12937258 0.15067333 -0.14992037 0.23040564 0.054124642 -0.115164995 0.05210986 0.14123921
-0.05279084 0.011700953 0.02282965 -0.1113766 -0.08292614 0.3102588 -0.1644878 0.047535636
0.05374599 -0.06833711 0.06434136 0.058468662 -0.14672878 -0.078197025 0.1233626 0.070975766
-0.1429064 -0.108095 0.017956993 -0.0825878 0.16282932 -0.048166692 -0.056049664 0.1804185
0.093534246 -0.13077302 0.16340709 -0.04024922 -0.07807875 0.057125136 -0.22064707 0.0739854
-0.03376751 0.06294173 0.037013896 -0.080664955 0.09674377 -0.30425957 -0.06232215 0.070326395
-0.0950816 -0.038127262 -0.018612273 0.13611944 0.034102358 -0.19339004 -0.101838954 0.13720492
0.13473098 0.25711173 0.034623478 -0.082762636 -0.10474229 -0.13071951 0.16954675 -0.03939879

gru.bias_ih_l0 f4 [183]
00000000: fc76 c3bd 0a19 81bd 7e85 143e a473 f63d
00000010: 7fa1 88be 3cd3 9f3d 1712 62bc 4edd 4c3e
00000020: b067 023d 353d a53c 940e e1bd c3d8 91be
00000030: a89f e33d c807 7ebe 6308 403e 6494 65be
00000040: c233 e0bd b152 b03c 2c11 993d 3592 77be
00000050: c7bf 423e 6689 4e3e dd09 593d a848 0b3e
00000060: 724f 8b3e 9445 bbbd d9b0 a7bc fe8a 06be
00000070: d9a8 d7bd 8ebc 87bd 5bdb fabd e6c6 b73b
00000080: e805 fcbd b53a 94bd 38f3 953e 6155 9fbe
00000090: 52ac 983c 75d5 7dbe 3d9c be3c e8d0 26be
000000a0: 6ca9 c0bd cb4b fcbc 7751 813d a25f 963b
000000b0: 34b7 933d da0f 9a3d dee8 373e 4d6b 423d
000000c0: 1fab 77be af80 04be ed0c 783d 689c 48bd
000000d0: f53e 4ebe e836 4f3d e86d 0cbc 4b2c 673e
000000e0: 8589 1fbc bcf7 8b3e 6c78 a33d a3f9 67bb
000000f0: 76ba d9bd f9e8 3a3e 09b1 5e3e 984c 073c
00000100: dc81 d6bd f20f 69be 1082 9abb 01a4 16be
00000110: fb3e e2bc 132f 973d 4742 3f3d 9ee1 56be
00000120: e310 2a3c 0948 9b3d d3b5 4b3c a87d 41be
00000130: 4edc acbe 21ab cb3d 2157 073d b920 bd3d
00000140: 2c69 02bf 63ad 2cbe daf1 4b3e 674a 58bc
00000150: 4ad8 0cbe 0efe 51be e989 d5bd 457a c1be
00000160: 8058 06bf 9bd6 013e 6cd5 343e 1b8c 583c
00000170: 146f 533e 1ea8 00bd 0cf3 563e af4d bcbe
00000180: 6864 543e 95c5 9c3e 651c 01be f005 45be
00000190: ea3e c1be c7ee 92bc 3b21 483c 4422 11be
000001a0: fe15 75be 5fb5 16be e327 27be 3da4 bc3d
000001b0: 2903 95be e2bb e53d 59c0 75be 36a7 09bf
000001c0: 1522 c7be 75c5 163e 9212 2b3d 8755 0fbc
000001d0: ba8a 4f3e 73ed 9bbe 9eec 16be 7eb4 98be
000001e0: 04df 8bbd 371e 353d e0a3 33bc b7d5 51bc
000001f0: 15dc 46be c344 933d f9cd 6c3e 7d56 09be
00000200: cf8b a6be f15e 353e 3624 523e c2c0 743e
00000210: 179a d2be d8f1 01be f82e b73d ee2f 3c3e
00000220: 9869 f53c 69c9 743e 1865 30bd b6f0 9d3e
00000230: 2c6f b8bd a621 943e ecc2 6a3d ec16 bc3b
00000240: 3360 9e3e 26db 10be 4abc 573b 4a07 c33c
00000250: 8a50 9d3d e359 3bbe d2b2 ae3e 89bc 0fbe
00000260: 4e98 493d dddf 873e d42d 73bc ae96 7d3c
00000270: c5ee debd 6250 17be 8178 b2bd 63b3 0dbd
00000280: d3cc cbbd 76d5 e2bd 9002 4a3e 3a2b 263e
00000290: 285a bbbe 3218 d13e b5bf 04be 820b 473e
000002a0: b964 04be 494c b1be af68 02be 43fc c83d
000002b0: 09f5 6b3e 8138 a7be 8008 153e f596 363e
000002c0: a869 9dbe cdc6 b2bc 3229 55be ddbe 77be
000002d0: 26e4 a73d b707 2a3e 0731 b13e
-0.09544179 -0.06303604 0.14504048 0.120337754 -0.26685712 0.07803962 -0.013798258 0.20006296
0.031837165 0.020170787 -0.10989109 -0.2848569 0.111144364 -0.24807656 0.187532 -0.22419888
-0.10947372 0.021523805 0.074739784 -0.24176867 0.1901847 0.20169601 0.052987922 0.13601935
0.2720905 -0.0914413 -0.02047007 -0.13138959 -0.10530252 -0.06627761 -0.1224887 0.0056084273
-0.12305814 -0.0723776 0.29287124 -0.31119826 0.018636856 -0.24788459 0.02326786 -0.16290629
-0.09407315 -0.03079786 0.06314366 0.004589037 0.072126776 0.07522555 0.17959926 0.04746561
-0.24186371 -0.12939714 0.060559202 -0.048977286 -0.20141204 0.050589472 -0.008571126 0.2257549
-0.009737377 0.27337444 0.07981953 -0.0035396598 -0.10631268 0.18252935 0.21747221 0.0082580075
-0.104739875 -0.22759989 -0.0047152117 -0.14711 -0.027617922 0.073820256 0.046694066 -0.20984504
0.010380003 0.07582099 0.012433487 -0.1889559 -0.3376183 0.099447496 0.033042077 0.09234757
-0.5094173 -0.16863017 0.19916478 -0.013201333 -0.13754383 -0.2050707 -0.10426695 -0.37788597
-0.5247879 0.12679522 0.17659539 0.0132169975 0.20647842 -0.03141033 0.20991153 -0.36778018
0.20741427 0.30619493 -0.12608488 -0.19240546 -0.37743312 -0.017936124 0.012214954 -0.14173228
-0.2393417 -0.14717625 -0.1632381 0.092110135 -0.29103974 0.112174764 -0.23999156 -0.5377077
-0.3889319 0.14723761 0.041765757 -0.008748419 0.20267764 -0.30454597 -0.147387 -0.29825205
-0.06829646 0.04421827 -0.010964364 -0.012807301 -0.19419892 0.0719085 0.23125447 -0.13411899
-0.3252854 0.17711999 0.20521626 0.23901656 -0.41133186 -0.12689912 0.089445055 0.18377659
0.029957578 0.23904957 -0.04306516 0.3084771 -0.09005579 0.28931922 0.0573148 0.005740037
0.3093277 -0.14146098 0.0032918626 0.023807187 0.07681377 -0.18296008 0.34120804 -0.14036764
0.049217515 0.26537982 -0.014842469 0.015477819 -0.108853854 -0.14776757 -0.087143905 -0.034594905
-0.099511765 -0.11075871 0.1972754 0.16227427 -0.3659222 0.40838772 -0.12963755 0.19437984
-0.12929048 -0.34628513 -0.12735246 0.0981374 0.23042692 -0.32660297 0.14554024 0.17831023
-0.30744672 -0.021823311 -0.20816496 -0.24193902 0.08197813 0.16604505 0.34607717

gru.bias_hh_l0 f4 [183]
00000000: 37f3 7bbd 474d 433d a19b 1e3e f860 253e
00000010: cbff 6dbe 9df3 383e 1c3f 44be f192 133e
00000020: 7400 f63d 54dc d0bd ad16 0abe 204d 20be
00000030: 87f0 0e3e eb31 6ebe 1ade 163e 6839 aabd
00000040: f16d 19bd d428 08be c269 b93d faa7 86be
00000050: 0e3b 923e 6280 233d f273 aa3d bf7d d5bb
00000060: a39e 093e 6230 a4bd b537 15bd 7a98 003d
00000070: f652 2dbd 97aa 19be 827c 89bb dfb8 63be
00000080: 4c84 0bbe ec0d f23d bdcf 933e c627 54be
00000090: 235e 8fbd 239a 71be c6dd a03d 56dc 0ebd
000000a0: aeba 11be 3965 d73c 6f80 b9bc b086 82bd
000000b0: 0093 e13c 8c80 f1bc 3bcf 3bbc cf99 433d
000000c0: b360 0bbd 586c 8dbe a3fb 8c3d af5b 44be
000000d0: 3000 03be da5f 91bd 8eba 19be 68fa 053e
000000e0: 274c f9bd c147 b03e 6b4d 5e3d 578e 573d
000000f0: d573 1cbd af85 9bbc 8815 7a3e 5e97 323a
00000100: 184a 43be 46fd 48be b3a8 df3d 33cd 04be
00000110: 0d4a 44bd 0000 a03d 1a3b 053e fc6a 66be
00000120: 5707 de3c fce9 6b3e 4deb 05be da07 dabd
00000130: b803 ecbe 7f6c 083e d103 0dbe da26 7b3d
00000140: 5e56 b5be 1923 c2bd 7bdc f3bc f994 6dbc
00000150: ea22 96bd 14be 19be 1254 913c e29d 76be
00000160: d4f2 17bf 36cd 743e b28b 3c3e d86e 0c3e
00000170: 9612 4a3e 2edd 4e3c 4efe fb3d f6a2 ecbe
00000180: 0966 9f3d 31e5 693e ff28 08be 4af6 95be
00000190: 6dc2 d3be c22e a53b fc5b 833d 7c9c 32be
000001a0: cb2e 5fbe f98f 31be 7dd2 36be a2a6 8abd
000001b0: 08b7 98be 1b16 113e ca7c 41be 5fc9 b8be
000001c0: 45f1 92be 4e99 5d3d d07f 54bc 5e3c 2f3e
000001d0: c831 503d b126 2bbe 2bdb 36be 79ae a8be
000001e0: 8827 11bd b1dc 3f3c 9691 053e 1a11 3dbe
000001f0: bce8 a2be c010 983c 0c94 883e 9201 96bd
00000200: b018 1cbe 7144 943e 670d 403e 4ca4 2d3e
00000210: 80be 3abe f252 0abd 8d3b 653d 8ddd df3d
00000220: 1cc3 213d a598 1a3e adb7 403e b39b 383e
00000230: 8b54 273e d9be 043e 0e83 2eb8 f63b 393d
00000240: caff 113e d1c9 8abc 9c4c 73be e791 cb3d
00000250: 6023 d23d 9695 1bbe 2516 3d3e dd82 c5bd
00000260: 7336 803d 1846 cf39 ed4d bd3d fea1 063d
00000270: b9e3 e2bc a024 463d bf45 103d ae17 4a3e
00000280: 2beb d9bd 4a98 ddbd d692 9d3e 4869 9b3d
00000290: 58b6 b9be 2f77 493e c711 4bbe 28ff 993e
000002a0: 2254 203d 31eb 25be 132b 82be 3b56 1b3e
000002b0: 422d 493e da5e 8cbe 39b3 963d c0e0 803e
000002c0: ab37 56be 4284 71bd 11d0 cc3c b7ed 7fbe
000002d0: 29f3 2f3e 64ee a53d 4ac4 433e
-0.061511245 0.04768112 0.15489055 0.16150272 -0.23242109 0.18061681 -0.191647 0.14411522
0.12011805 -0.10198274 -0.13485213 -0.15654421 0.13958941 -0.2326123 0.14733163 -0.083117306
-0.037458364 -0.13296825 0.09053375 -0.2630003 0.2856068 0.039917357 0.08322896 -0.0065152342
0.13439421 -0.08017041 -0.03643008 0.031395413 -0.042315446 -0.15006481 -0.0041957507 -0.22238491
-0.13624686 0.11819062 0.2886943 -0.20718297 -0.07000377 -0.23593955 0.078548 -0.034878097
-0.14231369 0.026293384 -0.02264425 -0.06373346 0.027535915 -0.029480241 -0.011462982 0.047754105
-0.034027766 -0.27621722 0.068839334 -0.191756 -0.1279304 -0.0709836 -0.15012571 0.13083804
-0.12172728 0.34429744 0.05427305 0.05262598 -0.038196404 -0.018984644 0.24422276 0.00068127166
-0.19071233 -0.19627866 0.10920849 -0.12968902 -0.047922183 0.078125 0.13010827 -0.22501749
0.02710311 0.23038477 -0.13078041 -0.10646029 -0.46096587 0.13322638 -0.13770987 0.06131635
-0.35417455 -0.094793506 -0.02976822 -0.01450085 -0.07330878 -0.15013915 0.017740283 -0.24083665
-0.593549 0.23906407 0.18412665 0.13714159 0.19733652 0.0126259755 0.12304364 -0.4621808
0.077831335 0.22841336 -0.13296889 -0.29289466 -0.41359273 0.0050409744 0.06414029 -0.17442507
-0.21795194 -0.17340077 -0.17853732 -0.06770064 -0.29827142 0.14168589 -0.1889526 -0.36091134
-0.286997 0.05410128 -0.012969926 0.17112872 0.050828725 -0.16713978 -0.17857043 -0.32945612
-0.03543809 0.011710332 0.13043818 -0.18463555 -0.31818187 0.018562675 0.2667545 -0.07324518
-0.15243793 0.28958467 0.18755113 0.16957206 -0.18236732 -0.03377051 0.055964995 0.10930929
0.03949271 0.15097292 0.18820067 0.18028145 0.16340844 0.12963428 -4.1606887e-05 0.0452232
0.14257732 -0.016941937 -0.23759693 0.09939938 0.102606535 -0.15193781 0.18465479 -0.09644101
0.06260385 0.0003953434 0.09243379 0.03286933 -0.027696477 0.048374772 0.035222765 0.19735596
-0.10640558 -0.108200625 0.3077609 0.0758844 -0.3627193 0.19674371 -0.19831 0.3007748
0.039142735 -0.16203 -0.25423488 0.15169613 0.1964617 -0.27416116 0.07358403 0.2517147
-0.20919673 -0.05896402 0.025001558 -0.24993025 0.17182602 0.0810211 0.19117847

gru.weight_ih_l1 f4 [183, 61]
00000000: b52f a53e c309 a03c f3f3 a7bd 702f be3d
00000010: 812c 8dbe 17af d4be c1b4 d5bd d5eb db3d
00000020: 9ec9 25bd b4ef 27be 050a c13e 6ba3 ac3d
00000030: 534d 5a3e 1d13 0f3e 61f1 1dbe 54b8 093d
00000040: c49d a23d eceb d1be 0cdb efbd 6417 ac3b
00000050: 3c17 b73d 62af b0bb 52e7 89bd f2e6 bb3d
00000060: 86ba 76bd e93a 223e 3a53 96bc e022 2ebe
00000070: 5d5c 8abe 5f7e 503e 2cf5 d53d 43fe cbbe
00000080: b7e9 7abd f48e 92be bca8 74be 7ccd 0b3b
00000090: ac04 dc3c aeb1 1dbe a302 cd3d c49e a43e
000000a0: 6bb7 563b 63df 25bd 5861 87bd f0c4 96be
000000b0: 9705 17be c872 06bd 7535 1fbe 3f57 44bd
000000c0: ba9d a7bc 6a53 373e 5654 9fbd 1bff 51bd
000000d0: cb22 763e cfd4 17be e684 0e3e c89c 19ba
000000e0: 7679 5abe efc2 2a3e 9e30 32bb 9585 c0bd
000000f0: b28d 02be 04af e1be 2f85 02be 5f9a ca3d
00000100: e228 923d 0a9c a73d 5633 783c 9fd0 83bd
00000110: afe1 043d aa15 2b3e 96cc c33c 0970 283e
00000120: c503 0dbe 7b98 873e 1062 3fbe 1154 a2be
00000130: 44ac 08be 387a 20be 962d 4d3d 6d9f 2e3d
00000140: acc5 4bbe 2b81 52be fa7e 0fbd 0378 f93d
00000150: 58b3 32bc 2257 d2bd 8a4f 083e 947f 953d
00000160: ae1f d73c 8105 03be 3402 17bd bd68 dbbd
00000170: 2915 a93d 6727 20be 597f 823d 7ef9 0b3e
00000180: 7618 973e 49be 98bd 0d9e 9f3e cf23 9d3e
00000190: 6e1f 31be dfc4 74bd b331 8d3e 835e bc3d
000001a0: 8914 183d a8e0 053e 21bf cabd 5d56 ce3d
000001b0: 101c 8fbd ab18 603e babf 9dbe fdd8 26be
000001c0: 38f0 e838 0465 d03d d4b6 1e3c 23af 83be
000001d0: 6d64 1ebe e16f e63d c440 fb3d e76a 69bd
000001e0: 4fb7 00bd 61e5 a8ba 160e 003e e002 533d
000001f0: e3b3 a3bc 0e8c 8abc 2caa e53d 7d05 c2bb
00000200: f741 e2bd 8cb0 61bd cb8a 37bd 868d 0e3d
00000210: 72ff 82bd f55b 8f3c 3814 803d 6914 97bc
00000220: 7f02 183d 1dd0 04bd 6f9c c63d 3fa2 d0ba
00000230: edc4 463c ba58 61bd 6a06 843d 9ed3 9f3c
00000240: c038 bf3d e8de eebd aaec 67bc 9959 843d
00000250: 22bd 36be b762 c5bc ff49 833d 4c5f debd
00000260: 75db 653d 3c9b 5f3c 6200 08be 2380 a43d
00000270: 3701 f2bd 1292 043e 6f76 a7bd 9f95 06be
00000280: 1ae2 613d 248c 88bd 6467 323e 7d2c 2d3e
00000290: bcb3 dbbc 7d28 bbbd f169 8abd 8771 46bc
000002a0: 0733 f63b c878 42be 77c6 9cbd 429a 89bd
000002b0: 8601 083e c64c 373d 6348 003e 47ea 763d
000002c0: 6c8c 58bd 7ca4 bebc 7968 22be 1f87 853d
000002d0: f4b0 fa3c 9479 ae3d 9017 2b3e 0400 093d
000002e0: 29ad c1bd 4d80 5a3d b8e9 073e d5c7 9abc
000002f0: 1af7 293b 7e59 ecbc 1efc c7bd 8279 bb3d
00000300: 73db 1d3d dee4 083e 0839 5dbc b7ea fb3d
00000310: 457f 79bd d572 79bc 4a75 823d 440b b2bd
00000320: f105 3ebd 4017 e7bd a955 8e3d 3b76 483e
00000330: c979 96bc f969 33bd 1c56 95bd 8be7 c03d
00000340: 25aa d63d 1d30 90ba 0b48 a83d dbc8 41be
00000350: 44e0 373e c7f7 af3c cbc0 9dbb 6321 cb3d
00000360: 03c9 723d a17a b3bd 2afe af3d e003 153d
00000370: 49ac c63d 4407 993d 2cbe 1b3d ede8 d43d
00000380: 1895 02bb b17f 343d 22fa d4bd 5c3d 62bd
00000390: bb61 dfbc 2019 09be f14b 9ebc 0f10 773c
000003a0: 94a8 243a 1340 a8bd cc40 3b3e a579 74bd
000003b0: 3010 40be 314e 3f3d 6f58 633e f397 bcbd
000003c0: f4c3 b3bc 4835 e7bd 2627 cd3b 4297 113e
000003d0: 56dd b4bd 1ca9 113d 7885 093d 02ed e63d
000003e0: e346 b5bd 1f2f 7ebc 8224 fc3d 1e7a 08bd
000003f0: 88a2 b43d d022 693d 7588 d0bd a9c2 983d
0.3226296 0.019535905 -0.082008265 0.09286392 -0.27573016 -0.41539833 -0.10434867 0.10738341
-0.04047548 -0.16400033 0.37702957 0.08429607 0.2131856 0.13972135 -0.1542411 0.033623055
0.07940248 -0.41000307 -0.11711702 0.005251812 0.089399785 -0.005392001 -0.06733574 0.09174909
-0.060236476 0.15842785 -0.018350232 -0.17005491 -0.27023593 0.20360707 0.104471534 -0.39842424
-0.061258044 -0.2862469 -0.23892492 0.0021332195 0.026857696 -0.1539981 0.100102685 0.3215238
0.0032763134 -0.04049624 -0.06610364 -0.29447126 -0.14748226 -0.032824308 -0.15547736 -0.047934767
-0.020460952 0.17902914 -0.07779758 -0.05126868 0.2403671 -0.14827274 0.13917884 -0.0005859849
-0.21335396 0.16675924 -0.0027189623 -0.09400479 -0.12749365 -0.4407884 -0.12746118 0.09892725
0.07136704 0.08184059 0.015148958 -0.06436276 0.03244179 0.16707483 0.023901265 0.16448988
-0.13770969 0.2648352 -0.18689752 -0.31704763 -0.13346964 -0.15671623 0.050092302 0.04263251
-0.19899625 -0.20557086 -0.035033204 0.121810935 -0.010907017 -0.102705255 0.13311592 0.07299724
0.026260223 -0.12795068 -0.036867335 -0.107133366 0.08255989 -0.15640031 0.06371946 0.13669392
0.2951085 -0.07458169 0.3117527 0.30691382 -0.17297146 -0.059758063 0.2757698 0.09197714
0.03712896 0.13073981 -0.09899736 0.10075066 -0.06987774 0.2188441 -0.30810338 -0.16293712
0.00011107366 0.10175517 0.009687144 -0.25719556 -0.15467997 0.11251808 0.122682124 -0.056986716
-0.031424817 -0.0012885743 0.12505373 0.051516414 -0.019983238 -0.016912486 0.11214098 -0.0059210644
-0.11047738 -0.05510001 -0.044810098 0.034802936 -0.063963786 0.017499903 0.062538564 -0.01844235
0.037111755 -0.032425035 0.09697806 -0.0015917494 0.012131912 -0.055016257 0.06446536 0.019510087
0.09336996 -0.1166361 -0.014155546 0.06462402 -0.17845586 -0.024094922 0.06410598 -0.1085802
0.056117494 0.013647851 -0.13281396 0.08032253 -0.11816638 0.12946346 -0.08176886 -0.13143013
0.055147268 -0.06667355 0.17422253 0.16911502 -0.026819102 -0.09138582 -0.06758488 -0.012112028
0.007513407 -0.18991387 -0.07655042 -0.067188755 0.13281831 0.04475095 0.12527613 0.060282018
-0.05286829 -0.023271792 -0.15860166 0.06519913 0.030601956 0.08519283 0.16708207 0.03344728
-0.09456856 0.053345013 0.1327275 -0.018894115 0.0025934638 -0.028851267 -0.097648844 0.09154035
0.03853936 0.13368556 -0.013502367 0.12300628 -0.06091239 -0.015225132 0.06370027 -0.08693555
-0.046392385 -0.112837315 0.06949932 0.19576351 -0.018368619 -0.043802235 -0.07291815 0.09419163
0.10481671 -0.0011000667 0.08216866 -0.18924277 0.17956644 0.021480454 -0.0048142425 0.099184774
0.05927373 -0.08763624 0.085934 0.03638065 0.097008295 0.07472089 0.03802316 0.103959896
-0.0019925293 0.04406709 -0.103992715 -0.055234298 -0.027268281 -0.1338849 -0.019323321 0.015079512
0.00062812236 -0.08215346 0.18286437 -0.05968632 -0.18756175 0.04670543 0.22201703 -0.092086695
-0.021944024 -0.112894595 0.0062607704 0.14217857 -0.08831279 0.035561666 0.03357455 0.112756744
-0.08851411 -0.015514164 0.12311651 -0.033319585 0.08820063 0.056917965 -0.10182277 0.074590035

gru.weight_hh_l1 f4 [183, 61]
00000000: 5528 2b3e e67d 183e b261 3c3d 37e5 acbd
00000010: b821 c8bc c3b0 d93c 1e25 bebe e31d d83c
00000020: 8257 babd 6525 03be b541 18bd f948 17be
00000030: 2966 f43d c79b 043e f094 cf3d 42f0 f33d
00000040: 0588 2a3d f956 dabd 2b7b ba3d 728d 98bc
00000050: 7a8a 8f3d 2ec5 82bd 0d8b 413e 7d4b c4be
00000060: ffb8 9b3d 355b b73d 5f4f 47bd ee4a 38bd
00000070: e232 873d ff75 aabd 7665 90bd 1562 11be
00000080: f51f 1c3d e507 d53d 709e 80bc a788 5a3d
00000090: 84fd aebd dec0 cdbc 8cf7 e93c 32c9 bb3e
000000a0: b493 cc3c d6c2 ad3d 2a62 2cbe 8a33 23bc
000000b0: 322b 49be 72af 1f3e 9aee 23be 8e38 c8bd
000000c0: 7039 0d3e 2bba 31bd afbb edbb b9b2 cf3d
000000d0: 41ad 73be e296 a1bd 7b0b 8abd 5a26 03be
000000e0: f061 243c defc e13d f031 a3bb 51cb 283d
000000f0: 4af8 9bbd 42d8 2e3c cd22 fabe 855a c4bb
00000100: 441c 873e 074c 52bd 6a7d 433e 68dc 52be
00000110: 653a cb3e 315c 043e 93d9 a0bc d00c 0d3e
00000120: 57e0 27bd 4eb9 f4bb 20dc 90bb bec4 31be
00000130: 7e6d 023f 637d 1a3c 18ac 80bc 67a8 3d3d
00000140: 489d 1bbe 3bb7 a6bd a2c1 063d f529 bbbd
00000150: 5ea1 b5bd 7a7f 883e 253f 3c3b 2681 2e3e
00000160: e7e3 32be d025 1dbd d8b8 60be ae73 eabd
00000170: a5a1 c4be a426 a83c 550a 343e 40ed de3c
00000180: b7c9 0dbe 9db5 c6bd d516 973e 467d 58bd
00000190: 3745 d23d 92fd 303e 5125 2fbe 69f0 dbbd
000001a0: ff0c 2abd f765 313d c3fa 3b3e cb3c 8fbe
000001b0: eca4 18bb c0be b03e 7cad 333e 778a 89bd
000001c0: 1bfe 5d3e 459b 27bc 3084 2ebd b937 f8bd
000001d0: d3f2 d4be 5852 a1bc bf62 1d3e 0658 80be
000001e0: 2ab5 debd ed76 68be 03e6 6e3e a12f 3ebe
000001f0: 2cd4 813e ee89 aebd 21f2 803e 6074 4bbe
00000200: 3af0 39be d704 29be aff0 68be 402e 943e
00000210: 3f2b 9c3b d96c 12be a5e4 813e 7f33 773e
00000220: 44c1 52bd 16b2 253e 67b1 23be 22d6 a73d
00000230: eacb f83d 48f7 54bd 8ff0 84be b9ff f73d
00000240: 5a00 873e c7cd 80be 20d7 91bd 948d 7abe
00000250: 412c 3e3e fc13 d7bd bb71 4f3e 3e2b 643d
00000260: 4688 413e b35b 6bbd ecf4 50be d696 94bc
00000270: 95c9 73bc 59d1 52be 4f48 e23d 5494 b1bd
00000280: 751b 903d 5a8f ab3d fb8c 02be dfab c03d
00000290: 69f8 803b 3a26 213c c30c b4bd 83e8 10bd
000002a0: 281d 9b3c fee0 4bbe 6d7f 57bb 839b 023e
000002b0: ab37 ac3c 6b81 ecbd 0418 82be a305 173d
000002c0: 4e9d 5d3e d33c 8bbe a42c 47be ee0e 49bd
000002d0: 1df0 273e 18f3 27bd 4fab dd3d f121 c5bd
000002e0: c0a0 98bd 9a27 943d f556 0fbe 9f8f fe3c
000002f0: 3f5b 893d 5b0b 82bd 9750 72bd d2f1 97bd
00000300: d6cd 283e 213a 41be d39f 273e 2b27 c03d
00000310: ddf4 9c3d 0172 6b3d 0525 cabd 3bb6 a1bd
00000320: 9913 273e 02e8 05be cc47 4a3e c6a3 69be
00000330: 03ee 0c3e 1e73 913d 07a0 c23b 73e5 6fbe
00000340: 17c6 6abe 353e b1bd 9f58 833e 218f 343e
00000350: d71c a43e ba26 d13d c822 1d3e 09d9 3fbe
00000360: d49e 96be df17 f1bd a25c 99bd b6b5 1f3e
00000370: 9697 7bbe cdd5 863e 1a35 1e3e b9b1 0dbe
00000380: 731a 903e 5c76 043d fbee 903d 8a7a b93d
00000390: 8b6a 75be da34 503c 635f 4cbe e94a 87bd
000003a0: ea01 82be 4b21 473d daab 4ebe 735c 3bbc
000003b0: 01f2 3cbe 66a5 a33e ac18 e23c f03e c1bd
000003c0: 8ced 93be f075 0f3e 7cf6 003e 291c 483e
000003d0: cd0b 963d 4695 56be 8878 e13d dba7 70be
000003e0: db86 da3b 3149 f2bd d348 6ebe ff8e 0abe
000003f0: ebaa abbe eefd 003d bcd3 03be a40d 373d
0.16714604 0.14891776 0.045991607 -0.08442157 -0.02443014 0.026573544 -0.37137693 0.026381439
-0.09098722 -0.12807234 -0.037172038 -0.1477393 0.11933548 0.1295005 0.101358294 0.1191106
0.041633625 -0.1066112 0.09105524 -0.018622134 0.07008834 -0.06385265 0.189007 -0.38338843
0.076036446 0.08952943 -0.04865968 -0.044993334 0.06601502 -0.08323287 -0.07050602 -0.14197572
0.038116414 0.104018964 -0.015700549 0.053352978 -0.08544448 -0.02511638 0.028560422 0.36676937
0.024972774 0.08484428 -0.16834322 -0.009961018 -0.19645384 0.15594271 -0.16008988 -0.09776412
0.13791442 -0.043390434 -0.0072550396 0.101415105 -0.2379656 -0.07890107 -0.06740471 -0.12807599
0.010033116 0.11034559 -0.0049803182 0.041209523 -0.07615717 0.010671677 -0.48854676 -0.005992236
0.26388752 -0.051342037 0.1909081 -0.20591891 0.3969299 0.12925793 -0.019634997 0.13774419
-0.04098543 -0.007468379 -0.004420772 -0.17360207 0.5094832 0.009429309 -0.01570706 0.04630318
-0.15196717 -0.08140417 0.032899506 -0.09138862 -0.08868669 0.26659757 0.002872416 0.17041454
-0.1746975 -0.03836614 -0.21945512 -0.114478454 -0.38404575 0.020526238 0.17582066 0.027212739
-0.1384648 -0.09702609 0.29509607 -0.052853845 0.10267108 0.1728423 -0.17104079 -0.10739214
-0.0415163 0.043310132 0.18357377 -0.2797607 -0.002329166 0.3452053 0.17546648 -0.06715863
0.21678965 -0.01022989 -0.042606533 -0.12120003 -0.4159151 -0.019692585 0.153697 -0.25067157
-0.10874398 -0.22701617 0.2332993 -0.18572856 0.25357187 -0.08522402 0.2518473 -0.19868612
-0.18158045 -0.16505753 -0.22748064 0.28941536 0.0047658975 -0.14299335 0.25369754 0.24140738
-0.051453844 0.16181216 -0.15985642 0.081951395 0.121482685 -0.05199364 -0.25964782 0.12109322
0.26367456 -0.25156996 -0.0712111 -0.2446807 0.18571569 -0.105018586 0.20258228 0.0557053
0.1889964 -0.057460498 -0.2040593 -0.01813833 -0.014879604 -0.20587672 0.11048948 -0.086708695
0.07036487 0.083769515 -0.12749092 0.09407782 0.003935863 0.009835774 -0.087914966 -0.03537799
0.018934801 -0.19910046 -0.0032882348 0.12754636 0.021022638 -0.11548122 -0.25408947 0.03687061
0.21642038 -0.27194843 -0.19450623 -0.049086504 0.1640019 -0.041003317 0.1082369 -0.096256144
-0.07452536 0.07234116 -0.13998015 0.031074343 0.06706857 -0.06349822 -0.059158888 -0.074191704
0.1648477 -0.1886983 0.16369562 0.09382471 0.076638915 0.05748177 -0.09870342 -0.07896086
0.1631607 -0.13076785 0.19753951 -0.22816381 0.1376267 0.07102035 0.005939487 -0.23427372
-0.22927128 -0.08654443 0.2565355 0.17632724 0.32053253 0.10212465 0.15345299 -0.18735136
-0.2941805 -0.11772131 -0.074883714 0.15596661 -0.24569544 0.26334992 0.15449944 -0.13837327
0.2814518 0.03233944 0.07076832 0.090565756 -0.23966424 0.012707913 -0.19958262 -0.06606085
-0.25392085 0.048615735 -0.20182744 -0.011435616 -0.18451692 0.31962126 0.027599655 -0.094358325
-0.2889217 0.14009833 0.12594026 0.19541992 0.073264696 -0.20955381 0.11009318 -0.23501532
0.006668908 -0.118303664 -0.23269968 -0.13531111 -0.33528838 0.031492166 -0.12873739 0.044690743

gru.bias_ih_l1 f4 [183]
00000000: e21f 19bd ba26 1d3d 2fce 233d f730 0b3c
00000010: d281 d23d 3d29 9cbd 2588 6fbd 27c1 6a3d
00000020: 8784 89bd 8aff 03bd 3647 2c3d d082 0c3e
00000030: 0f0a 89bc b9e9 d53b 9410 98bd 193b cf3d
00000040: d697 8bbd 25f1 aebd 829e e83b f26d e3bd
00000050: fdc6 e1bd a620 363e cd48 fabd 4808 22be
00000060: 2027 55bd 2f08 973b a24a 50be 1e69 7ebc
00000070: 3a64 143d 10bf 70bd 39ed 00be ce74 85be
00000080: 1e77 92be 65e5 d93c 7f6c fcbc abe0 d73d
00000090: f3be a1bd 121d 4a3e 9c97 233d 4638 ebbd
000000a0: 32e0 673d 5606 febd 6197 43be 167c 34bd
000000b0: a82a fd3c 1fd9 24be be3d 04be 077a 163e
000000c0: 0ffa 453d a78d b83d b0c2 21be a9dc 06be
000000d0: fdd7 103b 07c4 e13d a88d e9bd c3ff 2dbe
000000e0: d0e0 c43b 64b0 573d 1263 483d bafa e1bd
000000f0: b0e7 33be 0fcb 5dbd 4661 953c da48 e0bd
00000100: 2974 953d 4966 fabd 2368 5bba c3af c53d
00000110: ef45 373e 63e3 c8bb 6942 29be 0ed9 b13d
00000120: 501c 22be 7e27 cc3d ec07 c53e 41f7 a73e
00000130: d6f9 12be 3a2c 9d3b 0290 56bc 6a69 b9bd
00000140: bc28 59be 3eb0 debd f2e5 29be d907 113e
00000150: 513d 62be fef3 0bbe b94e 083e c182 9a3b
00000160: 6004 51be 0681 0ebe 9d8b 583d c3d4 003e
00000170: e33a c63d 5e8c 8d3d dbe4 a23d e519 7b3d
00000180: 0a0c 4ebe 5ddb 67bb 4086 be3c eab2 473e
00000190: 8e9b 54be 3bef 00be ec60 b3bd a04f 3dbe
000001a0: 8282 adbc 6f79 1d3e 11fc 74bc 159a 3a3e
000001b0: 8e0f 9bbd 6408 763e ca14 6e3e e08b 91be
000001c0: 6b67 d83d f466 1f3d 3c33 e1bd 8993 21be
000001d0: dc6d dcbd 1a7c 42be 5bc8 953c 16f1 e2bd
000001e0: 45f4 d13d 6036 2abd e02f c33e 65a5 99be
000001f0: 23ca 7b3e 401e 21be 4fcc a63e 6108 cabe
00000200: 2d96 6b3c 65be 90be 5edb 07be 8f8f b73e
00000210: 3a0c a2be 3a6f 5dbd ce1b 3e3e 7dc4 263e
00000220: 2901 393e d50e 403e ab6e a4be 2b66 563e
00000230: 3420 3bbe 20ae 8f3e 5b3f 43be 1f81 533e
00000240: 17a8 183e 82b9 07be 3a61 4ebe 59a7 cfbe
00000250: 8072 9bbd fdaf 2cbd b8a2 b73e f612 323e
00000260: 8007 353e 7289 82bc 3fa3 cdbe 4d8e 2ebe
00000270: 7180 56be 7fa5 b3be bc76 bb3e fb48 37be
00000280: ed3f 583e 0a3d 5f3e fe07 8abc c170 b33e
00000290: d9d9 473e b1c2 6b3e b46c 8a3e fa70 ccbd
000002a0: 8694 44bc b63d b6be fe81 9d3c 8280 30be
000002b0: c393 19be 06aa c0bd 7663 1abe 1f9b 2fbe
000002c0: 15dd 723e 44a3 dabe 30fe 93be 7e3b 353d
000002d0: 9aed 983e 8c33 143e aebf 993d
-0.03738392 0.03836701 0.039991554 0.008495561 0.102786675 -0.07625053 -0.058479447 0.05731311
-0.06714731 -0.032226123 0.0420601 0.13721776 -0.01672843 0.006528106 -0.07425037 0.10118694
-0.0681607 -0.085420884 0.0070989737 -0.11104955 -0.11024282 0.17785892 -0.12220917 -0.15823472
-0.052039266 0.00460913 -0.2034097 -0.015527992 0.036228396 -0.05877596 -0.12590493 -0.26065677
-0.28606504 0.026598642 -0.030813454 0.10540899 -0.07897749 0.19737652 0.039939508 -0.11485343
0.056610294 -0.12403552 -0.19100715 -0.04406365 0.03090413 -0.1609845 -0.12914178 0.14694987
0.048334178 0.09011393 -0.15796924 -0.13170113 0.0022101395 0.110237174 -0.11403972 -0.16992097
0.006008245 0.052658454 0.048922606 -0.110341504 -0.1756885 -0.05414873 0.01823486 -0.10951395
0.072975464 -0.122265406 -0.00083697046 0.096526645 0.17897771 -0.0061306222 -0.1652924 0.08683978
-0.15831113 0.0996847 0.38482606 0.32805827 -0.14353117 0.004796532 -0.013095858 -0.09053309
-0.21206945 -0.10873459 -0.16591623 0.1416315 -0.22093703 -0.13667294 0.1331128 0.004715294
-0.20411825 -0.13916406 0.05286752 0.12581162 0.096792005 0.069115385 0.07953807 0.06130399
-0.2012178 -0.0035378553 0.023257375 0.19501844 -0.20762464 -0.12591259 -0.08758721 -0.18487406
-0.021180395 0.15378354 -0.014952675 0.1822284 -0.07571326 0.24026638 0.23250118 -0.2842703
0.105666004 0.038916543 -0.109961 -0.15778936 -0.107631415 -0.18992653 0.018284013 -0.1108114
0.10251669 -0.041555762 0.38122463 -0.30009 0.24588828 -0.15734196 0.3257775 -0.39459518
0.014379066 -0.2827026 -0.13267276 0.35851714 -0.31649953 -0.054061152 0.18565294 0.16285892
0.18066849 0.18755658 -0.32115683 0.20937411 -0.18274003 0.28062534 -0.19067137 0.20654725
0.14907871 -0.1325436 -0.20154276 -0.40557364 -0.075901985 -0.042160023 0.35866332 0.17390046
0.17678642 -0.01593468 -0.4016361 -0.17046471 -0.20947434 -0.350872 0.36614025 -0.17898934
0.21118136 0.21800628 -0.016849514 0.35046962 0.19516696 0.23023488 0.2703606 -0.09982486
-0.011998301 -0.35593957 0.019227024 -0.17236522 -0.14997773 -0.094074294 -0.15077004 -0.17149018
0.23717149 -0.42702687 -0.28904867 0.04424619 0.29868776 0.14472789 0.07507263

gru.bias_hh_l1 f4 [183]
00000000: 0fb9 a7bd e10b acbd 4cbd 0e3e 8699 39be
00000010: 66f0 d93d 1c36 4b3d 502f 8a3c 9873 e03d
00000020: 738c d3bd 540e 803c 0d75 10be 23d5 c83b
00000030: 5edf 9e3c 5bc8 4a3d 378f 2abd 3d50 f23d
00000040: 1c8d 1ebe 8508 b03d b7d5 5dbe 1c79 9cbc
00000050: e97d ae3d 3d62 d53d c351 773c 4e31 9e39
00000060: 24ac d53d 5396 19bd 3fb2 0cbe 7fd9 c43d
00000070: 5c77 8bb9 ea14 bf3d a274 a93a 9084 0cbd
00000080: 01da 16be c9fb bdbd 8275 07bd 8cba a9bd
00000090: a713 f23c 7f8f e53d 7507 9f3d 39a0 a4be
000000a0: 7bcf 8d3d 16cc 8bbd 50f0 8cbd 6c87 8dbb
000000b0: ceac 48bd 39f4 2c3d 184c 42be 94ae 6fbd
000000c0: b067 af3c e5de e3bb be08 41be b13f 273a
000000d0: b51f 92bc d815 223d b7a8 ebbd 4313 adbd
000000e0: 05af 193e 3421 e13d 0f87 06bd fb3f 05be
000000f0: 8cb8 f2bd 77a2 6ebd 4b7d fbbd 91ae e7bd
00000100: 441f e43d 447a 00be a70e 113d 245c 703d
00000110: a310 163e b3fd ad3c 4ec4 8bbd 5ffb cebc
00000120: 354f 3abe 957e 1c3d 0e22 a23e fad2 533e
00000130: 9690 3fbe 2377 a83b 1149 c0bd 37c6 49bd
00000140: 158b 45be 68c0 c5bd 8566 14be aa50 683e
00000150: dcc5 adbd 9c1e c43d 8f0f d2bd 7c4f a53d
00000160: 9f43 0bbe ada9 203d 173d 01bd b44e 2f3e
00000170: 292c 8ebd e429 f1bd 9598 cfbd 979d e23d
00000180: 02aa 11be 2a76 b73c eff0 4bbd e705 d83d
00000190: 7a75 6abe 1e47 acbd c3c9 f1bd 1f09 77bd
000001a0: 10e5 bd3d ae77 083e 2b20 69be 03ac c23d
000001b0: c559 babd e726 be3e 33ad 1b3e fddc 47be
000001c0: be3d 523e dcc4 9bbc 0f61 09be 8d12 4abd
000001d0: 778e fa3d 1452 02be d855 393d e309 5b3b
000001e0: 050e ca3b 9021 c53d 57f1 e13d d4b7 7ebe
000001f0: fd4a db3d 7ee4 29be 785f 403e 6992 67be
00000200: be02 b1bd 5f68 d7bd d3b3 f1bd 20bb 783e
00000210: 95a5 edbd aa08 f93d cc90 723e e114 923d
00000220: 051d bfbc 845b d23d 279e 59be 6709 193e
00000230: dd1d 4bbd 8e49 a13d f963 26be 28e9 5a3e
00000240: b76b 023d 61ef 59be 1aa5 94be 192c 35be
00000250: 1c29 82bd 5f5e b43d 1327 8d3e 3d84 853e
00000260: 637a 2f3e 2acd 453e 5e78 8ebc 1f97 1dbe
00000270: 742b 80be a3df 33be 3e50 163e b603 66be
00000280: bf19 783e cf99 953d 5d76 70be 1113 033e
00000290: 0c00 9d3d 2e52 653e bed0 8d3e 8080 cebc
000002a0: 49ac c73d 68c6 67be 7525 65be a9e0 053e
000002b0: a149 b7bd b726 80be b1d1 c2bd 795c 81be
000002c0: 40cb 703e caf2 74be c09a 8abe f928 e3bc
000002d0: df69 873e a103 803e 1465 0abb
-0.08189594 -0.08400703 0.13939399 -0.18124971 0.106415555 0.04961215 0.016868263 0.10959548
-0.10329523 0.015631832 -0.14107151 0.0061289235 0.01939362 0.04950748 -0.041640487 0.118317105
-0.15483516 0.08595375 -0.21663557 -0.019100718 0.08520109 0.10419128 0.015095177 0.00030172843
0.10433224 -0.037496876 -0.1373987 0.096117966 -0.00026601076 0.09330161 0.0012928436 -0.03430611
-0.147316 -0.0927654 -0.03307105 -0.08287534 0.029550387 0.1120901 0.07765094 -0.3215349
0.069243394 -0.06826036 -0.068817735 -0.004319122 -0.048992924 0.042225096 -0.1897434 -0.0585161
0.021411747 -0.0069540613 -0.18850991 0.0006380035 -0.017837385 0.039571613 -0.11506789 -0.084509395
0.15008171 0.10992661 -0.032843646 -0.13012688 -0.11851606 -0.058260407 -0.12279757 -0.11312593
0.11138776 -0.1254664 0.035414364 0.058681622 0.14654784 0.021239137 -0.068245515 -0.025266347
-0.18194278 0.038206656 0.31666607 0.2068595 -0.18707499 0.0051411553 -0.09388936 -0.049261298
-0.19291337 -0.09655839 -0.14492233 0.22687021 -0.08485004 0.09576151 -0.10256874 0.08071801
-0.13600014 0.039224315 -0.0315524 0.17119867 -0.06942017 -0.11775568 -0.101365246 0.11065214
-0.14225009 0.022395212 -0.04979032 0.10548001 -0.22896376 -0.08412002 -0.11806061 -0.060311433
0.09272206 0.13326904 -0.22766177 0.09505465 -0.090991534 0.37139055 0.15202789 -0.19517894
0.20531365 -0.019014768 -0.13415931 -0.049334098 0.12234204 -0.12726623 0.045247883 0.003342264
0.006166222 0.09625542 0.1103236 -0.24874812 0.10707662 -0.16591069 0.18786418 -0.22614445
-0.08643101 -0.10517954 -0.11801877 0.24290133 -0.11603848 0.12159856 0.23688048 0.071328886
-0.023329267 0.102713615 -0.21251737 0.14944993 -0.049589027 0.078753576 -0.16249074 0.21378005
0.031841006 -0.21282722 -0.29032212 -0.17692603 -0.06355497 0.08807062 0.27568874 0.26077452
0.1713653 0.19316545 -0.01739138 -0.1538968 -0.25033152 -0.1756578 0.14679047 -0.22462353
0.24228571 0.07304727 -0.23482652 0.12800242 0.076660246 0.2239463 0.2769832 -0.025207758
0.09749658 -0.2263428 -0.2237757 0.13073982 -0.089495905 -0.25029537 -0.09512652 -0.25265864
0.23515034 -0.23920742 -0.2707119 -0.027729498 0.2644796 0.2500277 -0.0021117376

fc.weight f4 [1, 61]
00000000: 4782 a33f 0f76 97bf 3b2b a93f ce42 a3bf
00000010: 40a6 963f c402 9abf 0fb9 acbf fa99 93bf
00000020: 417f 8bbf 5127 a33f 0608 9cbf d024 a43f
00000030: 41c5 b33f cc77 903f d8b8 a23f ad73 9c3f
00000040: 264e 9bbf f9a5 a73f f931 a6bf 1a16 9e3f
00000050: 7bb2 a6bf 8008 a33f 3f0b 933f 9869 9ebf
00000060: b4fd 97bf 6b94 95bf 79c1 9fbf d75a a13f
00000070: 4136 973f 6d69 9c3f 43d3 963f c9ee 923f
00000080: 081a a0bf 0981 96bf 0137 a0bf 8afd a4bf
00000090: 44c8 a43f c689 97bf feff 983f 5ad3 b33f
000000a0: 77f7 a5bf c074 973f 3bb6 a53f 15c2 a63f
000000b0: 73fb a23f b51a a4bf 2fab 923f 8138 a4bf
000000c0: b2b0 9bbf 3d93 8fbf a789 903f 969e 9cbf
000000d0: b145 a8bf df48 a4bf 8d2c 9a3f c5ee b8bf
000000e0: f223 9ebf 6752 9cbf d213 a63f f433 a53f
000000f0: d026 9c3f
1.2774132 -1.1832904 1.3216318 -1.2754762 1.1769485 -1.2032094 -1.3493975 -1.1531365
-1.089821 1.2746373 -1.2189949 1.2823734 1.4044572 1.1286559 1.271266 1.2222801
-1.2133224 1.3097526 -1.2984 1.2350495 -1.3023218 1.2736969 1.1487807 -1.2375975
-1.1874299 -1.1685919 -1.2480918 1.2605847 1.1813432 1.2219673 1.1783222 1.1479121
-1.2507944 -1.1758128 -1.2516786 -1.2889874 1.2873616 -1.183892 1.1953123 1.4048874
-1.2966145 1.1832504 1.2946237 1.3027979 1.2732986 -1.282065 1.1458491 -1.2829744
-1.2163298 -1.1216809 1.1292008 -1.2235897 -1.3146268 -1.2834738 1.2044846 -1.4447867
-1.235472 -1.2212647 1.2974799 1.290648 1.2199345
