models/gru_trial_1.pth (torch, 61936 bytes, 9 tensors)

gru.weight_ih_l0 f4 [99, 44]
0	0xbe2d0bad	-0.16898985
1	0xbdd60fd5	-0.104522385
2	0xbe368eb4	-0.17827874
3	0xbd49d775	-0.04927774
4	0xbde32697	-0.11091345
5	0x3e122684	0.14272505
6	0x3e2f3928	0.17111647
7	0x3de9c278	0.11414045
8	0xbe2b3d42	-0.16722587
9	0xbdad71ac	-0.08468947
10	0x3d9bba27	0.07603865
11	0x3d26fbc9	0.040767465
12	0x3d6afbe2	0.05736912
13	0xbe3d354d	-0.18477364
14	0xbdd2b9d7	-0.102893524
15	0xbe4bfe4f	-0.1992123
16	0x3e0a7fba	0.13525286
17	0xbe737135	-0.23773654
18	0x3c7c7884	0.015409593
19	0x3e402445	0.18763836
20	0xbdb9fbbf	-0.0908122
21	0x3dd6f178	0.10495275
22	0x3e3f0548	0.18654358
23	0xbe220595	-0.15822442
24	0x3c2cc323	0.010544571
25	0x3d5696f3	0.05239005
26	0xbd5ede60	-0.054411292
27	0x3d9c06af	0.07618462
28	0x3cdfdd8e	0.027327325
29	0xbd031adc	-0.032008037
30	0xbdf50dce	-0.11965524
31	0x3db4f964	0.0883663
32	0xbe5279e1	-0.20554306
33	0x3cfaa2c4	0.03059519
34	0xbcb254a5	-0.021768877
35	0xbd07c748	-0.033149034
36	0x3d3f5e94	0.046721056
37	0xbe44c09e	-0.19214103
38	0x3d58751a	0.05284605
39	0x3dd37fa4	0.1032708
40	0x3d2ce740	0.042212725
41	0x3da6404d	0.08117733
42	0x3dca262e	0.098705634
43	0xbdfee298	-0.12445563
44	0x3d608ff3	0.05482478
45	0xbcc459ab	-0.023968538
46	0xbc1371f5	-0.008999337
47	0x3e1493be	0.14509484
48	0xbcc6a5eb	-0.024249038
49	0x3d33659f	0.043798085
50	0x3d686841	0.05674005
51	0x3d9302e1	0.071782835
52	0x3c7290ea	0.014805058
53	0xbdbb7598	-0.091532886
54	0xbd8d51c5	-0.06900362
55	0xbd56c1d7	-0.052430954
56	0xbc96dca0	-0.01841575
57	0xbdaffebf	-0.08593511
58	0x3d877a44	0.06615117
59	0x3e200e94	0.15630561
60	0xbd3b6203	-0.045747768
61	0xbd29b897	-0.041435804
62	0x3d7e5416	0.06209191
63	0xbd5e17ac	-0.054221794
64	0xbda38082	-0.07983495
65	0xbe29cb25	-0.165814
66	0x39fe3686	0.00048487278
67	0xbe0ee667	-0.13955079
68	0xbdfb0bb5	-0.12258092
69	0xbd1822cd	-0.037142564
70	0xbe03ca7c	-0.1287021
71	0xbd94971f	-0.072553866
72	0x3d1f0bf6	0.038829766
73	0xbe6a5344	-0.22883326
74	0x3de55947	0.11198669
75	0xbde09922	-0.10966708
76	0x3e2e8268	0.17041934
77	0x3dc5573f	0.096357815
78	0xbdacfb73	-0.08446398
79	0xbcc4978d	-0.023998046
80	0x3dfdef56	0.12399165
81	0x3e20cf06	0.15703973
82	0x3c93314c	0.017967843
83	0x3dcfd249	0.101475306
84	0xbdb42aed	-0.0879725
85	0xbdc34c8c	-0.095360845
86	0xbe106583	-0.14101224
87	0xbb2cf6c2	-0.0026392196
88	0x3de9dd20	0.11419129
89	0xbd520370	-0.05127281
90	0x3df9c540	0.121958256
91	0xbded12de	-0.11575864
92	0x3df5d7f4	0.120040804
93	0xbda3166e	-0.079632625
94	0x3dbd0f9e	0.09231494
95	0xbdefde9f	-0.117123835
96	0xbca78aa9	-0.02045186
97	0x3cc4de42	0.024031762
98	0xbd022aa1	-0.031778935
99	0x3d92daa4	0.07170609
100	0x3e5ffcf4	0.21873838
101	0x3e266913	0.1625102
102	0x3e0b3a0b	0.1359636
103	0x3e23bc44	0.15989786
104	0x3de945f4	0.113902956
105	0xbc94d4e7	-0.018167926
106	0xbd99e867	-0.0751503
107	0x3e18f1e7	0.14936028
108	0x3dd1001e	0.102051005
109	0xbd290036	-0.041259967
110	0xbdc64754	-0.096815735
111	0x3df35fdd	0.11883519
112	0x3e38617f	0.18005942
113	0xbe3897b4	-0.1802662
114	0x3e0e5160	0.1389823
115	0x3d6826b1	0.056677524
116	0xbc424802	-0.011857988
117	0xbdc15ef7	-0.09441941
118	0x3e005962	0.12534097
119	0xbce3425d	-0.027741605
120	0xbe1cd1d0	-0.15314412
121	0xbdcbaee3	-0.09945466
122	0xbcabddb9	-0.020979749
123	0x3e0172f3	0.12641506
124	0x3de907bb	0.113784276
125	0xbe195ce5	-0.14976843
126	0x3daf2c0d	0.08553324
127	0x3e1d7148	0.15375245
128	0x3e19ec1a	0.15031472
129	0x3da6c49d	0.0814297
130	0x3e3a1b20	0.1817441
131	0x3df6d06c	0.12051472
132	0xbd9b2101	-0.07574654
133	0x3dbf4e25	0.09341077
134	0xbdb1f1b3	-0.086886786
135	0xbb928450	-0.0044713393
136	0xbc9a48ae	-0.018833485
137	0xbd6fa0bb	-0.058502894
138	0xbd14e3d9	-0.036350105
139	0xbe021d40	-0.1270647
140	0x3dbaf01a	0.09127827
141	0x3bd9893d	0.0066386745
142	0xbc23dac4	-0.010000888
143	0xbd9d3757	-0.07676571
144	0x3dfff654	0.12498155
145	0x3e0898ba	0.1333951
146	0xbd82f7ad	-0.06394897
147	0x3d9c5fd1	0.07635463
148	0xbd607a67	-0.054804232
149	0xbe11b654	-0.14229709
150	0x3e52f9b3	0.20603065
151	0xbcd175c2	-0.025568847
152	0x3d81b22e	0.06332813
153	0x3dcaea67	0.0990799
154	0xbd07ec43	-0.0331843
155	0x3d5eb187	0.054368522
156	0x3dbe8d8a	0.0930434
157	0x3dff20b5	0.1245741
158	0x3dd78e77	0.1052522
159	0xbe22431a	-0.1584591
160	0xbcff6eaa	-0.031180698
161	0x3e042a4f	0.12906764
162	0xbe53fa08	-0.20700848
163	0xbc944960	-0.018101394
164	0x3d9c8e43	0.07644322
165	0x3ca423bf	0.020036576
166	0xbcdd8ff3	-0.02704618
167	0x39fd67c5	0.00048333235
168	0xbd3aab59	-0.045573566
169	0x3e56dd31	0.20982815
170	0xbddb8b5f	-0.10719942
171	0x3d77debf	0.06051516
172	0xbdee66e4	-0.116407186
173	0x3d866d83	0.065638565
174	0xbd621b22	-0.055201657
175	0x3db28dfd	0.08718488
176	0x3e2cc03c	0.16870207
177	0x3d28bd5f	0.041196223
178	0x3dc993ca	0.09842642
179	0x3e247826	0.16061458
180	0xbe0f069f	-0.1396737
181	0x3c203e45	0.009780471
182	0x3d752fe3	0.05986012
183	0x3e1276a7	0.14303075
184	0xbdb67d00	-0.089105606
185	0x3dd3b7fb	0.10337826
186	0xbdc635be	-0.09678219
187	0x3cfab9a5	0.0306061
188	0xbe3cb927	-0.18430005
189	0xbd758d28	-0.05994907
190	0x3d6ca474	0.057774022
191	0xbceb9fee	-0.028762784
192	0x3dbfac24	0.09359005
193	0x3daee886	0.08540444
194	0x3d11840e	0.035526328
195	0xbe0ce665	-0.13759764
196	0x3d285df7	0.041105237
197	0xbde78a4f	-0.11305677
198	0x3b9823d3	0.0046429425
199	0xbe02aa77	-0.1276034
200	0x3e25eaea	0.16202894
201	0xbd247ee1	-0.040160064
202	0xbd3a1c51	-0.04543716
203	0x3de7e4ee	0.11322962
204	0x3e2ea10f	0.17053626
205	0xbddbb708	-0.1072827
206	0xbdff54b4	-0.12467328
207	0xbd9004c3	-0.07032158
208	0xbdc6a574	-0.096995264
209	0x3c103536	0.008801749
210	0xbdf5e1f7	-0.1200599
211	0x3e482eb5	0.19549067
212	0x3d745a91	0.059656683
213	0x3cbaf3df	0.022821365
214	0xbe0de786	-0.1385785
215	0xbe101092	-0.14068821
216	0xbb92a8d1	-0.004475691
217	0xbe4e3b02	-0.20139697
218	0xbe32b33f	-0.1745119
219	0xbe2ce681	-0.16884805
220	0xbd347cb6	-0.044064246
221	0xbcd21142	-0.025642995
222	0x3c1dcf16	0.009631893
223	0x3d685844	0.0567248
224	0xbe625e53	-0.22106294
225	0xbc11b46a	-0.008893112
226	0x3dc4c7b8	0.09608406
227	0x3d9262ea	0.071477726
228	0xbe043eb2	-0.12914541
229	0xbdb2f55b	-0.08738204
230	0xbe02b80c	-0.12765521
231	0xbe2ae8eb	-0.16690414
232	0x3b7735b3	0.0037721216
233	0xbdfd1898	-0.123582065
234	0x3cec8901	0.028873922
235	0xbdfa7971	-0.12230194
236	0xbe14ff57	-0.1455053
237	0x3dd3e778	0.103468835
238	0xbd9bf4d3	-0.07615056
239	0x3e08881d	0.13333173
240	0x3e21720e	0.15766165
241	0xbdb30587	-0.08741289
242	0x3d9140ca	0.07092436
243	0xbc22dbe4	-0.009940121
244	0xbd68d740	-0.056845903
245	0x3ddca302	0.10773279
246	0xbe4fb453	-0.20283632
247	0x3d06874a	0.032843865
248	0x3deb7a4e	0.11497937
249	0xbced94e9	-0.02900167
250	0xbd841bef	-0.064506404
251	0xbce464bc	-0.027880065
252	0x3e21a7e8	0.15786707
253	0xbdfa15ac	-0.12211165
254	0xbdc92b12	-0.09822668
255	0x3d6819c0	0.056665182

gru.weight_hh_l0 f4 [99, 33]
0	0xbe04eafc	-0.12980264
1	0x3d1e152e	0.038594417
2	0x3da8a8e4	0.08235338
3	0xbcaae6ab	-0.020861944
4	0xbe078dd1	-0.13237692
5	0x3deaccad	0.1146482
6	0xbd701753	-0.058615994
7	0xbe2054ed	-0.15657397
8	0x3d91aa0e	0.071125135
9	0xbddbf0b0	-0.10739267
10	0x3e0df162	0.13861611
11	0x3dea4167	0.11438256
12	0xbcad9f4e	-0.021194126
13	0xbe34870f	-0.17629646
14	0xbdddaac8	-0.108235896
15	0x3bf248cf	0.0073939334
16	0x3e701583	0.23445706
17	0x3c4bd6b0	0.012441322
18	0x3d8c8ca5	0.06862763
19	0xbe0deb07	-0.13859187
20	0xbd71e7c2	-0.059058912
21	0x3df3f9c8	0.11912876
22	0xbcad98d8	-0.021191046
23	0xbc644a6b	-0.013933758
24	0xbd8ae46f	-0.067818515
25	0xbdd97f60	-0.10619998
26	0xbd934b72	-0.071921244
27	0x3c0d5d50	0.008628204
28	0xbd73e19f	-0.05954134
29	0xbdbddcb8	-0.092706144
30	0xbdf9b3d1	-0.121925004
31	0xbdbef2e4	-0.093236715
32	0xba91fdc6	-0.0011138252
33	0x3d2ba249	0.041902814
34	0x3e2b0307	0.16700374
35	0xbdb80fc1	-0.0898738
36	0x3e47027b	0.1943454
37	0xbd54df62	-0.051970847
38	0x3dafc4f6	0.08582489
39	0xbe60d362	-0.21955636
40	0xbe48d7d9	-0.1961359
41	0x3e1077ee	0.1410825
42	0x3d0b2556	0.033971153
43	0x3e3e3566	0.18575057
44	0xbd6007f8	-0.0546951
45	0x3d94ca3a	0.07265134
46	0xbe08a699	-0.13344802
47	0x3d6f2738	0.05838701
48	0x3e28e208	0.16492474
49	0xbdac0287	-0.083989196
50	0xbd6df493	-0.058094572
51	0x3dcd9d4b	0.10039767
52	0xbd4a4176	-0.049378835
53	0x3e659b56	0.22422537
54	0xbe06887b	-0.13138
55	0x3e86564c	0.26237714
56	0xbd5d7091	-0.05406243
57	0x3dfa57a4	0.122237474
58	0x3e7febe7	0.24992333
59	0xbe5f35fc	-0.21797937
60	0x3d8e40b5	0.06945936
61	0xbd8cc469	-0.068734
62	0xbcc34dda	-0.023840833
63	0xbd821835	-0.063522734
64	0xbe1c6309	-0.15272154
65	0xbe2c119e	-0.16803595
66	0xbe18031c	-0.14844936
67	0xbe1623aa	-0.14662042
68	0xbe4f122f	-0.2022178
69	0xbc8fd7da	-0.01755898
70	0xbe0534ee	-0.13008472
71	0x3df0c80f	0.11756908
72	0x3bcac98d	0.0061885775
73	0x3e134687	0.14382373
74	0x3d1f9486	0.038960002
75	0xbca09537	-0.019602401
76	0x3d5fbeff	0.054625507
77	0xbdb679b8	-0.08909935
78	0x3dfb1d98	0.12261504
79	0x3e1e0fa1	0.1543565
80	0x3c5e741c	0.013577487
81	0xbe264ba4	-0.16239792
82	0x3e280739	0.16409005
83	0xbdd3df24	-0.10345295
84	0xbdbca09e	-0.09210323
85	0xbe056089	-0.13025106
86	0x3e2f1bb5	0.17100413
87	0x3e12b70c	0.1432764
88	0x3cf1e1c1	0.029526593
89	0xbdf66cc8	-0.12032467
90	0x3c742beb	0.014903049
91	0x3e241256	0.1602262
92	0xbc63b85d	-0.013898936
93	0xbd2b732d	-0.041857887
94	0xbe2a5b39	-0.16636361
95	0xbe127378	-0.1430186
96	0x3d8547a9	0.06507809
97	0xbde19dc9	-0.11016423
98	0x3d492a29	0.049112473
99	0x3dae2f3a	0.085051015
100	0xbdd0afc5	-0.101897754
101	0x3dee978e	0.116500005
102	0x3d373d85	0.044736404
103	0xbd7bc459	-0.06146655
104	0x3c8f3709	0.017482297
105	0x3e05fd31	0.13084866
106	0xbe6b7df5	-0.22997268
107	0x3e72d8f4	0.23715574
108	0x3e5c9921	0.21542789
109	0x3d6852cc	0.056719586
110	0x3e8c8372	0.27444035
111	0xbdd4bb22	-0.10387255
112	0xbc8ae157	-0.016953154
113	0xbd929485	-0.07157234
114	0x3dbacb2e	0.09120785
115	0x3c8efd6c	0.017454825
116	0xbc19aa94	-0.009379048
117	0xbde432b6	-0.11142485
118	0x3e879d39	0.2648714
119	0xbd648477	-0.05579039
120	0xbd9f4c63	-0.077782415
121	0x3cc9cf1e	0.024634894
122	0xbe687d45	-0.22704037
123	0xbd84c9cd	-0.06483803
124	0xbd5cdad7	-0.05391964
125	0xbd892100	-0.066957474
126	0x3db1d1aa	0.08682568
127	0xbe8c354c	-0.27384412
128	0x3e41dc38	0.18931663
129	0x3d25eb0a	0.040507354
130	0xbccbb9a6	-0.024868798
131	0x3d7b11a3	0.061296117
132	0x3d280f1d	0.04103004
133	0xbde6069b	-0.11231729
134	0x3c010935	0.00787573
135	0xbd5fea93	-0.054667067
136	0x3dfdce74	0.123928934
137	0x3b9e026f	0.0048220675
138	0x3d8001d5	0.062503494
139	0xbc9c0fbb	-0.01905047
140	0x3c9cbcfc	0.019133084
141	0x3dec0e8e	0.115262136
142	0x3e4899c1	0.19589902
143	0x3db02082	0.085999504
144	0x3d197121	0.037461404
145	0xbe48577f	-0.19564627
146	0xbc790c80	-0.015200734
147	0xbe31d46d	-0.1736619
148	0x3d4110ce	0.047135167
149	0x3e5e9f40	0.21740437
150	0x3e008a64	0.12552792
151	0x3e265c4c	0.16246146
152	0x3c1eb3f8	0.009686463
153	0x3dbc0fbb	0.09182688
154	0x3d09e92c	0.033669636
155	0xbe243cb2	-0.16038778
156	0x3e4167d7	0.18887268
157	0x3d1db41d	0.038501848
158	0x3de47165	0.11154441
159	0x3e0759c4	0.13217837
160	0xbe0a210e	-0.13489172
161	0x3d8fc7f2	0.070205584
162	0xbe09f4de	-0.13472316
163	0xbe1028e8	-0.14078104
164	0x3d95a612	0.07307066
165	0xbdb57929	-0.08861
166	0x3e09c466	0.13453826
167	0xbd6d927e	-0.058001034
168	0xbaaa5279	-0.001299455
169	0xbdc26bc9	-0.09493215
170	0x3dce98c1	0.10087729
171	0x3d98014f	0.074221246
172	0x3de1d883	0.110276245
173	0xbe0ded34	-0.13860017
174	0x3d3318ee	0.043724947
175	0xbdf96291	-0.12177003
176	0x3de4c278	0.111699045
177	0x3dadfcf4	0.084955126
178	0xbd36783f	-0.04454827
179	0x3bd80189	0.00659198
180	0xbe56b78c	-0.20968455
181	0x3b0477d1	0.0020213018
182	0xbd91ff20	-0.07128739
183	0x3dbaee39	0.091274686
184	0x3d8bf4df	0.06833815
185	0xbde9c7fc	-0.11415097
186	0xbe12d47d	-0.1433887
187	0xbde69d09	-0.11260421
188	0x3d9786b8	0.073987424
189	0xbc870515	-0.016481915
190	0xbe1ad980	-0.15122032
191	0x3bab1654	0.0052211676
192	0xbd52f665	-0.05150451
193	0xbd4f5917	-0.050622072
194	0xbd9a2d34	-0.07528153
195	0x3d2cd3f5	0.042194325
196	0x3e4792b6	0.1948956
197	0x3d8dde8e	0.069272146
198	0x3caa41af	0.020783274
199	0x3e3b0593	0.18263845
200	0xbe18bda2	-0.14916089
201	0x3d9b13db	0.075721465
202	0x3dbb74c9	0.091531344
203	0xbdc903ef	-0.098152034
204	0x3c5752b5	0.0131422775
205	0xbcee3c3e	-0.02908146
206	0x3d7f6aac	0.06235759
207	0x3d9b2618	0.07575625
208	0xbcfba098	-0.030716226
209	0x3e31af5f	0.17352055
210	0xbe51f5e0	-0.2050395
211	0xbdb1e807	-0.08686834
212	0x3d18cf64	0.037307158
213	0x3d0d0dc1	0.034436945
214	0xbb89888d	-0.0041971863
215	0x3db7f5c0	0.0898242
216	0xbe7c88b8	-0.24661529
217	0x3e8c5e39	0.27415636
218	0x3dd4ad46	0.10384612
219	0x3e0f9a00	0.1402359
220	0x3b91dd88	0.0044514574
221	0x3df19afa	0.117971376
222	0xbd95e258	-0.07318562
223	0x3c9f9bb0	0.019483417
224	0xbe38cb59	-0.18046321
225	0x3dde4097	0.10852163
226	0x3ca9da2a	0.020733912
227	0x3d513a57	0.051081028
228	0xbda39e31	-0.07989157
229	0xbdf4203f	-0.11920213
230	0xbdde3fb7	-0.108519964
231	0x3de029ad	0.10945449
232	0xbd9292bc	-0.071568936
233	0xbe1f4f8c	-0.15557688
234	0xbd3573a2	-0.04429973
235	0xbe6b32b0	-0.22968554
236	0x3cbd18f0	0.02308318
237	0xbe2fca0e	-0.17166921
238	0xbbd33c77	-0.006446417
239	0x3e0e43ee	0.138931
240	0x3c53499e	0.01289597
241	0xbd73e39e	-0.059543245
242	0x3e465903	0.19369893
243	0xbce174d1	-0.027521523
244	0x3cd922d9	0.026505874
245	0xbe0da9ef	-0.13834356
246	0x3d964bf7	0.07338708
247	0x3e1217c0	0.14266872
248	0x3d9b497d	0.07582376
249	0xbe26821b	-0.16260569
250	0x3e3bb4a4	0.18330628
251	0xbd827d4b	-0.06371554
252	0xbb234022	-0.0024910052
253	0x3e3c947a	0.18416014
254	0x3d2b6beb	0.041850965
255	0x3e4f481c	0.20242351

gru.bias_ih_l0 f4 [99]
0	0x3c27ba98	0.0102373585
1	0xbbbc9a32	-0.005755686
2	0xbe057a59	-0.13034953
3	0xbdc52393	-0.09625926
4	0xbcc3f748	-0.023921624
5	0xbe4821d4	-0.19544154
6	0x3e01f32d	0.1269042
7	0xbca60b19	-0.020268964
8	0xbdb760ad	-0.08953986
9	0x3e3a43d7	0.18189941
10	0x3b8e95bc	0.004351346
11	0xbd2fa471	-0.042881433
12	0x3e265c6b	0.16246192
13	0x3d0f19d2	0.034936734
14	0x3deb8f6c	0.11501965
15	0xbe038b69	-0.1284615
16	0x3e6374ff	0.22212599
17	0x3d80be4b	0.062862955
18	0x3e1e500f	0.15460227
19	0x3e2e2a0e	0.1700823
20	0x3e5fdb72	0.21861055
21	0x3e075062	0.13214257
22	0x3dd40682	0.10352804
23	0xbd593158	-0.053025573
24	0x3e1c7a8b	0.15281121
25	0x3e4cc166	0.1999565
26	0x3e7da6be	0.24770638
27	0x3df6f30d	0.12058077
28	0x3e4c44b5	0.19948085
29	0x3e3085c1	0.17238523
30	0x3e590f4d	0.21197243
31	0x3d4476ec	0.047964975
32	0x3d73efa9	0.05955473
33	0xbccd44ae	-0.025057163
34	0x3d835b86	0.06413941
35	0xbd3275cd	-0.043569375
36	0x3e5f8d7f	0.2183132
37	0xbd901262	-0.07034756
38	0x3e2acf2c	0.16680592
39	0x3dfc2dc6	0.12313418
40	0xbd98db16	-0.07463662
41	0x3e0c0cdd	0.13676782
42	0x3d9a1b6f	0.07524764
43	0xbbfce66e	-0.007717899
44	0x3e028b86	0.12748536
45	0xbd92e290	-0.071721196
46	0xbe4e5298	-0.20148695
47	0x3e1bf011	0.15228297
48	0xbdcd8626	-0.100353524
49	0x3e34370f	0.17599128
50	0xbd2acdc3	-0.041700136
51	0xbdc46eb3	-0.09591427
52	0xbdf15150	-0.11783087
53	0xbd89b5f1	-0.06724156
54	0xb8d44257	-0.000101213045
55	0x3c5fa75c	0.013650741
56	0x3e1e8f8b	0.15484445
57	0xbd9673df	-0.073463194
58	0xbe3eebae	-0.18644592
59	0x3e3e1a73	0.18564777
60	0x3df9614e	0.121767625
61	0xbdef9712	-0.11698736
62	0xba81e4cc	-0.0009910106
63	0x3deaa847	0.114578776
64	0x3e1a2213	0.15052061
65	0xbd921f89	-0.07134921
66	0x3e0fe7f9	0.14053334
67	0x3e816533	0.2527252
68	0xbe6613f9	-0.22468556
69	0x3e45c137	0.19311987
70	0xbb898c7f	-0.0041976566
71	0x3dceb831	0.100937255
72	0xbe337ce8	-0.17528117
73	0xbe87c05f	-0.26513955
74	0x3d28a815	0.04117592
75	0xbc2ed48c	-0.010670792
76	0x3e5b66ad	0.21425886
77	0x3da12eb8	0.07870239
78	0xbe9a5027	-0.30139276
79	0xbe85d170	-0.2613635
80	0xbd6f651f	-0.058446046
81	0xbd135c4e	-0.0359767
82	0x3df9d95d	0.12199662
83	0x3e4e16e0	0.20125914
84	0xbde7d37b	-0.113196336
85	0x3e943dea	0.28953487
86	0x3e86acc8	0.26303697
87	0x3da1d68c	0.0790225
88	0x3e8e6872	0.2781406
89	0xbe632080	-0.22180367
90	0x3dfc3067	0.123139195
91	0x3e9f9d56	0.31174725
92	0xbe03f500	-0.12886429
93	0x3e3d0a46	0.1846095
94	0xbe90c814	-0.28277647
95	0x3e09c172	0.134527
96	0xbdf9a3f4	-0.12189475
97	0xbe1dfe37	-0.15429007
98	0xbdd10b6b	-0.10207256

gru.bias_hh_l0 f4 [99]
0	0x3e1dd3d9	0.15412845
1	0x3e3d7b7b	0.18504135
2	0x3b2269c7	0.0024782286
3	0x3db89667	0.09013062
4	0x3e04b2f2	0.12958887
5	0xbdddf7a6	-0.10838251
6	0x3cdc8376	0.026918154
7	0x3e6d9b18	0.23203695
8	0x3df6c6a7	0.12049609
9	0xbd2408a0	-0.040047288
10	0x3e9a0186	0.30079287
11	0x3dd3d59e	0.103434786
12	0x3d962029	0.07330353
13	0x3d9ff572	0.07810487
14	0xbd6680d4	-0.056275204
15	0x3e1e04f4	0.15431577
16	0xbd89a38a	-0.06720646
17	0x3ea0bc3e	0.31393617
18	0xbe0a637c	-0.13514513
19	0x3e217eac	0.15770978
20	0x3c875d7e	0.016524073
21	0x3e339a94	0.17539436
22	0xbd5121cb	-0.051057618
23	0xbcad75f8	-0.021174416
24	0x3e84a2a9	0.2590535
25	0x3deab445	0.11460165
26	0x3e17395e	0.14767978
27	0x3e57d333	0.2107666
28	0xbd9900bd	-0.07470844
29	0x3e5d3730	0.21603084
30	0xbc26ab9c	-0.010172751
31	0x3e3325c7	0.1749488
32	0xbdc34b6e	-0.095358714
33	0x3d32bfd2	0.043639965
34	0xbe0c45ce	-0.13698503
35	0x3dd5a94c	0.104326814
36	0x3e11ae87	0.14226733
37	0x3d844d0b	0.06460007
38	0x3e1931d2	0.14960411
39	0xbd88d251	-0.0668074
40	0x3d5cccb8	0.053906173
41	0x3dff8c89	0.12477977
42	0xbdc67045	-0.096893825
43	0x3e5de2ab	0.21668498
44	0x3e1518a2	0.14560178
45	0x3de38750	0.11109793
46	0xbe40d4fb	-0.18831246
47	0xbd83fcd7	-0.0644471
48	0xbd93a594	-0.07209316
49	0xbdc367fb	-0.09541317
50	0xbc9bbb5e	-0.019010242
51	0x3e1a0e3b	0.15044491
52	0x3d8ac299	0.06775398
53	0x3d988993	0.07448115
54	0x3de1ceb1	0.110257514
55	0x3e56e400	0.20985413
56	0xbe1dcbb6	-0.15409741
57	0xbd2b52a9	-0.041826878
58	0xbe0a128e	-0.1348364
59	0xbdd7cc70	-0.1053704
60	0xbe46dc58	-0.19419992
61	0xbd62ec33	-0.05540104
62	0xbd623a4b	-0.055231374
63	0x3d8d6278	0.06903547
64	0xbd975ab1	-0.07390345
65	0x3d3099d8	0.043115467
66	0xbd1184a9	-0.035526905
67	0x3d869971	0.065722354
68	0x3d9608e1	0.07325912
69	0x3ddbaa8c	0.107258886
70	0x3d3a7264	0.045519248
71	0xbd3003cd	-0.042972375
72	0xbe4041de	-0.18775126
73	0xbe9c6a20	-0.30549717
74	0x3db6ba8d	0.089223005
75	0x3de71b8b	0.1128455
76	0x3e8d9d04	0.27658856
77	0x3e814411	0.25247243
78	0xbe36ce2a	-0.17852083
79	0xbe449ccd	-0.1920044
80	0xbe23fa2b	-0.160134
81	0x3d0f8b06	0.035044692
82	0x3e48b2c5	0.19599445
83	0x3ea7de32	0.3278671
84	0x3cb63082	0.022239927
85	0x3e630bc9	0.22172464
86	0x3e40a662	0.1881347
87	0x3d6f88ae	0.058479957
88	0x3e67efd3	0.2265008
89	0xbde089f7	-0.10963815
90	0x3e08d823	0.133637
91	0x3e1887ce	0.14895555
92	0xbe7d6e01	-0.24748994
93	0x3e98b2b6	0.29823846
94	0xbe74707f	-0.23871039
95	0x3e56fe45	0.20995434
96	0xbe6cebb0	-0.23136783
97	0x3bd0c1a8	0.006370742
98	0xbcefcddf	-0.029272972

gru.weight_ih_l1 f4 [99, 33]
0	0xbd87eeac	-0.0663732
1	0xbbd7f33a	-0.006590274
2	0xbe376e79	-0.17913236
3	0xbde6bc6c	-0.11266407
4	0x3c37651a	0.011193538
5	0x3e60464e	0.21901819
6	0x3d805391	0.06265939
7	0xbd318381	-0.043338303
8	0xbdf435cb	-0.11924323
9	0x3e0eb180	0.13934898
10	0x3daa4edf	0.08315825
11	0x3e297571	0.16548707
12	0x3dd6db07	0.10490995
13	0xbe35d118	-0.17755544
14	0xbd127cc1	-0.035763506
15	0x3d9f58a3	0.07780578
16	0xbb7eb478	-0.0038864892
17	0xbda81255	-0.082066216
18	0xbcf820b6	-0.030289035
19	0x3e200d74	0.15630132
20	0x3dc89b3f	0.09795236
21	0x3c8353e4	0.016031213
22	0xbdd6a5f6	-0.10480873
23	0x3d691429	0.05690399
24	0xbc3822ca	-0.011238763
25	0xbd8a5d28	-0.067560494
26	0xbd3f38ad	-0.04668491
27	0xbbd28903	-0.0064250245
28	0xbd57c370	-0.052676618
29	0x3d5d8bce	0.054088406
30	0xbdfc3ac0	-0.12315893
31	0xbdba097a	-0.09083839
32	0xbdc58439	-0.0964436
33	0x3d0b0f77	0.033950295
34	0xbdb9b181	-0.09067059
35	0xbe070130	-0.13184047
36	0x3ce6be99	0.028167056
37	0xbd7c41a3	-0.061586034
38	0xbc984e87	-0.018592132
39	0x3c87cb68	0.016576484
40	0xbd400ba2	-0.046886094
41	0x3e249027	0.16070615
42	0xbd4f9e97	-0.050688352
43	0x3c7f27f9	0.015573495
44	0x3ddcfc2a	0.10790284
45	0xbe3c0b95	-0.18363793
46	0x3ce4712d	0.027885998
47	0xbda53bb0	-0.08068025
48	0xbdd29308	-0.1028195
49	0x3e291421	0.16511585
50	0x3ddec352	0.10877098
51	0xbe0dba01	-0.13840486
52	0x3e24f9e5	0.16110952
53	0xbd4eb1e3	-0.050462615
54	0xbdb7c99e	-0.08974002
55	0xbce1971f	-0.02753788
56	0xbe0ef027	-0.13958798
57	0x3da348a4	0.079728395
58	0x3e24bff1	0.16088845
59	0x3dc56760	0.09638858
60	0x3c399395	0.01132669
61	0x3d9b50ac	0.07583746
62	0x3db547ac	0.08851561
63	0xbce73c69	-0.028227048
64	0xbce1560f	-0.027506856
65	0xbdd47d70	-0.10375488
66	0x3e49db43	0.19712548
67	0x3e503cc9	0.20335688
68	0x3d94b1be	0.07260464
69	0x3cae52af	0.021279661
70	0xbbf41ab4	-0.0074494723
71	0x3e160e89	0.14653982
72	0xbd2b7d16	-0.041867338
73	0xbdc97800	-0.09837341
74	0x3e415007	0.18878184
75	0x3e079b0a	0.13242736
76	0x3deafab1	0.11473597
77	0xbcdb133b	-0.026742568
78	0xbe485859	-0.19564952
79	0xbd978aba	-0.07399507
80	0xbe3099b9	-0.1724614
81	0x3d903d0f	0.07042896
82	0xbd55bb40	-0.05218053
83	0xbd131311	-0.035906855
84	0x3dad99c5	0.08476595
85	0x3e345118	0.1760906
86	0x3e81867f	0.25297925
87	0x3ea37ec1	0.31932643
88	0x3e67c0fa	0.22632208
89	0xbcdf309d	-0.02724486
90	0x3e3411b6	0.17584881
91	0x3db3d1e5	0.087802686
92	0x3d3938a0	0.045220017
93	0xbda34207	-0.07971578
94	0xbe20257f	-0.15639304
95	0x3df4e9a6	0.119586274
96	0xbe29850f	-0.16554664
97	0x3aeb892e	0.001796996
98	0x3ccaa3af	0.024736254
99	0x3e3b0324	0.18262917
100	0xbdbbf531	-0.09177626
101	0xbdb390f9	-0.08767886
102	0xbd675b9f	-0.05648386
103	0xbe000ef2	-0.12505701
104	0x3e247356	0.16059622
105	0x3bc7b5e6	0.006094682
106	0x3d971dd8	0.07378739
107	0xbaa1be04	-0.0012339954
108	0x3dd1475f	0.10218691
109	0xbe04d9fc	-0.1297378
110	0x3e0c973d	0.13729568
111	0xbdf717a4	-0.12065056
112	0xbd245cee	-0.040127687
113	0xbd09804d	-0.033569623
114	0x3d90a26a	0.07062228
115	0x3e57844f	0.21046565
116	0x3dd0134b	0.1015993
117	0x3e13972f	0.1441314
118	0x3c8c4690	0.01712349
119	0x3d8137e2	0.06309487
120	0xbd0300a2	-0.031983025
121	0x3dee8929	0.11647255
122	0xbde75dd2	-0.11297192
123	0x3db09c79	0.08623595
124	0x3d617347	0.055041578
125	0xbd9dfd38	-0.07714313
126	0x3e28567d	0.16439243
127	0x3dbc15c9	0.09183843
128	0xbd8c5b59	-0.06853361
129	0x3dae0722	0.08497454
130	0xbcfbd3d9	-0.030740665
131	0x3da5ec0c	0.08101663
132	0xbcf0e576	-0.02940629
133	0x3e494a65	0.19657286
134	0x3d8b6771	0.06806839
135	0xbe02bc5d	-0.12767167
136	0xbc4c0705	-0.012452845
137	0x3de3e523	0.11127689
138	0x3d0dc6b0	0.03461331
139	0x3d51ef4f	0.051253613
140	0xbd61cb3c	-0.05512546
141	0xbcc962d8	-0.024583265
142	0x3e378564	0.17921978
143	0x3e3eaf06	0.18621454
144	0x3ca28874	0.019840457
145	0x3daf0b70	0.085471034
146	0xbe4e3c68	-0.2014023
147	0xbd153169	-0.036424074
148	0x3d093a43	0.03350283
149	0xbd51ddf4	-0.05123706
150	0xbdb0f799	-0.086409755
151	0xbdbe559c	-0.092936724
152	0x3e31efbf	0.17376612
153	0x3e07e877	0.13272272
154	0x3ca31fa8	0.019912556
155	0xbd5f7ba4	-0.054561272
156	0x3d9ba0e0	0.07599044
157	0x3e6b8374	0.22999364
158	0x3de8bf4e	0.113646135
159	0x3db3bece	0.087766275
160	0xbe4a3f0d	-0.19750614
161	0xbc8fe94b	-0.017567297
162	0xbdd1c61a	-0.10242863
163	0xbe4578f2	-0.19284418
164	0xbd7ccd84	-0.061719432
165	0xbca13f51	-0.019683512
166	0xbd430300	-0.047610283
167	0x3c43316e	0.01191364
168	0x3d50159b	0.050801855
169	0x3c34451e	0.011002807
170	0xbe08160c	-0.1328966
171	0xbd8a88b0	-0.06764352
172	0xbe2d53bd	-0.16926475
173	0x3d55220c	0.052034423
174	0xbc9205a0	-0.017824948
175	0xbd14162c	-0.036153957
176	0x3d6fd1fc	0.058549866
177	0xbe19fde1	-0.15038253
178	0xbcd762ac	-0.026292168
179	0x3dba508d	0.09097395
180	0xbdb50bc4	-0.08840135
181	0x3e2b7b89	0.16746344
182	0x3c820b6e	0.01587459
183	0x3e29809e	0.1655297
184	0x3cff82bf	0.031190274
185	0x3e0620ee	0.13098499
186	0xbceabb41	-0.028653743
187	0x3e0611cd	0.13092728
188	0xbe3d4280	-0.18482399
189	0x3d6bed91	0.057599608
190	0x3e01929e	0.12653586
191	0xbca6a65d	-0.020343
192	0x3e681e3a	0.2266778
193	0x3d4fa249	0.050691877
194	0x3da487a4	0.08033684
195	0x3d0925d5	0.033483345
196	0x3dc7b21a	0.09750767
197	0xbe4e2be8	-0.20133936
198	0x3e4bd3a8	0.19904959
199	0x3e0fdc92	0.14048985
200	0x3d8f53cf	0.06998407
201	0xbc695804	-0.014242176
202	0xbddf9416	-0.10916917
203	0xbe0350b6	-0.12823758
204	0x3d9d0b7a	0.076682046
205	0x3ca4bc53	0.020109331
206	0x3d735d2f	0.05941504
207	0x3e3a7534	0.18208772
208	0x3ce29b26	0.027661871
209	0xbdc346cf	-0.0953499
210	0xbe44940c	-0.191971
211	0xbe14972a	-0.1451079
212	0x3d25982a	0.040428318
213	0xbd023a0d	-0.031793643
214	0xbdb974d2	-0.09055485
215	0xbd24a099	-0.04019222
216	0x3bee7d7f	0.007278144
217	0xbdedd5a0	-0.11613011
218	0x3ba333e1	0.0049805497
219	0xbd624e9e	-0.055250756
220	0x3df25180	0.11831951
221	0xbe06ab3b	-0.13151257
222	0x3e129fae	0.14318725
223	0xbda5e3f1	-0.08100117
224	0x3afe35aa	0.0019394655
225	0x3b3547bd	0.0027661168
226	0x3cb34dc6	0.021887671
227	0xbd445422	-0.047931798
228	0x3c83f5e8	0.016108468
229	0x3dc8372c	0.09776148
230	0x3de27dba	0.11059137
231	0xbde94aa3	-0.11391189
232	0x3e25c794	0.16189414
233	0xba9d91ed	-0.0012021639
234	0x3e0e2d0d	0.13884373
235	0xbe32eb9c	-0.1747269
236	0x3de0b00f	0.109710805
237	0x3e1fd3c9	0.15608133
238	0x3deefb07	0.116689734
239	0xbda4f1ef	-0.08053958
240	0xbda20966	-0.07911949
241	0xbd4d22e3	-0.0500821
242	0x3d1971f9	0.03746221
243	0xbdd2a869	-0.10286028
244	0xbe27630e	-0.1634638
245	0x3d541017	0.051773157
246	0xbe104055	-0.1408704
247	0x3d8b3e12	0.06798948
248	0x3e1dea4d	0.1542141
249	0x3e39d936	0.18149266
250	0xbcdc7fb1	-0.026916357
251	0x3befe60e	0.007321126
252	0x3e3846d7	0.17995773
253	0x3c3c74d4	0.011502463
254	0xbb82fb40	-0.0039972365
255	0x3e0de36e	0.13856289

gru.weight_hh_l1 f4 [99, 33]
0	0x3d2b709a	0.041855432
1	0x3e3262ce	0.17420503
2	0xbe1ace19	-0.15117683
3	0xbe0252f0	-0.1272695
4	0x3e55e6e7	0.20888864
5	0xbd55a20f	-0.052156504
6	0xbe07bff3	-0.13256817
7	0x3df356cf	0.11881792
8	0x3c0f942f	0.008763357
9	0xbe3c858a	-0.18410316
10	0x3db02589	0.08600909
11	0xbd775a43	-0.060388815
12	0x3dd562d1	0.10419238
13	0x3e54cb99	0.20780791
14	0x3e7ee993	0.24893789
15	0xbddb05d0	-0.10694468
16	0xbe251a23	-0.16123252
17	0x3cc59733	0.024119949
18	0xbdc8709d	-0.09787104
19	0xbda7d8b9	-0.081956334
20	0x3c13248a	0.00898088
21	0xbcc83911	-0.024441274
22	0x3cdc9699	0.02692728
23	0x3e775e8b	0.24157159
24	0xbc70ba69	-0.014692881
25	0xbe1208a6	-0.14261112
26	0x3e80deab	0.25169882
27	0x3e32f66b	0.17476813
28	0x3dcc10fb	0.09964176
29	0x3df39e6f	0.11895453
30	0xbe869f86	-0.26293582
31	0x3e934f4e	0.28771442
32	0x3db075b5	0.08616201
33	0x3c8cb09c	0.017174058
34	0xbd121166	-0.035661124
35	0xbe5b5be8	-0.21421778
36	0xbe3dac30	-0.18522716
37	0x3e97852d	0.29593793
38	0xbb624ba3	-0.0034529946
39	0xbe841d54	-0.25803626
40	0xbd50afea	-0.050949015
41	0xbc3ecd45	-0.01164562
42	0xbd39ef8d	-0.04539447
43	0x3dce6b95	0.100791134
44	0x3d69da77	0.05709311
45	0x3e0cda9c	0.13755268
46	0x3d1ceb1e	0.038310163
47	0x3e0a523d	0.13507934
48	0xbdb38cfd	-0.08767126
49	0xbe7a363d	-0.24434753
50	0xbe8449b0	-0.2583747
51	0xbd94988d	-0.07255659
52	0xbe2f3ec6	-0.1711379
53	0x3c6cc50f	0.014451279
54	0xbe10c405	-0.14137276
55	0x3d2669e6	0.040628336
56	0x3e8f1942	0.27948958
57	0xbdd67001	-0.10470582
58	0xbe2057b0	-0.1565845
59	0x3e1e1fd8	0.15441835
60	0x3ccc34d6	0.024927538
61	0x3d1b78a8	0.037956864
62	0x3dd5dcc6	0.104425
63	0x3cba8061	0.022766294
64	0x3c37777a	0.011197919
65	0xbdf5bb9b	-0.119986735
66	0xbe2a1ba1	-0.16612102
67	0x3e3a5996	0.18198237
68	0x3a4bc1e5	0.0007772728
69	0xbc561d9b	-0.013068582
70	0x3d53c16c	0.051698133
71	0x3d18ddcc	0.037320897
72	0x3b310638	0.0027011763
73	0x3e1ffac9	0.1562301
74	0x3e3b4a36	0.18290028
75	0xbb279423	-0.0025570474
76	0x3e5a2378	0.21302593
77	0x3e89b8dd	0.26898852
78	0x3c90431e	0.017610129
79	0x3e10367b	0.14083283
80	0x3d8f21ac	0.06988844
81	0xbdcb29b5	-0.09920064
82	0xbe208ecc	-0.15679473
83	0xbe883262	-0.2660094
84	0xbe9d1f29	-0.30687836
85	0xbdc09282	-0.09402944
86	0x3cfa8ac1	0.030583741
87	0xbd6f993e	-0.058495753
88	0x3e6175f8	0.22017658
89	0x3cd085f8	0.025454506
90	0xbd9ccafb	-0.07655903
91	0xbd102ef4	-0.035201028
92	0x3c74160a	0.014897833
93	0x3deca7c0	0.11555433
94	0x3e359eb5	0.17736323
95	0x3dddb047	0.10824638
96	0xbe812ff9	-0.25231913
97	0x3e371425	0.17878778
98	0xbd8424b8	-0.06452316
99	0xbcc35094	-0.023842134
100	0x3e46d58a	0.19417396
101	0xbe172a57	-0.14762245
102	0xbe752b4c	-0.23942298
103	0x3e82b0fc	0.25525653
104	0x3e55ae5e	0.20867297
105	0xbd63fd14	-0.055661276
106	0x3e246df8	0.16057575
107	0x3e55dc53	0.20884828
108	0x3c34e7b5	0.011041571
109	0x3e74236d	0.23841639
110	0x3e091e41	0.13390447
111	0x3e101e77	0.14074121
112	0x3c828180	0.015930891
113	0xbb3ae1eb	-0.0028516005
114	0xbdcad048	-0.09903008
115	0xbe7740a6	-0.24145755
116	0xbd9d99e2	-0.076953664
117	0xbe09c667	-0.1345459
118	0x3d2ac174	0.041688398
119	0x3e21e515	0.15810044
120	0xbd8aaae5	-0.06770877
121	0x3e4211fc	0.18952173
122	0x3e778384	0.24171263
123	0xbdbd708b	-0.092499815
124	0xbe464ecb	-0.19365995
125	0x3e028849	0.12747301
126	0x3e1fdab5	0.15610774
127	0x3e829017	0.25500557
128	0x3e616f25	0.22015055
129	0xbe662280	-0.22474098
130	0x3e2a62ba	0.16639224
131	0xbd1c0980	-0.038094997
132	0x3c835e0f	0.016036062
133	0x3e54c26d	0.20777293
134	0xbe8f8826	-0.2803356
135	0xbca87445	-0.020563254
136	0x3d7cdcf6	0.061734162
137	0x3e423a73	0.18967609
138	0xbe715f86	-0.23571596
139	0x3e6208c0	0.2207365
140	0x3e27f7fe	0.16403195
141	0xbe171060	-0.1475234
142	0x3e86682d	0.26251355
143	0x3c9d16a6	0.019175839
144	0x3e592694	0.21206123
145	0xbca09f7a	-0.019607294
146	0xbc80d638	-0.015727147
147	0xbd802e43	-0.06258824
148	0xbe885ebe	-0.26634783
149	0x3c0dd591	0.008656875
150	0xbe086e66	-0.13323364
151	0xbd588d77	-0.052869286
152	0x3d6e1d20	0.058133245
153	0xbd5f6112	-0.054535933
154	0x3ccfa816	0.025348704
155	0x3d8057a8	0.06266719
156	0xbe944945	-0.2896215
157	0xbe906cda	-0.28208047
158	0x3e36e443	0.17860512
159	0x3e07bf0c	0.13256472
160	0x3de52f6e	0.11190687
161	0x3e9ab8b1	0.30219033
162	0xbe100469	-0.14064182
163	0xbc4e3a75	-0.012587179
164	0xbe51308b	-0.20428674
165	0xbdd581bb	-0.10425135
166	0x3e57290e	0.21011755
167	0xbe90702b	-0.28210577
168	0xbe1aa40c	-0.15101641
169	0x3dafbe4d	0.08581219
170	0x3dde1fad	0.108458854
171	0xbe134367	-0.1438118
172	0x3d5cd2fd	0.05391215
173	0x3e813ac9	0.25240162
174	0xbe8731fc	-0.26405323
175	0x3e085e7a	0.1331729
176	0x3e36efba	0.17864886
177	0x3e4e703d	0.20160003
178	0x3e5cf7bc	0.21578878
179	0x3a873852	0.0010316467
180	0x3d9521f1	0.072818644
181	0xbe45cb14	-0.1931575
182	0xbe1d7f7a	-0.1538066
183	0xbe2b53d6	-0.167312
184	0xbda09c05	-0.07842258
185	0x3e5229de	0.20523784
186	0xbdc3965b	-0.095501624
187	0xbcb23cc3	-0.02175749
188	0x3d883a84	0.06651786
189	0xbe630f7e	-0.22173879
190	0xbd90d624	-0.07072094
191	0x3e67bb98	0.22630155
192	0x3e364416	0.1779941
193	0x3e4473f7	0.19184862
194	0x3d46b483	0.048511993
195	0x3d0c1388	0.034198314
196	0x3dc2898c	0.09498891
197	0xbd75b705	-0.059988994
198	0x3c1448ea	0.009050587
199	0xbdb0b0e5	-0.0862749
200	0xbe150a53	-0.1455472
201	0x3ae20ba7	0.0017245904
202	0x3e0ab65e	0.1354613
203	0x3d9ca8df	0.07649397
204	0xbdadb8f5	-0.084825434
205	0x3e0c1671	0.13680436
206	0x3e3da992	0.18521717
207	0xbe73a2f5	-0.23792632
208	0x3e420f2c	0.189511
209	0x3b873df1	0.004127257
210	0x3e03b881	0.12863351
211	0x3e884902	0.266182
212	0x3dd05f74	0.10174456
213	0xbcc495fc	-0.0239973
214	0xbe3253e2	-0.17414811
215	0xbe175d74	-0.14781743
216	0xbdbfa241	-0.09357119
217	0xbd7d57a6	-0.061851166
218	0x3e35ac89	0.17741598
219	0xbe292713	-0.16518812
220	0x3b2a1e19	0.002595788
221	0x3cdfeb19	0.027333783
222	0xbe200b65	-0.15629347
223	0xb736a292	-1.0885897e-05
224	0x3e644559	0.22292079
225	0x3d13cefb	0.036086064
226	0x3e316421	0.17323352
227	0x3e2cd2b5	0.16877253
228	0xb9b01383	-0.00033583873
229	0x3e00998c	0.12558573
230	0xbccc8ac2	-0.024968509
231	0xbdccc424	-0.09998348
232	0x3e395861	0.1810012
233	0x3bfaa337	0.0076488513
234	0xbe17e4d6	-0.14833388
235	0xbcc1a249	-0.023636954
236	0x3c3b3569	0.011426308
237	0xbe034f9e	-0.1282334
238	0x3dea3f03	0.114378
239	0x3e05256f	0.13002561
240	0xbe38c01b	-0.18042032
241	0x3e333cb3	0.17503624
242	0x3dc47e42	0.09594394
243	0x3e294e6e	0.16533825
244	0xbda7d927	-0.081957154
245	0x3e3d7389	0.18501104
246	0x3bb59727	0.0055417004
247	0xbe65d4ae	-0.22444412
248	0xbe710a0e	-0.23538992
249	0xbe815b81	-0.25265124
250	0xbdc78f1c	-0.09744093
251	0x3e6f5b1f	0.23374604
252	0xbdc8b57f	-0.09800243
253	0x3cae4460	0.021272838
254	0x3d89b456	0.067238495
255	0xbe5be434	-0.21473771

gru.bias_ih_l1 f4 [99]
0	0xbdbd6029	-0.09246857
1	0x3e5ecd2c	0.21757954
2	0x3ead1931	0.33808282
3	0x3dfbc77c	0.12293908
4	0xbcd13556	-0.025538128
5	0x3db75b4b	0.089529596
6	0x3d802def	0.06258761
7	0xbcccdadc	-0.025006704
8	0x3e2140f9	0.15747441
9	0x3db4a3d6	0.08820312
10	0x3dae1e2c	0.085018486
11	0x3d983921	0.074327715
12	0x3c976a3b	0.018483272
13	0x3e45b81a	0.1930851
14	0x3d6ad4f6	0.057332
15	0xbd079acb	-0.033106606
16	0xbdbe66be	-0.0929694
17	0x3e0bd4d7	0.1365541
18	0x3deb395b	0.11485549
19	0x3d85d39e	0.065345034
20	0x3ba57d66	0.005050349
21	0xbdc3d559	-0.09562177
22	0x3e10c43c	0.14137357
23	0x3e32f100	0.17474747
24	0xbcedf3ff	-0.02904701
25	0x3e073333	0.13203125
26	0x3d13f69a	0.03612385
27	0x3dd30886	0.1030436
28	0x3c8b1e13	0.016982114
29	0xbe0928be	-0.13394448
30	0x3e001ccd	0.12510987
31	0x3e330984	0.17484099
32	0xbdda103d	-0.106476285
33	0xbdd09a62	-0.10185696
34	0x3d42b9bd	0.047540415
35	0xbe2e2133	-0.17004852
36	0x3ddbd14e	0.10733281
37	0xbdece466	-0.11567001
38	0xbdd43fa7	-0.10363703
39	0xbb4d8d5e	-0.003136478
40	0xbd9dad79	-0.07699103
41	0xbe2e3c89	-0.1701528
42	0xbe34f475	-0.17671378
43	0xbd1899da	-0.0372561
44	0xbe3ddd10	-0.1854136
45	0x3dcffd92	0.101557866
46	0x3e09eea5	0.13469942
47	0x3daf3f8d	0.08557043
48	0xbe21c571	-0.15797974
49	0x3df66d8f	0.120326154
50	0xbe5724f5	-0.21010192
51	0x3d0b8a77	0.034067597
52	0xbe00fc66	-0.12596282
53	0xbdb0b0c6	-0.08627467
54	0x3dee3a4c	0.11632213
55	0xbd9c6ea0	-0.076382875
56	0x3d9491e2	0.072543874
57	0xbc769b3a	-0.015051657
58	0xbe39b2ab	-0.18134563
59	0xbe220414	-0.15821868
60	0xbdf18f5e	-0.11794923
61	0xbe475d15	-0.19469102
62	0x3d1202d7	0.03564724
63	0xbe0912eb	-0.13386123
64	0xbcaa62e8	-0.020799115
65	0xbc93595a	-0.017986942
66	0xbe9554f2	-0.2916637
67	0x3e8d707e	0.27624887
68	0xbe920737	-0.2852113
69	0xbc31dac8	-0.010855384
70	0x3d958cfd	0.07302282
71	0x3e193981	0.14963342
72	0xbc452281	-0.012032152
73	0x3e2b7821	0.16745044
74	0x3d31d16b	0.043412607
75	0xbda4d0a3	-0.08047607
76	0xbc0f712f	-0.008755012
77	0x3df55b77	0.11980336
78	0x3e12f8a2	0.14352658
79	0x3e4e9656	0.20174536
80	0x3e229bd0	0.1587975
81	0xbe1738b4	-0.14767724
82	0xbc8c13c9	-0.017099278
83	0xbe01cd00	-0.12675858
84	0xbdafc1f0	-0.085819125
85	0xbe3456bd	-0.17611213
86	0x3df1f29d	0.11813853
87	0xbe9a5d9a	-0.30149537
88	0x3d1c9bcb	0.038234513
89	0xbd6eb34a	-0.058276452
90	0xbd66f639	-0.05638716
91	0xbdc80b98	-0.09767836
92	0xbd798439	-0.060917113
93	0x3d0f3e2d	0.034971405
94	0x3d961140	0.07327509
95	0x3e6da5ec	0.23207825
96	0xbd40ebe8	-0.047099978
97	0x3e8465c8	0.25858903
98	0x3c548160	0.0129702985

gru.bias_hh_l1 f4 [99]
0	0xbbae872a	-0.0053261714
1	0x3cb8d4f7	0.022562487
2	0x3eacfe80	0.33787918
3	0x3e12ffdf	0.1435542
4	0xbc66108b	-0.01404203
5	0xbd65e391	-0.056125227
6	0x3d3d31b0	0.046189964
7	0x3e472676	0.19448265
8	0x3d9a95c5	0.075480975
9	0x3dee866c	0.11646733
10	0xbdb1d7f2	-0.086837664
11	0x3e43d25b	0.19123213
12	0x3de22d4a	0.110437945
13	0xbd4d5c3a	-0.050136782
14	0x3d817acc	0.0632225
15	0x3e158209	0.14600386
16	0xbdf29f7d	-0.11846826
17	0xbc329920	-0.010900766
18	0x3daf9b68	0.08574563
19	0xbd80bdab	-0.06286176
20	0xbddffe9b	-0.10937234
21	0x3d86eb95	0.065879025
22	0x3e24d5ca	0.16097179
23	0xbddf201e	-0.10894798
24	0xbd347627	-0.04405799
25	0xbd5e4d0b	-0.054272693
26	0xbde8bbcd	-0.11363945
27	0xbc8f074d	-0.017459536
28	0x3da1837f	0.07886409
29	0x3d8868d6	0.06660621
30	0x3e4df5a0	0.2011323
31	0x3d6f20dc	0.058380947
32	0x3e2bb58c	0.16768473
33	0xbe5a2afe	-0.21305463
34	0xbd85595e	-0.06511186
35	0xbe934763	-0.287654
36	0xbdfe757c	-0.12424752
37	0xbe0aac07	-0.13542186
38	0x3d15212e	0.036408596
39	0x3e046ced	0.12932177
40	0xbd373ef7	-0.044737782
41	0xbd8253dc	-0.06363651
42	0x3def92be	0.11697911
43	0xbcbbdeca	-0.022933383
44	0xbcd822c8	-0.026383772
45	0x3e072740	0.13198566
46	0x3d361125	0.044449944
47	0x3cb60c1a	0.022222567
48	0xbdc7cb12	-0.097555295
49	0xbdf3e9e7	-0.11909848
50	0x3d3c990b	0.04604439
51	0x3daf38de	0.085557684
52	0xbdf72bf7	-0.120689325
53	0x3c0ce574	0.008599628
54	0xbdd11753	-0.10209527
55	0xbd711e92	-0.058867045
56	0x3de46553	0.111521386
57	0x3d6b877d	0.05750226
58	0x3d11e696	0.035620295
59	0x3d61169a	0.054953195
60	0x3c381d28	0.01123742
61	0x3d850e65	0.06496886
62	0x3cb27070	0.02178213
63	0x3d653fff	0.055969235
64	0xbe40780c	-0.18795794
65	0xbcd00ec3	-0.025397664
66	0xbe22ced9	-0.15899219
67	0x3d83c1be	0.06433438
68	0xbe8d3630	-0.27580404
69	0xbe419763	-0.18905406
70	0x3dcf2c08	0.1011582
71	0x3e37615f	0.17908238
72	0x3d512c18	0.05106744
73	0x3df15aba	0.11784883
74	0x3df3e68d	0.119092084
75	0xbd929897	-0.071580105
76	0x3e0277f7	0.12741075
77	0x3dc42691	0.095776685
78	0x3da4cabc	0.08046481
79	0xbcda0eaf	-0.02661833
80	0x3e231f35	0.15929873
81	0xbe58ae55	-0.21160252
82	0xbd1e92e3	-0.0387143
83	0xbe74a0c4	-0.23889452
84	0x3b04f92d	0.0020290122
85	0xbe86cfca	-0.26330405
86	0xbd6fa455	-0.05850633
87	0xbd487df2	-0.048948236
88	0x3e876445	0.26443687
89	0x3dd0605f	0.10174631
90	0xbe18ae7f	-0.14910315
91	0xbe3a4329	-0.18189682
92	0xbd3c2c85	-0.045940895
93	0x3ea2b3aa	0.31777698
94	0x3e14c59e	0.1452851
95	0xbcd99eb3	-0.026564931
96	0xbe732602	-0.23744968
97	0x3dd58bfa	0.10427089
98	0x3c1a211a	0.009407306

fc.weight f4 [1, 33]
0	0xbfd4093c	-1.6565318
1	0x3fcdcd60	1.60783
2	0xbfc0538d	-1.5025498
3	0xbfd8add0	-1.6928043
4	0x3fcf59ba	1.6199257
5	0x3fda13d9	1.7037307
6	0xbfdd9883	-1.7312168
7	0x3fd641db	1.6738847
8	0x3fd39bb4	1.6531892
9	0xbfdc9d57	-1.7235516
10	0x3fc9534b	1.5728544
11	0x3fd32772	1.6496413
12	0x3fd9234b	1.6963896
13	0x3fd06223	1.6279949
14	0x3fc8a4a5	1.5675246
15	0xbfd0cae3	-1.6311916
16	0xbfdaf5df	-1.7106284
17	0xbfd582c6	-1.6680534
18	0xbfc724ca	-1.5558102
19	0xbfcb16a2	-1.5866282
20	0x3fd4f294	1.6636529
21	0xbfcbe874	-1.5930314
22	0x3fdad0da	1.7094986
23	0x3fd5f519	1.6715423
24	0xbfd4aabe	-1.6614606
25	0xbfda17b9	-1.703849
26	0x3fd788b3	1.6838592
27	0x3fd2ef93	1.6479362
28	0x3fcf4f71	1.6196119
29	0x3fda2880	1.704361
30	0xbfd85647	-1.690133
31	0x3fd88c64	1.6917844
32	0xbfd8c470	-1.6934948
