models/gru_trial_5.pth (torch, 638384 bytes, 9 tensors)

gru.weight_ih_l0 f4 [375, 44]
0	0xbdb4aec5	-0.08822397
1	0xbe67a8c6	-0.22622976
2	0xbce4a818	-0.027912185
3	0x3d63ffdc	0.05566393
4	0xbd36b008	-0.04460147
5	0xbe229893	-0.15878515
6	0x3e2dd04a	0.16973987
7	0xbcfedc8d	-0.031111026
8	0xbe089382	-0.1333752
9	0xbcb2efa5	-0.021842787
10	0xbc867104	-0.016411312
11	0x3e33f0a4	0.17572266
12	0xbdaeb201	-0.08530045
13	0xbd0727b7	-0.03299686
14	0x3d5f1a67	0.05446854
15	0xbc06000b	-0.008178721
16	0xbdc749c2	-0.09730865
17	0xbc9a1500	-0.018808842
18	0xbd88d7d9	-0.06681795
19	0x3e551252	0.2080777
20	0x3d017962	0.0316099
21	0x3d65f28a	0.056139506
22	0xbd469f6f	-0.04849189
23	0xbd202042	-0.039093263
24	0x3da20a6e	0.079121456
25	0xbda2de78	-0.07952589
26	0xbd1ad304	-0.037798896
27	0xbd98ae38	-0.074551046
28	0x3d42ca12	0.04755599
29	0x3d9ab2de	0.075536475
30	0x3d4ab4c5	0.0494888
31	0x3c4767c1	0.012170733
32	0x3c7fdfac	0.015617292
33	0xbc449615	-0.011998673
34	0x3d816c42	0.06319477
35	0x3c71f66a	0.014768222
36	0xbcade22b	-0.02122601
37	0xbe8622ce	-0.2619843
38	0x3dbb6726	0.091505334
39	0xbc392e71	-0.011302576
40	0xbc83e1a9	-0.016098814
41	0x3d515a17	0.051111307
42	0xbe595bf5	-0.21226485
43	0x3eb840fd	0.35987082
44	0x3b149dd0	0.0022677071
45	0x3e16064b	0.14650838
46	0x3df7a50e	0.120920286
47	0xbe577535	-0.21040805
48	0xbdff3e44	-0.12463048
49	0x3d83c57f	0.06434154
50	0x3c99e0f3	0.018784022
51	0xbd7d24f0	-0.061802804
52	0x3e30e178	0.1727351
53	0xbd78b2ca	-0.06071738
54	0x3e05469b	0.13015215
55	0xbdfdd371	-0.12393845
56	0x3e20db57	0.15708672
57	0x3df70d7e	0.1206312
58	0x3de55640	0.111980915
59	0xbe205d99	-0.15660705
60	0x3e132ab9	0.14371766
61	0xbd66d6bd	-0.056357134
62	0x3df282e8	0.11841375
63	0x3d75bde8	0.05999556
64	0xbd87300d	-0.06600962
65	0xbdbc5b57	-0.09197109
66	0xbc224f2f	-0.009906574
67	0xbd6d4938	-0.057931155
68	0xbe1f230c	-0.15540713
69	0x3c67236a	0.014107564
70	0x3d871a19	0.065967746
71	0x3c5bfd3b	0.013427074
72	0x3e018772	0.12649325
73	0xbd0de4d0	-0.03464204
74	0x3d8dafa7	0.06918269
75	0xbd0004d7	-0.031254616
76	0x3d5b7568	0.053578764
77	0xbddb3b21	-0.10704637
78	0x3dc467c6	0.09590106
79	0x3e1912f6	0.1494864
80	0xbdd1b63b	-0.10239836
81	0x3e73f56d	0.23824091
82	0xbde563ea	-0.11200698
83	0x3c7953db	0.015217747
84	0x3d88b713	0.06675544
85	0x3d0c0b1a	0.034190275
86	0xbe14d42b	-0.1453406
87	0xbdbc35ef	-0.091899745
88	0xbd754fec	-0.059890673
89	0x3d1f9e46	0.0389693
90	0xbb66ab9d	-0.0035197504
91	0xbdad82db	-0.08472224
92	0xbd8537fd	-0.065048195
93	0x3daeb304	0.08530238
94	0x3b8706f1	0.0041207005
95	0xba596d08	-0.000829414
96	0x3d6affa6	0.05737271
97	0xbc05b101	-0.008159877
98	0xbd777d69	-0.060422335
99	0xbc2eac8f	-0.010661258
100	0x3d89136a	0.06693156
101	0xbd3520a3	-0.044220578
102	0x3d8d85a8	0.069102585
103	0x3d1c3b37	0.03814241
104	0xbda2b0d3	-0.07943883
105	0x3d98e590	0.074656606
106	0xbbf46abc	-0.007459013
107	0x3e92dda0	0.2868471
108	0x3e2e42f5	0.1701773
109	0x3de90b94	0.113791615
110	0x3dabeb78	0.083945215
111	0xbde1930c	-0.11014375
112	0x3e00ac62	0.12565759
113	0x3d651c43	0.055935156
114	0x3cee0f42	0.02906001
115	0x3d5bbf0d	0.053648997
116	0x3d7332ef	0.059374746
117	0x3e0fec5d	0.14055009
118	0x3da7ff05	0.08202938
119	0x3c1481d4	0.009064157
120	0x3c3fde00	0.011710644
121	0x3cef968a	0.029246587
122	0x3dbe72ef	0.092992656
123	0xbcda9606	-0.026682865
124	0xbda521f7	-0.08063119
125	0xbdfa884a	-0.12233026
126	0xbe21dc54	-0.15806705
127	0xbc7b196b	-0.015325884
128	0x3dece071	0.11566246
129	0xbe02e37c	-0.12782091
130	0xbd977a99	-0.073964305
131	0x3eb0c5a3	0.34525785
132	0xbd50e48a	-0.0509992
133	0x3d429915	0.04750927
134	0xbd860867	-0.06544571
135	0x3dca4ce6	0.098779485
136	0xbd5465bf	-0.051854845
137	0xbe1b3f31	-0.15160824
138	0x3e03546d	0.12825175
139	0x3c709216	0.014683267
140	0xbd94c86f	-0.07264792
141	0x3ca46eb4	0.020072319
142	0xbdd7e88d	-0.105424024
143	0x3ddc16da	0.10746546
144	0x3df4e88f	0.119584195
145	0x3da1b791	0.07896341
146	0x3d83434f	0.064093225
147	0x3dd7dc30	0.10540044
148	0xbba0956a	-0.004900624
149	0x3dd014fa	0.10160251
150	0x3da02ada	0.07820673
151	0x3e82d612	0.25553948
152	0x3d80bb1a	0.06285687
153	0x3d9270b7	0.07150405
154	0xbd504cbf	-0.05085444
155	0x3d41ce94	0.04731615
156	0x3dfa0b49	0.12209184
157	0xbdc4ef2e	-0.096159324
158	0xbdbc6035	-0.091980375
159	0x3c7334fd	0.014844176
160	0x3c2a6af6	0.010401478
161	0x3e09e5c7	0.1346656
162	0xbd0ab0b6	-0.03385993
163	0x3cd8c1d4	0.026459612
164	0x3bf51cac	0.0074802246
165	0xbe226210	-0.1585772
166	0x3db49565	0.08817557
167	0x3d5d21a0	0.053987145
168	0xbc409e15	-0.01175644
169	0xbd899d43	-0.067194484
170	0x3d4dc216	0.050233923
171	0x3d9cfbde	0.07665227
172	0xbd8c2515	-0.0684301
173	0xbc406930	-0.011743829
174	0xbdb67631	-0.08909262
175	0x3e8030c9	0.2503722
176	0x3cff10c5	0.031135926
177	0x3e12190e	0.1426737
178	0x3d9fab1c	0.077963084
179	0x3d04ab86	0.03239014
180	0xbd1e1e6c	-0.03860323
181	0xbd81ddc9	-0.0634113
182	0x3d228a85	0.039682884
183	0x3dc8e7af	0.09809815
184	0x3d903471	0.070412524
185	0xbc7ad983	-0.015310648
186	0x3ba6593e	0.0050765565
187	0xbc2c9cdc	-0.010535445
188	0x3dd00b61	0.1015842
189	0xbb8a49eb	-0.0042202375
190	0xbce558c4	-0.027996428
191	0x3cc58bec	0.024114572
192	0x3e68e4df	0.22743557
193	0xbd74b9b4	-0.059747413
194	0x3d32cfb7	0.043655124
195	0x3d107148	0.035264283
196	0x3dcda9ce	0.10042153
197	0x3c8b8daf	0.017035333
198	0xbd1b0c4c	-0.037853524
199	0xbc09a3de	-0.008400885
200	0xbdc3c4e7	-0.095590405
201	0x3cc8a8f5	0.024494627
202	0xbce21e2f	-0.027602283
203	0x3e04f262	0.12983087
204	0xbda2ca51	-0.07948745
205	0xbd42969a	-0.047506906
206	0xbd306602	-0.043066032
207	0x3b16103b	0.0022897858
208	0x3d3cd075	0.046097238
209	0x3e00fece	0.125972
210	0x3d8e6bc6	0.0695415
211	0xbdd0923a	-0.101841405
212	0xbc9c6a40	-0.019093633
213	0x3e321182	0.17389491
214	0xbd47a4ed	-0.04874127
215	0xbadbd26a	-0.0016771082
216	0xbd8daae9	-0.06917364
217	0xbdb437a0	-0.08799672
218	0x3d1c8754	0.038214996
219	0xbdcf2122	-0.101137415
220	0xbe562d35	-0.20915683
221	0xbde7ebf7	-0.113243036
222	0x3c73b9b3	0.014875817
223	0xbe2a6629	-0.16640534
224	0x3e2064f0	0.15663505
225	0x3df025b0	0.11725938
226	0x3d7eaa32	0.06217403
227	0xbddcdfe9	-0.10784895
228	0x3ce64683	0.028109794
229	0xbe2e1aec	-0.17002457
230	0x3d5e5dd8	0.054288715
231	0xbad1b7aa	-0.0016000171
232	0x3cf35782	0.029704813
233	0x3d8a2dbf	0.067470066
234	0x3e2786b7	0.16359983
235	0xbc87a88b	-0.01655986
236	0xbd869e7f	-0.065731995
237	0xbde86b52	-0.11348595
238	0xbe28679a	-0.16445771
239	0xbcdac194	-0.026703633
240	0xbba13589	-0.004919712
241	0x3d03c5ec	0.032171175
242	0x3da5b851	0.08091796
243	0xbe102580	-0.14076805
244	0x3c216924	0.009851728
245	0xbdbe566d	-0.09293828
246	0xbd176f61	-0.036971454
247	0x3da0c346	0.078497455
248	0xbdb91e77	-0.09039014
249	0x3d2f58d5	0.042809326
250	0xbe1ba4de	-0.1519961
251	0x3d98fefc	0.074705094
252	0x3d2b74d9	0.04185948
253	0xbe00613c	-0.12537092
254	0xbd3aa4a8	-0.045567185
255	0xbdfa7840	-0.12229967

gru.weight_hh_l0 f4 [375, 125]
0	0xbe31751f	-0.17329834
1	0x3ce8dc3c	0.028425328
2	0xb9a4b43f	-0.0003141481
3	0xbcd0dd20	-0.025496066
4	0xbc8a1ca7	-0.016859366
5	0xbd44822b	-0.0479757
6	0x3d16af90	0.036788523
7	0x3cad16ca	0.02112903
8	0xbd3bccfd	-0.04584979
9	0xbe13a1e6	-0.14417228
10	0xbce9b269	-0.028527455
11	0x3d81142d	0.06302676
12	0x3d7a4a3a	0.061105944
13	0x3e167846	0.14694318
14	0xbe1b4435	-0.15162738
15	0xbd9dc05e	-0.07702707
16	0xbd837078	-0.06417936
17	0xbdf5332c	-0.11972651
18	0xbdd9392d	-0.106066085
19	0xbc431e9f	-0.011909156
20	0x3e133c5f	0.14378498
21	0xbd7b9ac0	-0.061426878
22	0x3d6c8acf	0.057749566
23	0x3d073640	0.03301072
24	0xbcf3c570	-0.029757231
25	0xbc63af4e	-0.013896776
26	0x3dcd6e9a	0.10030861
27	0xbdb52dc3	-0.08846619
28	0xbdecd82f	-0.11564671
29	0x3e2f56c5	0.17122944
30	0xbd940077	-0.07226651
31	0xbd6a3514	-0.057179525
32	0xbd05d218	-0.032671064
33	0x3c4af07e	0.012386439
34	0x3e045a72	0.12925127
35	0x3e04867b	0.12941925
36	0xbd525997	-0.05135497
37	0xbd8664c8	-0.06562191
38	0xbcfa782f	-0.030574886
39	0x3dbf4ec9	0.09341199
40	0x3d51b256	0.051195465
41	0xbc0302f3	-0.007996309
42	0x3e26d58f	0.16292404
43	0xbd684dda	-0.05671487
44	0x3d303507	0.04301932
45	0xbd660f02	-0.056166656
46	0x3e4f7d0e	0.20262548
47	0x3d0c96dc	0.03432356
48	0x3e1677c8	0.1469413
49	0x3da2d45e	0.07950662
50	0xbc4edd62	-0.012626024
51	0xbd9deeca	-0.07711561
52	0x3d537563	0.05162562
53	0x3e0ef6bf	0.13961314
54	0x3e2f9ab6	0.17148861
55	0x3c76f1ec	0.015072327
56	0xbda6268b	-0.0811282
57	0x3db2e207	0.087345175
58	0x3d555c11	0.052089754
59	0x3c161c96	0.009162089
60	0x3cbb47fd	0.022861475
61	0x3d6fff51	0.058593098
62	0x3d481c8f	0.04885536
63	0xbdb06134	-0.0861229
64	0xbdd9b461	-0.10630108
65	0x3c45cb71	0.01207243
66	0xbd43bd97	-0.04778823
67	0xbdaf2652	-0.08552231
68	0x3c9c7b6c	0.01910182
69	0x3e06ab5a	0.13151303
70	0xbe409ee8	-0.18810618
71	0x3daf2c54	0.08553377
72	0x3d528795	0.051398832
73	0xbde13592	-0.10996546
74	0x3d29dbc2	0.041469343
75	0x3c0dddc9	0.008658835
76	0x3dd868a0	0.10566831
77	0x3dac2a5d	0.08406518
78	0xbbc67f81	-0.00605768
79	0xbbb1d1d1	-0.0054266234
80	0xbe005a2b	-0.12534396
81	0x3d846387	0.06464296
82	0x3e8bb398	0.27285457
83	0x3d413af2	0.047175355
84	0x3e79a7a3	0.24380355
85	0x3d89f637	0.06736415
86	0xbba5c26d	-0.0050585777
87	0x3dd27042	0.10275318
88	0x3d837d08	0.06420332
89	0x3b5fd93d	0.0034156584
90	0x3d7d5c40	0.061855555
91	0x3d33bfe5	0.043884177
92	0x3b232328	0.002489278
93	0xbd8de9f8	-0.069293916
94	0xbd632506	-0.05545523
95	0xbde4327c	-0.11142442
96	0x3d561d98	0.052274317
97	0xbe461fde	-0.19348094
98	0x3c87f497	0.016596122
99	0x3df75ca7	0.12078219
100	0xbdf0d626	-0.117595956
101	0xbcfe495f	-0.031040845
102	0x3d334297	0.043764677
103	0x3ccec2b8	0.025239334
104	0x3d1d6d02	0.038434036
105	0xbd3f62ed	-0.046725202
106	0x3ca78608	0.020449653
107	0x3d5f792a	0.05455891
108	0x3cd3db98	0.025861546
109	0xbddc6b64	-0.10762671
110	0x3dda1762	0.10648991
111	0xbd4e1386	-0.050311588
112	0xbaf5f1a4	-0.0018764031
113	0xbd45c485	-0.04828312
114	0x3d03feed	0.032225538
115	0x3d8d1841	0.06889392
116	0x3bc3de9b	0.0059774644
117	0x3e140da6	0.14458331
118	0x3d5bf077	0.053696122
119	0x3df1fdab	0.118159615
120	0x3da8cff0	0.08242786
121	0xbbd00050	-0.0063476935
122	0x3df5ec48	0.12007958
123	0xbd9d9693	-0.076947354
124	0xbe0ee0f8	-0.13953006
125	0xbe43439c	-0.1906876
126	0xbe09fea8	-0.1347605
127	0x3ac39cdb	0.0014924066
128	0xbcd5ba2a	-0.026089747
129	0x3cf0a18d	0.029373908
130	0x3cdac74f	0.026706366
131	0xbdb59b42	-0.08867504
132	0xbdc62410	-0.09674847
133	0xbde51d26	-0.111872
134	0xbdde5dcd	-0.10857735
135	0x3db83ab0	0.08995569
136	0xbcb57f9d	-0.022155577
137	0xbd9265e2	-0.07148339
138	0xbd5b41fe	-0.053529732
139	0x3cb2ce46	0.021826874
140	0x3d8d8690	0.069104314
141	0xbd40874a	-0.04700402
142	0x3bd2d053	0.0064335256
143	0xbd43d239	-0.047807906
144	0xbbc0b55a	-0.005880994
145	0x3cfeabb5	0.031087736
146	0xbd54941e	-0.051899068
147	0xbdeb6255	-0.11493365
148	0xbdb60a3d	-0.088886715
149	0x3e07fc7d	0.1327991
150	0x3c641615	0.01392128
151	0x3d73edc7	0.059552934
152	0xbd278054	-0.040893868
153	0xba85fedd	-0.001022305
154	0xbdb24594	-0.08704677
155	0xbd57ddf4	-0.052701905
156	0xbddbfe4c	-0.10741863
157	0xbdab1491	-0.08353532
158	0x3dedd4cb	0.11612853
159	0x3e070cf2	0.13188532
160	0x3ca70915	0.020390073
161	0xbda24fb9	-0.07925362
162	0x3cfcd63b	0.030863872
163	0x3d090a84	0.033457294
164	0x3caf58ee	0.02140471
165	0xbcd068a0	-0.025440514
166	0x3d08ce92	0.033400126
167	0xbd5134ec	-0.05107586
168	0x3d450fb7	0.04811069
169	0x3dbc2853	0.09187379
170	0x3daf3935	0.08555833
171	0x3d758367	0.05993977
172	0xbd8cecf1	-0.068811305
173	0xbd61e575	-0.055150468
174	0xbc5c2066	-0.013435459
175	0x3c00635b	0.007836188
176	0xbdf73c3e	-0.12072037
177	0x3cd926aa	0.026507694
178	0xbdaa4cc2	-0.08315422
179	0xbdfd3479	-0.12363524
180	0x3c60d6c8	0.013723083
181	0x3d1ea406	0.038730644
182	0x3c024034	0.0079498775
183	0xbd55dc93	-0.05221231
184	0xbd856d4a	-0.06514986
185	0xbc940c77	-0.01807235
186	0xbbc96051	-0.006145515
187	0x3dbe7ff4	0.09301749
188	0xbdc8d30c	-0.09805879
189	0x3dbda268	0.09259492
190	0xbdf67215	-0.12033478
191	0x3cd453dc	0.025918894
192	0xbd935ec3	-0.07195809
193	0x3d822177	0.06354039
194	0x3cff5ce3	0.031172222
195	0x3b1100c4	0.00221257
196	0x3e239d76	0.15978035
197	0x3e04ca80	0.12967873
198	0x3cf2dc44	0.029646046
199	0xbe0fa580	-0.14027977
200	0xbd3be799	-0.045875166
201	0xbe82a262	-0.25514513
202	0x3d6127e0	0.05496967
203	0xbddee4a9	-0.10883457
204	0x3dcd8867	0.10035782
205	0x3dfffc07	0.12499242
206	0xbddbc802	-0.10731508
207	0xbde5aa1c	-0.112140864
208	0xbd34b40a	-0.04411701
209	0x3d8b2389	0.06793887
210	0xbc973d23	-0.01846177
211	0x3dc971ab	0.098361336
212	0x3e02fc12	0.1279147
213	0xbd2f1f63	-0.042754542
214	0xbd368bc0	-0.04456687
215	0xbd6f44cc	-0.05841522
216	0x3da71be4	0.081596166
217	0x3c189008	0.0093116835
218	0xbe7a3bb7	-0.24436842
219	0xbe1b6eef	-0.15179037
220	0xbde568e6	-0.112016484
221	0xbd3c2ff9	-0.045944188
222	0x3d34cc9f	0.044140454
223	0x3c56ed2a	0.013118068
224	0x3e063bc7	0.13108741
225	0xbd38439a	-0.044986345
226	0x3c4bec0b	0.012446414
227	0x3ce7d053	0.028297579
228	0xbde1003d	-0.109863736
229	0x3d96c3b5	0.07361547
230	0xbccc7016	-0.02495579
231	0xbd659361	-0.056048755
232	0x3da2af23	0.07943561
233	0x3e00a434	0.12562639
234	0xbd82e4b2	-0.063912764
235	0xbd3d21fd	-0.046174992
236	0xbc05f5ae	-0.00817625
237	0xbda7319f	-0.08163761
238	0xbd32a190	-0.04361111
239	0xbc433851	-0.011915282
240	0xbd29e42c	-0.041477367
241	0x3a5595f8	0.0008147652
242	0xbd7c2646	-0.061559938
243	0x3d736e81	0.059431557
244	0x3c35d2d5	0.01109763
245	0xbd032df6	-0.032026254
246	0xbd6c47df	-0.05768573
247	0x3d65f6bc	0.056143507
248	0xbcf4b20b	-0.029870054
249	0xbe204832	-0.1565254
250	0xbdd29096	-0.10281484
251	0x3abaf4d2	0.0014263636
252	0x3c9bdd07	0.019026292
253	0x3dde07f2	0.10841359
254	0xbdbe9419	-0.09305591
255	0x3dea49d8	0.11439866

gru.bias_ih_l0 f4 [375]
0	0x3d4b2789	0.04959825
1	0x3d55fe5a	0.05224452
2	0x3c08114b	0.008304904
3	0x3c5b8811	0.01339914
4	0x3d4c343f	0.049854513
5	0x3dc7b2ea	0.09750922
6	0xbe34ca89	-0.17655386
7	0x3e0c7b83	0.13718991
8	0xbc624b24	-0.01381186
9	0xbe353f4d	-0.17699929
10	0x3dfdf1ca	0.12399633
11	0xbe845250	-0.2584405
12	0xbd26e044	-0.04074122
13	0xbdd3b058	-0.10336369
14	0x3dbc0c39	0.09182019
15	0x3ddee228	0.1088298
16	0x3de3e124	0.111269265
17	0xbda51d34	-0.08062211
18	0xbcd4d5fe	-0.025980946
19	0x3c520522	0.012818607
20	0xbcc5386b	-0.024074754
21	0x3dabdd93	0.08391871
22	0x3cd82618	0.026385352
23	0x3d1c00a8	0.038086563
24	0xbdf80ab4	-0.121114165
25	0x3e4699c1	0.1939459
26	0xbbc24862	-0.005929039
27	0xbd910217	-0.07080477
28	0xbd210d8d	-0.039319564
29	0xbdb86f42	-0.09005596
30	0xbcb85ab8	-0.022504196
31	0xbd6d4b18	-0.057932943
32	0xbda101e8	-0.07861692
33	0x3da5dac6	0.08098368
34	0x3e02e387	0.12782107
35	0xbc88eeaa	-0.016715366
36	0xbd918c09	-0.07106788
37	0x3dcb4337	0.099249296
38	0x3dda1bd9	0.10649843
39	0x3db2fc88	0.08739573
40	0x3ca51149	0.020149844
41	0x3d744eb0	0.059645355
42	0x3daefeba	0.08544679
43	0x3d35e0bd	0.04440378
44	0x3d85f428	0.0654071
45	0x3d235e30	0.039884746
46	0xbdf016d8	-0.11723107
47	0xbda2d0b7	-0.079499654
48	0x3e0770a9	0.1322657
49	0xbd298b7d	-0.041392792
50	0xbd90374f	-0.07041799
51	0xbd67cb4a	-0.056590356
52	0xbd1620ba	-0.036652304
53	0x3c83c5d2	0.016085539
54	0x3d65e3ed	0.05612557
55	0xbd935cf8	-0.07195467
56	0x3cbfc2a7	0.023408247
57	0x3bbbcedf	0.005731448
58	0x3d553e27	0.052061226
59	0x3dc50627	0.09620314
60	0x3da0c2c3	0.07849648
61	0xbe0861ae	-0.13318512
62	0x3dfc0fbb	0.12307688
63	0xbd3c6787	-0.04599717
64	0xbd939bac	-0.072074264
65	0xbdd2f26a	-0.10300143
66	0x3c0a164f	0.00842817
67	0xbbb2dde5	-0.005458581
68	0xbe48ce4c	-0.19609946
69	0x3d955c28	0.07292968
70	0xbcc17ea3	-0.023619955
71	0xbda67ab3	-0.08128872
72	0xbd0acfe6	-0.033889674
73	0xbd1b57a0	-0.037925363
74	0xbe247d3c	-0.16063398
75	0xbe3745ee	-0.1789777
76	0xbcc87bad	-0.024473036
77	0xbb9ee1b8	-0.004848685
78	0xbd4e4da8	-0.050367028
79	0x3bb8fce5	0.0056453818
80	0x3d97c339	0.07410283
81	0x3c4b9a45	0.012426917
82	0xbcda9dd0	-0.026686579
83	0x3cd8812e	0.026428785
84	0x3ccc04a5	0.024904558
85	0xbc48146f	-0.012211903
86	0x3ce11042	0.027473573
87	0xbc954c5e	-0.018224891
88	0x3d8765dc	0.06611225
89	0xbd28b8eb	-0.041191977
90	0x3df46795	0.11933819
91	0xbda8c4c0	-0.08240652
92	0xbe26020b	-0.16211717
93	0xbc9af5d9	-0.018916057
94	0xbd19fdc1	-0.037595514
95	0xbab00076	-0.0013427872
96	0x3d856d92	0.065150395
97	0x3de4c532	0.111704245
98	0x3daf5692	0.08561434
99	0x3cedc245	0.029023299
100	0xbd7e4efa	-0.062087037
101	0xbca6afda	-0.020347524
102	0x3c1cf320	0.00957945
103	0xbdf60c65	-0.12014083
104	0xbc7cb98a	-0.015425095
105	0xbc8a457d	-0.016878838
106	0x3d35634a	0.044284143
107	0xbd27f068	-0.041000754
108	0x3e044b4c	0.12919348
109	0x3da59f98	0.08087081
110	0x3cb0dccc	0.02158966
111	0x3de479da	0.11156054
112	0x3d74a003	0.05972291
113	0xbe3f06ce	-0.1865494
114	0x3deaa6d5	0.11457602
115	0xbdca960f	-0.09891903
116	0xbc851813	-0.016246831
117	0xbe36a738	-0.17837226
118	0x3c75e32b	0.015007774
119	0xbdaeb7a5	-0.08531121
120	0xbd906c0d	-0.07051859
121	0x3dcbb9c7	0.099475436
122	0xbd49d947	-0.049279477
123	0xbe1b0db0	-0.1514194
124	0x3ced94dc	0.029001646
125	0x3e054f43	0.13018517
126	0x3dcd5a3a	0.10026975
127	0xbde34873	-0.11097803
128	0xbcdf826b	-0.027283868
129	0x3df25797	0.11833113
130	0xbd836d1b	-0.064172946
131	0x3dc8e8f7	0.098100595
132	0x3ddf9556	0.109171554
133	0x3df88311	0.12134374
134	0x3d78320a	0.060594596
135	0x3ce4490a	0.027866859
136	0xbd85df80	-0.0653677
137	0x3dbd763d	0.09251068
138	0xbc59d281	-0.013294817
139	0x3b0a0da6	0.0021065264
140	0x3c8349b0	0.016026348
141	0xbc8d9ee4	-0.017287679
142	0x3d181506	0.037129425
143	0x3d9b91f7	0.075962
144	0x3e190e35	0.14946826
145	0x3d9ed0f3	0.07754698
146	0x3e7eba87	0.24875842
147	0xbd8df86d	-0.06932149
148	0x3e361bce	0.17784044
149	0x3e028735	0.1274689
150	0x3d4df872	0.050285764
151	0x3dafd2cd	0.08585129
152	0xbcb3ccd7	-0.021948261
153	0x3df4da7b	0.11955734
154	0x3e162bfe	0.14665219
155	0x3d7f2eaa	0.06230036
156	0xbc0481a8	-0.008087553
157	0x3d096dc2	0.03355194
158	0x3e0b26ae	0.13588974
159	0x3d4d71d0	0.05015737
160	0x3bc5518b	0.0060216836
161	0x3d6f708e	0.05845695
162	0xbd426fe3	-0.047469985
163	0x3d53d354	0.05171521
164	0x3c1f716e	0.009731634
165	0xbcb822cb	-0.022477528
166	0x3db8e2ff	0.09027671
167	0x3e073c4e	0.13206598
168	0x3d10af5e	0.035323493
169	0xbc172d32	-0.009227084
170	0xbddbe89f	-0.10737728
171	0x3e591e7a	0.21203032
172	0x3e2155aa	0.15755334
173	0x3da913f8	0.08255762
174	0xbdd57801	-0.104232796
175	0x3cc5a2d3	0.024125492
176	0x3e350db9	0.17681016
177	0x3e9f8f48	0.31164002
178	0xbc244df3	-0.01002835
179	0xbde9baf8	-0.114126146
180	0xbd7fb8b0	-0.06243199
181	0x3d86684d	0.065628625
182	0x3d944a02	0.07240678
183	0x3daed648	0.08536965
184	0x3e0b8866	0.1362625
185	0x3e6f2de1	0.23357345
186	0x3e113860	0.14181662
187	0xbdbbf871	-0.09178246
188	0x3d7d822e	0.061891727
189	0x3b8e15ef	0.004336111
190	0x3d845159	0.06460828
191	0x3edf301c	0.43591392
192	0xbdf398a0	-0.11894345
193	0xba73daec	-0.0009302336
194	0xbd9a72f0	-0.07541454
195	0x3d205460	0.039142966
196	0x3dbca145	0.09210447
197	0x3c8c725d	0.017144376
198	0x3dc0b97f	0.094103806
199	0xbc961dbf	-0.01832473
200	0xbd806261	-0.06268764
201	0x3c8cf4f5	0.017206648
202	0x3e57722c	0.21039647
203	0x3d9cb08b	0.076508604
204	0xbc961106	-0.018318664
205	0x3c90bee1	0.017669143
206	0x3e15e05b	0.14636366
207	0x3d60b920	0.05486405
208	0x3dbd5821	0.09245325
209	0xbe3e4b62	-0.18583444
210	0x3dbe2843	0.09285023
211	0x3d1dd2f0	0.038531244
212	0x3dbfd100	0.093660355
213	0x3de075b9	0.10959954
214	0xbd9ba5de	-0.07599996
215	0x3cdca510	0.026934177
216	0x3e05f423	0.13081412
217	0x3da5bf02	0.080930725
218	0xbc5f615f	-0.013634055
219	0x3d107b9f	0.035274144
220	0x3d8a69b6	0.06758444
221	0x3e36305c	0.17791885
222	0x3dc019f7	0.093799524
223	0x3d8c651c	0.068552226
224	0x3e2bec94	0.16789466
225	0xbe033fd8	-0.12817323
226	0x3e074bf2	0.13212565
227	0x3d8c9bb5	0.06865636
228	0xbda8fc56	-0.08251254
229	0x3dae783a	0.08519025
230	0x3e571059	0.2100233
231	0xbcc9e1ca	-0.024643797
232	0x3e4a75be	0.19771478
233	0x3d8c799c	0.06859133
234	0x3d781859	0.060570095
235	0x3e0e1b1f	0.13877533
236	0x3d3a81d9	0.04553399
237	0xbc9086eb	-0.017642459
238	0x3e02ff83	0.12792782
239	0x3e356eb2	0.17718008
240	0x3e376c17	0.17912327
241	0x3d995e10	0.07488644
242	0x3e450529	0.1924025
243	0xbd217572	-0.039418645
244	0x3d815477	0.063149385
245	0x3e19ef95	0.150328
246	0x3dce64d5	0.10077826
247	0xbd1a3694	-0.037649706
248	0x3e5009b3	0.203162
249	0x3e5cc10e	0.2155802
250	0xbca0c62f	-0.019625751
251	0xbd850a81	-0.06496144
252	0x3e24e511	0.16103007
253	0x3e064061	0.13110496
254	0x3e6c75a1	0.23091747
255	0xbe7a499e	-0.24442145

gru.bias_hh_l0 f4 [375]
0	0x3e3cb260	0.1842742
1	0xbc6e024c	-0.014526915
2	0xbc5d6be0	-0.013514489
3	0x3df1e36f	0.11810958
4	0x3d1befd9	0.038070533
5	0x3d6f6430	0.058445156
6	0xbd834d0c	-0.0641118
7	0x3dcc82ec	0.09985909
8	0xbe07d7df	-0.13265942
9	0xbe499441	-0.1968546
10	0x3d586f1d	0.05284034
11	0xbe7cbaa3	-0.24680571
12	0x3c28d0af	0.01030366
13	0xbca5481b	-0.020175984
14	0x3d8cca27	0.06874495
15	0x3d7229ab	0.05912177
16	0x3e2e593a	0.17026225
17	0xbe0f2e48	-0.13982499
18	0x3d8b6c28	0.068077385
19	0xbd684f18	-0.056716055
20	0xbdd543a6	-0.104132935
21	0xbd4049da	-0.04694543
22	0x3d883e48	0.06652504
23	0xbdd4c589	-0.10389239
24	0x3d1d03c3	0.038333666
25	0x3e44485a	0.19168225
26	0xbd58f8ef	-0.052971777
27	0xbdb2c41a	-0.0872881
28	0xbd8c9e97	-0.06866186
29	0xbcad1697	-0.021128936
30	0xbc308ac4	-0.010775272
31	0xbc0a2be9	-0.008433321
32	0xbd5902dc	-0.052981243
33	0x3d203ef9	0.039122555
34	0xbbdd2bc9	-0.0067496044
35	0xbd3628d1	-0.04447252
36	0xbd1dc02c	-0.038513348
37	0xbce033f9	-0.027368532
38	0x3c9d2393	0.019182002
39	0x3bc52668	0.0060165413
40	0x3d248586	0.0401664
41	0x3dcc44c6	0.09974055
42	0x3c0a65c2	0.0084471125
43	0x3de202fc	0.110357255
44	0x3a878c05	0.0010341412
45	0x3d54ff62	0.052001365
46	0xbdad5cea	-0.084649876
47	0xbd5f5faa	-0.05453459
48	0x3d982d5e	0.07430528
49	0xbd4ab631	-0.049490158
50	0x3dc115c2	0.09427978
51	0xbd828d71	-0.06374634
52	0xbd35d4f2	-0.044392534
53	0xbde01cbb	-0.1094298
54	0x3c5337ee	0.012891753
55	0xbca1c3ac	-0.019746624
56	0x3c23048a	0.009949813
57	0xbc9bb6ad	-0.019008005
58	0x3de1197a	0.109911874
59	0x3d1fadfc	0.038984284
60	0x3d1c47df	0.03815448
61	0xbe490244	-0.1962977
62	0x3dba0012	0.09082045
63	0x3c9a8941	0.018864276
64	0xbd7e1805	-0.062034626
65	0xbd467839	-0.048454497
66	0x3d38020a	0.04492382
67	0xbdf4f014	-0.11959854
68	0xbd939c3c	-0.07207534
69	0x3cdc0879	0.026859509
70	0x3dcb4130	0.09924543
71	0xbb2165ea	-0.0024627396
72	0x3e042cd5	0.12907727
73	0xbd8f89b3	-0.07008686
74	0xbbda2162	-0.0066568116
75	0xbd97f377	-0.07419484
76	0xbcc941e8	-0.02456756
77	0xbd8fbb4e	-0.070181474
78	0xbde203ff	-0.110359184
79	0x3cfbec2d	0.030752266
80	0x3df2d1a3	0.11856391
81	0xbdf5494c	-0.11976871
82	0x3d823fee	0.0635985
83	0x3d303cea	0.043026842
84	0xbcace460	-0.021104991
85	0x3aafbcba	0.0013407685
86	0x3d21381d	0.039360154
87	0xbdbc0a58	-0.091816604
88	0x3d7919ed	0.06081574
89	0xbc87fc78	-0.016599879
90	0x3d381790	0.044944346
91	0xbd05ead4	-0.032694653
92	0xbdedf283	-0.11618521
93	0xbdb33d35	-0.08751909
94	0xbc5290d1	-0.01285191
95	0x3b07d843	0.0020728267
96	0x3d7461e3	0.059663665
97	0x3bb3ce39	0.00548723
98	0xbd5fab1e	-0.05460655
99	0xbcf9e21d	-0.030503327
100	0xbd7f402d	-0.062317062
101	0x3d35f2a1	0.044420842
102	0x3e15d470	0.1463182
103	0xbe092f55	-0.13396962
104	0x3d9c2711	0.07624639
105	0xbd647770	-0.055777967
106	0x3da3d63a	0.07999845
107	0xbde9643d	-0.11396072
108	0xbd04e006	-0.032440208
109	0xba1b6b68	-0.00059287855
110	0x3e0ec78c	0.13943309
111	0x3d2525ac	0.04031913
112	0xbd76c32d	-0.060244728
113	0xbe659ec5	-0.22423847
114	0x3d6499c2	0.055810697
115	0xbe0c6342	-0.13709739
116	0xbcc93de7	-0.02456565
117	0xbde87a79	-0.11351485
118	0x3dd357b6	0.10319464
119	0x3cf384a6	0.029726338
120	0xbdffb08a	-0.12484844
121	0x3cd49d77	0.025953991
122	0x3d660266	0.05615463
123	0xbe300ec4	-0.17193133
124	0x3d21b9be	0.03948378
125	0x3de64352	0.11243309
126	0x3e2e8ddc	0.17046303
127	0xbda22f88	-0.07919222
128	0x3c8c915c	0.017159157
129	0x3e39754d	0.18111153
130	0xbdb7100b	-0.08938607
131	0xbd54422d	-0.051820923
132	0xbd1d4f52	-0.038405724
133	0x3d910ad3	0.07082143
134	0x3e06d079	0.13165464
135	0x3d17ba83	0.037043106
136	0xbdb149da	-0.08656664
137	0x3c95b2e5	0.01827378
138	0x3e1300b8	0.14355743
139	0x3e165794	0.14681846
140	0x3e10a580	0.14125633
141	0xbcb5fa57	-0.022214098
142	0x3de4911f	0.11160492
143	0x3e1d431d	0.15357633
144	0x3dc0e2e1	0.09418274
145	0x3cabdfd5	0.020980755
146	0x3e3e2ae0	0.18571043
147	0xbc7b0cc4	-0.015322868
148	0x3e3ff92d	0.18747397
149	0x3d787205	0.060655612
150	0x3e581b44	0.21104151
151	0x3e0c3cb8	0.13695037
152	0x3d656f99	0.05601463
153	0x3da8a7d4	0.08235136
154	0x3e1ccc04	0.15312201
155	0x3d8e9c93	0.06963458
156	0xbd908bbd	-0.07057903
157	0x3dc5b401	0.09653474
158	0x3d6bffae	0.057616882
159	0x3d667710	0.05626589
160	0xbd4f29ca	-0.050576963
161	0x3e1d4698	0.1535896
162	0x3de171f4	0.11008063
163	0x3c61534f	0.0137527725
164	0xbd5bcefa	-0.053664185
165	0xbdcfb3ed	-0.1014174
166	0xbb1dcfbc	-0.0024080118
167	0x3e26f0d9	0.16302814
168	0x3e07f1e4	0.13275868
169	0xbe078d92	-0.13237599
170	0xbe83a3ee	-0.25711006
171	0x3da87177	0.08224767
172	0x3da492b6	0.080357954
173	0x3dcd4c62	0.100243345
174	0xbd2cf738	-0.042227954
175	0x3c1f387c	0.009718057
176	0x3e2476fa	0.16061011
177	0x3e9add29	0.30246857
178	0x3e193aad	0.1496379
179	0xbd20c34c	-0.03924875
180	0x3b99745a	0.0046830596
181	0x3d100c13	0.035167765
182	0x3d565b51	0.05233318
183	0x3e09a49e	0.13441703
184	0x3b870ac0	0.0041211545
185	0x3e50ac12	0.2037814
186	0x3c95c129	0.018280583
187	0xbd754762	-0.05988253
188	0xbd778030	-0.060424984
189	0x3e101e3c	0.14074033
190	0x3b1aed6e	0.0023640054
191	0x3ed99727	0.42498133
192	0xbe2136f7	-0.15743624
193	0x3e0d93c6	0.13825902
194	0xbe6f7a1a	-0.23386422
195	0x3bfbf184	0.007688703
196	0x3e5c18c2	0.2149382
197	0x3da90ab3	0.08253994
198	0x3dd1189d	0.10209773
199	0xbcff2d72	-0.0311496
200	0x3d4bdde3	0.049772155
201	0x3d378dde	0.04481303
202	0x3dc3b98a	0.09556873
203	0x3cf43b20	0.02981335
204	0xbd10094c	-0.035165116
205	0xbca1a5c8	-0.019732371
206	0x3e084aa3	0.13309722
207	0x3d7f28ed	0.06229489
208	0x3e05e794	0.13076621
209	0xbe945106	-0.28968066
210	0x3e153fcc	0.14575118
211	0x3d89598f	0.06706535
212	0x3b621838	0.0034499299
213	0x3e149055	0.14508183
214	0xbe0e5f12	-0.13903454
215	0xbd7d2775	-0.061805207
216	0x3e532437	0.20619284
217	0x3e60f150	0.21967053
218	0x3d6c96ef	0.05776113
219	0x3dd0b0a7	0.10189944
220	0xbd5b13dd	-0.05348574
221	0x3dc98b6c	0.09841046
222	0x3e3e9847	0.18612777
223	0x3dce74bb	0.10080858
224	0x3e1175f8	0.14205158
225	0xbd98af74	-0.0745534
226	0x3da42f72	0.08016862
227	0x3d174b29	0.036936913
228	0xbdcd726e	-0.10031591
229	0x3d932b4b	0.07185992
230	0x3e2e8c74	0.17045766
231	0x3dd8b9c9	0.10582311
232	0x3e1e04c0	0.154315
233	0x3d5a752c	0.0533344
234	0x3da5b25d	0.08090661
235	0xbca53d63	-0.020170873
236	0x3d049665	0.03236999
237	0x3d55c3ef	0.05218881
238	0xbd28481a	-0.041084386
239	0x3de77554	0.113016754
240	0x3e1ca31a	0.15296593
241	0x3bdecb97	0.006799172
242	0x3df49cad	0.11943946
243	0x3d921234	0.07132378
244	0x3dcb24b8	0.09919113
245	0x3dc6d68d	0.09708891
246	0x3e23a808	0.15982068
247	0xbd3ba1b8	-0.045808524
248	0x3dc9f789	0.09861667
249	0x3e929ab8	0.28633666
250	0x3c13c39c	0.009018805
251	0xbdf906ff	-0.121595375
252	0x3e311c61	0.17295982
253	0x3e791d0f	0.24327491
254	0x3e2b474d	0.16726418
255	0xbe7eb1fd	-0.24872585

gru.weight_ih_l1 f4 [375, 125]
0	0x3e0e0dc7	0.13872443
1	0xbd7a916c	-0.06117384
2	0x3c4265dc	0.0118651055
3	0xbd87987e	-0.066208825
4	0xbd5c7087	-0.053818252
5	0xbc80dc45	-0.015730033
6	0x3e464457	0.19362007
7	0x3c57118c	0.013126742
8	0x3d441be4	0.04787816
9	0x3cbd9d2d	0.023146236
10	0x3d28954c	0.041158006
11	0xbc0c0a85	-0.00854743
12	0x3cd6cf52	0.026221905
13	0xbc1137af	-0.008863374
14	0x3d00016d	0.03125136
15	0xbdb12b34	-0.086508185
16	0xbdc7f282	-0.097630516
17	0xbdc1c630	-0.094616294
18	0xbd2404ea	-0.04004375
19	0xbe1d2fd2	-0.15350273
20	0xbdfe6212	-0.12421049
21	0xbcfc8254	-0.030823864
22	0x3d26f70f	0.040762957
23	0x3e00e97c	0.12589067
24	0xbcc8eda5	-0.02452738
25	0x3d3a65bd	0.04550718
26	0x3dff0c11	0.12453473
27	0x3d951779	0.07279868
28	0xbd807f8b	-0.06274327
29	0x3e0a671e	0.13515899
30	0x3d6d64fe	0.05795764
31	0xbdfb9269	-0.12283785
32	0x3b89d37a	0.004206118
33	0x3d7bea4d	0.061502744
34	0xbd8fa6bf	-0.07014226
35	0xbd24e4ad	-0.040257145
36	0x3d9e17e5	0.07719401
37	0x3d42521d	0.04744159
38	0xbdca3d1e	-0.098749384
39	0x3c432081	0.011909605
40	0x3d5e03fe	0.054203026
41	0x3cbc27cc	0.022968195
42	0xbdd7f377	-0.10544484
43	0x3c8e6848	0.01738371
44	0xbd77f1f1	-0.060533468
45	0x3d86c7bd	0.06581066
46	0x3d021d5b	0.031766277
47	0xbba1437b	-0.0049213744
48	0x3dd34af1	0.10317028
49	0x3d967af8	0.07347673
50	0x3de45433	0.11148872
51	0x3c610fa1	0.013736636
52	0xbc666b35	-0.014063646
53	0xbb4a763e	-0.0030893232
54	0xbc4e1f8a	-0.012580762
55	0xbd24c4b7	-0.040226664
56	0x3daae0e9	0.083436795
57	0x3c8dbf9b	0.017303279
58	0x3d2f01b3	0.04272623
59	0x3d829dd5	0.0637776
60	0xbb6ed17a	-0.0036440776
61	0xbd9823a6	-0.074286744
62	0xbdb024f3	-0.086007975
63	0x3d8feae6	0.07027225
64	0xbd8d0b06	-0.06886868
65	0x3cc07243	0.023491984
66	0x3da1836f	0.07886397
67	0x3d15ba72	0.03655476
68	0xbde74547	-0.112925105
69	0xbc4b8bed	-0.012423498
70	0x3e43ff19	0.19140281
71	0xbe1e9185	-0.15485199
72	0xbd478ba7	-0.048717167
73	0x3c091f08	0.008369215
74	0x3dcb47a2	0.09925772
75	0x3dc6697c	0.09688088
76	0x3d55648b	0.05209784
77	0xbda8fe4e	-0.0825163
78	0x3dba6d69	0.091028996
79	0x3e1780b6	0.14795193
80	0xbd0969ea	-0.033548273
81	0xbcbcd071	-0.023048611
82	0x3e06d874	0.13168508
83	0x3d90ae54	0.070645005
84	0xbce1972e	-0.027537908
85	0x3d1d6555	0.038426716
86	0x3d2c2e00	0.042036057
87	0x3dddf310	0.10837376
88	0xbc73ca55	-0.014879783
89	0xbb3f0fa4	-0.002915361
90	0x3c9d9f21	0.019240918
91	0x3d6062c0	0.054781675
92	0xbdd31a42	-0.10307743
93	0x3cf61208	0.030037895
94	0x3d6d0ffc	0.057876572
95	0xbc3fb091	-0.011699812
96	0x3ce4a439	0.027910339
97	0x3e00e19a	0.1258606
98	0xbcf54acf	-0.029942898
99	0xbdc38a1b	-0.09547826
100	0x3d913495	0.07090107
101	0x3da9aa62	0.08284451
102	0x3cf31082	0.029670957
103	0xbc8c4b1f	-0.017125664
104	0xbd9e107f	-0.0771799
105	0xbd93dbe6	-0.07219677
106	0xbbda0988	-0.0066539682
107	0x3c3d60c3	0.011558714
108	0x3cc311c0	0.023812175
109	0x3d2d95ba	0.04237912
110	0xbd929d6c	-0.07158932
111	0x3d70923e	0.058733217
112	0x3dc753b0	0.09732759
113	0x3b84daf1	0.00405442
114	0xbdb90f99	-0.09036178
115	0x3d62d0d5	0.05537494
116	0xbd993b87	-0.07482057
117	0x3d381797	0.044944372
118	0xbbd50cc4	-0.006501766
119	0xbde959f5	-0.11394111
120	0x3da81071	0.08206261
121	0xbdba270d	-0.090894796
122	0xbd55f524	-0.052235737
123	0x3dccf044	0.100067645
124	0xbd22d630	-0.039755046
125	0xbcb70f4c	-0.022346161
126	0xbd932fd3	-0.07186856
127	0x3e446072	0.19177416
128	0x3cb6c3fc	0.02231025
129	0xbd33377f	-0.043754097
130	0xbe2ff967	-0.17184983
131	0xbe09aa44	-0.13443857
132	0xbc167be5	-0.009184812
133	0x3d311f01	0.04324246
134	0x3cc1a1e8	0.023636773
135	0xbd29fa3b	-0.041498404
136	0x3c752e59	0.014964663
137	0x3e06552c	0.13118428
138	0xbd9653c4	-0.07340196
139	0xbd16a589	-0.03677896
140	0xbe043697	-0.1291145
141	0xbd2c2fd7	-0.04203781
142	0x3c312e70	0.010814294
143	0x3db346e2	0.08753754
144	0x3c98643c	0.018602483
145	0x3dcc7918	0.09984034
146	0xbcf99622	-0.030467097
147	0xbd7ec20e	-0.062196784
148	0x3d54597f	0.051843163
149	0xbe254770	-0.16140532
150	0x3d0f1db6	0.034940444
151	0xbd700608	-0.0585995
152	0xbe22c5e6	-0.15895805
153	0x3d8843cf	0.066535585
154	0x3e43779d	0.19088598
155	0xbddeb71f	-0.10874771
156	0xbce08684	-0.027407892
157	0x3dd70df0	0.10500705
158	0xbd1cf149	-0.038316045
159	0xbde5175e	-0.111860976
160	0xbe5e20a8	-0.21692145
161	0x3d5b16fb	0.053488713
162	0xbb1f1cfa	-0.0024278746
163	0xbcbcb6b8	-0.023036346
164	0x3d77aa42	0.060465105
165	0x3b14714d	0.002265054
166	0xbcafdfa0	-0.021468937
167	0xbc11ac68	-0.0088912025
168	0xbbb6e539	-0.0055815247
169	0x3c4c30d5	0.012462814
170	0x3e19312c	0.14960164
171	0x3d421537	0.047383513
172	0x3b5aa984	0.00333652
173	0x3e449bb1	0.19200017
174	0x3ca21220	0.019784033
175	0x3de8dcaf	0.11370217
176	0xbda11f5f	-0.07867312
177	0xbd821ff3	-0.0635375
178	0xbd25c63d	-0.040472258
179	0xbe54adaa	-0.20769373
180	0x3a87d7cd	0.0010363996
181	0x3d8941a4	0.06701973
182	0xbdc3f2de	-0.095678076
183	0xbda9e232	-0.082950965
184	0x3d82d9fd	0.06389234
185	0xbc9133a3	-0.017724818
186	0xbd2fa79f	-0.042884465
187	0x3d1b663d	0.0379393
188	0xbe0373ea	-0.12837186
189	0xbe18b45a	-0.14912549
190	0xbd003f94	-0.031310633
191	0xbd0d4965	-0.034493823
192	0xbbd7a10b	-0.006580477
193	0x3cfe826b	0.031068048
194	0x3e1f898a	0.1557981
195	0x3bd45448	0.0064797737
196	0x3d925f33	0.07147064
197	0xbd9867b8	-0.07441658
198	0xbdcd1f5e	-0.100157484
199	0xbe42a0ee	-0.19006702
200	0xbd058220	-0.0325948
201	0xbd3376aa	-0.04381434
202	0x3cf43262	0.02980918
203	0xbdf7b67f	-0.12095355
204	0x3c639db2	0.013892578
205	0x3e25e08a	0.16198936
206	0x3da42a23	0.080158494
207	0x3d2db23f	0.042406317
208	0x3d320700	0.043463707
209	0xbdbb39b3	-0.09141865
210	0xbe010a0e	-0.12601492
211	0x3d6717af	0.05641907
212	0x3e4c0d57	0.19926964
213	0x3d3ecc52	0.046581574
214	0xbd019031	-0.031631652
215	0xbd005aab	-0.031336468
216	0xbda17f38	-0.07885593
217	0x3c16465a	0.009172047
218	0x3e2036b9	0.15645875
219	0xbe47981b	-0.19491617
220	0xbb6f8ccb	-0.0036552425
221	0xbc2243b0	-0.009903833
222	0xbd2db05a	-0.04240451
223	0xbcef9c80	-0.02924943
224	0x3ceea408	0.02913095
225	0x3e1c44e6	0.15260658
226	0xbd2802ed	-0.041018415
227	0xbe07d723	-0.13265662
228	0xbc7d7aa9	-0.015471139
229	0x3dffadb9	0.12484307
230	0xbda02a29	-0.078205414
231	0x3c2b7c2a	0.010466615
232	0xbcc27430	-0.023737043
233	0x3d3d700f	0.046249446
234	0x3dc335e0	0.0953176
235	0xbd832c84	-0.06404975
236	0x3cdaee14	0.026724853
237	0xbd1b6f06	-0.037947677
238	0x3d289468	0.041157156
239	0xbd21caf6	-0.0395002
240	0xbe2e0c79	-0.16996945
241	0x3dcf666c	0.10126957
242	0x3ccd1091	0.025032314
243	0xbb2f0405	-0.0026705277
244	0x3d64c918	0.05585584
245	0xbc101b0c	-0.008795511
246	0x3dbc9165	0.09207419
247	0xbdcf4bf1	-0.101219065
248	0xbc537ba4	-0.012907896
249	0xbca1ff57	-0.019775076
250	0x3e8829ba	0.26594335
251	0x3d985feb	0.0744017
252	0xbe254bec	-0.16142243
253	0xbd680166	-0.05664196
254	0xbe271637	-0.16317068
255	0xbdbe8d6a	-0.09304316

gru.weight_hh_l1 f4 [375, 125]
0	0xbd9bb076	-0.07602017
1	0xbdeae276	-0.11468975
2	0xbd87d71b	-0.06632825
3	0xbe06eac2	-0.1317549
4	0xbd7c95ff	-0.061666485
5	0xbb10d4e8	-0.0022099558
6	0xbd78cb87	-0.060740974
7	0x3d09e621	0.033666734
8	0xbcd85576	-0.026407938
9	0xbd447fab	-0.047973316
10	0x3ccc0099	0.024902629
11	0x3dc3451e	0.095346674
12	0x3cfca26e	0.030839171
13	0x3df2441c	0.11829397
14	0x3c17efd9	0.009273493
15	0x3de7a1d2	0.11310162
16	0xbd9100fe	-0.07080267
17	0x3d1ea750	0.03873378
18	0x3d51e365	0.05124225
19	0xbd9d076e	-0.07667433
20	0xbde6f106	-0.1127644
21	0x3d6cb68e	0.057791285
22	0xbc314d11	-0.010821597
23	0xbcca852e	-0.024721708
24	0xbcfde16c	-0.030991279
25	0xbdadfbf7	-0.08495324
26	0xbdd026f7	-0.10163682
27	0x3e6521cc	0.22376174
28	0x3e32db42	0.17466453
29	0x3c8572b0	0.016290039
30	0xbdb3808b	-0.08764752
31	0x3c334b85	0.010943298
32	0x3dfaf721	0.12254167
33	0xbd8cbdeb	-0.068721615
34	0xbe521e77	-0.20519434
35	0xbd1761a3	-0.036958348
36	0xbe6fd1a0	-0.2341981
37	0x3df853a8	0.12125331
38	0xbe2c033b	-0.16798107
39	0x3caff8e8	0.021480992
40	0x3e2b84d2	0.16749886
41	0x3df4d524	0.11954716
42	0xbd60bb82	-0.05486632
43	0x3e35a44e	0.17738459
44	0x3e41b86e	0.1891801
45	0xbd516221	-0.051118974
46	0x3e1541b1	0.1457584
47	0x3ce738a1	0.028225245
48	0xbcc09ac4	-0.023511298
49	0xbd97ae8d	-0.0740634
50	0x3e14f8a5	0.14547975
51	0x3e130e81	0.14361002
52	0xbe3dcf04	-0.18536001
53	0x3c82cb73	0.015966153
54	0x3e623e98	0.2209419
55	0xbdbff2e8	-0.093725026
56	0x3e0fb829	0.14035095
57	0x3dd73d5a	0.10509749
58	0x3e31af68	0.17352068
59	0x3e5df8f1	0.21676995
60	0xbdeafba9	-0.114737816
61	0x3c8a737b	0.016900769
62	0x3dafe78f	0.08589088
63	0x3de17e00	0.11010361
64	0xbd79f386	-0.061023258
65	0xbe47648b	-0.19471948
66	0x3d90f897	0.07078665
67	0x3d678dd4	0.056531742
68	0x3dd70a59	0.105000205
69	0x3d80dcbc	0.06292102
70	0x3cc4f9f4	0.024044968
71	0xbe244bee	-0.1604459
72	0x3d38c442	0.04510904
73	0xbda92bd1	-0.082603104
74	0xbd494a8f	-0.04914337
75	0xbd6f339e	-0.058398835
76	0x3e2694e0	0.16267729
77	0x3e13b160	0.14423132
78	0x3d11aaed	0.0355634
79	0x3d74bb16	0.05974873
80	0xbe3e6efe	-0.18597028
81	0xbd630a37	-0.055429664
82	0x3e4f2ab7	0.20231138
83	0xbd4264f7	-0.04745957
84	0xbd65dfcb	-0.05612163
85	0xbda5830b	-0.08081635
86	0x3a8e7cb6	0.0010870907
87	0x3d9300e6	0.07177906
88	0x3cebe3bc	0.028795116
89	0xbcc7395f	-0.024319349
90	0x3d9f9405	0.07791904
91	0xbd83dfe5	-0.06439189
92	0xbdd0f8b7	-0.102036886
93	0xbd49f922	-0.049309857
94	0x3ca52038	0.020156965
95	0x3c4a7cec	0.012358885
96	0xbda10ad1	-0.07863391
97	0xbcdc56dc	-0.026896887
98	0xbe4fd15a	-0.20294705
99	0xbe1d9054	-0.15387088
100	0xbe1c2638	-0.15248954
101	0x3ce5a2a2	0.02803165
102	0xbc336b04	-0.0109508075
103	0xbde60868	-0.11232072
104	0x3e12d584	0.14339262
105	0x3e326a29	0.1742331
106	0xbc3879f8	-0.011259548
107	0x3dd49cb5	0.10381452
108	0x3e397d27	0.18114148
109	0x3d54f305	0.051989574
110	0xb9c7e057	-0.00038123384
111	0x3e0ec8c7	0.13943778
112	0x3e0de8ea	0.13858381
113	0xbe27bff8	-0.16381824
114	0x3e265194	0.16242057
115	0xbd831e08	-0.064022124
116	0xbd7bb487	-0.06145146
117	0x3df88471	0.12134636
118	0x3de39787	0.11112886
119	0xbdd25083	-0.10269263
120	0xbd7e43fc	-0.062076554
121	0x3e26e8e7	0.16299783
122	0xbd6bb839	-0.057548735
123	0xbe1eda6d	-0.1551301
124	0x3dbe29ea	0.09285338
125	0xbc7f3c8b	-0.015578399
126	0x3d48bd59	0.0490087
127	0x3cdf4c14	0.027257957
128	0xbdcab8da	-0.09898539
129	0x3c7f5884	0.015585069
130	0xbdde0e49	-0.108425684
131	0xbd8f657a	-0.07001777
132	0xbd2de0c9	-0.0424507
133	0xbd2d559a	-0.042317964
134	0x3c70e4d6	0.014702996
135	0xbe35ff9f	-0.17773293
136	0x3c8e0a97	0.017339034
137	0xbbc47d6a	-0.005996396
138	0x3d14968e	0.036276393
139	0x3e0424b6	0.12904629
140	0x3bdf6250	0.0068171397
141	0x3dc29c56	0.09502475
142	0x3b4b0889	0.003098043
143	0xbe396ae4	-0.18107182
144	0xbd6b7c7f	-0.057491776
145	0xbd562363	-0.05227984
146	0x3dd6af20	0.10482621
147	0xba2d853e	-0.0006619281
148	0xbde228e0	-0.110429525
149	0x3d9c0959	0.076189704
150	0xbdda22bc	-0.10651156
151	0xbd9d5571	-0.07682312
152	0xbd424ac6	-0.04743459
153	0x3d5a6a06	0.053323768
154	0xbd81d429	-0.063392945
155	0xbda8b94c	-0.082384676
156	0x3da935f1	0.08262242
157	0x3cea2126	0.02858026
158	0x3dcf7e34	0.10131493
159	0x3d9ce2fc	0.07660481
160	0xbd0a7486	-0.03380253
161	0x3c7563c4	0.014977399
162	0xbd935bed	-0.07195268
163	0xbd964ba6	-0.073386475
164	0xbda9a0c9	-0.082826205
165	0x3d49baab	0.049250286
166	0x3d8abbf4	0.067741305
167	0xbd5598b5	-0.052147586
168	0xbcbc3c8d	-0.022978092
169	0xbd36527e	-0.044512264
170	0xbe1a89d9	-0.15091647
171	0x3d2d5721	0.04231942
172	0xbdb36eab	-0.087613426
173	0xbcfbb578	-0.03072618
174	0xbdfbff01	-0.123044975
175	0x3dca1320	0.09866929
176	0xbbbc5fe9	-0.005748738
177	0x3cad2cba	0.021139491
178	0x3dba4ca0	0.09096646
179	0xbd5f4116	-0.05450543
180	0xbd4f4c98	-0.050610155
181	0x3c885247	0.016640795
182	0x3ca5a5de	0.020220693
183	0xbd813de7	-0.06310635
184	0x3c0c8dab	0.008578698
185	0xbc4cb765	-0.012494897
186	0x3e0b03a8	0.13575613
187	0xbcac29eb	-0.021016082
188	0x3ddf71a8	0.1091035
189	0xbb426d86	-0.0029667332
190	0x3ce7d95f	0.028301893
191	0x3e08fe93	0.13378362
192	0x3b4a7aab	0.003089587
193	0xbdbd910f	-0.09256183
194	0xbc830673	-0.015994286
195	0x3c001797	0.007818124
196	0x3cc239a4	0.023709126
197	0x3d33e975	0.043923814
198	0xbd0b1c99	-0.03396282
199	0xbd13e6dc	-0.036108837
200	0xbdf909b1	-0.121600516
201	0x3db0650f	0.086130254
202	0xbc94924a	-0.018136162
203	0x3cb5caca	0.022191424
204	0xbe10ff98	-0.14160001
205	0x3d16f6e3	0.036856543
206	0xbd7d97ff	-0.061912533
207	0x3d9946ea	0.07484229
208	0xbdd94253	-0.106083535
209	0x3d930ac5	0.071797885
210	0xbc9c19c3	-0.019055253
211	0x3dbd2e29	0.0923732
212	0xbb0826c6	-0.0020775064
213	0x3cc23abe	0.023709651
214	0xbd4e6f0c	-0.05039887
215	0xbd88d218	-0.06680697
216	0xbe12a24a	-0.14319721
217	0xbd942c4a	-0.0723501
218	0x3cac1abf	0.021008847
219	0xbd98b8c4	-0.07457116
220	0xbcd6f930	-0.026241869
221	0xbd875953	-0.06608834
222	0xbe1366bb	-0.14394657
223	0xbc61787d	-0.013761637
224	0xbc29899d	-0.010347751
225	0xbd0ab1ca	-0.03386096
226	0xbcb17fff	-0.021667479
227	0xbe0da13c	-0.13831037
228	0xbd855b4c	-0.06511554
229	0x3d6ace15	0.05732544
230	0xbd600ed4	-0.05470164
231	0xbd5db715	-0.05412968
232	0x3e0ad412	0.13557461
233	0x3c0194e7	0.007909036
234	0x3ddca707	0.107740454
235	0xbd58d00e	-0.05293279
236	0xbd1dcd1c	-0.038525686
237	0xbc8483f0	-0.016176194
238	0x3d10a521	0.03531373
239	0x3d0ec937	0.034859862
240	0x3cca7d29	0.024717884
241	0xbdc1ea5b	-0.09468528
242	0x3d3030db	0.043015342
243	0x3d93e2ef	0.072210185
244	0x3c4a8e9a	0.0123631
245	0xbe203670	-0.15645766
246	0xbdafb46c	-0.085793346
247	0x3cbc065c	0.022952251
248	0xbd58a083	-0.05288745
249	0xbdb79523	-0.089639924
250	0xbd03285e	-0.03202092
251	0xbe4516fb	-0.19247048
252	0x3d95fd38	0.07323688
253	0x3d0e772a	0.034781612
254	0xbe37a761	-0.17934944
255	0x3be06420	0.0068478733

gru.bias_ih_l1 f4 [375]
0	0x3d934e41	0.0719266
1	0xbd6797a0	-0.056541085
2	0xbe427304	-0.18989187
3	0xbccf4dbe	-0.025305625
4	0x3dc2ca16	0.09511201
5	0xb9e5ebea	-0.00043854053
6	0x3cf436ec	0.029811345
7	0x3e3bf816	0.18356356
8	0xbd98b9da	-0.07457323
9	0x3d2de2e4	0.042452708
10	0xbdbcc59d	-0.09217379
11	0xbc259906	-0.010107284
12	0x3df96037	0.12176555
13	0xba7ee69c	-0.00097236945
14	0x3c9ac406	0.0188923
15	0x3ab7a5b9	0.0014011181
16	0xbd9162e7	-0.07098942
17	0x3df402a3	0.119145654
18	0x3d521355	0.051287968
19	0x3da1c592	0.07899012
20	0xbe28e652	-0.1649411
21	0xbdac11d4	-0.08401838
22	0xbd86862a	-0.065685585
23	0xbdc50ca9	-0.09621555
24	0x3cc8021e	0.024415072
25	0xbdefcab7	-0.11708587
26	0xbbaff1cd	-0.005369401
27	0xbd975bfe	-0.07390593
28	0x3d881e30	0.06646383
29	0xbd542815	-0.051796038
30	0x3bbf94a1	0.0058465754
31	0x3dd45768	0.10368234
32	0xbb7837d4	-0.0037875073
33	0xbdbf18f9	-0.09330935
34	0xbc224693	-0.0099045215
35	0xbd30ec80	-0.043194294
36	0x3d15884e	0.036506943
37	0x3ddee9f9	0.108844705
38	0xbda9f8f7	-0.082994394
39	0x3dc0d050	0.094147325
40	0xbd74f429	-0.05980316
41	0x3b097a7f	0.0020977554
42	0x3d4178b6	0.04723426
43	0x3c83dd30	0.016096681
44	0x3cfe4f66	0.03104372
45	0xbc9be9e2	-0.019032422
46	0x3c7b20e9	0.015327671
47	0x3d51ba8e	0.051203303
48	0x3e392634	0.1808098
49	0xbd81c984	-0.06337264
50	0xbd9e52eb	-0.07730659
51	0xbd956663	-0.07294919
52	0x3dd4ae4e	0.103848085
53	0x3d9c58b2	0.07634105
54	0x3c99f124	0.018791743
55	0x3d9c7446	0.07639365
56	0xbd814639	-0.06312222
57	0x3e68fe18	0.22753179
58	0xbd891180	-0.06692791
59	0xbcc6a46b	-0.024248322
60	0xbd3f9784	-0.046775356
61	0xbc06fd07	-0.008239037
62	0xbb2044bd	-0.0024455034
63	0xbd4f8552	-0.050664254
64	0x3e5e27f7	0.21694933
65	0xbcb13709	-0.021632688
66	0x3d6b6bdf	0.05747592
67	0x3d920ed9	0.07131738
68	0x3e04f667	0.1298462
69	0x3db222a6	0.08698015
70	0xbdd4aa07	-0.10383993
71	0xbdfa0837	-0.12208598
72	0xbe04ac7a	-0.1295642
73	0xbd025fef	-0.03182977
74	0xbda50754	-0.08058038
75	0x3e5375b0	0.20650363
76	0x3d05530b	0.0325499
77	0xbdbea996	-0.0930969
78	0x3db0ef1f	0.08639359
79	0xbdc70cce	-0.09719239
80	0x3d669b4e	0.056300454
81	0x3dfcdf98	0.123473346
82	0x3ddfa2ff	0.10919761
83	0x3ddffb05	0.1093655
84	0xbdac4c7b	-0.08413025
85	0x3d5b61b0	0.05355996
86	0x3c91b96f	0.017788617
87	0xbb0fbeee	-0.0021933871
88	0x3ce371c3	0.027764207
89	0x3e6a817b	0.22900955
90	0xbbdcb436	-0.00673535
91	0xbd4b6c9f	-0.049664136
92	0xbd653fd6	-0.05596908
93	0xbd43db69	-0.047816668
94	0x3c61de65	0.013785933
95	0x3e1bce8c	0.1521551
96	0x3b4543c4	0.0030100206
97	0x3b8e0e82	0.0043352256
98	0xbc8487ee	-0.016178098
99	0x3c190ba8	0.009341158
100	0x3d03579e	0.03206598
101	0xbdc2aab7	-0.095052175
102	0x3e077292	0.13227299
103	0xbdbcde00	-0.09222031
104	0x3c4b4528	0.012406625
105	0xbc8a52fa	-0.01688527
106	0xbc8581d7	-0.016297264
107	0xbc92f8a0	-0.01794082
108	0xbd4dcd80	-0.05024481
109	0x3da17d60	0.078852415
110	0x3d854237	0.0650677
111	0xbc372524	-0.011178289
112	0xbd1d1d4b	-0.038358014
113	0xbcb17f90	-0.021667272
114	0xbd0167d6	-0.031593166
115	0x3d2fea00	0.04294777
116	0x3dee8384	0.11646178
117	0xbdcf5433	-0.101234816
118	0x3cf23c73	0.02956984
119	0x3d348f26	0.04408183
120	0xbd6504dd	-0.05591284
121	0xbdb3be56	-0.08776538
122	0xbc8bbd68	-0.01705809
123	0x3e197261	0.14985038
124	0x3dc75cc1	0.09734488
125	0xbd0b5c58	-0.034023613
126	0x3de56350	0.11200583
127	0xbe0e17b8	-0.13876235
128	0xbe3bfad2	-0.18357399
129	0xbde0053b	-0.10938498
130	0xbe79dc34	-0.24400407
131	0xbdcf4f76	-0.10122578
132	0xbdf27a15	-0.118396915
133	0xbe840fd6	-0.25793332
134	0x3ddc7468	0.1076439
135	0x3e3cb36d	0.1842782
136	0xbd4e17e0	-0.050315738
137	0xbbc5d150	-0.006036915
138	0xbdd79fbc	-0.10528514
139	0xbe5c95fb	-0.21541588
140	0x3e16544c	0.14680594
141	0x3d8fb762	0.07017399
142	0xbdf9c4e5	-0.12195758
143	0x3e211548	0.15730774
144	0xbe7d039e	-0.24708411
145	0x3e821c74	0.25412333
146	0x3dc22e51	0.094814904
147	0x3dec098d	0.11525259
148	0x3daba14e	0.08380376
149	0x3e4392d5	0.1909898
150	0xbda38c10	-0.07985699
151	0xbc7686cd	-0.015046787
152	0x3cab5fce	0.020919707
153	0xbe30a04a	-0.17248645
154	0xbcdfff92	-0.027343545
155	0xbdf884e5	-0.121347226
156	0xbe8a6169	-0.27027443
157	0x3cfcceda	0.030860353
158	0xbe2868ea	-0.16446272
159	0x3e7dfe04	0.2480393
160	0x3d23caea	0.039988436
161	0xbeacea25	-0.33772388
162	0xbdb18a3c	-0.08668944
163	0x3d9a2fe8	0.07528669
164	0xbe272bc6	-0.16325292
165	0x3df024fa	0.11725803
166	0x3e34919a	0.17633668
167	0x3e84d8cd	0.25946656
168	0x3e21d071	0.1580217
169	0x3d873486	0.06601815
170	0x3abe0f6e	0.0014500448
171	0x3e1a2475	0.1505297
172	0xbe72cf36	-0.23711857
173	0x3e9a5b35	0.3014771
174	0xbe6b0240	-0.22950077
175	0x3e933131	0.28748468
176	0xbe0d38dc	-0.13791221
177	0x3e80da88	0.25166726
178	0x3ca85f1a	0.02055316
179	0xbd0a47d2	-0.0337599
180	0x3e00ae40	0.12566471
181	0xbd9dd569	-0.077067204
182	0x3cc0c90b	0.023533365
183	0x3dd6b0b2	0.10482921
184	0x3de48f13	0.11160102
185	0xbe2e00df	-0.1699252
186	0xbe53e438	-0.20692527
187	0xbd1e5fd2	-0.0386656
188	0x3dfb1338	0.12259525
189	0x3d248f98	0.040176004
190	0x3df3707e	0.118866906
191	0xbe367b5f	-0.178205
192	0xbe6ce4e8	-0.23134196
193	0xbe379401	-0.17927553
194	0x3c89e18f	0.016831188
195	0xbbc3a3a8	-0.005970437
196	0x3e6b07f5	0.22952254
197	0xbe5f8143	-0.21826653
198	0x3d9c8180	0.07641888
199	0x3e03f2cb	0.12885587
200	0x3d4faa97	0.050699797
201	0xbe217556	-0.15767416
202	0x3d9f4c22	0.07778193
203	0x3e5b787e	0.21432683
204	0xbd7b3bdc	-0.061336383
205	0x3d98c80f	0.07460033
206	0xbe02a029	-0.12756409
207	0x3e6d268e	0.23159239
208	0xbe75ccae	-0.2400386
209	0xbe6a8fc7	-0.22906409
210	0x3cfee541	0.031115176
211	0x3e0034d0	0.12520146
212	0xbe194b23	-0.14970069
213	0x3c8b49ef	0.017003028
214	0x3bd263d8	0.0064205937
215	0x3ea1be7f	0.3159065
216	0x3ca3ca8f	0.019994048
217	0x3e12f4f5	0.14351256
218	0xbe23c58f	-0.15993331
219	0xbda69d43	-0.08135464
220	0xbe4aea89	-0.1981603
221	0xbb85269c	-0.0040634405
222	0x3d731cbf	0.059353586
223	0x3e57a4e4	0.21058995
224	0xbce3ba2b	-0.027798733
225	0xbdf29b3d	-0.118460156
226	0xbd9a9483	-0.075478576
227	0xbc128047	-0.0089417165
228	0x3e76d70a	0.24105468
229	0x3e514705	0.20437248
230	0x3d5d89f4	0.05408664
231	0x3dc61136	0.096712515
232	0x3e293ea4	0.16527802
233	0x3e5ff8a2	0.2187219
234	0x3e3cbf90	0.1843245
235	0x3ddda756	0.108229324
236	0x3e6a81cc	0.22901076
237	0xbe250f32	-0.16119078
238	0x3e2f21d8	0.17102754
239	0x3dab60c8	0.08368069
240	0xbe21dc6e	-0.15806744
241	0x3d72403f	0.0591433
242	0x3ece2933	0.40265808
243	0x3df4a5ca	0.11945684
244	0xbe4ce586	-0.20009431
245	0xbe96388d	-0.2934002
246	0x3ebbab67	0.36654207
247	0xbe28ee13	-0.16497068
248	0xbe84a930	-0.2591033
249	0x3d4e5a68	0.050379187
250	0xbe458a98	-0.1929115
251	0x3d6ce85f	0.057838794
252	0x3dad3cc6	0.08458857
253	0xbe9c6ebb	-0.3055323
254	0xbe997945	-0.29975334
255	0xbd66b48d	-0.05632453
