models/gru_trial_7.pth (torch, 177648 bytes, 9 tensors)

gru.weight_ih_l0 f4 [186, 44]
000000 e2 95 47 3e 98 47 1e bd 24 62 c5 3d a5 75 b8 3c
       0.1949077 -0.038642496 0.096378595 0.022517035
000010 6f 5c 32 bd 94 1f a5 bd db 90 b4 3b 39 7b 6d 3d
       -0.043545183 -0.08062664 0.005510432 0.057978842
000020 8d df f1 bd 56 f9 c0 3d a3 16 05 be 55 eb 20 3d
       -0.11810217 0.09422557 -0.12996916 0.03928693
000030 a7 ef 48 3d 5f a8 71 3d 97 e9 97 bd 9d c8 cf 3c
       0.049056675 0.05899846 -0.074176006 0.025364215
000040 1b 0e 10 3d 29 a0 9a 3d c4 24 05 bd 5c 79 44 bd
       0.035169702 0.075500794 -0.032505766 -0.0479673
000050 a1 fe a2 3d c1 62 03 3e d8 ae 3e 3d 32 68 ec 3c
       0.07958723 0.1283064 0.046553463 0.028858278
000060 3b 75 06 bc 99 7a f2 bd d5 69 7f bc 39 4f 05 3d
       -0.008206661 -0.1183979 -0.015589197 0.032546256
000070 0e 97 40 bc 86 46 46 be 87 cd be bc f9 72 7c 3d
       -0.011754764 -0.1936284 -0.023291362 0.061633084
000080 c3 6c 26 3e b7 9d 03 bd 56 11 be 3d 47 28 50 bc
       0.16252427 -0.03213283 0.0928065 -0.012704915
000090 fa aa bf bd b3 14 87 3d 98 50 93 3d 32 bd f0 3b
       -0.09358783 0.06595745 0.071931064 0.0073467726
0000a0 7d 32 0f 3e 91 a9 96 bd 3c bc b0 3d 28 3e 38 3d
       0.13984104 -0.07356561 0.08629653 0.04498115
0000b0 a9 a1 f6 3d 04 03 92 bd 8f 9a 03 3e 69 f8 e9 3d
       0.12042553 -0.071294814 0.12851928 0.114243336
0000c0 fb 02 40 3d 8f 5e 46 3d 74 fc 8b 3d 8a ae f4 bd
       0.046877842 0.04843002 0.06835261 -0.11947353
0000d0 48 77 60 3d f7 ad 2b 3e b1 f7 40 bd 0b 5d 9b bd
       0.054801255 0.16765581 -0.047111217 -0.07586106
0000e0 af e0 ba bb df 19 60 be f1 37 0a 3e c8 51 8a 3d
       -0.005703054 -0.21884869 0.13497902 0.0675388
0000f0 bc 14 69 bd 29 2c e2 bd 06 67 75 bd e4 14 12 3e
       -0.05690454 -0.11043579 -0.059912704 0.14265782
000100 5a d1 31 3e 1d 7c a9 3c 59 cd 26 3e 94 cf ad bd
       0.17365018 0.020689065 0.16289271 -0.08486858
000110 8d 7f e7 3d 50 34 d5 3d 66 51 18 3e 3f 89 48 bd
       0.11303625 0.104103684 0.14874801 -0.048959013
000120 b1 bc c4 bd 8f ed 20 3e ac 25 07 3c 3a f9 21 3d
       -0.096063025 0.15715621 0.008248728 0.03954432
000130 54 7e 76 bd 9e f8 31 be 5c a4 14 3e 16 5a b7 3d
       -0.06017907 -0.17379996 0.14515823 0.089527294
000140 50 56 9f 3d 74 e2 75 3b 4a 8d 8f 3d bf 5c 7e 3d
       0.07780135 0.003751901 0.070093706 0.06210017
000150 59 c0 21 3d 3e 61 1c bd 60 aa 8f 3b aa 03 9c 3d
       0.039490078 -0.038178675 0.004384324 0.07617886
000160 64 f7 40 3d 21 03 81 be d7 fb 26 3d a9 ac 61 bd
       0.04711093 -0.251977 0.040767517 -0.055096302
000170 d8 14 a8 3d 57 e2 e9 bd 54 f6 41 3e 2d 5e 30 3d
       0.08207101 -0.11420124 0.18941623 0.043058563
000180 b6 b6 09 be 08 49 03 bd 4e ab b2 3d 39 5c f4 ba
       -0.13448605 -0.03205207 0.0872408 -0.0018643207
000190 21 58 37 be 93 13 e8 3c cc de 29 3e 4b ba 00 3e
       -0.17904712 0.028329646 0.16588897 0.12571065
0001a0 26 ab 8c bd 8c 8a 4b bd 21 7c 2a be ef 8c 53 bd
       -0.068685815 -0.049692675 -0.16648914 -0.051648077
0001b0 35 95 ce 3d 5b bf ab bd 5e 84 78 bd b5 e2 32 3d
       0.10087053 -0.083861075 -0.06067311 0.043673236
0001c0 11 11 89 bc 0d a0 42 bd e6 33 40 bd 04 ef eb bc
       -0.01673177 -0.047515918 -0.046924494 -0.028800495
0001d0 e4 52 06 3d 54 50 8d 3d 65 a9 83 3c 2d dd 94 bc
       0.032793894 0.06900087 0.016071985 -0.018171871
0001e0 14 46 b9 3d 31 6a 9f 3d fe 2d ef 3c 67 0e 8d 3c
       0.090465695 0.07783926 0.029196735 0.017218782
0001f0 55 cf 96 3d 70 55 1c be 72 97 4f 3e 0f a3 a3 3d
       0.07363764 -0.15266967 0.20272616 0.07990085
000200 c9 06 cc bd c7 5b a9 bd 91 ad 7f be 88 4d c2 3d
       -0.09962232 -0.08269458 -0.24968554 0.09487444
000210 70 6e 12 bd 7f 47 1c be 29 80 a1 3d fb 69 85 3d
       -0.035749853 -0.15261649 0.07885773 0.06514355
000220 73 25 c5 3d fa f1 4a bd a8 58 ca 3d e7 9a 5b 3c
       0.096262835 -0.049547173 0.09880191 0.013403631
000230 59 a9 32 be 99 b7 97 3d c5 fd 77 bd 07 dc 1e 3e
       -0.17447414 0.07408065 -0.060544748 0.15513621
000240 a1 05 89 be 6b 3b 93 bd 81 22 a6 bd 3b 3a 0b 3c
       -0.26762107 -0.071890675 -0.0811205 0.00849777
000250 a6 ac 38 3d 22 9b 7c bc 6b ec be bd 7b 07 4c 3e
       0.045086525 -0.015417846 -0.09322437 0.19924729
000260 be 4d b4 3d f9 9b dd 3d 7f 08 ae 3b ff 20 f3 bc
       0.08803891 0.10820765 0.0053110714 -0.02967882
000270 2c eb 6f 3d 43 b7 a0 3c 70 55 cf 3d 5c 60 4e bd
       0.058573887 0.019618636 0.10123718 -0.050384864
000280 28 5d 0c be b3 df eb bc eb 61 08 3e 8b 54 1b 3d
       -0.13707411 -0.028793192 0.13318603 0.037922423
000290 2a 12 f1 3c b9 12 f5 3d 9f f3 c2 bd b2 50 29 be
       0.029427607 0.11966462 -0.09519123 -0.16534689
0002a0 b1 58 f2 3c b3 3e 95 be e5 8a d9 3d 88 27 1f 3e
       0.029583307 -0.29149398 0.10622195 0.15542424
0002b0 db d9 48 be 35 49 c4 bd 07 0a 2b be c9 93 be 3d
       -0.19614355 -0.09584276 -0.16703044 0.093055315
0002c0 7e 5d 9b bc c0 61 09 3c 71 77 65 bd 78 3f 4e 3d
       -0.018965479 0.008385122 -0.05602211 0.050353497
0002d0 4c b6 12 be 0f a3 14 bc ad 3c 53 bd 5d 35 1c bd
       -0.14327353 -0.009072079 -0.051571537 -0.03813683
0002e0 a9 d1 2c 3e 63 87 aa bc d3 4a 24 3e b3 bd 49 bc
       0.16876854 -0.02081651 0.16044168 -0.012313294
0002f0 cc e6 a3 3c 8a 62 e4 3d 12 92 ae bc 19 a4 9f bd
       0.020007513 0.11151607 -0.021309886 -0.07794971
000300 27 b0 e0 bc d4 3c 72 3e d4 f9 3c 3e 70 17 ad 3c
       -0.027427746 0.23656017 0.18454677 0.02112934
000310 1d fa f9 bd ca bf 21 be 72 82 96 3d 18 69 30 3d
       -0.122059084 -0.15795818 0.07349099 0.043068975
000320 e8 d0 6d 3c 2b 5c 19 be 0c 60 53 bd f6 72 6e bd
       0.014515139 -0.14976566 -0.05160527 -0.058215104
000330 f7 a7 53 3c ff dd d1 bd 82 e7 0c be fd 92 ab 3d
       0.012918464 -0.102474205 -0.13760188 0.08377645
000340 69 c0 c6 ba 49 6e 78 bc b4 d1 d2 bd c6 35 42 bd
       -0.0015163544 -0.015163013 -0.10293904 -0.047414564
000350 11 ef 9e 3d af b9 5b b9 75 92 1e bc a6 de a5 bd
       0.07760442 -0.0002095464 -0.009678473 -0.080991074
000360 33 56 bf 3c 42 b8 99 3d 14 ae 90 3d 33 bd 80 3d
       0.023356533 0.075058475 0.07064453 0.06286087
000370 52 bd d1 bb ae df 37 3d 42 f5 16 3e 6d d7 c8 3b
       -0.0064007426 0.044891052 0.14741996 0.0061291964
000380 93 28 12 bd 24 2f c5 bc 76 e8 2b bd c1 92 5d 3d
       -0.035683226 -0.02407033 -0.04196974 0.054095034
000390 25 34 3d 3d de 97 89 bd 18 f8 2a be 65 99 b8 3d
       0.046192307 -0.067184195 -0.16696203 0.09013633
0003a0 47 c7 bb 3d 51 e8 0c 3d 4e 18 98 3d 84 f4 b2 bd
       0.091688685 0.03440124 0.07426511 -0.08738044
0003b0 0d a0 9f bd de a9 81 bd 86 0a e5 3d d5 5f 90 3c
       -0.07794199 -0.06331228 0.11183648 0.017623821
0003c0 aa 49 29 bd 0c 54 89 3d 0f 27 2f bd f7 b5 c4 bd
       -0.041330017 0.06705484 -0.04276186 -0.096050195
0003d0 4a 52 db 3c 06 77 32 3e 5b 81 a7 3d 2e db 2d be
       0.026772637 0.17428216 0.081789695 -0.16978142
0003e0 0f f7 eb bd eb 55 5c 3d 64 f3 3b 3e 6b bc 12 3e
       -0.11521732 0.053792875 0.18354565 0.14329688
0003f0 12 81 90 3d f8 e1 18 be d8 2e b8 bc a5 42 0e 3e
       0.07055868 -0.1492995 -0.022483274 0.1389261

gru.weight_hh_l0 f4 [186, 62]
000000 42 40 83 be 58 03 6a 3d d5 0d 01 bd 01 d9 0d 3d
       -0.25634962 0.057132095 -0.031507332 0.03463078
000010 94 eb a6 3d 73 35 96 bd 0c b3 46 be 4d 2e a3 bd
       0.08150402 -0.073344134 -0.19404238 -0.079678155
000020 d5 48 38 bd 22 e0 2a be fd 45 b6 bd cf 29 4f 3e
       -0.044991333 -0.16687062 -0.08900068 0.20230792
000030 d8 16 97 3d dc d4 40 3e 4e 9e 3d be af 76 df 3d
       0.07377404 0.188312 -0.1851742 0.10911309
000040 66 44 4c 3e d9 ba 9f 3d e4 6d 55 be ef 7e c3 3d
       0.19947967 0.0779931 -0.20842701 0.09545695
000050 06 dd 9c 3d 09 28 0a 3d 3f d6 25 be 20 f5 23 be
       0.076593444 0.033729587 -0.1619501 -0.16011477
000060 2b 1d 23 bd 67 bc 37 be b2 86 61 bd 8c 8a 0b 3e
       -0.03982274 -0.17942964 -0.055060096 0.1362707
000070 7a 34 12 be e3 9d 52 3c c0 07 f3 bd 6a bc 41 3d
       -0.1427783 0.012855026 -0.118667126 0.047298826
000080 05 88 09 3e ac a2 e0 3d 5c 85 5a 3d dd da 80 bd
       0.13430794 0.10968527 0.053349838 -0.06291745
000090 a8 bb 32 bd 70 19 27 3d 1b 70 2a be 55 57 4d 3d
       -0.043635994 0.040795743 -0.16644327 0.050132114
0000a0 52 84 16 3e 62 41 6d 3d bb 6a d5 3d 9c e7 88 be
       0.14698914 0.057923682 0.10420748 -0.26739204
0000b0 44 71 9a 3c 2b 4d ef 3d 2e 7d 8f 3d f5 d4 17 3e
       0.018852837 0.116846405 0.07006298 0.1482733
0000c0 8b 80 0f be 74 bd 0c 3e ad fb f5 bd 1b 70 0c 3e
       -0.14013879 0.13744146 -0.12010894 0.1371464
0000d0 89 b2 be 3d 1e a1 3a 3e 50 02 cc ba 29 2d 83 3d
       0.09311397 0.18225524 -0.0015564654 0.06405098
0000e0 7c 2a 56 bd 44 f2 74 bd 54 25 e9 3d f1 6c 10 3e
       -0.05228661 -0.059801355 0.11384073 0.14104058
0000f0 a7 52 6b 3c 18 60 10 3e 31 90 d3 3d 6b c9 20 be
       0.014362968 0.14099157 0.10330237 -0.15701835
000100 1d ef b7 bd ab 7f b0 bd 30 f9 31 bd 55 a6 0f 3e
       -0.08981154 -0.08618101 -0.043450534 0.14028294
000110 8a 2d 22 3e d4 33 b9 3d d9 78 ae be 57 c5 08 3e
       0.15837684 0.090430886 -0.34076574 0.13356529
000120 c1 08 68 be 13 d6 3a bd ac 88 5b bd 10 12 85 3d
       -0.2265959 -0.045614313 -0.053597137 0.06497586
000130 f7 a4 b8 bc fb b7 84 3e 2f a3 38 3d 6e cd be 3d
       -0.022539599 0.25921616 0.0450775 0.09316526
000140 bb 4b 0f 3e 7d 18 1c be 8a 92 8b be 07 45 21 3e
       0.13993733 -0.15243717 -0.27260238 0.15748988
000150 ef 5e ea 3d 4a ac 07 3e 80 57 81 bc e1 2a d6 3d
       0.114438884 0.13249317 -0.015788794 0.10457397
000160 cd eb b6 bd f2 b4 c5 3c 6e ea 0b 3e ec ae 0b bd
       -0.08931694 0.024134133 0.13663647 -0.034102365
000170 9e 35 cd 3d a0 f0 ee 3d 0f 32 8a bc eb 99 b8 bd
       0.10019992 0.11666989 -0.016869573 -0.090137325
000180 95 45 4a 3e 21 d2 2f 3e 1e 1d 0e be d7 1c 4b 3d
       0.19753106 0.17170002 -0.13878295 0.04958805
000190 de 7c 73 bd 81 b3 f7 bd 1e 9e 4a be 39 66 94 3e
       -0.059445255 -0.120947845 -0.1978688 0.2898424
0001a0 78 64 3f bd 2b 74 09 3b 54 a6 d1 bd 37 16 3a be
       -0.046726674 0.0020973783 -0.10236803 -0.18172537
0001b0 05 39 87 3d cc d9 70 3c 93 b6 5f 3e 66 9e a6 3d
       0.066026725 0.014700364 0.2184699 0.08135681
0001c0 6d 9c 31 3e ba 42 da bd 94 0a 55 3e ce e2 cb 3c
       0.17344828 -0.10657258 0.20804816 0.024888422
0001d0 56 5f 9a 3c 40 58 2b 3e cb c4 af bd 4d 3d 50 3e
       0.018844288 0.16732883 -0.08582457 0.20335884
0001e0 0f 76 8a bd 37 a8 81 3d 26 62 75 bd eb 90 51 3e
       -0.06760799 0.063309126 -0.059908055 0.20465438
0001f0 b5 a0 cc ba fb c6 c6 3d 91 0c 73 3d d3 cc 0d bd
       -0.0015611859 0.09705921 0.059338156 -0.034619164
000200 7f b9 b3 bd fe b8 18 3d a8 ca b2 bd d6 5c e2 3c
       -0.08775615 0.037285797 -0.0873006 0.027632158
000210 4b 94 28 3d bd 15 26 be 9c a6 53 bc bf 30 e2 3d
       0.04115705 -0.1621923 -0.012918141 0.11044454
000220 c2 1b e1 3d 43 d9 ea bc b1 0a 84 bd 6b 72 de 3d
       0.109916225 -0.028668052 -0.06447352 0.10861667
000230 81 1e 12 3d c5 f1 0f 3d ac 8d 0a be 25 7d 24 3e
       0.035673622 0.03514268 -0.13530606 0.16063364
000240 d1 a3 e9 bb 86 9e 00 3c 95 6a bb 3d 88 79 9c 3d
       -0.007130124 0.007850295 0.09151188 0.07640368
000250 a9 b0 ad 3d 2d b5 0d 3e 0e ef 1d bd 8b 79 61 bd
       0.08480961 0.13838644 -0.03855806 -0.055047553
000260 49 15 33 3d 04 01 78 3b b3 d5 1b 3b 90 3d 9d bc
       0.04372147 0.0037842402 0.0023778498 -0.019194394
000270 db a9 2d bc f1 04 8a bc e5 b8 3d bd 6c 1d 06 bd
       -0.010599579 -0.01684806 -0.046318907 -0.032742903
000280 94 44 79 3c 1d ff 8b 3d 68 8e 0d be ce 88 59 bb
       0.015214104 0.06835768 -0.13823855 -0.0033193114
000290 f5 a4 9f 3d 79 c7 18 bd 6a 1a 23 3e 51 4c 0a be
       0.07795135 -0.037299607 0.15928045 -0.13505675
0002a0 a3 8f 58 3d 84 e8 4a 3c 9e 4f d1 bc c9 27 fc 3d
       0.052871358 0.012384538 -0.02555066 0.12312276
0002b0 ea ac e0 3d 4d 28 51 3c 56 8c 94 3d 0f eb 5b bc
       0.10970481 0.012765956 0.072533295 -0.013422742
0002c0 09 d5 0a 3e 3a 50 0c 3e a2 a4 00 be 55 79 51 3e
       0.13557829 0.13702479 -0.12562802 0.20456441
0002d0 d1 4c 33 3e 4f af ec bd 69 a1 16 3e f6 49 87 bd
       0.17509772 -0.11556875 0.1471001 -0.06605904
0002e0 78 31 19 be b3 7e be 3c b2 cd ef bd d4 94 f1 bc
       -0.14960277 0.023253774 -0.11709155 -0.029489912
0002f0 7d cd e3 bd 2d b0 6b 3d 7e 6d 08 bd cd 28 d7 3d
       -0.11123178 0.05754106 -0.033307545 0.10505829
000300 80 a0 2b 3d 63 51 d1 bc 8a 10 34 bd ac c3 89 3d
       0.04190111 -0.025551504 -0.043961085 0.067267746
000310 d3 f8 90 bd de 05 65 3d f8 31 ba 3d ee 78 84 bd
       -0.070787095 0.0559138 0.09091562 -0.06468378
000320 d6 5f ae 3d 3f 12 bd bd 52 6c f6 3c 88 87 93 bc
       0.08514373 -0.09231996 0.030080948 -0.018008962
000330 f0 0d e2 bd 15 c5 8a bd 70 78 6e 3c 5b 4c 26 3e
       -0.110378146 -0.06775872 0.014555082 0.16240065
000340 b2 75 2d bb 36 29 6f bd 95 c7 8a bd 97 5f a8 bc
       -0.0026467857 -0.05838891 -0.067763485 -0.020553393
000350 21 87 89 bd 5c 3c 35 bd 0e 41 d8 bc f0 4c 3b 3d
       -0.06715227 -0.044247016 -0.026398208 0.04572767
000360 ac 7e ac bd ef fc de 3d a7 31 79 bd 09 17 85 bc
       -0.08422598 0.10888087 -0.060838368 -0.016246336
000370 ba 74 c8 3d e4 ca 48 3d 38 51 2d 38 c8 aa 03 3e
       0.09787889 0.049021617 4.1322055e-05 0.12858117
000380 6d 1d 89 bc b4 64 1c be db 2f 12 be f4 ef c9 3d
       -0.016737664 -0.1527279 -0.14276068 0.098602206
000390 06 e6 4a bd 73 93 44 3d 81 81 ef bd f3 ce 7d bd
       -0.049535774 0.04799218 -0.11694623 -0.06196494
0003a0 a5 9e 32 3e 8e 3d 96 bd eb ee 9c 3d be ad 89 bd
       0.1744333 -0.073359594 0.076627575 -0.06722592
0003b0 78 d7 ef 3b 40 c6 40 ba 44 dc b6 bd 84 dd d2 bc
       0.007319387 -0.00073537603 -0.08928731 -0.025740393
0003c0 73 a0 de 3d 54 18 e4 3d e8 28 6e bd ee 9b 0d 3d
       0.10870447 0.11137453 -0.05814448 0.034572534
0003d0 a3 e1 a4 bc c1 04 02 3d fb 84 2c 3c fc e4 4d 3e
       -0.020127123 0.031742815 0.010529752 0.20106882
0003e0 79 f4 50 bd 54 2c c6 3d 03 c5 4c bd 2e 0b 0d 3e
       -0.051014397 0.09676424 -0.049992573 0.13773796
0003f0 6c 1a 27 3e 87 07 31 bd a7 f1 22 3e ee 5d 14 3e
       0.16318673 -0.04322007 0.15912496 0.14488956

gru.bias_ih_l0 f4 [186]
000000 e9 f4 30 be 1b cd 48 bd 3f 6a 94 3b 5a 06 fb bd
       -0.17280926 -0.04902373 0.004529267 -0.12257071
000010 e7 bf bc bd ee 5f 01 3d 46 ba a6 3d 85 86 b6 3c
       -0.0921629 0.031585626 0.081409976 0.02228094
000020 bf 76 11 3c 9a 3a ff 3d 88 e1 04 3d 58 99 4c bd
       0.008878409 0.12462349 0.032441646 -0.049950927
000030 84 55 7d bd e1 fd a3 3c 9d ea 16 bc cd 6b 7f bd
       -0.061849132 0.02001852 -0.00921121 -0.062358666
000040 d4 94 d3 3d c9 c2 0b 3d fb cd 70 3d ef c6 25 3e
       0.10331121 0.03412131 0.05879019 0.16189168
000050 4d 7c 03 bb f7 8a b9 bc 07 7a 98 bc a5 a0 f0 3d
       -0.0020063103 -0.022649271 -0.018612875 0.117493905
000060 97 9e 00 bd d5 07 67 3d 8e d3 50 bc be e8 08 be
       -0.031401243 0.056403954 -0.012745751 -0.13370034
000070 21 b2 c3 3d 89 15 7c bd f7 95 16 bc 7f 34 00 bd
       0.0955546 -0.061543975 -0.009191028 -0.031300064
000080 10 ec 26 3e db d4 a4 3d f4 2f b6 3d bd c1 7b 3d
       0.16300988 0.080484115 0.08895865 0.06146406
000090 f0 00 f9 bd a8 4b 09 be f7 9c 00 3e 4c 6c f2 3d
       -0.12158382 -0.13407767 0.12559877 0.11837062
0000a0 17 2e 47 bd e2 2e 3b 3e 79 c0 e6 bd 75 73 30 3e
       -0.04862794 0.18279603 -0.1126718 0.17231543
0000b0 c8 a6 e1 bd ea 65 2d ba 5b ee e8 bb 62 e0 0e 3d
       -0.11018139 -0.00066146126 -0.0071084923 0.034881957
0000c0 52 e0 45 be dc b3 1d 3e a8 a7 ba bc 2d eb 02 3e
       -0.19323853 0.15400642 -0.022785023 0.12785025
0000d0 56 a1 95 3d 3c 97 be 3c e3 83 a9 3d db 41 54 bd
       0.07306163 0.023265474 0.082771085 -0.051820617
0000e0 ab 86 8a 3d 43 3e f2 3a e8 86 ba 3d 18 ff 46 3d
       0.06763967 0.001848169 0.091077626 0.04858312
0000f0 58 37 af 3d 5b 6c 97 bd 11 ff 98 3d aa c4 56 3a
       0.08555478 -0.07393714 0.07470525 0.00081927574
000100 33 b3 08 3d 23 b1 00 3e 8c 2f bc bc 93 e8 8b 3d
       0.033374023 0.12567572 -0.02297189 0.068314694
000110 94 96 15 3c d8 ac 5c 3d ea be 27 be 80 79 2f be
       0.009130139 0.053875774 -0.16381422 -0.17136192
000120 01 78 89 bd d2 7c ed 3c 20 1a 53 bc 3c 3a a7 3b
       -0.06712342 0.028990183 -0.012884647 0.0051033776
000130 92 3c da 3b 22 06 00 be 74 a6 08 bc c9 fb a3 bc
       0.0066600526 -0.1250234 -0.008340467 -0.020017521
000140 c0 78 56 bd a0 a5 ca 3c f2 22 79 bd 16 0f 39 3e
       -0.05236125 0.02473718 -0.060824342 0.18072161
000150 e2 d7 05 3e 6a a7 dd 3d e1 47 cc 3d a9 8d 66 3c
       0.13070634 0.10822947 0.09974647 0.01407186
000160 8f b3 e2 3d ba 6e 66 3d 59 d5 43 be d4 2a 63 3c
       0.11069404 0.05625794 -0.19124354 0.0138651915
000170 ca dd 7b 3c 7d 60 9b 3b 85 84 1b be 7a 05 56 3b
       0.015372703 0.004741727 -0.15187271 0.0032657073
000180 41 43 46 3d f6 b2 f1 3d 1d 21 e1 bd 2f 16 1f 3d
       0.048403982 0.11801712 -0.10992644 0.038839515
000190 81 21 96 3c 52 4a 2e bd e7 96 d7 bb 24 0e 76 be
       0.018326523 -0.042551346 -0.0065792683 -0.24028832
0001a0 4d 5b 20 3e a9 d9 65 bc 44 f5 85 bd 46 c8 2d 3d
       0.15659828 -0.014028945 -0.06540921 0.042427324
0001b0 72 20 ce bd 09 f7 3f 3d e4 b3 36 be 42 f2 c8 3d
       -0.10064782 0.04686645 -0.1784206 0.09811832
0001c0 ef d5 05 bd 52 3e 25 bd cb 89 5b bd e6 62 e8 bd
       -0.032674726 -0.040342636 -0.053598206 -0.113469884
0001d0 f0 28 0f 3e 4b 83 d8 3c 7d a0 c3 bd 87 0f e6 bd
       0.1398046 0.026429793 -0.09552095 -0.1123343
0001e0 e3 24 c9 bd 79 ac 07 bd 35 66 e4 3a 99 6e b4 3d
       -0.09821489 -0.033123467 0.001742548 0.08810157
0001f0 f6 fb 1e be e3 09 12 3e eb 83 e3 3d 16 58 28 be
       -0.15525803 0.14261584 0.11109146 -0.16439852
000200 91 a8 f2 3d dd 18 4a be 1d 1e 00 be f2 d6 97 bd
       0.11848558 -0.19736047 -0.12511487 -0.074140444
000210 e3 ef 0b bc 7f 66 0e bd 92 54 fd 3d a7 06 b2 bb
       -0.00854108 -0.034765717 0.12369646 -0.005432922
000220 7e 29 92 3c e6 fd 6c 3e 1e 2c 72 be 40 48 a6 bd
       0.01784205 0.2314373 -0.23649642 -0.08119249
000230 79 0c 0b 3e f0 05 6f 3d f0 44 48 be c0 16 83 3d
       0.13578977 0.05835527 -0.19557548 0.064008236
000240 a1 75 55 3e 6f ec 6c be c0 b2 26 be 4f a1 50 be
       0.20845653 -0.23137067 -0.16279125 -0.20374034
000250 2c e3 7b bd 42 2b 89 bd 40 be a7 bb f6 6d 98 3d
       -0.061495945 -0.06697704 -0.005119115 0.074428484
000260 7c 82 89 be 54 bf 69 3e ed 3e e2 3c 52 4e 52 be
       -0.26857364 0.22826892 0.027617896 -0.2053769
000270 e8 90 35 3e 61 27 94 3e 33 5b 79 be d3 2b 0c bd
       0.17731059 0.28936294 -0.24351196 -0.03422148
000280 ac 9d 8c 3c a3 45 91 3d bc 17 29 bd 21 38 16 3e
       0.017165028 0.0709336 -0.0412824 0.14669849
000290 cf 60 c1 3d 20 1a 95 be b3 8b 29 3e 7b 7d 95 bd
       0.09442293 -0.29121494 0.16557197 -0.07299324
0002a0 dc b9 26 3e ed b9 50 3e 87 35 45 bc 1c 78 ac 3d
       0.16281837 0.20383425 -0.012036688 0.084213465
0002b0 fa b1 85 be 4f ac e0 bb 2b 23 7b be 7a 90 7b 3e
       -0.26112348 -0.0068564783 -0.24525134 0.24566832
0002c0 bf b7 f0 bd ab db 3a 3e f9 ae 38 be 78 09 30 3e
       -0.11753797 0.18247859 -0.18035497 0.17191112
0002d0 77 05 fe bc d8 46 65 3d 3c c1 28 3e 74 35 4c 3d
       -0.031008465 0.055975765 0.16479963 0.049855664
0002e0 a7 c0 4c bc 8f f8 d1 bd
       -0.012497104 -0.10252487

gru.bias_hh_l0 f4 [186]
000000 90 df 32 3d 53 d7 d0 bc 1a 86 b1 bc 4d 7a c9 bb
       0.043670237 -0.0254933 -0.02167039 -0.0061486126
000010 a7 99 22 3d a8 90 1e 3c 6c 17 84 bd 6b 66 56 3d
       0.039697316 0.009678043 -0.0644978 0.052343767
000020 3d 97 d1 3d a4 45 70 3d 9c 8b a6 3d 34 3c 1d bd
       0.102339245 0.058660164 0.08132097 -0.038387492
000030 ca 0c 12 bd 83 60 dd bc 1c 41 0c be 76 8f 13 3e
       -0.035656728 -0.02702356 -0.13696712 0.14410195
000040 89 2d 5c bd 99 b6 fc bd 5e 78 e7 3d c1 82 c6 3c
       -0.053754363 -0.12339515 0.11302255 0.02423227
000050 41 fd 78 be 7f 22 32 3c 43 e5 ea bb 90 e0 33 3e
       -0.24315359 0.010872482 -0.0071684434 0.17566133
000060 fd c9 dc bd 91 a7 0a 3e a5 c7 56 bd 83 c5 8b bd
       -0.10780714 0.13540484 -0.05243649 -0.06824782
000070 47 aa f2 3c bc e5 8e 3c 83 1b f2 3c 75 96 1d 3e
       0.02962221 0.01744353 0.029554134 0.15389426
000080 5e 85 11 bc 86 60 53 bc a1 66 2f 3d 8b 42 0d 3d
       -0.008881895 -0.012901431 0.042822484 0.03448729
000090 39 c0 63 3d 74 04 af 3d bf 55 9c 3d 52 3d 0f 3e
       0.05560324 0.08545771 0.07633542 0.13988236
0000a0 2b c1 ea 3d 40 3f 0b bc 82 c7 5c 3d 38 02 8d 3d
       0.11462625 -0.008498967 0.053901203 0.06885189
0000b0 cd 8f a4 3d ac 53 9e 3d 1c ba 30 bb b6 f3 be bd
       0.0803524 0.07730803 -0.0026966399 -0.09323828
0000c0 e3 2f e0 bd f9 84 1c 3e 3f bc 13 3e 56 06 a7 bb
       -0.10946634 0.152851 0.14427279 -0.005097191
0000d0 83 6c c7 bc 34 3d 4d 3e 52 2a 0d be 92 f1 06 be
       -0.024343735 0.20042878 -0.13785675 -0.1317809
0000e0 7b fc 66 3d 71 04 ba 3d f0 b4 eb 3d d7 a0 e3 3d
       0.056393128 0.090828784 0.115091205 0.11114662
0000f0 d2 7d c7 3d e4 5a 24 be ee 9a fd 3d c8 cd 4f 3e
       0.09740795 -0.16050297 0.12383066 0.20293343
000100 ab b5 84 3d ef cc 8d bd 55 b5 03 bd 28 b3 31 bd
       0.06479963 -0.069238536 -0.032155354 -0.043383747
000110 e7 07 83 3c 48 e7 68 3e 34 7b 06 be 22 75 ab bd
       0.015994979 0.22744477 -0.13132936 -0.08371951
000120 d1 21 ff bd e3 1c 34 3e bd 17 fb 3d 6f 41 39 bd
       -0.12457622 0.17589144 0.12260387 -0.045228418
000130 ce 82 ac bd 46 ab f5 bd 4c cf 3d 3e fe 61 70 bd
       -0.084233865 -0.119955584 0.18536109 -0.058687203
000140 e9 7c e9 3d 1f 34 24 3e 62 03 20 bc a0 bd 07 3e
       0.11400778 0.16035508 -0.0097664315 0.1325593
000150 c3 f5 e8 3d 2e 35 9f bc f8 91 7b 3d c7 56 90 bc
       0.11375 -0.019434538 0.061418504 -0.017619504
000160 39 63 5e 3d 74 69 34 3c 91 81 dd bc 9d 75 a9 bd
       0.054293845 0.01101147 -0.027039321 -0.08274386
000170 0e d3 6b bc 3c 3f 3e bd 0f 24 74 bd 38 1d ec bd
       -0.014393581 -0.046447024 -0.0596047 -0.115290105
000180 82 fd c4 bd e8 df ce 3d 9f 4a 81 be a6 9d 7e bc
       -0.09618665 0.101013005 -0.25252244 -0.015540516
000190 54 3b b6 bd 76 ae b7 bd 5f 69 d9 bd 92 15 a3 be
       -0.08898035 -0.08968823 -0.10615801 -0.31852394
0001a0 34 35 bc bb 18 94 c1 bd db 1d 57 bd d4 b7 60 bd
       -0.005743647 -0.09452075 -0.052518707 -0.054862812
0001b0 d5 64 8a bd d5 78 05 bd f2 2d 29 3c 5d cd c7 bd
       -0.067575134 -0.032585938 0.010325896 -0.09755967
0001c0 89 7b 3c be df d6 ce bc 10 fd 80 3d 9d d6 7c bd
       -0.184065 -0.025248943 0.06298268 -0.06172811
0001d0 8c db 9f bb d9 4d 9f bd 48 2a 14 39 91 40 de 3d
       -0.004878467 -0.0777852 0.00014130131 0.10852159
0001e0 e1 30 78 3d aa 55 c1 bd 85 c1 04 3d 1d 91 c2 3d
       0.06059349 -0.09440167 0.032411117 0.095003344
0001f0 31 58 61 bd c0 2d 12 bd 70 0a 27 3e 94 ad df bd
       -0.055015747 -0.03568816 0.16312575 -0.10921779
000200 72 91 26 3e 28 8d 0b bd e7 5b 1e be 05 44 32 bd
       0.1626642 -0.034070164 -0.15464745 -0.0435219
000210 7e ec f2 3d e6 7e 64 bb a2 97 1f 3e f5 9e c6 bc
       0.118615136 -0.0034865676 0.15585187 -0.024245718
000220 2c 4b c6 3d 79 15 bd 3d 90 82 ef bd 80 02 f0 bd
       0.09682307 0.09232611 -0.11694825 -0.11719227
000230 60 bb fe 3d d6 24 40 bd bd ff ba bd 3c db 46 3e
       0.12438083 -0.04691013 -0.091308095 0.19419569
000240 c2 fd 5b 3d 12 41 25 bd 91 67 0b bd 68 59 56 be
       0.0537088 -0.04034526 -0.034034315 -0.20932543
000250 d6 56 8f 3c 89 31 23 be 86 ec 1a be 29 bc 1c 3c
       0.017497461 -0.15936865 -0.15129289 0.009566345
000260 68 c6 75 be c4 11 5f 3d a7 b7 36 3d 74 21 2b be
       -0.24001467 0.054460302 0.04460874 -0.1671198
000270 ff d4 6b 3e 66 c4 a4 3e b7 0e 68 be ba c8 a0 bd
       0.2303047 0.3218109 -0.22661863 -0.078507856
000280 3b 0c 02 3d e6 0b 3a 3d fd d2 b1 bd 17 23 9b 3d
       0.031749945 0.045421503 -0.08682821 0.07575052
000290 11 c5 0c 3e 2e 07 ad be 29 ee aa bd 00 dd 9e bd
       0.1374705 -0.3379454 -0.08346207 -0.07756996
0002a0 bd bf 88 3d 57 81 91 3d ce d4 ba bc d4 53 2c 3d
       0.06677196 0.07104748 -0.022806551 0.042072132
0002b0 f4 d6 51 bd a0 f3 47 3e 8a 70 50 be e2 1e 44 3e
       -0.051230386 0.1952653 -0.2035543 0.19152406
0002c0 eb e6 b3 bd 32 da 51 3e 4e 7c c0 bd 5d 67 0d 3e
       -0.087842785 0.20493391 -0.09398709 0.13808961
0002d0 69 14 6d bd 65 81 3f be 55 cb 22 3e f7 0a 2e 3e
       -0.057880793 -0.18701704 0.15897878 0.1699637
0002e0 f3 c3 59 bd b1 d1 bb 3d
       -0.053165387 0.09170855

gru.weight_ih_l1 f4 [186, 62]
000000 75 ee e3 bd fc c3 87 3d 96 7f 7d bd 08 b9 01 3e
       -0.111294664 0.06629178 -0.061889254 0.1266824
000010 59 9e 84 bd 9d 5c 0c be 74 09 c1 ba ef 2d 98 3c
       -0.06475515 -0.13707204 -0.0014727549 0.01857659
000020 c3 43 6e 3e 03 75 f2 bc 18 ad 88 3d d6 ed 3f bc
       0.23268037 -0.029596811 0.0667364 -0.011714419
000030 c9 1e b2 3d 7f f9 e5 3c e9 6f 0f be c6 df 48 be
       0.08697278 0.02807307 -0.14007534 -0.19616613
000040 af a6 00 be 86 ef 09 be b3 7c 60 3d f8 f3 91 bd
       -0.12563585 -0.13470277 0.054806422 -0.071266115
000050 b0 ff b3 bd e5 f5 4b 3d 45 03 28 bc 40 2e 26 be
       -0.08789003 0.04979505 -0.010254686 -0.1622858
000060 08 a7 6f bc a6 27 a8 3d 37 27 96 bd 45 6c 33 3d
       -0.014627226 0.08210687 -0.073316984 0.043804426
000070 5b 49 1f be b1 3e 42 be c8 73 bd bd bb ae f2 bd
       -0.15555327 -0.18969227 -0.09250599 -0.118497334
000080 ed 10 3d 3e 53 f8 16 3d 0d 0a 83 be 03 46 6b 3c
       0.18463488 0.036857914 -0.25593606 0.014359954
000090 78 a9 76 bd b4 9d 34 3d 26 a8 6b 3d a2 83 fb 3d
       -0.06022021 0.04409571 0.057533406 0.12280966
0000a0 50 f7 2e 3e 04 bf 5e be aa 6c a8 3d 67 d8 88 3c
       0.1708653 -0.21752554 0.08223851 0.016704751
0000b0 0f ba 71 bd 43 71 7e bd 66 61 30 be 5a c6 13 3b
       -0.05901533 -0.062119734 -0.17224655 0.0022548647
0000c0 50 cf 2c be 3c c5 12 be bb 14 ea bd eb c9 32 bc
       -0.16875958 -0.14333051 -0.11429735 -0.010912399
0000d0 04 7e 06 be 83 bb 1e bd 6b bc 80 be 66 b6 75 bd
       -0.13134009 -0.038753044 -0.25143752 -0.0599884
0000e0 91 1b 85 bc fb 64 b3 3b a2 bc 1c 3e 00 08 04 3e
       -0.016248496 0.0054746843 0.15306333 0.12893677
0000f0 31 25 15 3e c0 26 1d 3e 5f d9 a4 bd d3 68 66 bc
       0.14564969 0.15346813 -0.08049273 -0.014063078
000100 e9 a4 db bd 17 40 c8 3d 35 14 ed 3d e8 2e e5 bc
       -0.107248135 0.09777849 0.1157612 -0.027976468
000110 d6 7c 25 3d 5b 5d 89 bd 08 f9 33 bd 1f 21 2c 3e
       0.040402256 -0.06707259 -0.043938667 0.1680951
000120 bb c9 f3 3d 3c 73 86 3d 94 a8 ba 3d 62 4c f6 3c
       0.119037114 0.06564948 0.09114185 0.030065719
000130 6e 54 25 3e 95 54 d4 bd 30 98 cd bb 41 12 d3 bd
       0.16145489 -0.10367695 -0.0062742457 -0.10306216
000140 e6 c5 ac bd 6e 21 9b bd 14 84 bc bd 47 fe 38 3d
       -0.08436184 -0.075747356 -0.092048794 0.045164373
000150 49 da de bb 7d e2 0d bd f6 a2 ca 3a c2 2b a1 bd
       -0.006800924 -0.034639824 0.0015459943 -0.07869674
000160 13 dc ff 3d 8a 41 02 be b1 40 ce 3d 57 06 7f bc
       0.12493148 -0.12720314 0.10070933 -0.015565476
000170 54 84 9c bd 51 54 c3 3d af 81 ce 3d 8f 1c ee bd
       -0.07642427 0.095375665 0.10083329 -0.11626541
000180 cd cf c7 3d 3d 8f 3c 3d a3 63 a3 bc 22 6a a7 bd
       0.09756432 0.04603504 -0.019944971 -0.0817454
000190 40 f4 0f 3c dc 55 e9 3c ec 4c 1e 3e b0 c5 d2 bc
       0.008786261 0.028483324 0.15459031 -0.02572903
0001a0 af c7 94 bd 81 23 f0 bd 4a 1b ef 3d 46 ee a2 3d
       -0.07264649 -0.11725522 0.11675127 0.07955603
0001b0 4d 7d 62 bd e6 6f 1c 3e 12 cf 4a bd d6 6f 5b 3b
       -0.055295277 0.15277061 -0.049513884 0.0033483407
0001c0 4e b7 c7 bd 4d 38 29 3d 95 2e bf bd 36 56 a8 3d
       -0.097517595 0.04131346 -0.09335057 0.082195684
0001d0 84 32 35 3c 0a 7e cc 3c 8c 73 37 bd 38 b9 9a 3d
       0.011059407 0.024962444 -0.04478793 0.07554859
0001e0 e9 dc dd bd 78 47 b4 bd fc a7 fa ba 23 64 e9 bd
       -0.10833151 -0.08802694 -0.001912355 -0.11396053
0001f0 9b 38 22 3d ba b3 d5 3c 46 3a d1 bd 8c d0 97 3c
       0.039604764 0.026086677 -0.10216193 0.01853206
000200 70 28 b5 bd 67 54 59 bd db 92 e3 3c 47 28 1a bd
       -0.088456035 -0.053059008 0.027779987 -0.037636068
000210 4d bd ef bc 9e e5 10 3e d4 a5 ef 3c f7 ec c4 3d
       -0.02926507 0.14150092 0.029253878 0.0961551
000220 b1 6c 1f 3e 29 1f a6 bd de 50 4f 3c 4c 60 7d 3d
       0.15568806 -0.08111412 0.012653558 0.061859414
000230 31 df 99 bd f7 ff cf bd 84 8f 3d 3d 36 ff 80 bd
       -0.075132735 -0.10156243 0.046279445 -0.062986776
000240 90 2f cc bd 5f 64 67 bd ba aa b5 bd 64 05 c5 3c
       -0.09970009 -0.056492206 -0.08870454 0.024050422
000250 7f e5 a4 bd d9 fd f6 bc 5c be e9 3d 4e 08 58 3d
       -0.080515854 -0.03015034 0.11413261 0.052742295
000260 0d a3 60 3d 9f 59 0f be 06 05 05 3d 4d 22 0a bc
       0.054842997 -0.13999031 0.032475494 -0.0084310295
000270 89 f8 5e 3c 99 ef 7d 3c 3a a0 bc 3c 85 fa 9c 3d
       0.01360906 0.015499019 0.02302562 0.0766497
000280 d4 57 af bd d4 7c a6 3d 2a 4e 0d bd 1e 84 91 bd
       -0.08561674 0.08129278 -0.03449837 -0.071052775
000290 1f e5 dd 3d 63 36 ed bd 83 ee 76 3d f9 e1 52 3b
       0.10834717 -0.11582639 0.060286056 0.0032178147
0002a0 8c 00 fa 3d f2 08 e7 3c 54 35 b9 3c 25 7c 04 3d
       0.122071356 0.028202508 0.022608437 0.032344956
0002b0 50 7d b8 bd 5f 76 83 3c f4 1c b3 3d 1e 77 29 3e
       -0.090082765 0.016047655 0.08745757 0.16549346
0002c0 27 cf 65 bd 9d a8 c3 bc f7 6b 1f be 94 08 37 3d
       -0.05610576 -0.023884112 -0.15568529 0.044685915
0002d0 1d b6 b6 bc 66 56 4b bd 84 5a 08 3d 93 6c c0 3d
       -0.022303635 -0.049642943 0.033289447 0.09395709
0002e0 83 66 44 bd 5f 84 01 3e 97 6d be bd 46 b7 00 be
       -0.047949325 0.12648152 -0.09298246 -0.12569913
0002f0 f7 9f a4 3d 39 27 e3 bb ef 8f c5 3a 17 e2 69 3d
       0.080383234 -0.006932166 0.0015072803 0.05710038
000300 8a 57 da 3d 4a cb 6b bd 5a 92 bb 3d 17 05 74 bc
       0.10661228 -0.05756692 0.09158774 -0.014893792
000310 bf ba aa 3d 71 ac e8 bd d6 db fc bc cc 23 b4 bd
       0.083364 -0.113610156 -0.030866545 -0.0879589
000320 01 e1 70 bd 65 f0 fa bd c4 b4 30 3e b5 ec 90 3d
       -0.05880833 -0.12252883 0.17256457 0.07076398
000330 20 6d ba bd fb 4d d2 bc db e2 ef bc f4 81 c9 bd
       -0.09102845 -0.02567195 -0.029282978 -0.0983924
000340 ad 14 68 3d 5a ac 73 3d 5b 92 ff 3d eb 11 27 3d
       0.056660343 0.05949054 0.12479087 0.040788572
000350 07 8e 10 3b 41 b6 28 3d 3f 24 09 3e 82 d0 b4 3d
       0.002205731 0.041189436 0.13392733 0.08828832
000360 2e 04 b3 bd b0 d1 b1 3d 45 3e e7 bd db 6e 0d be
       -0.087410316 0.08682573 -0.11291174 -0.1381182
000370 d9 1e 96 bd 6d de 47 bd 26 19 ad 3d f7 75 30 bb
       -0.073301025 -0.048796106 0.08452062 -0.0026925781
000380 63 1c 8f bd 24 f5 66 bd f2 d9 41 bd 07 5b 33 3d
       -0.06987836 -0.056386128 -0.04732699 0.043787982
000390 da 93 a5 bd 14 96 e8 bd c3 16 56 bc 3f 5e 41 bd
       -0.08084841 -0.1135675 -0.01306695 -0.04720902
0003a0 c9 8d c5 bc ef b1 53 3d 49 26 31 3e 1f 30 8d bd
       -0.02411546 0.051683363 0.17299761 -0.06893944
0003b0 66 e7 3e bd fd 31 90 bd 37 32 89 bc 4b 2b a1 3d
       -0.046607397 -0.070407845 -0.016747577 0.078695856
0003c0 64 6e e7 3b 2b 7b 2b bd 0a 1c a5 3d 0e 64 35 3d
       0.00706272 -0.04186551 0.08061989 0.044284873
0003d0 9b 57 d6 3d 0d de ca 3d 8a cc 50 bd d0 b4 0f bc
       0.10465928 0.09905634 -0.050976314 -0.008771136
0003e0 23 0a 50 bc 01 94 aa bd 9e ca 00 be 05 d6 4c 3d
       -0.012697729 -0.08329011 -0.12577292 0.050008792
0003f0 c6 18 62 3d d2 41 97 bd 7b 9a ec 3d 6b 20 09 3d
       0.055199407 -0.07385601 0.11552902 0.03347818

gru.weight_hh_l1 f4 [186, 62]
000000 a2 b9 04 3e 8b f3 56 3d 48 77 2a be c8 19 88 3d
       0.12961438 0.052478354 -0.16647065 0.066455424
000010 0c e7 a6 3d 3d e2 37 3e f9 08 c2 bc fc fb 85 bc
       0.081495374 0.17957397 -0.02368592 -0.016355507
000020 20 a2 b4 3c 98 16 31 be a8 fc ee 3d de 2d 56 3d
       0.022049963 -0.17293775 0.11669284 0.052289836
000030 b6 10 36 be ce 67 a0 3d a4 c6 68 bc e6 fc f7 bd
       -0.17779812 0.07832299 -0.014207516 -0.121087834
000040 87 1c 7d bc 57 15 69 bd 78 0f 7a 3d 7a 92 f6 3d
       -0.015448696 -0.056905117 0.06104991 0.12039657
000050 c0 e6 09 be cb 35 36 3e 9e e3 a9 3d 50 8b 8a be
       -0.1346693 0.17793958 0.08295368 -0.27059412
000060 94 13 20 bd 06 66 89 3d 5f de 03 3e ce b4 9d bd
       -0.03908117 0.067089126 0.12877797 -0.077005014
000070 08 cc 1a 3d 3a 5f 71 3e 24 ec f0 bd 54 b7 82 bc
       0.037792236 0.23571482 -0.1176379 -0.015956558
000080 e0 3d 82 bc da d1 90 bd d0 f4 eb 3d ad ff 2c 3d
       -0.015898645 -0.07071276 0.11521304 0.04223602
000090 da dd 30 3e e6 08 fc 3d cb 63 02 bc 93 e2 b8 bd
       0.1727213 0.12306385 -0.007958363 -0.090275906
0000a0 fb 3a 1d bd 54 28 48 3d 1c a1 07 3e 8a f6 bc 3d
       -0.038386326 0.048866585 0.13245052 0.09226711
0000b0 70 12 96 3d 94 75 91 bd 2c 68 89 bd 5a 05 27 bd
       0.073277354 -0.071025044 -0.06709322 -0.040776588
0000c0 95 4e ad 3c ab 42 e8 3c 7a 6b 6a 3d 8d d8 8a bd
       0.021155635 0.028352102 0.057231404 -0.06779585
0000d0 11 99 34 be 31 7c 7d bd 8f 00 8f 3e 1b 42 83 3d
       -0.17636515 -0.061886016 0.27930114 0.06409093
0000e0 dc 1c 38 be 4e 3a c4 3d 36 f4 05 be 40 86 ac 3d
       -0.17979759 0.09581433 -0.1308144 0.08424044
0000f0 7f db 26 3e e6 5b f1 3d 7d 2a ca 3d dc ce 71 3e
       0.16294669 0.11785106 0.09871385 0.23614067
000100 ca ce b2 bb 6c 03 b7 bd 68 5f 05 be a1 0a 8e bd
       -0.00545678 -0.089361995 -0.13024676 -0.06935621
000110 53 d9 84 3e a3 f2 82 be 38 3d bd 3d cc 37 ee 3c
       0.25947055 -0.25575742 0.09240192 0.02907934
000120 cb 71 0b 3e 77 b3 0f 3e 07 7f 0a be e9 45 76 3d
       0.13617627 0.14033304 -0.1352502 0.060125265
000130 8d 67 59 3e 44 e0 15 bd da 83 4a bd 47 3e b7 bd
       0.21230908 -0.03659083 -0.04944215 -0.08947425
000140 50 13 8d 3e 45 fb 5e bd cb 3a 7c bd f3 5e c8 3d
       0.27553797 -0.054438848 -0.061579507 0.09783735
000150 3c 2e ac 3a 67 2a e2 3c e9 d5 5c 3e 92 c2 5c be
       0.0013136338 0.02760811 0.21565975 -0.21558598
000160 39 b0 05 bd 4f 25 82 3c cb 68 85 3e 5b bc a2 3d
       -0.032638762 0.01588693 0.26056513 0.07946082
000170 8f 4b 29 be 7f 82 b5 bd 8a 2f 88 be b2 4a 6e be
       -0.1653273 -0.08862781 -0.2659877 -0.23270682
000180 b1 01 49 3e d2 58 54 3d 28 43 0b ba 2e e9 83 bd
       0.19629551 0.05184252 -0.0005312436 -0.0644096
000190 fe cd 54 3d 6c 0c b0 3d 3c a6 37 bd 6f 8b 1b 3e
       0.051954262 0.08596119 -0.044836268 0.15189908
0001a0 2d 76 60 bd 1f 46 63 bd 1d cf 78 3e 9b 43 4d be
       -0.0548002 -0.055486795 0.24297757 -0.2004532
0001b0 f2 e3 43 be 1b 7a 1e 3e 14 4e 5c 3e 29 2f 86 3d
       -0.19129923 0.15476267 0.2151416 0.06551964
0001c0 36 21 39 3e f1 a8 92 bd 62 68 cb bd d5 e6 b1 3d
       0.18079075 -0.07161129 -0.09932019 0.08686606
0001d0 58 83 1c 3e 18 56 de bd 9e ac 9f bc bb c7 86 bc
       0.15284479 -0.10856265 -0.01949149 -0.01645266
0001e0 4f d3 4a be 36 f4 76 3c a1 fd 2c 3e 67 06 c0 bc
       -0.1980717 0.015072873 0.16893627 -0.023440553
0001f0 51 91 85 bc fc 6a 97 3d 38 1b 46 be 7c 74 25 be
       -0.016304644 0.073934525 -0.1934632 -0.16157717
000200 36 0e 63 be 50 fe f5 3c 88 41 92 3d 8c b3 57 be
       -0.2217339 0.030028492 0.07141405 -0.21064585
000210 b2 7e e9 3d 10 97 4c be cf 5a f3 3d 1c 6c cb 3c
       0.11401118 -0.19979501 0.11882555 0.024831824
000220 76 54 21 bd af 53 56 3e da c0 90 3d 1b 6e ae bc
       -0.03938719 0.2093036 0.070680335 -0.021292737
000230 c6 9b 7b be 9a ad 46 be 6d e9 1e 3e 1f ae 34 be
       -0.24571142 -0.19402161 0.15518732 -0.17644547
000240 68 c4 23 be fc 52 0f bd e1 34 a9 3b d4 f2 80 3d
       -0.15992892 -0.03499125 0.0051637744 0.06296316
000250 a6 f5 8b 3d 33 5b 52 be 7d ad aa 3d 24 f6 8e 3b
       0.06833963 -0.20542602 0.083338715 0.0043628383
000260 f4 1c a0 3d d4 aa 36 3e d5 73 05 be d1 5c 58 be
       0.07818022 0.17838603 -0.13032468 -0.21129157
000270 e1 d4 83 be f8 d7 81 bd 63 40 f0 3d 2a 23 6a 3e
       -0.2574835 -0.06340021 0.11731031 0.22864977
000280 40 0a 2c bd 0d 0a 35 be f9 65 1f 3e 8f b6 42 3e
       -0.042001963 -0.17679615 0.15566243 0.19014953
000290 9d ed 16 3b 27 83 d7 ba 5e 10 bc 3c 15 ee 06 be
       0.0023029812 -0.0016442285 0.022957023 -0.13176759
0002a0 39 65 1e 3e 33 df 11 be f2 6b 73 bd c5 e0 d8 3d
       0.15468301 -0.142453 -0.059429117 0.105897464
0002b0 cf cf 14 3e 4a 50 bc 3c 2b 34 0e 3e 35 ca 80 3d
       0.14532398 0.022987504 0.13887088 0.06288568
0002c0 cc 8e b7 bd 6a 4f 1e 3c b3 44 2e 3e 60 23 0c be
       -0.08962783 0.0096624885 0.17018394 -0.1368537
0002d0 a2 32 83 bd f3 ed 1c bd c3 fc 41 be d6 93 3e 3d
       -0.06406142 -0.038312864 -0.18944077 0.046527706
0002e0 38 9b e9 3b 15 7d df 3d f9 50 8f 3d 7c d5 5a 3e
       0.007129099 0.109125294 0.06997866 0.213705
0002f0 94 ec cf bd 7a 98 bc bd 1c 2c 5e be 4b 03 b1 bd
       -0.101525456 -0.0920877 -0.21696514 -0.08643206
000300 32 21 f3 3d c2 16 7e be fd c1 96 3c d3 d9 34 bc
       0.11871566 -0.24813369 0.018403048 -0.0110382615
000310 34 10 88 bd 91 df 17 3e d4 ee ca bd d6 f6 14 3e
       -0.066437155 0.14831378 -0.09908834 0.14547285
000320 3a 1d 44 3e f8 0e 3b be 99 42 1f bd af fe 62 be
       0.19151774 -0.18267429 -0.03888187 -0.22167467
000330 2f 43 49 3d 3a cb e4 bd a2 92 fe bb 7a ee 8c 3c
       0.049136337 -0.11171575 -0.007768945 0.017203558
000340 08 c5 45 be d8 22 ed bd d7 1d f4 3d ed d5 12 be
       -0.19313443 -0.115789115 0.11919754 -0.14339419
000350 9b 77 fe 3d fe 91 0b be 88 e2 69 3e 2c 35 d0 3c
       0.12425157 -0.1362991 0.22840321 0.02541598
000360 58 3f 25 bc 5d 29 c4 bd f9 37 14 be 05 b9 80 bd
       -0.010085903 -0.09578202 -0.14474477 -0.0628529
000370 a6 c9 13 3d 3e 95 70 3d 66 76 da 3d 40 87 78 be
       0.03608098 0.05873608 0.10667114 -0.24270344
000380 6d 1f 57 3e 51 eb 87 3e 94 71 f8 bd 7e c4 1f 3e
       0.21008082 0.2654672 -0.12131038 0.156023
000390 3c 0b d4 3d 7f 9a 4b be fb 54 c3 3c 6c 7c c5 bd
       0.10353705 -0.19883154 0.023844233 -0.09642872
0003a0 c2 18 74 be f5 d7 2e 3e 3b b0 4b 3e 2a a6 3b 3e
       -0.2383757 0.17074569 0.19891445 0.18325105
0003b0 f6 bb 77 3d 14 fd c4 bd 31 e4 a8 bd f9 cf 87 3d
       0.060481988 -0.09618583 -0.08246649 0.066314645
0003c0 ea af fe 3d 56 d0 fb 3c 94 8b b2 3b af 7b 49 3d
       0.12435897 0.03073899 0.005448768 0.04919022
0003d0 5a 6d ac bd 7c 7c 39 3e b6 2b 37 3e 41 7c 8b bd
       -0.08419295 0.18113893 0.17887768 -0.06810809
0003e0 d7 d6 da 3d 9c df 4a 3e 7f 4b be bd 2c c6 78 bd
       0.10685509 0.19811863 -0.092917435 -0.060735866
0003f0 c7 33 23 be 5b 58 c3 3b fd 9e 8b 3e ec 7d 5c be
       -0.1593772 0.0059614605 0.27269736 -0.2153241

gru.bias_ih_l1 f4 [186]
000000 f4 8d d2 3c 20 98 96 bd f1 8f 96 bc 40 e8 5a 3c
       0.025702454 -0.07353234 -0.018379183 0.013361037
000010 e7 cf a9 bd 41 ab d5 bd 15 e4 dc bd be 3a 04 3d
       -0.08291607 -0.10433055 -0.10785691 0.032282583
000020 6c 2b ea bd 4b 11 49 3e 84 f8 b7 3d f5 19 45 3b
       -0.11434063 0.19635503 0.089829475 0.0030075286
000030 ee df ec bd fa a9 80 bd 74 39 85 bd 38 bb c2 3c
       -0.11566149 -0.062824205 -0.06505099 0.023770913
000040 41 0c ad bb b7 5c 1f bc 4a 36 de bd 0e bc 2e be
       -0.005281002 -0.009726695 -0.108501986 -0.17063925
000050 59 2d 88 3d 37 2a 1f 3e 15 fc 24 be ff 4d 65 3e
       0.066492744 0.15543447 -0.16111787 0.22393034
000060 dd b5 10 bd 10 06 1b bc 4d 93 af bd a4 7f 63 3e
       -0.03532969 -0.009461895 -0.08573017 0.2221666
000070 54 90 53 ba 50 58 31 3e bd f3 9c bd 43 76 25 bd
       -0.0008070518 0.17318845 -0.07663677 -0.040395986
000080 19 f0 28 be ac cf b9 3d f5 b5 97 3d 02 30 e3 bd
       -0.1649784 0.090728134 0.074077524 -0.11093141
000090 08 f4 c4 3d bc ca 21 bd 22 a7 53 3d c1 24 61 bd
       0.09616858 -0.039499983 0.051673062 -0.054966692
0000a0 be ad bb bd 72 a3 39 3a eb 7a a5 3d ff 4d 2f be
       -0.09163998 0.0007081545 0.08080085 -0.17119597
0000b0 3f c6 a4 bd 1b 76 13 be 93 00 28 be 6c cf cc 3d
       -0.08045625 -0.14400522 -0.16406469 0.100005
0000c0 ab 37 ef 3c 8e f4 6a 3d ca 32 68 3c 46 f1 75 bd
       0.02920135 0.05736213 0.014172265 -0.06004455
0000d0 fa 3b 07 3e 39 73 0f be 73 aa 6c 3e a1 57 6b 3b
       0.13206473 -0.14008798 0.23111896 0.0035910385
0000e0 be 2a 64 3c 9d 64 b0 3c a9 8b 5f bd 56 3a 76 3c
       0.013926206 0.021532351 -0.05457655 0.015028557
0000f0 af 73 8f 3d 05 3e 54 3e 44 f0 d7 3c 1b 3a 60 bc
       0.07004487 0.20726784 0.026359685 -0.013685728
000100 dc ec 71 bd f0 32 99 bc 4d 6d 39 3c 1c 33 39 be
       -0.059063777 -0.018701047 0.011317563 -0.18085903
000110 fb 5f af 3d ca f3 50 3d dd 38 f3 bc 1e 27 0d be
       0.08563229 0.051013745 -0.0296902 -0.13784453
000120 bd c7 bb bd 1d b0 27 bd 60 dd 5f 3b bf 84 83 3c
       -0.091689564 -0.04093944 0.003415905 0.01605451
000130 f4 41 82 bd b3 0c ff 3d ec fc df 3d 59 c0 d0 3d
       -0.06360236 0.12453594 0.10936913 0.101929374
000140 cf ab a2 3d 7f 73 93 bd c6 18 35 3d a1 ef 24 bc
       0.07942926 -0.071997635 0.04421308 -0.010066898
000150 78 80 0e be 0d 0e 3d bd ce 76 44 3d 2e 7e b0 3d
       -0.13916194 -0.046155978 0.047964863 0.08617817
000160 4e 19 05 be 21 e7 be 3b 27 e0 c4 bc 7b d1 14 bc
       -0.12997934 0.0058258926 -0.024032665 -0.009083147
000170 20 9e 32 bd 4f dd a6 3d 1f b5 02 be ac 26 80 3c
       -0.04360783 0.0814768 -0.12764405 0.01564344
000180 a6 6c c9 3d eb 8a 5f 3d 94 6a 0c 3c 03 8a b9 bc
       0.09835176 0.054575842 0.008570332 -0.022648817
000190 14 30 90 bd 7a 7f 84 3d 5c 47 ee bd 71 21 3c 3e
       -0.0704042 0.06469627 -0.116347045 0.18372132
0001a0 15 e5 30 3d f6 78 fe bd 88 4c 74 bd fc e6 4b be
       0.04318722 -0.12425415 -0.0596433 -0.19912332
0001b0 94 de 80 3e 3a 07 ba 3d b6 3b 3c bd 9a bd e4 3d
       0.25169814 0.090834096 -0.045955382 0.11168976
0001c0 4e 7c 7d be be bc 66 3d 5c 2a 93 3d bb e7 47 bd
       -0.2475445 0.056332342 0.07185814 -0.04880498
0001d0 13 e7 94 be 34 ff 1d 3e af 99 60 3d b3 bb 88 bc
       -0.29082546 0.15429384 0.054834064 -0.016691064
0001e0 f3 2a b6 3d 38 89 f0 3d 65 47 81 bc 45 2f e9 bd
       0.08894911 0.117449224 -0.015781114 -0.11385969
0001f0 69 34 7f 3e 32 a1 a5 3d 29 31 2a be a1 e2 64 bc
       0.24922337 0.08087386 -0.16620316 -0.013970048
000200 96 da 26 be de f3 92 3e 06 12 07 3d d6 c3 e2 bd
       -0.16294321 0.2870168 0.032976173 -0.11072509
000210 e7 a4 89 3c 71 4f 82 be 95 7e a1 3d 7d ca af 3d
       0.016802264 -0.25451234 0.07885472 0.085835434
000220 73 bd 51 be 56 37 60 3e 42 f9 a9 3d 29 cd db bd
       -0.20482425 0.21896109 0.08299495 -0.107324906
000230 17 94 81 39 3e 3c 5a 3c 57 06 76 3c 4d eb fa bb
       0.00024715133 0.013320027 0.01501616 -0.0076574446
000240 bd fd 2d be 3f 72 69 3e ec 87 c1 bd 70 70 80 be
       -0.16991325 0.22797488 -0.09449753 -0.25085783
000250 c8 f5 29 3e 74 5d 16 bd a8 5e 7a 3e 29 11 9b bd
       0.16597664 -0.036710218 0.24450171 -0.075716324
000260 da e5 ea 3c 20 f4 40 3e 73 b0 67 be d4 f1 22 be
       0.028674055 0.18843126 -0.22625904 -0.15912563
000270 bd 36 82 bc a0 5d 5f be c3 d1 99 3c 9a 9e 03 bd
       -0.015895242 -0.21813059 0.01877678 -0.032133676
000280 38 68 64 3e 31 73 4e 3d da 4d 4b 3d 16 bd 7b bc
       0.22305381 0.050402824 0.049634792 -0.015364906
000290 e3 89 7d be bd 5a ea 3d ab e3 50 3e a5 f0 86 bd
       -0.24759631 0.11443088 0.20399348 -0.06588868
0002a0 1f f7 26 bd 5c 03 26 3d ca 21 08 be 7b 23 5d 3d
       -0.040763017 0.040530547 -0.1329414 0.053988915
0002b0 d0 c6 2a 3e 70 da 00 3e 20 bc 08 3d c5 18 40 be
       0.16677403 0.12583327 0.033382535 -0.18759449
0002c0 7c 9f d2 3a b3 30 f0 3d 57 70 25 3e db 4e f0 bd
       0.0016069259 0.11728039 0.16156135 -0.117337905
0002d0 9f 31 c9 bd 9c e2 96 3e 4e fa 33 be 90 ce f8 3d
       -0.098239176 0.29469764 -0.17575952 0.12148774
0002e0 29 9d 5e 3e 8a 5f a2 3e
       0.2173964 0.31713516

gru.bias_hh_l1 f4 [186]
000000 3b f8 35 3e 59 7b 9f 3b 97 0e 17 bc 2a 3f 30 3d
       0.17770474 0.004866999 -0.009219787 0.043028988
000010 95 64 17 bd 7c da 17 be 2b ff db bd b7 c5 4b bd
       -0.036961157 -0.14829439 -0.10742029 -0.049749102
000020 35 35 13 3c 5b 71 92 3d e3 a9 fd 3d 97 31 a4 bd
       0.0089848535 0.07150527 0.12385919 -0.08017271
000030 b5 75 13 3d 34 67 eb bc 68 15 a5 3d 81 8b e2 3d
       0.036000926 -0.028735735 0.080607235 0.110617645
000040 db 9d 85 3d b8 c5 f9 bd 97 b7 4b bd 05 e3 56 be
       0.06524249 -0.12195915 -0.04973563 -0.20985039
000050 dc a5 ee 3d c5 b6 7e 3c 28 0c aa bd a3 f2 6c 3e
       0.11652729 0.015546505 -0.083031 0.23139434
000060 fe 28 47 3d ec 3c d0 bd a1 5b a3 bd 1c b4 61 3c
       0.048623078 -0.1016787 -0.07976461 0.013775852
000070 b3 37 ee bd 22 8a fc bb 0d fd aa 3d cd 4c aa bd
       -0.116317175 -0.0077068964 0.08349047 -0.0831543
000080 43 d7 8d bd cb e2 ab bd c1 5b ba bd 06 e8 2d bd
       -0.069258235 -0.08392867 -0.09099532 -0.042457603
000090 2c 95 60 3d f7 b7 0b be d6 17 9c bd 4f f7 fd 3d
       0.05482976 -0.13644396 -0.07621734 0.12400686
0000a0 6f eb dd 3d f2 d2 61 3d ff 64 a1 3d 6d 94 ea bc
       0.10835921 0.055132814 0.078805916 -0.028635228
0000b0 e2 ea 8a bd aa 4c 80 bd 66 af be bd 52 62 42 3d
       -0.067830816 -0.062646225 -0.09310798 0.047457047
0000c0 3e cc bb bd f1 7a bd bd 1a 54 df bc cf 0f c2 3d
       -0.091698155 -0.09251965 -0.027261782 0.094756715
0000d0 fc 2a 96 3c a2 b5 c6 bd 97 c3 83 3e b9 34 ca bd
       0.018331043 -0.097026125 0.2573516 -0.09873337
0000e0 07 d7 91 bc 29 28 32 3e 77 6a 7a bc 67 97 bc 3d
       -0.017802728 0.17398132 -0.015284172 0.09208565
0000f0 bb 64 ef bd c5 e0 6f 3e 22 84 40 3d 06 9f fc bd
       -0.11689135 0.23425587 0.04700101 -0.12335019
000100 17 68 07 3d f9 89 07 bd 6b 64 f7 3b 5d 07 3b bd
       0.033058252 -0.033090565 0.0075498126 -0.04566132
000110 ef 7a 2c 3e a7 fb a0 3d ef 58 a4 bd f6 32 65 be
       0.1684377 0.07860499 -0.08024775 -0.22382721
000120 0d 4c 20 bd 39 21 2f 3e 44 c2 c7 3a d8 3d 9b bd
       -0.039135028 0.17102517 0.0015240391 -0.07580155
000130 f1 dc 0c be 93 4c 08 3e 2d 05 47 3d 88 99 42 3d
       -0.13756157 0.13310461 0.04858892 0.0475097
000140 f8 1c a9 3d 45 25 3e bd d3 34 5c 3c 41 f7 22 3c
       0.082574785 -0.04642226 0.013440329 0.009946645
000150 f0 9d 99 3d ea 67 97 3c f1 a2 dc 3d a9 5b ec bc
       0.07500827 0.018482167 0.10773266 -0.0288523
000160 d4 18 0a bd 51 2a 98 3a b5 3e be 3d 93 97 02 3e
       -0.033715084 0.0011609291 0.09289304 0.12753133
000170 aa b2 b9 3d 32 6b e5 3b e8 3a b9 bc 93 67 e0 bd
       0.090672806 0.007001304 -0.022611097 -0.10957255
000180 96 31 02 bd cf 16 1f 3e 1d 9c 16 3d fc c3 58 bd
       -0.03178557 0.15536045 0.036769975 -0.05292128
000190 ea 5b c4 bb 45 d3 b4 3d ab 63 ce 3c 1c 4f b6 3d
       -0.0059924023 0.08829359 0.02519401 0.08901808
0001a0 84 fa 14 be 22 5a e4 3c 4c c1 19 be 17 d2 c6 bd
       -0.14548689 0.02787501 -0.15015143 -0.0970804
0001b0 4d 43 1c 3e 78 cc 82 bb 04 bf b3 3d ec 4f 88 3d
       0.15260048 -0.0039916597 0.08776668 0.06655869
0001c0 0f ba 98 be 2f df 4a 3e f4 a7 d5 3d 21 95 1f 3d
       -0.2982945 0.198117 0.10432425 0.03896058
0001d0 a3 a9 b2 be fa e8 b2 3d 6c a3 e2 3c ac 7b 10 bd
       -0.34895048 0.08735843 0.027665816 -0.035274193
0001e0 aa b2 8b 3d 80 76 e9 bd 30 50 89 3d 8e 68 cb bc
       0.06821187 -0.11399555 0.06704748 -0.024830129
0001f0 6f 0f 89 3e ca 78 2e 3a 1a 01 f5 bd 70 01 2c bd
       0.26769587 0.0006655572 -0.11963101 -0.04199356
000200 b4 23 db bc 13 c6 93 3d 76 32 e1 3d e9 8a b8 bd
       -0.026750423 0.07215514 0.10995953 -0.0901087
000210 c7 e2 04 3e 8d e5 e6 bd d9 66 35 3e 97 5e 37 3e
       0.12977134 -0.11274252 0.17715015 0.17907177
000220 59 24 4c bd 55 36 bf 3c d7 9c 62 3e 3b c6 58 be
       -0.04983935 0.023341337 0.22130142 -0.21169369
000230 e2 79 c1 bd d6 60 43 be 42 0b 10 bb 34 41 90 bd
       -0.094470754 -0.19079909 -0.0021979366 -0.070436865
000240 06 36 cb bb 2c b1 5b 3e f6 3a 01 bd d3 b1 23 be
       -0.0062015085 0.21454304 -0.03155037 -0.15985803
000250 17 f9 0b 3c c2 f7 d5 3a fe 16 27 3e 85 2c 1d be
       0.008543274 0.0016324448 0.16317365 -0.15349014
000260 d8 9d 0d 3e 23 4f 3d 3e 87 54 14 be 49 58 24 be
       0.13829744 0.1848722 -0.1448537 -0.16049303
000270 fe 6e 92 3c d9 88 29 be ba cd df 3d ad a6 71 3d
       0.01787519 -0.1655611 0.10927911 0.058996845
000280 c8 ea 97 3e 33 55 0b 3d a4 80 52 3e 0f 32 c7 3b
       0.2967131 0.0340168 0.20556885 0.0060789655
000290 43 85 54 be 7a b7 61 3e 11 9c 8f 3d 48 91 aa 3c
       -0.2075396 0.22042647 0.07012189 0.020821229
0002a0 c3 6d d2 3d 4b f0 79 3d 7f be 25 bd 00 38 3d 3e
       0.10274842 0.061020177 -0.040464874 0.18478394
0002b0 87 8c 14 bd 59 58 2d 3d c9 9a e4 3d f7 ad a3 bd
       -0.03626683 0.042320583 0.111623354 -0.079921655
0002c0 d9 de fd bd 5f b7 57 3e 21 74 7f 3e 3e 82 47 be
       -0.123960204 0.21066044 0.24946643 -0.19483277
0002d0 34 20 dc bd 9b 83 37 3e 2f 46 3b bd b5 1b 45 3e
       -0.1074833 0.17921297 -0.04572123 0.1924885
0002e0 68 0f 36 3e 58 33 89 3e
       0.17779315 0.26796985

fc.weight f4 [1, 62]
000000 bb 39 90 3f 16 72 8b 3f 7b 9e 84 bf 0b 25 74 bf
       1.1267618 1.0894191 -1.0360864 -0.95369023
000010 de ba 8b bf 63 50 80 3f fe 27 7c 3f 21 ef 76 bf
       -1.0916402 1.0024532 0.98498523 -0.9645863
000020 7a 44 70 3f 5a c4 8f bf 67 60 74 3f cf 05 8b 3f
       0.93854487 -1.1231797 0.954596 1.0861148
000030 5f ad 7e bf 5c 53 87 3f 9b f3 84 3f 8a 84 81 bf
       -0.99483293 1.0572314 1.0386842 -1.0118573
000040 e5 68 82 bf 2d 1a 85 bf ba ac 8b 3f f8 ce 77 bf
       -1.0188261 -1.0398613 1.0912087 -0.96800184
000050 8f eb 8c bf 26 18 83 3f d9 49 8c bf 62 59 84 bf
       -1.1009387 1.0241745 -1.0960037 -1.0339777
000060 5b 0f 7d 3f 82 45 80 bf ea fb 7a 3f 6c 49 7c bf
       0.98851556 -1.0021212 0.9804064 -0.9854953
000070 3d 30 87 3f ef d8 84 3f 61 2c 88 bf fb 93 8b bf
       1.0561596 1.0378703 -1.0638543 -1.0904535
000080 47 4e 89 bf 20 24 89 bf 6d e4 7c 3f c6 62 83 3f
       -1.0727013 -1.071415 0.9878605 1.0264518
000090 52 ee 8a 3f f7 91 87 bf 1a 00 79 3f ed c8 8a 3f
       1.085398 -1.059142 0.9726578 1.0842568
0000a0 8a fc 87 bf 30 25 8c 3f 9e d5 8c 3f 99 36 84 bf
       -1.0623944 1.0948849 1.1002691 -1.0329162
0000b0 f2 09 7f 3f 07 d6 81 bf f2 0d 8f bf 34 f1 83 3f
       0.9962455 -1.0143441 -1.1176131 1.0307984
0000c0 60 be 83 3f 61 24 88 3f ce 22 8b 3f 47 8b 84 bf
       1.0292473 1.0636102 1.0869997 -1.0355004
0000d0 db bf 81 bf bb 5a 8b 3f 21 4b 93 3f 34 b3 83 bf
       -1.0136675 1.0887064 1.1507303 -1.0289063
0000e0 71 02 7f bf 6d 36 8e 3f 50 4b 86 bf f8 f3 83 3f
       -0.996131 1.111036 -1.0491734 1.0308828
0000f0 47 0c 81 3f 4d 3f 8c 3f
       1.0081872 1.0956818
