models/gru_trial_4.pth (torch, 340208 bytes, 9 tensors)

gru.weight_ih_l0 f4 [267, 44]
00000000: 9979 83bd 2add 2e3e aafb 32be 18bb 673d
00000010: c6b0 ebbb d848 eabd e407 25be 0dfd a6bd
00000020: 40b1 fdbd 4fff b6bd ea5f 8cbd aba5 873d
00000030: 260c 15bd 6a27 593e 404d 8fbe a466 f3bd
00000040: e5c0 003c 004f 943e 2b1c 203e 8e6d 40be
00000050: 3a0f df3c b802 a63d 2e4e 583d 4c87 50bd
00000060: 078b a4be a0be e7bd 22b6 febd 4c91 eb3d
00000070: 4103 bc3b 6b3e 06be ad92 583d c6a1 87be
00000080: c8f7 d03d 8437 14bc 3f5b 3cbe 0f60 a63d
00000090: 9cf1 cabc 4718 363e bffe f03c e783 0dbe
000000a0: 3157 30be 51b8 083d f050 043e d5b4 51be
000000b0: e66f 883c f9db 193e 4535 373d 8022 e4bd
000000c0: 0c2e 9dbd 3266 07be bb4e 8abd dcaf a73d
000000d0: 20f4 bc3c 946e 42bc 7f9f 823d abe9 32be
000000e0: 8b36 7f3d 6935 023e f8d1 753d 6ff1 d43d
000000f0: 3704 5d3d 4a0b 9fb9 4133 0b3e ae30 f8bd
00000100: b4b5 bfbd d680 853d 35b0 963d b28e 963c
00000110: e8bd c9bc f9de cbbd 5ee1 073d b412 10bd
00000120: 10d6 c03c 821b 3fbe 53ca 13be 06f1 69bd
00000130: ff59 be3d 167c 0ebe a98f 213d 0c59 da3d
00000140: 9afd a5bd 2e4a e83d f836 21bd 7918 9f3d
00000150: b374 16bd ea59 96bd 191e c23d 2f62 63be
00000160: 561a 413e ab93 b93d 6865 523c 227a 6ebe
00000170: ed8e b53d 069f 823d 75e1 833d 2f90 4cbc
00000180: 5780 ea3d 41c9 98bc 715c c03c 6b44 323e
00000190: 3d37 663e 297b 033e 3357 9b3d 96d0 8a3d
000001a0: 4ccf 2cbd bb73 ebbc 191a 3b3d 6d63 b73c
000001b0: c254 c23d 4e90 573c d7e0 f33d 059b c13d
000001c0: 25b7 4cbe 9ac5 6f3d e5a2 e03c e1af 0abe
000001d0: ac33 b2bc 993a c8bd 5d47 c3bd e8b0 b83d
000001e0: 52e2 a33d 0dff f5bb e9ec 79be 0ade abbc
000001f0: b89e 07bd 5947 443e 7187 3bbe 3b5d fd3d
00000200: a3d4 003d 6e8a 3ebb 5d7f 4c3e a4b4 f7bd
00000210: bf95 f83c f1c4 123d 80c7 b8bd c930 34bc
00000220: a555 003d 4372 62bd bbcd 803d fbad 123e
00000230: 85d2 27be 6cb1 dabd 1cb3 033e 4ded 843d
00000240: c1f4 6b3d a20e 9a3b 76bf ac3d c592 0a3d
00000250: cc45 f33d 98f8 0b3e 79f4 cb3d 27df dcbc
00000260: 336f a4bc ed12 23bd 3575 203d 211b 9dbd
00000270: 42ce 1e3d 92a0 423e 47bb 77bd a17f b83d
00000280: d31a 243d 4985 b23c a93a 143e 84d1 db3b
00000290: 5e31 7b3c 2312 0dbd 2a1f 6fba 682b d83c
000002a0: 9f9a 2dbe 9f2b 6fbb 0b5a a4bc 5f38 013e
000002b0: 960c cdbd 4fb6 15be fea0 80be db97 1abd
000002c0: d551 aabc be40 91bc 6ed0 3abe 77b9 1fbc
000002d0: 17ce f6bc 86ae 9ebc 3225 813d d7d5 8bbd
000002e0: 8202 013e 4f57 9b3c e02b 8d3d cd56 6c3d
000002f0: 2982 86bd f274 913b bfd5 ccbd 7f65 9dbd
00000300: 2554 afbd bbbd 87bd d18d cfbc 9ecb 233d
00000310: be03 8bbb a35f 433d 31c6 003e 260c 9abd
00000320: 686c dcbd d76f afbc 1813 77bd 0b27 32bd
00000330: 1558 f9bd 5d2f 79bd 10c9 9e3d 30e8 19be
00000340: bb58 4d3e 484b dbbd 99fc 4fbc 3d25 87bd
00000350: 3256 d4bd 714d f73d d080 bf3d 1c9f 85bd
00000360: c871 713a 714d c43d 4eef 42bb 34b4 d7bc
00000370: 86ea 033e f568 c8bd 8717 06bd 363c 20be
00000380: 59fb bebc 0b48 f23d 1d98 26bc 5f78 85bd
00000390: 4b02 5abd 6795 cbbc a31b 9abd 7104 84bd
000003a0: 5804 d6bb 691b 9abb a0f0 443e b18a 2f3d
000003b0: 6cdc 28be e3cb 90bd 72e2 32bd 1f0b c43d
000003c0: 76a0 e3b9 b0ca d63d 9431 8a3d 765b e9bd
000003d0: 3f80 84bc 86e1 e0bc 6ab4 843d 16e5 33bd
000003e0: 1e51 9fbc 4e7d c3bd 0745 debd 6691 093d
000003f0: d34e 9cbd 4b89 863d 40e1 9fbd 8c2a ec3c
-0.06419677 0.17076555 -0.17478815 0.05657491 -0.007192704 -0.11439675 -0.16116291 -0.08153734
-0.123873234 -0.08935415 -0.06854232 0.066233955 -0.03638854 0.21206442 -0.27988625 -0.118848115
0.00785849 0.28966522 0.15635745 -0.18791792 0.02722894 0.08105987 0.052808933 -0.05091028
-0.3213732 -0.11315656 -0.12437083 0.115023226 0.0057376926 -0.13109748 0.052874256 -0.2649061
0.102035105 -0.009046439 -0.18394183 0.081237905 -0.024773411 0.17782699 0.029418347 -0.13819848
-0.17220761 0.033378903 0.129215 -0.20479138 0.01665492 0.15025319 0.044728536 -0.11139393
-0.07674798 -0.13222578 -0.06753298 0.081878394 0.023065627 -0.011867184 0.06378078 -0.1747195
0.062307876 0.12715687 0.060014695 0.10397612 0.053959098 -0.00030335254 0.1359377 -0.1211866
-0.09360829 0.06518714 0.073578276 0.01837859 -0.024626687 -0.09954638 0.03317391 -0.035174087
0.023539573 -0.18662837 -0.1443265 -0.057114623 0.09294509 -0.13914523 0.039443646 0.106615156
-0.08105011 0.11342274 -0.039359063 0.0776834 -0.036732387 -0.073413685 0.09478397 -0.22205423
0.18857703 0.090613686 0.01284156 -0.23288777 0.088651516 0.063779876 0.06439487 -0.012485548
0.1145026 -0.018650653 0.02348158 0.17408912 0.22482009 0.1283995 0.07584991 0.06778066
-0.04218988 -0.028741708 0.045679186 0.022386277 0.094888225 0.0131569635 0.11908119 0.09453396
-0.19991739 0.058538057 0.027421424 -0.13543655 -0.021753155 -0.097768016 -0.09535096 0.09018117
0.080021515 -0.007507211 -0.2440678 -0.0209799 -0.03311035 0.19167842 -0.18313386 0.12371298
0.031452786 -0.002907421 0.1997046 -0.12095001 0.030344842 0.03583235 -0.090224266 -0.010997959
0.031331677 -0.05528475 0.0628924 0.14324181 -0.163889 -0.10678372 0.12861294 0.06490574
0.057606462 0.0047014514 0.08434956 0.033831377 0.11878547 0.1366905 0.09958739 -0.026961876
-0.020072555 -0.03981297 0.039174277 -0.0767119 0.03877092 0.19006565 -0.060481336 0.09008718
0.040064644 0.021792071 0.14475502 0.006708326 0.015331594 -0.034441125 -0.000912177 0.026387885
-0.16953515 -0.0036494506 -0.020062467 0.1261916 -0.10012166 -0.14620326 -0.25122827 -0.037742477
-0.020790974 -0.017731067 -0.18243572 -0.009748808 -0.030127568 -0.019370329 0.063059226 -0.06827896
0.12598613 0.01896253 0.06893134 0.057699967 -0.06567795 0.00443899 -0.10001706 -0.076853745
-0.08560971 -0.06627985 -0.025336178 0.039989106 -0.0042423895 0.04769863 0.12575604 -0.075218484
-0.10762864 -0.021415634 -0.060320944 -0.043494266 -0.121750034 -0.060836185 0.077531934 -0.15029979
0.20053379 -0.10707718 -0.012694501 -0.065988995 -0.10368003 0.12075318 0.09350741 -0.06524488
0.0009210375 0.09585083 -0.0029744687 -0.026331045 0.12882432 -0.09785644 -0.03273728 -0.15647969
-0.023313211 0.11830147 -0.010168103 -0.065170996 -0.053224843 -0.024851514 -0.075248025 -0.0644616
-0.0065312795 -0.0047029746 0.19232416 0.042856876 -0.16490334 -0.07070138 -0.043672986 0.09572434
-0.00043416367 0.10487878 0.067477375 -0.11394398 -0.016174434 -0.027451288 0.06479724 -0.043919645
-0.01944786 -0.09545384 -0.1085301 0.03358593 -0.07632222 0.06569155 -0.07806635 0.028828882

gru.weight_hh_l0 f4 [267, 89]
00000000: 74bf 33be ed75 93bd 13c4 bcbc 611b bfbd
00000010: a239 e7bd 9ed0 493b c13f 1e3d 31a8 05be
00000020: f151 b2bc ad8c 85be 7a57 d3bd 8cf0 14be
00000030: 5e69 8dbe b662 d03d 3f7a abbd 6390 f13d
00000040: 3eba 5e3e bccc 41be c7ef 5b3b f955 cebd
00000050: 10ff f73d 51af 3f3d bd7c 1dbe f64f bb3d
00000060: e06a b23d f7e1 5e3e 478d 55bd 4a75 3a3e
00000070: 4e32 37be 906e c1bc fd78 64bd 0bdf 3ebe
00000080: 454d d03d 1ffc 753e 48fa 613d f567 f5bd
00000090: f58c 433d acf7 083e 5598 2ebc 4373 423d
000000a0: db74 663d 3672 e4bd c3fb 53bc 8c4d 3b3e
000000b0: e141 cdbc 16e9 93bd 3408 d73d 7407 083d
000000c0: 8e3d 653e 7083 17be 7d66 16bd 9f0a 523e
000000d0: 610f 5bbd bbf6 ce3c a404 943d c835 88bd
000000e0: 36da e1bd 80d7 1a3c 3cd9 dcbc 95b2 9b3c
000000f0: 91b2 b03d dbf5 7f3d a648 13bc 5843 c23d
00000100: 59eb bc3d fb3e 15bc d7ff 98bd cabb 7bbe
00000110: 13e2 80bc f1fb 1dbe 05f2 54bd 2619 cdba
00000120: e649 653e beb1 3b3d 6104 0bbe e6e9 15be
00000130: a6b0 e33c 0f99 313e 85f2 ad3d 7ef0 3abe
00000140: 51d1 203e 2f3f 35be d03c 613e f379 b2bd
00000150: 6ffd adbd 6ed3 b7bd edf8 8abc eab0 b13d
00000160: a5d5 1f3e 831b 7bbd d70d 84be 8086 d63b
00000170: 999a c2bc 3b0b 90bd 3788 b93d 9bc9 90bc
00000180: a2e8 bfbc 8044 f2bd aef9 013d d41e 813d
00000190: 7e72 323a e011 3f3d 7520 3abe 5a9c c0bc
000001a0: a201 95bc a574 95bd c8a1 17bd 1abf 8ebd
000001b0: 1cc1 a33d b733 0ebd 7681 01bd f77b 0abe
000001c0: 468a 71bd d42d 71bd a6d4 ac3d ffcf 803c
000001d0: 5502 58bd 1f8e de3d 46e7 413e 15b7 1f3d
000001e0: 269d fa3d 4490 393c 0c30 7c3c ae8d d13d
000001f0: 67a2 93bc b3d7 c13d ca04 86bd 29bc 4e3e
00000200: 07b6 a3bc 0c4b 03bd 86f8 bb3d fdc3 92bd
00000210: 0bdd cabc ff13 f53c 984e bc3d f78b 323e
00000220: 4306 e63d 282e e0bd 8360 ae3d f7ea 223d
00000230: 1bf2 5ebe d9ea 86bd 8bb1 873d 98da 093d
00000240: 99e4 4ebc 3e57 d6bd ca7f f13d 0e96 bcbc
00000250: 06f2 3b3e 52bc 5fbd 068b 5bbd 9a7d ddbd
00000260: 412b 3cbd 190a e3ba fc08 e9bd 4f87 10be
00000270: 4693 0a3d 8150 c13c 9eaf 023e 9024 45bd
00000280: 4c3c 143e 2fd7 0dbe d1c8 9fbc 68a9 863b
00000290: c551 b6bd c577 283d 4ada d3bd 0110 5fbd
000002a0: 8b60 c93c f027 30be f693 923b 04e2 9fbc
000002b0: 3a03 d93c a15a 173d 120d dd3d 793b 163e
000002c0: ea88 2abe 2d01 7fbd fd2e 093e 3821 89b9
000002d0: faf6 163d b15b c7bd 9bbf f93d 9d06 773e
000002e0: b86e dbbd b9b4 5a3b 456e a0bd fb79 ae3d
000002f0: 407e 813d 0184 4e3c bf55 453e ed7c 523c
00000300: 702d b6bd 9b9e 14be b7e9 0cbe 2c24 c8bc
00000310: e37f 66bd 9fdd ec3d 1bc6 26be b430 533d
00000320: db6c ad3d 6fe8 edbd 8d07 ba3c a05d fd3d
00000330: fdbc 9dbd 343a 4dbe 1711 903c f84b 1f3e
00000340: f42b 0b3e 7645 c53d 1de6 803d e9ed a8bc
00000350: d8ee 8e3d 74ef 373d 6465 c93d 0609 1cbe
00000360: ffcc 1bbb 604c abbc 342b 0ebd 49ff fb3d
00000370: c96b 043b b8ce a0bc 3789 a03c 02d6 ec3d
00000380: a318 b63c 604e 9d3d a269 dabc 1a9f a3bd
00000390: 55f4 a33d 454a cdbd 5ea6 12bd 9b0f d33d
000003a0: de7d f93d cc50 0ebe 8cf5 10bc af9a e93c
000003b0: 7a01 273c 3864 13be a486 003d 44c4 ab3d
000003c0: eb46 a1be 079b 673d 227b d5bd 4952 e53d
000003d0: 275a ea3d 10b2 113e 7b4e 143e 4d60 263e
000003e0: eec0 8e3c 3dd9 a5bb 75f9 4ebe 5da2 88bd
000003f0: 4a10 98bb e4fc debb a472 32bc ca83 60bd
-0.17553502 -0.07200227 -0.023042714 -0.09331394 -0.112902895 0.0030794512 0.03863502 -0.13052441
-0.021767588 -0.2608389 -0.10319419 -0.14544886 -0.2761945 0.101750776 -0.08372926 0.11795118
0.21750733 -0.18925756 0.0033559666 -0.10074992 0.12109196 0.046798054 -0.15379615 0.09146111
0.08711791 0.21765886 -0.052136686 0.18208805 -0.17890283 -0.02361229 -0.055779446 -0.18639772
0.10170988 0.24021958 0.055170327 -0.11982719 0.04774185 0.1337573 -0.010656436 0.047473203
0.056263786 -0.111545965 -0.012938443 0.182913 -0.025055828 -0.07222192 0.104996115 0.033210233
0.22386762 -0.14796233 -0.036718834 0.20511864 -0.053481463 0.025264135 0.07227448 -0.06650883
-0.110279486 0.009450793 -0.026959054 0.019006053 0.08627809 0.062490325 -0.008989489 0.09485501
0.092245765 -0.009109254 -0.074706726 -0.24583355 -0.0157328 -0.1542814 -0.05198862 -0.0015647754
0.22391471 0.045823805 -0.13575889 -0.14640006 0.027794193 0.17343543 0.084935226 -0.18255803
0.15704848 -0.17699884 0.21995854 -0.08714666 -0.08495604 -0.08975874 -0.0169644 0.08676322
0.15608843 -0.061305534 -0.2579181 0.0065467954 -0.023755359 -0.07033392 0.09059184 -0.017674258
-0.023426358 -0.118294716 0.031732254 0.06304708 0.0006807222 0.046647906 -0.18176444 -0.023512054
-0.018189255 -0.07297639 -0.03701952 -0.069700435 0.07995817 -0.034717288 -0.031617604 -0.13523851
-0.05896976 -0.058881596 0.08438997 0.01572418 -0.0527366 0.10866951 0.1893588 0.03899296
0.12237005 0.0113258995 0.015392315 0.102321014 -0.018021775 0.094649695 -0.06543882 0.20188965
-0.019984258 -0.032053992 0.091782615 -0.07166288 -0.024763605 0.029916761 0.09194678 0.17436205
0.11231663 -0.109463036 0.08514502 0.03977486 -0.21772043 -0.065877624 0.066256605 0.033655733
-0.012627744 -0.10465859 0.11791952 -0.02302077 0.18354043 -0.054622956 -0.05359938 -0.10814972
-0.045939688 -0.0017321735 -0.11378667 -0.14114116 0.033831857 0.023597958 0.12762305 -0.04813057
0.14476126 -0.13851617 -0.019504936 0.0041095503 -0.08902315 0.041129846 -0.1034437 -0.054458622
0.024582168 -0.17202735 0.0044732047 -0.019516952 0.026490796 0.036951665 0.107935086 0.14671125
-0.16653791 -0.06225698 0.13396831 -0.00026155426 0.03685663 -0.097342856 0.12194749 0.24123617
-0.10714477 0.003337188 -0.07833532 0.0851936 0.063229084 0.012604714 0.19270991 0.012847167
-0.08895385 -0.14513628 -0.1376103 -0.02443131 -0.056274306 0.11565708 -0.16286509 0.05156012
0.08468028 -0.11616599 0.022708679 0.12371373 -0.07702062 -0.20041734 0.017586274 0.15556324
0.13590986 0.09632389 0.062938906 -0.020621257 0.069791496 0.044906095 0.09833792 -0.15237817
-0.002377331 -0.020910442 -0.03470917 0.12304551 0.0020205847 -0.019629821 0.01959668 0.11564256
0.022228545 0.076809645 -0.026661698 -0.079893306 0.08005587 -0.100239314 -0.03580319 0.10305711
0.121822104 -0.13898009 -0.008847605 0.028516142 0.010193223 -0.14393699 0.031378403 0.08387044
-0.3149942 0.05654433 -0.10423876 0.11197335 0.114429764 0.14228082 0.14483063 0.16247673
0.01742598 -0.005061297 -0.20212348 -0.06671593 -0.0046406137 -0.0068050493 -0.01089159 -0.054813184

gru.bias_ih_l0 f4 [267]
00000000: 3d3e d03d 1e68 b73d 2d01 f5bc 0e94 ba3c
00000010: b7ab 683e 9939 cc3d 08f0 473e 1b64 03be
00000020: 51fb 31be 2fac 683c d26d 8a3d 2370 43bb
00000030: b3c7 dd3d dcee 90be 4c74 053e 9e8a 023e
00000040: 9428 b8bc 67c9 003e d3c5 e6bd 4966 87bb
00000050: 6e98 393e 9179 293d 898f 90bd 8238 d0bb
00000060: 307e abbc 3c79 423d 1dea 9b3d 4d4e 48be
00000070: 2cd2 32bc 65ba 823c f4e5 0e3d 6998 693d
00000080: 59be 303e 33ab 5c3e d2d5 993d e503 aabd
00000090: f0ad e33d 8106 f3bc 1fdd 423d cb91 20bd
000000a0: 10ed 433e 6e49 f43d bc61 46be 7fe9 42bd
000000b0: 88a9 30be ff5b 273d 3a93 9b3c 33b3 9a3c
000000c0: cd51 3e3e e0eb 613c e75a 023e 7406 9f3d
000000d0: 6ab4 81bd 83a1 f5bd 07d3 5e3d 89e5 883c
000000e0: e881 043d 78ab 3fbd 03ec f53c d574 1c3e
000000f0: 54b3 d13c de90 4e3d eeaf 0e3e f3e4 18be
00000100: f531 54bd 95e0 883d 6252 01be a571 903d
00000110: 273a 883d f571 f6bd 0174 04be 676e ea3d
00000120: de4e b2bd 0663 cb3d 2b3e cb3d ec70 443d
00000130: 45b3 eb3c 2ad8 63be 7d51 bc3c 9779 84bd
00000140: a7aa 293d 5b6a 95bd cc83 553e 6eb9 b63d
00000150: d57a 833d 3765 36bd 1343 7d3d 679e 283e
00000160: 2171 b8bd 2b5d f3bd ff0e 0cbd 0e6e 1dbe
00000170: 3f5a 09be c8e9 44be ef09 0fbe 4c28 d43d
00000180: db5b b8bd 7079 c7bd 08e3 5ebe 38b9 9f3e
00000190: 7fdc a23d 06ba 2ebe dd79 24be 8d59 763d
000001a0: d83e 5e3e af86 97bd 8798 2bbe 9c10 3fbd
000001b0: 6e87 de3d b079 96bd f23d d3bc 477b 28be
000001c0: c137 98bd f0eb 38be 62b5 5e3e 9351 73bd
000001d0: 624a 30be fbc6 153d 4303 7e3e f16b 1b3e
000001e0: 3b24 03be 79c9 81bd ba79 9bbd 9b00 8bbd
000001f0: e4f4 43bd d5d2 a33d a29f 9fbd b9e8 a03d
00000200: 0312 363e c22d 6e3d 4884 f8bd 60a6 0cbd
00000210: fa47 3fbe ce2c 89be ef3b b13e 9360 063e
00000220: 3633 3a3e 27ee aabb f122 c5bc f211 24be
00000230: 01ca 7c3e ae55 e83c a7db 383e 424d 743e
00000240: 4c18 b6bc b765 573e daf4 3f3d 7315 ea3d
00000250: 3fef babd 3532 293d b98d 4f3d 39bf 9e3d
00000260: cfc7 78bd 8b43 a5bc fbae 003e 8d2a e7bc
00000270: 59cd a6bd b37c 2abe bf5d 4fbe 0c4d 413e
00000280: 1545 25bd 7aae 7cbe 8a24 103d 89e7 4abe
00000290: 68e9 5abd 689d 2fbe 9492 5f3c f146 68be
000002a0: 90a3 6fbe d6e8 7abe 3af4 c23d 9b32 58bd
000002b0: df08 68be 3530 623e 52c8 23be 97fc 153e
000002c0: 39ff 0abe d6a8 4cbe c3a9 57be 4448 cd3d
000002d0: 6103 d9bc 1873 163e 1c54 7bbe e856 943d
000002e0: dd27 3cbd d9a6 78be 7288 e83d 998e d0bd
000002f0: 2d36 433e 0399 30be 94c3 673c d9bb 86bd
00000300: dfdd 7ebe 62f5 fbbc b1b7 a5bd 22e3 84be
00000310: 52ff 1abe 2f8f ac3d d91e 2c3e c35e 92be
00000320: aee4 cb3c e965 2a3e acd2 09be 74ab 1ebe
00000330: 27b8 10be 8474 31be 861d 273e 26a3 b63d
00000340: f026 cb3d a846 86be 548d 403d a973 1a3e
00000350: c9a0 e93d 5a91 acbd f57e 63be 6a2d 8ebc
00000360: 7fac 8abe c38b 053e 12eb 03be a280 b93c
00000370: eb86 313e 9e3b 863e 8d35 70bd 0054 0f3e
00000380: da22 c23d 1166 4c3e 0e4e 253d ade0 e33d
00000390: 00e3 83bc f820 15be 7f44 44be 9447 823d
000003a0: 52a1 493e 0eea 8b3e 9568 8d3e b56f 5c3c
000003b0: 00c4 8d3c b7e2 e8bd c88a f43d acea 6abd
000003c0: 3b3e 8a3c 6eaf 07be dcf8 083e 2dfd 47be
000003d0: 5402 223e 633e 07be b07d 0abe 2470 983d
000003e0: 7c30 bc3b 1735 443d c2cb f33d 39ba 23be
000003f0: 0aae 30be 2a45 ff3d 5fd9 d43a a752 edbd
0.10168121 0.08955406 -0.029907787 0.022775676 0.22721754 0.099719234 0.19525158 -0.12831156
-0.17381026 0.014201208 0.06759228 -0.0029821477 0.10829105 -0.28307235 0.13032645 0.12748191
-0.022480287 0.12576829 -0.11268201 -0.0041320664 0.18124554 0.0413757 -0.07058627 -0.0063543925
-0.020934194 0.0474789 0.07613013 -0.1956112 -0.010914367 0.01595802 0.03488727 0.057030115
0.17260112 0.21549682 0.07511486 -0.08301524 0.1111716 -0.029666187 0.04757416 -0.03920154
0.19133401 0.11928068 -0.1937322 -0.04758596 -0.17252171 0.04085922 0.018991102 0.018884277
0.18585892 0.013789147 0.12729989 0.07764903 -0.063332394 -0.119936965 0.05440047 0.016711013
0.03235045 -0.046794385 0.030019766 0.15278943 0.025598206 0.050431125 0.139343 -0.14931087
-0.051805455 0.066834606 -0.12629083 0.07052926 0.06651717 -0.12033454 -0.12934877 0.11446839
-0.08706449 0.099309966 0.09923967 0.047959253 0.028772006 -0.22250429 0.022988075 -0.06468504
0.041422512 -0.07295676 0.20851058 0.08922087 0.06419913 -0.04453012 0.061831545 0.16466676
-0.090059526 -0.11883005 -0.03419399 -0.15374014 -0.13413332 -0.19229805 -0.13968633 0.103592485
-0.09001895 -0.09739959 -0.21766293 0.31195998 0.079522125 -0.1706315 -0.16062112 0.060143996
0.2170366 -0.07398736 -0.16757403 -0.0466467 0.10865675 -0.07347429 -0.025786374 -0.16453277
-0.07432509 -0.18058753 0.2174888 -0.059403967 -0.17215875 0.036566716 0.24805932 0.15177895
-0.1280679 -0.06337256 -0.07591577 -0.06787225 -0.047840968 0.079991974 -0.077941194 0.07856888
0.17780308 0.058149107 -0.12134606 -0.034338355 -0.186798 -0.26791996 0.34616038 0.13122778
0.18183598 -0.0052163783 -0.024064513 -0.1602247 0.24686433 0.028361168 0.1805254 0.23857597
-0.022228383 0.21034895 0.046864368 0.11429872 -0.09127664 0.041307647 0.050672267 0.077513166
-0.060737427 -0.020173809 0.1256675 -0.028218532 -0.08144636 -0.16649131 -0.20250605 0.18877047
-0.040349085 -0.24675933 0.035191096 -0.19814886 -0.05344525 -0.1714989 0.013645787 -0.22683312
-0.23402238 -0.24502882 0.09519239 -0.052782636 -0.22659634 0.22088702 -0.15994385 0.14647137
-0.13573922 -0.19986281 -0.21060853 0.10023549 -0.026490869 0.14692342 -0.24543804 0.072431386
-0.045936454 -0.24282397 0.1135415 -0.10183448 0.19063635 -0.1724587 0.014145751 -0.06578798
-0.24889325 -0.030756656 -0.08091677 -0.2595454 -0.1513646 0.084257476 0.16808642 -0.28587922
0.024889316 0.16640438 -0.13459271 -0.15495092 -0.14132749 -0.17329603 0.16319856 0.08917837
0.09919536 -0.2622578 0.04700978 0.15083183 0.114076205 -0.08426161 -0.22216399 -0.01735564
-0.2708473 0.13041596 -0.12882641 0.022644345 0.17336623 0.2621736 -0.05864482 0.13996887
0.09479304 0.1996081 0.040357642 0.11126838 -0.016099453 -0.14563358 -0.19166754 0.06361309
0.19690445 0.27327007 0.27618852 0.013454367 0.017305374 -0.113713674 0.11940533 -0.057352707
0.016875377 -0.13250515 0.13376182 -0.19530173 0.158212 -0.13207392 -0.13524508 0.07443264
0.0057430845 0.047902193 0.11904098 -0.15989007 -0.1725389 0.12464364 0.0016239098 -0.1158803

gru.bias_hh_l0 f4 [267]
00000000: 57d5 9b3d c54d 5fbc 9359 bb3b 349c 253d
00000010: 2248 8a3e fca4 5d3e f823 5a3e 7bc4 5ebc
00000020: d8ac 52be a9c6 853d eee5 153e 7a14 473e
00000030: c352 923d 4d0f bfbd 7abc 4f3d 73ee cebc
00000040: c9b9 16be 09ac 2f3d 6d7d d5bd 3846 d6bc
00000050: ebaf ae3d 04e9 d1bd 5978 3ebd d2a8 843d
00000060: 27e2 87bd b84d 863d 5ab9 2c3e 6d3b 60be
00000070: 863a 873c 30d3 cdbd 16a8 8a3d 47cb 063e
00000080: 99b4 4f3e 76c0 923e f648 493d 27f2 6cbd
00000090: ec17 0bbd e093 a5bd 5e26 123e ec79 51bd
000000a0: 7663 793e c9fa 2c3e d629 91bd cf06 c33d
000000b0: c905 81bd e55a e63d 4459 44bd 72c6 73bd
000000c0: fda3 403d 1078 10be 70e8 1c3e ea08 f4bc
000000d0: 1dda e1bd 81cb 9c3d cf22 1d3e 91ef 4dbd
000000e0: e9c6 863d 5b36 1dbe 96f5 213d c9ba 1e3e
000000f0: aa6f 28bc 527d cb3c b95a 183e 5c81 35bd
00000100: 7869 143b 18cb a0bc bb07 f1bb f930 223e
00000110: fe0a d63b 85fe 5bbe a50e e9bd 88f8 593e
00000120: b748 dabd 7b13 2c3e 9c14 7a3b c4ea d03c
00000130: de11 32bd 9ef3 89bd 1706 273d edb7 d1bd
00000140: 29ec 033e 3f9a d2bd e808 ae3d b8e4 573e
00000150: 4d54 303e 4743 54bd dad2 93bd 8081 153e
00000160: 3147 3cbc e6e5 6dbe a128 b03b c3b1 eebd
00000170: c85a 43bd 6790 9dbd 4844 48be 0595 bf3c
00000180: 77d4 d4bd 6de6 95bd 2c3f 87bd 2b19 d33e
00000190: 9608 d8ba 3a08 17be 9052 5b3b 9c6e dbbc
000001a0: faa1 8f3e 1fc6 5bbd 6e8d ba3c 43d3 c93c
000001b0: a18f 913e c539 123b 0c71 663d 7834 0dbd
000001c0: 67fc 97bd 4ec0 4ebe 8b88 b73e 056c f0bd
000001d0: cde8 2ebc 7e8e c73d 158d 673e f470 973e
000001e0: a328 61be ce41 70bd 6ecc 9d3d 9b6d 23be
000001f0: ef8f 433d cde2 dc3d 6e66 e0bd cc37 ba3d
00000200: 5883 e73d d9b4 c23d 1188 c5bd c75d 7cbc
00000210: 5ec2 a7be f9a8 09be c163 8e3e 4f0b a93d
00000220: 1acc 833e bbf6 a7bc 1a18 f03c 526b 6cbe
00000230: b19a f73d 7069 2a3d a21a 163e a492 703e
00000240: c31b 3bbc 7121 3a3e 006f b7bd 9d13 d83d
00000250: 9984 2b3d 26c6 383e e873 0a3e ebad 263d
00000260: cd54 20be d4f0 96bc 2b6a 3e3e 8912 11be
00000270: 0620 01be 4c9a e7bd 6c19 14be 8169 f33d
00000280: f55b 11bd 214c 7bbe 9fb6 10bd c8af 34be
00000290: 9f72 00ba 3456 80bd ad8c c83d 9626 b9bd
000002a0: 5c93 0fbe ffbd 17be 3159 9a3d de70 d3bd
000002b0: 4e3d 55be 95b6 3c3e b120 e7bd 78a0 e13d
000002c0: b3c1 26bc 12a4 50bd dba1 80be 54f4 ac3d
000002d0: 0f88 e6bd 23af 353e 5c66 6dbe 2977 9abd
000002e0: 5485 d1bd ae43 9abd c0b5 053d 686b 723d
000002f0: f4d8 983e f34a 8bbe 5de3 c5bc 28a8 1abd
00000300: e6bf 3dbe d8f7 7b3c b70d 07bd 96f7 c5bd
00000310: bd5b 2abe 1cda 1b3e f28c 2d3e b4d8 28be
00000320: 8757 973d 1489 0a3e 886c 40be 3d71 2ebe
00000330: 0478 a6be 22e0 06bb b380 db3d 3cdc d93d
00000340: 05c3 8d3d aaed 9dbe 6d14 09be 18a9 223e
00000350: fc3c 5f3e fe7d 8b3c fe3e 3dbe 8ce1 43bd
00000360: 56b6 fdbd 4c05 d73c f8c1 eebd cf19 b43d
00000370: c689 063c eb55 613e 2c26 d6bd 2633 cb3d
00000380: 6697 0a3d 7c9d 733d 1971 a5bd 2b19 52bd
00000390: efa0 babc 4c83 2cbe 0a0e cabd 31cf 88bd
000003a0: 9f67 793e 5534 3d3e b539 783e 22b6 0c3d
000003b0: dd1d 1d3e fc41 b8bd 071b 39bc df04 0ebd
000003c0: 889c d7bd 0674 d2bc b6de 9ebc 41ed 56be
000003d0: 5f00 143d ff19 04bd c154 f7bd 8691 b23d
000003e0: 990c 1dbe 5ae0 8b3d 4394 fe3d 68df 98be
000003f0: 099f 85bd 5d84 663e 273b 8f3d 59fa a2bd
0.07609051 -0.013629382 0.005717465 0.04043217 0.27008158 0.21644968 0.21302783 -0.013596649
-0.20573747 0.06532032 0.14638492 0.19441405 0.07144692 -0.0932909 0.050716855 -0.025260186
-0.14719309 0.042888675 -0.10424314 -0.02615653 0.085296474 -0.10249522 -0.04650149 0.064775124
-0.06634932 0.065577924 0.16867581 -0.21897669 0.016507398 -0.100500464 0.06770341 0.13163482
0.20283736 0.2866246 0.049141847 -0.057848122 -0.03395836 -0.080848455 0.14272448 -0.051141664
0.24354348 0.16892542 -0.07088058 0.09522783 -0.062999316 0.112478055 -0.047936693 -0.059515424
0.04703139 -0.141083 0.15323043 -0.029789407 -0.1102793 0.07656003 0.1534531 -0.050277296
0.06580908 -0.15352766 0.03954085 0.1550094 -0.010280529 0.02484003 0.14878358 -0.04431282
0.0022645872 -0.019628093 -0.007355658 0.15838994 0.006532072 -0.2148381 -0.11379746 0.21286213
-0.106584005 0.16804306 0.0038159257 0.02550257 -0.04347407 -0.067359194 0.040777292 -0.10240159
0.12883057 -0.10283326 0.084977925 0.21083343 0.17219658 -0.051821973 -0.07217951 0.14600182
-0.011491583 -0.2323223 0.005375937 -0.11654999 -0.047693998 -0.07693558 -0.19557297 0.023386488
-0.10392087 -0.07319341 -0.06603846 0.4123014 -0.0016482051 -0.14749232 0.003346596 -0.026786141
0.28053266 -0.05365574 0.022772517 0.02463687 0.28429893 0.0022312265 0.056260154 -0.034473866
-0.07421189 -0.20190546 0.35846362 -0.11739353 -0.010675621 0.09743975 0.22612412 0.29578364
-0.21988158 -0.058656506 0.077050075 -0.1595978 0.047744688 0.10785446 -0.10957037 0.09092674
0.11304349 0.0950715 -0.09645093 -0.015403218 -0.32765478 -0.13443364 0.2781048 0.0825411
0.25741655 -0.020503392 0.029308368 -0.23087814 0.12090052 0.04160446 0.14658597 0.23493439
-0.011420193 0.1817682 -0.089567184 0.10550616 0.0418745 0.18044338 0.13520777 0.040693205
-0.15657349 -0.018425383 0.18595187 -0.14167227 -0.12609872 -0.11308727 -0.14462823 0.11885358
-0.035488088 -0.2454076 -0.03533041 -0.1764518 -0.00048998924 -0.06266442 0.09792457 -0.09040563
-0.14021057 -0.14818572 0.07536543 -0.10324262 -0.20824167 0.18429025 -0.11285532 0.11016935
-0.010178017 -0.05093772 -0.25123486 0.084450394 -0.1125642 0.1774259 -0.23183578 -0.07542259
-0.102305084 -0.0753244 0.032644033 0.05918446 0.29853022 -0.2720562 -0.024156267 -0.037758023
-0.18530235 0.015378915 -0.032972064 -0.09666364 -0.16636558 0.15219921 0.16948298 -0.16488916
0.073897414 0.13528854 -0.18791401 -0.17035384 -0.3251344 -0.002058037 0.10717907 0.106377095
0.06921963 -0.30845386 -0.13386698 0.15884817 0.21800607 0.017027851 -0.18481061 -0.04782252
-0.123882934 0.026247643 -0.1165809 0.08793985 0.008211559 0.22005431 -0.104564995 0.09921865
0.03383579 0.05947636 -0.08078212 -0.051293533 -0.022781817 -0.16846961 -0.09865959 -0.066801436
0.24355935 0.18476994 0.24240763 0.034353383 0.15343423 -0.089969605 -0.011297948 -0.034672614
-0.10527903 -0.02569009 -0.019393306 -0.20988943 0.036133166 -0.032251354 -0.120767124 0.08719163
-0.15336837 0.06829901 0.124306224 -0.29857945 -0.06524474 0.2251143 0.06993704 -0.07957906

gru.weight_ih_l1 f4 [267, 89]
00000000: a9c8 d3bd c8fa a03d 2a40 bd3c bdf3 84bc
00000010: a11a bebd a932 efbc 07e9 3a3d f649 99bd
00000020: 6e13 d83c 347c 97bd b30c b5bd 6742 71bd
00000030: d244 1fbd fc53 903d ae59 bb3b 7531 bc3d
00000040: e4b1 da3d 2fe9 123d 5141 db3d b362 d03d
00000050: 64bf 003e 7ec0 693d 58ad 09bd 8c6e 44bd
00000060: 7f8c 693d 59ab 74bd dd92 f43c 420a 1bbd
00000070: 417f 14bd 452f 933d fedc b93c c0a4 10be
00000080: 6d21 583d 28db 23bd f148 05bd fd23 6ebd
00000090: 2239 453d db70 c43c 232f fcbd 92ea 9dbb
000000a0: c1b1 87bd 15c1 8dbd ab16 d1bd fd05 ac3d
000000b0: 3cea fabd a70b 59bd a5fc d83d 502a 383d
000000c0: bf38 e7bd 94c8 afbc 3742 1f3c 1f4b a5bc
000000d0: e463 3abc 1287 ddbd 81f1 dd3c c3d7 f13d
000000e0: b8ea 843d dad0 c3bb 9cbd ee3d 6db1 d93d
000000f0: 8636 99bc 3fd9 c83d 7080 ad3d 1dfa 9e3d
00000100: e196 083e 21ba dbbd 7a30 a1bd 99b9 cb3c
00000110: f140 81bc 0d07 413d 853f 663c 0a41 863c
00000120: b567 cfbc 94ef 07be 399c 483d 3695 ce3c
00000130: a5da 0abe fcd4 01be dbbb db3d 29df c8bd
00000140: 59a4 b43d 0b9a 223e effa 83bd 1969 a23c
00000150: 9d84 003e 3fca 82bd 293e 193e 178b 603c
00000160: 0807 993d 3da3 1fbc f06d 8dbd b3f8 29bc
00000170: fb26 a2bc 3aff 0a3d ef2a d7bd 6bcd 373e
00000180: b3f1 4c3c 7d23 523d 4e78 303d 9aa7 17be
00000190: 8604 cc3d f4a5 95bd 00b2 6a3d 41bf c33d
000001a0: 8f3f acbc f1f3 bd3d 9398 84bc 9a57 403e
000001b0: 4890 ed3b 78ae 183d 3e78 193e d076 c4bd
000001c0: b3f3 153d 9627 f43c 6f4f 093e b21a d03c
000001d0: d8fc 2e3e 9b5e a0bd 079e d8b9 daff e6bd
000001e0: 0c58 0b3d 392c efbb b539 2a3d 434b ad3c
000001f0: 5bad b0bd 9113 443e 8f7d c43d ca4c 1dbd
00000200: 0e46 743d 457e e73d 246b 52bd a3bc 19be
00000210: e35c 2fbd 3ae0 453d 0a4b b2bc 28d8 dfbc
00000220: 7402 bbbd 441a 003c 4878 9f3d 554b 553d
00000230: b1e7 30bd eee8 2cbd f282 4b3c adae b53c
00000240: 9936 d83a 2981 f1bc 178c febc 998d dc3d
00000250: 4ddd 9f3c 4bb9 a13c fa49 42bd 8d2b 16bd
00000260: 1065 943d 4ef8 e53d bebe aabd bc86 ccbc
00000270: 7d2a 3fbd 1cee 21bd 3658 18be 05a2 1bbd
00000280: 0fd4 f7bd 363c a9bd 8235 cb3d 0e42 103c
00000290: cc45 3cbd b828 473d 19d0 8bbd ab15 55bd
000002a0: fc59 283d 0c2a 383d bda2 d1bd abe2 debd
000002b0: ef79 0f3d dfd0 4bbe 18cb 3c3d 3406 243b
000002c0: fc67 6abd f525 873d e88e bdbc 27d8 2f3d
000002d0: fd19 53bc fcb7 253e 26f6 883d 60d6 12be
000002e0: 478a aebc 9ba0 eb3c 9e44 a5bd 4e9b 013d
000002f0: 09c7 1abb ab1a 9cbc 3f33 b93b bb5d 61bd
00000300: d5f4 e33d f17d 93bc 752e 953d 6a31 263e
00000310: a8cf 483c fc8c fbbd b5d3 4b3d 480f 8fbd
00000320: 09e8 ee3d 11b7 84bd aa09 813d 8afa a03d
00000330: a33f f63d 9094 063d ff12 f8bd f185 2a3e
00000340: 785d fd3d d944 7d3d 3f5e 0f3e 18e2 d4bd
00000350: 09e7 54bc 3db4 18bd 3dfc eaba 8072 04b9
00000360: 7726 41bd 334d a5bc c723 9f3d 9e4a 0e3e
00000370: 0422 06bc 1407 acbc 3460 38bd 72f5 403c
00000380: 5b56 9bbd 586b 04be 9f48 88bd 1901 92bd
00000390: f31c 0c3e b7f5 e8bd b142 8d3d 8e8b 2fbb
000003a0: 7e1c f5bc 2ac2 8bbd 2b26 e43c 9976 273d
000003b0: 6a9e 093d 33d9 c5bb a0be 1f3d a5d4 87bc
000003c0: f17e a83c 215c c83d 4cdb 4d3c 39ed 81bd
000003d0: 646c 18be 2aa6 9cbd 03c9 f53c 546e 0d3d
000003e0: 45d8 16be 6373 bebd b058 e3bd 8569 cfbc
000003f0: 5d25 ee3d 0765 0d3d 880a 633d 203a 2eb9
-0.10341007 0.07860333 0.023101885 -0.016229505 -0.09282423 -0.029198961 0.04563239 -0.0748481
0.026376452 -0.07396737 -0.08840313 -0.058901217 -0.03888399 0.07047269 0.0057174778 0.09189121
0.10678461 0.035866912 0.107058175 0.101750754 0.1257301 0.05706834 -0.03361258 -0.04795699
0.057018753 -0.059733722 0.029855186 -0.03785158 -0.03625417 0.0718675 0.022688385 -0.14125347
0.052766252 -0.040003926 -0.032540265 -0.05813979 0.04815019 0.023979595 -0.12313678 -0.0048192227
-0.06625701 -0.06921593 -0.10209402 0.0839958 -0.12251708 -0.05298963 0.10595063 0.044962227
-0.1129012 -0.021457948 0.009720377 -0.020177422 -0.011376355 -0.10816778 0.027092697 0.118087314
0.064900815 -0.005975825 0.11657259 0.106295444 -0.018702757 0.098070614 0.08471763 0.07762549
0.13338806 -0.10728861 -0.07870574 0.024868773 -0.015778037 0.047125865 0.01405323 0.016388435
-0.025318006 -0.13274986 0.04897711 0.025217634 -0.13559969 -0.12678903 0.1072919 -0.098081894
0.08820409 0.15879075 -0.06444346 0.019825505 0.12550588 -0.06386232 0.14965118 0.013705037
0.07472044 -0.009743509 -0.069057345 -0.010374236 -0.019793978 0.03393481 -0.10506236 0.17949454
0.012508797 0.051303376 0.04308348 -0.14810029 0.099618 -0.07307044 0.05729866 0.09557963
-0.0210264 0.09275044 -0.016186034 0.18783417 0.0072498657 0.03727576 0.14987275 -0.09592974
0.036609363 0.029804032 0.13409208 0.025403354 0.1708864 -0.078305446 -0.0004131647 -0.112792686
0.034019515 -0.007298973 0.04155894 0.021154052 -0.08626815 0.19148089 0.09594261 -0.03840331
0.05963712 0.11303381 -0.05137171 -0.15013365 -0.042813193 0.048309542 -0.021764297 -0.027324751
-0.09131327 0.007818762 0.07786614 0.052073795 -0.04318971 -0.042214327 0.0124213565 0.022178018
0.0016495764 -0.029480534 -0.03107266 0.10769195 0.019514704 0.019741675 -0.04743383 -0.036662627
0.07245839 0.11229001 -0.083371624 -0.02496659 -0.04667138 -0.03953372 -0.148774 -0.03799631
-0.12100994 -0.082634374 0.09922315 0.008804811 -0.045965 0.048622817 -0.06826801 -0.052022617
0.04110144 0.044961974 -0.10236118 -0.10883077 0.035028394 -0.19903897 0.046092123 0.0025028111
-0.057228073 0.065990366 -0.023139432 0.04293075 -0.012884614 0.16183466 0.06687574 -0.1433959
-0.02130617 0.028763106 -0.08069728 0.03164225 -0.002361717 -0.019055685 0.005651861 -0.05502103
0.111306824 -0.01800439 0.072842516 0.16229787 0.01225654 -0.1228275 0.049762446 -0.069853365
0.11665351 -0.0648023 0.063006714 0.078602865 0.120238565 0.032856524 -0.12112998 0.16652657
0.123713434 0.061833236 0.14000796 -0.103946865 -0.012994536 -0.037281264 -0.0017927956 -0.00012631156
-0.047155824 -0.020178413 0.07770496 0.13895652 -0.008186821 -0.020999469 -0.04501362 0.011777269
-0.075848304 -0.12931573 -0.066544764 -0.071291156 0.13682918 -0.113749914 0.06897486 -0.0026786062
-0.029920813 -0.06824143 0.027850231 0.040884588 0.03359834 -0.006037855 0.039000154 -0.016580889
0.020568343 0.09783197 0.0125644915 -0.06344075 -0.14885098 -0.07648881 0.030003076 0.034529045
-0.14730938 -0.09299352 -0.111009 -0.02531887 0.1162822 0.034520175 0.055429965 -0.00016615586

gru.weight_hh_l1 f4 [267, 89]
00000000: 0e2c 893d ce2e 2d3e 8491 67bc 11ae ed3c
00000010: bc51 a43d 2481 3cbe 3f85 76bd 03e7 8e3d
00000020: 10cb 5bbe 3df1 45be 667f 98bd 9ceb 1bbe
00000030: 11e0 343e 54c3 233e 6239 bcbc c6fe 283d
00000040: 379d eabd 6c6d 6bbd 457c 02bd 51b8 873e
00000050: 2511 b43d c103 0c3e 0cbc 93bd 553e 3ebd
00000060: cc57 8dbd 754b c0bd 5e69 e8bd d2b3 36be
00000070: 63b2 243d da0d bf3d dd72 42bd e7ef 9dbc
00000080: e548 d7bd 1d4b adbb e7e0 cabd 85b6 fc3d
00000090: b84c 63bd a347 93bd 7e68 f93a e34b 68be
000000a0: 8cce 8b3b 4559 aebd 95e0 343e 6a36 08be
000000b0: 617b f7bd 14bc ddbd a440 4bbe e7c8 c2bd
000000c0: ed90 14bc 00ca 3e3e 942d a83d f464 db3c
000000d0: 3e84 71bd c110 b7bd 0ecb a13d b0e4 2dbe
000000e0: 44cb ff3c b240 17be 1b16 ecbc ffef 04be
000000f0: 4e2c 2e3d 0c39 113d bc43 17be ba53 0e3e
00000100: 6012 443e 5063 43bd 48da 4dbd 5401 a2bd
00000110: e08b ac3d 6fe1 90bd 4deb 47bd 5729 913c
00000120: 5675 1d3d ba53 0ebe 9621 0e3d b727 a43d
00000130: 18c9 30bd 142b 47bc c395 01bd 523a bebd
00000140: a456 30bd 88b6 133d bd41 68be a5ce aa3d
00000150: 65b6 cfbd 6921 17be 0f40 27be 5313 763d
00000160: 7821 33be 7c17 fdbd 800b 843a cdaf 003e
00000170: 2590 06bd 93e0 443d 59d0 753d 769c 37bd
00000180: 8eb4 2fbe 0dde dbbc c42e 243d 146a f5bd
00000190: 7ee0 293e 2d13 d0bd 989c 20be b391 f0bd
000001a0: f483 06bd 5684 403e 19bc d93c 4d71 253e
000001b0: f705 9bbd 49a4 96bd f057 37be 4cda 963d
000001c0: 7829 a5bd 6145 363b 4a28 0c3d d19f f23d
000001d0: bb30 c43d b137 d03d cfff 26be 3279 debd
000001e0: e00f 3b3e 6820 eabd 5ce9 2fbe a368 14bc
000001f0: 0c93 9fbd cffe e33c 0f17 e23c c244 9b3d
00000200: 87ae 243d d366 55bd 6ab8 633d 5532 e0bd
00000210: b552 60bd db7d 973d d10a 113e 203e 153e
00000220: f11f ab3d e09e 353e da06 283e 9538 c7bd
00000230: a0db ae3d 9c4d acbc ebda 573c 8ff0 0bbd
00000240: 3b49 0e3e 9e89 31bd 3723 fabd 4cac ff3a
00000250: e177 073e c4ae fe3d ceb0 81bc bd19 a83d
00000260: 9eae eb3c bd31 333d b108 19be 77a5 ebbc
00000270: 8611 703d 3db8 ea3d 7bf8 7dbc 2973 313c
00000280: b42d 8abd 7e9d 0e3d 0c43 de3b dde7 e6bd
00000290: a7ee 263c 4bb6 fd3d 1c34 513d 63a9 d43d
000002a0: 59e0 bc3d 69b3 193e 113b cabd b709 0b3e
000002b0: 4a9d e6bd 9d96 c03a 7f72 5cbd 1830 123d
000002c0: e4b9 b13d b721 013e 7415 713c b553 843d
000002d0: b4e6 2abe cdd5 d53d 84aa 04bd ee05 57bd
000002e0: 3ce4 283a ba9f 563e dbac a0bd f3f3 bcbd
000002f0: e766 fa3d 6818 16be 449c edbc 7a5a f33d
00000300: 21e2 303e 640a 27bd f1ab 1abd 11a3 eebd
00000310: d976 1abe c69f cd3d 8729 fd3d 7015 4c3e
00000320: 0e3e b3ba 8f30 253d a8f2 9d3c 32e5 0a3e
00000330: 608d 9e3c 889a 4abe 0af2 cbbd 2bf8 b53c
00000340: 2d0a ab3d 3777 91bc 6c07 2a3d e801 6f3e
00000350: 8721 e33b c3f7 273d 7fb3 ccbd c3b3 7a3c
00000360: da99 1ebe eec1 2abe 9cbc 473e 1dcd 65bd
00000370: 9e94 063e 6c65 16be a7e2 9ebc 847e 40bd
00000380: 519c 34be 1741 24be 44c6 23be 493f a63c
00000390: 64ca 23bc 6bc9 8cbb f3e1 cbbd a54c 0fbe
000003a0: e2d3 f43d 0dc6 8fbd 9e1c b73d 0050 38be
000003b0: 59e2 03bd f8d0 dfbc da6a 3dbe 554e 8a3d
000003c0: 941b 0ebe a63d 28bd fd0a 083c 7188 f13d
000003d0: ba21 e0bd 72d6 6bbe a20c 0c3e 8bd4 a93d
000003e0: fdfb 8dbd 8d15 a83d 3366 3b3d 6765 0abd
000003f0: 333e 473d 5ddd 403e b0e5 31be 0bcd 16bd
0.06697856 0.16912386 -0.014133815 0.029013665 0.08023402 -0.18408638 -0.060185667 0.06977656
-0.21464181 -0.19330306 -0.07446174 -0.15226597 0.176636 0.1599248 -0.022976581 0.041258596
-0.114557676 -0.0574774 -0.031856794 0.2650781 0.087923326 0.13673307 -0.072136015 -0.046446163
-0.069015115 -0.09389392 -0.11348222 -0.17842034 0.040209185 0.09328814 -0.047472823 -0.019279433
-0.105119504 -0.005288495 -0.09906178 0.123395 -0.055493087 -0.07191398 0.0019028333 -0.22685198
0.0042665657 -0.085131206 0.17663796 -0.13302007 -0.120840795 -0.10826889 -0.19848877 -0.09510975
-0.009067756 0.18631744 0.08211818 0.026781537 -0.058964007 -0.089387424 0.07900058 -0.16981769
0.031224854 -0.14770773 -0.028819134 -0.12982176 0.04252272 0.035454795 -0.14771932 0.13899127
0.19147635 -0.047702134 -0.050256997 -0.079104096 0.084251165 -0.07074248 -0.048808385 0.017719908
0.03844198 -0.13899127 0.0347 0.080153875 -0.043160528 -0.012156267 -0.031636965 -0.092884675
-0.043051377 0.036062747 -0.22681327 0.083401956 -0.10142211 -0.14758839 -0.1633303 0.060077023
-0.17493236 -0.12357995 0.0010074228 0.12567063 -0.03285231 0.048065733 0.06001315 -0.044826947
-0.1715872 -0.02683928 0.04008366 -0.119831234 0.16589543 -0.101599075 -0.15684736 -0.1174654
-0.032840684 0.18800482 0.02657895 0.16156502 -0.07569497 -0.07355554 -0.17904639 0.073658556
-0.0806455 0.002781235 0.03421811 0.11846889 0.09579607 0.10166872 -0.1630852 -0.1086296
0.18267775 -0.11431962 -0.17178863 -0.00905815 -0.07791719 0.027831463 0.027598886 0.07581474
0.040205505 -0.052100014 0.055595793 -0.109471 -0.054766376 0.07397052 0.14164282 0.1457448
0.08355702 0.17736387 0.16408864 -0.09727589 0.08537984 -0.0210331 0.013174753 -0.03416496
0.13895123 -0.043344133 -0.12213748 0.0019506305 0.13229324 0.12435678 -0.015831377 0.08208034
0.028769787 0.043748606 -0.14944722 -0.028765423 0.05861046 0.11460922 -0.015501137 0.010830679
-0.067469984 0.034818165 0.006782895 -0.11274693 0.010188735 0.12388285 0.051075086 0.103838705
0.092224784 0.15009846 -0.09874547 0.13577925 -0.11260469 0.0014693324 -0.05382013 0.035690397
0.08678034 0.12610517 0.0147145875 0.06461278 -0.16689569 0.1044117 -0.03238918 -0.05249589
0.0006442701 0.20959368 -0.078454696 -0.09226217 0.12226658 -0.14657748 -0.029005177 0.118824914
0.17273761 -0.040781394 -0.037761632 -0.11652196 -0.150844 0.1004024 0.12361436 0.19930053
-0.001367511 0.040329512 0.019280747 0.13563994 0.019354522 -0.19785511 -0.09958275 0.022213062
0.0835155 -0.017757041 0.041510984 0.23340571 0.006931487 0.04100777 -0.09995174 0.015301648
-0.15488377 -0.16675541 0.19505543 -0.056103814 0.1314263 -0.14687127 -0.019395186 -0.046995655
-0.17637755 -0.16040455 -0.15993601 0.020293849 -0.009996984 -0.004296472 -0.09955206 -0.13994081
0.11954476 -0.07020197 0.08941005 -0.17999268 -0.032198284 -0.027321324 -0.18497792 0.06753222
-0.13877708 -0.041074418 0.008303401 0.11793602 -0.10943933 -0.23031023 0.13676694 0.082924925
-0.069328286 0.082072355 0.04575176 -0.03378811 0.048643302 0.18834443 -0.17372775 -0.036816638

gru.bias_ih_l1 f4 [267]
00000000: d558 a3bd 882b 9dbd ed15 b8bd 05c6 2fbe
00000010: d0e1 16be 0a8c 2e3e 8d31 16be a0bb 7e3d
00000020: 6d95 3fbc ec62 ed3c df02 1dba 79a2 803d
00000030: 8378 bcbd 4582 0ebe 2e90 17be ed87 8d3c
00000040: 139f 5c3c a3f9 1cbd ff87 66bc a760 d23d
00000050: 11ec ccbd ba7f 0bbe 5fa5 a939 f31b 5abd
00000060: 2751 2abb ceec bebd b5c1 3ebe 038f ddbc
00000070: 7611 a1bd 42fd 1b3e 1aab eebd 2910 0a3e
00000080: 897d 19be d717 b5bd 4d1c d8bd 11b9 083e
00000090: 4148 1fbc 0ee6 ffbd 0824 d6bb ea9a 28bd
000000a0: 328e f7bd 9c5a 27be b09a fc3c 0516 033e
000000b0: 246f 76bd fcde 19be 3e15 07be b30d a0bc
000000c0: ab4c 4dbe b6e7 3fbe 7e92 e13d 81e6 fabd
000000d0: 0ce9 d23c 8441 10bd 3ea6 3d3c 0e48 d0bd
000000e0: 0e5d 21bc 62d0 c53c ac0d 57be 925f a33c
000000f0: 9aa8 9e3d a48c 81bd 4e04 8fbd f835 443e
00000100: 8b91 a0bd 6cd3 09be 6fef dbbd a17c 34be
00000110: ae4a 35be 36dc a4bc 7f3a 25be 9747 52bc
00000120: 5049 91bd 9a87 023d 15f9 b4bd c80b afbd
00000130: 22ac e73c e6de c9bc 49c2 f2bd d54c c3bd
00000140: 5ea5 05be e9f2 d23c a376 033d a1a7 9cbc
00000150: 9ecc 003e 47b4 09be ad7f a53d c310 143d
00000160: fb5b 353e ef2b 8bbd 7f7b 133e 9b13 3bbd
00000170: e975 b0bc 6da4 eebc 08db 25be 1a75 acbc
00000180: c106 b5bd c96a 06be 42ae 6ebc dc68 90bd
00000190: 3de5 3ebd 0f5d 66bd b4b4 01be 11ed 59be
000001a0: cebd 4cbe 1cde b3bc f704 a1bd e827 5b3c
000001b0: 11d7 05be 6ddf 46bc 6154 74bd 9ed6 18be
000001c0: 4665 19be 44d7 f1bb 4f74 9ebd 3f8c e8bc
000001d0: af6c 64bd 9681 0dbe 28c0 3abd 8698 4cbd
000001e0: ba93 20be 38bd 17be b28c 55bd 4652 1fbe
000001f0: 0769 2cbd aba9 4f3c 0527 6c3c b72b 3f3e
00000200: 66ca bcbd 330e 4fbe 5923 0abe 6f1a f63c
00000210: 3cfa 58be 6764 4bbc 601d 1ebd 97ab 863d
00000220: 97f4 9fbc 581d 0bbe 23d3 febd 904a 2a3d
00000230: a7c1 d83b 822a 62bd d07a 5fbd a962 263d
00000240: 3b51 eb3c 1541 9c3d b62e cebe 1db5 773c
00000250: e0c6 8f3c 398c a0bd a8e7 f33c ba97 94bc
00000260: bc26 27be 4cf4 5abe 80e0 2bbc e15e c5bc
00000270: 893e 5cbd 035a 81bc 1fe2 5abc b6bc 78bc
00000280: 36a5 b4bc ac8d 573c c53c 33be badc 28be
00000290: 156d 63be 9f33 dbbd 1343 cdbd 6c35 09be
000002a0: 61ee 3cbe f259 66ba 27c7 0dbe fe3e 12bc
000002b0: 2f31 a2be f17d 10be 61b3 c6ba 2b5d 0abe
000002c0: fe9c d9bc 1f2b 58bd 0f4c 813e 977c 08bc
000002d0: 3ca6 49be 9d2e d03d d6d7 4e3d 4c5e 79be
000002e0: 40c3 80be f861 b13c 7ac5 97be d111 2bbe
000002f0: af9e 233e 1409 8abe 49ea 073e dd73 8a3e
00000300: 6f22 423d aad7 adbd 3fc8 e5bd 79ba 8dbb
00000310: 3cbe f6bd f811 303e 61c1 1a3e 7645 923d
00000320: 7c5c 6abe 8451 4f3e 4607 52be 9934 303e
00000330: bbe3 99be 71ed 8cbd 4aef 51be 6992 323e
00000340: 82f1 aa3c 8807 a5be f934 263d daae ca3d
00000350: 85cf d3bc ad20 8fbb da18 1fbe 61fb 3dbe
00000360: f804 e2bc 684f 19be 6b84 ee3d 13b6 aebb
00000370: 8f86 633e efc2 62bd 1cda 72bd 2499 febd
00000380: ec56 8fbe 9935 64be a98d 7ebb dd25 ef3c
00000390: 76a0 4c3e c773 3ebe 8cb2 5abe 2956 82be
000003a0: a4f0 adba 02c5 31be f397 ed3b 6dc2 953b
000003b0: 1d76 7fba 32cc 1abe 399b 1d3d 7f98 413e
000003c0: 3ad3 f2bd 3cbf 67bc 9b8f cd3d 3d2a 123e
000003d0: 758e 11be 6320 343d 68ad c83d e5db 11bd
000003e0: f56b 13be acd0 8abb d089 273e 8a08 47be
000003f0: f2cd b73d 2fd1 443c 6b2e d0bd bd11 61bc
-0.07975928 -0.076743186 -0.08988557 -0.17165382 -0.14734578 0.17045608 -0.1466734 0.062190652
-0.011693341 0.028977834 -0.00059895025 0.06280989 -0.09202673 -0.13916881 -0.14801094 0.017276729
0.013465661 -0.03832401 -0.01407051 0.10272341 -0.100059636 -0.13622943 0.00032357403 -0.05324931
-0.0025988312 -0.09322511 -0.18628581 -0.027045732 -0.078646585 0.15233329 -0.11653729 0.13482727
-0.14989294 -0.08842438 -0.10552273 0.13351847 -0.0097218165 -0.12495051 -0.006535057 -0.041163363
-0.120876685 -0.16343158 0.03083548 0.12801369 -0.060164586 -0.15026468 -0.13191697 -0.019537782
-0.20048778 -0.18740734 0.11014269 -0.122509964 0.025745891 -0.03521873 0.01157528 -0.10169993
-0.009848846 0.024147216 -0.21001309 0.019943032 0.07747002 -0.06325653 -0.06983243 0.19161212
-0.0784026 -0.13459557 -0.10739028 -0.17625667 -0.1770427 -0.020124536 -0.16135596 -0.012834451
-0.070940614 0.0318676 -0.08836571 -0.08547169 0.028280322 -0.02464242 -0.11853463 -0.09536139
-0.13051364 0.025750594 0.032095563 -0.0191229 0.12578055 -0.13447677 0.08080993 0.036148798
0.17710869 -0.06795489 0.14402579 -0.045672994 -0.021540599 -0.029131139 -0.16196835 -0.021051932
-0.08839179 -0.13126673 -0.0145679135 -0.0705125 -0.046605337 -0.05624109 -0.12666589 -0.2128184
-0.1999428 -0.021956496 -0.07862275 0.013376214 -0.13070323 -0.01213823 -0.059650782 -0.1492562
-0.14980039 -0.007380398 -0.07737028 -0.028387187 -0.05576771 -0.13818964 -0.04559341 -0.049950145
-0.15681353 -0.14818275 -0.05213613 -0.15558729 -0.04209235 0.012674729 0.0144136 0.1866902
-0.09218292 -0.2022026 -0.13490047 0.030041901 -0.21189207 -0.0124140745 -0.038602233 0.06575697
-0.01952581 -0.13585413 -0.12442615 0.041575015 0.006614882 -0.05521632 -0.054560483 0.040621433
0.028725257 0.07629601 -0.40270013 0.015118864 0.017550886 -0.07839245 0.029773548 -0.018138755
-0.1632337 -0.21382254 -0.010490537 -0.024093093 -0.053770576 -0.015789991 -0.0133595755 -0.015181711
-0.022051435 0.013156336 -0.1750365 -0.1649045 -0.2220958 -0.10703205 -0.10022559 -0.13399285
-0.1845031 -0.00087872066 -0.13845502 -0.008926151 -0.3167815 -0.14110543 -0.001515966 -0.13512103
-0.026564118 -0.0527755 0.2525334 -0.008330486 -0.1969232 0.10165141 0.050498806 -0.24352378
-0.25148964 0.02165316 -0.2964285 -0.16706015 0.15978502 -0.2696005 0.13272966 0.27041522
0.04739612 -0.084884 -0.112198345 -0.004325208 -0.12048003 0.17194355 0.1511283 0.07142155
-0.22886842 0.2024594 -0.20510587 0.17207564 -0.30056557 -0.06881226 -0.20501438 0.17438664
0.020867113 -0.32232308 0.040577862 0.098966315 -0.025855789 -0.004367909 -0.15536824 -0.18552925
-0.02759026 -0.14971697 0.116463505 -0.0053317635 0.22219299 -0.055361684 -0.059290037 -0.12431553
-0.27996004 -0.22286071 -0.003884176 0.02919286 0.19983086 -0.18598853 -0.21357173 -0.2545636
-0.0013270569 -0.17360309 0.00725078 0.0045702965 -0.0009745078 -0.15116957 0.03847811 0.18905829
-0.118566945 -0.014144715 0.10037156 0.14273925 -0.142145 0.0439762 0.097986996 -0.0356101
-0.14396651 -0.0042363014 0.16361165 -0.19436851 0.08974828 0.012012764 -0.101651035 -0.013737139

gru.bias_hh_l1 f4 [267]
00000000: 56da 963d 446d 02be 5db8 05be 6fdf c8bc
00000010: 480f 58bd 599a 1d3e a7a2 4ebe 0901 61bb
00000020: 5fc6 01be 5fcc 963c ad56 1bbc 4164 d13d
00000030: 160a 813c fba4 213d 9fc1 d3bd b3bc afbd
00000040: 3307 553d df49 5dbd 0e95 1ebd 5d42 59bd
00000050: ee73 bbbd 296f babd e6dd 3abd 9556 e8bd
00000060: 1da9 86bd 7151 7ebc ca3e 10be eab7 243d
00000070: 6914 e5bd baea 3abd b53a 40bd 9d89 b73d
00000080: ae97 10bd c5f4 febc a6d6 27be a409 0e3e
00000090: 9fea 5a3d dc73 49bd 05e6 1dbc 9177 2f3d
000000a0: 83ae e43c 1534 87bd aaf6 12bc 430d 243e
000000b0: 3767 9abd 337b 41be d447 d9bd 6cad aa3c
000000c0: c3a1 bdbd 3aca 3fbe 26cf c23b be3e ec3c
000000d0: 2012 b23d b893 56bd cc7d 783d c10c 38be
000000e0: 7326 ed3b 959c a13d 0347 e4bd 323e 243d
000000f0: 6295 573c b707 2fbe 1544 363d b22a 753e
00000100: 9b7c 1abd d3ab c9bb 0d35 90bd 7e87 97bd
00000110: 1596 9abc 804d d7bd 5d95 e8bd 5722 393d
00000120: c98d 883c 400c afbd e53e e53b 1c85 7cbe
00000130: b43b a1bd 60b4 3bbe 6128 103d e874 693d
00000140: b142 eebd 2fbe 0e3e adfe 1a3d e197 d93b
00000150: 7a00 dc3d 5615 19be 3116 9f3d fc15 2c3d
00000160: 9308 9c3c 86a6 95bc ae7b 7e3c d446 a23c
00000170: 8bcb f6bd 66e1 48be ac4f 40bd 65a2 d5bd
00000180: a4c5 ecbc 424b 43bd 3214 9bbd 5eac 853d
00000190: 43bc b23b 8522 d93c a52f b33c 8e47 17be
000001a0: c8e4 30be 9c0d 793b 938f a9bd 5c7f 97bd
000001b0: 1e6a 07bd 263e f6bd b6d8 50be a978 59be
000001c0: f28b 65be 2bba b33d c56e aebd d89f e63c
000001d0: 25af 80bd d810 56bc 45be 02be 0f31 f1bd
000001e0: b851 0ebe 8605 edbc da09 d2bc e56f 6cbd
000001f0: 460c d23d 49c5 3fbd 96e3 6dbd 1399 083e
00000200: cc0c 76bd f0a0 00be 189e 60bd a91c 1dbd
00000210: a47c b9be 7ce2 ab3d 0775 60bc e1ff 7fbd
00000220: f9f0 133d 78ac 5fbe dee0 7bbe 0c99 eebd
00000230: be9f e8bd 70c9 72bb 82e7 ea3b 2643 40bd
00000240: c6cb 50bd 9ea9 9f3c 9f6d afbe 4a55 b43b
00000250: 32d2 15bd 96d8 ebbc aef2 2abe 5cef b7bc
00000260: 5153 9fbd b3b6 debd 5315 eb3d e60c be3c
00000270: 3324 c33d 5000 f2bc de7d 1fbc 5ff2 093d
00000280: 07bd 26be 650c 01be 3eec 24be fd3d a5bd
00000290: e1fe 7abd 4e4e b0bd 43f7 34bd f961 6ebe
000002a0: 4d5c 9ebd 1df3 34bd 5781 4cbd ee0f d5bd
000002b0: 0d76 14be 4798 aebd 522b 52bd e9b7 64be
000002c0: f2f1 82bd be1e ecbd 280f 563e 8c6d 4ebd
000002d0: ee03 65bd 5555 183e 7623 2f3c bd33 75be
000002e0: 1516 cabd c734 1e3e d1cd 33be 1783 03bd
000002f0: d61a 163d 71f4 8fbe e19b 2f3e e914 213e
00000300: 8971 cd3d f49d febd 26fb 4bbe 7e35 32be
00000310: a304 ef3c bba8 8b3e bec5 203e 30a0 393d
00000320: 6bf7 65be 10fa 763e 11cb 7cbe b239 f73d
00000330: 9688 0cbe 8f40 35be 3016 60be 9b26 753e
00000340: 40bf 043e 21ff b3be e787 32bd fad9 2d3e
00000350: 1c97 d63a 7a49 203e bf26 09be 6a84 38be
00000360: 847a b43a e6ac cfbd 3603 353e b51c b6bd
00000370: 6af6 2f3e c5b2 033d 48e9 8abd f18e 62bd
00000380: 78e9 40be e6d8 22be 9fc8 273d cea4 333d
00000390: f9cf 0e3e de3e 1fbe f267 40be 29b6 e5bd
000003a0: c600 e23d 80c5 f6bd 0bbb 043e 8ecc 6f3b
000003b0: 5862 acbd 0e64 45bd e42d 993c 3332 3f3e
000003c0: cc3e a3bc 62fa 9dbc f881 583e ee85 d63d
000003d0: c10f c6bd 8803 16be 3601 6d3c 3c88 ae3d
000003e0: a2cd 2fbd bd77 c73d d09f 8a3c 6020 44be
000003f0: a119 443c 0ae0 9cbc 9b90 e9bc b9c4 bdbd
0.07365863 -0.12736994 -0.1305861 -0.024520604 -0.05274895 0.1539091 -0.20179234 -0.0034332892
-0.12673329 0.018407999 -0.009481114 0.102242 0.01575188 0.03946398 -0.10339665 -0.085809134
0.05200882 -0.054025527 -0.03871637 -0.053041805 -0.09152971 -0.09103233 -0.045621775 -0.11344639
-0.065752245 -0.015522347 -0.14086452 0.040214457 -0.111855336 -0.04563401 -0.046930987 0.089617945
-0.035300903 -0.031122575 -0.16390476 0.13870865 0.05344641 -0.049182758 -0.00963736 0.042838637
0.027915245 -0.06601731 -0.008969942 0.16020684 -0.07539218 -0.18894653 -0.10609403 0.020834647
-0.09259369 -0.18729487 0.005945104 0.028838512 0.08694863 -0.05238697 0.060666844 -0.17973615
0.0072372495 0.07891194 -0.11146357 0.040098377 0.013158174 -0.17092787 0.04449852 0.23942068
-0.03771649 -0.0061545162 -0.07041369 -0.0739889 -0.018870393 -0.10512829 -0.11356614 0.045198765
0.01666917 -0.085472584 0.006996023 -0.24660152 -0.078727156 -0.18330526 0.03519476 0.056996256
-0.11633814 0.13939737 0.037840534 0.00664042 0.107422784 -0.14949545 0.077679045 0.042013153
0.019047057 -0.018267881 0.015532417 0.019809164 -0.120505415 -0.19617233 -0.04695098 -0.10431365
-0.028902836 -0.047679193 -0.07572211 0.06527017 0.0054545715 0.026505718 0.021873305 -0.1477339
-0.17274773 0.0038002497 -0.08279338 -0.07397339 -0.033060186 -0.120235726 -0.20395169 -0.21237434
-0.22416666 0.08775743 -0.08517221 0.028152391 -0.06283406 -0.013065539 -0.12767895 -0.11776935
-0.1389836 -0.028933298 -0.025639463 -0.0577239 0.10256247 -0.046819005 -0.05807837 0.13339643
-0.060070798 -0.12561393 -0.05483827 -0.03835741 -0.36227906 0.08392808 -0.0136997765 -0.062499885
0.03611848 -0.21843135 -0.24597499 -0.11650285 -0.113585934 -0.0037046336 0.007168711 -0.046939038
-0.050975583 0.01949006 -0.34263322 0.0055033313 -0.03657741 -0.0287898 -0.16694137 -0.022453003
-0.07779563 -0.10874691 0.11478677 0.02319951 0.09528389 -0.029541165 -0.009734599 0.03367841
-0.16283046 -0.12602384 -0.16105744 -0.08068464 -0.061278228 -0.086086854 -0.04418112 -0.23279561
-0.07732449 -0.044177163 -0.049928036 -0.10403429 -0.14498158 -0.08525138 -0.051310845 -0.22335781
-0.06393804 -0.11529301 0.20904219 -0.05039744 -0.05591195 0.14876302 0.010689607 -0.23945518
-0.09867493 0.1544982 -0.17558981 -0.03210744 0.036646686 -0.28116181 0.17149307 0.15730633
0.10031421 -0.12432471 -0.19920024 -0.17403218 0.029177016 0.2727717 0.15700433 0.045318782
-0.22457664 0.24118829 -0.24686839 0.120715514 -0.13723978 -0.17700408 -0.21883464 0.23940508
0.12963581 -0.35155585 -0.043586638 0.16977683 0.0016371938 0.15653029 -0.13393687 -0.18019262
0.0013769423 -0.101404 0.17677006 -0.08892194 0.17183843 0.03215291 -0.06782776 -0.0553121
-0.18839061 -0.15903053 0.04096281 0.043858342 0.13946523 -0.15551326 -0.18789652 -0.11216385
0.11035304 -0.12049389 0.12961976 0.003659043 -0.08417195 -0.048191123 0.01869864 0.18671493
-0.019927405 -0.01928443 0.21143329 0.10474764 -0.096709736 -0.14649785 0.014465621 0.085220784
-0.042920716 0.09739635 0.016921908 -0.19152975 0.011969001 -0.019149799 -0.028511336 -0.092660375
