models/gru_trial_9.pth (torch, 71024 bytes, 9 tensors)

gru.weight_ih_l0 f4 [108, 44]
00000000: 7d2e 2e3e 2323 09bb 1bcf 22be 0f7a f8bd
00000010: 1fc8 dd3d da6c 673d 138d bf3d 6df1 6e3d
00000020: d849 d3bd dfbf f4bc 10e7 96bc a057 17bc
00000030: 2ce3 953d c2f6 fcbb a72e 06bd a2a6 cabd
00000040: 700c 5e3d 1481 933d b805 23be 9bbd 91bd
00000050: 4561 80bd 9a8f fabd 4cf1 4fbe c1ed bc3d
00000060: 039a b23d 3df2 83bd 1b0d ea3d 2acd c6bb
00000070: 985a e13d 2991 86bd 4b9b 8fbd 9c88 163e
00000080: 0064 013c facd 0a3e 5e22 1e3d 2045 f63b
00000090: de93 86bd 657f 113e 3193 043d c7bb 8a3d
000000a0: 6b6d 01be 5e8d 3bbc d32f 47be 3602 bcbd
000000b0: 5a56 243e 3091 b53c 8591 1bbe 71ca 07bd
000000c0: 4218 16be 8d05 1d3e a0dc 7cbd e820 9e3c
000000d0: 31b8 8c3d 10fc 203d e95a 47be a738 1cbe
000000e0: 0a2d 823d 8517 06bd d703 353d c454 0c3e
000000f0: 6f5a 083e 187e 003d 6191 323e 0767 c83c
00000100: 9302 363d a0ed 133e 9f77 e9bd 1cad e43d
00000110: e1e0 1abe ab81 8ebd 1480 083c 0c41 72bd
00000120: 1c57 c7bd 3028 28be 632e 0abe 05d1 25bd
00000130: 0ced 31bd 7c42 03be 78ef 91bd 2b61 d8bd
00000140: 4b9a 10be f495 ae3d 5697 fa3d 6e6d a7bc
00000150: b39a c6bd 9336 10be a852 c9bb c1c6 80bc
00000160: e2de 8bbd af38 28be 37be 6c3d 28a6 a63c
00000170: dcc7 99bc dcd4 23be 3813 b4bb 7225 d9bd
00000180: 0038 64be 7412 e83c 33fc 8d3d 3a84 33be
00000190: 609b 083e 4b98 adbb 58d2 4dbc 525d 173d
000001a0: 3a43 f83d 407b 953d becc 9d3c 0845 d53c
000001b0: b119 0e3e 2861 34be 8fa9 79bd ca2d be3d
000001c0: 545e 0ebd c3f8 4a3c e704 073d c698 b23d
000001d0: 1fea 15be 8a43 04be 7500 c7bd 002f 183d
000001e0: 8477 f4bd 767f 2f3d 76a1 36be 099d 9fbd
000001f0: 5c86 04be 6ad7 5fbd 6846 88bc 0737 8e3b
00000200: 4cfe 7a3d 85e4 2bbe 305b 53be f7a3 34be
00000210: b54a a33d 7e22 3ebe 284c 8bbd 63bc 2c3d
00000220: 8b7b 8f3d 5f30 73bd 8791 0e3c 8c22 cc3c
00000230: 0f69 8dbd b17f 183c 300d 163d bdee cebd
00000240: 299c ca3d f5d7 8abb a571 5c3d a824 ed3d
00000250: 3f10 d43d 96a9 47be 8654 ec3d 69ac cbbd
00000260: 0fa1 133e 32c5 edbd 2e6b 1d3c d1ae 85bd
00000270: 359e 103e 610d 10bc 1923 d63d c63a e9bd
00000280: 97eb bcbd e0e8 b4bd acff 0c3e 196f 9f3d
00000290: e729 bbbd 7821 013e c23c 26be 027b c13d
000002a0: 614f fa3d ed96 69bd e3bc debc 6847 3c3d
000002b0: b1eb d83c b5df 08bd 0cf1 e8bc f3db 4c3d
000002c0: 4238 e33d 3064 c13d 73b6 58bd 995d 1d3e
000002d0: 5366 023d 68ba 203d 8da3 8cbd 9be9 59bd
000002e0: a47b 583d e16e 9f3d 7ee5 c03d 5978 9d3d
000002f0: 1a3c 5d3b 45c9 343e 50cc 41bd fa4e f3bc
00000300: 2503 f43c 2662 91bc 99ea dbbc f1be 44be
00000310: 72bf 6fbd 6c0e a73d bffb 893d 35b1 10bc
00000320: ff16 24bd ff2b 07be 5b59 4cbe 9178 413e
00000330: 6c9c fd3d 2454 353d 2d9d 423d 3bbf 57be
00000340: fe43 363e 5d9c 863d c025 2bbe 5bf0 d93d
00000350: 132b 6e3d 6828 293e d54e 45bd d64c c73d
00000360: a7c8 0a3e f129 033e 044d febd c3b5 ed3d
00000370: 0af7 ccbd 4c2d b23d f251 8e3b 49d8 bfbc
00000380: f36e d03d 3068 453b 56e6 31be 8cd7 79bb
00000390: 96e0 cd3d af7b 133d dd64 4a3d f3a7 fcbd
000003a0: ca0f ac3a d8f4 8a3d 2ea9 ee3d 6ec7 bb3c
000003b0: d87a 353e 70fd 963b 0256 9d3d aa75 4a3d
000003c0: 7f99 8d3d 6802 22be 1477 fd3d db32 a0bd
000003d0: b434 18be 89d1 67bd c008 3a3d d983 343d
000003e0: f3a6 dabd 4a70 edbd 313e 11bb 01a9 bc3a
000003f0: 1568 9c3d 9961 133e 6991 603d 0596 0bbe
0.17009921 -0.0020925484 -0.15899317 -0.12132656 0.10829186 0.056500293 0.0935308 0.05833571
-0.10316819 -0.029876648 -0.018420726 -0.0092372 0.0731872 -0.0077198455 -0.032759335 -0.09895064
0.05421108 0.07202354 -0.1592015 -0.071162425 -0.06268553 -0.12234421 -0.20306891 0.092250355
0.08720782 -0.06442688 0.11428281 -0.006066938 0.110036075 -0.06570656 -0.07012042 0.1470055
0.007897377 0.13555136 0.038606994 0.0075155646 -0.06571172 0.14208753 0.032366935 0.06774097
-0.12639396 -0.011447279 -0.19451837 -0.09180109 0.16048566 0.022163957 -0.1519223 -0.033152048
-0.14657691 0.15334149 -0.061733842 0.0193028 0.06871069 0.039302886 -0.19468273 -0.15255986
0.06356247 -0.032737274 0.044193115 0.1370421 0.13315748 0.031370252 0.1743827 0.02446319
0.04443605 0.14446115 -0.11399769 0.111658305 -0.15124847 -0.06958326 0.008331317 -0.059144065
-0.09733412 -0.1642158 -0.13494258 -0.04048254 -0.043438956 -0.1281833 -0.07125753 -0.10565408
-0.14121358 0.08524695 0.12235896 -0.020437922 -0.09697475 -0.14083318 -0.0061438866 -0.015719773
-0.06829621 -0.16427873 0.05779859 0.020342901 -0.018772058 -0.15999168 -0.005495455 -0.10602845
-0.22286987 0.028329112 0.06932869 -0.17530909 0.13340521 -0.0052976958 -0.012562357 0.03695423
0.121221974 0.07298899 0.019262668 0.026033893 0.13876988 -0.17615187 -0.06095272 0.09286077
-0.034757927 0.012388411 0.03296366 0.087205455 -0.14640091 -0.12916389 -0.09716884 0.037154198
-0.11936858 0.042846166 -0.1783503 -0.07793624 -0.12941879 -0.054648794 -0.016635135 0.004340056
0.061277673 -0.16786392 -0.20640254 -0.17640673 0.079732336 -0.18567845 -0.06801635 0.042171847
0.07005986 -0.059372302 0.008701689 0.024918817 -0.06904804 0.009307788 0.03663367 -0.101041295
0.098930664 -0.00423717 0.053819317 0.11579257 0.10354661 -0.19498286 0.11539559 -0.09944994
0.14416908 -0.11609878 0.009608073 -0.06527484 0.14122851 -0.008792252 0.10455913 -0.11388163
-0.09224623 -0.0883348 0.13769406 0.07784862 -0.091388516 0.12610424 -0.16234115 0.0944729
0.122221716 -0.0570287 -0.027189678 0.045966536 0.026479574 -0.03341647 -0.028435253 0.050014447
0.11094715 0.094429374 -0.052908372 0.15367736 0.031835865 0.03924027 -0.06867132 -0.0532013
0.052852288 0.0778482 0.09418772 0.0768897 0.0033757747 0.17654903 -0.04731399 -0.029700745
0.029786656 -0.017746996 -0.026845263 -0.19213463 -0.058532186 0.08157048 0.0673747 -0.008831312
-0.040060993 -0.13200377 -0.19955961 0.18893649 0.12383351 0.044269696 0.047513176 -0.21069042
0.17799374 0.06572793 -0.16713619 0.10641547 0.058146548 0.1651932 -0.048170883 0.09731452
0.13553105 0.12808968 -0.12417033 0.11606934 -0.100080565 0.08700046 0.0043432647 -0.023418562
0.10177412 0.0030121915 -0.17373022 -0.003812286 0.10052602 0.036006626 0.049412597 -0.12336721
0.0013127264 0.067849815 0.11653362 0.022922244 0.17722642 0.004607849 0.0768242 0.04942862
0.06914043 -0.1582123 0.12376228 -0.078222 -0.14863855 -0.056596313 0.0454185 0.044071052
-0.10676374 -0.11593683 -0.0022162313 0.0014393629 0.076370396 0.143927 0.054826174 -0.13631447

gru.weight_hh_l0 f4 [108, 36]
00000000: 315d 553e 0597 c23d dd61 3d3e 3a4f 033d
00000010: ae65 81be f996 033e d0ae 4abe 6a8b 73be
00000020: 4191 9d3c b10f 46be e70e 12bd a95b e2bd
00000030: 5e25 25be 1bbf 0a3e 0898 513e 9538 d7bd
00000040: 1ae6 85bd e20a 073e 020d 4a3e ff2e 8bbe
00000050: 44eb a2bd 760d 5bbd 1b4e d4bd cc9b 9abd
00000060: d1e4 3b3e e5ff 19bd 4367 d3bc dda0 343d
00000070: b505 bcbc 2f4c 92bd dafb 41bd cee4 6ebe
00000080: 61a7 9f3b a3fd 57bd f60c b83d 88f7 bcbd
00000090: 6f9e 68bc 0337 583e c928 5fbd db2e 8ebc
000000a0: 9d12 fdbd ef6e 39bd 35f3 b5bd fc79 34bd
000000b0: a91a 013e 00a0 ddbd 991e 51bd 2069 323e
000000c0: 0140 513b 4d49 563e 877b dabc 223d 353d
000000d0: f493 ab3d b4ff 3f3e 0885 25bd 395a 5cbe
000000e0: 9977 983d 699f 54be 37ff dcbd 4c59 3b3e
000000f0: eda6 183e 33fb 853e 0992 af3d 6f79 b1bc
00000100: 1449 c4bd 61b2 14be 710e 673d fe50 c43d
00000110: ad38 88bd 5f6c 09be b89f 7ebd cea8 d13d
00000120: 4e39 49bd a3da d73c a621 273e a1c0 c6bc
00000130: fa7c 773d 3d7f 413e 9159 57be a6f8 13be
00000140: f5fa 263e 0029 1abe 28f1 db3d 5070 83bd
00000150: 1867 a53d 745e 0cbd 877d bc3d 45e9 f5bc
00000160: ef56 543d 47ea 7d3d 70f6 613e f3e3 c9bd
00000170: 5c97 c73d 60eb 7dbe b58b d73c 5511 96bd
00000180: 4591 553e 51c5 ac3d 80b5 7c3d 4e06 84be
00000190: 4df1 d1bd c601 9abd bbb6 86be 1de0 7d3d
000001a0: b9fb 633e 2e39 c53b 9213 0a3e 4040 aebd
000001b0: 6d8e 803e 9527 603d 60f3 533e e903 2c3c
000001c0: cc44 443d 6986 44bd b62c 12bb 739e 89be
000001d0: e808 053e fdda acbd 0597 9d3c b0b3 583d
000001e0: 175d babc 0af1 353d 02fb 203e 805a 82be
000001f0: 191e 233e c9c1 8d3d 9b0f 3b3e 7cec 17be
00000200: 6951 e53c 60de 013b 55aa fc3c cd2a e73d
00000210: 9f2a 793e cf94 0f3d 8b7c ab3d cd98 d03c
00000220: b52f 0f3c 24a8 c63d 5cdb 45bd 4d63 7a3d
00000230: 4cfe 113e ad67 43be 0f3f 323e 512f 843e
00000240: ccc9 30bd e31f 103e dfa4 b4bd de9c ab3d
00000250: 87ae 8fbc 212e 583e e1e5 1ebe 64ce 36be
00000260: a904 7ebd b9c2 39bd b97d 29bd 1524 4b3c
00000270: b25a c13c 2da6 a2bc 0fb9 0e3d 3b69 3bbe
00000280: d317 5e3e 10b2 ef3d a518 a13d fb29 d33c
00000290: 79d3 17be fc6e 65bd e24a dfbd 56a3 a63d
000002a0: 06b4 3b3c 46f9 233e f4dc 9c3d 415c 3bbd
000002b0: 725f 57bd fdf4 7e3c 36c2 2bbe 428c d73d
000002c0: b779 2c3e b6c8 403d d435 a33d 5045 20be
000002d0: d14a 7a3d 7c2d 403e 1242 743c 7168 5bbd
000002e0: ec33 4fbe 4e36 a6bc c5ec 0c3d c441 0abe
000002f0: 1d2d 0e3e fc7e b6bd 545d 5bbe 055f bebb
00000300: 0704 81be acee b5bc 3e5e 1a3c 3332 f43d
00000310: 64c0 483d 4c78 543d f1df f93b e444 f4bd
00000320: e0c2 fc3d eb24 513d 9c4e a43d f35e 88bd
00000330: 04ba dd3c 28aa 95bd a642 eabc 8e42 33be
00000340: 53c2 873c 9ad5 a63d 866b 75be ea26 24be
00000350: a100 3b3e 4559 a2bc 8069 b7bc 271d 9d3d
00000360: 463c 023e 08ab c63c 1a57 fa3c 7551 0abd
00000370: 8f0b 67be 5159 13be 45bb 3ebe 03b1 65be
00000380: 8d65 8b3e c49b 48bd 2335 3fbe 415c e3bc
00000390: b8ea 6cbd ab69 ca3d e131 f53d 2490 70be
000003a0: d139 013d 0f2c 1c3e 181d 223e 8cae bcbd
000003b0: 740b 2dbd 1548 2fbe 9c13 b43b 6ccf 6a3e
000003c0: fa97 823e 1915 853d 6183 073d f993 d83a
000003d0: 0382 2dbe cbc6 4ebe 21c4 e13c 8cd8 c43c
000003e0: eb40 793e 74c8 d2bc 16ed 103d 0128 833d
000003f0: 3e03 273e cafb 0dbd fc63 823e 9775 b63d
0.20836331 0.09501461 0.18494363 0.03205798 -0.25272888 0.1285056 -0.19793248 -0.23783651
0.019234302 -0.19341923 -0.035658743 -0.11052639 -0.16127536 0.13549463 0.20468152 -0.10508839
-0.06538029 0.13187745 0.19731525 -0.27184293 -0.079550296 -0.053479634 -0.1036646 -0.07549247
0.18349005 -0.037597556 -0.025806075 0.044098724 -0.02295194 -0.07143437 -0.047359325 -0.2332947
0.004872248 -0.05273212 0.08986847 -0.092269 -0.01419793 0.21114735 -0.054482255 -0.017356327
-0.12357066 -0.04527181 -0.08884279 -0.044061646 0.12607826 -0.10821533 -0.05105457 0.17422915
0.0031929018 0.209264 -0.02667023 0.044247754 0.08377829 0.18749887 -0.04041007 -0.21518792
0.074446864 -0.20763935 -0.10790866 0.18295783 0.14907427 0.26168212 0.08572776 -0.02166435
-0.09584251 -0.14521171 0.056410257 0.095857605 -0.06651435 -0.13420247 -0.06216404 0.10237275
-0.049126916 0.026349371 0.1632143 -0.024261774 0.06042192 0.18896194 -0.2103026 -0.1445032
0.1630667 -0.15054703 0.10739356 -0.06417906 0.08076304 -0.034269765 0.0920363 -0.030018458
0.05184072 0.061991002 0.22066665 -0.09857931 0.097456664 -0.2479682 0.026311735 -0.073275246
0.20856197 0.084360726 0.06169653 -0.2578606 -0.102511026 -0.075198695 -0.26311287 0.06198131
0.22263993 0.0060187792 0.13484028 -0.085083485 0.25108662 0.05472525 0.20698309 0.010498979
0.047917172 -0.047979746 -0.0022304482 -0.268787 0.12991679 -0.08440206 0.01923705 0.05290574
-0.022749467 0.044419326 0.15720752 -0.2545967 0.1592945 0.06921727 0.18267672 -0.14836305
0.027992921 0.0019816384 0.03084294 0.112874605 0.24332665 0.035054024 0.08373364 0.025463486
0.008739402 0.09700039 -0.0483049 0.061129857 0.14257163 -0.19082518 0.17406867 0.2581735
-0.0431612 0.14074664 -0.08820509 0.083795294 -0.017539276 0.21111347 -0.1551738 -0.1785217
-0.062016163 -0.045351718 -0.041379664 0.012398739 0.023602817 -0.01985463 0.034844454 -0.18301861
0.21688776 0.117038846 0.07866029 0.025776854 -0.14826764 -0.056014046 -0.10902955 0.081366226
0.011456495 0.16013059 0.07659331 -0.045742277 -0.052581258 0.015561339 -0.16773304 0.10524799
0.16843306 0.047066413 0.07969251 -0.1565144 0.061106507 0.18767351 0.0149083305 -0.0535664
-0.2023465 -0.020289566 0.03440549 -0.1350165 0.13884397 -0.08910939 -0.2142232 -0.005809667
-0.25198385 -0.022208534 0.009421883 0.11923637 0.049011603 0.051872537 0.007625573 -0.11927202
0.12341857 0.0510606 0.08022806 -0.06658735 0.027066238 -0.07307845 -0.028596234 -0.17505857
0.016572153 0.0814621 -0.23966798 -0.1603047 0.18261959 -0.019817958 -0.022389174 0.07671576
0.12718305 0.024251476 0.030559111 -0.03376909 -0.22563003 -0.1438954 -0.18626125 -0.22430806
0.27225915 -0.048976675 -0.18672614 -0.027753951 -0.057841033 0.09883436 0.11972404 -0.23492485
0.03154928 0.15251182 0.15831411 -0.0921298 -0.04224725 -0.17117341 0.0054955017 0.22930688
0.25506574 0.06498165 0.033084277 0.0016523591 -0.16944127 -0.20193021 0.027559342 0.024029039
0.2434117 -0.02573035 0.035382353 0.064041145 0.1630983 -0.034663953 0.25466907 0.08909147

gru.bias_ih_l0 f4 [108]
00000000: 6022 333e 7344 393c fa5a 163e 499d 063d
00000010: 132a 513e e99c 673e 8884 163e 4ae3 c83d
00000020: 417a 643d 606b d33a d9c7 67bd fe50 0c3e
00000030: e087 98bd 58a3 c63d 9d3e 09bd a1f6 7b3e
00000040: 4aa1 293e 6db2 b2bc 83bd 7cbc 90f5 e93d
00000050: 5c32 2c3d 3bd2 703d ad51 ebbc 3399 8c3d
00000060: eacd 883e e4e0 81bd a567 87bc ca38 ffbc
00000070: 4aa3 113e 3554 733e fbbf 663d 6b33 433e
00000080: cf1b ff3d 87d2 4a3e a235 aabd e851 02bd
00000090: baf7 6a3d 980b e83a 756c 7ebe 3f1f 9abb
000000a0: bc18 48be a5f0 6a3c 508f bbbd 2903 9bbd
000000b0: e908 d33d 00c1 4c3e 0e45 40bd 83e1 013e
000000c0: 0975 ddbd c864 d53d 1105 d63d 6562 84bd
000000d0: 0997 bb3d 7052 4ebd 86c1 a63b c50f 003e
000000e0: 2c10 96bc 6e23 89bc aac0 dabd 742f 5fbd
000000f0: 8d82 213d 52b0 7ebd 30ff 4a3e 1ec4 57bd
00000100: 323d b33d f737 48bd ac86 0f3e 8ee5 1f3e
00000110: eaff ed3d 2edd 7bbd b103 8f3d 1bbc 523e
00000120: 8aa1 363e 663a 0c3e 3fcc 5b3e f9d4 b4bd
00000130: 9dad 4fbe 0271 ff3d 6fdb 05be 958e 48be
00000140: dd96 b0bc 00b1 83bd 9e74 2bbd 11c6 1ebd
00000150: ff39 78be fe65 153e 53a1 29bc 4d85 68be
00000160: 29db 333d 1cdc 5b3d 221a 353d ecc4 82bd
00000170: 19f4 4ebe 42f5 60be 7bd7 ab3c 7bc4 1e3e
00000180: f8d8 543e 074c 8f3e c1b5 99bd 074a 14be
00000190: fd19 5fbe 2d78 afbc 7893 23be 227f 62bc
000001a0: 64c2 b43d c8d8 09bd c395 5e3e f827 abbb
0.17493582 0.0113078235 0.14683142 0.032864843 0.20426206 0.2261845 0.14698994 0.09808977
0.055780653 0.0016130023 -0.056587074 0.13702771 -0.07447791 0.09699124 -0.03350698 0.246058
0.16565433 -0.021813596 -0.0154260425 0.114237905 0.042040214 0.05879424 -0.02872547 0.06865158
0.267196 -0.063417226 -0.016528914 -0.031155009 0.14222446 0.23762591 0.05633543 0.19062583
0.12456476 0.19806872 -0.08311011 -0.031816393 0.057365157 0.001770365 -0.2484606 -0.004703432
-0.19540685 0.014339601 -0.09158194 -0.07568962 0.10304434 0.19995499 -0.046940856 0.12683682
-0.10813338 0.10419613 0.10450185 -0.0646408 0.09159667 -0.050371587 0.0050889878 0.12506016
-0.018318258 -0.016740527 -0.10681279 -0.054488614 0.039431144 -0.06217987 0.19823909 -0.052677266
0.087519065 -0.048881497 0.14016217 0.15614912 0.11621077 -0.06149023 0.06983126 0.20579569
0.1783506 0.13694152 0.21464632 -0.08829684 -0.20281072 0.124727264 -0.13071989 -0.1958564
-0.021556312 -0.064302444 -0.04185926 -0.03876311 -0.24240874 0.14589688 -0.010353404 -0.227071
0.04391018 0.05367671 0.044214375 -0.06385216 -0.20210303 -0.21968558 0.020976773 0.15504639
0.20785892 0.27987692 -0.0750537 -0.14481364 -0.21787257 -0.021419609 -0.15974224 -0.013824256
0.088261396 -0.033654004 0.21736817 -0.0052232705

gru.bias_hh_l0 f4 [108]
00000000: 6c05 cb3b a021 9b3c 1ad1 4b3e c6ed 32bd
00000010: fe33 6dbc 9dbe 633e a2cc 19bd f323 303d
00000020: a177 803e b5ba eebd b57a 983d 4205 cc3d
00000030: f9cf d23c 03c0 59bd 1377 a53c b7de 283e
00000040: 75c1 cb3d b87b 393e a74d b63b 28f7 833e
00000050: 74df ffbd 27d3 e63d 1ecf de3c cdc6 153e
00000060: 0b96 40bc 249f c93d bed4 41bd bb1f 623e
00000070: 27fb 213e a5a8 643e f194 383d a114 f83d
00000080: a0ea 0d3e b5e2 a53d 7bf6 cebd 59ea 9fbc
00000090: e3e3 013d 3bc8 7bbd 7dc4 15bd 989c b03d
000000a0: 5056 1ebe 59d6 8dbd aa80 05bd a202 f4ba
000000b0: 34cd 0c3e 8c32 4a3e 2eec a6bc bf8c 253c
000000c0: 14de 533d 0349 09bd a2d9 95bd ce8f 873d
000000d0: 05a4 b13d be7c 31be 0987 373e a0d3 033e
000000e0: fdbe 313e f6e0 a3bc d6e3 213e 0970 3bbe
000000f0: c420 d1bd 6029 09be ea81 573e 230a 51be
00000100: bef3 a5bd 3d77 893d 30b5 693d 20fe 063c
00000110: bdba 753d 69d5 763d be3d f23c 1c97 2b3e
00000120: c462 963e 5081 933e aa0f 583e 0f79 86be
00000130: 1ffa 87bd a8ae dc3d 3000 1fbe 6973 7bbe
00000140: 7fdc 313e 7711 bebc a508 00be 4d48 663e
00000150: 98a3 35be a61c 7e3d f8de 873e 15d7 6ebe
00000160: 98a9 573e ce18 813e 305a 823e 669e 79be
00000170: 632a 9c3c 2045 8dbe f6df 99be 7a36 153e
00000180: f0a1 913e aab2 ed3d 78c7 b2bd 5bc4 44be
00000190: 557e 52be 42fc 8cbe 2daf 5bbe 959a 4f3d
000001a0: 5791 473e 6a53 f5bd ad47 af3d 75b9 81bb
0.0061957147 0.018936932 0.19903985 -0.04368379 -0.014477728 0.22240682 -0.03754867 0.043003034
0.2509127 -0.11656705 0.074452795 0.0996194 0.025733935 -0.053161632 0.02019838 0.16491209
0.099490084 0.18113601 0.005563456 0.25774503 -0.12493792 0.11270743 0.02719837 0.14626618
-0.011754523 0.09844807 -0.047322027 0.22082417 0.15818463 0.22329958 0.045063917 0.1211331
0.13859034 0.080998816 -0.10105606 -0.019520925 0.03171147 -0.06147025 -0.03656434 0.08623618
-0.15462613 -0.06925649 -0.032593407 -0.0018616507 0.13750154 0.19745845 -0.020376291 0.010104357
0.051725462 -0.033516895 -0.07316901 0.066192254 0.08673862 -0.17332742 0.17922606 0.12873697
0.17358012 -0.02000473 0.15809569 -0.18304457 -0.10211328 -0.1339469 0.21045652 -0.20414023
-0.08103131 0.06712196 0.05705756 0.008239299 0.05999254 0.060262118 0.029570457 0.16756862
0.29372227 0.28809595 0.21099725 -0.26264235 -0.06639504 0.107755005 -0.15527415 -0.24555744
0.17369269 -0.023201687 -0.12503298 0.22488518 -0.17738187 0.06203904 0.265373 -0.23324235
0.21060789 0.25214237 0.25459433 -0.2437683 0.01906318 -0.275918 -0.3005368 0.14571562
0.2844386 0.11606343 -0.08729452 -0.19215529 -0.20556004 -0.27536207 -0.21453543 0.05068453
0.19489037 -0.119788006 0.08558593 -0.003958876

gru.weight_ih_l1 f4 [108, 36]
00000000: 43fc ffbc eb95 0b3e e7f2 02bc 6775 8cbb
00000010: 1ff9 d8bd a88d fc3d 2594 7d3d 22ad 06be
00000020: 37bc 06bd c3a0 b23d 6592 093e 8443 413e
00000030: b067 c03c 6cdc ee3d b8be a53d 3b16 2abd
00000040: 3791 fcbb 7db5 813d 920b c63c 14a0 35be
00000050: be61 17be f4e3 07be 85ed abbd 74c2 c43d
00000060: 9048 89bd 0dd0 2f3e 9ca6 ff3d 783f f3bd
00000070: 5334 10be 20eb bf3d 1454 453c 7776 533d
00000080: 07fe c5bd 0915 93bd b836 91bd 327c 5b3e
00000090: e4e0 b93d 996b 0b3e a1a6 babd 5191 373d
000000a0: 15cd 5f3d eba7 40bd bf1a f53c 0675 8fbd
000000b0: 3e3d 1bbe f770 d1bd 044c 293e 97a5 1cbe
000000c0: ba3b c3bd d657 463e 03aa ba3d 49ff 9fbc
000000d0: 4b17 00be 40d7 35bd a5ef 98bd 9faf d33d
000000e0: 0da3 06be e6ce a0bd 2113 d8bc 1e80 0cbd
000000f0: cc47 2a3e f92e 883c a9cf 0bbd 11b5 5fbd
00000100: 48bc 24be 3ee2 01be 1a36 91bc f8b1 063e
00000110: 1730 a53c 54f4 b43c 6245 a73d c9be 9c3d
00000120: fd0c 94bd 0b49 05be 4647 ae3d 7849 843c
00000130: 8055 50bd 44e2 0e3d 9e32 933d ac0b b23d
00000140: 3901 413e 504d 32be 445f 783d 7ec0 ab3d
00000150: 71c8 09be 2356 ba3d 869a e23d 1555 3a3d
00000160: b010 8abd 5834 113d 4448 053e 8f04 273c
00000170: 8267 4f3c d9ea 843d 186c 963c 17bc 3e3d
00000180: afb1 4b3d b717 cbbd ccf1 d1bd 01fc 42be
00000190: f735 d4bc a0a4 e5bb fea6 5bbe 3c0d e53d
000001a0: f168 56bd 6199 bcbd 0d53 2b3e cd4c e13c
000001b0: 764c 283e e1ef febd d168 0d3d 1af0 e13d
000001c0: f97e 993d 6ab3 103e 1e95 2ebe 9125 ec3d
000001d0: c12c b5bd 0007 623d 422e 0abe 577a 1a3e
000001e0: e577 ce3d bcd4 f43d 7a3c e0bd 77fd 45bd
000001f0: d181 f63d f8ed d83d 985d fc3a 93ef b2bd
00000200: 6f60 d2bd 986a c43d d749 22be ca17 aabd
00000210: 4bd5 81bd d2c8 3e3e 8230 123e 4bb6 e7ba
00000220: 6a00 3e3b 7d14 25be 12bd 83bd 94ec 9bbd
00000230: cef1 76bd a75d f0bc b71f b6bd cbba a53c
00000240: 753c f33d c355 0e3e a3fa 1f3e a95c d03d
00000250: 3ada 6f3d 0d6e 6abd 49e8 223d 4ee9 833d
00000260: 74e9 2f3e 4171 d93d a923 163e 5f12 143b
00000270: 480c 8f3d 99e6 a7bc b03e 473e de1d 89bc
00000280: eb4b 213e a502 b2bd db68 a63d 4f06 0b3c
00000290: c8d7 42be 093a d53d b9cc 32be 44c9 7b3b
000002a0: 9da8 b43d 4809 b53d 5615 0a3c 0452 f7bd
000002b0: 1b79 863d 74d2 27be c8e8 55be 396b 03be
000002c0: 281a 473e 962b 26be eb2f a33d 23fe 9b3d
000002d0: fabd dc3d 69f0 ae3b 3194 99bd f3d8 81bc
000002e0: fc29 20be 4dfa 52bd a99d 9dbc cbcc 213c
000002f0: ddee c43d 615b ecbd a9be e9bd 64de 0d3e
00000300: 2820 d6bd 7ca4 ed3d b852 c9bd 7fd9 4abe
00000310: d7d4 b03d 5253 f73d f832 153c 68ec cb3d
00000320: 98b8 afbc 177e 14be 608c ce3d 57ca 04be
00000330: 6a8d faba 5e7c 1ebd f8ee 08be 965d 0dbe
00000340: 863d 773d 8f0e bbbd 2fa9 923d b8e2 a1bd
00000350: 7d15 563e 3ed7 d6bd 93f0 e03d ab52 123e
00000360: 218b e6bd 4ba6 ed3d 8656 063d 2333 28bd
00000370: df72 dabd 38a5 42bd bbfa dfbc 318b 09be
00000380: 8a6c 863d 2711 77bb 9ad1 293e dda5 223e
00000390: 9a0b 9c3d 4f59 02be 4acb 43bd 2aa2 0d3b
000003a0: 42d4 da3d ce46 ab3d f73f cebc 20f7 31bd
000003b0: 4712 d2bc 6456 14bd 462d c5bd 3c17 c23d
000003c0: 7c4d fbbc 6dc2 7bbd f527 f03d a28c 45bd
000003d0: 3cd3 1ebe 940b de3d a7ce 553d 14fe c2bd
000003e0: 94a4 e6bd 05e7 0cbe 5a47 d13b ed12 d13d
000003f0: 8649 a4bd 8053 77bc 13be f73d 8edc 05be
-0.031248217 0.13631408 -0.007992483 -0.0042864564 -0.10594391 0.12331706 0.06190886 -0.13151982
-0.03289434 0.08722069 0.13434751 0.18873411 0.023486942 0.11663136 0.08093017 -0.041525107
-0.0077077406 0.06333444 0.024175439 -0.17736846 -0.1478338 -0.13270551 -0.08394913 0.096074015
-0.06703293 0.17169209 0.1248295 -0.1187734 -0.1408246 0.093710184 0.012043972 0.05162665
-0.096675925 -0.071817465 -0.07090515 0.21434096 0.090760976 0.13615264 -0.09113813 0.04481632
0.05463894 -0.04703514 0.02991998 -0.07004742 -0.15160081 -0.102266245 0.16532904 -0.15297543
-0.09532876 0.19369444 0.091144584 -0.01953091 -0.12508886 -0.04439473 -0.074675836 0.103362314
-0.13148136 -0.07851963 -0.026376309 -0.03430187 0.16628951 0.01662396 -0.034133587 -0.054616038
-0.16087449 -0.12683961 -0.017725993 0.13153827 0.020164533 0.022089161 0.081675306 0.07653577
-0.0722904 -0.13016145 0.08509688 0.016148314 -0.05086279 0.034883752 0.07187389 0.086936325
0.18848123 -0.17412305 0.060637727 0.08386324 -0.13455369 0.090984605 0.11064629 0.045491297
-0.06741464 0.03545031 0.13015848 0.010193958 0.0126589555 0.06490106 0.01836209 0.046566095
0.04973 -0.099166326 -0.10251197 -0.19041444 -0.025904639 -0.00700815 -0.21450421 0.11184165
-0.052346174 -0.09208942 0.167309 0.027502442 0.16435418 -0.12448097 0.03452379 0.11032124
0.07494921 0.14130941 -0.17049071 0.11530603 -0.08846427 0.055182457 -0.13494208 0.15085731
0.10081462 0.11954638 -0.10949035 -0.048337426 0.12036479 0.10592264 0.0019253967 -0.087371014
-0.102722995 0.09590644 -0.1584848 -0.08305319 -0.063395105 0.18631294 0.14276317 -0.0017678229
0.0028991946 -0.16121097 -0.06432547 -0.07613483 -0.060289197 -0.029341532 -0.08892768 0.020230671
0.11876766 0.13899903 0.15622954 0.101739235 0.058557726 -0.05723386 0.039772306 0.06440984
0.17178899 0.106173046 0.14662041 0.0022593958 0.06984764 -0.0204957 0.19457507 -0.016737875
0.15751617 -0.08691911 0.08125468 0.008485391 -0.19027627 0.1041146 -0.17460908 0.0038419524
0.08821223 0.08839661 0.008427938 -0.1207619 0.06566068 -0.16388875 -0.2088958 -0.12833871
0.19443572 -0.16227564 0.07968124 0.07616832 0.10778423 0.0053387177 -0.074989684 -0.01585052
-0.15641016 -0.051508237 -0.019240217 0.009875487 0.09615872 -0.11540867 -0.11413319 0.13854367
-0.10455352 0.116036385 -0.098302305 -0.1980953 0.08634346 0.12076439 0.00910639 0.099572
-0.021450326 -0.14501224 0.10085368 -0.12967812 -0.0019115631 -0.038692825 -0.1337241 -0.13805231
0.060361408 -0.09133636 0.071611755 -0.07904571 0.20906635 -0.10490273 0.10983386 0.14289348
-0.112570055 0.116039835 0.03279736 -0.041064393 -0.10666441 -0.047520846 -0.027341237 -0.13432004
0.06563671 -0.0037699433 0.16583863 0.15883584 0.076194 -0.12729381 -0.047801293 0.002161155
0.10685016 0.08363114 -0.025176985 -0.043448567 -0.025643481 -0.0362152 -0.09627776 0.09477088
-0.030676596 -0.061464716 0.11726371 -0.04822982 -0.15510267 0.10842052 0.052199032 -0.09521118
-0.112618595 -0.13760002 0.0063866796 0.10208688 -0.08021836 -0.015095592 0.12096801 -0.13072416

gru.weight_hh_l1 f4 [108, 36]
00000000: 23d4 3a3e 07b1 2a3e 7192 233e e09b 5c3c
00000010: d286 1dbe 633e 743d dfbe 583e 714b 233c
00000020: 2378 6a3d fe43 1b3e 32b0 21be 6823 ed3d
00000030: d975 783e bbe5 5bbe 48a7 6ebd 4ac1 3b3e
00000040: e16e c7bb 0f43 a53d 3e7b 29be f5ca 58bd
00000050: ddcf 9bbd 94d9 30bd 5943 b1bc b533 8e3c
00000060: fe92 35bd 7b77 5abe 964c dd3d 4517 8fbd
00000070: 5fe6 113e e626 bebb 3a92 8bbe 554c 633e
00000080: c36b ad3c 2839 11be 58ff bc3d 0609 0bbc
00000090: e4b7 b83d b606 7b3d 9feb 103e 0ef3 443e
000000a0: 7b90 11bd dfab 263d 5bb8 b03d 3fef 30be
000000b0: f82d b63c a060 863d 0082 52bd e686 2ebc
000000c0: 4771 713d c196 75be 0be1 b2bd f2f6 293e
000000d0: 2c22 1bbd 2566 4d3e a36d 7cbe e2b0 7f3d
000000e0: a0d0 56be aa9c 18be 191c 10bc c97d 2f3e
000000f0: cab5 61bb 6017 47bd ff5b e7bc 235b 48be
00000100: 3a96 693e 8fbd 2f3d 1100 29bd 2883 783e
00000110: 3a55 183e b9c9 81be 6f97 163c e9f4 f63d
00000120: 567f 68bd 5093 433d f88c 9a3d ecba ac3d
00000130: 25de b7bd 95d9 523d 2d8a 913e dde4 eb3b
00000140: b332 0a3e 2508 893c 8278 76be e8e3 8c3e
00000150: f63e abbc ad14 75be f67c 0bbd 8165 403d
00000160: 75b5 0fbe bb6a d53c 398b 3abd 5012 263e
00000170: bb0a 3f3c 2b09 0ebd bc30 8f3d 863b 833e
00000180: 44d6 043e 02e1 c3bd e235 433e f2c7 3dbc
00000190: 6b1c fd3d d8a6 0cbd ba6c adbb d417 9d3d
000001a0: 9ba3 4a3e f005 1dbe 90ec ef3d 96dc 3c3e
000001b0: e0e5 0d3e f170 473e f1f2 583e 20c4 a53d
000001c0: d7f1 0cba 65fb 8a3d ffef cd3c 7814 83be
000001d0: 63f0 643e d093 263e 7a42 143c 6713 d73d
000001e0: 9ce1 b53b 6f22 3bbe d249 adbd aaba 173e
000001f0: 5a9d 80bd 7899 8e3c f523 f23c 1133 313e
00000200: 85ba 00bd f9ef babd 87e9 3d3e 7846 3ebd
00000210: ceb0 333e 9370 18be c738 1bbd e10c 83be
00000220: 7ac0 223e e3a1 44be 0b02 7dbd 6760 3fbd
00000230: 5a17 053d e894 6c3d 2db6 42bd 9d00 f83d
00000240: 51a1 1a3d c5f6 1e3e d8a8 89bd 2cc3 e3bb
00000250: 73bb 5cbe fd1e 3e3e b496 6cbd 402f 87be
00000260: 586c 0c3c 823b 7a3d 23c1 7a3c c999 2f3d
00000270: ca75 7c3e d7c9 3fbe c999 fabb 552c 933d
00000280: a6b6 733c 8ce2 edbc 72a5 30be 87c9 2a3e
00000290: 590c 61be 2c49 20be 4114 cb3c b1ec 673e
000002a0: 8fce ab3d 6844 dabd d2bc 1c3e 4435 60be
000002b0: a3e7 f73d 0724 40be e7e0 55be 2abb 4f3e
000002c0: 7b86 e93d dd0e a4bd 0ef5 7fbd e5f6 0f3e
000002d0: 1601 f33c bfdc b63d 3424 483e d9cb 293e
000002e0: 81c5 ffbd 0644 683d 1d6c 3e3e 2ef7 9d3c
000002f0: 4cf2 3c3e c719 66bd 840c 0ebe c9c3 8cbd
00000300: 07a9 81bd 8ea4 05be ed47 14be 7177 773e
00000310: a605 90be 560d 4b3d 3aa1 71be 4b8c bd3d
00000320: 425e 893c 07e8 ae3c 80f1 71bd c0da 5e3e
00000330: f451 2d3e 9f03 9cbd 7f12 c4bc 27a6 33bd
00000340: 70d7 263e 20bf 0abe aef4 4abe db13 723d
00000350: eecb 0a3e 211d 40be fd98 9f3c 3e2d 6d3e
00000360: c0e5 513e 0840 4fbd 19fa 4e3e d136 f6bc
00000370: a7f6 38bd 8dbb f43d 786f 943e eea7 f7bd
00000380: 0cf3 9a3d 318b 083e 4fdb 58b8 29f4 3b3e
00000390: fb66 c5bd 3c96 2bbc af05 cfbc 3c11 143d
000003a0: 6eeb b3bd 0acf 513e 484b e5bd d4a9 003d
000003b0: 8497 99bd 1265 533d 7b59 40bd 80b4 a03d
000003c0: 39c1 683e 6d08 de3c bab7 053e eb0a 52bd
000003d0: 650f 503e 86ac 87bd a53c f1bd 5ab4 cb3d
000003e0: 8842 573e 3b7c efbd e117 cf3d e7a4 243d
000003f0: 65e3 f93d 1787 9ebd d4e2 693e 0754 5b3d
0.18244986 0.16669093 0.15973832 0.013464898 -0.15383461 0.05962981 0.21166562 0.009966717
0.057243478 0.15162656 -0.1578987 0.11579019 0.24263705 -0.21474354 -0.058265 0.18335453
-0.006086216 0.08069431 -0.1655092 -0.05292793 -0.07608006 -0.04317625 -0.02163856 0.01735864
-0.044329636 -0.2133464 0.10805623 -0.0698686 0.14248036 -0.005802977 -0.2726 0.22197087
0.021169549 -0.1418196 0.092283905 -0.008486038 0.09019449 0.061285697 0.14152382 0.19233343
-0.035538178 0.040691253 0.08628913 -0.17278765 0.022238716 0.065613985 -0.05139351 -0.0106522795
0.05894592 -0.2398329 -0.0873433 0.16598108 -0.037874386 0.20058496 -0.24651198 0.062424548
-0.20978022 -0.14903513 -0.0087957615 0.17137827 -0.003444063 -0.048606277 -0.02824211 -0.19566016
0.22811213 0.042905387 -0.04125983 0.24268782 0.14876261 -0.25349215 0.009191378 0.12058432
-0.056762062 0.04774791 0.07546419 0.0843409 -0.089779176 0.051477034 0.28425732 0.0071989135
0.13495903 0.016727516 -0.24069408 0.2751763 -0.020904046 -0.23933668 -0.03405472 0.0469718
-0.14034064 0.02605187 -0.04554293 0.16217923 0.011660273 -0.034676712 0.06991717 0.2563135
0.12972361 -0.09564401 0.19063523 -0.011583315 0.12358936 -0.034338802 -0.005292502 0.076705605
0.19788973 -0.15334296 0.117150426 0.18443522 0.13857222 0.19476677 0.21186425 0.080940485
-0.0005376613 0.06786231 0.025138853 -0.25601554 0.22357325 0.16267323 0.009049052 0.105017476
0.0055505764 -0.18274854 -0.08461346 0.148173 -0.062800124 0.017407164 0.029558161 0.17304637
-0.03142788 -0.091278024 0.18546115 -0.046453923 0.17547914 -0.14886694 -0.037895944 -0.25595763
0.15893736 -0.1920238 -0.061769526 -0.046722796 0.032492973 0.057759196 -0.047537018 0.12109492
0.0377515 0.15523823 -0.067216575 -0.0069507565 -0.21555881 0.18566509 -0.05776091 -0.26403236
0.008570753 0.061091907 0.015304836 0.04287127 0.24654308 -0.1872934 -0.007647727 0.0718619
0.01487509 -0.02903869 -0.17250612 0.16678439 -0.21977367 -0.15652913 0.024789931 0.22648884
0.08389007 -0.10657579 0.15306404 -0.21895319 0.12104728 -0.18763743 -0.20886575 0.20286241
0.11402603 -0.080106474 -0.06248956 0.14059027 0.029663604 0.08928823 0.1954506 0.16581668
-0.12488843 0.056705497 0.1859593 0.019282904 0.18451804 -0.056176927 -0.13871962 -0.068732806
-0.063310675 -0.13051054 -0.14480563 0.24166657 -0.2812931 0.049573265 -0.2359666 0.092552744
0.016768578 0.021350874 -0.059068203 0.21763134 0.16925794 -0.07617878 -0.0239346 -0.043859627
0.1629312 -0.13549471 -0.198199 0.059100967 0.13554356 -0.18761112 0.01948213 0.2316179
0.20497799 -0.050598174 0.20212592 -0.030055435 -0.0451571 0.11949835 0.28991294 -0.12092577
0.07565889 0.13334347 -5.170266e-05 0.18354858 -0.096387826 -0.01047283 -0.025271265 0.03614925
-0.08785139 0.20489135 -0.111959994 0.03141196 -0.074996024 0.05161006 -0.046960335 0.07846928
0.22729959 0.027103627 0.13058367 -0.051279943 0.20318373 -0.06624703 -0.11779145 0.09946509
0.21021473 -0.11693617 0.101119764 0.040196326 0.12201575 -0.0774061 0.22840434 0.05354693

gru.bias_ih_l1 f4 [108]
00000000: a240 b4bd b692 7abd 593e 093e 0aeb a03d
00000010: 9d91 babd 3e0a bebc 21aa d5bd cb77 e1bc
00000020: ffdf 973c 4b60 c1bd 1848 373d 1e73 a63d
00000030: 9795 873d ea1d b53d af94 6c3b 21cf 0dbe
00000040: cb08 2c3e dae2 e3bd 9384 503d 1473 803d
00000050: eb0d a63d 8ce4 16bd 4a3c 033e 8264 96bd
00000060: e253 2b3e 00f5 9bbc d98c 58bd b7fc f7bc
00000070: 5922 a1bd 7bf3 053e 043a 5e3e 190c 163e
00000080: 8d39 853c ca21 96bc 56c0 223d 368b 3a3e
00000090: ff70 2bbe fdd1 3cbe 08c2 1abe 8c74 dcbd
000000a0: 5afc 88bd 8238 07be 1bb8 35be 152e 833c
000000b0: a755 c33a d9d7 403d 5db2 eb3c 7c85 2fbe
000000c0: 9e76 fc3b 5dcb 4cbd 299b 853d 0c8d a43c
000000d0: 4d05 c1bd 77de 08be 074d a5bc 20c2 a63b
000000e0: a922 26be 4678 0dbb c8fa 22be a51a 21be
000000f0: 0b81 1b3d c304 06be 8e19 d43b dbf5 7f3d
00000100: 42c2 04be f8b7 02be b6be 5abe a246 48be
00000110: 551d 4e3d 27dd 2bbe 3cc3 0ebe 8951 f2bc
00000120: e16d 623e 74a9 703d c5e5 63bd e237 24bd
00000130: 2cb6 e5bd e0e3 d43c beb0 36bc a487 b6bd
00000140: 8152 5b3e 633c 273d 5dab b73c 69ab 2a3d
00000150: b514 3d3e 47ae 46be 171e 86be f9ad 343e
00000160: 2cdf 6dbe 893c cb3d de6d 713d 5d6a 833e
00000170: 1199 b9bd 6c39 7abe a719 083e 0d6b ef3d
00000180: 2c45 3d3e bf9a c03c c5e8 433e 5193 69be
00000190: f482 483e b2b8 063d fc12 183d 4e62 643e
000001a0: ea70 313e b349 18be 12cb a9bd 56b7 fc3d
-0.0880139 -0.06117507 0.1340269 0.0785733 -0.09109805 -0.023198243 -0.1043284 -0.027522942
0.018539427 -0.094421946 0.04474649 0.081274256 0.06620329 0.08843596 0.0036099365 -0.13848545
0.16800229 -0.11127253 0.050907683 0.062719494 0.081081234 -0.036839053 0.12815967 -0.07343389
0.16731218 -0.019037724 -0.052868698 -0.030271871 -0.078678794 0.13081162 0.21701819 0.14653052
0.016262794 -0.018326659 0.039734207 0.18217167 -0.16742323 -0.18439479 -0.1511308 -0.10764417
-0.06688757 -0.1320515 -0.17746012 0.016013185 0.0014902846 0.04708085 0.028771574 -0.17140764
0.00770457 -0.04999863 0.06523735 0.020086788 -0.09424839 -0.13366114 -0.020178331 0.0050890595
-0.1622416 -0.002158658 -0.15915978 -0.1573282 0.03796486 -0.13087754 0.006472773 0.062490325
-0.12964728 -0.12765491 -0.21361813 -0.19558194 0.050320942 -0.16783582 -0.13941664 -0.029579895
0.22112228 0.058755353 -0.055639047 -0.040092357 -0.11216387 0.025987566 -0.011150537 -0.0891259
0.21418191 0.040829074 0.02242058 0.041667376 0.1846493 -0.19402419 -0.26194832 0.1764449
-0.23229665 0.099236555 0.05894267 0.25667086 -0.09062398 -0.24435967 0.13291036 0.1169034
0.18483418 0.023511289 0.19131763 -0.22810103 0.19581205 0.032890983 0.03712748 0.22303125
0.1732823 -0.14871864 -0.08290686 0.12339656

gru.bias_hh_l1 f4 [108]
00000000: 643a 383d 38b0 843b e86d 93bc e9b6 3c3c
00000010: 830a 63bd 37f1 053e ab43 f5bd 2d06 d03d
00000020: 7550 4a3e a4cb b5bd 7bcc cc3d 517a 793d
00000030: f468 c8bc 97fb c13d c7de 083d ca49 e83d
00000040: 3258 213e d47f 16bd 3009 bc3d 91d5 bf3d
00000050: d1f1 4e3e 5265 e2bc 2cc1 463c 6c64 063d
00000060: 14eb 033e fbd2 183e b12b 523e 7740 243d
00000070: 33c5 463c 1003 94bd 34aa 373e ae29 89bd
00000080: 3dbc c6bd de12 ef3c 9876 fcbc 3124 a23d
00000090: 5fb0 81bd d59e cc3c 3cf0 1d3c 16cb 07bd
000000a0: 39c0 5abb 7211 3f3c 6f16 a0bd aafe 4c3d
000000b0: b78e 7bbd 9792 e53c abaf 29bd e04b 4abd
000000c0: 2568 53be 0cee 07bd 06b7 46be 415e 923d
000000d0: 140f 9c3c 7d25 10be 3c97 31be dc53 dabd
000000e0: 2fa0 ad3d b832 3b3d 86f3 32be 77e2 b83d
000000f0: 4e6c 5ebd e3c3 68be 8124 40bc 0496 fcbd
00000100: 79b7 1bbe f916 32bd ccc9 0abe 4a45 42be
00000110: 1b79 a3bd 0076 3f3d 3bc2 043c 83d7 6abe
00000120: 8a86 0c3e 1c1c 2abd 2604 453e 8be6 f7ba
00000130: 41ce 81be 9b42 2a3e 5344 78bd 8a65 d6bd
00000140: e991 673d 0bfa 3a3e 90de 1ebe a308 223e
00000150: 4b9f fb3d e7c8 863d bda5 81be 542d 75bd
00000160: c587 093d b431 7bbd 4e1f 2cbd 7d38 893d
00000170: b7cc 16be a88e a63c e4d3 323e 3a36 803e
00000180: a48d 623e 0655 513d 3cf5 7a3e 0f3d 67bd
00000190: 9c0b d8bc 7037 2ebe 7059 9cbd 3861 13bd
000001a0: 9a19 d4bc 260f 503c f847 0d3c 5385 ea3d
0.04497756 0.004049327 -0.017996743 0.011518219 -0.055429947 0.13080297 -0.11975797 0.10157428
0.19757254 -0.08876732 0.09999939 0.060907666 -0.024464108 0.09471815 0.033415582 0.11342199
0.157563 -0.036743 0.0918144 0.093669064 0.20209433 -0.027636204 0.012131017 0.032810614
0.12882644 0.14924233 0.2052448 0.04010054 0.012131977 -0.072271466 0.17936021 -0.06697403
-0.09703872 0.029183801 -0.030818269 0.07917059 -0.06332468 0.02497808 0.009639796 -0.033152662
-0.0033378734 0.011661874 -0.07816779 0.050047554 -0.0614154 0.028024001 -0.041427296 -0.049388766
-0.20645197 -0.033186004 -0.19405755 0.07146884 0.019050159 -0.140768 -0.17342848 -0.10660526
0.08477818 0.045702666 -0.1747571 0.0902757 -0.054302506 -0.22730975 -0.011727453 -0.12333301
-0.15206708 -0.04347894 -0.13553542 -0.18971744 -0.079820834 0.046743393 0.008102949 -0.22933774
0.13723198 -0.041530713 0.19239864 -0.0018913312 -0.25352672 0.1662697 -0.060612034 -0.10468586
0.056535635 0.18259446 -0.15514588 0.15823607 0.12286242 0.06581288 -0.2532176 -0.05985768
0.033576746 -0.061326697 -0.042022042 0.067002274 -0.1472653 0.020331696 0.17463642 0.25041372
0.22124344 0.051106475 0.24507612 -0.056454714 -0.026372723 -0.17013335 -0.07634246 -0.035981387
-0.025891114 0.012698924 0.008623116 0.11451211

fc.weight f4 [1, 36]
00000000: 848f bf3f 750e c23f 5c97 b73f 6d46 cb3f
00000010: 06da bebf bbfb bf3f face cd3f 9223 bfbf
00000020: 636f c63f 5c95 c53f 4eee c1bf 68cb c13f
00000030: df03 be3f 19b9 c7bf 287a b7bf e038 b83f
00000040: 6249 c2bf 87ea c53f 6102 c4bf c789 ba3f
00000050: e737 bebf 8e99 ccbf 7d49 c43f e4c6 bf3f
00000060: 54bc c73f b4fc bdbf 82de ca3f df67 bbbf
00000070: 23cc c93f cf9f c3bf 4b33 bbbf abda c73f
00000080: f2fe ce3f a3ad c3bf ec42 cf3f 6c9f c03f
1.4965672 1.5160662 1.4343066 1.5880867 -1.4910285 1.4998697 1.6078789 -1.493273
1.5502743 1.5436206 -1.515085 1.51402 1.4844931 -1.5603362 -1.4334154 1.4392357
-1.5178645 1.5462197 -1.5313226 1.4573296 -1.486081 -1.5984361 1.5334927 1.4982572
1.5604348 -1.4842744 1.5849154 -1.4641074 1.5765423 -1.5283145 -1.4625028 1.5613607
1.6171553 -1.5287365 1.6192298 1.5048652
