models/gru_trial_0.pth (torch, 110128 bytes, 9 tensors)

gru.weight_ih_l0 f4 [141, 44]
00000000: 1c49 34be ea2e bcbd eaf2 b3bc 6f24 1ebe
00000010: b161 c03d 8982 bebd 0fc2 2abe b725 47bc
00000020: ee7d a23c 9f37 19bc f1a7 7d3d 1762 c9bd
00000030: 2916 c13d 1c36 21bd f591 3abd a9bd 88bc
00000040: 274d ffbc 0e4d 58bd c6ad 923d be82 62bd
00000050: 9002 4f3d 3f94 8c3d c9cd 20be 7c8e 313b
00000060: d686 bfbd e320 af3b 49b8 cf3c 4a2e 51bd
00000070: fc04 4439 77b5 59bd 0c75 b7bc 2571 03bd
00000080: a29f a0bc d371 b93d ccc6 bcbd aae1 e4bd
00000090: ef35 8b3d ec70 8ebd ff64 d93d 1885 a93d
000000a0: 3f18 e5bc 7fb9 ae3d 325f c3bc 6f8d be3d
000000b0: a6de e83c 905e 8cbd b88a 25ba 7e45 48bb
000000c0: 6bb4 6bbe 173e 753d f19e 0f3d 81f7 1fbd
000000d0: 64b1 86bd 6110 efbc b4b4 9b3b 12c5 b1bd
000000e0: e6eb 24bc 9ca6 913d e8f5 3cbd 5358 363d
000000f0: 2975 103e b7d0 1dbe fab3 a83d 4a7d 033e
00000100: 350e 313c 21cd 31be 6d19 68be 0af3 063e
00000110: 25e0 223d 8db9 09be 8463 603d 3120 9b3d
00000120: 41fb 8dbc ee41 883c ee4c 8dbd e96e 213d
00000130: d412 e33c 59d6 a7bd 4450 63bd d808 9fbb
00000140: 634d 433e 7d63 73bd 1f6a c83d b589 f93c
00000150: 1ca3 8fbd 91e8 7bbd 700c 26be 9a6e 1bbe
00000160: cf50 b13c 9317 0ebe 21b2 123e eee8 883d
00000170: fe51 eabc 6742 29be 45c6 bebd 8048 863b
00000180: 5a49 8dbd 5053 933c d0f8 8c3d f034 5e3e
00000190: 4b2c 03be 59df 3dbe 338c 1a3e 7df5 72bc
000001a0: e6d1 b73d 799a fbbd b38e f1bd 7c63 dc3c
000001b0: f8b9 f83d 7111 da3d dedc abbd 097c b7bd
000001c0: 8f47 483e 3ff2 0b3e f2f3 213e 2002 c8bd
000001d0: 5153 6fbe 49fb 38bc 4747 913d db49 103e
000001e0: 6a28 23be 4919 bcbd aab0 b43c 83f4 243e
000001f0: a67c 643b f33e 21be 856e 41bd d28e ddbd
00000200: b884 f6bc 2ebe 8e3c 03f6 c73d 762d c23d
00000210: a891 263e dab3 47be 1b39 f63c 8d0b f5bc
00000220: da5d 773c 5316 063d 5f07 adbd 4452 9a3d
00000230: 81bd 65be 97dc 153c f01c b93d b91a 90bd
00000240: 240d 1d3c 7271 10be 854e 24bc fb30 28be
00000250: 7b49 543d d10c 85bb e28d c7bd 5b4a 27be
00000260: 0a40 11bd fec9 19be 6ba5 0f3e b432 e3bd
00000270: da84 aabd f9ea cb3d f176 d9bd ba20 ecbd
00000280: b8a9 c0bd 8123 6b3d 95d7 c33d 6cea 943d
00000290: a99e c5bc f31b 2c3e 3f71 a33d d24f a1bd
000002a0: 2830 bebd c338 adbb bb1c babb b199 873b
000002b0: c0e6 87bd 4a53 29bd 80ea 0cbe 1d0e a73d
000002c0: 83b1 583c d604 6f3d 8880 e7bd 5213 90bc
000002d0: 2676 083b 407b 94bd 0912 9a3d a397 2fbe
000002e0: e696 933e a5f5 aa3d f748 2c3e 9149 133d
000002f0: 2eb8 1f3e b3f2 c0bd bd0a bdbc feac 343c
00000300: 9c51 ea3d 03a0 133d b00e 08be 5b58 96bd
00000310: aa88 5dbe 443f a8bb 31c5 d8bd ad8a 833d
00000320: 6974 2b3d 0bdf cc3d e6c9 fcbd 7d35 123e
00000330: 70ad 79bc 9738 5abe e00f d4bd 5c2c a0bd
00000340: 7ac7 e939 32fa 62bd d04a 8bbd 3ec6 9cbc
00000350: ef4b aabd 32d2 2d3e 5c0b a13c 5e9f b93d
00000360: 60b5 91bc b7ee 74bd ed48 8abc ac39 13be
00000370: cc36 c53d e26a cbbc 13d2 29be 5b3e 093d
00000380: 61a3 b83c 2b7e 3ebd 21bd 50be 0883 2dbd
00000390: 67a3 3ebe 0326 103e ccf3 08be 4ae7 163e
000003a0: c56c 1dbe f3f0 54bc d1de 733c efea 1cbd
000003b0: f836 613a d11b 1abe 2d6b 8cbd fad3 8ebd
000003c0: 4df0 1ebe c664 063e cda3 c1bd 5ea8 393d
000003d0: e872 943d 4635 e8bd c37d e23d 6fcf 9dbd
000003e0: a096 b33d d6c5 8bbd b3cb 04bd 78f1 4d3e
000003f0: eb6c 67bd 2469 b7bd 820e c13d 03f1 d83c
-0.17606014 -0.09188636 -0.021966416 -0.15443586 0.09393633 -0.09302241 -0.1667559 -0.012154988
0.019835439 -0.00935164 0.06192774 -0.09833162 0.09428055 -0.039358243 -0.04554935 -0.016692
-0.031164719 -0.05280786 0.07162051 -0.055300467 0.050539553 0.06864213 -0.15703501 0.0027092984
-0.0935189 0.0053444966 0.025356429 -0.051069535 0.00018693873 -0.053151574 -0.02239468 -0.032090325
-0.019607369 0.09054913 -0.09217605 -0.111758545 0.067973964 -0.06955132 0.106149666 0.08277339
-0.027965663 0.08531474 -0.023849104 0.0930432 0.02842648 -0.06853974 -0.0006314921 -0.0030558999
-0.23018043 0.059873667 0.035063688 -0.039054397 -0.06576803 -0.029182615 0.004751766 -0.08680166
-0.010066008 0.07111856 -0.046132952 0.044517826 0.14107193 -0.1541165 0.08237453 0.12840763
0.01080661 -0.17363407 -0.22665949 0.1317865 0.039764542 -0.13449688 0.054782405 0.075744994
-0.017331721 0.016633 -0.06899439 0.039412413 0.027718939 -0.081951804 -0.05549647 -0.004853349
0.1907249 -0.05942105 0.09785866 0.030461172 -0.070135325 -0.06150109 -0.16215682 -0.1517891
0.021644978 -0.1387618 0.14325763 0.06685053 -0.02860355 -0.16529237 -0.09315161 0.004097998
-0.06898756 0.017984062 0.06883395 0.21699882 -0.12809865 -0.18542232 0.15092544 -0.014829037
0.08975582 -0.12285323 -0.11794796 0.026902907 0.12144846 0.10647858 -0.083917364 -0.08959205
0.19558547 0.13666628 0.15815714 -0.0976603 -0.23371626 -0.01129038 0.07093673 0.14090674
-0.15933385 -0.0918451 0.022056896 0.16108899 0.0034864335 -0.1574667 -0.04722454 -0.108182564
-0.030092582 0.01742467 0.0976372 0.09481327 0.16266501 -0.19502202 0.030056527 -0.029912734
0.01509806 0.032736134 -0.084486715 0.07535222 -0.22435571 0.009146831 0.090387225 -0.07036347
0.0095856525 -0.14105776 -0.010028486 -0.16424935 0.05182789 -0.0040603657 -0.09743859 -0.16336958
-0.035461463 -0.1501846 0.14027946 -0.11093655 -0.08326121 0.09956927 -0.106183894 -0.115296796
-0.09407371 0.057406906 0.095626034 0.07271275 -0.024123507 0.16807537 0.07980584 -0.07876553
-0.09286529 -0.0052863075 -0.0056796945 0.0041381945 -0.06635809 -0.041339196 -0.1376133 0.08156989
0.013225916 0.05835422 -0.11303812 -0.017587338 0.0020822375 -0.072500706 0.07522971 -0.17147689
0.28826064 0.08347634 0.16824709 0.03595883 0.15597603 -0.09421291 -0.02307641 0.011027573
0.11441347 0.03604127 -0.13286853 -0.07341071 -0.21634164 -0.005134495 -0.10584486 0.06422935
0.041859064 0.100034796 -0.123431966 0.14278217 -0.015239105 -0.2131065 -0.103545904 -0.07820961
0.00044589845 -0.055414386 -0.06801379 -0.019137498 -0.083152644 0.16974714 0.019658737 0.090636
-0.017786682 -0.05979797 -0.016880477 -0.14377469 0.09629592 -0.02483124 -0.16584043 0.033506732
0.022538843 -0.046507042 -0.20384647 -0.04236129 -0.1861702 0.14077 -0.13374251 0.14736667
-0.15373524 -0.0129969 0.014884667 -0.038309988 0.000859126 -0.15049674 -0.0685638 -0.06974025
-0.15521355 0.1312438 -0.09455071 0.045326583 0.07248479 -0.11338286 0.110591434 -0.077055804
0.08768964 -0.068248436 -0.032420825 0.20111644 -0.056500357 -0.08955601 0.09426595 0.02648211

gru.weight_hh_l0 f4 [141, 47]
00000000: 0d26 0bbe 1802 55bd a943 493e 422b e83d
00000010: 3764 1bbe b881 26bd 7764 78bd 6040 8539
00000020: 71d0 f43c f4b0 aa3d 95ea e1bc 8012 95bd
00000030: 8ce4 103e 3c24 0dbe e430 4dbe 00fb e23d
00000040: acc8 0f3d 8eaa 2c3c 4816 15bd 95e7 db3d
00000050: 2b06 123d daa9 86bb 5809 4e3d 8a99 93bd
00000060: b268 c83d db31 02be 5d95 8e3d edff 6d3d
00000070: 1505 083e 1de5 a1bc 363f 20be 2d97 f2bd
00000080: 8075 bb3d 1d34 693d 8992 73bd 90b3 4fbd
00000090: a9c8 013e 536c 0bbd 495a 3e3d a2a8 d2bd
000000a0: 6243 fdbd 02fe 173c 959b 523d dc4c 1fbc
000000b0: 3a89 af3d ba51 ea3d 723e 1bbe 2d45 18be
000000c0: 1718 eabd 13ea 91bd eb1b 02bd 0749 843d
000000d0: 54a0 1abe 82d0 97bd 76ec 2fbe 1eff e73c
000000e0: f3bd 6e3c 3388 14be e88c 873d 11d5 133d
000000f0: 5f49 93be 1d37 363e fa44 cdbd 4305 24be
00000100: 4faa 223e 4d8d 013d d8f8 103e 9ddc 083e
00000110: 72e7 113e 2b62 b43d ae79 4c3c cdcf 6c3d
00000120: f20c c23d fa6f e6bc 9f03 35bd 483c 0d3e
00000130: 0e74 89bd 70a8 b13d 02e7 0f3d be4e d13d
00000140: 871e b2bd 4f14 4bba 46e2 22be b338 3abe
00000150: 3372 243c fe41 ba3d 1d42 42bd e647 12be
00000160: 69ef 5a3e 6059 d7bd a9f8 1e3e 6a9f a63d
00000170: 62ed babd 16fc dfbc fe4d 02be 201e 00bd
00000180: f910 ea3d 7d76 19bc 01b4 393d 4507 ddbd
00000190: c6e0 4bbe 6f7d af3d 5e92 883d 28c5 103e
000001a0: 4f73 253e 9ee3 853d b09b e13c 0b5b cabd
000001b0: f3c5 a13d d676 e1bd 24ea 50be a2e5 babd
000001c0: 4cc6 f6bd 516a 6dbd 21b3 223d 24d9 32bd
000001d0: 28a4 063e dd03 403e 7e14 1abe c7cd 783d
000001e0: eaca e2bd 135f d83d dd74 e9bc 2deb 21bd
000001f0: e7ef 8e3e feb1 52be 868c 013e 2382 4fbe
00000200: 1509 8abd b4f8 8bbc cd0d 34be 3fd5 6b3d
00000210: 6a6a 1c3c 5461 193e 2bda ab3d 501e 3e3d
00000220: a057 e6bd 7cd9 08bd e573 e93d 4472 4abd
00000230: 7688 d8bd f33b a6bd 190f b8bb 0221 8dbd
00000240: 957f 1cbd 97e8 ab3d 459c 8ebc a9f0 b43c
00000250: 624b b1bc 7fef 443e 060d dc3d 015d 963d
00000260: ea47 a03d 590f 183e df12 1bbe b350 9b3d
00000270: 6c7f 883d f7d4 52be 96b6 af3d 5a4e dabd
00000280: ba2b 103c 7fdc 973d 957f 583d e9e7 1a3e
00000290: 62f3 483e d344 7abe 19dc f63d 6774 be3c
000002a0: e393 363c 4d81 3abe 311e 413e ebf7 a93d
000002b0: 6ad4 613c 65a1 2fbd 02a1 08be 1870 53bc
000002c0: 316c 683e d8fe 85bc 9e13 0dbd c034 f13d
000002d0: 4133 503e d249 83bd 0c1e cfbd 27e3 f43b
000002e0: 1b61 203e 7bbc 1c3d 1f79 1dbe 5c2a b4bb
000002f0: f00c 4c3d 07bf 7d3b 17d0 183e 28e5 09bd
00000300: 7d25 043e ea16 243e 2cb9 d0bd 36f6 313e
00000310: 3d25 a8bd bf89 47bd 241f 4abd 0d1c da3d
00000320: 0274 1a3e 7dc5 3dbc d6c4 e73d bbe1 23bd
00000330: cf29 243d d76c 9a3d 34e6 debd 1c8f 5a3c
00000340: 4527 c83a 8b8c bb3d 2c6a b0bd 8cb1 293d
00000350: 1a86 063d 56ff 00bd b5bf 0c3e 7692 06bd
00000360: ae3d d9bd 4cc3 943d 41f8 043e 7b1c c5bd
00000370: 9781 553e ce08 ddbd 8d63 38bd f706 99bd
00000380: 1dbc ce3d 0706 e83d 064c 553d f6f6 96bd
00000390: 489a febd 5ab2 95bd f0fb 4a3d 7b06 5fbd
000003a0: 222e 32be 199b c83d 50a8 9ebe 8993 91bd
000003b0: 0af3 da3d f0b9 2f3e 9011 39be 2652 853d
000003c0: b627 1cbd 93e0 89be 0beb b23d 3369 463e
000003d0: a77e 283e e057 6e3d dd60 6b3d 5fbc 373e
000003e0: 5f9e 05be 313b 45bd a876 9c3c 3234 f4bc
000003f0: 6345 a6bd 6368 ddbd bd81 21be 8532 a63d
-0.13588734 -0.05200395 0.19654717 0.11336376 -0.15174948 -0.040651053 -0.060642686 0.000254157
0.029884549 0.083345324 -0.027577678 -0.07278919 0.14149684 -0.13783354 -0.20038182 0.11083031
0.035103485 0.01053871 -0.036398202 0.1073753 0.035650413 -0.0041096034 0.05030188 -0.072070196
0.09785594 -0.12714331 0.069620825 0.058105398 0.13283189 -0.01976257 -0.15649113 -0.11845241
0.09153271 0.056934465 -0.05946592 -0.050708354 0.12674202 -0.034038853 0.04647282 -0.102860704
-0.12366368 0.009276869 0.051417906 -0.009722915 0.08571096 0.11441369 -0.1516054 -0.14870138
-0.11430376 -0.07124724 -0.031764906 0.06459241 -0.15100223 -0.074128166 -0.17180046 0.028319892
0.014571655 -0.14505081 0.066186726 0.036091868 -0.28766915 0.17794462 -0.10022922 -0.16017632
0.1588528 0.031628896 0.14157426 0.13365407 0.14248446 0.088077866 0.012480183 0.05781536
0.09475125 -0.028129566 -0.044192906 0.13792527 -0.06711589 0.08674705 0.035132416 0.10220097
-0.08697229 -0.00077468617 -0.15906629 -0.18185692 0.010036993 0.09094618 -0.04742633 -0.1428524
0.2138039 -0.10515094 0.15524544 0.081358746 -0.091273084 -0.027341884 -0.12725064 -0.03127873
0.114290185 -0.009366629 0.04533768 -0.10792402 -0.19909963 0.085688464 0.06668542 0.14137709
0.16157268 0.06537555 0.027540058 -0.09880646 0.07899084 -0.11008994 -0.20401818 -0.0912583
-0.12049541 -0.05796272 0.039721612 -0.043664113 0.13148558 0.18751474 -0.1504688 0.06074312
-0.11073859 0.10565009 -0.028498108 -0.03953092 0.27917406 -0.20575711 0.12651262 -0.20264487
-0.067400135 -0.017086364 -0.1758339 0.057576414 0.009546855 0.14978534 0.083912216 0.046415627
-0.11247182 -0.033410534 0.11399058 -0.04942538 -0.10572903 -0.08116903 -0.005617034 -0.06891061
-0.03820761 0.08393972 -0.0174085 0.022087412 -0.02164239 0.19231986 0.107446715 0.07341958
0.078262165 0.14849605 -0.15143918 0.075837515 0.06664929 -0.20589052 0.085797474 -0.106594756
0.008799488 0.07415103 0.052856047 0.15127529 0.19624093 -0.24440317 0.12053699 0.023248864
0.011143657 -0.18213387 0.18859173 0.0829924 0.013783554 -0.042878527 -0.1334267 -0.012905143
0.22697522 -0.01635687 -0.034442537 0.117776394 0.20332052 -0.064105645 -0.10113153 0.0074733677
0.15662043 0.038265686 -0.15378235 -0.0054982137 0.049817026 0.0038718597 0.1492313 -0.033665806
0.12904926 0.16024366 -0.10191569 0.17379078 -0.08210228 -0.04871535 -0.049346104 0.106498815
0.15083316 -0.011582729 0.1131684 -0.040010195 0.040078934 0.07540291 -0.108837515 0.013339784
0.0015270492 0.09157666 -0.08614001 0.041429088 0.032842733 -0.031493507 0.13745005 -0.03285452
-0.106074676 0.072638124 0.12985326 -0.09624573 0.20850216 -0.10792695 -0.045016814 -0.074720316
0.100944735 0.113292746 0.052074455 -0.07371323 -0.124317706 -0.073094085 0.049556673 -0.05444954
-0.17400411 0.097952075 -0.30987787 -0.07108218 0.10690887 0.17160773 -0.18073106 0.06509809
-0.03812381 -0.2692915 0.08736237 0.19376068 0.16454564 0.058189273 0.057465423 0.17942952
-0.13048695 -0.048152152 0.019099548 -0.029810045 -0.08118703 -0.10810926 -0.15772147 0.081151046

gru.bias_ih_l0 f4 [141]
00000000: 4e8c 72bd 83f0 cc3c 5d51 543d e1d8 5c3b
00000010: 6489 5bba 347a ffbd 44a1 9bbc 7e6e a33d
00000020: dea2 8c3c 94b1 e03d 6938 183e c3c2 ec3d
00000030: eb72 d73c 9451 163e 4f75 cc3d e2b6 233e
00000040: e287 4e3d f6c6 24bd d8cc e73c b8d0 1dbe
00000050: 21d6 56bd 6ae1 ec3c a976 573a e4f7 063d
00000060: 028d c3bd 4679 ccbc 5c5b a83c f71f 2a3e
00000070: c0e5 033e 6cdb 7abd 73d5 d8bd 1949 3c3e
00000080: de20 4f3e 99b2 26bd 79a1 19be 9f9d 423c
00000090: 2b18 95bd c376 5abd c424 513d 869c 80bd
000000a0: ed0c b53d 1080 34bd 99c1 1abe 1140 263e
000000b0: 9afd 843e b6aa 743d a493 153e 752e 873d
000000c0: f95b 033e cbb7 1cbd 870b 85bd 3d6b b23c
000000d0: fd87 98bc 62aa 823d 31aa cc3d 5dd4 d13d
000000e0: 6912 d73d c758 8f3d 9a45 a6bd 27d8 ffbc
000000f0: d4d8 6a3c fb5e 1abe 1d08 8fbd 850f d23d
00000100: 8e66 b23d 8fa0 25be df30 703c b66e 793c
00000110: 88bb a53c 9b7e 91bd 8b2c a63d 00ca f43b
00000120: 1fcc 70bd 02cd f33d 1032 163d cee7 1bbe
00000130: f698 d03c 5f0c d8bc 56e4 983d 6c0b 303d
00000140: 3fcb b5bc d918 c2bd 5bdd 9d3d 7a02 663d
00000150: 86c4 babb 837a 32bd 218c 4dbc 818a 943d
00000160: 129b c5bd 50f7 e83d 3029 afbb 49e0 4a3e
00000170: 5edf 603d b1b9 25bd 111c 18be 3c92 8ebe
00000180: ac04 363e 05a6 783d 87fe 413e b69e 7abe
00000190: 483d 8bbe f3f2 a9bd dee2 593e 733e bf3d
000001a0: 44f4 e7bd 904e 53bd 1634 c33d 87ab f4bd
000001b0: e8e9 493e b522 2e3d 4ce4 29be 187e 8a3e
000001c0: 890b 74be 6623 15be d498 e43d aefe 903e
000001d0: 24d1 0fbe bf3f 703e 019b 6abe 5ed1 8b3e
000001e0: 1e2f 9e3d 4bbe 6b3e 6cae 70be e94c 7abd
000001f0: 2c17 3c3d 11bf 1bbe 51f6 113e 7b02 36be
00000200: 7634 0cbe 1084 71bd 7faf ffbd fd63 013e
00000210: 37e8 833e c21e 6b3e 5f9e c13d f13a 7b3e
00000220: 6360 e1bd 88bd 1a3e 3b6e 2fbe 2c3d 3abe
00000230: bc47 2ebe
-0.059215836 0.025017029 0.051835407 0.0033698606 -0.000837466 -0.1247448 -0.018997796 0.07980059
0.017167505 0.1097137 0.14865269 0.11560585 0.026299914 0.14679557 0.09983312 0.15987733
0.050422557 -0.040228806 0.02829592 -0.15411651 -0.052450303 0.02891608 0.0008219281 0.03295125
-0.095483795 -0.024960171 0.020551376 0.16613756 0.12880611 -0.061244413 -0.10587587 0.1838726
0.20227382 -0.040697668 -0.15003003 0.0118784 -0.0728 -0.053335916 0.051060453 -0.062798545
0.08840356 -0.044067442 -0.15112914 0.16235377 0.25974733 0.059733115 0.14607102 0.06600658
0.12828054 -0.038261216 -0.06496339 0.02177965 -0.018619532 0.06380154 0.09993399 0.10245583
0.10501558 0.06999355 -0.08118744 -0.031231 0.014333922 -0.15075295 -0.06983969 0.10256866
0.08710967 -0.1617453 0.014660089 0.015224149 0.020231023 -0.07104226 0.08113965 0.0074703693
-0.058788415 0.119043365 0.036668837 -0.15225145 0.025463562 -0.026373086 0.074654266 0.042979643
-0.022191642 -0.094773956 0.07708236 0.056154706 -0.005699697 -0.043573868 -0.012545616 0.0725298
-0.09648718 0.11375296 -0.005345486 0.1981212 0.05490052 -0.040460292 -0.14854456 -0.27845943
0.1777522 0.060705204 0.1894475 -0.24474606 -0.2719519 -0.08298292 0.21277949 0.09338083
-0.11325887 -0.051588595 0.09531419 -0.11946779 0.19718134 0.042513568 -0.16590995 0.27049327
-0.23832525 -0.14564285 0.11161962 0.28319305 -0.14044625 0.23461817 -0.22910692 0.27308172
0.07723831 0.2302181 -0.23504037 -0.061108503 0.045920536 -0.15209605 0.14254119 -0.17774384
-0.13691887 -0.058963835 -0.12484645 0.12635799 0.25763103 0.22960952 0.09454035 0.24534203
-0.110047124 0.15111363 -0.17131893 -0.18187398 -0.17019552

gru.bias_hh_l0 f4 [141]
00000000: 6f05 0bbe 3766 0b3e 8a2a 063e d154 fe3d
00000010: 7ba5 97bd 40ff cebc 94ff 843d 9ca7 143e
00000020: 1ec5 febd ef8c 6bbd b779 afbd dea2 af3d
00000030: bcd8 103e 6080 7a3e 4544 f4bd 8444 5a3c
00000040: 24a0 c9bc b24a 883d b226 52bc 5b1f 8e3d
00000050: e0f4 a03c abdf 9d3d 434d 873d 7492 54bd
00000060: ba3d 97bc 9ab7 d63b 8974 d73d 7770 3e3d
00000070: 1979 b63d c232 643e a85b 293d f735 483e
00000080: a0cd 233e 9a06 943d 3c6a d23d c968 cfbb
00000090: f394 bebd c3ed ef3d 5afc aabd d80f 76bc
000000a0: 06c8 363c 2d82 2a3e f637 19be 9579 aebd
000000b0: ef9d 4b3d f61e 6c3e b2e0 203e 7538 ba3d
000000c0: f5e6 f0bc 8588 e13d b961 e5bd 36a8 863d
000000d0: 2073 0d3e 9e47 00be 1615 ee3d c90e c53d
000000e0: f21a 013e 4d84 13be 2f1e b43d a356 2ebd
000000f0: e02b 1fb8 02c5 1e3d b326 5dbd 5de4 0d3c
00000100: aecb b7bd 1a2c 86bc 7918 333e 9138 0e3e
00000110: c95f 223e 9316 67be 5666 9cbb 11fa f63d
00000120: 7c37 bc3b 41f2 253e c01d 2dbe fe43 c33d
00000130: b3c5 c4bc a38f 463d 8dce 21be 3ed9 e5bd
00000140: dcdb 9dbd 3fea 8639 ca72 b13d b819 dc3c
00000150: 02bb 723d 97c3 953d 45af b8bb e4f0 79bd
00000160: 7d6b b5bd 8278 073e 511e 3d3d f7c0 393e
00000170: 98a5 fd3d 3169 583d 353b 02be 929a 68be
00000180: cc9f 1c3e 3d1d 05be 70c1 343e 3b7a 15bd
00000190: 4f06 81bd e4b9 0c3d 15b1 1f3e 2ffd c63d
000001a0: c28a 6fbe 1b2c 9fbc 7c54 553e d1f5 54be
000001b0: 53ff c03c 3056 c23d 50e0 debd 9101 a13d
000001c0: b6bb 39be bf21 2abd 46d0 9b3c d5fb 803e
000001d0: 3b41 af3d 762f 303e 6d15 e8bc ab47 213e
000001e0: b712 af3d be82 8c3e 4e29 96bc 4408 3e3d
000001f0: bd41 11bc f20d 3dbe 8054 533e 4ccc 3fbe
00000200: 3e0f 613c 31fc 293e b1a8 e6bd a39e 763e
00000210: 2f99 d93d 4d1e 553e 7e4b c6bd 3ba5 293e
00000220: a1c1 edbc 004f 8fbd 92d4 82be 1572 7dbe
00000230: 3d21 15be
-0.13576292 0.1361321 0.13102165 0.12418521 -0.0740461 -0.025268197 0.0649406 0.14517063
-0.12439941 -0.05750745 -0.08568137 0.08575986 0.14145178 0.24463034 -0.11927084 0.013321999
-0.024612494 0.06654872 -0.0128266085 0.06939574 0.019648015 0.07708677 0.066065334 -0.05189748
-0.01846205 0.0065526487 0.10520274 0.046493974 0.08909816 0.22284988 0.041347176 0.19551836
0.15996408 0.07227822 0.10274169 -0.00632963 -0.093057536 0.11715271 -0.083489135 -0.015018426
0.011156088 0.1665122 -0.14962754 -0.08519284 0.049711164 0.23058686 0.15710714 0.090927996
-0.029407004 0.11012367 -0.1120028 0.065750524 0.13813448 -0.1252732 0.116251156 0.09621961
0.12607935 -0.14405937 0.087948196 -0.042563092 -3.7949416e-05 0.0387621 -0.053991985 0.008660403
-0.08974396 -0.016378451 0.17489804 0.13888766 0.15856852 -0.22567205 -0.0047729416 0.12059415
0.005743919 0.16205694 -0.1690588 0.09534453 -0.024020052 0.048476826 -0.15801449 -0.11223076
-0.077079505 0.00025733 0.086644724 0.026867732 0.059260376 0.073126964 -0.005636128 -0.061020747
-0.088583924 0.13229564 0.04617149 0.18140016 0.123851 0.052834693 -0.12717898 -0.22715214
0.15295333 -0.12999435 0.17651916 -0.03649352 -0.063000314 0.034356967 0.15594895 0.0971626
-0.23392776 -0.01943021 0.2083301 -0.20796897 0.023559248 0.09489095 -0.10882628 0.07861627
-0.18138012 -0.04153609 0.019020211 0.25192133 0.085573636 0.17205605 -0.02833053 0.15749995
0.085484914 0.27443498 -0.018330242 0.0463946 -0.008865771 -0.18462351 0.20637703 -0.18730277
0.013736544 0.1660011 -0.11262644 0.24083953 0.106249206 0.2081234 -0.09682368 0.16566937
-0.029022994 -0.0699749 -0.25552803 -0.2475055 -0.1456346

gru.weight_ih_l1 f4 [141, 47]
00000000: 4224 8c3d f428 27bd dc36 1b3c 408d 9abd
00000010: 791a 7b3c 615f 50bd 4a75 693d 615c 36bd
00000020: 9c8a 44bd 7397 97bd 2bf2 adbd 1754 ca3c
00000030: 9c6b 0abe aee7 00bd 121c c4bc 4933 44be
00000040: 617b c83c d74f 84bd c2ad 82bd 84b7 d33b
00000050: 3e16 f0bc 2e6b 013d de1b 903d 87ba aebd
00000060: bd77 b33d 74f3 4c3e cd6b 9b3d 3e6f a63c
00000070: a775 013e 0149 ebbc c687 85bb 6bac 6e3d
00000080: 2773 4b3e 6b66 06be 1c50 ccbc ad66 57bc
00000090: c7ab 13be 4478 243e 9099 653a 1c7f 1e3d
000000a0: 0da4 513d 2c66 d7bd c373 0b3e bdf6 64bd
000000b0: 88ce 9e3d de10 913b 5d51 47bd 8c06 b43d
000000c0: 3220 ca3c 509d b23b bc99 edbd 0bc5 acbc
000000d0: 297b c7bd 245a fc3d a1ee 25bd 9077 233e
000000e0: 565d 15bc 06b5 bc3b 1cce bb3d 020f 983d
000000f0: ad9c 23be e6e6 2e3e f2ba 9fbc a1a7 ba3d
00000100: 4db3 1a3e 1826 e3bc e4a6 aabd 8a44 e63d
00000110: c01b 0a3d af64 7cbc a6ae 97bd 68fe 39bd
00000120: 6bda 1bbd 0b28 af3d a6ac 07be bd06 f7bd
00000130: 720d 283e d1f3 02be b834 183e 393a fc3d
00000140: 2b5e 343c a838 14be 8748 a9bc a6ae cebd
00000150: 03f6 643e 1301 a63d 1870 0abd 8a36 58bd
00000160: 2160 d3bc 2ee0 d63d 25ac 6a3d ab5d 14be
00000170: baf7 84bd d2bf 95be 0bb9 9ebd a504 b53d
00000180: 7bde e63d 6000 debd b23b 583d 78f1 acbd
00000190: 4e46 91bd 3db8 30bd b31d 1e3e c2d1 1cbd
000001a0: e320 c23c df94 43bd bf34 293e db7f e43d
000001b0: 2ab1 36bd e6d2 1abd ba7b 2a3d f112 873d
000001c0: 8610 b0bc d771 debd ec41 3a3d 84b2 103e
000001d0: 2d76 f6bd c479 b8bd 5dae 4ebd 0824 983d
000001e0: 3eaa d7bd 7946 e33c 3561 d43d 8cd6 683d
000001f0: f751 873d ed92 1ebc e95e 76bd b010 dabd
00000200: 1890 7c3a 7ab4 e33d 59b5 9bbd cedb ab3d
00000210: 667d 1f3e e58d 153d d736 02be 8918 bdbb
00000220: b7af bdbd 263a 543d 3071 fe3b 3515 acbd
00000230: 6827 acbd 6559 d6bd 6af0 bdbd babe 163e
00000240: 70ce 273d fb62 d93d be28 203d 4798 8fbd
00000250: 0b71 f63d 4fd5 b6bd 516c f63d d447 0ebe
00000260: 41f5 f93b d6b8 633d 6512 cdbd 93b9 973d
00000270: b733 e4bd 6e5a ba3d 1c19 ed3d 61a4 a4bd
00000280: 63e1 cabd 8328 313e a81c ad3d 67c0 9abd
00000290: 966a 483e 08f3 23be 82e7 8b3d 99f8 d7bd
000002a0: 604f 443c f5ee 02bd 7c16 c3bc 8f4f 05be
000002b0: 8cc7 c13d 6691 0e3e 4b5c 9e3d 901b 013e
000002c0: da3c 683d 54d0 ccbd 6bab b1bc 1708 84bd
000002d0: 59ba 5f3e eb14 313e 9719 b93d 218d 0e3e
000002e0: 61c1 d13c c97b 33bd bf60 7dbd fd9e d9bd
000002f0: 758c ffbd 3a50 b4bd 6605 843d 35d4 a1bd
00000300: fae7 033c 83ef c33d e689 12be 4687 78bd
00000310: 668b 243e dfa1 5c3d c6ef d2bd 1ca8 7a3d
00000320: 9036 99bc 89e1 07be af92 b33c fdeb 4b3d
00000330: 1bc0 ce3d f3e5 b1bd 2f5f b03c 69df 14be
00000340: ffa0 bb3b a2ed 6dbd 4071 33bd 03a3 8f3d
00000350: 2946 ddbc 797b 543d e7ee 693d cb94 38bb
00000360: 3f82 073e 576c 463e bcbe 6dbd 808a 253c
00000370: c7ba 2b3d 77d9 47be 733e c6bd 0b3b 2cbd
00000380: 8891 0e3b 741d ca3d e239 5e3e 4cb9 083e
00000390: 7019 b2bd 5478 f2bd 263d debd ad39 4d3d
000003a0: 120c ea3d 47db 17be cdb5 7dbd a82e 1c3e
000003b0: 4741 9c3d 29d8 793d d528 0abe 4bbe 00bd
000003c0: 9afd ecbd c0be 05be 3935 7dbd c606 00be
000003d0: 8783 43bd d6c8 bdbd 15a7 9ebb fa21 47bd
000003e0: a069 40be 8448 113e 96c1 02bd 9320 963d
000003f0: a11e 09be 9fb6 a93d acf4 13bc 3664 583d
0.06842853 -0.04081054 0.009473529 -0.075464725 0.015326136 -0.05087221 0.05699662 -0.044521693
-0.04798375 -0.074019335 -0.084934555 0.0246983 -0.13517612 -0.031470947 -0.023939166 -0.19160189
0.024472894 -0.06460541 -0.06380798 0.0064610858 -0.02930748 0.031596355 0.07036565 -0.08531671
0.08763073 0.20014745 0.07588921 0.020316716 0.12642537 -0.028721334 -0.0040750233 0.0582699
0.19868146 -0.13125007 -0.024940543 -0.013147038 -0.14420997 0.16061503 0.00087585393 0.03869544
0.05118184 -0.105175346 0.13618378 -0.05589937 0.077542365 0.0044270596 -0.04866158 0.08790311
0.024673555 0.005450882 -0.11601588 -0.021090051 -0.09740288 0.123218805 -0.040510777 0.15963578
-0.009116491 0.0057588844 0.091701716 0.074247375 -0.15977736 0.17080268 -0.019498322 0.09114004
0.1510746 -0.027728125 -0.08332613 0.112435415 0.03371787 -0.015404864 -0.074063584 -0.045408636
-0.038050096 0.085525595 -0.13249454 -0.12061832 0.16411379 -0.12788321 0.1486386 0.123157926
0.0110087795 -0.14474738 -0.020664467 -0.10091905 0.22359471 0.08105674 -0.033798307 -0.052786388
-0.025802674 0.10491978 0.057293076 -0.14488856 -0.064925626 -0.2924791 -0.07750138 0.088387765
0.112729035 -0.10839915 0.052791305 -0.08444494 -0.07093488 -0.043144453 0.15441017 -0.03828598
0.023697322 -0.047749396 0.16524027 0.11157199 -0.04460255 -0.037798785 0.0416219 0.0659541
-0.021492254 -0.10861557 0.045473024 0.14130598 -0.12034259 -0.090076 -0.050459255 0.074287474
-0.10530518 0.027743565 0.10370103 0.056845233 0.066074304 -0.0096785845 -0.060149107 -0.10647714
0.0009634509 0.111184075 -0.07602949 0.08391534 0.1557518 0.036512274 -0.12716232 -0.005770747
-0.092620306 0.051813267 0.007764958 -0.084024824 -0.08405954 -0.104662694 -0.09274371 0.14721194
0.04096836 0.10614582 0.039101355 -0.070114665 0.1203328 -0.08927404 0.120323785 -0.13894588
0.0076281135 0.055596195 -0.10013274 0.07408442 -0.11142676 0.09099279 0.11577055 -0.08039165
-0.0990627 0.1730061 0.08452731 -0.07556229 0.1957191 -0.16010678 0.06831266 -0.10545463
0.011981815 -0.03196617 -0.023814432 -0.1301863 0.09461889 0.13922653 0.07732447 0.1260817
0.056698658 -0.10000673 -0.021688184 -0.064468555 0.2184843 0.17293136 0.09038084 0.13921024
0.025604906 -0.043819223 -0.061859842 -0.10626028 -0.12477962 -0.088043645 0.06446342 -0.079018034
0.008050913 0.095671676 -0.14310417 -0.06067588 0.16068801 0.05386531 -0.102996394 0.061195478
-0.018702775 -0.13269629 0.02192053 0.049785603 0.10095235 -0.086864375 0.021529762 -0.14538349
0.0057259793 -0.058087952 -0.043809175 0.07013514 -0.027010994 0.051875565 0.0571126 -0.002816486
0.13233279 0.19377266 -0.058043227 0.010103822 0.04192617 -0.1951655 -0.0967988 -0.042048495
0.0021754224 0.09868899 0.21701768 0.13351935 -0.08696258 -0.11839357 -0.10851507 0.050103832
0.114280835 -0.14829741 -0.061940957 0.15252173 0.07629638 0.060997162 -0.13492139 -0.031431478
-0.11571808 -0.13061047 -0.061818335 -0.12502584 -0.047732856 -0.09266822 -0.004841695 -0.048616387
-0.18790293 0.14187819 -0.0319229 0.07330432 -0.1339059 0.08286785 -0.009030502 0.052829944

gru.weight_hh_l1 f4 [141, 47]
00000000: a29f a9bd 4906 4a3e 4385 553e 47b8 513e
00000010: ebf0 01be 6714 67be 8609 8ebe 3279 4a3e
00000020: f8dc 3f3c c476 6b3e 0e22 4ebe 5624 fa3d
00000030: 80fb 41be 7004 bcbd 523f 033e e843 16bd
00000040: 4b7f 2cbe 7f0d ec3d 5224 3c3e 935f 11be
00000050: cf95 c43d a268 fbbc 91f9 52bd 5f48 c03d
00000060: 0bce fb3d 6782 dcbc fb24 393e efa8 383e
00000070: e1bb 9fbd b4de 343e b079 813c a6d2 b8bd
00000080: 09e7 a23b 7734 053c 8666 93be 879b e93c
00000090: 6b68 b4bd fbde 483c 9c13 0fbe 363e 67bd
000000a0: b531 33bc a923 9ebd 48ee 47be 7233 4e3d
000000b0: 4c51 9fbd 47da 613e 7a91 75be 26b4 693c
000000c0: 62c3 903e 56aa 5c3e f335 4d3e 0e55 7abb
000000d0: 7b04 dc3b 47d3 2f3c 4946 6a3e 5422 02be
000000e0: 78b0 653e ebb1 5abe a868 623e 95e3 33be
000000f0: c1b5 06bd 04a7 a33d dcea 52bd 6330 62be
00000100: 3588 f9bb baa1 a83c 0769 abbd ef3b a13d
00000110: 5c99 88bd 8f0a 1fbd 5d67 483d 6b29 0e3e
00000120: 6474 383d f0a4 5f3d 54fb 2b3e f1b0 95bc
00000130: 9002 63bc cc79 193e f763 f9bd 65ec 033e
00000140: f669 9abc f81a 69be 494f 5fbe ecc2 17bc
00000150: 9d04 fb3d 1e5c 94bd 1ea6 eabd 9fbb 95be
00000160: b497 21be e714 44be 0586 cc3c 3a48 28be
00000170: c3f2 b93c fd3a 89bc b4cb 52be 113a 163e
00000180: e95a 153d 3db8 4d3d b845 8e3c a97a a8bd
00000190: 6cfa 4bbe a94a 2039 923b 22be 39d9 593e
000001a0: e1b9 72be 5f64 493c fc3f 4ebc 94ad 2dbd
000001b0: 0d2e 013d 6696 a5bc f2bb 203d 4803 cc3d
000001c0: 0721 173e 163b b9bb 250a 1a3e 2522 2f3d
000001d0: edaf 4cbe c8f3 393e 545b f8bc a758 083a
000001e0: fd25 123e cde2 0d3e a16c 5abd 9122 493e
000001f0: 3b90 35bc 873e 9ebb 164e f43d 9364 aa3d
00000200: a86e 90bc a0dd 5ebe f05c b5bc c68f 323c
00000210: 574c 51be b68a 36be f5e1 39be a0f0 d3bb
00000220: 9b3c 03be 25ad 243e 1895 87bd 9650 0c3e
00000230: acf9 18be 95bf d3bd 54e7 353e 9509 4c3d
00000240: 3770 3b3e 5f4d 18be 6bb9 723d 9a6e 1ebe
00000250: 07ac 043e 9d0c 6bbd c002 5b3d 3293 86bd
00000260: 3c6a 233e aefc 78bd 5453 11be 543a 89bd
00000270: d668 673d 3cee 4abe 23b8 bc3d d49b 7c3d
00000280: 8447 a53c 190a 9fbc 42fe 8a3d 4881 4b3d
00000290: 67f2 593d 0f50 033b 33c9 843d f02c ca3d
000002a0: 6d1c c43d 5b4d 06be 7318 1a3e 9295 543e
000002b0: e748 133d 366f b93d 8a28 083e f531 4bbc
000002c0: 2c72 08be 2931 ec3a 841a 053e 924c b3bd
000002d0: 2c5f d5bd 6e47 c8bd 4188 98bd 9e97 2dbe
000002e0: 66b6 fc3d 23af 7b3c 5cb0 16bd c9ae 0c3d
000002f0: 93b0 80be c280 043e ba10 373e 21f3 b93d
00000300: bfb7 2cbe 9acb 0dbe 705d 2ebe 26f4 283e
00000310: 97e8 aebd b85f d53c 78a2 e0bd 65e6 6b3d
00000320: ef5c 9cbd 577b 24be 1b95 313e d2d5 71be
00000330: 03ad 69be bde7 093e eb73 373e c51f 56be
00000340: 0e42 de3d 0576 dbbd c624 36be 0b55 c53c
00000350: 5efe 3e3e a3ed 273d 8589 f6bc 6b12 0c3e
00000360: 1673 f3bd eb43 423e 0dfb db3d 4f4f 4ebe
00000370: a757 2c3d d812 313e c3d4 01bd ffe4 93bd
00000380: 7b47 91bd 15cc 0a3c ced4 9bbd 5847 61be
00000390: 4eff 84be b884 3abe 1309 78be 1ea6 023d
000003a0: dcc1 41be 3cc2 933d 4469 1fbe 0c53 0737
000003b0: 61b0 a73e 25af 713e aee9 8c3e a708 1cbe
000003c0: 0f89 88be 4d95 73bd cb3f a83d e34f c4bc
000003d0: 02fd c13d 3273 28bd b146 333e b866 0fbc
000003e0: 971f 4ebe 3d13 2e3e f36a b1bd 8258 acbb
000003f0: 0cd2 013b 421e 183e 8c63 8dbd 4c08 6a3e
-0.08282401 0.1972896 0.20851617 0.20480452 -0.12689559 -0.22566377 -0.2774164 0.19772795
0.011710398 0.22994524 -0.20130178 0.12213962 -0.18943596 -0.09180534 0.12817124 -0.036685854
-0.16845433 0.11526012 0.1837323 -0.14196615 0.09598886 -0.030689541 -0.051507536 0.09388804
0.12295159 -0.02691765 0.18080513 0.18033193 -0.07799507 0.1766308 0.015805095 -0.09024553
0.004971389 0.008130184 -0.28789157 0.028516544 -0.08808979 0.012260194 -0.13972324 -0.056455813
-0.010937144 -0.077216454 -0.19524491 0.05034203 -0.07779178 0.22055922 -0.23981276 0.014264142
0.28274065 0.21549353 0.20040111 -0.003819767 0.0067144013 0.010731525 0.22878374 -0.12708408
0.22430599 -0.21356933 0.22110236 -0.17567284 -0.032888178 0.0799084 -0.05149351 -0.2208877
-0.007615114 0.02058493 -0.08369642 0.078727596 -0.06669876 -0.03882843 0.0489267 0.13882987
0.045032874 0.054600656 0.16795093 -0.018272849 -0.013855591 0.14987868 -0.1217727 0.12883146
-0.018849354 -0.22764194 -0.21807589 -0.009262782 0.12256739 -0.072441325 -0.114574656 -0.29244706
-0.15780526 -0.19148599 0.02496625 -0.16433802 0.022698766 -0.01675176 -0.20585519 0.14670588
0.03646365 0.05022453 0.017367229 -0.082265206 -0.19919747 0.00015286602 -0.15843037 0.2127427
-0.2370372 0.012291997 -0.012588497 -0.042401865 0.031538058 -0.020213317 0.03924174 0.09961563
0.14758693 -0.0056527955 0.15042932 0.042757172 -0.19988985 0.18159401 -0.030316986 0.00052011985
0.14272304 0.13856049 -0.053326253 0.19642092 -0.0110817505 -0.004829231 0.11928956 0.08319964
-0.01763089 -0.2176423 -0.022139043 0.010898536 -0.20439278 -0.17826352 -0.18152602 -0.0064678937
-0.12816088 0.16081674 -0.06620234 0.13702616 -0.14938992 -0.10339276 0.17764026 0.049813826
0.18304525 -0.14873265 0.05925886 -0.15471879 0.12956248 -0.057385076 0.05346942 -0.06571044
0.15958494 -0.06078785 -0.14191943 -0.06700578 0.056496464 -0.19817442 0.09214809 0.061672047
0.020175703 -0.019413995 0.06786777 0.04968384 0.05320969 0.0020036732 0.06483688 0.098718524
0.09575734 -0.13115446 0.15048389 0.20760182 0.035958197 0.09054415 0.13296714 -0.012402047
-0.13324803 0.0018020022 0.12998396 -0.08754839 -0.10418543 -0.09779249 -0.07447863 -0.16952369
0.12339477 0.01536158 -0.036789283 0.034346376 -0.25134715 0.12939742 0.17877474 0.09079576
-0.16866969 -0.13847199 -0.17027831 0.16499385 -0.08540457 0.026046619 -0.109684885 0.05759277
-0.07634913 -0.16062675 0.17342035 -0.23616722 -0.22819905 0.13467307 0.17915313 -0.20910557
0.10852443 -0.1071587 -0.17787465 0.024088403 0.18651721 0.040998112 -0.030094871 0.13678901
-0.11887185 0.18971221 0.107412435 -0.20147441 0.04207578 0.17292345 -0.031697046 -0.07221412
-0.07093712 0.0084715085 -0.07608949 -0.21999872 -0.25976032 -0.1821469 -0.24222212 0.031896703
-0.18921608 0.07214782 -0.155675 8.065963e-06 0.32751754 0.23601969 0.27522033 -0.15237676
-0.26667067 -0.059468556 0.082152925 -0.023963874 0.094720855 -0.041125484 0.17507435 -0.008752517
-0.20129238 0.16999526 -0.08662977 -0.0052595744 0.0019809036 0.14855292 -0.06903753 0.22854728

gru.bias_ih_l1 f4 [141]
00000000: 104c 843d 3f93 173e 88a2 50bd 7251 8ebd
00000010: 7bf9 113e 5c85 423d f36b e6bd e3ab c9bd
00000020: 9774 893d d38b e23d 509a 463d 05aa 273d
00000030: bc91 a23d 4ead 88bd 0e85 c93b 6faa e43d
00000040: b4bb 073e 513b c63c e8ca 383e 1196 1f3e
00000050: e33d d33d 7dd1 07be 5ad0 733d 1df8 01be
00000060: b7c9 d9bd 45e7 a53d 67dd ec3d f38e 403e
00000070: cf6f 55bc 4593 fabd 0db9 8fbd 7d5d e7bc
00000080: 8ccc 2d3d 7741 3a3e ff78 f5bc 7313 163e
00000090: e084 c2bc cecc 113e 8d86 613b 429e f13d
000000a0: e632 3e3d 3fcf 503e adfc 0b3e 2fae 24bd
000000b0: 0d2b 33bd 3802 d0bc 0d24 a0bc 1a4b 7ebc
000000c0: 2bd1 14be 6f0f 13be 1eee 373d ba8c 1dbe
000000d0: 12bf 67bc dd36 d3bd fff7 ebbd 7b4c 23be
000000e0: 43f6 27be c0be 61bd 9124 2bbe 730b 803d
000000f0: a72e 97bc 7cb5 c2bd fdfb dabd 7fc7 30bd
00000100: 01e5 dd3c 836d 83bd 5472 90bd 6019 23be
00000110: d14f 9b3d 91fa 8bbd 9fcc a53b 0635 3abe
00000120: 5f72 2bbe 7814 68be 5ad9 85bd 0419 153d
00000130: 50a4 82bd d1c7 d23d abde d5bd ea84 71bd
00000140: a716 57be 3ac7 773d 11a0 41be 4d45 2e3d
00000150: ab62 d6bb 37eb a5bc 6258 43bd 247c 003d
00000160: 69be 1ebe 5434 f3bc 884d 2f3d d940 2dbe
00000170: 6bbd 4bbc 0042 513c 6a1a 79bd 79be 1c3e
00000180: b587 5d3e 9942 a93d 9601 52be 3f08 4abe
00000190: 4187 44be af42 eb3c caeb d7bd cbed a33d
000001a0: 9a9c 8d3b 3001 863e 08f8 c4bd 628f d2bc
000001b0: 6bc8 873e 9ffc df3c c0c7 d1bd 6b8b 5f3e
000001c0: c65d aa3c 287e 18be 9dbf cb3d 9bbb 81be
000001d0: 22cf 64bd 471d 0e3e ffc0 6e3e 6ccb 7d3e
000001e0: 98d6 853e 0577 3e3d db2e 25be e01c 053e
000001f0: 907a aebb 9aba 3bbe e53d bcbd 3b02 793e
00000200: 9219 133d 7304 82be 4d55 a33d 0726 3e3e
00000210: 2ed6 82bc 587f 5dbe da36 8a3c f054 36be
00000220: f396 02be 2fae 7c3d 571d 33be 3aea 613e
00000230: c368 14be
0.0645982 0.14802264 -0.050936252 -0.06949128 0.14255325 0.047490463 -0.112510584 -0.09847238
0.06711691 0.110618256 0.048487008 0.040933628 0.07937953 -0.0667368 0.0061498946 0.1116532
0.13255197 0.024198206 0.18046153 0.1558459 0.10314538 -0.13263507 0.05952487 -0.12692304
-0.10634177 0.08100752 0.11565667 0.18804531 -0.0130271455 -0.12235121 -0.070177175 -0.02824282
0.0424314 0.18189035 -0.029964922 0.14655857 -0.023745 0.14238283 0.0034412474 0.117977634
0.04643526 0.20391558 0.13670607 -0.040205177 -0.04374223 -0.025391683 -0.01954844 -0.015520835
-0.14532916 -0.14361356 0.04490482 -0.15385714 -0.014144676 -0.10313199 -0.11521911 -0.15947144
-0.16402535 -0.055113554 -0.16713168 0.06252184 -0.018454863 -0.09507272 -0.10692594 -0.043159004
0.027086737 -0.06417372 -0.07053056 -0.15927649 0.07583583 -0.06834901 0.005059793 -0.1818429
-0.16742848 -0.22664058 -0.06535597 0.03640081 -0.06378996 0.10292018 -0.10442861 -0.058964647
-0.21004735 0.06049273 -0.18908717 0.04254656 -0.006542524 -0.02025376 -0.04769171 0.03136839
-0.15502323 -0.029688038 0.04279855 -0.16919269 -0.0124352975 0.012772083 -0.060816206 0.15307035
0.216338 0.082646556 -0.20508417 -0.19729708 -0.1919222 0.02871832 -0.1054302 0.0800434
0.004321647 0.2617278 -0.09617621 -0.025703136 0.26520094 0.027342139 -0.102431774 0.21830527
0.020796668 -0.14891875 0.09948657 -0.25338444 -0.0558616 0.13878356 0.2331581 0.2478463
0.26140285 0.046500225 -0.16131155 0.12999296 -0.005324669 -0.18332902 -0.09191493 0.24317257
0.035913058 -0.2539402 0.07975254 0.18569194 -0.01597127 -0.21630609 0.016871858 -0.17805839
-0.12752895 0.061689552 -0.17491661 0.22062007 -0.14493088

gru.bias_hh_l1 f4 [141]
00000000: b0b1 f63c 0e40 12bc f0d0 2cbd 3fc9 083e
00000010: 4e8e 463d b725 cd3d 4000 18bc 25a2 143e
00000020: e70e 7ebb ad7d b23c 121f 6c3d b6ea 2b3d
00000030: 5639 0c3d c056 aa3d ba68 7d3d fa96 a53d
00000040: e0d5 db3d e082 813d 120c acbc e9d6 89bd
00000050: 64d4 11bd 7822 6c3d 3e43 123e 53a5 eabd
00000060: ed20 8c3d c99a b5bd 2060 11bc 732a f63d
00000070: c6a9 613d 14c3 d63d d1cc 913d f36d a43d
00000080: 085c 533c a589 26bd 1892 d33d e04c 093e
00000090: d710 cf3c 5acb 4cbd 0440 0cbc e5ec c2bd
000000a0: aaa5 ff3c 4b29 e53d 7089 cfbd e857 95bd
000000b0: a6de f03a 9d65 973b 7791 1b3e dbe5 1cbe
000000c0: 2aec e0bd 7d3b 14be 4098 a63b ffcb 4fbc
000000d0: b595 28bb 7f56 83bd 9e6c 2d3d 36a6 c53c
000000e0: 9d90 38bb a207 c8bd 6950 74bd 41b4 74bd
000000f0: 7765 fbbd 2df5 25be 5ceb 2f3d 173d 8ebd
00000100: 68f2 4b3d d3e6 c03d 9612 5c3d f4bc a6bd
00000110: 4c6d 14bd 515a d6bb b943 b73d 8bb9 a93d
00000120: 217f 3e3c a6f1 4a3c d3b9 0fbd aba4 43bc
00000130: 7002 6a3c 34a0 b4bd 3fb2 51be 3d0b 20bc
00000140: 6c07 6ebe e3ee 173d 38a9 c6bd dc1b babd
00000150: 9e01 3fbe 96ad 55be 3967 8dbd d881 8ebd
00000160: 1bdb 18be 0ab8 96bd c491 c83c c277 f7bd
00000170: 01ab 34be e53e c3bd 4aaf 49be 62ef b63d
00000180: 0f76 303d 9add 7fbd b8db 66be 1cc7 3bbd
00000190: 6d82 94bd cc07 f73d 6b2b 833b 17a4 b7bb
000001a0: f91d cabd fb7a 7dbc 2b95 8bbd a4fa 983d
000001b0: 94f8 4ebb aa94 8d3d 1676 96bd 37ce 753e
000001c0: 4ed7 7c3d e3b8 62be 9936 03bd 15c6 c6bd
000001d0: e12a 75be 5799 ec3c 8067 753e c366 3a3e
000001e0: fa4b 783d e193 253e 5943 0ebe 6093 52bd
000001f0: 2475 243c a5cb 1bbe bc48 1b3d 9878 573e
00000200: 9146 2abd a264 c3bb 6453 bb3d 1a9b 883e
00000210: efb1 7ebe 2629 81bd 8a12 3abe 8d94 32be
00000220: 0f04 c3bb e334 6d3e 3468 ca3c 01d5 7a3d
00000230: efe5 95bd
0.030114025 -0.008926405 -0.042191446 0.1335802 0.048475556 0.10016959 -0.009277403 0.14514978
-0.0038766207 0.021788443 0.05764682 0.041971885 0.034234367 0.083173275 0.061867453 0.08085437
0.10734153 0.063237906 -0.02100185 -0.06730444 -0.035602942 0.05765006 0.14283463 -0.11457314
0.068422176 -0.088674136 -0.008873016 0.12019815 0.05509355 0.10486427 0.07119144 0.08028784
0.01290036 -0.04065861 0.103305995 0.13408232 0.025276585 -0.04999862 -0.008560184 -0.0951784
0.031206924 0.11189517 -0.10133636 -0.072921574 0.0018376901 0.0046202675 0.15192209 -0.15322058
-0.10982545 -0.14475818 0.0050840676 -0.012682914 -0.0025723998 -0.06412982 0.042339914 0.024127107
-0.0028162368 -0.09767081 -0.059646998 -0.059742216 -0.12275212 -0.16206808 0.042949066 -0.06945246
0.049791723 0.09419026 0.053728662 -0.08141509 -0.036237046 -0.0065415283 0.08948464 0.08287343
0.01162699 0.012386715 -0.035089325 -0.011941115 0.014282808 -0.08819619 -0.20478152 -0.009768304
-0.23245019 0.037093055 -0.09700245 -0.09087345 -0.1865296 -0.20866999 -0.06904454 -0.069583595
-0.14927332 -0.073593214 0.024483569 -0.12083389 -0.17643358 -0.095334806 -0.19695774 0.089323774
0.04308134 -0.062467195 -0.22544754 -0.045844182 -0.07251439 0.12062034 0.0040029786 -0.005604278
-0.09868998 -0.015471215 -0.06815561 0.07469681 -0.003158127 0.06913121 -0.07346742 0.24004446
0.061728768 -0.22140841 -0.03203449 -0.0970575 -0.23942138 0.028881712 0.23965263 0.18203263
0.060619332 0.16169693 -0.13892879 -0.05141008 0.010037694 -0.15214403 0.03791116 0.21042097
-0.041571204 -0.005962924 0.09146765 0.26680833 -0.24872564 -0.063066766 -0.18171135 -0.1743948
-0.0059514116 0.23164706 0.024707891 0.061238293 -0.07319247

fc.weight f4 [1, 47]
00000000: 070e 8ebf 5519 9c3f 5d93 9c3f abc6 993f
00000010: 0692 a2bf b618 9cbf ccb6 9bbf ea79 973f
00000020: 23a9 9bbf 8dc1 953f d0c1 95bf 8362 a13f
00000030: 703f 94bf 0e2a 9abf 0957 9a3f dd3f 9fbf
00000040: 7097 9fbf e719 933f 55c1 a13f f5b6 9fbf
00000050: 8a27 a03f 8cd5 99bf 6d3a 9abf f27f 923f
00000060: 5b23 903f c0af a13f fbaf 9b3f ceb1 a33f
00000070: 75ae 9bbf 5410 933f 6797 a03f ad39 96bf
00000080: dab6 9f3f af26 973f 0060 a4bf 15a3 9abf
00000090: c3de 9cbf e099 993f 5c59 90bf ab57 98bf
000000a0: b8be 95bf 8b97 9dbf 0d89 a2bf 5ec4 a03f
000000b0: bacc 94bf 7584 a23f 517a 8fbf
-1.1098031 1.2195231 1.2232472 1.2013754 -1.2700813 -1.2195041 -1.216516 1.183408
-1.2160991 1.1699692 -1.1699772 1.2608188 -1.158186 -1.2044084 1.2057811 -1.2441365
-1.246809 1.149228 1.2637125 -1.2477709 1.2512066 -1.2018294 -1.204908 1.1445296
1.126079 1.263176 1.216308 1.2788637 -1.2162615 1.1489358 1.2546204 -1.1736351
1.2477677 1.180868 -1.2841797 -1.2081019 -1.2255481 1.2000084 -1.127727 -1.1901754
-1.1698828 -1.2311872 -1.2698075 1.2559927 -1.1624978 1.2696673 -1.1209203
