models/gru_trial_13.pth (torch, 255614 bytes, 9 tensors)

gru.weight_ih_l0 f4 [228, 44]
00000000: e2d7 803d 5fc7 f13d a430 80bd 1b2c 3cbd
00000010: 1679 6c3d d0e0 153e ba6d 4cbd c781 d0bc
00000020: 23d0 00be 9634 7dbe 2343 d4bc d479 113d
00000030: d93e d2bd ba37 cb3d 0eae 06bd ceb2 fdbd
00000040: 920d 923e 9818 383e 8efd f43d 621a adbd
00000050: 1bce 193e b4f4 f4bc 2921 2ebd e346 b7bd
00000060: 039b 00be 7783 b93b 774a 9e3c d455 a8bd
00000070: 42c5 10be 2866 643d 8168 98bd 8845 01be
00000080: b044 0e3e 959b 083e bca3 febd a042 17bd
00000090: 5823 8e3d 7495 5dbd 47ee 943e c3b4 b6bd
000000a0: 71e2 7e3d 3012 413e 0472 8abd 8583 63be
000000b0: 2cab e0bd 3fee f83d 5476 9fbc a12e 05be
000000c0: 4013 123d 32da e33d 4f68 ac3d ab42 f53d
000000d0: f081 ec3d de09 45bd 8517 0d3d acbd ebbd
000000e0: 5797 ff3d eca8 a43c dcd8 e63d ba7d 59bc
000000f0: 3c97 eb3d b7ba be3d 796f 8c3d fdcb bc3c
00000100: a644 153d ef6f 84bd f6f0 8abc cf87 98bd
00000110: 21dc 0cbc 4fc8 5e3e cf5a 09bd a9ff fd3b
00000120: a42a 62bd 7584 aabd c6ed adbc 1d4c 013e
00000130: b3f7 55be 85df 833d b41e 55bc 9135 a33d
00000140: c205 31bc 4fc8 d73d 0b57 8cbc 3517 16be
00000150: e0b9 57bd 6605 5c3d b025 143e 004c 823d
00000160: f605 353d 2fa8 7abd 9af9 1c3e 145f 8e3c
00000170: 1283 9dbd 3053 27bd 7885 16bd 5736 30bd
00000180: 204d ccbc 1a92 423d bcb2 ccbb 72d1 88bd
00000190: b8d6 bbbd 3ede 283e 2632 45bd f84c 86bb
000001a0: b8e1 acbd b577 e43d 36ed f1bb 2285 acbc
000001b0: 54a5 40bd 2e13 043e 7f5e 553d fe0b 263c
000001c0: 5994 b5bb 42ec 0cbd fd37 7fbd 2d88 43bd
000001d0: 8500 153d ac6d 933d 8609 e9bb 764e 2fbd
000001e0: 1c81 2bbe 48db bd3d 409b a23d 3fc9 3ebe
000001f0: 4308 1ebe 35b6 bf3d bdd5 05be 52e9 b93d
00000200: de8c dfbc 70ea efbc a621 9a3c 58f8 713c
00000210: c95c 053d aa7e 743d 5e6f 6f3d 2aaf 0bbe
00000220: b5bd 72bd e555 173e 6c1c bcbd 08a0 7b3c
00000230: 1864 e0bb 6f59 0cbe 8094 babd c28a 87be
00000240: d5b1 dabd e4d7 bdbd ee7b a13c 5398 f5bc
00000250: 0e5e 10bd 0d61 f6bb 1a83 4e3d f756 9f3b
00000260: ec95 9cbd 431c 6b3c 5e8a 65bd c9a1 f2bd
00000270: b64b cabd a007 84bd bd63 06bd 0881 d7bd
00000280: d574 80bd 0e96 923d 44de 2fbd 0499 55bd
00000290: a25d 7abc 59e8 063e aa84 65bc 31c3 c5bd
000002a0: 727f 07be 41a3 3cbd 1b4e 00be f0e1 1c3e
000002b0: 65a6 8dba d053 b0bc e2b9 18be 4209 2bbd
000002c0: 8609 8f3d 11fb 3d3c 6798 5ebe 6a29 c43d
000002d0: 6715 0cbe f382 ab3c 8294 bb3b e296 f73c
000002e0: fa1f b3bd 456b 23be ae8a e3bb c9ea 853e
000002f0: 4137 1f3d cc7b 12bd 5a1f 203e bc9a 3e3e
00000300: 6269 80bd f5df 063e 315d 08bb c066 f53d
00000310: 1f61 0bbe c6d0 8e3d 7ffc c9bd 66b0 0abd
00000320: 2cfa 483e 755b 0b3c 0b40 4f3d a10d 6cbe
00000330: 78d8 a0bc 8c6f a03d b8e4 ae3c fd75 9abc
00000340: 993f 563e 4d51 b5bd a5d5 dc3d cf5e e63d
00000350: 704a b134 d412 643d 1b25 e13d dc66 623d
00000360: fd53 1ebc 98c7 50bc 572d abbd 7041 ab3e
00000370: 41fc e83d fc53 a7bb cd21 3b3d 75a3 c6bd
00000380: 3a14 84bd fd6e e53d a4c4 f2bb 2f96 0e3d
00000390: 080a 69bc ffe4 91bd a9d8 e23d ce5c 943c
000003a0: 6b4a a83d dac6 cd3c b79e 5fbd a50c 10be
000003b0: 934a fbbc 2fe1 413c 9231 24bc ff2b 0bbd
000003c0: fefc 62bd 331d 15bd 9717 b53d afc5 453d
000003d0: 9c84 993d bcb9 073e e417 a83d 34cb 303d
000003e0: ff18 2dbe c5d4 f93c 1a1a 80bc 7f96 12bc
000003f0: 3951 4abe cc51 473d 0fa0 b33d 26a2 e8bd
0.062911764 0.11805605 -0.062592775 -0.0459405 0.057732664 0.1463654 -0.04990933 -0.025452508
-0.12579398 -0.24727091 -0.02591092 0.035516575 -0.102658935 0.099227384 -0.032880835 -0.1238762
0.28525978 0.17978132 0.11962424 -0.08452298 0.15020029 -0.02990184 -0.042512093 -0.089490674
-0.12559132 0.005661424 0.019322617 -0.082194954 -0.14137748 0.055761486 -0.074418075 -0.1262418
0.1389339 0.133406 -0.124335736 -0.036928773 0.06940335 -0.054097608 0.2908804 -0.08921196
0.06222767 0.18854594 -0.06760028 -0.2221814 -0.109701484 0.12154817 -0.019465603 -0.13006069
0.03566289 0.11125602 0.08418333 0.119756065 0.11548221 -0.048105113 0.034446258 -0.115107864
0.12480038 0.02010008 0.112718314 -0.013274604 0.11503455 0.09312957 0.06857199 0.023046488
0.03644242 -0.06466662 -0.016960602 -0.074477784 -0.008597405 0.21756099 -0.033533867 0.0077514243
-0.055216447 -0.083260454 -0.021231543 0.12626691 -0.20895271 0.06439117 -0.0130078085 0.07969201
-0.010804595 0.10536253 -0.01713135 -0.1465729 -0.0526675 0.053716086 0.14467502 0.06362152
0.044195138 -0.06119555 0.1532959 0.017379321 -0.07691015 -0.04085082 -0.03674838 -0.043020573
-0.02493912 0.047502615 -0.0062468927 -0.066805735 -0.09171814 0.16491029 -0.04814353 -0.004098531
-0.0844149 0.11155645 -0.007383014 -0.021059576 -0.04703267 0.12897941 0.05209207 0.010134695
-0.005541366 -0.034405 -0.062309254 -0.04773729 0.03637745 0.071986526 -0.007111731 -0.042799436
-0.1674847 0.0927034 0.07939768 -0.18631457 -0.15432839 0.09360925 -0.13069816 0.090777054
-0.02728885 -0.029286593 0.018814873 0.014768682 0.03255919 0.05969111 0.058455817 -0.13641039
-0.05926295 0.1477886 -0.091851085 0.015357979 -0.0068478696 -0.13705991 -0.091103554 -0.2647305
-0.1067845 -0.092696935 0.019712415 -0.02997986 -0.035245948 -0.0075188936 0.050417997 0.004862662
-0.07645783 0.01435 -0.05604016 -0.11847264 -0.09877722 -0.06446767 -0.03280996 -0.10522658
-0.06272284 0.07157527 -0.04293658 -0.05214788 -0.015281113 0.13174571 -0.01400868 -0.096563704
-0.1323221 -0.04605413 -0.12529795 0.15320563 -0.0010807036 -0.02152434 -0.14914659 -0.041756876
0.06984238 0.011595503 -0.21737824 0.095782116 -0.1368004 0.020936465 0.0057244906 0.030223314
-0.087463334 -0.15958889 -0.006944022 0.2615569 0.038871054 -0.035762593 0.1563696 0.18613714
-0.062701 0.1317137 -0.00208075 0.11982489 -0.13611268 0.06973414 -0.09862613 -0.033859633
0.19626683 0.008505692 0.050598186 -0.23052074 -0.01963447 0.07833776 0.021349296 -0.01885509
0.20922698 -0.088533975 0.10782937 0.11248552 3.302298e-07 0.05568202 0.109934054 0.055273876
-0.009663579 -0.012742899 -0.08358257 0.33448362 0.113762386 -0.0051064473 0.04568653 -0.09699146
-0.064491704 0.1120281 -0.0074086953 0.034811195 -0.014223583 -0.07123756 0.11076481 0.018110659
0.08217319 0.025119234 -0.05459472 -0.14067324 -0.030675208 0.011833473 -0.010021584 -0.033977505
-0.055417053 -0.0364048 0.0884239 0.04828423 0.07495996 0.13254446 0.08207682 0.04316254
-0.16904067 0.030496964 -0.015637446 -0.008947014 -0.19757546 0.048661992 0.08770763 -0.11359052

gru.weight_hh_l0 f4 [228, 76]
00000000: c455 31be 3b2a b53d eabe 353d 08e2 00bd
00000010: 5908 cdbc cf22 15be f87d e6bb 53f3 9c3d
00000020: 5248 8b3c 9bfe 233d c794 fbbc e372 2cbd
00000030: 0fb1 b1bd bc0d a2bd ad05 31bc 288f 9cbd
00000040: 8ed9 b6bc f0f5 17bd 5090 663b 2549 823d
00000050: e177 9e3d 2362 aa3d 2fa6 36bd 94f5 023e
00000060: 46b5 2a3e f201 e2bd d269 a63c e0d0 913c
00000070: 3b63 bd3e 94b9 f43d cd01 ffbd 51ec 2e3d
00000080: 6dcd 13be e511 c5bd 1c38 f0bc cfa8 adbd
00000090: 7e6a 85bd cd85 81bd 1bfa bcbd 38b4 e0bd
000000a0: 96c5 66bd 4dc7 663d 5ea8 743d 16ac 7c3c
000000b0: b2e1 a33a 5c27 32bc 1944 1ebb 9a4e d6bd
000000c0: a73d 93bd e61d 273e e4d5 6ebd d2c4 253e
000000d0: 3e1b 3ebd e7ef 6cbd e895 28bd 6d7e f13d
000000e0: 0096 d73d ebfd 30bd cd7d 0fbe baf0 f1bd
000000f0: 7c46 523d f074 923d 387d e3bb a3de e33d
00000100: 3b16 53bd 75a2 d0bc d8c7 39be 1952 36be
00000110: f355 cbbd 49e4 4a3d 2ae2 3a3e 823b fcbd
00000120: 5efd 7cbd 1b7d 903d 7a5a 2abc 9767 203c
00000130: b274 1c3e ded5 f93d 98d0 623d 98e8 ea3b
00000140: 3ca4 bdbd b27f 9e3d 5d5a 183e 03d7 6b3e
00000150: 791f d9bb 1394 8abd b5e3 92bd cca2 16be
00000160: 547e b1bc 0071 0abe 034e 21bb 28b3 16be
00000170: 141d e53c c216 d5bd e6c0 36bd 941f 73ba
00000180: 6a03 3c3e 67d7 013d 781d 6a3c 88ef 673e
00000190: 852d 123e 1558 debc 629d 503d 400c 253e
000001a0: db0e b3bd 139c 07bc 140f 24bd 69b4 3b3c
000001b0: 2959 90bd 1bd3 59be 2ee3 653d 5f4e da3d
000001c0: 3ef1 073d 07d3 ed3d b922 56bd b866 c4bd
000001d0: d3fc c1bc 3cf3 343e 49c1 c83d c178 3ebe
000001e0: ee65 9a3d 5bd3 b93b ab09 9fbd 21bb 8abd
000001f0: 1058 b0bd 0178 babd 05a0 f63c aef6 453c
00000200: a51b 3d3e f02a 7f3b 7580 14be 8a8a ecbc
00000210: 411b 9d3d 570e cabc b6be 113c 3be2 00bd
00000220: 4fae 793e a717 d2bd 2ff6 463e 2016 ff3c
00000230: 9a18 bf3d b015 b83d d106 57be a22a 273e
00000240: 3667 87be 2219 2fbe 0e90 d63d 3f52 843e
00000250: 0967 8e3c 32fa 27be 4e8b 013e 50f1 6cbe
00000260: fcdc ce3d 39f7 623e 93cc 1f3e 3753 543e
00000270: 5606 6b3d b12f 243d 4d94 973d aeba 0b3e
00000280: 2142 6c3e 5b82 89bb d920 46bd 2bff d5bd
00000290: 0968 7cbe 2033 19be 883f e5bd aa16 98bd
000002a0: 1041 c5bc 734f 573c ac96 dabc 6035 b2bb
000002b0: 8bc0 2b3e 0ece 00be fe5d 473e 08c5 713e
000002c0: 3b46 4d3e e07c 85be 7f5f 003e a608 103e
000002d0: f57a 31be 9919 213e 554e 8dbe f6ae 583e
000002e0: 9d38 a2bd ac44 1bbe 45fe 493e 57b6 563e
000002f0: 2ae3 e73c fd8e 2ebd d429 54be f2a0 36be
00000300: dad2 243e a4ef 393e 8770 843e c9e9 5ebe
00000310: 3c0c 983e ef79 923c 7888 123d 18b7 98be
00000320: 15bb 7fbd a91d c6bd 2ad1 0c3e 5a25 1bbd
00000330: a933 293e 15ea 84bd 9f7d a2bd cbc3 8d3d
00000340: 2042 a33d fb0d 0ebe 4b6a c83d d619 003e
00000350: 9b47 793e dc69 103d 06c5 763c 4dd5 2d3e
00000360: 3f42 94bd 85d3 38bc 4da3 5ebe cf4b 323e
00000370: e2df 62be f18b 0fbe 8f29 393b 8566 2b3e
00000380: 4c16 eabd 350d 54be 4375 0b3e d09e babd
00000390: e092 cb3d 5a5f 903d e763 453e d19b 8b3d
000003a0: a8c5 333b 4d01 ec3d 455b 02bb 5c01 f6bd
000003b0: 5d6a 753e fd26 da3c 78a1 f1bb 4e6e 68be
000003c0: 717c 1e3b 7a29 36bc 950b a4bd ebaf 45bd
000003d0: 1891 00be 8812 cb3d b971 9abd 6e1a 0e3d
000003e0: ccb9 d93d 8d59 0bbe c5df b03d d031 3a3e
000003f0: 3bdc 333e 7d72 27be a816 053e f030 f93b
-0.17317873 0.088459454 0.044371523 -0.03146556 -0.025028395 -0.1456406 -0.0070340596 0.07663598
0.017002258 0.040037733 -0.030710591 -0.042101752 -0.08676349 -0.07912776 -0.010804576 -0.076444924
-0.022320535 -0.03709978 0.0035181232 0.063616075 0.07737709 0.08319499 -0.04459208 0.12788993
0.16670713 -0.11035527 0.020314131 0.017799795 0.3698977 0.11949459 -0.12451515 0.042705838
-0.14433832 -0.09622554 -0.02932363 -0.08479463 -0.065144524 -0.063243486 -0.09227391 -0.10971874
-0.056340776 0.05634241 0.05973088 0.015421888 0.0012503176 -0.010873642 -0.0024149476 -0.10464211
-0.071894936 0.16319999 -0.05830945 0.16188362 -0.0464127 -0.057845976 -0.041158587 0.11791692
0.10526657 -0.043210905 -0.14012833 -0.11813493 0.05133675 0.0715121 -0.0069424175 0.11126449
-0.051534873 -0.02546809 -0.1814264 -0.17804755 -0.09928503 0.049534116 0.18250337 -0.12316038
-0.061765067 0.07055112 -0.010397548 0.009790323 0.1527889 0.12198995 0.05537471 0.0071688406
-0.09259841 0.077392 0.14878221 0.23031239 -0.0066260663 -0.06766524 -0.07172338 -0.1471054
-0.021666683 -0.13519669 -0.002461315 -0.1471678 0.027967967 -0.10404731 -0.044617556 -0.000927442
0.18360677 0.031699564 0.014289252 0.22649968 0.14275177 -0.02714161 0.050931342 0.16117954
-0.08743068 -0.008276957 -0.040053442 0.011456587 -0.07048256 -0.21271937 0.05612486 0.10659479
0.03318905 0.11612516 -0.052279208 -0.095899045 -0.023680126 0.17670912 0.09802491 -0.18600751
0.07538973 0.0056709475 -0.07765516 -0.06773973 -0.086105466 -0.0910492 0.0301056 0.012082739
0.18467577 0.0038935505 -0.14502127 -0.028874654 0.07671214 -0.02466504 0.008895567 -0.03146575
0.243829 -0.102584176 0.19429849 0.03113848 0.09330864 0.089885116 -0.20998694 0.16324857
-0.2644593 -0.17099431 0.10476695 0.25844 0.017383115 -0.16404036 0.12650797 -0.23138928
0.10100743 0.2216462 0.15605383 0.20734869 0.05737909 0.040084545 0.07401333 0.13645431
0.23072101 -0.004196448 -0.04837117 -0.1044906 -0.24649061 -0.14960909 -0.11193758 -0.07426198
-0.024078876 0.013141501 -0.026683174 -0.0054384917 0.16772668 -0.12578604 0.19469449 0.23610318
0.20046322 -0.26071835 0.12536429 0.14065799 -0.1733206 0.15732421 -0.27598825 0.21160492
-0.079209544 -0.15162915 0.19725902 0.20967995 0.028306562 -0.042616833 -0.20719081 -0.17834833
0.16096058 0.18157822 0.25867102 -0.2176887 0.29696834 0.017880408 0.035774678 -0.2982719
-0.062434275 -0.09673626 0.13751665 -0.037877418 0.16523613 -0.0648996 -0.079341166 0.0692211
0.07971597 -0.1387252 0.09785899 0.12509856 0.24343722 0.035257205 0.0150616225 0.16975899
-0.07239198 -0.011280899 -0.21741982 0.17411731 -0.22155717 -0.14018227 0.002825353 0.16738327
-0.11430034 -0.20708163 0.1361895 -0.09112322 0.099401236 0.07049437 0.19276391 0.06816829
0.0027431045 0.115236856 -0.0019890827 -0.12011978 0.23966356 0.02662992 -0.007373985 -0.22698328
0.002418306 -0.011118287 -0.080100216 -0.04826347 -0.12555349 0.09915644 -0.07541222 0.034693174
0.10631141 -0.1360838 0.08636431 0.18183064 0.1756448 -0.16352268 0.12996924 0.0076047108

gru.bias_ih_l0 f4 [228]
00000000: 3e59 3c3d 33bd a6bd 11b4 15bd 36db 5cbd
00000010: d144 4f3d fc98 17bd 5e06 033e 9ce7 413d
00000020: 8ffc 1a3e 5f43 133d 1f08 55bd 6f0b 233e
00000030: 3ea2 053d 8b1d 063e 6f81 d93d 42b2 1f3d
00000040: 27c2 48bd a750 093e fe1d 95bd 869c 813d
00000050: c421 513e b161 e83d 5c81 833d d430 6b3d
00000060: f06e 233d 4dd1 b03d a465 99bd b128 a43d
00000070: 0f68 153e fe11 413e 1960 0f3e ec41 8a3d
00000080: aa1c 1cbd 03a2 883d c73b 8a3b e6ff 32bd
00000090: 1104 3e3e fdc2 113e c9d5 db3d fe2a ca3d
000000a0: 4268 9fbd f2a2 0ebb 50dc 2d3e e2d3 11bc
000000b0: f74c 923d 53aa efbd d3d5 a73d e9b3 223e
000000c0: a97f 343d 9629 903e 1696 21bd 7bf5 b1bb
000000d0: 4233 183e dcc5 d6bc 37c3 533d e045 063e
000000e0: f5d6 a7bd 1290 01bd bf34 03be 0005 abbd
000000f0: f4c6 6a3d b778 38bd c149 253e 9da0 193c
00000100: 4d31 3bbd 5d2c d23d d160 633e 8856 93bd
00000110: 1b63 d13d 322f af3d 6619 013e 5d54 47bc
00000120: 0199 c8bc 0ca7 efbc 70a2 4abe 31fd b2bd
00000130: 8f64 9dbe 8b52 ab3d d59a 54bd 0b83 f8bd
00000140: dcfa 663d cd98 c03b 7e1d 843e ed3b e6bd
00000150: 90e3 04bd e3a3 c1bd cc93 0d3e 16e3 aabd
00000160: 62e6 9e3d 5b63 793e ad1f 11be b0d7 95bc
00000170: a115 03bd d81a 0b3e e637 27be 3bb5 2f3d
00000180: ad8c 5f3e 51a4 d8bc 8d3e 7d3e 7941 81bd
00000190: 1525 01be e060 523c 71be 2e3d 557f cc3d
000001a0: 9036 533e 8a28 1abe ca55 7d3d 9230 93bd
000001b0: d3fd 2bbd d787 323c 2b33 dabc 6922 b4bd
000001c0: 6566 33be bc16 4cbd 238f b33d 33af 12be
000001d0: fe69 223e de05 1ebe 60ce 81bd bdb3 ce3d
000001e0: 6b0b 223d ad75 23be 70be 38be 10fd 35bd
000001f0: c157 373e ed08 3c3d c799 68bd 907e 273e
00000200: 6502 843e aec4 8c3e 3532 8c3c 5f74 323d
00000210: b6fe f1bc 5ae1 bc3c 7815 d4bb 1fd3 5e3e
00000220: 978a 51bd 007d 133e e9ae 933d 0500 ecbc
00000230: 9397 81bc 2280 c83d 2478 c9bd b71c f1bd
00000240: d178 5cbd eef9 7abc 564f 06be a4a5 133e
00000250: d78a 9abd 186a 3fbd 2bbd c33d c22a 36bd
00000260: 8743 f3bd f0c5 7e3e 17d5 873e 3089 6f3e
00000270: 2470 9d3e 4b54 863e 2a20 103e 4af8 a8be
00000280: 1662 953d 429d 9cbe e4d4 0ebe 4eb5 37be
00000290: d458 2d3e 48ec 1d3d 13fa 7e3e f0e2 03be
000002a0: 69e5 82be 4bd5 7d3b 9199 2e3e eeb5 a7be
000002b0: e634 01bd 789f 013e c1af 4f3c c516 55bc
000002c0: ca62 a6bc 2203 223e d01e 533c 5e08 f9bd
000002d0: 581f 76bd 736c 35be f26f 86be d1b3 3a3e
000002e0: 7a80 083e d22b b2be 8d00 953e cf07 a73e
000002f0: 538c 9abd 1a4a 2fbe 1e9a 53be 8808 5dbd
00000300: 783e 913e e6e9 ef3c aef8 cf3c af3e 7ebe
00000310: fdd4 ee3d 79e3 dd3c 4c19 12be 2b53 2ebe
00000320: c6d9 2cbe 3a08 9fbd 524e be3c 9c3d 603e
00000330: 9578 95bd d8bf bdbd 9a6b 66be 7bee 533e
00000340: 2737 98be 2864 93be 86e3 a4bd 824d 893d
00000350: aad6 853d fa2a 643e dbb0 18be af06 823e
00000360: ff56 16be 3bf6 533e b5c5 81be d196 2a3d
00000370: ee9a 06be 2e72 f9bc 0631 2fbe ec27 453e
00000380: 56e0 27be b356 79be 5f26 c13d 4a99 6dbe
0.045983545 -0.08141556 -0.036548678 -0.053919993 0.050602738 -0.03701113 0.12795398 0.04734002
0.15135406 0.035952922 -0.052009698 0.1592233 0.03262543 0.13097207 0.106203906 0.03898836
-0.049013283 0.13409673 -0.07281111 0.063286826 0.20423037 0.11346758 0.06421158 0.057419613
0.03990072 0.08633671 -0.074900895 0.08015574 0.14590476 0.1885452 0.14001502 0.06750855
-0.038113274 0.06671526 0.004218552 -0.043701075 0.18556239 0.14234538 0.10734136 0.09871481
-0.077835575 -0.0021764603 0.16978574 -0.008900614 0.07143586 -0.11702409 0.081950806 0.15888943
0.04406706 0.28156728 -0.039449774 -0.005430875 0.14863303 -0.026217394 0.051699843 0.13112593
-0.08195297 -0.031631537 -0.1281309 -0.08350563 0.057318643 -0.045036998 0.16141416 0.009376672
-0.045701314 0.10262368 0.22204901 -0.07194239 0.10223981 0.08553924 0.12607345 -0.01216611
-0.02448702 -0.029254459 -0.19788527 -0.08739699 -0.30740783 0.08365353 -0.05190547 -0.121343695
0.056391582 0.0058775903 0.2580375 -0.11241899 -0.032443583 -0.09455087 0.13825911 -0.083440945
0.07758786 0.24354307 -0.1417224 -0.018291324 -0.03200305 0.13584459 -0.16329917 0.042897444
0.21831007 -0.02644554 0.24730892 -0.06311316 -0.12611802 0.01284048 0.042662088 0.09985224
0.20626283 -0.15054527 0.061849393 -0.071869984 -0.041990113 0.010896645 -0.026635727 -0.08795626
-0.17519529 -0.04982637 0.087675355 -0.14324646 0.15860745 -0.15431926 -0.06338191 0.10092876
0.03956167 -0.15962858 -0.18041396 -0.044430792 0.17904569 0.04590695 -0.05678728 0.16356874
0.25783077 0.27493805 0.017113784 0.04356801 -0.029540401 0.023056675 -0.006472286 0.21760224
-0.05115756 0.14403152 0.07211096 -0.028808603 -0.015819347 0.097900644 -0.09837368 -0.11773055
-0.053826157 -0.015318377 -0.13116202 0.14418656 -0.07546013 -0.04673204 0.09557565 -0.04447437
-0.11878114 0.24880195 0.26529762 0.23392177 0.3074962 0.26236185 0.1407477 -0.3300193
0.07294099 -0.30588728 -0.13948399 -0.17940256 0.16928416 0.038555413 0.24900083 -0.12879539
-0.2556565 0.003873187 0.17050768 -0.3275599 -0.03154459 0.12658489 0.01267618 -0.013005917
-0.020310778 0.15821508 0.012885764 -0.12159799 -0.060088485 -0.17717151 -0.26257282 0.18232657
0.1333026 -0.34799057 0.29101983 0.32623145 -0.07546296 -0.17118111 -0.2066426 -0.053963214
0.28367972 0.029286336 0.025387134 -0.248286 0.11661718 0.027086006 -0.14267462 -0.17023914
-0.16879949 -0.07765241 0.023230705 0.21898502 -0.0729839 -0.09265107 -0.22501984 0.20696442
-0.29729578 -0.2878735 -0.08051209 0.067042366 0.065350845 0.2228202 -0.14911215 0.25395724
-0.14681624 0.20699398 -0.2534615 0.041647736 -0.13145038 -0.030449953 -0.17108545 0.1925351
-0.16394171 -0.2434948 0.09431147 -0.23203006

gru.bias_hh_l0 f4 [228]
00000000: bc88 06bd 5067 86bd 50f2 c13d 5267 b23d
00000010: 4768 543e 68a8 ccbd cd22 313e c1cc a33d
00000020: 0f2d fc3d a35e 7e3d d252 fabd ee70 34bc
00000030: a9c0 d83d 595a 99bd fbbe 3e3e 2e24 8b3d
00000040: f324 333d e2a9 3d3e 844e d7bd fb2e d43d
00000050: e1b2 103e cecb 333c fed1 b5bd e6a3 533d
00000060: 0145 05be 0754 6e3e 6f5a 22be 2703 563e
00000070: 0edd 183e fc9f 8b3e 90c9 1cbd 38be 483c
00000080: e127 123e b651 27bc 6b10 b0bd 26cb 37be
00000090: 6fa4 033b bbb4 a63d 8d97 6a3e 489e 183e
000000a0: bb97 9fbc f00b aa3c fb99 6e3d bac9 88bd
000000b0: 669b 173e 01e7 03bb 36fe 713e 6049 e4bc
000000c0: df33 e63d e456 8b3e 565f f93c 3659 a1bd
000000d0: e812 943d 5d2f 40bd b663 b53d 2a43 b63d
000000e0: ac96 35be fb12 54be 870c df3c 5682 8abd
000000f0: 8275 b53d 2185 60bd 15d0 e53d 032b ea3d
00000100: c2d8 08bd 010e 303e fe1d 5f3e 5614 9a3d
00000110: 0b44 4a3d d32c e73d 51a1 fa3d 840b 623d
00000120: 1fe5 91bc 3a1f 8abd 8ddd 25bc b7c4 10be
00000130: 8854 85be 0bda 3c3d 775c cfbc 9f4f dabd
00000140: af0b 04bd 9cd2 033e 6ed6 693e acf2 9fbe
00000150: 1cb0 3fbe 1fff f8bd 0509 6e3e de60 28be
00000160: 7ed8 2fbd edda 143e e1e9 19be 829b 823d
00000170: 8d58 5d3d a6b1 0f3e 8a68 73be b006 5cbd
00000180: dff1 753e 0e20 e6bd 4832 6d3e a987 efbd
00000190: 8e58 a3bd 5554 ae3d 0559 0a3e 16c9 18bc
000001a0: 8896 c43d 171e dfbd 28ea b0bd 5107 22be
000001b0: 69ec fd3d d55d 07be c146 fcbd 7a6f d7bc
000001c0: cb69 40be 115e d6bc 8fbc d4bd a661 e8bd
000001d0: ff09 af3d e7ce 88bd 3cd5 12bd 6556 6b3d
000001e0: 87aa 6a3c 605f 1ebe eefa 0abe 9c9d 20be
000001f0: 34d6 4e3e 6b4a 0e3b ad81 85bd 325d 1d3d
00000200: a54a 213e 8464 bb3e d1a2 bd3c f507 10bd
00000210: c6c7 2c3d 0eed 873c 81c0 fe3c 30f6 7a3e
00000220: 7710 4ebd b73b 1a3e 624f 023e 80d4 a23d
00000230: 0a41 9abd 2ae4 f13d 201f c7bd bda6 433c
00000240: e8d3 3fbd f513 c43b dc6f 28be f213 9e3d
00000250: 1b28 fb3d f2e2 dfbc 5cbf e0bc ac4a 8f3d
00000260: f28c 1abe a0da 403d d61f ce3d ad2f 883e
00000270: 8502 313e a2fd 6b3d 4e4e 533e e2e1 9dbe
00000280: d74a 7b3e 767d 9abe 1867 883d c2e3 31be
00000290: 7285 163d 6e2b 72bc 2e81 6f3e c494 08bd
000002a0: 60d8 1cbe 5a1d 113e 4ac4 133e 9f9e bcbe
000002b0: 2641 923d 49c5 993d 8292 bf3a a1c5 00be
000002c0: 5645 bc3d e69d 903d fe4c 5e3e 9656 26bb
000002d0: c42a 72bd 5fbc 77be 580e 65be 851d 6a3d
000002e0: 8996 753e 479b 61be bd9d 923e 14d7 663e
000002f0: 3e09 7bbe 9c8b 54be 4e1c aebd 183b fc3d
00000300: 83db 003e 259e 433d 6cb7 043d 6124 65be
00000310: ff17 233e a27f e13c cc73 69bd 2661 58be
00000320: 84e2 50be 309a 973d 46f9 e33d 0a41 6e3e
00000330: b9aa 4ebd e3a4 33bd 4d48 88be 57c1 053e
00000340: 248d 25be 19e3 1abd f831 a7bd 9d8a d23d
00000350: 51b4 d03d 796b 3c3d c37b 01be 023b 983e
00000360: f67a 2dbe a726 c43e af01 f5bd 15df 5e3e
00000370: 6553 44be 8bd5 3abd 2a7a 08be bac4 fd3d
00000380: 2216 25be 7c10 3cbd 4dd7 ff3d 1d13 46be
-0.032845244 -0.06562674 0.094700456 0.08711113 0.20742904 -0.099930584 0.17298432 0.07998038
0.12313282 0.06210197 -0.12222828 -0.011013253 0.10583622 -0.074879356 0.18627541 0.0679401
0.04373641 0.18521836 -0.105130225 0.10360523 0.14130737 0.010973884 -0.088779435 0.051669978
-0.13014604 0.23274241 -0.1585481 0.2089964 0.14928076 0.27270496 -0.038278162 0.012252383
0.14273025 -0.0102123525 -0.085968815 -0.17948589 0.0020087024 0.0813994 0.22909375 0.1490413
-0.01948153 0.020757645 0.058252316 -0.06679101 0.14805374 -0.0020126703 0.2363213 -0.02786702
0.112403624 0.2721473 0.030440968 -0.07878344 0.072301686 -0.04692017 0.08856909 0.08899529
-0.17733258 -0.20710365 0.027227653 -0.06763141 0.088603035 -0.05481446 0.11221329 0.11433985
-0.03340984 0.17192842 0.21788785 0.0752341 0.049381297 0.112878464 0.122378 0.055186763
-0.017809449 -0.06744237 -0.010123623 -0.14137541 -0.26041055 0.04610638 -0.025312645 -0.10659718
-0.032237705 0.1287331 0.22835705 -0.3123983 -0.18719524 -0.121580355 0.23245628 -0.16443202
-0.042931072 0.14536639 -0.15030624 0.06377317 0.054039527 0.14032611 -0.23770347 -0.053717315
0.24018048 -0.11236583 0.23163712 -0.11695797 -0.07975875 0.08512179 0.13510521 -0.009325286
0.09599024 -0.10894411 -0.08638412 -0.15823103 0.12398607 -0.13219388 -0.12318183 -0.026298273
-0.18790357 -0.026167901 -0.10387527 -0.1134675 0.085468285 -0.066800885 -0.035847887 0.05745544
0.014322883 -0.1546607 -0.13572285 -0.15685123 0.201989 0.0021711837 -0.06518874 0.038418956
0.15751131 0.36600125 0.023148926 -0.03516384 0.042182706 0.016592529 0.031097652 0.24507976
-0.05030867 0.15061842 0.12725595 0.079506874 -0.075319365 0.11811097 -0.097227335 0.011941609
-0.04683295 0.0059838244 -0.16448921 0.07718648 0.12263509 -0.027329896 -0.027434997 0.069966644
-0.15092829 0.047083497 0.10064666 0.26598874 0.17286117 0.05761493 0.2063534 -0.30836397
0.24540268 -0.30173844 0.066602886 -0.17372039 0.036748357 -0.014780862 0.23389122 -0.033345
-0.15316916 0.14171353 0.14430347 -0.36839768 0.07141332 0.07508332 0.0014615806 -0.1257539
0.09192912 0.07061367 0.21709058 -0.00253812 -0.059122816 -0.24192952 -0.22368753 0.05715706
0.23983206 -0.2203189 0.2863597 0.22542983 -0.24515244 -0.20756382 -0.085014924 0.12315959
0.12583737 0.04775824 0.032401487 -0.22377159 0.15927123 0.02752668 -0.056995198 -0.21130809
-0.20398909 0.07402456 0.111315295 0.23266998 -0.050455783 -0.04385842 -0.2661766 0.13062035
-0.16167122 -0.037814233 -0.08163828 0.10280345 0.101906426 0.04600093 -0.12644868 0.2973252
-0.16941437 0.3831074 -0.11963212 0.21764787 -0.19172437 -0.045613807 -0.13327852 0.12391038
-0.16121724 -0.04591416 0.12492237 -0.19343229

gru.weight_ih_l1 f4 [228, 76]
00000000: ea94 f23d 74a9 a8bd fa54 2b3d d621 9c3d
00000010: f225 c3bd d880 633d c8bd 2e3e 0a41 dc3d
00000020: 3df7 dfbd 8cc0 263d 88d4 8fbd c6ac 233d
00000030: 7667 e0bb a0b4 82bd 2fd3 a43d 4256 34be
00000040: 21d6 3dbb b81f 2e3e 78b8 9c3d 809b d7bd
00000050: 2e02 c4bd 761c bebd 6c61 ccbc 1013 173d
00000060: e24e 2b3d b071 0b3d cdd5 f1bc 5432 04bc
00000070: 8c1a 8ebb 585d 0cbe cbaf 2fbd f0ef d73c
00000080: f26b 79bd 422e 2bbe 481a b9bd c535 b53b
00000090: a7a5 9f3d 8922 363d 2607 e13c 4043 363e
000000a0: 7ea3 babc fed4 f5bd 7b58 2abe 5921 093e
000000b0: f261 d4bd 5109 c33d 4e06 00bc feaa 953d
000000c0: 9e5a 363e c979 98bc dd6a ba3d 22bd 693d
000000d0: 2df2 96bd 0d8e 6ebc d639 a73d 89d5 2abe
000000e0: 8ae5 4c3d dcb6 443d 4191 9dbc 8a5c 833d
000000f0: a5ac b9bc 3294 a33c 8db0 40bd 3f23 b5bc
00000100: dc9d 5e3d 3096 313d d2b9 9e3b a55d 0abe
00000110: ef37 f43d d0ff 013e 82c2 5abd 7395 a43d
00000120: 5510 d13c 9b19 a33d 9b9e fd3d f7f3 ebbd
00000130: 8396 d83d d50b 323e bb2c ff3d df33 593d
00000140: 8cc9 11be 778d 983d 14e3 a9bd b9d3 123e
00000150: bca1 4c3d e3d2 58bd 9aed 41bd ccf3 9dbe
00000160: e755 44bd b85a df3c 4fd8 91bd 80f2 5abd
00000170: 26e9 8ebe 3cb6 8ebd dc8e 253d 685c fcbd
00000180: c3b5 1abd 5a3c 85bd db2a f53c 7412 fe3d
00000190: 46c0 a5bd cea9 25bd 2dad efbd ad54 8d3e
000001a0: b06b efbd 5019 08bc ab53 57bd 493e b93d
000001b0: 86c9 88bd c64f b83b 1838 9e3d 7185 963d
000001c0: 5cd5 063d 5aad eebc d1d8 b9bc 4495 ab3d
000001d0: 0e65 2c3e f275 593d 3516 f63a a5a7 f5bd
000001e0: 82da 153e cf2b 993d c5a4 5f3d 1270 21be
000001f0: 2d21 85bc eb0f 35be 3bed ac3d f577 4abc
00000200: 9bad 913c f3ae 463d 2d08 043d fd29 513e
00000210: c34d d43d 1e68 a23d b092 a53d ec78 1c3c
00000220: 3025 723e 3765 493d 2306 6e3e 115d 433e
00000230: 2c2c 51be 28cd c03d 72b5 0cbe 84ee 23bd
00000240: ad1f d7bc 769e 043d 0057 c93d c032 6e3e
00000250: 9fc4 5fbe 0fc0 603c e28c c03d 4aed 33be
00000260: 1725 aebd 2ecb a93c b127 a13c 7777 98bd
00000270: 0f63 7bbd b6b9 0fbd fccd 79bd 1399 603d
00000280: aa58 f5bc 6445 e13d 5517 4fbe ea89 4ebe
00000290: b5b9 56bb ff1f fabd 66f9 4bbd 1350 64be
000002a0: 5095 3abe 82d1 0fbe e55b 95bc a519 e4bb
000002b0: d15b fbbc cb27 76bd 6ef2 4cbd afa5 1c3d
000002c0: 3b9d 103e 48ec 0f3d 0be6 75be 38f0 603e
000002d0: 4969 943d 1fff 6a3d 9615 ffbd 5f2b 0abe
000002e0: 38cb bcbd 4f15 4fbe e0ca 49bc fb1d cd3c
000002f0: 0255 65bd 0f58 0b3e b43b d93d 6155 fa3a
00000300: 27b6 7abd cb90 10bd 4f8f 90bc aa48 bfbd
00000310: 6f33 5e3c 5722 5dbe b219 a63b 86ce 2c3c
00000320: 2e88 973b 0dda 76be 0cd9 4cbd 7105 f9bd
00000330: 6cb1 6a3e 569f 0dbd 58f6 f2bd a3f8 093e
00000340: e332 3d3e be65 88be c6a7 113e 5a12 00bb
00000350: d215 47bc 2a72 73bc 0ce2 553e c321 c93c
00000360: 6a93 d3bd b1ef 1cbe 1b40 f23c 04ca 28bd
00000370: 2109 a0bc d968 e53c e545 3ebd f8e7 39bd
00000380: 7a02 36be cf19 b5bc 4ab7 aa3d 0bec a3bd
00000390: 4e6d 37bc 39ce f23d 9bc5 bdbb 0a03 bc3c
000003a0: adef 5ebe 4f7d 2d3e d954 333d be07 013d
000003b0: 94de 363e dfa8 aa3d 1bff 9fbe 3543 a3be
000003c0: fd15 ec3d 6a40 56be edf0 48bc 5fd2 0fbe
000003d0: 1ae8 a7bd 61dc 94be 9088 083c 2955 9d3d
000003e0: cd4d ef3d 1ad6 72be 9dc6 243e 6b51 92bd
000003f0: 22fc 063e c3b4 73bd 5b66 35be 9848 063e
0.11844809 -0.082354456 0.041829087 0.07623641 -0.09528722 0.055542797 0.17064583 0.10754593
-0.10935829 0.04071097 -0.07022959 0.03995969 -0.006848271 -0.06382108 0.080480926 -0.1761103
-0.0028966742 0.17004287 0.07652372 -0.10527706 -0.09570728 -0.09282772 -0.024948798 0.036883414
0.041823275 0.034043968 -0.029520893 -0.00806864 -0.0043366607 -0.13707483 -0.04289226 0.026359528
-0.06089396 -0.16716865 -0.09038216 0.0055300915 0.077952676 0.04446653 0.027469229 0.17799091
-0.022783037 -0.12003516 -0.16635315 0.13391627 -0.10370244 0.09523261 -0.007814003 0.07308005
0.17808005 -0.01861276 0.09102414 0.057065137 -0.0737041 -0.014560235 0.08165328 -0.1668302
0.050023593 0.04802595 -0.019234302 0.06414135 -0.022665331 0.019968126 -0.047043372 -0.022111533
0.054349765 0.04335612 0.004843929 -0.13512285 0.11924731 0.12695241 -0.053408153 0.08036318
0.025520483 0.07963868 0.12383767 -0.11521142 0.10575583 0.17387326 0.124597035 0.053027984
-0.1423704 0.07448857 -0.08295265 0.14338578 0.04995893 -0.052935492 -0.047345735 -0.30850065
-0.047933485 0.027264938 -0.07121336 -0.053453922 -0.27912253 -0.06968352 0.040419444 -0.123223126
-0.037770998 -0.06505652 0.029927662 0.124058634 -0.08093314 -0.04044514 -0.117029525 0.27603665
-0.11690462 -0.008306816 -0.052570026 0.09045083 -0.066790625 0.005624744 0.07725543 0.07349671
0.03291832 -0.029135395 -0.022686394 0.083780795 0.16835424 0.053090997 0.0018774929 -0.11994866
0.14634135 0.07479059 0.054600496 -0.15765408 -0.016251171 -0.17681853 0.084436856 -0.012357702
0.017782977 0.04850669 0.03223436 0.20426174 0.10366394 0.07930015 0.08084619 0.009550314
0.23646998 0.04916879 0.23244528 0.19078471 -0.20427006 0.094141304 -0.13741091 -0.040022388
-0.026260221 0.032377683 0.09831047 0.23261547 -0.21852349 0.013717665 0.09401871 -0.17570987
-0.08503168 0.020726766 0.019672247 -0.07444661 -0.061373767 -0.035089217 -0.060987458 0.054833483
-0.029949505 0.10999563 -0.20223744 -0.20169798 -0.0032764499 -0.12213134 -0.04979839 -0.22296171
-0.1822102 -0.14044765 -0.018232295 -0.006961065 -0.03068343 -0.060096543 -0.050035886 0.038243946
0.14122479 0.035137445 -0.24013536 0.21966636 0.07246644 0.05737221 -0.12455289 -0.13493107
-0.092184484 -0.20222972 -0.012316436 0.02503871 -0.055989273 0.1360781 0.106070906 0.0019098931
-0.06120887 -0.035294335 -0.01764646 -0.093400314 0.013562067 -0.21595131 0.005068981 0.010547286
0.004624388 -0.24106617 -0.05001168 -0.12159241 0.22919244 -0.034575783 -0.118633926 0.13473754
0.18476443 -0.26640123 0.14224157 -0.0019542188 -0.012151198 -0.014858762 0.20887011 0.024552232
-0.103308514 -0.1532581 0.029571583 -0.041208282 -0.019535603 0.028004097 -0.046453375 -0.04538724
-0.17774382 -0.022107033 0.08335741 -0.08004006 -0.011195494 0.1185574 -0.0057913787 0.022950668
-0.21771117 0.16942333 0.04378209 0.031501524 0.17858344 0.08332991 -0.31249318 -0.31887212
0.115276314 -0.2092301 -0.012264472 -0.14045094 -0.08198567 -0.29074386 0.00833334 0.07682259
0.11684761 -0.23714486 0.1609139 -0.071444355 0.13182119 -0.05949856 -0.17714827 0.1311363

gru.weight_hh_l1 f4 [228, 76]
00000000: a880 4ebe f4e9 443e a85d e23d 1416 71be
00000010: bbb5 b5bd 671b 6dbe 372d 063e 46d7 113d
00000020: 1985 2b3e a4a1 05bb 0578 63be 42e8 2abd
00000030: b9b1 673d 4fde c43d 9e03 433d 2fee 2ebd
00000040: 07f8 6f3d b3f1 693d c1f7 e13d 6e6e ab3d
00000050: c8fd bf3d 885b d13d 6866 6cbe a3a8 db3d
00000060: 81a0 3b3e 30bd d8bd b924 373d b202 d2bd
00000070: cbe4 fc3d 9336 21be 1fe5 1ebe af7e 60bd
00000080: 9771 28be bc41 5dbe b12c 24be aa86 a9bc
00000090: 4b8c 063e 1cf0 0fbe f75a 1cbe 237a 703d
000000a0: 97f3 483e a23d 9ebd a979 1e3e cd99 4c3e
000000b0: 1719 c5bd ea81 21be 155d d8bd 0975 0d3e
000000c0: 6885 333d 813a 7bbd 7cef 143e d8df 1b3e
000000d0: 7b93 113e 9131 953d a170 8abc fea0 003e
000000e0: 0dd9 73be addd bd3d c35e 22be 8a81 183d
000000f0: 8d7f f0bd edfe a93d 60f2 273e afac 52be
00000100: 360b cf3d 72e8 713d ef10 f13c a413 3d3e
00000110: c57e 5a3e 51fe 563d 633b 433d f1a9 1a3e
00000120: b90f 59bd fa08 743e 5fc3 e63c 0afb e43d
00000130: 1f12 1fbd e276 bc3c e505 263e 71b7 7dbe
00000140: e09f 213e 76b6 b63d 9085 f63b 97e2 5f3e
00000150: add3 d13d d056 23be 2a17 c73d 6dd6 c13d
00000160: 7347 16be 7e75 a1bd 289f 8ebd 060e d0bd
00000170: bca1 1e3d b060 52bb 4da5 e8bd eeaf d63d
00000180: 1027 ab3b 4a3f d33d b662 2f3c 5fc1 ad3c
00000190: f339 48bd 0fb5 4c3c 2184 443e c2d2 41be
000001a0: 6209 233c 50a3 353e 698d fd3d 1f40 97bc
000001b0: 6032 75bd 787c f13c 8785 80b9 9e82 193e
000001c0: 1655 cb3d cb6d 34be 0af4 183c b930 353c
000001d0: 4213 dcbd c587 d63d fdec b03a 8b45 2a3e
000001e0: bb08 5fbd 26bb 393d 3cb8 93bd 6cd7 0bbe
000001f0: bef6 27bd da46 2fbd 82ae 10bd 5e77 cdbd
00000200: 9caa 54be abe3 83bd dad4 85be db33 8b3b
00000210: b6a7 183e 8554 013e dfa1 333d 33c2 173d
00000220: 9597 dc3b 6aff ba3c a12a 1d3e 72e1 e63d
00000230: b3be 92bd c995 0cbe 4c3f 553e 1b68 583e
00000240: 0d67 343e ccbc 12bc e540 45be f749 7fbd
00000250: 2120 0a3e fc9b 5abd 8b92 53bd 1e97 51be
00000260: 18f6 59be c8df 8d3d 78ae fc3d 6860 81bd
00000270: c192 d2bd 48f4 69be 8d72 583e a0f3 b4bd
00000280: 8aa7 683d e52e 903d 9bce 69bd 35d7 003e
00000290: cd6f f23d 2122 843e 7ca3 983b 2b1f d5bd
000002a0: 9bf8 2a3c bd14 413e 0235 053e 6841 df3d
000002b0: 6d6d 283d b429 593e e2b3 d9bd 1771 b73d
000002c0: 7960 e53d e8c5 373d baa5 5dbe bd03 58be
000002d0: 8f7a 533e ec1d 45be 0a12 eebd 1fc7 003d
000002e0: 2444 61be f615 34be cc56 61be 425c 55be
000002f0: 6289 153e 5862 85be e33d ecbd b2ff 5a3e
00000300: 294c 093e ea16 0f3e 20f9 313e 0fde bbbd
00000310: c1b8 a7bd 460d f3bd 8f86 4dbe b852 29be
00000320: af81 093e ff4c 113d 119b 10be a1f1 613e
00000330: 790e 933d 2ec5 b73d 5e29 2f3d 47c7 313e
00000340: a2c1 88be b000 9d3d 74ee 17be db44 18be
00000350: d79e 63bd 99ba 06be 2ed5 4d3d c5fc fdbd
00000360: 60f4 ef3d ca85 0b3e 8e74 c03c 3172 a93d
00000370: 1983 6ebc 6bb2 d83b d688 913e 442c 113c
00000380: 32de 45be a684 283e 414c 4c3e 6151 7c3e
00000390: 36c8 b33c af45 65be ad5d 453e 33f3 88bd
000003a0: c437 d03d 946b 2f3d a7a9 083d 3e99 8f3d
000003b0: 7856 543e 5097 2cbe 0c9f f5bd 4456 a1bc
000003c0: 4e68 a1bd 3b81 943d d940 873d 670e 2dbd
000003d0: e2a0 94be 1259 a73d 2d11 363d d988 2bbd
000003e0: c06b 8b3c ebe6 e53c e6ce bc3d 770f a13d
000003f0: 7eb5 ee3d 14c5 d6bc 0d34 87bd 8fe6 26bd
-0.20166266 0.19229871 0.1105302 -0.23543578 -0.08872553 -0.23154984 0.13103186 0.03560569
0.16749991 -0.0020390535 -0.22213753 -0.041725405 0.056565974 0.096127145 0.04761087 -0.04270762
0.058586147 0.057115268 0.110335834 0.08370672 0.09374577 0.10222536 -0.2308594 0.10725524
0.18322946 -0.1058296 0.044712756 -0.1025442 0.12348326 -0.15743475 -0.1551709 -0.054808315
-0.16449581 -0.21607107 -0.16032673 -0.020694096 0.13139455 -0.14056438 -0.15269075 0.05871023
0.19624172 -0.07726599 0.15476097 0.19980545 -0.09623926 -0.15772215 -0.10564629 0.13814177
0.043828398 -0.06133509 0.14544481 0.15222108 0.14216416 0.07284845 -0.016899409 0.12561414
-0.23813267 0.09270797 -0.15856461 0.037232913 -0.117430784 0.08300576 0.16401052 -0.20573686
0.1010956 0.059059568 0.02942702 0.18464524 0.21337421 0.05248863 0.047664057 0.1510389
-0.05299351 0.2383155 0.028169332 0.111806944 -0.03883564 0.023005906 0.16213186 -0.24777009
0.15783644 0.089215204 0.007523246 0.21863781 0.10245452 -0.15951085 0.09721215 0.094647266
-0.14675693 -0.07883738 -0.069639504 -0.10158925 0.03872846 -0.0032101087 -0.113596536 0.10482775
0.0052231625 0.10314806 0.010704687 0.02121037 -0.04888339 0.01249434 0.19191028 -0.18928054
0.0099509675 0.1773808 0.123804875 -0.018463193 -0.059862494 0.029478297 -0.00024513548 0.14991233
0.09928338 -0.17620008 0.009335527 0.01105898 -0.10745861 0.10475115 0.0013498362 0.16628091
-0.054451685 0.045344494 -0.07212874 -0.13656396 -0.041006796 -0.04279218 -0.035322674 -0.10032533
-0.20768207 -0.064399086 -0.26138955 0.004248125 0.14907727 0.12629898 0.043855544 0.037050437
0.006731937 0.022826869 0.15348293 0.11273469 -0.07165279 -0.13729014 0.20824927 0.21133463
0.17617436 -0.0089561455 -0.19263037 -0.062326398 0.13488819 -0.053371415 -0.051653426 -0.20467803
-0.21285284 0.069274485 0.12337965 -0.06317216 -0.10281897 -0.22847092 0.21137448 -0.0883553
0.056800403 0.070401944 -0.0570818 0.12582095 0.118377306 0.25807288 0.0046581607 -0.104063354
0.010435249 0.18855567 0.13008502 0.10901147 0.04111998 0.21207315 -0.10630013 0.08957117
0.11200041 0.044866472 -0.21645251 -0.21095176 0.20652221 -0.19249696 -0.116245344 0.031439897
-0.2199865 -0.17586502 -0.22005767 -0.20835975 0.14603189 -0.26051593 -0.115352415 0.21386603
0.13407959 0.13973585 0.1738019 -0.09173214 -0.08189536 -0.11867766 -0.20070861 -0.16535461
0.13428377 0.03547382 -0.14121653 0.2206483 0.07180495 0.08973156 0.04276406 0.17361175
-0.2671023 0.07666147 -0.14837056 -0.14870016 -0.055571403 -0.13157119 0.050252132 -0.124017276
0.11716533 0.13625255 0.023493078 0.082737334 -0.014557623 0.006613066 0.2842471 0.008860651
-0.19323042 0.16456851 0.19950964 0.24640419 0.021946054 -0.22389863 0.19274016 -0.066870116
0.101668864 0.042827204 0.033364918 0.070116505 0.2073611 -0.16854596 -0.119932264 -0.019694455
-0.07881223 0.07251211 0.066041656 -0.042250063 -0.29028994 0.08171286 0.044449974 -0.041878555
0.017019153 0.028064212 0.0921915 0.07864278 0.11655711 -0.026217021 -0.06601725 -0.04074722

gru.bias_ih_l1 f4 [228]
00000000: 876c 5c3c ab85 103e f1b0 643e 3213 7b3d
00000010: c48f d93b 151a 04be abdf 8d3d 6c72 c43c
00000020: dabc dc3d 0506 ea3c 666f 05be 6399 0c3e
00000030: d3f0 0c3d 4aee b73d eec3 d43b 1dbb 8cbd
00000040: 9013 4f3e e3f5 9a3d adee cd3c 21e8 eabc
00000050: 5546 26be e4eb 5a3e 0f92 acbd 5fab fd3d
00000060: de02 a0bd 3bf0 e9bd ed4a 17be 8f43 8ebd
00000070: a168 923e 146b f6bd f0a7 f7bc ee4d 43bd
00000080: 339a 0a3e 833e 8e3d 5f57 5cbd 85d6 8e3d
00000090: efdf 1ebe 5068 24bd 2a36 163e 589c d33b
000000a0: cddc cdbd d64b ba3c eff7 f4bc 2594 ef3d
000000b0: ca18 783c 478c 1fbd 7524 333e 4d14 2d3d
000000c0: f823 3f3e 6d0e 733e 50fd 253e ab7c cc3d
000000d0: 39a0 813d e680 e0bd da5d 2e3e 3a14 bb3d
000000e0: 5f6b 83bb 8940 913b 9a30 fa3c b998 bdbd
000000f0: 7b59 b5bd 4d4c 4bbd 3ff4 8a3d 39ed 623b
00000100: 1fb1 b9bd 86c9 fc3c 04e3 823c 9755 b23d
00000110: ccd2 fd3c c458 c93d 0b29 1c3e 15b2 b8bc
00000120: cfcb 9c3d 6629 373d f27c e3bc b085 5cbe
00000130: 2424 d83d d518 303e 955d 5bbe a1fc 9ebe
00000140: 84af 22be af7f 553d d5b6 36be bc96 84be
00000150: 1d92 11bd 5af7 f6bd 40c3 6abe 3010 afbb
00000160: 64d2 05be 2a39 79bd 8486 1d3e 4330 d63d
00000170: aad6 bebe b454 d73b 9ebf 0c3d daa0 843d
00000180: a789 a3bd 6ea1 43bc 15f5 b7bd ae56 b7bc
00000190: 46b7 833d d43f b5bd 060b 35be 75fe aa3c
000001a0: 2a37 63be d26b 49be ee26 213e aa46 153d
000001b0: 98ec 37be a776 db3d bf40 bbbd fd39 66be
000001c0: b5d9 853d efac a9be c30f 09bd 5d47 bc3d
000001d0: 78a6 81bd 7c3e 35bd c430 ce3c 8abd b1be
000001e0: 0928 6e3d 83ea 04bd d3f0 1abe ef3b aebd
000001f0: fb24 993d c592 93be 9665 553c 1b0f 02bd
00000200: 5e92 cabe 3734 adbe 7657 acbe 1287 0b3d
00000210: fe07 d8bb b709 c03d 61b5 433e 6177 373d
00000220: 7f9b c63d 1420 2dbd 8008 48be baab 923c
00000230: 8bd6 11be e35f 9b3c 3413 85bd c7f3 b63d
00000240: 18e7 4cbd 4e96 83ba fbe5 c4be 4b8a abbd
00000250: 6421 8d3b e297 babb eeef 2abe 41f7 7bbc
00000260: 3f92 c4bd ee59 583e 11da a53e a724 adbe
00000270: fa93 32be 9d2b 33be 27b5 913e eefe 01be
00000280: 630b 043e 58ac 9fbe ea36 40be 92a0 4c3e
00000290: 5782 703e b578 133e 4925 173e 7864 8dbe
000002a0: 465d 3cbe 48b9 633e 24fa 523e b2ea 803e
000002b0: 097a 4cbe f59b d93e 21d4 c8bd 5c0d 8b3e
000002c0: caaf 0d3e 6016 a9be 456e 45be 63e2 18be
000002d0: ece3 b23e bbd4 4cbe 1365 c4bd 550c d5bc
000002e0: 075c efbc d85e 353c f1c3 5d3d 3fd4 e8bd
000002f0: b0d8 043e 8cc3 97be 8957 43be effa 8c3e
00000300: 4d0a 6e3e 154d 263e 2f86 483e 2aff 403e
00000310: 273c 79bd 7aa0 80bd c377 37be a410 aebe
00000320: 1957 1f3e 12f1 a4be e337 98be ccf8 153e
00000330: d899 cabd 9690 01bd 1f50 b3be 14ca 953d
00000340: e0ea 35be b0b1 653e 7628 57bd 9636 ebbd
00000350: 9e52 b4be 406b 4fbe 8d83 713e 7543 07be
00000360: c941 97bc 1f51 1d3e f16e ca3d d1f3 8b3e
00000370: 5c82 a43e d7fb 573e 65e3 d6bc 3d08 193e
00000380: 6581 813d 515b 813e 8ebd 4b3e f7bd 1bbe
0.013453609 0.1411349 0.22333123 0.061297603 0.0066394527 -0.12900575 0.06927427 0.023980342
0.10778208 0.028567323 -0.13030776 0.13730387 0.034409355 0.08980997 0.006493083 -0.068716265
0.20222306 0.075664304 0.025138224 -0.02867514 -0.16237767 0.21379048 -0.08426296 0.12386202
-0.07813047 -0.114227735 -0.14774676 -0.069464795 0.2859545 -0.12032142 -0.030231446 -0.04768174
0.13535385 0.06945517 -0.05379426 0.0697451 -0.15515111 -0.040138543 0.146691 0.0064578466
-0.1005188 0.02274124 -0.02990338 0.11698178 0.015142629 -0.03895214 0.17494376 0.04225569
0.18666065 0.23735972 0.16209912 0.09984716 0.06329388 -0.109620854 0.17027989 0.09134717
-0.0040106024 0.004432742 0.030540753 -0.09257645 -0.08854958 -0.049633313 0.067848675 0.003462626
-0.09066986 0.030857813 0.01597739 0.08707731 0.030984305 0.09831384 0.15250032 -0.022545854
0.07656061 0.044717215 -0.02776954 -0.21535373 0.10553768 0.17196973 -0.21422417 -0.31052116
-0.15887266 0.05212372 -0.17843182 -0.2589625 -0.035539735 -0.12058897 -0.22926044 -0.005342506
-0.13068539 -0.06084553 0.15383345 0.10458424 -0.3727315 0.0065713767 0.034362428 0.064759925
-0.079852395 -0.011940343 -0.089822926 -0.0223802 0.06431441 -0.08850065 -0.17679986 0.020873288
-0.22189012 -0.19670036 0.15737507 0.036444344 -0.17961347 0.107159905 -0.09143209 -0.22483058
0.06535665 -0.3313975 -0.033462297 0.09193299 -0.063305795 -0.044249043 0.025169738 -0.3471492
0.05814365 -0.03245021 -0.1513093 -0.08507525 0.074777566 -0.28822914 0.013024708 -0.031752687
-0.39564794 -0.338289 -0.33660477 0.03406436 -0.0065927496 0.09376853 0.1911216 0.044791583
0.09697627 -0.04226692 -0.19534492 0.017904151 -0.14241998 0.01896662 -0.06497803 0.089332156
-0.050025076 -0.0010039301 -0.3845671 -0.08375987 0.004306959 -0.0056943754 -0.16693088 -0.015378774
-0.09598207 0.21128055 0.32392934 -0.33817026 -0.17439261 -0.17497106 0.2845852 -0.12694904
0.12894969 -0.31186175 -0.18770948 0.19983128 0.2348722 0.14401515 0.14760317 -0.27615714
-0.18394956 0.22238648 0.20603234 0.25179058 -0.19968428 0.42501798 -0.098060854 0.2715863
0.1383659 -0.33024883 -0.19280346 -0.1493011 0.34939516 -0.20003025 -0.09589591 -0.026006857
-0.029218687 0.011069976 0.054141942 -0.11368608 0.12973285 -0.29641378 -0.19076361 0.27535197
0.23246117 0.16240342 0.19582437 0.18847337 -0.06084838 -0.062806085 -0.17916779 -0.3399707
0.15560569 -0.32215172 -0.29730138 0.1464569 -0.098926246 -0.03163203 -0.35022065 0.07313934
-0.17765379 0.22431064 -0.05252882 -0.11485021 -0.35219282 -0.20255756 0.23585339 -0.13209327
-0.018463986 0.15362976 0.09884442 0.27334455 0.32130706 0.21092163 -0.026231477 0.14944549
0.06323508 0.2526498 0.19896528 -0.15209185

gru.bias_hh_l1 f4 [228]
00000000: 26a3 89bd f3c4 e23d 23f0 303e 1550 083e
00000010: 0c8b 943c 6f55 25be 2146 abbc 6f4c 6bbd
00000020: ca58 273e 80ef 07be 9d04 933d e407 513d
00000030: 07cf 383d 68f5 203d b9e6 96bd 1de8 793d
00000040: c88e d13d ca76 053e d493 02bd 326b 17bd
00000050: 4473 1cbb 444d ef3d d1b4 64be 5556 aa3d
00000060: e17e 0d3c 6c47 9bbb 5f65 493c 02bc 933d
00000070: d9dc af3e a17b 123d 8dc3 24bc 1cc7 0dbe
00000080: b844 483d e44b 89bd d884 36bd 315f 1f3e
00000090: 70cb 203b 6e72 0ebd f26e 6bbc 6ba4 023d
000000a0: 988b 493d 0695 4c3d cfe8 d9bc bb0d 3ebc
000000b0: df9f 013e 4166 87bd 07bc 3f3e 439f 213e
000000c0: 84b0 133e 361e 9c3d def8 623e 484e 73bd
000000d0: 6102 163e b94b 4ebe 0b5e 883e 8e2e af3d
000000e0: b7d0 82bd b3e8 e83d 380d 413c de87 453d
000000f0: 9048 eabd c942 263d b49b 753d 5b58 593d
00000100: 31c8 2a3d 6b5e 2abd 7701 483d 7b43 5d3d
00000110: 697d 903d 8cb6 983c 328a 583e 27d7 183e
00000120: ee69 f53d 4269 71bd 4477 fbbc 7a60 09be
00000130: a548 d3bb 62ef c13c 6f19 78be e3df 32be
00000140: b3a3 5ebe 8df0 0dbe e54b 34be 9aa5 cdbe
00000150: 45b2 c6bd 5f21 65be dfb7 a0be 5af0 7a3d
00000160: 45fc e1bc f533 aa3d 533b b53d c434 1c3d
00000170: 1ab0 75be 8842 be3d 48b2 94bd d89a c33d
00000180: 6319 bdbd 2063 5bbe b16e 92be e75a 1bbd
00000190: 81f9 e4bc a27e 573d bf31 8bbe dcbb 4e3e
000001a0: f0c1 42be 4fea 29be 6760 573c 210d c63d
000001b0: e3ca 42be 2bfb 803d 5284 a0bd 116c 1cbe
000001c0: 5400 023e 65bb 46be 680f 8dbb 47d7 3c3e
000001d0: 04c3 d6bd ce9d 8d3a a281 a03c 6fca 83be
000001e0: 449a 24be c67a edbd 2d0f 27be cb82 a7bd
000001f0: ffa1 b7bd beb8 1bbe 8c42 16bd d073 38bd
00000200: 7fd8 b8be 0496 10be 263b 8dbe ec76 b23d
00000210: 4d24 f63d 642a e53d 573c 563e 7af2 943d
00000220: ea3a 523e 1fc1 9c3b f944 a0be e1b8 543d
00000230: 04e9 44bd 1559 2f3e 4683 293b 26da b7bd
00000240: 7178 31be df76 b63d 71e7 bbbe a027 cbbd
00000250: efe0 48be f281 85bb acd2 e5bd eee2 5b3d
00000260: e5d5 dbbd c465 363e db67 993e c0bc 1fbe
00000270: 85cb 01bd 7604 43bc 202b 8e3e 0334 80be
00000280: e85b 633e 4b20 18be 9824 90be 90fb 873e
00000290: 7dea 8c3e 075f 603e deeb c73d dcbb 1dbe
000002a0: 4a87 6ebd 060c 5c3e 7200 903c 3fac 553e
000002b0: cf22 b1bc 4734 903e d739 19be 32f2 773e
000002c0: 3ac8 913d 1fcb 7dbe d30a 5b3c b320 1abd
000002d0: 71d3 bb3e d17f b6bd f750 19be 0eb6 0bbe
000002e0: a5d8 35be ca7f 333d a482 b1bd a873 2a3d
000002f0: 36b4 e43d e702 96be 901e 64be 4876 4d3e
00000300: 11ed e23d 2732 2e3e cc44 173e a85d 163e
00000310: a5b4 a3bd 417d c7bc 668b 81be 2c99 8dbe
00000320: 022b e13e 5649 b5be 9978 c7be bdf2 913e
00000330: 365e 9bbd d5f1 e93c 7bd2 bbbe 1142 033e
00000340: e32f d3bd f475 7e3e 52d0 cabd 8111 48be
00000350: 3294 c8bd 0a77 7fbe f8ea fa3e 68ff 0cbe
00000360: ed8e 0b3e 07f3 073c 1a0b a5bc eac5 293e
00000370: 6bdd 893e 67a8 043e ee9c cabd 06b0 063e
00000380: 96df 4cbd d7cc 5f3e cecd 5d3e b638 0b3e
-0.06720571 0.11072721 0.17279105 0.13311799 0.018132709 -0.16145872 -0.020907464 -0.05744594
0.16342464 -0.13274956 0.07178614 0.051032916 0.04511931 0.039296538 -0.073682256 0.061012376
0.102323115 0.13033596 -0.03187926 -0.036967464 -0.0023872415 0.11684659 -0.22334601 0.08317248
0.008636207 -0.0047387388 0.012292235 0.07213594 0.3434818 0.035762433 -0.010056389 -0.13845485
0.04889366 -0.06703928 -0.044560283 0.15563656 0.002453532 -0.034777097 -0.014369713 0.031895082
0.049205393 0.049946807 -0.02660027 -0.011599953 0.12658642 -0.066113 0.1872407 0.1578341
0.14422804 0.0762295 0.22165248 -0.059400827 0.14649345 -0.20146073 0.2663425 0.085538015
-0.063874654 0.11372509 0.011782937 0.048225276 -0.114396214 0.040591035 0.059962943 0.053062778
0.041694824 -0.04159395 0.048829522 0.054019433 0.0705517 0.018641733 0.21146467 0.14925824
0.11983095 -0.058938272 -0.030696519 -0.13415709 -0.006447869 0.023673717 -0.24228452 -0.17468219
-0.21742134 -0.13861294 -0.17607076 -0.40165406 -0.09701971 -0.22376011 -0.31390283 0.061264373
-0.027586112 0.08310691 0.08849206 0.03813626 -0.23992959 0.092900336 -0.07260567 0.095510185
-0.09233358 -0.21424532 -0.28600076 -0.037928488 -0.027951004 0.052611 -0.2718639 0.2018885
-0.19019294 -0.16593288 0.013145543 0.09670473 -0.19022708 0.062979065 -0.07837738 -0.15275599
0.12695438 -0.19407423 -0.004304815 0.18441497 -0.10486415 0.0010804476 0.019593064 -0.25740382
-0.16074473 -0.11595683 -0.16314383 -0.08179244 -0.08966445 -0.15207192 -0.036684558 -0.045032322
-0.36102673 -0.14119726 -0.2758419 0.08714089 0.120186426 0.11189726 0.20921455 0.07272811
0.20530286 0.004783764 -0.31302622 0.051934127 -0.048073784 0.17123826 0.0025865599 -0.089771554
-0.17331101 0.089093916 -0.36700013 -0.09919667 -0.19617055 -0.0040743286 -0.11221823 0.053683214
-0.107341565 0.17812258 0.29962048 -0.15599346 -0.031688232 -0.011902919 0.27767277 -0.25039682
0.22203028 -0.14856069 -0.2815292 0.26559114 0.2752265 0.2191125 0.09761785 -0.15403694
-0.05823449 0.21488962 0.017578337 0.20866488 -0.021623043 0.28164884 -0.1496347 0.24213484
0.07118268 -0.24784516 0.01336928 -0.03762884 0.36684754 -0.08911098 -0.14972292 -0.13643667
-0.17758425 0.04382304 -0.08667496 0.041614205 0.11167185 -0.2929909 -0.22277284 0.20064652
0.11080373 0.17011319 0.14772338 0.14684165 -0.079934396 -0.024351718 -0.25301665 -0.27655923
0.43978125 -0.35407513 -0.38959196 0.28505507 -0.07586329 0.028557697 -0.3668402 0.12818171
-0.10311868 0.24849683 -0.09903015 -0.19537927 -0.09793891 -0.24947754 0.49007392 -0.13769305
0.1362874 0.008297688 -0.020146895 0.16579404 0.2692674 0.12954865 -0.09893213 0.13153085
-0.050017916 0.21855484 0.2166054 0.13595852

fc.weight f4 [1, 76]
00000000: 2590 76bf 791d 733f bad3 a53f 1a1f 8abf
00000010: 16d5 81bf f49b 79bf 945b 843f 3e5c 70bf
00000020: 176d 7a3f 2a76 ffbe b14e 8cbf 02f9 753f
00000030: 048d 803f 1d93 783f 52c2 703f a641 74bf
00000040: 5378 1a3f f7ca 753f d2b1 883f c073 843f
00000050: fa74 8fbf 57b8 8c3f c66a 70bf 84e4 873f
00000060: a094 843f 5e4f 73bf 3286 73bf 8815 7bbf
00000070: 5257 773f 045d 7cbf 52e0 7fbf dbf8 7fbf
00000080: 713a 89bf a5db 83bf e78b 87bf 5f5b 74bf
00000090: b112 7d3f 0307 a4bf b258 88bf ce40 753f
000000a0: 5313 883f a95e 873f 50cd 863f a8b6 833f
000000b0: 4d87 82bf 48e5 80bf 67e8 70bf 482e 81bf
000000c0: fce3 7f3f 8619 38bf 4776 75bf 82a7 7c3f
000000d0: a1b2 683f c6c8 833f 6cc3 8abf f6dd 773f
000000e0: 0b75 65bf d5f6 883f b382 88bf 904f 7bbf
000000f0: 6554 67bf a138 72bf 781a 923f a90f 87bf
00000100: 7022 833f f281 803f 232a a43f ac9a 7e3f
00000110: 223a 753f 1087 853f 0883 6f3f de5c 8abf
00000120: 1d50 81bf 1f25 7c3f 9cb9 9e3f 0e13 853f
-0.963137 0.94966847 1.2955239 -1.0790741 -1.0143154 -0.9750359 1.0340447 -0.9389075
0.9782271 -0.4989484 -1.0961515 0.9608308 1.0043035 0.9709948 0.9404651 -0.9541267
0.6033985 0.96012825 1.0679266 1.0347824 -1.1207573 1.0993756 -0.93912923 1.0616612
1.0357857 -0.9504298 -0.9512664 -0.9807973 0.96617615 -0.9857943 -0.9995166 -0.999891
-1.072096 -1.0301405 -1.058957 -0.9545192 0.98856646 -1.281464 -1.0652068 0.9580201
1.0630897 1.0575763 1.0531406 1.0290117 -1.019754 -1.0069971 -0.9410462 -1.0092249
0.9995725 -0.71913946 -0.958836 0.98693097 0.90897566 1.0295646 -1.0840888 0.9682306
-0.8963172 1.0700327 -1.0664886 -0.9816828 -0.9036315 -0.9461766 1.1414328 -1.0551654
1.0244884 1.0039656 1.2825359 0.9945476 0.9579183 1.0431843 0.9355931 -1.0809591
-1.0102574 0.9849414 1.2400393 1.039644
