models/gru_trial_3.pth (torch, 167984 bytes, 9 tensors)

gru.weight_ih_l0 f4 [180, 44]
00000000: 1074 12be ac45 623e d66f 8cbd f0fa 1abe
00000010: b21a 7cbe 5ed6 8fbd c620 a53d 9359 ba3d
00000020: 4272 983b 0e31 a43d ffd8 533e b73c 41be
00000030: ab91 963d 0569 4c3e d930 62bc 48d1 55bd
00000040: 4955 5bbe 3482 c73e fbea 4f3e ae16 fdbc
00000050: 7d4f 9bbd ecae 11be 508b f8bd 73b4 033d
00000060: db5e c2bd 00c7 2cbe 322e 67be 2c6d 02bd
00000070: 1edb d03d 44e0 183d 97a2 87bd c1c8 59be
00000080: da0b 683d 2f17 3fbd e552 063d e582 413e
00000090: ba24 25bd 43eb 8f3e 1b48 60be c576 77bd
000000a0: 2780 7d3c 3532 c93d 5b1c 9b3a 043d bbbd
000000b0: 1d08 40be 8fb1 0ebe 0c77 58be c212 133e
000000c0: 4162 70be 44e2 10be b77a d43d 44ff 59be
000000d0: 5af4 2c3e e6ba c2bc c9f4 733e 71bc 7b3b
000000e0: b2ad 9abd db2f debc fec1 31bd 8863 113e
000000f0: bee3 3dbe 9d9c 083d 7299 b0ba 3ae2 9fbb
00000100: ba51 37be 3088 6abb 2f4c 0d3d d17c ab3d
00000110: 0b41 093e b26e 173e 7782 48bc fb62 d1bc
00000120: 1d72 593d 1fc1 5e3e 7d09 283d 0164 2fbe
00000130: 6bf7 103e dcad 2ebe b0dd aa3c 054d 2e3e
00000140: 1e51 9abe 38ed eb3c c2b4 72bd 318c 3b3d
00000150: 01db 723c f01c f53d 4e3b bbbc edf6 eb3d
00000160: 9b79 893d ba27 9a3c c37b 40bb 59e6 ec3d
00000170: 2670 8fbe 071c 47be 1421 e33d 32c5 06bd
00000180: b9f2 d6bd 5584 693e 47cf 763e afb2 cebd
00000190: 184b 61bd bb8a 38bd a218 9a3d d8a2 5a3e
000001a0: 4521 c23d d675 5ebd a86c 813d 5f0a a63e
000001b0: 1490 16bd c937 99bd c8a1 0bbe dc67 09be
000001c0: ddea ac3e 9fcb 31be f824 00bb da56 c0bd
000001d0: b274 8dbb bc5f 823e 40d5 01be e429 62be
000001e0: 5a5b 713e 6136 a1be 669e d13d 2ba4 153d
000001f0: 1627 08be 24cd 263e 8478 4fbd 0a8c af3e
00000200: 62eb 38bd c0d7 b8be ee7f e4bd 0ba5 d73e
00000210: 1157 8f3e 5f2c 4fbd a55a c03d a16e 5dbd
00000220: effb 653d 1168 b3bd cb6f 24bd 490b d43d
00000230: 701a 9dbd 4af7 04ba df9a ab3c 28ae 01be
00000240: 4eae 6f3c a73e 42be 8b92 133e 5e6b 73bd
00000250: 89d2 2fbe 03b4 01be 99fb 843c b438 093e
00000260: 45d9 903c 2705 0c3e 6c0a e3bd 8b7c e03d
00000270: 4bc9 bb3d f195 8e3d 27b9 113e 1e25 c23a
00000280: c0a6 71bd eeb3 62bc 9e23 23be 573f 35bd
00000290: c424 4dbd 87cf 13be 4586 66bc 87a1 d73d
000002a0: 7089 c43b 4f08 513e 57c6 fabc 90f8 f43d
000002b0: e955 43bd 705c 8fbd 96a7 853d 4560 39be
000002c0: 4188 533e 6d2d 993d a4dd a53c 7ef0 84bd
000002d0: 5f04 0d3e 7717 5b3d 9850 c43c 1c9c 52bc
000002e0: 8880 2b3e 7148 633e 89b3 e2bc ef08 05be
000002f0: 47e8 683e eb12 33be bb99 b53d 26b4 ed3d
00000300: b22e bf3e a8d6 10be 78ab 183e 3a4e 61bd
00000310: 74d1 f83d be3e ee3d 1a84 e2bd afa5 13be
00000320: 4bfe 603b 007b 463e bd62 68be f216 333e
00000330: bdd1 e63b 6691 f6bd 4e3c 1ebe 2bb0 cfbd
00000340: 5f72 bd3b a91f 18be ff80 15bd a836 c0bd
00000350: ba0a 243d 6e37 053e f642 6b3d d089 7b3e
00000360: f820 cbbe 2d0b 49be ec65 5e3e fce3 aebd
00000370: be6d 483e d8e7 debd e386 223e 6389 bb3d
00000380: 8a5a 90bb a2f6 d3bc 0c5a 8e3e 2273 e23d
00000390: 5e8e 113e 5674 483e 6209 15bd e962 583c
000003a0: bda1 96bb b1c7 f2bd 8a7e 0cbd 6546 3a3e
000003b0: b932 b8bd 4903 043e 93d8 623e 71c2 723e
000003c0: 92fe 0e3d 719f 4d3e bf19 4ebd ab3a b53d
000003d0: 00df 0d3e 22f8 d23c b153 7a3d fe3b 8dbe
000003e0: 31e0 133d 9f3c d83d b4ec e3bd 6bd4 e4bd
000003f0: b5f0 85bd 5023 4abe 5ca8 c63b 1a68 a63e
-0.14302087 0.2209689 -0.068572685 -0.15134788 -0.24619558 -0.07023309 0.08062892 0.09099116
0.0046522925 0.08017169 0.20688246 -0.18870817 0.07352003 0.19961937 -0.0138055915 -0.05220154
-0.21419252 0.38966525 0.20304482 -0.030894604 -0.075835206 -0.14226884 -0.12135947 0.03215451
-0.094907485 -0.16872787 -0.22576216 -0.031842396 0.10198043 0.03732325 -0.066228084 -0.21267988
0.056651928 -0.04665297 0.032793898 0.18897589 -0.04031823 0.28109178 -0.21902506 -0.060416
0.015472448 0.09824029 0.0011834012 -0.09142497 -0.18753095 -0.1393492 -0.21139163 0.14362624
-0.23474981 -0.14148813 0.103749685 -0.21288782 0.16890088 -0.02377076 0.23823847 0.003841188
-0.07552661 -0.027122429 -0.043397896 0.14198124 -0.18543908 0.033352483 -0.0013473465 -0.004879263
-0.1790227 -0.003578674 0.034496482 0.08373416 0.13403718 0.1478832 -0.0122381365 -0.025559893
0.053087343 0.21753357 0.041024674 -0.17127992 0.14156882 -0.1705851 0.020857662 0.17021568
-0.30140013 0.028799638 -0.059254415 0.045787994 0.014822722 0.1196841 -0.022855427 0.11521707
0.067126475 0.018817771 -0.0029370643 0.11567373 -0.2801525 -0.19444285 0.110902935 -0.032902904
-0.104955144 0.22804387 0.24102508 -0.10092675 -0.055003256 -0.04505418 0.075242296 0.21351182
0.09479002 -0.054311596 0.06319553 0.32429788 -0.036758497 -0.07481343 -0.13635933 -0.13418525
0.33772936 -0.17362832 -0.0019553285 -0.093915656 -0.0043168897 0.25463665 -0.12679005 -0.22086293
0.23570004 -0.314868 0.1023529 0.036533516 -0.1329616 0.16289192 -0.050652042 0.3428653
-0.045146354 -0.36102104 -0.11157213 0.42118105 0.27996114 -0.050579425 0.09392289 -0.054060582
0.056148466 -0.087600835 -0.040145677 0.10353715 -0.07671058 -0.00050722493 0.020947872 -0.12664092
0.01462896 -0.18969212 0.1441137 -0.059428565 -0.17170157 -0.12666325 0.016233252 0.13400537
0.017681727 0.1367384 -0.11085972 0.10961255 0.09169253 0.06962193 0.14230786 0.0014812087
-0.058996916 -0.013836844 -0.15931556 -0.04424986 -0.05008389 -0.14434634 -0.014070098 0.10528856
0.005997829 0.20413326 -0.030612154 0.11961472 -0.047689352 -0.07000053 0.06526105 -0.1810313
0.20657445 0.074793674 0.020247288 -0.06491183 0.13771199 0.053489175 0.023964211 -0.012854602
0.1674825 0.22195603 -0.0276735 -0.12991689 0.22744857 -0.17487685 0.088672124 0.11606626
0.37340313 -0.14144385 0.1490916 -0.055006243 0.12149325 0.11633061 -0.110603526 -0.14418672
0.0034331258 0.19382858 -0.22693916 0.17489222 0.0070440457 -0.12039451 -0.15452692 -0.10141023
0.0057814564 -0.14855827 -0.036499973 -0.09385425 0.040049292 0.13009426 0.057436906 0.2456429
-0.3967359 -0.1963317 0.21718568 -0.08539578 0.19573113 -0.108840644 0.15871768 0.09157064
-0.0044053243 -0.02587444 0.27803075 0.11057116 0.14214465 0.19575629 -0.0363859 0.013207176
-0.0045969174 -0.11854494 -0.034300365 0.18190916 -0.089940496 0.12891878 0.22152929 0.23706986
0.034910746 0.20080353 -0.050317522 0.08849081 0.13854599 0.025753085 0.06111497 -0.27584833
0.036102477 0.105584376 -0.11129132 -0.11173328 -0.06540052 -0.19740033 0.0060625505 0.32501298

gru.weight_hh_l0 f4 [180, 60]
00000000: 71f7 28be f1c2 c1bd 2109 7d3c 985a 12bd
00000010: 0f37 63be 59f3 d23d fc44 ec3d 1726 cb3d
00000020: 9095 cebd bd91 05be 47ef b33d c0c8 06bd
00000030: 21a8 f3bd e704 3d3c 148e b43e 0001 29bc
00000040: 2e08 a0bd 3d34 55bd 6714 17bd d6ac 4c3e
00000050: cdce 44bd 9735 593e 141f fa3c 3be3 95be
00000060: 4ab1 27be 78f9 2c3d e872 39be 6660 bd3d
00000070: f2aa 343e 001a c8be 3651 80be 8de8 41be
00000080: b40a 7b3e 0101 1dbe 9439 803d 14b2 053c
00000090: 543e 0e3d 93f5 67be 1f3e 333e e568 5f3e
000000a0: 16d0 8b3d 499a 96be 25cd c93c 164f 20be
000000b0: edee ec3d d436 23be b8db 753e e9c9 663d
000000c0: 87b4 333e d4e7 813e 10e3 35bc de7a 16be
000000d0: abc4 e0bc 0106 563d 1608 b2bd 8d47 cabd
000000e0: d6be a2be 2789 ad3d fcff b93d 980e 093d
000000f0: 9502 b9bc 0102 2fbd 44c6 25be fd83 023d
00000100: b80e 9cbe 76b0 4a3e e6bc 293e 6fa1 183e
00000110: da15 22be 5521 4fbe ad16 2a3e 10a1 103b
00000120: e655 d7bc 6430 3c3d da7e 603e c85b 9c3d
00000130: 8c88 78bd 2b54 c7bd b904 ffbc 4a4e 7bbe
00000140: 796b 1cbe 2fd1 e13d d9a7 643e 29d6 17be
00000150: 9278 46bd 5201 5cbe 7635 0fbe 58e0 d13c
00000160: f790 813d 5a33 7fbd 5d3e d03d bde3 4cbe
00000170: d545 6f3e d33e 5dbe 3e8d cdbd 7bfe ae3d
00000180: 3a4a 3d3e a74f 27be 4334 8e3d e4f6 893e
00000190: be75 10be 7e51 bfbe e9c5 48be 23a8 9abe
000001a0: 207f babd 06cd 11bd 2a83 903e 62a9 29be
000001b0: ea0a a03e ddd5 b13d 82f1 9ebd 1719 46be
000001c0: 865b a03d 30f7 9b3c 698a 7dbe 2d89 18be
000001d0: 558b 60be 6607 e13d 4c7f 113c 75f0 9cbd
000001e0: 34cc b43e 76b4 2cbd 4166 05be 2d62 5abc
000001f0: 06ca 05bd c24f 073e 2d86 003e 2d98 d3bd
00000200: 2c64 043c cefe 263d 48be 9ebd c061 81bd
00000210: f168 abbd c42b 863e de82 d63d 68b1 e93d
00000220: 9e69 47be aad3 3fbe d3a6 58bd f767 80be
00000230: 67d1 bdbc b97f f03d 3467 f13c 2d9d d7bd
00000240: 233f 8dbe a68b 583d 8ab1 96bd 3e47 5b3e
00000250: 9288 833d 5bfa d8bd f1d1 17be 924f 9ebd
00000260: ac7d 403e fdcb f1ba f04b 383e 8284 033e
00000270: cd28 d8bd d664 83bc bd00 983d 4a7b 17be
00000280: 7f30 37be 22ae 99bd bb17 a1bd 5d02 39bb
00000290: bc19 6abe 70f5 9abc 9504 363a a8f2 ed3c
000002a0: 1e93 213d 513d e83d 40ac 27be 4cf3 c9bd
000002b0: bd70 9dbe 73be 02be c0e2 43be 1b5c 073e
000002c0: 3110 cfbd 17fe 18be 9499 4a3e 2e2a 563e
000002d0: 80b3 da3d e280 a83d 33f1 03be 0823 5c3d
000002e0: 315a 1ebe 763b ef3d 87e3 613d ba1c d3ba
000002f0: a37a 6fbe 1986 9c3e a021 92be e203 563d
00000300: 224a 2a3e d3f8 69be 49e4 00bd 0da0 5c3b
00000310: 3fd9 12be f030 8ebe f909 803d 7112 20be
00000320: 7a4f f13d 56bd 7abb ba6e bfbd 85c4 5e3d
00000330: 1692 923d 9397 1c3e f0e4 54bd dc35 1ebe
00000340: 1d5f 813d 2972 b23e aa78 9b3d f4e4 ad3d
00000350: 489d bdbd 41f5 e13d e195 80bc 5f06 5e3d
00000360: 7d0b 33be fdb3 a03c f80d 32bd 7d04 93ba
00000370: e55a eebb f329 f9bd 7864 073e 9d28 8d3e
00000380: e7b8 b1bd 491a 5cbe e0b4 0e3d 1dec 44bd
00000390: 2199 4f3d 61cf 4bbe 756a c9bd 1d9e 193e
000003a0: a1e9 913e 1c20 b13e cb53 d7bc 808d 893e
000003b0: f5b7 3fbe bc2a 1e3e e9c7 3b3e 760d 35bd
000003c0: f101 263e 5582 d83d 7292 1cbe 1c57 4e3d
000003d0: 5ad7 54be fe3e 223e 2383 083e c889 5cbd
000003e0: 323f 1fbe 99e2 863d c662 a1bd da0b ae3e
000003f0: 024b 61be 46b5 9d3d c439 a63e c273 9e3d
-0.16500641 -0.0946101 0.015444071 -0.03573093 -0.22188972 0.10300321 0.11536595 0.099193744
-0.100871205 -0.13043876 0.08785873 -0.032906294 -0.118973024 0.011536813 0.35264647 -0.01031518
-0.0781406 -0.05205177 -0.03688469 0.19987807 -0.048048783 0.21211849 0.030532397 -0.29274926
-0.16376224 0.0422301 -0.1811024 0.09246902 0.17643335 -0.39082336 -0.2506196 -0.18936367
0.24515802 -0.15332414 0.06260982 0.008160133 0.03472741 -0.22652273 0.17504166 0.21817358
0.068267986 -0.29414585 0.024633953 -0.15655169 0.11569009 -0.15938884 0.24009597 0.0563449
0.17549334 0.25372183 -0.011101499 -0.14695308 -0.027437529 0.05225182 -0.086929485 -0.098769285
-0.3178622 0.08473425 0.09082028 0.033461183 -0.022584239 -0.04272652 -0.16188914 0.031864155
-0.3047998 0.19793877 0.16575965 0.14905332 -0.15828648 -0.20227559 0.16610213 0.0022068657
-0.026286077 0.045944586 0.2192339 0.076346934 -0.060677096 -0.09732851 -0.031130182 -0.24541584
-0.15275373 0.11026227 0.22329654 -0.1482779 -0.04845483 -0.21484879 -0.13985237 0.02561967
0.06326478 -0.062304832 0.10168145 -0.2000875 0.23366483 -0.21605997 -0.100367054 0.08544632
0.18485346 -0.16338979 0.06943562 0.26946175 -0.14107415 -0.3736686 -0.19606747 -0.30206403
-0.091062784 -0.035595916 0.2822507 -0.1656852 0.31258327 0.08683369 -0.07760908 -0.19345509
0.07829957 0.019038767 -0.2475983 -0.14896078 -0.21928151 0.10987739 0.008880448 -0.07663051
0.35312045 -0.04216429 -0.13027288 -0.013329071 -0.032663368 0.13214019 0.12551184 -0.103317596
0.008080523 0.040770344 -0.07751137 -0.063174725 -0.08369625 0.26205266 0.1047418 0.11410791
-0.19473884 -0.18733087 -0.05289347 -0.2507932 -0.02317114 0.11743111 0.029468156 -0.10528026
-0.27587232 0.052867554 -0.07358082 0.21413895 0.06422533 -0.105946265 -0.1482618 -0.077300206
0.1879794 -0.0018447634 0.17997718 0.12843516 -0.10554657 -0.016039293 0.07422016 -0.14793125
-0.17889594 -0.07503916 -0.07865854 -0.0028230168 -0.2286138 -0.018915862 0.0006943432 0.029046372
0.039446943 0.1133982 -0.16374302 -0.09860858 -0.30750075 -0.12767963 -0.19129467 0.13218729
-0.1011051 -0.14940678 0.19785148 0.20914528 0.10678768 0.082277074 -0.12884979 0.053744346
-0.15464093 0.11681263 0.055148628 -0.0016106584 -0.23386626 0.30571058 -0.2854128 0.052249797
0.16629842 -0.22848825 -0.03146771 0.0033664734 -0.14340685 -0.2777171 0.06251902 -0.15632035
0.11782737 -0.0038259826 -0.09347291 0.054386634 0.0715677 0.15292196 -0.051976144 -0.15450233
0.063169695 0.34852722 0.07591374 0.08490935 -0.09258515 0.110331066 -0.015696468 0.054205295
-0.17484851 0.019617075 -0.043470353 -0.0011216548 -0.007274019 -0.12166204 0.1322192 0.27570048
-0.086778454 -0.21494402 0.034840465 -0.048076738 0.050683144 -0.19903328 -0.09834758 0.15001722
0.28498557 0.3459481 -0.026285073 0.26865768 -0.18722518 0.1544599 0.18337978 -0.04420229
0.16211678 0.10571734 -0.1529024 0.050376043 -0.20785275 0.15844342 0.13331275 -0.053842336
-0.15551451 0.06586189 -0.07880168 0.33993417 -0.2200127 0.07700591 0.32465947 0.07736923

gru.bias_ih_l0 f4 [180]
00000000: 9319 24be 3391 603d 9e2f 073e f0af 1fbe
00000010: 684a eabd c1d0 843d a586 82be 1d56 8abd
00000020: 6de0 b93c f900 de3d cb17 883d c2f7 233c
00000030: ee11 d23d d267 cb3c c238 a3bb 5927 783d
00000040: c36d d53d 8e72 6a3d 40b2 8fbe 3944 2cbd
00000050: a282 64be 441f fcbd c717 4a3d 5aa1 b0bd
00000060: 7060 0ebe b3fb 1fbe d02f 033e 6c3e cb3d
00000070: 712b be3c 1256 183e 7a07 98bd 18d9 0f3e
00000080: e388 5ebc b930 7fbd 0ba0 413e 4122 3d3d
00000090: d323 ae3d ae3d 7bbd 99e2 5e3c 2b23 9cbd
000000a0: c623 e3bd 902d 63bd 58f4 0bbd 3b1d d8bc
000000b0: 7dfa 2cbe bfed 00be 0d5b 13be ca9e 663d
000000c0: a65c eabd 22e7 84bc 557b 50be 149b 2abe
000000d0: e4f6 f7bd a9b4 afbd 9d02 ba3d 4006 5fbe
000000e0: e29b ff3c 4677 713d a6ec 72bd 7829 803d
000000f0: 7a67 753e 2d48 943d c6a2 63bd da2d 373e
00000100: 9c70 9fbe d198 943e fe9a b9be 6d7c c3be
00000110: 4aaf a83e 0054 a83d 8dac f93d 4216 083e
00000120: fd4b 79be a9d5 b3be 03c1 9c3e 7670 6bbe
00000130: 1e32 393d bbfd 823e df8e 403e c323 933e
00000140: 4bcf 4e3e b820 ccbe eb95 2abe 1891 0f3e
00000150: 7432 0ebf 2db8 da3e a597 fbbd e335 b3be
00000160: 9bca 8cbe b270 4cbc dcfb 6cbc e5bf 6f3e
00000170: 7151 53be 898f b43d 9ea1 42bd bfc6 5dbe
00000180: d3ee c73c 126c 0b3e cc59 1c3e 60ac 283e
00000190: 21e0 e4bd 1850 633e aa40 d3bd eabf 06be
000001a0: 9085 e43b 0b7d 833e 6e0d 98be 7414 bebe
000001b0: 0058 abbe a663 f0be d690 4c3e f767 abbe
000001c0: 25e1 323d f8ce ee3d 6091 d0bd 7dd6 0abc
000001d0: 47cc 91bd 6c5f cb3e 7aa0 883e 078f 833d
000001e0: 4631 a5be 486c 84be b618 b53b 0bd6 1a3e
000001f0: 0cbb 90be 06d2 213e f1d8 8b3e 75c1 9f3e
00000200: 8297 27be f593 41be d8a2 9c3e b142 d1bc
00000210: 7643 07be 5cbe 94bc f69b b53d b985 6c3e
00000220: 3a0f 0f3c e06f 173e 2504 023e ef90 fc3d
00000230: 153c 8bbe 89fa 1abe 8182 6d3e 2a92 20be
00000240: 9940 a2bd 8be1 74be 13b3 8abe 0e1e 093e
00000250: 396d 7f3e cfc0 13be 00d4 a63e 093a a0bd
00000260: 9626 223e 3d44 923d fcef aebd 5c40 cd3d
00000270: 4346 283e 5b31 6cbe 4e9d b93c 5673 b6bc
00000280: b543 323e 24f0 37bd d71f b2be a78e 41be
00000290: 043b 2cbd 5fd4 1d3e e0ce 383e 421d 8fbe
000002a0: 18ce 393e 77f6 b6bc c471 92bd 52cc 6c3d
000002b0: adaf d4bb e686 61be 8698 24be 3cff 42be
000002c0: 2ce2 b33d 9d62 a5bc d449 87be d2ec 3ebd
-0.16025381 0.054825973 0.13201758 -0.15594459 -0.11439973 0.06485129 -0.2549335 -0.06754706
0.022690022 0.10840029 0.06645163 0.010007801 0.10257326 0.024829779 -0.0049811313 0.0605844
0.10421326 0.057238154 -0.2806568 -0.04205725 -0.22315457 -0.12310651 0.049339082 -0.08624525
-0.13903975 -0.1562336 0.12811208 0.099240154 0.023214074 0.14876583 -0.07423301 0.14047658
-0.013582441 -0.062302325 0.18908708 0.046175245 0.08502927 -0.06133812 0.01360383 -0.07623895
-0.110908076 -0.055463374 -0.03416857 -0.026381126 -0.16892429 -0.12590693 -0.14390202 0.056303777
-0.114434525 -0.016223494 -0.20359547 -0.1666072 -0.121076375 -0.0857938 0.0908253 -0.21779728
0.03120226 0.05895164 -0.059307717 0.062579095 0.23965254 0.07240329 -0.055575155 0.17888585
-0.31140602 0.2902284 -0.36251062 -0.38180867 0.32946235 0.08219147 0.121911146 0.1328974
-0.24345393 -0.35123947 0.30616006 -0.22992119 0.04521381 0.25584206 0.18804501 0.28738222
0.20196263 -0.39868712 -0.16658752 0.14020193 -0.55545735 0.4271864 -0.12284783 -0.3500205
-0.27498326 -0.0124780405 -0.014464345 0.23413046 -0.20636536 0.0881644 -0.04751741 -0.21657847
0.024405872 0.13615444 0.1526863 0.16472006 -0.11175562 0.22198522 -0.10315068 -0.13159147
0.0069739297 0.25681338 -0.29697746 -0.3712498 -0.33465576 -0.46951026 0.19977126 -0.33477756
0.043671746 0.1166057 -0.10183978 -0.00847399 -0.07119041 0.3972124 0.26684934 0.06423765
-0.32264155 -0.25863862 0.0055266274 0.15120713 -0.28267705 0.15802774 0.2731395 0.31202284
-0.1636639 -0.18904097 0.3059299 -0.025544496 -0.13209328 -0.018157177 0.08867638 0.23097886
0.008731658 0.1478877 0.12696894 0.123323314 -0.27194276 -0.15134634 0.23194315 -0.15680757
-0.07922477 -0.23914163 -0.27089748 0.13390371 0.24944009 -0.1442902 0.32583618 -0.07823569
0.15835032 0.07141922 -0.08541867 0.10022041 0.16433053 -0.23065703 0.022658017 -0.022271793
0.1740864 -0.04490675 -0.34789917 -0.18902074 -0.04204847 0.15413044 0.18047667 -0.2795201
0.18145025 -0.02233432 -0.07150605 0.057812043 -0.0064906687 -0.22024116 -0.16073808 -0.19042677
0.08783373 -0.020188624 -0.26423514 -0.04661257

gru.bias_hh_l0 f4 [180]
00000000: 5bb2 e3bd 4f1a 183d fe28 c1bc c53c d9bd
00000010: 9bd1 bfbd 83ba 0dbe ce0c 0abd ec1d bfbd
00000020: 3a4a 063e 1d09 373d 978d 893d 460a cc3c
00000030: 22e7 b7bd b34e fb3c 687a eaba d042 b4bd
00000040: ef25 d43d 3238 aabd b17f 9abe 5d35 a2bb
00000050: a585 19be abb2 a3bc 946a 7cbd 31b7 0f3e
00000060: defd bc3c d0a7 30be a98c 13bd 92ee 08be
00000070: 2ed9 9abd 2d55 063e fe65 5b3d 6d40 643b
00000080: afa3 603d 0799 57be b774 483d 2f11 e13d
00000090: 7a5a 723d 94f8 84be 186c 9f3d db5d 873c
000000a0: 3f24 61be 89c6 ab3d a637 90bd 549f 2d3e
000000b0: 72fb e0bd 325f c9bc 46e0 bdbc 534b 263d
000000c0: 5ba7 b5bd acf6 20be 8946 07be ab9f 2dbe
000000d0: 2f77 0cbe 0a12 bcbb 2522 343e 03d8 ccbd
000000e0: a2e0 e63d 074c 03bd 9f83 863d e4ba f13d
000000f0: 1216 873e 6ff1 eabd 938e 153d fc01 873b
00000100: 8064 17be 6787 463e cb49 54be d320 57be
00000110: 6ac1 7e3e 195c 583e 2e56 6e3d c675 df3c
00000120: 9044 0cbe a1e3 abbe ce80 903e 90ee 8cbd
00000130: 9785 8c3c 5b86 443e 74be 8e3d 43dd fe3d
00000140: a2f6 1d3c e4f9 2dbe f320 2e3d c73a 44bd
00000150: b7d4 e5be 0d8f db3e 4352 38be 1a0b b9be
00000160: 3fde adbe 222e 3d3e fb0f 26bc 1419 953e
00000170: 3aee b3be d646 1bbc 7445 a5bd 9a02 fcbd
00000180: 3e40 8d3e 45c7 c33d 133a 343e e659 a83d
00000190: c8d5 91bc 351a b53e 988e cfbd a63a 0abd
000001a0: 77b2 5f3d b7f1 1c3e 3ad9 86be 913b 57be
000001b0: f8c1 38be 0be0 7fbe 2652 953e 79a7 07bf
000001c0: ba2f a1bd 6de6 593c c40b 5fbe aae6 f83d
000001d0: dbaa ee3d 9fb5 993e 3982 023e 4a5a 0e3e
000001e0: 1e41 44bd fcda 40be 962f 13be 0db5 28bd
000001f0: ac52 31be 52a0 f53b 0e9f 40bb 12c1 ab3d
00000200: e8f6 35be 88b7 84be cc07 7c3e cf85 02bd
00000210: a82b 6ebe b22b 303e 00dd 333d b729 713e
00000220: 7241 463d e230 403e 7c52 7cbd 6adf c43d
00000230: 1cb5 90be 09e0 9fbd d325 323e 1b97 7dbe
00000240: 242f 76bc 41d9 9abe 8484 55be 0445 533e
00000250: 1c71 4e3e cc16 25be d520 eb3d d04c 84bd
00000260: e3f5 ee3d d60e 5a3d bf09 9ebe d44e 95bb
00000270: 1de7 a23d 13e1 a3be c2fa 11ba efe0 fbbd
00000280: ebc5 a83d b469 52bd 4f4f 8ebe fddb 8ebe
00000290: 8d4a 773d 0382 743d 9d4f e83d 5dd5 6bbe
000002a0: aae6 1e3e 4e93 e63d 0e4b 28be 32cf 623d
000002b0: 3b2e 3e3e 0a26 9ebd 5991 6cbe 1007 ddbd
000002c0: 1aaf 053e 7f8b 5d3d e7b9 74be 5979 f8bd
-0.11118003 0.037134465 -0.023579117 -0.10607294 -0.09366151 -0.1384068 -0.033703618 -0.09331879
0.13114253 0.044686425 0.06716459 0.024907243 -0.08979632 0.030677175 -0.0017889263 -0.08801806
0.10358798 -0.083115 -0.30175546 -0.004950209 -0.14992388 -0.019982656 -0.06162508 0.14034726
0.023070272 -0.17251515 -0.036022816 -0.13372257 -0.07560955 0.1311843 0.053564064 0.003482844
0.0548436 -0.21054469 0.048939433 0.10989606 0.059168316 -0.259709 0.07784289 0.016524246
-0.21986483 0.08387477 -0.07041864 0.1695531 -0.109854594 -0.024581525 -0.023178231 0.04059918
-0.08869811 -0.15719098 -0.13210501 -0.1695544 -0.1371734 -0.005739455 0.1759115 -0.100021385
0.11273314 -0.032054927 0.065680735 0.11803225 0.26384026 -0.11471831 0.036512922 0.0041201096
-0.14784431 0.1938759 -0.20731275 -0.21008615 0.24878469 0.21128882 0.058187656 0.027277838
-0.1369803 -0.33572105 0.2822327 -0.0688144 0.017153544 0.19191878 0.0696992 0.12444546
0.009641321 -0.16989857 0.04251189 -0.047907617 -0.4488885 0.42882577 -0.1800013 -0.36141282
-0.33958623 0.1847463 -0.010135646 0.29120696 -0.3514269 -0.009477338 -0.08069888 -0.12305184
0.27588075 0.09559492 0.17600279 0.08220272 -0.017802134 0.35371557 -0.101346195 -0.033747338
0.054613557 0.15326582 -0.26337606 -0.21018817 -0.18042743 -0.2498781 0.29164237 -0.5298992
-0.07870431 0.013299567 -0.21781832 0.12153371 0.11653682 0.30021378 0.12744989 0.1390163
-0.047913663 -0.18833536 -0.14373621 -0.04118829 -0.17316693 0.0074959183 -0.002939168 0.083864346
-0.17769969 -0.25921273 0.2461235 -0.03186589 -0.23258841 0.17204168 0.043911934 0.23551069
0.048402257 0.18768647 -0.0616021 0.09612925 -0.28263175 -0.07806403 0.17397241 -0.24764673
-0.015025888 -0.30243877 -0.20851332 0.20631796 0.20160335 -0.16121978 0.114808716 -0.06459963
0.11667993 0.053236805 -0.3086681 -0.004556516 0.079542376 -0.32007656 -0.0005568677 -0.12298762
0.08240875 -0.051370338 -0.27794883 -0.27902213 0.06037383 0.0596943 0.1134331 -0.2303061
0.15517679 0.11258565 -0.16434881 0.055373378 0.18572323 -0.07722099 -0.2310232 -0.10792363
0.13055077 0.054088112 -0.23899041 -0.1213252

gru.weight_ih_l1 f4 [180, 60]
00000000: 45a9 8abe 1973 53be a998 b03d 00c6 a03c
00000010: 1d96 0fbd e16f b43d 1519 5b3e c0e6 363e
00000020: 0f8a 193e e51e 0cbe 47bc 643e 9525 953d
00000030: f6f7 93bd a963 003d 7e3d 4d3e c5ac cf3d
00000040: ad9e 20be b76b 983d f73d 003e dc6b 2c3d
00000050: 4980 28be 2197 10bc da48 143e f942 72be
00000060: 95f6 73bd 63d8 e8bd 11a4 1bbe 7b02 6a3e
00000070: d655 4b3e ec5e 30bd be0d 693e e572 26be
00000080: cc93 363e 803e fc39 1add cb3b 6c7d 453e
00000090: 0ced 22be 1cb7 99be 0c87 363e b16d 3dbe
000000a0: 0691 07be 064c 303e f3a3 59be ac2e 66bd
000000b0: c7a1 0d3e c895 1b3e 2778 8a3e f60d 3bbe
000000c0: 8a1f 853e 8c1a 3b3e b247 343d 0516 57be
000000d0: eb1b e2bb e4d0 943c 3666 14be c7af 66be
000000e0: 28f2 a9bd f4f1 18be c93b da3d a5f6 d03d
000000f0: e392 7dbe b3f8 10bd 2813 8c3d e1c2 e8bd
00000100: b86a 1ebe b87b d63d f657 793e 882d 933e
00000110: b44e 713e 2331 2cbe 4a7d b53e c69d c23d
00000120: 60fc 38be 3fc5 6d3e 9906 903e 3044 c13d
00000130: e60a d1bd 2f78 2b3e 5648 7bbd 5e85 ea3d
00000140: 1b66 0ebe 9c63 a8bd e471 3f3e 8bd4 85be
00000150: a818 99be 0236 b4be 4b51 4fbd c968 113e
00000160: f7e9 b53e 3fd0 9cbe a14a 1e3e 79e5 eabd
00000170: f873 8b3e a462 233d d1cd 39bd d8dc 4f3e
00000180: c7f4 2abe 4cf4 9bbe 9084 1c3d 371a 61be
00000190: e4c1 f03d 7463 083d 2a79 17be 6fe0 a1bc
000001a0: 5673 fd3c e02f 293e 62fa 4e3e 22ed 87be
000001b0: c462 c43e 26e9 7b3e d120 7e3e 8b60 1cbe
000001c0: 5713 6fbe f3e6 80be 390d 23bd 4622 75bd
000001d0: 9f83 6e3d 66cf 4cbe 839e 8f3c f782 af3d
000001e0: cd6e ebbd e618 363c d38c 80bd 36d2 e33c
000001f0: baf3 57be b930 373e 9e5a 863d 57d4 2f3e
00000200: 8e39 7d3d 24ed 973c c0dc 9a3d 9de6 253e
00000210: bd27 d53d c350 623c 5ecc 413e c7e3 09bd
00000220: 9a9a 4f3c c45f d4bc 864e 37bc 1a53 2bbe
00000230: 04da 3f3d 3a64 a03d c003 293d b9ab b43c
00000240: b9e6 873d 12dc 63bc b566 d93d 89de 9abd
00000250: af5e 033e 62d1 07be 301b ebbd 6e67 b6bd
00000260: d249 373c 7ace 5f3d 1f48 b43d 7be5 993e
00000270: fcf9 0c3d f7d3 1fbd 4304 c93d 89ff 01be
00000280: 4d39 dbbd 4bbc b9bd d6b3 02bd 1e16 543d
00000290: 9a5a 11bd 8b11 a5bd f790 943c d020 89bd
000002a0: 72d0 2a3e 81cc f7bc ab7e 2a3d 1e57 67bd
000002b0: 1b7a 393e 5ccf 9dbd 776f a73d 49e4 35bd
000002c0: 33e1 a5bd cd52 d43d 2a66 983b d6b4 89bd
000002d0: 3c05 40be 00e2 3eba d7b1 4bbe 17f5 31bd
000002e0: 9adf 89be 42f2 043d 5464 7c3c dd4c 203d
000002f0: dc6e fa3d bb5f 163e e5b1 6f3c 51e8 173d
00000300: 1f80 b3bd 96c6 793d 1eef bd3d 8bda 103e
00000310: 3168 49be 174c e2bd 94d0 c4bd 04ca b2bd
00000320: b1e7 8f3c 026f 143e 8843 a03d 1d51 21be
00000330: e597 90bc a889 b2bd cdc1 983d 17d0 ab3d
00000340: 7718 08bb 3da4 913c 615c 35bd 79f6 773d
00000350: 5ab8 0d3e 9089 6bbd fab9 a7bc 4269 b1ba
00000360: 6a84 113e e076 bebd 4888 56bb b9c4 683e
00000370: f8d5 573c 2ddb c33d b514 ce3c 3e3e 86bd
00000380: 00c0 42bd 9520 aebd e2b8 6e3e 7089 a03d
00000390: a1cd 2f3e c856 0a3e dde5 01bd 5bc4 bb3d
000003a0: f6db 4d3e 4343 c33d d518 303c 34a9 0cbe
000003b0: c371 03be ec7e 6c3d 13dd 50be 99b1 e8bb
000003c0: 1d50 12be bfb4 ae3c 109d a7bd 7780 2cbe
000003d0: 1fa6 1cbe 6ed3 443e ec36 7f3b 102a 3139
000003e0: 7d8d 95bd 2036 0c3d c964 693d 5bb4 55bd
000003f0: 4259 d5bd bfa0 0a3e 35a9 c13d 4c44 81bc
-0.27082267 -0.20649375 0.086228676 0.019625664 -0.03505527 0.08810402 0.21396287 0.17861462
0.14994071 -0.1368366 0.22337447 0.07282559 -0.07225029 0.031345043 0.20042989 0.10140375
-0.1568553 0.0744242 0.12523638 0.04209505 -0.16455187 -0.008825094 0.14480916 -0.2365836
-0.05956133 -0.113693975 -0.15199305 0.22852509 0.19856963 -0.043059275 0.22759148 -0.16254766
0.17829818 0.00048111752 0.0062214257 0.19286126 -0.15910739 -0.30022514 0.17824954 -0.18498875
-0.13238916 0.172165 -0.21253948 -0.056196854 0.13831244 0.15193856 0.27044794 -0.18267044
0.26000625 0.18271846 0.044013686 -0.21004494 -0.0069003007 0.018166013 -0.14492115 -0.22527991
-0.08298141 -0.14936048 0.10655934 0.10203294 -0.24763064 -0.035393428 0.06839591 -0.11365295
-0.15470397 0.10472816 0.2434996 0.28745675 0.23565179 -0.16815619 0.3544715 0.09502749
-0.18065023 0.23219775 0.28130034 0.09436834 -0.10207157 0.16745065 -0.06134828 0.11451219
-0.13906138 -0.08222124 0.1869579 -0.2613872 -0.29901624 -0.35197455 -0.050614636 0.14200129
0.35530064 -0.3062763 0.15458156 -0.1146955 0.27236915 0.039888993 -0.045362297 0.20299089
-0.16694938 -0.3045982 0.03821236 -0.21982656 0.11755732 0.03329797 -0.14792314 -0.019760339
0.030938786 0.16522169 0.20212701 -0.26548105 0.38356602 0.24600658 0.24817206 -0.15271203
-0.23347221 -0.251762 -0.039807532 -0.05984714 0.058230992 -0.20000991 0.017531639 0.085699014
-0.11495743 0.011114335 -0.0627686 0.027810197 -0.21089068 0.1788968 0.065602526 0.17170845
0.061822467 0.018545695 0.07561636 0.16201253 0.1040797 0.0138132 0.18925616 -0.03366449
0.012671137 -0.02592457 -0.011188155 -0.1673092 0.046838775 0.07831617 0.041263342 0.02205454
0.06635804 -0.013907449 0.10615293 -0.075619765 0.12829088 -0.13263467 -0.11479795 -0.089064464
0.011187034 0.05464027 0.088028185 0.30057892 0.03441809 -0.039020505 0.09815266 -0.12695135
-0.10704289 -0.09069117 -0.031909786 0.051778905 -0.035486795 -0.08059987 0.01813553 -0.066957116
0.16681078 -0.030248882 0.041624706 -0.056479566 0.18112986 -0.07705566 0.08175557 -0.044407163
-0.08099594 0.103673555 0.004650851 -0.06723945 -0.18751997 -0.00072816014 -0.1989206 -0.043446627
-0.26928407 0.032457598 0.015404779 0.039135803 0.12228176 0.14684956 0.014629816 0.03708679
-0.087646715 0.060980402 0.092741236 0.14145868 -0.19668652 -0.11049669 -0.096100956 -0.08729938
0.017566534 0.14495471 0.078253806 -0.15753599 -0.017650554 -0.08717662 0.074588396 0.08389299
-0.0020766535 0.01777851 -0.044277553 0.06053779 0.13839856 -0.057504237 -0.020474423 -0.0013535398
0.14210668 -0.09300017 -0.0032735039 0.22731294 0.013173573 0.09563289 0.025156358 -0.065548405
-0.047546387 -0.08502308 0.23312715 0.07838714 0.17168285 0.13509667 -0.031713355 0.09168311
0.2010344 0.095343135 0.010748108 -0.13736421 -0.12836365 0.05773823 -0.20396833 -0.0071012494
-0.14288373 0.02132642 -0.08184254 -0.1684588 -0.15297745 0.19221279 0.0038942648 0.00016895705
-0.073023774 0.034231305 0.05698088 -0.052173954 -0.10417415 0.13537882 0.09456102 -0.015779637

gru.weight_hh_l1 f4 [180, 60]
00000000: 3ca1 0bbd 804e 3fbe 4747 b43d 021a d03d
00000010: e194 8c3d 2227 babd 5cc4 20bd edb6 c4bd
00000020: e81f 313d 8e94 393d 1e84 6b3b 00dd 43bd
00000030: b47f 873d f033 163c 74bb dd3d 9afb fe3d
00000040: 988f 5e3e 2636 0bbe d019 a3bd 2ca3 9bbd
00000050: 5172 273c b906 bfbc 3dca 20be 73cc b73c
00000060: e1ef 52bd 6754 9bbe 0ae5 143d 34dd 9f3d
00000070: 9262 4dbe da32 43be d547 b9bd 9112 fe3c
00000080: f677 173d 0d0b 85bd 141a b63c d726 66be
00000090: 8d53 8b3e 7f4b 8a3e b926 7dbe e12e c13d
000000a0: b720 85be a20f c6bd 806c 0d3e f50c f3bd
000000b0: 1a77 65be d441 8e3e 5f2c b73d 5c6e 233e
000000c0: 9bff 76be e0c3 073c 4d69 89bc 3334 2e3e
000000d0: 9c98 dfbd 707b 093e 63ef 233d 4505 cf3d
000000e0: 631a 0ebe 9dfa c1bd 0ab7 b63d 3cf5 bcbd
000000f0: f8b7 d93d 55e9 403c a609 aabc 3178 c23d
00000100: 065a 923d f045 6bbe 3e45 85be 6056 a8be
00000110: 55f7 95bd d6bb 12bc 1b96 66bd 4b86 923d
00000120: f54e 153d 9bfc 27bd d66b 313e 0c7a 293e
00000130: 4aea 783e 1a15 91bd f8fc d93c 44a7 4abd
00000140: 656f 4f3d d014 263d 11ad 1abe 4483 a5bd
00000150: 6918 abbd 24d3 8dbe 7271 2abd d7b2 263e
00000160: f7a7 03be b596 95be 684e 80bd b8d7 abbd
00000170: 0d09 6c3d 2c47 2dbe 08fa 70bd 1a32 60be
00000180: b656 9e3e 4f2f 703d bc29 2cbe c804 0b3e
00000190: 60fc 55be 3b71 093d 09d3 023e 71be cebd
000001a0: 0f2d 1fbe e360 763e bf80 db3c b90e a83e
000001b0: 01bb fdbd 3989 b53d e55d e5bd 483e 393e
000001c0: af2e 18be 44f6 28bd 064e 923d 5850 b73d
000001d0: de1c 3abe 0d54 8cbe a231 edbc 50c3 b4bd
000001e0: 83b8 4b3e 19cb d0bd 78ca f4bd c69a 5d3e
000001f0: fc68 d53b 8d7a 4fbe 4ed3 11be 8976 74bd
00000200: 9ec4 793d 3aba 33be 9fb3 b2bd 1068 973e
00000210: 4242 383e b0e9 293e 88f6 b83d ec02 9d3d
00000220: 8e20 293e 90a1 3cbe 079c 52be 53ba 033d
00000230: 2880 383e a547 60be eba8 f7bd 4297 f0bd
00000240: 6761 0cbe 2ef9 35be dcfd 8d3e 1670 7e3e
00000250: 3923 65bd 0ee4 2fbd 6fab 09bd b505 063c
00000260: e610 b03d 0ed1 4bbe 6eb2 2bbe d5f0 2fbe
00000270: 5356 4c3e c324 413e 54df e4bd 1773 fa3c
00000280: 0634 0dbe 87a5 47be 19a0 5a3d ec36 51bc
00000290: dc24 cabd 124e 4e3d e008 163e 751c 683d
000002a0: 2c5d 66bd 6860 0bbe 344b 1bbe a179 693e
000002b0: fed0 03be 7db5 143e ad37 863e d446 36be
000002c0: 82d9 9d3b ef22 24bd 7a13 4ebe b4b2 2abd
000002d0: 7920 cc3d f830 413d 4da5 2abe 8674 5f3d
000002e0: 8c5b 553e 2322 09be a722 88be a7e3 36be
000002f0: ca16 3e3e c22e 30bd 5206 8dbe b202 403e
00000300: b12b 823d 6551 ef3d f2a2 a63d ba93 a73e
00000310: 0b0e 4a3e 85cc 9ebe 2640 72be d818 653e
00000320: 6670 943d 7609 80be b16f a7be 957a 3fbd
00000330: ee46 6bbd 3d65 66be fa85 803e b865 123e
00000340: 1d39 23be 7ce4 acbe f0b5 c4bd 5e49 e1bd
00000350: 5076 a03d d00f 23be eb95 5abd e90d 6ebe
00000360: 72dc b13d 01e8 023e 3513 30be 5fea b83d
00000370: e21d 38be 7090 57bd 5a86 e63d bce2 4cbe
00000380: 2c29 e8bd f8d0 223e 3e0b d83d 2f76 923e
00000390: 6ee4 cabd 8362 3abd 4fe9 58be c969 0f3e
000003a0: 2fb1 b6bd b143 333e e2fd 773e 28d7 02be
000003b0: 61cb 6cbe d566 8bbe 0382 03bd d706 88be
000003c0: 198d 313e 06a8 2b3d e9ab 57be 2cb3 693e
000003d0: 4825 033e 798e 3abe c6ea dfbe aad7 a4bd
000003e0: 5181 ccbc 80b7 1abe bd12 16be ba32 993d
000003f0: c9e6 e13d 91c4 4c3e 995d 1d3e aaa9 bc3d
-0.034089312 -0.18682289 0.088026576 0.101612106 0.06864334 -0.09089495 -0.039249763 -0.09605203
0.04324332 0.04530769 0.0035936902 -0.047818184 0.06616154 0.009167656 0.108267695 0.12450333
0.21734464 -0.13594875 -0.07963908 -0.07599482 0.010220126 -0.023318635 -0.15702148 0.022436356
-0.051498298 -0.3033783 0.03635124 0.07805863 -0.20057133 -0.19062367 -0.09046904 0.031014713
0.036979638 -0.064962484 0.022229232 -0.22475754 0.27212182 0.27010724 -0.24721803 0.094327696
-0.26001522 -0.096709505 0.1381092 -0.11867706 -0.22408715 0.27784598 0.0894401 0.15960068
-0.24120943 0.008286446 -0.016773844 0.170121 -0.1091778 0.13425994 0.04002322 0.10108427
-0.13877253 -0.09471629 0.08921631 -0.09226462 0.106307924 0.011774381 -0.020756554 0.09495581
0.07146077 -0.22975898 -0.2602939 -0.328784 -0.073225655 -0.008955916 -0.056295495 0.071545206
0.036452252 -0.041012388 0.17326292 0.16550463 0.24308124 -0.07084103 0.026609883 -0.049475923
0.050643343 0.040547192 -0.15105082 -0.080816776 -0.08354265 -0.2770015 -0.041612096 0.1627916
-0.12857042 -0.29216543 -0.06264955 -0.083907545 0.05762582 -0.16921681 -0.0588322 -0.21894112
0.3092553 0.058638867 -0.16812795 0.13576043 -0.20897055 0.03355525 0.12775816 -0.100949176
-0.15544532 0.24060397 0.02679479 0.32823732 -0.12389184 0.08864064 -0.111995496 0.18090165
-0.14861558 -0.041250482 0.07143788 0.08950871 -0.18175074 -0.27407876 -0.02895433 -0.088263154
0.19894604 -0.10194988 -0.1195268 0.21641073 0.0065127593 -0.20261593 -0.14240763 -0.059683356
0.060978524 -0.17551509 -0.08725666 0.2957158 0.17994025 0.16593051 0.09031397 0.07666573
0.16516325 -0.18421006 -0.20567332 0.032160114 0.18017638 -0.2190233 -0.120927654 -0.117476
-0.13709031 -0.17770836 0.27732742 0.24847445 -0.055941794 -0.0429421 -0.033610757 0.008180072
0.08596973 -0.19903967 -0.16767284 -0.17181714 0.19954805 0.1886168 -0.11175409 0.030572457
-0.13789377 -0.19496737 0.053375337 -0.012769442 -0.098703116 0.050367422 0.14651823 0.056667764
-0.0562412 -0.13610995 -0.15165406 0.22800304 -0.12872693 0.14522357 0.26214352 -0.17800456
0.0048171887 -0.040072378 -0.20124617 -0.04167433 0.09967131 0.04716584 -0.1666462 0.054554485
0.20835704 -0.13391928 -0.26588938 -0.1786028 0.18563381 -0.04301334 -0.27543885 0.18751028
0.0635599 0.11685447 0.08136548 0.32729894 0.1973192 -0.3101541 -0.23657283 0.22372758
0.07248001 -0.25007218 -0.327024 -0.046747763 -0.05744069 -0.22499557 0.25102216 0.14296615
-0.15939756 -0.3376807 -0.09605014 -0.11000322 0.07835066 -0.15924 -0.05336563 -0.23247494
0.08684625 0.12783815 -0.17194827 0.09029078 -0.1798015 -0.05262798 0.11256094 -0.20008367
-0.11335978 0.15900028 0.10549019 0.28605792 -0.09906851 -0.045504104 -0.2118275 0.14005198
-0.08920514 0.17506291 0.24217942 -0.12777388 -0.23124458 -0.27226892 -0.03210641 -0.26567718
0.1733898 0.041908287 -0.21061672 0.22822255 0.1280719 -0.18218412 -0.43733805 -0.08048947
-0.024964007 -0.15109062 -0.14655586 0.074803784 0.11030347 0.19996859 0.15367736 0.09212048

gru.bias_ih_l1 f4 [180]
00000000: 660f 5f3c f0f1 3a3d 6b02 18be e307 1dbd
00000010: 38a4 06bc ff51 8e3d b37d c13d 828e f43c
00000020: 74c1 d9bd 75eb 033c 0451 7ebb 7882 51be
00000030: e434 793c cb21 2ebe e5b2 813c 93e9 0dbe
00000040: 81bd 36be 5dd0 2cbd 74ce 26bd 7845 5d3d
00000050: af3a 5b3e 7028 933c 6a41 e43b 4699 ffbc
00000060: 3769 eabd ec71 223d 577e 26be b187 8abd
00000070: 76a2 3ebe 6724 10be ec07 4abe 17fb 49bd
00000080: f470 1dbe 7809 203c ec60 a73d ee04 a6bd
00000090: 6bb7 bc3c edbe 8bbe e182 3fbd 360e 223d
000000a0: 88e6 3c3e c74c 623e eb8e b8bb 3138 2bbd
000000b0: 57fd 89be 413b cebd 77ba 8d3d 4484 3ebe
000000c0: ddd5 323d 2bc1 e3bd 86a8 67bd b26f 99bd
000000d0: 1dbe e4bd 3b06 9a3c 1dbc 6bbe c9cd 983c
000000e0: aed1 883d f86b 5dbd 7f23 36be f519 4cbe
000000f0: 0a9c 20be d477 6cbe e187 1bbe ac60 463d
00000100: a0f4 873c ad18 6cbd 484d f33c bcb0 23be
00000110: dcec 64bb 3525 52be d94b 5a3d ae89 a0bd
00000120: 617e 99bd 8e74 d4bd df1f be3d ed35 523e
00000130: 8f3e f5be 779b a6bc 0527 44be a7ef 06be
00000140: bae6 3dbe 6a1c 0fbe d060 f5bd 21b0 9e3b
00000150: 3d6c 083d 19ee 72bc b717 4bbd eaee 90be
00000160: 0861 72be ecb7 823c 5c4c 63be bcc3 b4bd
00000170: 067a 59be 9e6e 1ebe 222b 72be 099a a63d
00000180: b59c 9dbe 2127 95bd 7e53 0ebe 0936 63be
00000190: 15a9 223c 87e1 20bd fdfb 20be 2f46 80bd
000001a0: 490b c6be d98e 2a3c f523 32be f698 043d
000001b0: 186b 9abd 02bc a33d 4a23 f8bd c001 2abe
000001c0: 24c1 70be de96 15be 4387 3fbe 55be 53be
000001d0: bcf3 8cbe 9208 903d 18c8 e63d 9138 733d
000001e0: e81f 473e 2dcb c3be a478 7fbd 59f6 7c3e
000001f0: f3ef 4d3e a68b 953c 982c a3be 7253 65be
00000200: 4e01 8e3e 6176 a1be a052 f8bd 3cba b03d
00000210: 9872 033e 4e0c fe3d 036c 993e 38bf 033e
00000220: e053 723e 5465 84be ced2 69be a163 3a3e
00000230: 44e7 cebd 5945 aebd 3061 87bd 4ba9 16be
00000240: b203 17be 3189 fcbe 876c be3d 29bf e03d
00000250: 5bbf b1bd e864 2bbe 529b 5ebe b1a6 76be
00000260: b4ad 793d e36c b3be 13ac 0fbd c8da 01bd
00000270: c4a0 bd3c 6871 933e a78d 7ebe 205d a43e
00000280: d255 c1be 13e8 9fbe 0804 943e c227 8f3d
00000290: 76ca 8dbd f1d9 843e 54a9 a83e a399 dc3e
000002a0: fe6b 61be 85ef 08be be3a 41be 09ac 62bc
000002b0: c44e a2be 8212 083d e282 0b3e c8b5 8dbe
000002c0: 6e0e b6be c90d 41be e0d0 66bd d13a d5be
0.013614511 0.045640886 -0.14844672 -0.0383376 -0.008217864 0.06949233 0.09447803 0.02985311
-0.106326014 0.008051743 -0.0038805613 -0.20459926 0.015210364 -0.17005078 0.015832374 -0.13858633
-0.17845728 -0.0421909 -0.040724233 0.05402133 0.21409105 0.017963618 0.006965806 -0.031201016
-0.114458494 0.039659426 -0.16259132 -0.06764162 -0.18616661 -0.14076386 -0.19729584 -0.049311724
-0.1537512 0.0097678825 0.08172783 -0.08106409 0.02303668 -0.27294102 -0.046755675 0.039564334
0.18447316 0.220996 -0.0056322715 -0.041801635 -0.26951095 -0.100698955 0.06920331 -0.18605143
0.043660987 -0.11120828 -0.0565572 -0.07492007 -0.11169074 0.018801799 -0.23020978 0.018652814
0.06680618 -0.054058045 -0.17786978 -0.19931777 -0.15684524 -0.23092586 -0.15188552 0.048432037
0.016596138 -0.05764072 0.029699937 -0.15985388 -0.0034931218 -0.20522006 0.05329499 -0.0783876
-0.07494808 -0.103737935 0.09283423 0.20528384 -0.4789929 -0.020337803 -0.1915551 -0.13177358
-0.18545046 -0.13975683 -0.11981356 0.0048427735 0.03330635 -0.014827275 -0.049583163 -0.28307277
-0.23669827 0.015956841 -0.22197098 -0.08826396 -0.21237954 -0.15471885 -0.23649266 0.081348486
-0.3078362 -0.07282854 -0.13899037 -0.22188582 0.009928008 -0.03927758 -0.15721126 -0.062633865
-0.38680485 0.010410034 -0.17396529 0.032372437 -0.07539958 0.07994844 -0.12116106 -0.1660223
-0.23511177 -0.14608333 -0.18703942 -0.20678075 -0.27529705 0.07032885 0.112686336 0.059380118
0.19445765 -0.38240948 -0.06237091 0.24703349 0.20111065 0.018255066 -0.3186996 -0.22395113
0.2773537 -0.31535628 -0.121251345 0.086292714 0.12836683 0.12404691 0.2996522 0.12865913
0.23664808 -0.25858557 -0.22834322 0.18202068 -0.10102704 -0.08509321 -0.06610334 -0.14713018
-0.14747503 -0.4932342 0.09298044 0.10973961 -0.08679076 -0.16737711 -0.21738937 -0.24087025
0.06095667 -0.3504401 -0.035076212 -0.031702787 0.023147948 0.2879746 -0.24858724 0.321023
-0.37760788 -0.31231746 0.28909326 0.06990005 -0.06923382 0.25947526 0.32941687 0.43085966
-0.22013852 -0.1337262 -0.18870065 -0.013834962 -0.31700718 0.033220775 0.13624147 -0.2767775
-0.35557884 -0.18852915 -0.056351542 -0.41646436

gru.bias_hh_l1 f4 [180]
00000000: a867 42bd edb0 23bc 999d 4e3c 2475 2fbe
00000010: e908 c0bd d976 24be 545a 5f3d 5154 353e
00000020: ecb3 35be 6e12 98bd 0c1e 3abe 6212 1dbe
00000030: 0c90 b7bd 7040 d3bd 075a dcbd e345 a2bd
00000040: 3312 77be 1995 e8bd 167b 1bbe 5c63 c0bd
00000050: 8d64 71bc 0072 09be b389 893c e167 35be
00000060: 1902 0bbe 6729 09bd 8c2b b7bd 225e 89be
00000070: 1095 dcbd 7602 40be ae2f 76bd 72bc 53be
00000080: 6461 3bbe fb02 6b3c 6bb4 7f3d 0d32 73bd
00000090: 0ddb 0ebe f820 50be 406c d6bc db9a 26bc
000000a0: 4149 dbbc 9c64 3d3d e607 babc 6b25 4dbe
000000b0: 9032 81be b272 33be 4514 323d 8b0a 0abe
000000c0: 3810 eb3d 89e6 f1bc 10c4 8dbd cf60 9fbe
000000d0: 401d dcbd dfcc 95bd dece 2bbd 035d d9bc
000000e0: 048d ffbd e033 38be d88d 67be db9c 64be
000000f0: 64b5 93bd aa2d 23be f92f f3bd 89bf 08be
00000100: c6fa 29be 42e5 2cbe 3d62 1dbc 66a8 ebbd
00000110: 221a 43be 00ee cdbc ec7a 38bb 74b0 63be
00000120: 88e5 adbb 3847 5cbe 6e0e 2b3d f899 c03d
00000130: 8272 1bbf 3960 46bd a4d0 38be 3348 41be
00000140: 86b6 63be 2a2a 7fbd 4e6b ff3c a7fc 4cbd
00000150: 605d 88bd cd00 44bd 9f47 16be a939 81bd
00000160: 478a 4dbe ff7e 0d3c 6b37 56be 6189 9d3c
00000170: 7d73 7fbe cb88 a03d 88ef dabd 8155 da3d
00000180: f193 dabe 5e7f 38be ca5d 92be 7766 96bd
00000190: aa31 debd 63d0 043d 8820 d1bd 0cbc eebd
000001a0: 1f9e 85be f5b5 d0bd c98e 42be 4985 833d
000001b0: a07a 85bd 1e1c 7abc 652a 30be 5b5d 6abe
000001c0: f93c 76bd 9e41 17be bb1c fb3c 696c 2abe
000001d0: 72c7 92be 0237 bbbd bd17 e73d c2a8 17be
000001e0: 202c c73d 9c92 b8be 999c d5bd 4e35 773e
000001f0: 0c81 713e d9f6 72bd 048b 91be 7a1d 03be
00000200: acb6 a63e 0e4e 77be aa21 6fbe ee02 d73d
00000210: 6805 5b3e 92ef 193e a620 793e 730c 243e
00000220: 03ff fe3d 95e5 56be 1348 88be c8d7 913e
00000230: 59a8 7fbd b5bc 1bbe 6a2e 9ebd abe8 efbd
00000240: eca1 a0bd c2ef a6be f7f0 763e e36b d23d
00000250: 288f 55be 4256 71be 0fc5 4cbe dfb7 0ebe
00000260: 5731 c33d c030 62be 7600 503d bc54 83bd
00000270: 4c9c 6abd da82 803e 8207 3cb9 64d1 8a3e
00000280: 3e94 42be e83d d8be fe66 9e3e 2bce 29be
00000290: caf1 433d c41a 643e 15c1 473e e3ca 2c3e
000002a0: 573e 9fbe 5213 cbbc 870a f2bd 36f4 8e3d
000002b0: a6c7 9bbe 5c3e 1d3e c44e 893b a9ff 40be
000002c0: bf5a 8bbe 9720 debd 2a75 b93c 366c 22be
-0.047462136 -0.009990913 0.012610816 -0.1713453 -0.093766995 -0.16060962 0.054529503 0.17707945
-0.17744416 -0.0742539 -0.18175524 -0.15339044 -0.08963022 -0.10315025 -0.10759359 -0.07923486
-0.24128036 -0.11356563 -0.15183672 -0.09393951 -0.014733446 -0.13422394 0.016789293 -0.17715408
-0.13575019 -0.03348675 -0.08943853 -0.2682963 -0.10770619 -0.18750939 -0.060104065 -0.20677355
-0.1829887 0.014343972 0.06242792 -0.059373904 -0.13950749 -0.20325077 -0.026174664 -0.010168756
-0.026768329 0.046238527 -0.022708844 -0.20033805 -0.2523389 -0.17524222 0.04347636 -0.13480584
0.11477703 -0.029528873 -0.069221616 -0.31128547 -0.107477665 -0.07314467 -0.04194533 -0.02653361
-0.124780685 -0.17988539 -0.22612703 -0.2232546 -0.07212332 -0.15935388 -0.118743844 -0.13354315
-0.16599569 -0.1688433 -0.009605941 -0.11506729 -0.19052938 -0.025137901 -0.002814944 -0.2223528
-0.0053069033 -0.21511543 0.041761808 0.09404367 -0.607216 -0.04843161 -0.1804834 -0.18875198
-0.22237596 -0.06229607 0.031179097 -0.050045636 -0.06658435 -0.047852326 -0.14675759 -0.06309826
-0.2007228 0.008636235 -0.20919578 0.019230546 -0.24946399 0.07838591 -0.10690218 0.1066084
-0.42690995 -0.18017337 -0.2858718 -0.07343762 -0.108493164 0.032425296 -0.10211283 -0.11656961
-0.260972 -0.101909555 -0.1899978 0.064219065 -0.065175295 -0.015265493 -0.17203672 -0.22887175
-0.06011674 -0.14771125 0.030653348 -0.16642918 -0.2866779 -0.09141351 0.112838246 -0.1481047
0.09725213 -0.36049354 -0.10430259 0.24141428 0.23584384 -0.059317444 -0.28426373 -0.12804213
0.32561243 -0.24150869 -0.23352686 0.10498606 0.21388781 0.15032795 0.2432886 0.16020374
0.124509834 -0.20986016 -0.26617488 0.2848494 -0.06241641 -0.15208705 -0.077236965 -0.117143
-0.07843384 -0.32604796 0.24115358 0.10274484 -0.20855391 -0.23568061 -0.19997047 -0.13937329
0.09530895 -0.22088909 0.05078169 -0.06412646 -0.057277963 0.25099832 -0.00017931874 0.27112877
-0.19001862 -0.4223473 0.30937952 -0.16582553 0.04783801 0.22275835 0.19507249 0.1687427
-0.3110225 -0.024789486 -0.11818414 0.06980173 -0.30425757 0.1535582 0.004190298 -0.18847527
-0.2721767 -0.1084606 0.022638876 -0.15861592

fc.weight f4 [1, 60]
00000000: deab 963f 7f9f 94bf 1d03 9fbf fa8b 9f3f
00000010: 0631 9c3f c84d 98bf e864 8fbf 1182 90bf
00000020: 95ab a13f cfe6 95bf dbc7 a2bf e4e3 a13f
00000030: 1a06 9a3f ccd1 9a3f c8ea af3f fcbd 953f
00000040: 99ba 9e3f 6697 9dbf cd21 a0bf a183 9a3f
00000050: 5611 8f3f 950d a2bf 6881 a1bf 737a a0bf
00000060: 4a2b 74bf 1625 a8bf b10b 963f ddd0 993f
00000070: b8bd 8ebf 6a28 9fbf 554c 9ebf 806c 96bf
00000080: 8403 a13f ef1f 99bf e89e 9fbf 5a8d acbf
00000090: 9ecc cc3f 1fd4 8b3f 9972 b0bf 3b8e 923f
000000a0: 495b 8fbf 2f14 94bf bc63 953f ee7f bbbf
000000b0: abaa 99bf a83f 573f df57 993f ef56 903f
000000c0: 2130 93bf b41e a0bf d071 a0bf 6a91 a53f
000000d0: 0d3d 8ebf a525 9d3f 8791 9f3f 1856 9dbf
000000e0: 656d 99bf ef96 94bf ced9 9dbf 6582 91bf
1.17712 -1.1611174 -1.2422825 1.2464592 1.2202461 -1.1898737 -1.1202669 -1.1289693
1.2630488 -1.1711062 -1.2717241 1.2647672 1.2033112 1.2095275 1.3743525 1.1698604
1.2400695 -1.2311828 -1.2510315 1.207142 1.1177166 -1.2660395 -1.2617617 -1.2537369
-0.95378554 -1.3136318 1.1722318 1.2016865 -1.1151648 -1.2434208 -1.2367045 -1.1751862
1.2579198 -1.196287 -1.2470369 -1.3480637 1.5999944 1.0924109 -1.3784972 1.1449655
-1.1199733 -1.156866 1.1671062 -1.4648416 -1.2005209 0.84081507 1.1979941 1.127653
-1.1499063 -1.250937 -1.2534733 1.2935002 -1.1112381 1.2277113 1.2466286 -1.2291899
-1.198651 -1.1608561 -1.2332094 -1.1367918
