models/gru_trial_14.pth (torch, 406014 bytes, 9 tensors)

gru.weight_ih_l0 f4 [294, 44]
0	0x3d79d6cb	0.06099586
1	0x3e7ce147	0.24695311
2	0x3e3f8c31	0.18705823
3	0xbe01fd95	-0.1269439
4	0xbdc2293c	-0.09480521
5	0x3d2793b9	0.040912364
6	0xbe1e144f	-0.15437435
7	0x3d00a9d6	0.03141197
8	0x3e05503c	0.13018888
9	0xbe26cc4b	-0.16288869
10	0xbd9148cc	-0.07093963
11	0x3c57f877	0.013181797
12	0x3d6b44fe	0.057438843
13	0x3e8d8234	0.276384
14	0xbe9b2dc2	-0.30308348
15	0xbc366b9c	-0.0111340545
16	0x3ca60dc1	0.02027023
17	0xbdd7e22e	-0.10541187
18	0x3d87c012	0.066284314
19	0xbe9a7067	-0.3016388
20	0x38c45b1a	9.362977e-05
21	0x3d822157	0.06354015
22	0x3d3fc2d9	0.04681668
23	0xbcd47e1c	-0.02593904
24	0xbeb42a1d	-0.3518838
25	0x3ce75636	0.02823935
26	0xbe0d3c81	-0.13792612
27	0x3cb21bec	0.02174183
28	0x3df15ed7	0.117856674
29	0xbea54f74	-0.3228718
30	0xbe8063e3	-0.25076208
31	0xbe228994	-0.15872794
32	0x3d8b6666	0.0680664
33	0x3d7a6ad0	0.06113702
34	0xbe6fefd7	-0.23431335
35	0xbdb0cc45	-0.08632711
36	0x3d4b58de	0.049645297
37	0x3ea64f7f	0.32482526
38	0xbd6892f1	-0.05678076
39	0xbd968372	-0.0734929
40	0xbdc13efd	-0.09435842
41	0x3d520f80	0.051284313
42	0x3e87ad51	0.26499417
43	0xbeed3a8e	-0.46333736
44	0x3d15fdf6	0.03661915
45	0x3e126bb1	0.14298894
46	0xbd676519	-0.0564929
47	0xbbcbc113	-0.0062180846
48	0xbc94589c	-0.018108658
49	0x3e8550e7	0.26038286
50	0xbe59b029	-0.21258606
51	0xbd9bc441	-0.07605792
52	0x3cfced05	0.030874738
53	0xbe29cd31	-0.1658218
54	0x3d87aeda	0.06625147
55	0x3c6487d9	0.013948404
56	0x3e3e30e7	0.18573342
57	0x3d25b7e2	0.040458567
58	0x3d093459	0.03349719
59	0x3d9015ff	0.070354454
60	0x3d33d8ad	0.04390781
61	0xbcd050a3	-0.025429076
62	0xbd02ad09	-0.0319033
63	0x3da64a8b	0.08119687
64	0xbc064f03	-0.008197549
65	0xbd904e36	-0.070461676
66	0xbd18060b	-0.037115138
67	0x3da77feb	0.08178695
68	0xbd0365c7	-0.032079484
69	0xbcd54fb9	-0.026038991
70	0x3e28d6f9	0.16488256
71	0xbd3a186d	-0.04543345
72	0x3d8be90b	0.06831559
73	0xbca10e45	-0.019660125
74	0x3d7d90da	0.06190572
75	0x3aeb3ab7	0.0017946576
76	0xbe6cb33d	-0.23115249
77	0xbcddd9a5	-0.02708132
78	0xbd7fd591	-0.062459532
79	0xbc45c52b	-0.012070934
80	0x3cc79aef	0.02436587
81	0x3d155e2f	0.036466774
82	0xbe14caa8	-0.14530432
83	0xbd8a0fe1	-0.0674131
84	0x3e28fca9	0.16502632
85	0x3e2543aa	0.16139093
86	0xbc07162b	-0.008245031
87	0xbe98a314	-0.2981192
88	0x3d6f7eba	0.058470465
89	0x3ab12bbb	0.0013517061
90	0xbc16b464	-0.009198282
91	0xbd115694	-0.035482958
92	0xbdeef780	-0.11668301
93	0xbd7515aa	-0.059835114
94	0xbb0d5025	-0.0021562662
95	0xbc523691	-0.012830392
96	0x3cb4dc4b	0.0220777
97	0xbdca6b55	-0.09883753
98	0xbcf3fe29	-0.029784279
99	0xbd9488ca	-0.07252653
100	0xbd996b8d	-0.07491217
101	0x3d6d0af3	0.05787177
102	0xbd145e30	-0.036222637
103	0x3e2f199f	0.17099617
104	0x3c332b9d	0.010935691
105	0x3d7fd822	0.06246198
106	0x3c5c1339	0.013432317
107	0xbc6d081a	-0.014467264
108	0x3e29ec23	0.16593985
109	0x3dd260e2	0.10272385
110	0x3d9926c2	0.074780956
111	0xbcd19ddd	-0.02558797
112	0xbda57bb2	-0.08080234
113	0xbd4f84ac	-0.050663635
114	0x3d2cdecd	0.042204667
115	0x3d92a88e	0.071610555
116	0x3e560201	0.20899202
117	0xbd82a8b8	-0.06379837
118	0x3d2e9a4c	0.042627618
119	0xbde621bc	-0.11236903
120	0xbd44206c	-0.047882482
121	0xbd54ab70	-0.051921308
122	0xbc96bc03	-0.018400198
123	0x3d8a3751	0.06748832
124	0xbdf5210b	-0.11969193
125	0x3e0f5bf3	0.1399992
126	0xbe3f143c	-0.18660063
127	0xbdf61f4d	-0.12017689
128	0x3d61b4d3	0.055104088
129	0xbdd75cc1	-0.10515738
130	0xbd49d50c	-0.049275443
131	0xbdc8e43e	-0.09809159
132	0x3e00d08a	0.12579551
133	0xbd1ce5f3	-0.038305234
134	0x3e078319	0.13233604
135	0x3e635ff2	0.22204569
136	0xbe234bcb	-0.15946881
137	0x3e05122e	0.12995216
138	0x3d4a8078	0.049438924
139	0x3d989746	0.07450728
140	0xbde0e5ee	-0.109813556
141	0xbe2b8ed8	-0.1675371
142	0x3c67d4f2	0.014149891
143	0x3e17d37b	0.14826767
144	0xbdeb4d4d	-0.11489353
145	0x3e0b664e	0.13613245
146	0xbd419f14	-0.04727085
147	0xbdaa3793	-0.08311381
148	0xbe2ea074	-0.17053396
149	0x3d7e2a5a	0.06205211
150	0x3e0a9964	0.13535076
151	0xbd2df0da	-0.042466022
152	0x3e0c1b57	0.13682304
153	0x3e450618	0.19240606
154	0x3da2eed5	0.0795571
155	0xbd65348e	-0.055958323
156	0x3da43d1a	0.08019467
157	0xbc8ddf98	-0.017318532
158	0xbc818140	-0.015808702
159	0x3cf85a76	0.030316573
160	0x3e5891d5	0.2114938
161	0x3c56080c	0.013063442
162	0x3cd3af2a	0.02584036
163	0xbdfea1e1	-0.1243322
164	0xbd5b86d0	-0.053595364
165	0xbc516281	-0.012779833
166	0x3df37a01	0.11888505
167	0x3e3dd376	0.18537697
168	0xbabc001c	-0.0014343294
169	0x3d5a2303	0.053256046
170	0xbec6a2c6	-0.3879606
171	0xbe079960	-0.13242102
172	0x3d81181f	0.06303429
173	0xbd53c765	-0.05170383
174	0x3cae6834	0.021289922
175	0x3d802b87	0.06258302
176	0x3d8b2d6d	0.06795774
177	0x3ce266db	0.027636936
178	0xbca47c9f	-0.020078955
179	0xbd2041ce	-0.039125256
180	0xbde0c2a0	-0.10974622
181	0x3ccd2edf	0.025046764
182	0x3d8869c8	0.06660801
183	0x3cb4e4df	0.02208179
184	0x3d45d2ea	0.048296846
185	0xbce4a517	-0.027910752
186	0x3d992d74	0.074793726
187	0x3a91f9b5	0.001113704
188	0xbd92a246	-0.071598575
189	0xbcd0a477	-0.025469048
190	0xbc8cd572	-0.017191622
191	0xbe126f66	-0.14300308
192	0x3dd7748a	0.10520275
193	0xbd8997eb	-0.06718429
194	0x3db501e7	0.088382535
195	0xbe67f694	-0.22652656
196	0xbdbd168a	-0.092328146
197	0xbb3f8765	-0.0029224989
198	0x3d85f109	0.065401144
199	0xbe10844a	-0.14112964
200	0xbe08bc90	-0.13353181
201	0xbda39650	-0.07987654
202	0xbd99614a	-0.074892595
203	0x3de3a9f4	0.111164
204	0x3d14c3dd	0.036319602
205	0xbe9e92e4	-0.30971444
206	0xbe1cc944	-0.15311152
207	0xbe2d3674	-0.16915303
208	0x3e48c80f	0.19607566
209	0xbd45c67c	-0.048284993
210	0xbc558dd6	-0.013034305
211	0x3d7e8def	0.062147077
212	0x3d8c2155	0.06842295
213	0x3e00a7be	0.12563989
214	0x3d08c5e9	0.033391867
215	0x3ca4c86a	0.020115096
216	0xbe24244d	-0.16029473
217	0x3dcea7c9	0.10090596
218	0x3d0847e4	0.033271685
219	0xbe0981f2	-0.13428476
220	0xbdb95deb	-0.090511166
221	0xbd91091a	-0.07081814
222	0xbdbfd17f	-0.0936613
223	0xbd81c127	-0.06335669
224	0x3c9a0b40	0.018804193
225	0x3d53b077	0.051681962
226	0x3d244a52	0.04010994
227	0x3d53e10c	0.051728293
228	0x3db574f0	0.08860195
229	0xbba5e4ca	-0.005062674
230	0x3d056195	0.032563765
231	0x3d7ebf20	0.06219399
232	0xbd52422a	-0.05133263
233	0x3e488043	0.19580178
234	0xbdcfc491	-0.10144914
235	0xbd82dc8d	-0.06389723
236	0x3e09b630	0.13448405
237	0x3d6419a1	0.055688504
238	0x3e11567e	0.1419315
239	0x3cbf709d	0.023369128
240	0xbdf7347e	-0.12070559
241	0xbd6de79f	-0.05808222
242	0x3cbb3370	0.022851676
243	0xbd9588a5	-0.073014535
244	0xbdb5995d	-0.08867142
245	0xbd9f5168	-0.07779199
246	0xbe7f7449	-0.24946703
247	0x3d362f42	0.044478662
248	0x3c9ca1aa	0.019120056
249	0xbe5a6d50	-0.21330762
250	0xbe51a67d	-0.20473666
251	0xbdb71b64	-0.08940771
252	0x3dfaffeb	0.12255844
253	0x3d952b90	0.072836995
254	0xbdb229ac	-0.086993545
255	0x3c5fe949	0.013666459

gru.weight_hh_l0 f4 [294, 98]
0	0x3d8a6705	0.06757931
1	0x3e1225b4	0.14272195
2	0x3d5d8cb3	0.05408926
3	0x3d9171c7	0.071017794
4	0xbd2b3382	-0.04179717
5	0xbdcc1aca	-0.09966047
6	0xbb0f051c	-0.0021823114
7	0x3e23d028	0.15997374
8	0xbd8b823b	-0.06811949
9	0x3c376e0c	0.011195671
10	0xbd89bd60	-0.067255735
11	0xbccc4690	-0.02493599
12	0xbcbc60f5	-0.022995451
13	0x3dc08670	0.09400642
14	0xbd2fedd1	-0.04295141
15	0x3c26d253	0.010181981
16	0x3de8159c	0.11332247
17	0xbd235ea1	-0.039885167
18	0xbd5261ac	-0.05136268
19	0xbc735064	-0.01485071
20	0xbddf71fd	-0.109104134
21	0xbb906029	-0.0044059944
22	0xbe07b20b	-0.13251512
23	0xbc9a7b48	-0.018857613
24	0xbe173252	-0.1476529
25	0xbb85af06	-0.0040797023
26	0xbd08e43f	-0.033420797
27	0x3d7f7a71	0.06237263
28	0xbd1021a7	-0.035188343
29	0xbd872ed7	-0.06600731
30	0x3dc0c060	0.094116926
31	0x3e1c04eb	0.15236251
32	0xbc9809f3	-0.018559432
33	0xbe06fe92	-0.13183048
34	0x3ba53949	0.0050422293
35	0xbdf1b68a	-0.11802395
36	0x3b6daa3b	0.0036264795
37	0xbac56aa1	-0.0015061685
38	0xbd44a330	-0.04800719
39	0xbd432658	-0.04764399
40	0xbe8e3636	-0.27775735
41	0xbd8bac2e	-0.0681995
42	0x3d1bddf4	0.038053468
43	0x3b8412a5	0.004030543
44	0x3e5e638b	0.2171766
45	0x3e043da7	0.12914144
46	0xbd46b782	-0.04851485
47	0x3b7f3c38	0.0038945805
48	0xbe074fac	-0.13213986
49	0xbdffeb2c	-0.12496027
50	0xbdcf56e9	-0.10123999
51	0xbe25bc61	-0.16185142
52	0xbe107809	-0.1410829
53	0xbd4e0b31	-0.05030364
54	0xbd9da25e	-0.07696985
55	0x3e273611	0.16329218
56	0xbe2978d6	-0.16550002
57	0x3e028263	0.12745051
58	0xbdad89a3	-0.08473518
59	0xbd23f892	-0.040031977
60	0xbddc570b	-0.1075879
61	0x3e4a7c3e	0.19773957
62	0x3df42871	0.11921776
63	0xbd2c8ff2	-0.042129464
64	0x3e00d078	0.12579525
65	0x3e4622fe	0.19349286
66	0xbd9d8e04	-0.07693103
67	0xbd10ee8a	-0.03538374
68	0x3d448471	0.04797787
69	0xbd8ed67b	-0.06974503
70	0xbe1fd7bb	-0.15609638
71	0x3e76c323	0.24097876
72	0x3d17ec78	0.03709075
73	0xbdde47e4	-0.10853556
74	0x3dfb3824	0.12266567
75	0x3d23ca37	0.03998777
76	0x3d6ca5c6	0.05777528
77	0x3e751fa7	0.23937856
78	0x3c85e116	0.01634268
79	0x3e59825b	0.21241133
80	0x3b9ae427	0.004726905
81	0xbc8b7edc	-0.017028265
82	0xbb5ad476	-0.0033390797
83	0xbe020f31	-0.12701108
84	0x3b5f885a	0.0034108371
85	0xbe5099bb	-0.20371144
86	0x3e09ca4a	0.13456073
87	0xbcad8e78	-0.021186098
88	0xbe36720e	-0.17816946
89	0x3e036166	0.12830123
90	0x3ced7a20	0.028988898
91	0xbdbe1726	-0.09281759
92	0x3e936c8b	0.2879375
93	0x3e69f682	0.22847942
94	0x3e9a0793	0.30083904
95	0xbe184a45	-0.14872082
96	0xbe2a72ad	-0.16645308
97	0xbd83939f	-0.06424641
98	0x3e397f15	0.18114884
99	0xbe25346b	-0.16133277
100	0x3c3a29c6	0.011362499
101	0xbaaa1bdb	-0.0012978272
102	0x3d6e47ef	0.05817407
103	0xbe14118f	-0.14459823
104	0xbc25cb8a	-0.010119328
105	0x3df1f89b	0.11814996
106	0xbc88a785	-0.016681442
107	0x3e11fca4	0.14256531
108	0xbdb0f02b	-0.086395584
109	0x3e177c33	0.14793472
110	0x3e44ed65	0.19231184
111	0x3dfabb51	0.12242759
112	0x3d5cb011	0.053878848
113	0xbc3b5fb7	-0.011436394
114	0x3d957cda	0.07299204
115	0x3e0da0f2	0.13830927
116	0x3d9ecb65	0.07753638
117	0x3d7620b8	0.060089797
118	0xbe5a588a	-0.21322837
119	0xbe4524e9	-0.19252361
120	0x3d1bb999	0.038018797
121	0xbc2b1cbd	-0.010443863
122	0xbe516f64	-0.20452648
123	0x3c1bfbfd	0.009520528
124	0x3e17ca65	0.14823301
125	0x3e433669	0.19063725
126	0x3d93a0fa	0.07208438
127	0x3d3d5f23	0.046233308
128	0x3e5bb5dc	0.21456093
129	0x3d276ceb	0.040875357
130	0x3e0c7ea8	0.1372019
131	0xbd0aff71	-0.033935014
132	0xbc9f3e9f	-0.01943904
133	0xbe462861	-0.19351341
134	0xbbd27003	-0.0064220442
135	0x3da3ad85	0.079920806
136	0x3d12b4cd	0.035816956
137	0xbd60c324	-0.0548736
138	0x3e477271	0.1947725
139	0xbd99c910	-0.07509053
140	0x3ce9e179	0.028549897
141	0x3db4553c	0.0880532
142	0x3df44356	0.11926906
143	0x3e411faa	0.18859735
144	0xbdf0e9b3	-0.117633246
145	0xbd5c2180	-0.053742886
146	0x3d5a8089	0.053345237
147	0x3b8d5f74	0.0043143574
148	0xbd09ee34	-0.033674434
149	0x3d6173a6	0.05504193
150	0xbcc664fa	-0.024218071
151	0x3dc30f85	0.095244445
152	0xbd91a1ba	-0.07110925
153	0x3e75af36	0.23992619
154	0x3d95f41b	0.0732195
155	0x3d9da7de	0.07698034
156	0xbe0e82c2	-0.13917068
157	0xbb66c414	-0.0035212087
158	0xbdb25535	-0.08707658
159	0x3d8b4580	0.068003654
160	0x3c509801	0.012731553
161	0x3d44bc34	0.048031047
162	0x3d000b01	0.031260494
163	0x3c56a3c9	0.013100573
164	0x3dae8898	0.08522147
165	0xbd3476f8	-0.04405877
166	0xbdc9971b	-0.09843274
167	0x3d8711a3	0.06595161
168	0xbe91eb4b	-0.28499827
169	0x3dd646b9	0.10462708
170	0x3dab0b00	0.083517075
171	0x3d15acee	0.03654187
172	0xbe25f434	-0.16206437
173	0x3e9696f4	0.29412043
174	0x3e3e5047	0.18585311
175	0x3d291433	0.04127903
176	0x3d94941c	0.07254812
177	0x3d96b631	0.07358969
178	0xbe28f59c	-0.16499943
179	0x3e49f3c1	0.19721891
180	0x3cba66b9	0.02275406
181	0xbe087bb6	-0.13328442
182	0x3e1eab88	0.15495121
183	0xbd49bec4	-0.049254194
184	0x3d845e22	0.06463267
185	0x3d8f84a8	0.07007724
186	0x3dec611c	0.1154196
187	0x3e0ff687	0.14058886
188	0xbb9d816f	-0.0048066895
189	0xbdcad12b	-0.09903177
190	0xbc9b892c	-0.018986307
191	0xbd5eb051	-0.054367367
192	0xbd0e3ad1	-0.03472406
193	0x3ce40f3e	0.0278393
194	0xbddb6780	-0.107131004
195	0xbd14b033	-0.03630085
196	0xbd9fa26b	-0.07794651
197	0xbd3e460d	-0.046453524
198	0xbd227de1	-0.03967083
199	0x3e36167d	0.17782016
200	0xbde5c35e	-0.11218904
201	0x3cc0e775	0.023547867
202	0xbc5d1223	-0.013493094
203	0x3cd30c79	0.025762783
204	0xbc5aed20	-0.013362199
205	0x3dc593f1	0.09647358
206	0x39b61408	0.0003472867
207	0xbda5bb5b	-0.08092376
208	0x3ddbeab3	0.10738125
209	0x3d8305ff	0.06397628
210	0x3cc2b96e	0.02377006
211	0x3c896bb8	0.016774997
212	0x3b2f160d	0.0026716024
213	0x3d588547	0.05286148
214	0xbe517284	-0.2045384
215	0xbd3689e3	-0.044565093
216	0x3bf1661d	0.007366909
217	0x3db53bd5	0.08849303
218	0xbd1f0cd0	-0.03883058
219	0xbdf5ab5b	-0.11995574
220	0xbdc9a0d1	-0.098451264
221	0xbe9edf06	-0.31029528
222	0xbcd4658c	-0.025927328
223	0xbe0cd31e	-0.1375241
224	0x3c3093fc	0.01077747
225	0x3d4005ea	0.04688064
226	0xbdddc0e6	-0.10827808
227	0x3e1ff4e7	0.15620767
228	0x3dd7b1be	0.105319485
229	0xbc373078	-0.011180989
230	0x3da8a6dc	0.08234951
231	0xbe200973	-0.15628605
232	0x3b22d0a9	0.002484361
233	0xbd3b17fc	-0.04567717
234	0xbe1a050b	-0.15040986
235	0xbcbc686d	-0.022999013
236	0xbd170676	-0.036871396
237	0xbe45c23f	-0.1931238
238	0xbcaad6c7	-0.020854367
239	0x3cb8a16c	0.02253791
240	0xbcbbd819	-0.022930192
241	0xbe36e7a0	-0.17861795
242	0xbdcf8d41	-0.10134364
243	0xbd543363	-0.05180682
244	0x3d9c65ae	0.07636581
245	0xbdb9e5e2	-0.0907705
246	0x3e0b6846	0.13613996
247	0x3e27a2d0	0.16370702
248	0x3d908036	0.07055704
249	0x3e0f3875	0.1398638
250	0xbc78d64e	-0.015187813
251	0x3d37b99a	0.044854738
252	0x3c4b547d	0.01241028
253	0xbd7889e5	-0.06067838
254	0x3d19dce4	0.037564173
255	0xbd43ff86	-0.047851108

gru.bias_ih_l0 f4 [294]
0	0xbd4b7e8b	-0.049681228
1	0xbdd3460d	-0.103160955
2	0x3e38cf5e	0.18047854
3	0xbd69cf0c	-0.05708222
4	0xbd87160a	-0.065960005
5	0xbb4583de	-0.0030138413
6	0x3cf208c2	0.029545192
7	0xbdb3d837	-0.08781474
8	0xbcd0274a	-0.02540936
9	0x3d8bca67	0.068257146
10	0xbd27a3b6	-0.04092761
11	0xbcdb01c3	-0.026734238
12	0xbe2d577f	-0.16927908
13	0xbe0b192c	-0.13583821
14	0x3d6db949	0.05803803
15	0x3e296241	0.16541387
16	0xbda1df27	-0.07903891
17	0xbddd16ba	-0.107953504
18	0x3c4cb6e1	0.012494774
19	0x3d731200	0.059343338
20	0xbc58998d	-0.013220203
21	0x3dc7ac25	0.09749631
22	0xbe03d636	-0.12874684
23	0xbe186e1b	-0.14885752
24	0x3c58cc2b	0.013232271
25	0x3dba3a61	0.09093166
26	0x3d6aa740	0.05728841
27	0xbc6ece1c	-0.0145755075
28	0x3d53c54e	0.051701836
29	0xbcc938f4	-0.02456329
30	0x3d101125	0.0351726
31	0xbd0783d4	-0.033084705
32	0xbce919c1	-0.028454663
33	0x3e135ac5	0.14390095
34	0x3d83d502	0.064371124
35	0xbdbaeece	-0.0912758
36	0x3dd46d5f	0.103724234
37	0x3c94e8e4	0.018177457
38	0x3d1e4224	0.038637295
39	0xbe20b19b	-0.15692751
40	0x3dafef48	0.08590561
41	0xbda77a2a	-0.08177598
42	0x3e332088	0.17492878
43	0x3e9ab4f4	0.3021618
44	0xbd279f9c	-0.0409237
45	0x3d950e3c	0.072781056
46	0x3aa86184	0.0012846445
47	0xbce8b597	-0.028406901
48	0x3e458fb3	0.19293098
49	0xbe2375dd	-0.1596293
50	0xbd5396a4	-0.051657334
51	0xbdb28ce3	-0.08718278
52	0xbde2407a	-0.11047454
53	0x3dd7b5e6	0.10532741
54	0xbe30cadf	-0.17264889
55	0x3e211e8f	0.15734313
56	0xbe32b2d3	-0.17451029
57	0xbdd2ce11	-0.1029321
58	0x3d5efba2	0.054439195
59	0x3e70e94c	0.23526496
60	0xbc1838d0	-0.009290889
61	0x3e0ee7a5	0.13955553
62	0xbba99f52	-0.005176463
63	0x3cb663f1	0.022264453
64	0xbe0139bd	-0.12619682
65	0x3cbb51d3	0.022866165
66	0x3d99ecb3	0.0751585
67	0xbe34d234	-0.17658311
68	0xbe02717f	-0.12738608
69	0xbead3caa	-0.33835346
70	0xbd3345de	-0.043767802
71	0xbd97afa5	-0.074065484
72	0x3c75b3be	0.014996467
73	0x3c1b2311	0.00946881
74	0xbb531ab2	-0.0032211957
75	0xbbf87663	-0.007582472
76	0xbde49d32	-0.11162795
77	0xbcca64d3	-0.02470628
78	0xbdef064c	-0.11671123
79	0xbba0dd84	-0.004909219
80	0xbd0a77be	-0.0338056
81	0x3e407d94	0.18797904
82	0x3cc3fba0	0.023923695
83	0xbd1833af	-0.037158664
84	0x3cf58e7c	0.029975168
85	0xbe07aad9	-0.13248767
86	0x3d70fc70	0.058834493
87	0x3d77bb70	0.06048149
88	0xbe140ee2	-0.14458802
89	0xbd19cf98	-0.037551492
90	0xbdcc6094	-0.09979358
91	0x3c684c24	0.01417831
92	0x3d39491f	0.04523575
93	0x3dc5c088	0.09655863
94	0xbdfb395a	-0.12266798
95	0x3dc643d4	0.09680906
96	0x3df43784	0.11924651
97	0x3d334679	0.04376838
98	0xbd5fe04f	-0.054657277
99	0xbde181f8	-0.11011118
100	0x3caaea31	0.020863624
101	0x3c5c11a0	0.0134319365
102	0x3db1d7a2	0.08683707
103	0x3daa36d3	0.08311238
104	0xbdec34d9	-0.115335174
105	0x3dacb0d8	0.08432168
106	0xbdeac5c8	-0.11463505
107	0x3e853d5b	0.26023373
108	0xbe86d96e	-0.2633776
109	0x3d3e1bd3	0.046413254
110	0xbb1da786	-0.002405615
111	0x3e1e27ef	0.15444921
112	0x3df9e8bf	0.12202596
113	0xbd689d37	-0.056790557
114	0xbc275cbd	-0.010214982
115	0xbdd23963	-0.10264852
116	0xbc9b6596	-0.018969338
117	0x3e70e0b6	0.2352322
118	0x3de1907b	0.110138856
119	0xbd3365c5	-0.043798227
120	0x3d60df33	0.05490036
121	0xbd811666	-0.063031
122	0xbe4745ff	-0.19460295
123	0xbec3817c	-0.38184726
124	0xbe11af0d	-0.14226933
125	0x3de7eb28	0.11324149
126	0xbdf9c10b	-0.12195023
127	0xbb2913e4	-0.002579921
128	0x3ca02e56	0.019553345
129	0x3c3f2c73	0.011668312
130	0x3cbf58bd	0.023357743
131	0xbe64564e	-0.22298548
132	0xbca8e152	-0.020615254
133	0x3bc06773	0.005871707
134	0x3bad4f48	0.005288992
135	0xbd1d63b0	-0.038425148
136	0x3e561e14	0.20909911
137	0x3dc5b802	0.09654237
138	0x3d024e8d	0.031813193
139	0x3dc6b000	0.09701538
140	0x3d5e80a7	0.05432191
141	0xbc5cc677	-0.013475052
142	0xbcc93989	-0.024563568
143	0x3aa6578e	0.0012690888
144	0x3d9567a2	0.07295157
145	0x3cb0c28b	0.02157714
146	0x3d454000	0.04815674
147	0x3d526f67	0.051375773
148	0xbd12e0a0	-0.03585875
149	0xbca5297e	-0.020161387
150	0xbda3db34	-0.08000794
151	0xbd798258	-0.06091532
152	0xbe39f6d0	-0.18160558
153	0x3e096287	0.13416491
154	0x3e050017	0.12988316
155	0x3e9296f4	0.28630793
156	0xbdb29623	-0.087200426
157	0x3d0cc730	0.034369648
158	0x3e030828	0.1279608
159	0x3e0fe1dd	0.14051004
160	0xbbf6c659	-0.007530969
161	0x3e389272	0.18024614
162	0xbe68acca	-0.22722164
163	0xbaa456e5	-0.0012538104
164	0xbe1cf899	-0.15329207
165	0xbdd8d2cf	-0.105870835
166	0xbe013fd4	-0.12622005
167	0xbdd2251e	-0.10260986
168	0xbd450176	-0.048097096
169	0xbd21b0e4	-0.039475337
170	0x3e725b6b	0.23667686
171	0xbbaaab4c	-0.0052084085
172	0xbdb33dde	-0.087520346
173	0xbdf2467f	-0.11829852
174	0xbc13e4f6	-0.0090267565
175	0x3def2836	0.116775915
176	0xbc2beae8	-0.010493018
177	0xbe17f1f3	-0.1483839
178	0x3d394d94	0.04524
179	0x3eb04438	0.34427047
180	0xbd9d6614	-0.076854855
181	0xbdf3387a	-0.118760064
182	0xbda5b530	-0.080911994
183	0x3e1a4df9	0.15068807
184	0x3cfd5f7b	0.030929318
185	0x3cdeb200	0.027184486
186	0xbd8e02f9	-0.06934161
187	0x3b6b112f	0.0035868397
188	0xbd8d6aab	-0.06905111
189	0xbeac46bd	-0.3364772
190	0xbdf250ba	-0.118318036
191	0xbe04a857	-0.12954842
192	0x3d2a6950	0.04160434
193	0xbda4e3a9	-0.08051235
194	0x3dcc710c	0.099824995
195	0xbe76686a	-0.24063268
196	0xbe42f29d	-0.19037862
197	0xbdfc84e3	-0.12330034
198	0xbd5457ac	-0.051841423
199	0x3dc33429	0.09531433
200	0xbcb3f909	-0.021969335
201	0x3d864424	0.065559655
202	0x3e064460	0.1311202
203	0xbe39ebf7	-0.1815642
204	0x3cb45e2d	0.022017563
205	0x3b095d43	0.002096013
206	0x3d3e2351	0.0464204
207	0xbe676f7e	-0.22601125
208	0xbe204dc7	-0.1565467
209	0x3e40d826	0.18832454
210	0x3e91f199	0.28504637
211	0xbe8d20ef	-0.2756419
212	0xbe2652c6	-0.16242513
213	0x3d7cf6f0	0.061758935
214	0xbe9f8d63	-0.31162557
215	0xbd7810c2	-0.060562856
216	0x3e1490c1	0.14508344
217	0x3e720f7b	0.23638718
218	0xbd1cbff6	-0.038269006
219	0x3e4539e8	0.1926037
220	0x3dd06606	0.101757094
221	0xbde6d9cd	-0.11272011
222	0xbd9fafd3	-0.07797208
223	0xbe8ab150	-0.27088404
224	0x3ddf54bd	0.109048344
225	0x3e92d5fc	0.28678882
226	0xbe53c552	-0.2068074
227	0xbdab12c8	-0.083531916
228	0x3d379535	0.04482003
229	0x3d743dbd	0.05962919
230	0x3eb382fe	0.35060877
231	0x3e758389	0.23975958
232	0x3da823a9	0.08209927
233	0xbd8b1769	-0.067915745
234	0xbe54fd2e	-0.20799705
235	0x3e8bf5ec	0.2733606
236	0xbdfd0703	-0.12354853
237	0xbdb8a6f2	-0.09016217
238	0xbe204305	-0.15650566
239	0xbdcca1e1	-0.099918135
240	0xbe84766c	-0.258716
241	0xbe4f35b6	-0.20235333
242	0x3dc960d8	0.098329246
243	0x3e7cf694	0.24703437
244	0xbba0751e	-0.004896774
245	0xbe1bbbcc	-0.15208358
246	0x3e854a54	0.2603327
247	0x3e82e770	0.25567198
248	0x3e839b3f	0.2570438
249	0x3e57fd79	0.21092786
250	0xbd22c53c	-0.03973888
251	0xbe733230	-0.23749614
252	0x3e1299af	0.14316438
253	0xbe352239	-0.17688836
254	0x3e8c140d	0.27359048
255	0xbd27ed49	-0.040997777

gru.bias_hh_l0 f4 [294]
0	0xbdd05a28	-0.10173446
1	0x3ca21ed9	0.0197901
2	0x3e349ae0	0.17637205
3	0xbdb3476e	-0.087538585
4	0x3cb04ae1	0.02152008
5	0x3d16edbd	0.03684782
6	0x3d8b4b9d	0.068015315
7	0xbdd9af22	-0.10629107
8	0xbcb9de17	-0.022688909
9	0x3d092b86	0.033488773
10	0x3d4d17f4	0.05007167
11	0x3ded17d8	0.115768135
12	0xbc26360f	-0.0101447245
13	0xbde88bfc	-0.11354825
14	0x3debe50f	0.11518299
15	0x3e45303d	0.19256683
16	0xbdb85e63	-0.09002378
17	0xbd8d50e9	-0.06900198
18	0xbd0b8858	-0.034065574
19	0x3d0226f9	0.03177545
20	0x3d39b9e0	0.04534328
21	0x3dd1b60d	0.102398016
22	0xbe1809be	-0.14847466
23	0xbe4330ee	-0.19061634
24	0x3c4a06d4	0.0123307295
25	0x3d51834c	0.051150605
26	0x3cdf4a44	0.027257092
27	0x3d1447a0	0.03620112
28	0xbdcbe9f8	-0.099567354
29	0x3d943472	0.07236566
30	0x3dc45a61	0.09587551
31	0xbe2e166e	-0.17000744
32	0xbd1a1daf	-0.037625965
33	0x3bc9f864	0.0061636437
34	0xba381852	-0.0007022667
35	0xbe14c0d6	-0.14526686
36	0x3d3fa5ba	0.04678891
37	0x3d1bd4f4	0.038044885
38	0xbdc03d20	-0.09386659
39	0x3ceb9eeb	0.028762301
40	0xbdade420	-0.08490777
41	0x3b654c98	0.003498828
42	0x3e252eb3	0.16131096
43	0x3e97fcf0	0.29685163
44	0xbe254c74	-0.16142446
45	0x3cc0985b	0.023510149
46	0xbd7173ac	-0.058948204
47	0xbcaca2db	-0.02107375
48	0x3db431a5	0.087985314
49	0xbe7b1b35	-0.24522097
50	0x3d8728d2	0.06599583
51	0x3b3f7c67	0.0029218437
52	0xbdc8440b	-0.09778603
53	0xbd0477a4	-0.03234066
54	0xbd80be2e	-0.06286274
55	0x3dd53def	0.104122035
56	0xbe22922b	-0.15876071
57	0xbc844876	-0.016147833
58	0x3d6fd9d9	0.058557365
59	0x3e0d06df	0.13772152
60	0xbbf47d32	-0.0074612135
61	0x3d2fcca6	0.042919777
62	0x3c3e619a	0.01161995
63	0xbdfd8885	-0.12379555
64	0xbd66cc07	-0.05634692
65	0xbd9a0f70	-0.07522476
66	0x3d543c6e	0.051815443
67	0xbe0539d3	-0.1301034
68	0xbe57ee08	-0.21086895
69	0xbe0e0e80	-0.13872719
70	0xbc98a4b5	-0.018633226
71	0xbe1a3e61	-0.15062858
72	0xbd636ff8	-0.055526704
73	0xbca72d0d	-0.020407224
74	0x3ca609f2	0.020268414
75	0xbe006667	-0.12539063
76	0x3cc859dd	0.024456913
77	0x3c421b2d	0.0118472995
78	0x3d0e05c0	0.034673452
79	0x3c64ff80	0.013976932
80	0xbe0b7ce4	-0.1362186
81	0x3e4c887f	0.19973944
82	0x3dfcde01	0.123470314
83	0x3de23aae	0.110463485
84	0x3d89659f	0.06708836
85	0xbe1b79e9	-0.15183224
86	0xbd511477	-0.051044907
87	0x3e151899	0.14560165
88	0xbde66ec6	-0.11251597
89	0x3d0485e1	0.03235424
90	0x3b903bcc	0.0044016596
91	0xbd938e4f	-0.072048776
92	0xbd14ecee	-0.036358766
93	0x3d0c9dc5	0.03433015
94	0xbc64c3c0	-0.013962686
95	0x3c9b99cf	0.01899424
96	0xbd6fcee5	-0.05854692
97	0xbbadfff7	-0.0053100544
98	0xbd0f7bf1	-0.03503031
99	0xbdc47cff	-0.095941536
100	0x3e0e1528	0.13875258
101	0x3db4fd68	0.08837396
102	0xbd31bd03	-0.043393146
103	0x3d8b04a3	0.06787994
104	0xbdc3ac15	-0.095543064
105	0x3dc6c76c	0.097060055
106	0xbdadd3d1	-0.084876664
107	0x3e18c5c2	0.14919189
108	0xbe9d515a	-0.3072613
109	0xbdcc85f5	-0.09986488
110	0xbde2c088	-0.11071879
111	0x3e39868f	0.18117736
112	0x3df6610a	0.120302275
113	0x3b7b00c9	0.0038300029
114	0x3b5c77b2	0.003364068
115	0xbdb099d5	-0.08623091
116	0xbd28b1e5	-0.04118528
117	0x3e0f1c3d	0.13975616
118	0xbc63f792	-0.013914006
119	0x3aa92920	0.0012905933
120	0xbd0f7597	-0.03502425
121	0xbd157728	-0.03649059
122	0xbe60a9f1	-0.21939828
123	0xbeea69e8	-0.45783925
124	0xbdc65891	-0.096848615
125	0x3da7f406	0.08200841
126	0xbd179012	-0.03700263
127	0xbe0ac85d	-0.13552995
128	0xbd29f88b	-0.041496795
129	0xbdbaa9aa	-0.09114392
130	0x3e163fe4	0.1467281
131	0xbe44206b	-0.19152991
132	0x3c1d0cae	0.009585543
133	0x3cdef936	0.027218442
134	0x3c8efde2	0.017455045
135	0x3d1af37c	0.03782986
136	0x3d5588c2	0.052132376
137	0x3cddef53	0.027091658
138	0x3dd443bf	0.10364484
139	0x3e09d665	0.13460691
140	0x3e129157	0.14313255
141	0x3df31d3c	0.118708104
142	0xbe256d0b	-0.16154878
143	0x3bffcb5b	0.0078062243
144	0x3dd2f39e	0.103003725
145	0xbca6e3d9	-0.020372318
146	0xbd79b6e5	-0.060965437
147	0xbc794d85	-0.015216236
148	0xbe208a0a	-0.15677658
149	0xbe4ef092	-0.20208958
150	0xbd9b4c44	-0.07582906
151	0xbd080723	-0.03320993
152	0xbd039f59	-0.032134388
153	0x3daf8671	0.085705645
154	0x3e2e9def	0.17052434
155	0x3e34a5c0	0.17641354
156	0xbd3b1a63	-0.04567946
157	0xbdab7e30	-0.08373678
158	0x3e1f396d	0.1554925
159	0x3d5ec1c0	0.054383993
160	0xbdf06011	-0.11737073
161	0x3e8a5672	0.27019078
162	0xbd814f2b	-0.06313928
163	0xbe104c0d	-0.14091511
164	0xbe7599d4	-0.23984462
165	0xbd014689	-0.03156141
166	0xbdc154a7	-0.09439974
167	0xbe08dfe3	-0.13366656
168	0xbd109b27	-0.035304215
169	0xbd8e9b42	-0.06963207
170	0x3e0111ae	0.126044
171	0x3d80ef8e	0.062956914
172	0xbe680ee1	-0.22661926
173	0xbd811d8f	-0.06304466
174	0x3d60c8a8	0.05487886
175	0x3e50111e	0.2031903
176	0x3dff3081	0.12460423
177	0xbe192ddf	-0.14958905
178	0x3e18471f	0.1487088
179	0x3e808ee5	0.2510902
180	0xbb9e9a6b	-0.0048401854
181	0xbda23052	-0.079193726
182	0x3d9d7609	0.07688529
183	0x3dd10768	0.10206491
184	0xbdeb86ad	-0.11500297
185	0xbc209ef6	-0.009803524
186	0xbd9d5135	-0.07681505
187	0xbdf31284	-0.11868766
188	0xbcf024ae	-0.029314365
189	0xbed17ff4	-0.40917933
190	0xbe52fa72	-0.2060335
191	0xbe132549	-0.14369692
192	0x3e3767b0	0.17910647
193	0xbe4fe1c0	-0.2030096
194	0x3ddfb903	0.1092396
195	0xbe69175a	-0.22762814
196	0xbe84944f	-0.258944
197	0x3c51cece	0.012805654
198	0xbe42b443	-0.19014077
199	0x3df02e9e	0.117276415
200	0x3df586f1	0.11988629
201	0x3d8a2f21	0.067472704
202	0x3cadf278	0.021233782
203	0xbe5a16d0	-0.21297765
204	0x3db7b07e	0.0896921
205	0x3d537abf	0.05163073
206	0x3deb1177	0.114779405
207	0xbe5b4436	-0.21412739
208	0xbd8cabec	-0.06868729
209	0x3d87b7e5	0.06626872
210	0x3e317967	0.17331468
211	0xbded453c	-0.11585471
212	0xbe1d61bf	-0.15369318
213	0x3e22834b	0.15870397
214	0xbea2240d	-0.3166813
215	0xbde6c8ce	-0.11268769
216	0xbd4b588d	-0.049644995
217	0x3e54276d	0.20718165
218	0x3d7cd4ae	0.061726265
219	0xbcd136d0	-0.025538832
220	0x3db2aa86	0.08723931
221	0xbd6deb7e	-0.05808591
222	0xbdaa3b7a	-0.083121255
223	0xbdb80f74	-0.089873224
224	0x3e487e51	0.19579436
225	0x3e610f73	0.2197855
226	0xbe3682c0	-0.17823315
227	0xbdf871d5	-0.12131087
228	0x3e0c87ec	0.13723725
229	0x3e10b72f	0.14132379
230	0x3e727c6d	0.23680277
231	0x3c83ba56	0.016080063
232	0x3e47b045	0.19500835
233	0x3c99244c	0.018694066
234	0xbd51d9dd	-0.05123316
235	0x3e4f29d5	0.20230801
236	0xbd9ecde7	-0.077541165
237	0xbd1390fa	-0.036026932
238	0xbe0bd191	-0.13654162
239	0xbce712bf	-0.028207181
240	0xbd0d5f5d	-0.034514774
241	0xbe4dbce0	-0.20091581
242	0xbdbf34a5	-0.09336213
243	0x3e49efde	0.19720408
244	0xbcd245c9	-0.025668042
245	0xbdad3b99	-0.08458633
246	0x3dcc17c3	0.0996547
247	0x3e264f67	0.16241227
248	0x3dc9f951	0.098620065
249	0x3de92744	0.113844424
250	0xbd807aed	-0.06273446
251	0xbe88ae68	-0.2669556
252	0x3c6af7df	0.014341324
253	0xbd90992a	-0.07060464
254	0x3e67e010	0.22644067
255	0xbd86a1e3	-0.06573846

gru.weight_ih_l1 f4 [294, 98]
0	0xbcf14711	-0.029452832
1	0xbb18bc0a	-0.002330544
2	0x3d68507f	0.056717392
3	0x3c913819	0.017726945
4	0xbcf54338	-0.029939279
5	0x3d1bbda1	0.03802264
6	0x3de986c4	0.11402658
7	0xbc9a025a	-0.01879995
8	0xbdd3fa09	-0.10350425
9	0x3d47c861	0.04877508
10	0xbc77f966	-0.015135145
11	0x3cb9eab6	0.022694927
12	0x3db1d9d3	0.08684125
13	0x3deec4f9	0.11658663
14	0x3c36233f	0.011116802
15	0x3c23051d	0.00994995
16	0xbcac3108	-0.021019474
17	0xbc8f2884	-0.017475374
18	0x3e1df261	0.15424491
19	0x3d2c7b6d	0.042109895
20	0xbdcb6235	-0.09930841
21	0xbdbb32e3	-0.09140565
22	0xbca4bfaf	-0.020110933
23	0xbd0f0cec	-0.034924433
24	0x3d9b8921	0.07594515
25	0x3c133056	0.008983692
26	0x3d272344	0.040805116
27	0x3dd005ca	0.10157354
28	0xbd070157	-0.032960262
29	0xbd10cb16	-0.035349928
30	0x3d86963e	0.06571625
31	0x3dde26eb	0.10847267
32	0x3dc44ed8	0.09585351
33	0x3dddc97b	0.10829445
34	0x3db64586	0.08899979
35	0xbcd625c1	-0.02614105
36	0x3d8eb533	0.06968155
37	0xbdc5cc55	-0.09658114
38	0x3dc58c15	0.09645859
39	0xbe0560bb	-0.13025181
40	0x3b8d044b	0.0043034903
41	0xbd5cce70	-0.05390781
42	0xbdb6a6fc	-0.089185685
43	0xbdbad179	-0.09121985
44	0x3ceffebe	0.029296275
45	0xbd22f46c	-0.03978388
46	0x3c80325f	0.015649019
47	0xbdc306bb	-0.09522768
48	0xbdcb23fd	-0.099189736
49	0xbdc05910	-0.09391987
50	0xbc8f2e85	-0.017478237
51	0xbd4634c6	-0.048390172
52	0xbd90b923	-0.07066562
53	0x3d54b818	0.051933378
54	0x3d254e40	0.04035783
55	0x3dd136c8	0.10215527
56	0xbdd1c35e	-0.102423415
57	0x3dfe4c7f	0.12416934
58	0xbe075391	-0.13215472
59	0x3cbc8ab2	0.023015354
60	0xbd465250	-0.048418343
61	0x3b90b6a6	0.0044163046
62	0x3d48bade	0.049006335
63	0xbc027c5c	-0.00796422
64	0xbd15fdc4	-0.036618963
65	0xba744f20	-0.0009319652
66	0x3de5a6f3	0.11213484
67	0x3ca6a8f2	0.020344231
68	0xbda4a70f	-0.080396764
69	0xbd0ba85c	-0.034096107
70	0xbd88b757	-0.06675594
71	0x3d270830	0.040779293
72	0xbdd9802a	-0.106201485
73	0x3d567570	0.05235809
74	0x3b8448d8	0.004037004
75	0x3d9f8bab	0.077903114
76	0x3dd7da27	0.10539656
77	0xbc2ccd90	-0.010547057
78	0xbdde1695	-0.10844151
79	0x3d03c6b4	0.03217192
80	0x3daf42b7	0.08557647
81	0x3da33df7	0.07970803
82	0xbde025a9	-0.10944683
83	0xbda3d688	-0.07999903
84	0xbc4eedca	-0.0126299355
85	0x3dad7872	0.08470239
86	0x3aec4257	0.0018025142
87	0xbdc59aed	-0.096486904
88	0x3d93d308	0.072179854
89	0xbca0a1d9	-0.019608425
90	0x3de4b739	0.111677594
91	0xbc2a6898	-0.010400914
92	0xbccbc11b	-0.024872353
93	0xbd98c712	-0.07459845
94	0xbd04f709	-0.032462154
95	0xbde08620	-0.10963082
96	0xbc0c32a7	-0.008556998
97	0x3d22ac49	0.039715085
98	0x3c92e13b	0.017929664
99	0xbcaa40a7	-0.020782782
100	0xbd96a65c	-0.07355949
101	0xbd43db1c	-0.04781638
102	0x3de916b8	0.113812864
103	0xbdbd86bd	-0.09254215
104	0xbcbbadf7	-0.022910101
105	0xbbbbb172	-0.0057279402
106	0x3da7d73d	0.0819535
107	0x3b064278	0.0020486396
108	0x3d5c9e0d	0.053861666
109	0x3d08d15f	0.033402797
110	0x3df61a19	0.120166965
111	0xbced70c2	-0.028984431
112	0x3d92bc9e	0.07164882
113	0x3e03ed71	0.12883545
114	0x3d2345d0	0.0398615
115	0x3d519bbe	0.051173918
116	0x3db03500	0.08603859
117	0x3d8167a6	0.063185975
118	0xbd0343dc	-0.032047138
119	0x3d416183	0.047212135
120	0xbd511342	-0.051043756
121	0x3d99ead7	0.07515495
122	0x3df36b8b	0.118857466
123	0x3cb07953	0.021542227
124	0x3cdd5398	0.0270174
125	0x3d8510e8	0.06497365
126	0x3cc532a3	0.024071997
127	0xbb59d76c	-0.0033239974
128	0x3d02470e	0.031806044
129	0x3b202d2b	0.0024440985
130	0xbd1b87d5	-0.037971336
131	0xbd95a4b0	-0.07306802
132	0xbd333a58	-0.043756813
133	0x3d9216ef	0.071332805
134	0xbd4b0298	-0.04956302
135	0x3d418771	0.047248308
136	0xbd98dc53	-0.074638985
137	0x3b47af91	0.0030469636
138	0xbd6a0f34	-0.057143405
139	0xbde1ce3f	-0.110256664
140	0x3d98453b	0.0743508
141	0xbcc1a105	-0.02363635
142	0xbca5b767	-0.020229055
143	0xbd9598a9	-0.07304508
144	0x3c9aeb86	0.018911134
145	0x3d6fce39	0.05854628
146	0x3dcf0121	0.10107637
147	0xbcb826b2	-0.022479389
148	0xbd6378be	-0.05553507
149	0x3daeb87d	0.08531282
150	0xbd4a725a	-0.04942546
151	0xbda5a45e	-0.08087991
152	0x3b5e273b	0.0033897895
153	0x3db1243d	0.0864949
154	0x3c4a6cae	0.012355013
155	0x3cb7d6ad	0.022441233
156	0xbdeb225f	-0.11481165
157	0x3d2e3811	0.042533938
158	0xbcc6d348	-0.024270669
159	0xbe0664fa	-0.13124457
160	0x3dca3422	0.09873225
161	0x3d1ea4f7	0.03873154
162	0x3c2aec7c	0.010432359
163	0x3dd53dfb	0.104122125
164	0xbd4bbcff	-0.049740788
165	0x3ccd42b1	0.025056215
166	0xbd8964f8	-0.067087114
167	0xbcba09a5	-0.022709677
168	0xbe076a3a	-0.13224116
169	0xbe012916	-0.1261333
170	0xbd35817d	-0.044312943
171	0xbd69628d	-0.05697875
172	0x3e02ebc4	0.1278525
173	0xbb7fc84c	-0.0039029298
174	0x3d76df23	0.060271394
175	0xbd493f79	-0.049132798
176	0x3d9fba94	0.07799259
177	0x3df67ceb	0.12035545
178	0xbd6b5762	-0.05745638
179	0x3d92d1c8	0.07168919
180	0x3ad94cca	0.0016578671
181	0x3dd5efab	0.10446104
182	0x3c9a7035	0.018852333
183	0x3d06298a	0.03275446
184	0x3d04cca6	0.03242173
185	0xbc9c9521	-0.019114079
186	0xbd03decd	-0.0321949
187	0xbe190809	-0.14944471
188	0x3c29b58f	0.010358228
189	0x3da1935c	0.07889435
190	0xbd06c953	-0.03290684
191	0x3cbdc18e	0.023163583
192	0x3dc4e4a8	0.09613925
193	0x3dd4426f	0.10364234
194	0x3d7a2f76	0.06108042
195	0x3d25426b	0.040346544
196	0xbd94a092	-0.07257189
197	0xbd2bb4ed	-0.04192059
198	0x3c9a7f73	0.0188596
199	0x3d9445a2	0.07239844
200	0xbe054c76	-0.13017449
201	0xbe279220	-0.16364336
202	0xbe448a07	-0.19193278
203	0xbbf63875	-0.0075140544
204	0xbcdf8b75	-0.027288178
205	0x3d964ed4	0.07339254
206	0x3e04996c	0.12949151
207	0xbd4ef21e	-0.05052387
208	0x3e6da25f	0.23206471
209	0x3d466f5e	0.04844605
210	0x3de88e2f	0.11355244
211	0xbdfb65fa	-0.1227531
212	0x3d2639cf	0.040582474
213	0x3d0e56db	0.0347508
214	0xbe7ce71b	-0.24697535
215	0xbcce8144	-0.025208123
216	0xbe035305	-0.12824638
217	0xbdbde96a	-0.09273036
218	0xbcc1aeea	-0.023642976
219	0xbc698748	-0.014253445
220	0xbdc3d84b	-0.09562739
221	0xbe00f9ad	-0.12595244
222	0x3e036ecc	0.12835234
223	0xbb8bfd43	-0.0042721345
224	0x3cf878a5	0.030330965
225	0x3e24b0d5	0.16083081
226	0xbcf6df1b	-0.030135682
227	0x3dea4f3a	0.114408925
228	0xbd2ea518	-0.042637914
229	0xbe5674d5	-0.20943005
230	0x3db547dd	0.088515975
231	0xbd63f7b8	-0.055656165
232	0x3e0ebf9e	0.13940284
233	0xbdbed19f	-0.09317326
234	0xbe1f81f6	-0.1557692
235	0x3d1cb7af	0.03826111
236	0xbcb9888b	-0.022648117
237	0xbe31b3d7	-0.1735376
238	0xbd36cc0c	-0.044628188
239	0x3e357e8d	0.17724057
240	0x3e284d15	0.16435654
241	0x3d6add6a	0.057340063
242	0xbdcf9d2a	-0.101373985
243	0xbdb9ae86	-0.09066491
244	0xbd8ab047	-0.067719035
245	0xbda82ef7	-0.08212083
246	0x3e409ada	0.18809071
247	0x3deb77a9	0.11497433
248	0x3e3f88ce	0.1870453
249	0x3e828bd4	0.25497305
250	0x3ccdd19f	0.02512437
251	0x3d5957da	0.053062297
252	0xbd41cbce	-0.047313504
253	0xbdc257db	-0.09489413
254	0xbdc38d9b	-0.095484935
255	0x3db1c3f5	0.08679954

gru.weight_hh_l1 f4 [294, 98]
0	0x3ca958c9	0.020672219
1	0x3e30f5ae	0.1728122
2	0x3d4f7f9f	0.05065882
3	0x3dba13e0	0.09085822
4	0xbe25c9f2	-0.16190317
5	0x3ce3ce4b	0.02780833
6	0x3d787963	0.06066264
7	0xbd3986fa	-0.04529474
8	0xbdf4cc24	-0.11952999
9	0xbdd06c6b	-0.10176929
10	0x3e3d597b	0.18491165
11	0x3e2bb472	0.16768053
12	0xbdf5680c	-0.11982736
13	0x3e4f3ee3	0.20238833
14	0x3e1ef758	0.15524042
15	0xbe06e328	-0.1317259
16	0xbe694eb5	-0.2278393
17	0x3e026433	0.12733535
18	0x3e231dfd	0.15929408
19	0xbc8dae0c	-0.017294906
20	0x3e4273bb	0.1898946
21	0x3e060624	0.1308828
22	0x3e18e537	0.14931189
23	0xbe20e491	-0.15712191
24	0x3e32b0f1	0.1745031
25	0xbe26233c	-0.16224378
26	0xbe28b407	-0.16474925
27	0xbd9cf55d	-0.07663987
28	0x3e2ed3bc	0.17072958
29	0x3e0d3fa5	0.1379381
30	0xbe4bf4e5	-0.19917639
31	0x3dd48876	0.1037759
32	0xbe380f22	-0.17974523
33	0x3e56039a	0.20899811
34	0x3d26ff32	0.040770717
35	0x3dd61320	0.104528666
36	0x3d9fb9c7	0.07799106
37	0xbe2326b2	-0.1593273
38	0x3e4324cb	0.19057004
39	0x3e3f5634	0.18685228
40	0x3e335b17	0.17515217
41	0x3e76eac7	0.24112998
42	0x3e1c53be	0.1526632
43	0x3e5e2c68	0.21696627
44	0xbc6ba7f4	-0.014383305
45	0xbe207eb1	-0.15673329
46	0x3e1ff49c	0.15620655
47	0x3df83705	0.12119869
48	0xbe200a03	-0.15628819
49	0xbe7f5aee	-0.2493703
50	0xbdc2d422	-0.095131174
51	0xbe5e8d90	-0.2173369
52	0x3e0e0dd5	0.13872464
53	0xbd6377fa	-0.05553434
54	0x3e22134f	0.15827678
55	0xbd9fa200	-0.07794571
56	0x3e734b8b	0.23759286
57	0xbe1a6a17	-0.15079533
58	0x3df1837b	0.11792656
59	0x3dce501a	0.10073872
60	0xbdd87ad0	-0.105702996
61	0xbdac1cee	-0.084039554
62	0x3e2ecedb	0.17071097
63	0x3d9152d4	0.07095876
64	0xbe19a05f	-0.15002583
65	0x3dac3a73	0.08409586
66	0x3e423a28	0.18967497
67	0x3e7bc2d7	0.24586044
68	0x3d16e414	0.036838606
69	0x3e80ee50	0.25181818
70	0x3dc58bef	0.09645831
71	0x3d4615f9	0.0483608
72	0x3b87191d	0.004122867
73	0x3d90bebf	0.07067632
74	0xbe1023dc	-0.1407618
75	0xbe457974	-0.19284612
76	0xbe563bae	-0.20921203
77	0x3e2ddb8c	0.16978282
78	0x3cfc0ec1	0.030768754
79	0xbe195ebb	-0.14977543
80	0xbc7ee071	-0.015556441
81	0x3e54ca8f	0.20780395
82	0xbc4cd27e	-0.012501357
83	0xbe089331	-0.13337399
84	0x3e24d290	0.16095948
85	0xbda43265	-0.080174245
86	0x3e123e5b	0.14281599
87	0xbe2020c8	-0.15637505
88	0xbe686681	-0.22695352
89	0xbe1fe8d9	-0.15616168
90	0xbe2d11a3	-0.16901259
91	0xbe034d84	-0.12822539
92	0x3e01c4ce	0.12672731
93	0x3de11c25	0.10991696
94	0x3e2f6ff7	0.17132555
95	0xbd02c101	-0.031922344
96	0x3deffbfb	0.11717983
97	0xbe3661b6	-0.17810711
98	0x3da93d04	0.08263591
99	0x3e0ab3b8	0.1354512
100	0x3e106b73	0.14103489
101	0x3e177675	0.14791282
102	0xbe1a7826	-0.15084895
103	0x3e4715ab	0.1944186
104	0x3e04d4b1	0.1297176
105	0xbdaf45d4	-0.085582405
106	0xbe1e1304	-0.15436941
107	0xbe6cf556	-0.23140463
108	0x3da5e6fc	0.081006974
109	0x3cdf92fc	0.027291767
110	0xbe1bbc21	-0.15208484
111	0x3d455f14	0.048186377
112	0x3d1670f9	0.036728833
113	0xbda39a17	-0.07988375
114	0xbd1195a0	-0.035543084
115	0x3e63d975	0.22250922
116	0x3d45d044	0.04829432
117	0xbc871450	-0.016489178
118	0x3d068965	0.032845873
119	0x3d9ff924	0.07811192
120	0x3d59c397	0.053165045
121	0xbe242530	-0.16029811
122	0xbd88fd09	-0.066888876
123	0xbe1c8311	-0.15284373
124	0x3d060b17	0.03272542
125	0xbdfa483a	-0.122208074
126	0x3d89a243	0.06720402
127	0x3d86a2d9	0.065740295
128	0xbe0542d0	-0.13013768
129	0x3d4d4a94	0.05011995
130	0xbdfceb1c	-0.12349531
131	0x3e1c11cf	0.15241168
132	0x3dc538b0	0.09629953
133	0x3e522756	0.20522818
134	0x3e1f0e1d	0.15532728
135	0xbe10ac4a	-0.14128223
136	0x3cb9dc39	0.022688018
137	0x3d08fda5	0.03344502
138	0x3e2f32df	0.1710925
139	0x3c08f9f6	0.008360377
140	0x3e346403	0.17616276
141	0x3d06657a	0.03281162
142	0xbdd78aed	-0.10524545
143	0xbe6c1f32	-0.23058775
144	0x3d138f97	0.03602561
145	0x3e2c0826	0.16799983
146	0xbdf1f4bd	-0.11814258
147	0xbe0d6e86	-0.13811693
148	0xbda058fd	-0.07829473
149	0xbe45b86b	-0.19308631
150	0x3dd4e99d	0.10396121
151	0xbd8e2668	-0.06940919
152	0x3df92d76	0.12166874
153	0x3b1cc2f9	0.0023919924
154	0x3e197d93	0.14989309
155	0xbac69e18	-0.0015153317
156	0x3e42fcd7	0.19041763
157	0x3e83aa74	0.25715983
158	0xbd9212f3	-0.071325205
159	0xbdbe4c18	-0.092918575
160	0x3dd1ad98	0.102381885
161	0x3e3c90e0	0.1841464
162	0xbd9b4589	-0.07581622
163	0x3e06b06a	0.13153234
164	0x3c714281	0.014725328
165	0x3e08a64d	0.13344689
166	0x3def6269	0.11688692
167	0x3ca80cdd	0.020513946
168	0x3e44602c	0.19177312
169	0x3c610df9	0.0137362415
170	0xbd9b69e5	-0.07588557
171	0xbccc6243	-0.024949199
172	0xbd0ca329	-0.03433529
173	0xbd17c4e0	-0.03705299
174	0xbe63a8cc	-0.2223236
175	0x3de0be41	0.10973788
176	0x3cce4adb	0.025182178
177	0xbe0a4bb7	-0.13505445
178	0xbd4fd4e5	-0.05074014
179	0x3db2de3b	0.08733793
180	0x3ce40ef7	0.027839167
181	0xbdf429af	-0.11922013
182	0x3e2fe5d5	0.17177518
183	0xbce84e05	-0.028357515
184	0x3d34f8d7	0.044182625
185	0xbe2ff355	-0.17182668
186	0xbdd82c31	-0.10555304
187	0xbe1d4588	-0.15358555
188	0xbd38fe8d	-0.045164634
189	0xbda5f2a1	-0.081029184
190	0x3d636744	0.055518404
191	0x3e2f9ddc	0.17150062
192	0x3da79ba3	0.08183982
193	0xbe16fc76	-0.14744744
194	0xbb70251d	-0.0036643215
195	0xbe2486a8	-0.16066992
196	0xbdf3c8f7	-0.119035654
197	0xbde962af	-0.113957755
198	0xbd4a33a9	-0.049365673
199	0xbdc9bbf8	-0.09850305
200	0x3da33b58	0.07970303
201	0xbdbb4f49	-0.09145982
202	0xbd0841fa	-0.033266045
203	0x3e1b5972	0.1517084
204	0x3dc1aead	0.09457145
205	0x3cf46cd2	0.029837046
206	0xbe1f5844	-0.15561014
207	0xbda40c64	-0.08010176
208	0x3e0986c0	0.1343031
209	0xbe1971bf	-0.14984797
210	0xbd894fd1	-0.06704677
211	0x3dd78af8	0.10524553
212	0x3d2d7c27	0.04235473
213	0xbd991844	-0.074753314
214	0xbde4e660	-0.11176753
215	0xbbb611c5	-0.0055563175
216	0xbd554852	-0.052070923
217	0xbdd8fe2a	-0.10595353
218	0xbe461199	-0.1934265
219	0x3e08ba31	0.13352276
220	0xbd1c1678	-0.038107365
221	0x3d51f769	0.05126134
222	0xbe442fee	-0.19158909
223	0x3d9b7203	0.075901054
224	0x3aee0d61	0.0018161946
225	0xbdd8525a	-0.10562582
226	0x3e227792	0.15865925
227	0xbdffa732	-0.12483062
228	0x3dadd971	0.08488739
229	0x3b9dc57f	0.004814803
230	0x3ce94ad2	0.02847806
231	0x3c8ab909	0.016933935
232	0xbd5b525a	-0.053545333
233	0xbd47fd4e	-0.048825555
234	0x3c922ec7	0.01784457
235	0xbdfb35cd	-0.12266121
236	0xbe094358	-0.13404596
237	0xbdef4f38	-0.11685032
238	0xbe1ca5ad	-0.15297575
239	0xbda38a8a	-0.079854086
240	0xbd4f7e4f	-0.050657567
241	0x3d865a12	0.06560148
242	0xbd2118d2	-0.03933031
243	0x3e3d0652	0.18459442
244	0x3dccf1b9	0.100070424
245	0x3d512fd6	0.05107101
246	0x3e1af3c9	0.15132059
247	0xbc44aed7	-0.012004576
248	0x3d09c9f3	0.03363986
249	0xbdc2a771	-0.09504593
250	0xbdf58259	-0.119877525
251	0xbddb538d	-0.107092954
252	0xbe3a0d45	-0.18169124
253	0xbdf73fa7	-0.120726876
254	0xbd414983	-0.047189247
255	0xbd92027b	-0.07129379

gru.bias_ih_l1 f4 [294]
0	0xbd249374	-0.040179685
1	0xbdc202a4	-0.0947316
2	0x3dd979ab	0.106189094
3	0xbdcf0b9b	-0.101096354
4	0x3cf0ab77	0.029378636
5	0xbdc505d0	-0.09620249
6	0xbd9bf00a	-0.07614143
7	0xbde0cd2f	-0.10976636
8	0xbd855d9e	-0.06511997
9	0x3dadf56b	0.084940754
10	0x3d3da416	0.046299063
11	0x3cf9d7b2	0.03049836
12	0x3e02731a	0.1273922
13	0xbe0b75da	-0.13619176
14	0xbe135a22	-0.14389852
15	0xbdfbc4ad	-0.12293372
16	0xbbfacf1c	-0.007654084
17	0x3c80dc58	0.015730068
18	0xbdf24209	-0.118290015
19	0xbe4b1c5a	-0.19835034
20	0x3d41a079	0.04727218
21	0xbbc9fe91	-0.00616438
22	0xbd2e6e8b	-0.04258589
23	0xbe16b440	-0.14717197
24	0xbdb85ad4	-0.09001699
25	0xbbee59bc	-0.0072738808
26	0x3d998889	0.07496745
27	0xbd68c79c	-0.056830987
28	0xbbaded7d	-0.005307852
29	0xbd936b13	-0.07198157
30	0x3d28ccf8	0.0412111
31	0xbd780565	-0.06055202
32	0xbbdd0705	-0.0067452216
33	0xbdb49d3f	-0.08819055
34	0xbcd0a6b3	-0.025470113
35	0xbe15b0b0	-0.14618182
36	0xbd789ff7	-0.06069943
37	0x3a0e5ebf	0.00054309884
38	0xbe0ab51e	-0.13545653
39	0xbd999431	-0.074989684
40	0x3bfdcf9d	0.0077456967
41	0xbe299f38	-0.16564643
42	0x3db2633b	0.08710333
43	0xbe199cac	-0.15001172
44	0xbddabce0	-0.10680556
45	0x3c8c0cf9	0.01709603
46	0xbd210eff	-0.039320942
47	0xbd77cafa	-0.060496308
48	0xbd4b93a6	-0.049701355
49	0xbdc03f05	-0.0938702
50	0xbdfd0fbb	-0.12356516
51	0xbc702610	-0.014657512
52	0x3d013dd3	0.0315531
53	0x3a0ff0d6	0.00054909044
54	0xbe12257e	-0.14272115
55	0xbd86d839	-0.0658421
56	0x3d823d19	0.0635931
57	0xbc1da1da	-0.009621108
58	0xbdfd6601	-0.12372971
59	0xbd6467ca	-0.055763043
60	0x3d326c63	0.043560397
61	0xbdd211ed	-0.10257325
62	0xbddc9364	-0.107703
63	0xbe3f8e92	-0.1870673
64	0xbe33000f	-0.17480491
65	0xbd87a3b1	-0.066230185
66	0xbd862ab3	-0.06551113
67	0xbd1b93cc	-0.037982747
68	0xbe226281	-0.15857889
69	0xba8254a6	-0.000994344
70	0x3c936827	0.017994
71	0xbd9abae4	-0.07555178
72	0xbcb1d905	-0.021709928
73	0xbdff5191	-0.124667294
74	0xbd28b1a0	-0.04118502
75	0xbd4886ad	-0.04895656
76	0xbc7a5958	-0.01528009
77	0xbe2ca658	-0.1686033
78	0xbe58e3f5	-0.21180709
79	0xbc2bea79	-0.010492914
80	0x3d034cf2	0.032055803
81	0x3c4e5448	0.012593336
82	0x3ac227b1	0.0014812854
83	0xbd2c8ad6	-0.04212459
84	0x3b4da360	0.0031377897
85	0xbe565565	-0.20931013
86	0xbdcc687f	-0.099808685
87	0x3b6f2aaa	0.0036493936
88	0xbd66d7f4	-0.056358293
89	0xbdbeaf80	-0.09310818
90	0xbdcf41b2	-0.10119952
91	0xbc92093f	-0.017826675
92	0xbd306736	-0.04306718
93	0xbda40a35	-0.08009759
94	0xbcd62837	-0.026142223
95	0x3daf7778	0.08567709
96	0xbdd7ce40	-0.10537386
97	0x3bf910ef	0.0076008956
98	0x3da7c535	0.08191911
99	0xbcb0a557	-0.021563215
100	0xbd19039f	-0.03735697
101	0x3d8acf96	0.06777875
102	0xbdfdf32e	-0.123998985
103	0xbe0bf7d4	-0.13668758
104	0xbdaa75e4	-0.08323267
105	0x3d5f1ce6	0.05447092
106	0x3d3dbd62	0.046323188
107	0xbd790f01	-0.060805324
108	0x3d6f53f6	0.05842968
109	0x3dd03007	0.101654105
110	0xbd9cea85	-0.076619186
111	0xbd8bb3fd	-0.068214394
112	0xbdbf12cc	-0.09329757
113	0x3d6f99d1	0.0584963
114	0xbdd3e569	-0.10346491
115	0xbde49a0e	-0.11162196
116	0xbccadbfd	-0.024763102
117	0xbdafdfc7	-0.08587604
118	0x3d795632	0.060873218
119	0x3c89f81e	0.016841944
120	0x3c869074	0.016426302
121	0xbd1e7231	-0.03868312
122	0x3df2cbcf	0.1185528
123	0xbb521ed8	-0.0032061841
124	0x3bc6859e	0.006058409
125	0xbd9c7641	-0.07639743
126	0x3e112abb	0.14176457
127	0x3c4362de	0.011925427
128	0x3d1d1f65	0.03836002
129	0x3e027e90	0.12743592
130	0xbe0835c0	-0.13301754
131	0xbb5a6b6c	-0.0033328189
132	0x3d3ba3f9	0.045810673
133	0xbe09d5ae	-0.13460419
134	0xbdfd189e	-0.12358211
135	0x3de55bfa	0.11199184
136	0xbdf30ada	-0.11867304
137	0x3d3df036	0.04637166
138	0xbda79eb8	-0.0818457
139	0xbda309e2	-0.07960869
140	0x3de75ab6	0.112965986
141	0xba1e8a6a	-0.0006047847
142	0xbd9e15cb	-0.077190004
143	0xbd9f349f	-0.077737086
144	0xbdcbfeba	-0.099606946
145	0xbda542fd	-0.080694176
146	0xbc93fb67	-0.018064214
147	0x3d2085a3	0.039189946
148	0x3c172b71	0.009226666
149	0xbd1b59c6	-0.03792741
150	0x3d5fa69a	0.054602243
151	0xbc60db64	-0.013724182
152	0x3dc2e980	0.09517193
153	0xbe7ed8c3	-0.24887376
154	0x3c699f2e	0.014259143
155	0xbd33e664	-0.04392089
156	0x3dbfb8f8	0.09361452
157	0xbe1cfae3	-0.1533008
158	0xbe0ccd93	-0.13750295
159	0x3e203fbe	0.15649316
160	0x3c850707	0.016238702
161	0xbd6c01bb	-0.057618838
162	0x3d3cb102	0.046067245
163	0x3e2a6521	0.1664014
164	0xbcfe378f	-0.031032352
165	0xbe16fecf	-0.1474564
166	0x3cf420ae	0.02980074
167	0xbc9131f6	-0.017724019
168	0xbdb3e5d1	-0.087840684
169	0xbc972dcb	-0.018454453
170	0xbe3ab340	-0.18232441
171	0xbd720adf	-0.0590924
172	0xbe1ed8ae	-0.15512344
173	0x3e15a596	0.14613947
174	0xbd4508d3	-0.04810412
175	0xbde428f3	-0.11140623
176	0xbec1fbf9	-0.37887552
177	0x3df8058d	0.12110434
178	0xbda3a9e8	-0.079913914
179	0x3d9f8054	0.077881485
180	0xbd1a01df	-0.03759944
181	0x3dcf4f92	0.10122599
182	0x3d075a52	0.03304512
183	0x3d872499	0.06598777
184	0xbd10afb7	-0.035323825
185	0xbe47013f	-0.19434069
186	0x3dba4f18	0.09097117
187	0xbe8b225a	-0.27174646
188	0x3db0607e	0.086121544
189	0xbcb443fa	-0.02200507
190	0xbd25814a	-0.040406503
191	0xbcb3adc2	-0.02193344
192	0xbb6cc162	-0.0036126007
193	0xbdb74c8b	-0.08950146
194	0x3d1a704c	0.03770475
195	0xbc2ab530	-0.010419175
196	0x3e0d7c0b	0.1381685
197	0x3e0aa71f	0.13540314
198	0xbd94ad0b	-0.07259568
199	0x3e69b1ca	0.22821727
200	0xbde31769	-0.110884495
201	0x3dc49672	0.09599008
202	0xbcf6110a	-0.030037422
203	0xbe625c38	-0.22105491
204	0xbe25d580	-0.16194725
205	0xbe86ffc7	-0.26367018
206	0x3e3f8950	0.18704724
207	0x3dea5a0b	0.114429556
208	0xbecaaf70	-0.39586973
209	0x3e68919f	0.227118
210	0x3e95aad5	0.29231897
211	0xbdb164e7	-0.08661824
212	0xbe1dedfb	-0.15422814
213	0x3e765095	0.24054177
214	0x3e7a5e26	0.24449977
215	0x3e96b907	0.2943804
216	0x3e041ffb	0.12902825
217	0x3e265005	0.16241463
218	0x3e0314dc	0.12800926
219	0xbd2c9a95	-0.04213961
220	0x3e7c050e	0.24611303
221	0xbe4e0cfd	-0.20122142
222	0x3d02245d	0.03177296
223	0x3d6c25ea	0.057653345
224	0x3d95f3d9	0.07321901
225	0x3e3b18f2	0.18271235
226	0xbe50f7c9	-0.20407023
227	0x3e8358d6	0.25653714
228	0xbe5883bb	-0.21144001
229	0x3e6f4386	0.23365602
230	0x3e40687f	0.18789862
231	0x3e1bd0de	0.15216395
232	0x3da8f4be	0.08249806
233	0xbe59a0ae	-0.212527
234	0x3d9fe545	0.078074016
235	0x3e9c128d	0.30482903
236	0x3e8fb498	0.2806747
237	0x3e51bdd0	0.20482564
238	0x3eda61cb	0.42652735
239	0x3e7d271c	0.2472195
240	0xbc030d6d	-0.007998806
241	0xbddb5ffd	-0.10711668
242	0x3e695ce9	0.22789349
243	0x3df80405	0.12110142
244	0xbe974e63	-0.29551992
245	0xbe21bc64	-0.15794522
246	0xbd4ee91f	-0.05051529
247	0xbe2fdbda	-0.1717371
248	0x3d45b83f	0.048271414
249	0xbde6f595	-0.1127731
250	0x3e20201e	0.15637252
251	0xbdcaf8ff	-0.099107735
252	0x3d45a44f	0.0482524
253	0xbe1743ec	-0.14772004
254	0x3e16bea7	0.14721166
255	0x3e2fb684	0.17159468
