models/gru_trial_10.pth (torch, 249470 bytes, 9 tensors)

gru.weight_ih_l0 f4 [225, 44]
000000 1d 18 e8 bd 97 f7 3e 3e d8 f5 13 3e 9c 81 82 3d
       -0.11332724 0.18649136 0.1444925 0.06372377
000010 55 48 07 be 3a f2 d9 3e c3 56 3f be e1 8f 9d bd
       -0.13211186 0.42567617 -0.1868544 -0.07693458
000020 07 18 56 be e7 f6 de bd b4 a3 0d be c7 06 90 3c
       -0.20907603 -0.10886937 -0.13831979 0.017581357
000030 c6 0e a6 3e b9 6e b0 3d bc 51 4e 3e 10 85 b3 bb
       0.32433146 0.08614869 0.20148367 -0.005478509
000040 98 aa ad 3d cb bf 10 3e 7c 18 ac bd 20 7c 89 bc
       0.08479804 0.14135663 -0.084031075 -0.01678282
000050 97 c5 42 be 38 18 c1 3c 75 ef 9a 3d c7 93 b0 3d
       -0.19020687 0.023571119 0.07565204 0.08621936
000060 8c b5 78 3d 5e e4 df 3d 74 40 a9 3d 18 df c9 bc
       0.06072001 0.109322295 0.082642466 -0.024642512
000070 95 21 aa 3d b1 70 77 3d ad db 38 bd 30 2b 60 bc
       0.083071865 0.060410205 -0.045131374 -0.013682172
000080 29 5d a4 3d 23 1a 33 3d a7 46 00 3d 16 f6 51 be
       0.080255814 0.043726098 0.03131738 -0.2050403
000090 c9 fc d9 3c 9c 38 7b 3e 77 c9 32 bd 7d fe 88 bd
       0.026609795 0.24533314 -0.043649163 -0.06689165
0000a0 f1 28 69 3d ab 61 e9 bc ed 11 ef 3d b0 26 07 be
       0.05692381 -0.028488955 0.11673341 -0.13198352
0000b0 43 43 51 3c 96 53 a5 3d 11 a2 48 3e 21 36 c9 3d
       0.012772384 0.080725834 0.19593073 0.098247774
0000c0 df 90 02 be 3f a5 00 be f3 45 cd bd 65 7b 28 bd
       -0.12750576 -0.12563036 -0.100231074 -0.041133303
0000d0 3a 5e 21 be 92 e4 f3 bd 9c 99 10 3e dd c9 d1 3d
       -0.15758601 -0.11908831 0.14121097 0.102435805
0000e0 2c 25 3b 3d 5c 50 d6 3d b2 01 c9 bd ff 1d 2b bb
       0.045689747 0.10464546 -0.098147765 -0.0026110408
0000f0 3f de 88 3d 04 a9 4b 3e f6 13 53 3e da 7f 42 be
       0.06683015 0.19888693 0.20613083 -0.18994084
000100 17 58 20 bd 3e 9a cf 3c 72 da 92 3b ad 21 bd 3c
       -0.03914651 0.025342103 0.004481607 0.023087347
000110 12 86 b3 bd 46 e1 f6 bd b8 43 50 be 79 4c e4 bb
       -0.08765806 -0.12054686 -0.20338333 -0.006967124
000120 f3 64 f9 3c 83 4a 0a be 4a 6c 7b 3d 98 2d 0e be
       0.030443644 -0.13504986 0.06138257 -0.1388458
000130 02 f2 d8 3c c7 a7 2e 3e 2a 19 72 bd 2a 0e af bd
       0.026482586 0.1705619 -0.05910603 -0.085476235
000140 50 aa 0b be dd 2a 55 3d 2e e4 c9 3c 8f 84 6b 3d
       -0.13639188 0.05204283 0.024644937 0.057499465
000150 8b ff 11 be c4 43 ef 3c 61 65 f0 bd 14 b0 d5 bd
       -0.14257638 0.029207118 -0.117380865 -0.10433975
000160 77 bf 8c bd e1 04 04 3e f0 c9 dd bd 05 93 89 3d
       -0.068724565 0.12892486 -0.10829532 0.06717495
000170 77 61 dc 3d 41 2f 93 bc 11 8d 63 bd db 23 42 bd
       0.107607774 -0.017966868 -0.055554453 -0.047397476
000180 52 64 b6 3d 9d 97 1b be 75 4b b3 3d 30 1e 70 bd
       0.08905853 -0.15194555 0.08754627 -0.05862254
000190 4c b3 31 3c 9d 95 00 3d 96 b8 99 3d cf e2 95 bc
       0.01084597 0.031392682 0.0750591 -0.018296627
0001a0 6f e6 45 3e f9 67 04 be 67 e2 dc 3c 38 f5 f0 3b
       0.19326185 -0.12930287 0.026963426 0.007353451
0001b0 29 d4 b1 bd 50 3d 0c 3d 36 6d d4 3d 72 81 ab bd
       -0.086830445 0.03423816 0.10372393 -0.08374299
0001c0 ae 85 99 3b aa 45 b3 bd e7 42 19 3e 96 01 84 3b
       0.0046851253 -0.08753522 0.14966927 0.0040285094
0001d0 e0 48 c8 3d 38 59 c8 bd 98 c2 41 3d fa ab b0 bd
       0.09779525 -0.09782642 0.04730472 -0.08626552
0001e0 98 b2 f6 3d b6 e3 9f bd 5b b6 81 bc 41 32 db 3d
       0.12045783 -0.07807104 -0.015834024 0.107029445
0001f0 2c 89 cc 3d 0a b5 d1 bc 72 c1 46 bd 0f 78 61 3d
       0.09987101 -0.025599021 -0.048524328 0.055046137
000200 52 4b 76 bd 72 47 25 be 9b 14 8f be 99 bb 65 bb
       -0.060130425 -0.16140535 -0.27945408 -0.0035054444
000210 9b 34 42 3d 3f a8 b8 bd 0c 61 6d bd d2 ed 81 3d
       0.04741345 -0.090164654 -0.05795388 0.06344189
000220 3b c6 f0 3b 98 92 99 bd 90 90 9a 3c 80 07 a6 bd
       0.0073478497 -0.07498664 0.01886776 -0.08106899
000230 37 45 25 be 70 15 14 3e 73 23 e2 3c 42 34 c0 3d
       -0.16139685 0.14461303 0.027604794 0.093849674
000240 af 22 46 be a8 82 27 be 06 63 23 3e 2f a8 6a bd
       -0.19349168 -0.16358435 0.15955743 -0.0572893
000250 bf 34 a2 bd f8 84 d7 3d d6 58 9e bd 32 50 a4 3d
       -0.07920217 0.10523409 -0.07731788 0.080231085
000260 5e c4 28 3e ee 7c 4d bd 8c e2 9a 3d a7 99 4e 3d
       0.16481158 -0.05016797 0.07562742 0.050439503
000270 f9 15 0f 3e 61 8f 8b bd 45 51 35 3e ba 8c e4 bd
       0.13973226 -0.06814457 0.17706783 -0.11159654
000280 43 41 03 bd aa d1 c0 bd 56 17 da bd 6e b8 8b bd
       -0.03204466 -0.0941499 -0.10648982 -0.068222865
000290 47 50 dc 3d e5 1a e7 bd e1 39 23 3c 86 4f cf 3d
       0.10757499 -0.112844266 0.00996253 0.1012259
0002a0 b5 4f 9f 3c dd a1 ed bd c0 b0 ce bb 0d 5c 59 3b
       0.019447187 -0.116031386 -0.0063076913 0.0033166439
0002b0 5b 8e 15 3b 05 aa df bd 63 39 b3 bd 13 50 05 3d
       0.0022820446 -0.109211005 -0.0875118 0.032547068
0002c0 0d 95 50 bd 31 ad 19 3e 75 75 43 bd 8c f6 a8 bd
       -0.050923396 0.15007474 -0.047719438 -0.0825015
0002d0 cb 15 f5 bd 54 0e 88 be e2 17 a2 bd e9 11 4c 3d
       -0.11967047 -0.26573431 -0.079147115 0.049821768
0002e0 44 07 cc 3c 9f 11 b3 bd c4 f4 d9 3c f7 70 02 3d
       0.024905808 -0.08743595 0.026605971 0.031846013
0002f0 67 69 21 bd b2 00 21 3e de 93 2b bd e2 99 35 3d
       -0.03940716 0.15722921 -0.041889064 0.044336207
000300 77 59 5c 3e 85 98 cb 3d 03 85 6b 3d de 51 0e be
       0.21518503 0.099412 0.057499897 -0.13898417
000310 f8 2d c9 3d d7 f8 c2 3d f6 88 3a bd d9 76 8c bc
       0.09823221 0.09520119 -0.045540772 -0.017146515
000320 cd 2b a8 bd 03 7f b7 bd 75 af dc bc b2 e3 42 3e
       -0.08211479 -0.089597724 -0.026939133 0.19032171
000330 42 b8 ed bc 2b b5 0d be 28 9f 05 be c2 6a 9b bd
       -0.029018525 -0.13838641 -0.13048995 -0.07588722
000340 ef 9e 2b 3e 03 36 13 3e 41 9e 04 be ed 3b 01 bd
       0.16759847 0.14376073 -0.12950994 -0.03155129
000350 02 8e 42 be b9 c3 6f 3e ff 5b 01 3e 3d 10 bf bd
       -0.18999484 0.23414506 0.1263275 -0.09329269
000360 12 25 83 bc 68 33 08 3c b2 ea 4b 3d 99 39 0e be
       -0.016008887 0.008313037 0.04978437 -0.1388916
000370 a1 81 4c bb f6 a9 1b bc 66 c4 ef bd 70 e6 9c 3d
       -0.0031205195 -0.009500971 -0.11707382 0.0766114
000380 21 63 27 3d d9 ba cc bd 27 57 0d be 2a 9f a6 bd
       0.04086602 -0.09996576 -0.13802777 -0.08135827
000390 40 a3 16 bd 53 3c 99 bd 92 24 15 be 6f f6 00 3e
       -0.03677678 -0.07482209 -0.14564732 0.12594007
0003a0 63 92 3c be 72 15 9c bd f5 58 3b be ea fe ec 3d
       -0.18415217 -0.07621278 -0.18295653 0.115720585
0003b0 9b bd 0a 3e f1 cf 5f bd 7f ff a9 3b 67 8d b4 3d
       0.13548891 -0.054641668 0.005187928 0.08816033
0003c0 03 42 b4 bd 64 7f a6 3d d3 fe 43 bd ac ad fa bc
       -0.08801653 0.081297666 -0.04785044 -0.030600391
0003d0 56 5e 0c bd 9e d3 07 be cc c7 13 bd f7 cc 8f bd
       -0.034269653 -0.1326432 -0.036079213 -0.07021516
0003e0 9d 80 d6 bd 5b e2 3b 3d 59 df 39 3a 20 c5 27 be
       -0.1047375 0.045870166 0.00070904713 -0.16383791
0003f0 99 96 1f 3e d8 57 75 bc f8 a6 97 3d 44 a3 1e bc
       0.15584792 -0.014974557 0.07404894 -0.00968248

gru.weight_hh_l0 f4 [225, 75]
000000 93 45 be bd 22 2f 48 3c 10 d3 af bd a5 3d 99 bc
       -0.09290614 0.012218269 -0.08585179 -0.018706152
000010 20 9c c1 bd 45 13 3f be 3d 8a 81 3d 26 e4 52 3d
       -0.094536066 -0.18659694 0.06325195 0.05148711
000020 90 26 8b bc 86 9f ed 3d e7 45 ec bd 1e 21 65 3e
       -0.016986161 0.11602692 -0.1153677 0.22375914
000030 46 88 38 3e 60 8f b1 bd 60 bc 69 3d eb 5b 09 be
       0.18020734 -0.08669925 0.057064414 -0.1341397
000040 9d c8 65 3d 45 3e 6f bd fd 75 73 bd 53 53 d1 3e
       0.056099523 -0.058408994 -0.059438694 0.40883884
000050 4d 33 38 be c2 c2 bd bd 1b 76 d4 bd a4 6e 54 be
       -0.1798832 -0.09265663 -0.10374089 -0.20745331
000060 97 34 ae bd 88 af bb bd c0 da 59 3d 95 7f 62 3e
       -0.085061245 -0.09164339 0.053187132 0.22118981
000070 ff 88 28 be db 47 bd bd 36 4b 76 bd e6 0b 3f 3b
       -0.1645851 -0.09242221 -0.06013032 0.002915138
000080 54 6d 83 3c fd 2f c0 bd 0f 44 1f 3e 59 75 6f be
       0.016043343 -0.09384153 0.15553306 -0.23384608
000090 ca 56 6a 3d 25 c3 ad bd 4b 8d 5a 3c 08 61 30 3e
       0.057211675 -0.084844865 0.013339351 0.17224514
0000a0 27 2f 07 be 0e 78 34 be 88 1a 60 be 37 ff a4 3d
       -0.13201581 -0.17623922 -0.21885121 0.08056491
0000b0 fd 68 80 be 91 7b 22 be 43 41 0c be 57 56 a4 bd
       -0.250801 -0.1586745 -0.1369677 -0.080242805
0000c0 86 3e 36 bd 48 eb 5e bc e1 de 40 3d 8d d1 3d be
       -0.04449322 -0.0136059 0.047087554 -0.18536969
0000d0 5c 1a 99 bd 53 c4 11 3e 6b c8 ad 3c ea d7 c0 3d
       -0.07475731 0.14235048 0.02121373 0.09416182
0000e0 d2 ff 93 bd 80 ce d2 bd ab 1f 34 3e 44 3a 84 3e
       -0.07226528 -0.10293293 0.17590205 0.25825703
0000f0 db 57 3a bc a5 a6 87 bd 5f b5 26 3d 35 e9 df 3d
       -0.011373485 -0.06623582 0.040700313 0.109331526
000100 af 92 9d 3e 0a 78 df 3c 00 14 36 bd fe 8b d9 3d
       0.30775973 0.027278919 -0.044452667 0.106224045
000110 4c a9 61 3e 73 1d d2 3d 71 98 49 3d f4 42 78 be
       0.22037238 0.10259523 0.049217645 -0.2424429
000120 57 67 ce 3c 81 50 f9 3d 15 d6 bc bd 23 32 58 be
       0.02519576 0.12173558 -0.092205204 -0.21112876
000130 13 c0 bd bd 6d 10 0b bc 8e 7b 10 bc 89 55 62 3d
       -0.09265151 -0.008487803 -0.00881852 0.055257354
000140 1d 5b f6 3d 19 35 e4 bd dd b7 b4 3d 84 7d 49 bc
       0.12029097 -0.1114294 0.08824132 -0.012297992
000150 b5 be ad 3d cb 8c 30 bd f0 0b 97 3d 35 3c 5e bd
       0.0848364 -0.04310302 0.07375324 -0.054256637
000160 f4 25 27 3e 17 63 38 bd 63 25 2a 3d 90 07 07 be
       0.16323072 -0.045016374 0.04153956 -0.13186479
000170 cc 9c e3 3d c5 66 b3 3a 2a cf cb bb bd a2 ac bd
       0.11113891 0.0013687244 -0.0062197642 -0.08429477
000180 d6 30 02 bd ee 03 cb bd d3 e3 4e 3d 99 ff d2 bc
       -0.031784855 -0.09912859 0.05051024 -0.025756644
000190 fb 30 ed 3a b8 d4 41 3d b0 90 d5 3b 8a cd 5a 3d
       0.0018096262 0.047322005 0.0065174922 0.053418674
0001a0 84 39 f4 bb 91 6d e6 bd 10 4e a3 bd f6 3b 05 bd
       -0.0074531455 -0.11251367 -0.079738736 -0.032527886
0001b0 eb 8f 2a 3d a4 bd 36 3d 87 ae 10 bd 89 90 3a 3e
       0.041641157 0.04461445 -0.035322692 0.18219198
0001c0 0f fa 39 b9 0c 2e 09 3e 29 f3 c4 3d b5 c9 97 3d
       -0.00017736129 0.13396472 0.096166916 0.074115194
0001d0 02 ff 08 3e 72 08 60 3d c1 24 9f 3c f8 0e 95 3d
       0.13378528 0.054695554 0.019426705 0.07278246
0001e0 20 e8 de bc 06 c0 b2 bd 4f e4 ef bc a5 09 0c 3e
       -0.027210295 -0.08728032 -0.02928367 0.13675554
0001f0 50 42 4f 3e 5d c6 a7 ba ad d7 2e bd fa 8e b3 bd
       0.2024014 -0.0012800206 -0.042686153 -0.08767505
000200 42 21 db 3b 79 b9 ee 3d 2d 00 22 3d 4c 68 04 be
       0.0066873142 0.1165647 0.03955095 -0.12930411
000210 34 77 8d 3c 37 5a 0b 3e 4e cd 4d 3d 69 69 74 be
       0.017268755 0.13608633 0.050244622 -0.23868336
000220 f7 4c b9 bd 08 a7 b5 3c e1 f8 35 3e 86 46 bb 3d
       -0.09047883 0.022174373 0.17770721 0.09144311
000230 fc fe df bd 2d 3c 4e 3c ec 9c 8c bd 5d 8d 56 be
       -0.10937306 0.012587589 -0.06865868 -0.20952363
000240 44 09 08 3d 3c 27 29 3c 83 44 a2 3d 47 82 94 bd
       0.03321196 0.010324296 0.07923224 -0.07251411
000250 31 3f db 3c ea b7 01 3e ce 8d 08 be e5 8e 46 bd
       0.02676353 0.12667814 -0.13335344 -0.04847612
000260 bf 23 11 3d 6a dd 71 3d 06 c0 0a 3d 3a 38 0f bc
       0.03543448 0.059049048 0.033874534 -0.008741433
000270 a8 4f a4 3d 83 7a 25 3e a0 de 36 bd 9e 22 f1 3b
       0.08023006 0.16160016 -0.044645905 0.007358863
000280 cf 86 c8 3d 14 8a 10 bd bb 39 1b 3d 1c 6b b0 3b
       0.09791338 -0.03528793 0.037896853 0.005383862
000290 43 f3 5a be d8 b5 06 bd da cd 0c 3e 17 8c df 3d
       -0.2138186 -0.032888263 0.13750401 0.10915392
0002a0 62 7b 77 3d 60 9f 9a 3e 5d 16 b6 3c 52 86 53 be
       0.0604204 0.30199718 0.02222746 -0.20656708
0002b0 01 b1 53 3d e8 f6 10 3d 13 85 ef 3d 24 4d 81 3c
       0.051682476 0.03539172 0.11695304 0.015783854
0002c0 6d 8c d5 3d 18 0f f9 bc 9e 83 9b bd d8 01 51 3c
       0.10427175 -0.030402705 -0.07593463 0.012756787
0002d0 ce a2 0f be df 94 86 bc 63 a7 33 3d 3d ef 2e be
       -0.14026949 -0.01642841 0.043860804 -0.1708345
0002e0 32 08 f7 bd 0e 69 24 3d 97 64 64 bd 5b ea a8 3d
       -0.1206211 0.04013925 -0.055759992 0.08247825
0002f0 03 1b 85 3d c5 93 09 3d 57 47 1d 3d 90 3c 26 bb
       0.06499293 0.03358819 0.038398113 -0.0025365688
000300 f1 8b 82 bd 8d f1 b8 bd 03 d9 9c bc 9c dd 29 bd
       -0.06374348 -0.09030447 -0.019146448 -0.04147111
000310 f6 14 bb bd bc 11 20 be 45 94 d4 3c 3e 74 5d 3e
       -0.09134857 -0.15631765 0.025949607 0.21626374
000320 22 2b 53 bd 36 bc 15 be 7b a3 9d bd a3 db 48 be
       -0.051554807 -0.14622578 -0.07697197 -0.19615035
000330 bb 50 f5 3c 22 7e 4f 3d e8 a9 22 bc 58 3c 80 ba
       0.029945722 0.0506574 -0.009928204 -0.0009783609
000340 be b3 2e 3d c3 67 d7 3d 7c 45 30 bd 05 80 00 bd
       0.042651884 0.10517838 -0.043035015 -0.03137209
000350 cd a4 fe bd 72 21 55 3d c9 71 95 be 67 ba 32 bd
       -0.12433777 0.05203385 -0.29188374 -0.0436348
000360 3a 00 5d bc dc 25 66 bd aa b6 89 be 0e 3e 01 be
       -0.013488824 -0.05618845 -0.26897174 -0.12621328
000370 f8 43 61 be d9 e0 07 3e 5f 11 19 be 1b 12 16 bd
       -0.21998584 0.13269366 -0.14948033 -0.03663836
000380 f7 dd f7 3d 23 18 31 bd fc 51 28 bd 25 06 4a 3d
       0.12102883 -0.04323591 -0.04109381 0.049322266
000390 cc 15 34 be 50 0f 69 3e 40 3e 26 3e 4a 05 44 3d
       -0.1758644 0.22759748 0.16234684 0.047856607
0003a0 a0 1c 43 3e 2d 2d b9 be 19 b8 1a bd 52 62 0e be
       0.19053888 -0.3616728 -0.037773225 -0.13904694
0003b0 34 6f 1f bd 69 6e 05 be e6 3a 42 bd d6 fb 9d be
       -0.03892441 -0.130304 -0.04741945 -0.30856198
0003c0 a9 c2 3d 3e ec cc e6 3d f0 d2 95 3e 84 58 a7 bd
       0.18531288 0.112695545 0.29262495 -0.0817118
0003d0 b4 e0 cf 3d 4a 40 09 3e 76 4a 68 be db d6 bd 3d
       0.101502806 0.1340343 -0.22684655 0.09269496
0003e0 32 3d bc 3e 0e 0f 0b 3d 4a f2 17 3e 75 ea ca 3d
       0.36765438 0.033949904 0.1483852 0.099080004
0003f0 c9 ad 51 be 44 2e ec 3d 60 07 18 be b7 29 c7 bd
       -0.2047645 0.11532262 -0.14846563 -0.09724753

gru.bias_ih_l0 f4 [225]
000000 24 39 5b bc 03 e2 c3 3d e5 c1 cc bc 9e 22 7a bd
       -0.013380323 0.09564593 -0.0249948 -0.06106817
000010 60 b6 1e be 30 9a 4e 3d 79 9f 32 bd b9 09 82 bd
       -0.15499258 0.050440013 -0.043609116 -0.06349511
000020 23 ea 11 be c9 9d 3e bc e0 2f a1 3d 48 52 d0 bb
       -0.14249472 -0.011634299 0.078704596 -0.006357465
000030 1b 8a 9b bc 05 1b 49 bd da b1 24 be 4f 52 02 bd
       -0.018986752 -0.049098033 -0.1608347 -0.031816777
000040 7e 6d bd 3d 9d 07 38 3e 7e a8 f1 bd 45 8f 35 bc
       0.092493996 0.17971654 -0.117997155 -0.011081521
000050 fd e1 7c bc 4d e0 41 3d 2f fd 16 3e 82 28 84 bd
       -0.015434739 0.04733305 0.1474502 -0.06453039
000060 f5 8f 5c be fd 93 df 3d ea 80 5c bd 1b 5c 85 3e
       -0.2153929 0.109168984 -0.05383388 0.26046833
000070 b0 66 87 3e c9 76 e0 3d 9d 2c 95 bd 1a b1 93 bc
       0.26445532 0.109601565 -0.072839 -0.018028785
000080 04 fb da 3c 7c 05 0c be 0d 5e a1 bd 72 55 ee ba
       0.026731022 -0.13673967 -0.07879267 -0.0018183424
000090 f6 ee ed 3d 67 70 06 3e 6e 01 6f 3e 65 78 01 bd
       0.11617844 0.13128816 0.23340389 -0.031608958
0000a0 06 0e 6a bd bf be a4 3c 51 6f 1a 3c fd d7 b0 3d
       -0.05714228 0.020110486 0.009425954 0.086349465
0000b0 58 b4 2e 3d c7 09 0f 3d d4 aa d0 bd 49 82 ca 3d
       0.042652458 0.034921434 -0.10188833 0.09888131
0000c0 e4 cd 77 3a 4f 5f ef 3d 8c 3c 91 bb ec 96 7b bd
       0.00094529823 0.116881005 -0.0044322666 -0.061423227
0000d0 a1 7a 99 bd 06 18 3a 3e 97 be 01 3e 86 fb c6 3a
       -0.07494093 0.18173227 0.1267036 0.0015181161
0000e0 3b b8 24 bd 59 93 53 3c ad 2c 5e 3d b2 a0 14 3e
       -0.04021476 0.012913548 0.054241825 0.14514425
0000f0 04 09 1f 3e 1f fe 02 be a3 2e 17 3e 6a e5 e7 3d
       0.15530783 -0.12792252 0.14763884 0.11323054
000100 9e 3f f6 3d 60 2e e2 bc f7 c9 e2 3d ab 93 62 bd
       0.12023853 -0.027610004 0.11073678 -0.05531661
000110 f5 e8 00 3e 58 37 3f 3d e0 dc 9e 3d 60 37 dd 3c
       0.12588866 0.04668364 0.07756972 0.027003944
000120 00 ca c0 3c 47 0a 03 3e f3 f3 19 be 5c c9 5a 3d
       0.023533821 0.12796889 -0.15034465 0.053414688
000130 d5 49 f1 3d dc 58 c3 3d 42 1c 74 3d 62 56 77 bc
       0.117816605 0.09538433 0.05959726 -0.015096279
000140 3f 36 00 be 52 6c 83 3a 57 7a 02 be a8 7a 4c be
       -0.12520693 0.0010026789 -0.12741981 -0.19968665
000150 1f 04 4f bd 97 2e 68 bd 8a 99 22 3e 2b 82 0e bd
       -0.05054104 -0.056685057 0.15878883 -0.034792107
000160 02 90 24 be b8 66 a5 be 4f 74 79 bd 86 b3 0f bd
       -0.1607056 -0.3230493 -0.060901936 -0.035083316
000170 10 fa 5b be 7a 20 e0 3e 04 02 27 3e 03 64 53 3d
       -0.2148211 0.43774778 0.16309363 0.05160905
000180 c0 cb c8 3c df aa 5f bd b4 9a 21 be 56 2b fc be
       0.024511218 -0.054606315 -0.15781671 -0.49251813
000190 2c c3 6c be 73 0f fa 3d 7b b7 1c 3d b4 05 ba 3d
       -0.23121327 0.12209978 0.038260918 0.09083119
0001a0 6c d8 12 3e 39 9d 9d 3d d4 8c 47 3e 55 2b 32 bd
       0.14340371 0.076960035 0.19487315 -0.043498356
0001b0 f7 75 85 bd eb 59 9d bd 89 b3 98 bd 25 b6 bc bd
       -0.06516641 -0.07683166 -0.074561186 -0.09214429
0001c0 1c 22 a4 3c 30 5b cf bd 8b 55 98 bd 82 6b 11 be
       0.020035796 -0.101248145 -0.07438191 -0.14201167
0001d0 55 96 df bc 34 b3 3a 3d f3 8d 19 bd e1 4c 8a be
       -0.027293364 0.045581058 -0.03748889 -0.2701178
0001e0 63 34 35 3b bf 3f 0d be 4b 57 2f be b6 71 23 3e
       0.0027649633 -0.13793848 -0.17123143 0.15961346
0001f0 d8 8e 4c bd 9a 58 2f be 49 a8 96 3b 68 8d 8b bc
       -0.049940914 -0.17123643 0.004597698 -0.017035201
000200 06 0d c2 bd e7 17 2d bd 91 72 42 bd c2 1a 0b be
       -0.0947514 -0.042259123 -0.04747254 -0.13584426
000210 4c 44 62 3c ff d3 d0 bd f6 4a 58 be 1b 5e eb bc
       0.013810229 -0.10196685 -0.21122345 -0.028731396
000220 26 58 2c bd c7 03 2f 3e 7e 35 f3 3c b1 d7 01 bd
       -0.042076252 0.17091285 0.029688593 -0.03169984
000230 6d 3b 15 bd bc eb 72 3d aa 21 c6 bd 3f 9a 82 bd
       -0.036433626 0.059306845 -0.0967439 -0.06377076
000240 d0 d1 72 3d 80 b5 2a be f7 c0 49 bd e5 9d 90 bd
       0.059282124 -0.166708 -0.04925629 -0.07061366
000250 52 27 26 3e 2e b6 1c 3d b7 fa 5c be e6 9a 6c be
       0.16225937 0.038259678 -0.21580015 -0.23105964
000260 c2 be 60 3d b7 59 87 be c7 40 2d bc 6e d2 05 bd
       0.05486942 -0.26435634 -0.010574526 -0.032671385
000270 d9 d1 6a 3e 2b ef 24 3e 34 f9 43 bd 88 dd 22 3e
       0.22931613 0.1610686 -0.04784508 0.1590482
000280 f1 48 28 be 68 26 a7 bc 47 b3 2a bd 23 41 2a 3d
       -0.16434075 -0.020404056 -0.04167488 0.041566025
000290 50 7b 87 bd d4 d4 c0 3d 8c 0b a2 bc d5 dd ca bc
       -0.06615317 0.09415594 -0.019780897 -0.02476398
0002a0 1f 4d b5 3d fc 03 59 3e a1 82 3f be e6 15 21 3d
       0.088526 0.21192926 -0.18702175 0.039327525
0002b0 93 6a f1 bd 0f 45 87 be 8f 93 ce 3d 18 94 0a be
       -0.117879055 -0.26419875 0.10086738 -0.13533056
0002c0 86 08 7d be a3 c4 f2 3d ed 18 ba bc 74 69 83 be
       -0.24710283 0.11853912 -0.022716964 -0.25666392
0002d0 80 be 82 be ee ad 47 3d 44 c9 50 3d d5 cb b6 be
       -0.25535965 0.048749857 0.05097319 -0.35702386
0002e0 06 07 12 be bb a8 a1 bd e0 33 ba 3d 12 6d 63 be
       -0.14260492 -0.07893511 0.090919256 -0.22209576
0002f0 8b 6e 5a bd 9f 59 83 3e ff 6a 0b bd 09 79 0a 3e
       -0.05332808 0.25654313 -0.034037586 0.13522734
000300 0c 12 48 3e 64 ef f4 3d 94 61 37 be 81 08 44 bd
       0.19538134 0.11959723 -0.17908317 -0.047859672
000310 1b fc 8c be 87 19 91 be 78 5e 29 3e 04 6f 52 bc
       -0.2753609 -0.28339788 0.16539943 -0.012843851
000320 10 2f cd bb 59 a9 54 3d 7b 3c ee bd eb 2f b4 bc
       -0.006261714 0.051919315 -0.116326295 -0.021995505
000330 0c 1e 4c 3e a6 9f de bd 1f f7 43 be 75 30 f4 bc
       0.19933337 -0.10870294 -0.19137238 -0.029808262
000340 79 6b 05 3e 18 a4 19 be 06 15 35 be fa 10 d4 3c
       0.13029279 -0.15004003 -0.17683801 0.025887001
000350 84 c7 4f bd 61 49 fd 3d 1a 0c b8 bd 5a ca cf 3d
       -0.050727382 0.123675115 -0.08986683 0.101460174
000360 65 49 55 be 08 b3 23 3e ba 6b 30 be 56 74 33 be
       -0.20828779 0.15986264 -0.17228594 -0.17524847
000370 c6 cc 70 3d e1 f9 ec 3d 70 0c 6f be 4b 42 ae 3e
       0.058789037 0.11571098 -0.23344588 0.34034953
000380 12 25 b5 bc
       -0.022112403

gru.bias_hh_l0 f4 [225]
000000 33 b3 be 3d a9 73 a8 bc d6 62 e3 bc 58 2e 01 bd
       0.09311523 -0.020562964 -0.02775709 -0.031538337
000010 4f ca 20 be ac 6b 25 3e cc 92 2a 3d f5 15 e3 bd
       -0.15702175 0.16154355 0.041643903 -0.11088172
000020 8d 12 cd bd 9a 74 c5 3c 40 ff 0a bc 60 b0 76 3c
       -0.10013304 0.024103452 -0.008483708 0.0150566995
000030 89 45 cd bc 2b a8 fb 3d a7 e7 fa bd cc 8e b0 bc
       -0.025057571 0.12287935 -0.122512154 -0.021552466
000040 30 e0 1d 3e 97 ae 77 bc 32 91 da bd 6c d1 16 3d
       0.15417552 -0.015117309 -0.10672225 0.036820814
000050 30 29 94 3d 77 f2 03 bd d2 8f 07 3e 75 a0 08 be
       0.072344184 -0.032213654 0.13238457 -0.1334246
000060 8e d7 4d be d0 dd ec 3c db b2 90 bd b7 52 81 3e
       -0.20101759 0.028914362 -0.07065364 0.2525842
000070 2c dc a4 3e 37 18 01 bd 8e 96 6b 3d fd c6 d7 bc
       0.32199228 -0.031517234 0.057516627 -0.026340002
000080 48 0a bd bd bb c2 23 bd fa 99 0b be bc 79 d2 3d
       -0.092304766 -0.03998063 -0.13632956 0.10277125
000090 06 06 e7 3d 8c 3c fc 3d 05 b8 6c 3e 1e d6 80 bd
       0.11280446 0.12316236 0.23117073 -0.062908396
0000a0 6c ed 06 be c1 c4 82 bd 2a d7 7e bd f9 98 92 bd
       -0.13176507 -0.06385184 -0.062216915 -0.071580835
0000b0 bb fd 99 bc 36 e0 96 3d c0 ce 4c be 17 7b b4 bd
       -0.018797746 0.073669836 -0.20000744 -0.0881254
0000c0 14 49 da bd 76 65 ca 3c ea 04 71 bd cd 75 f1 bd
       -0.1065847 0.024706583 -0.058842577 -0.11790047
0000d0 66 12 c8 bd 09 89 18 3e e3 d7 45 3e 0b 3b f3 3d
       -0.09769134 0.14896025 0.19320635 0.11876496
0000e0 f7 88 a2 3c 03 6b 0b be cc 2e 2c bb 2d 7e a6 3d
       0.0198407 -0.1361504 -0.002627301 0.08129535
0000f0 db 5b f5 3d c5 5d ea bd da 47 c6 bc 94 20 44 3d
       0.11980411 -0.11443666 -0.024204183 0.04788263
000100 b8 8c 29 bb b6 1d 10 bd 2c 5f 52 bd 32 12 9f bd
       -0.0025871228 -0.035184585 -0.051360294 -0.07767142
000110 db e0 1f 3e cc 79 4f 3d 6e d8 e2 bc b7 1a 2c 3d
       0.1561312 0.050653264 -0.027691092 0.042017665
000120 8e b3 df 3b 63 05 ee 3d 61 f4 91 be 91 e2 1e 3e
       0.0068268245 0.11622121 -0.2850676 0.15516116
000130 db b9 1f 3d 6e b9 58 bd 43 29 39 bd d3 f4 b4 3d
       0.038995605 -0.052911215 -0.045205366 0.08835759
000140 a2 7b 64 bd c2 da 11 3e a5 88 8f bd 30 78 7f be
       -0.055781968 0.14243606 -0.07008485 -0.24948192
000150 5c 3b 31 bd ac 5f 96 bd 9d 48 f9 3d f3 6b 29 be
       -0.0432695 -0.07342467 0.12172053 -0.16545086
000160 df cd 57 be df f4 73 be 0c b2 f7 3c 4c 2e f0 bd
       -0.21074627 -0.2382388 0.030236267 -0.117275804
000170 6e bb bf bd 4c 7e 8c 3e 1b 59 b0 3d 59 21 86 3d
       -0.09361921 0.27440107 0.086107455 0.06549329
000180 09 2c 70 bc b7 00 b9 3d c7 4a cb bc 80 19 f8 be
       -0.014658936 0.090333395 -0.02481593 -0.48456955
000190 18 60 a5 be 22 1a 3e 3e 7c 4b 24 3e fd 00 4e 3d
       -0.32299876 0.18564656 0.1604442 0.05029391
0001a0 53 00 43 3e 36 22 a9 3d dc c7 a5 3e 8c 59 82 bd
       0.19043092 0.08258478 0.32379043 -0.06364736
0001b0 ca 5e 2e be ba ca 5c 3c 3b 4b 51 3c 46 cc 98 3b
       -0.17028347 0.013476068 0.012774284 0.004663023
0001c0 36 0e bb bd 20 46 8e bc 5a 38 59 3c 2b 09 61 3d
       -0.0913357 -0.017367423 0.013258064 0.054940384
0001d0 a9 c8 cf bd fa 70 e1 bc f0 74 44 be 29 9b 31 be
       -0.10145695 -0.027519692 -0.19185233 -0.17344345
0001e0 f2 39 94 3d 2e 06 c4 bd 7f a2 8f be 63 95 47 3d
       0.07237615 -0.09571491 -0.28053662 0.04872645
0001f0 e1 26 81 bd e1 8e 26 be 3b f0 92 3d 91 d4 10 3d
       -0.06306244 -0.16265441 0.071747266 0.03535897
000200 3f f0 7b bd 68 b1 34 3d 1f 16 16 be 12 42 b4 bd
       -0.061508413 0.0441145 -0.14656876 -0.088016644
000210 bd e3 1c 3e ee f2 10 bd e4 7f 75 be 67 d8 28 3d
       0.1532125 -0.035387926 -0.23974568 0.041222002
000220 fd f0 27 be d8 25 3b 3d 06 47 90 bd 29 78 24 bd
       -0.16400523 0.045690387 -0.07044797 -0.040153656
000230 f2 b8 12 3d c9 3e 4c 3d 8b a1 0e be 31 6c ed 3b
       0.03582091 0.049864564 -0.13928811 0.0072455634
000240 4d 51 8c 3b da b6 48 bc 1b 20 9b bd 3d a7 12 bd
       0.0042821527 -0.012250626 -0.07574483 -0.035804022
000250 c8 c5 2b 3e 04 82 02 be 56 ab 49 be d2 89 6a be
       0.16774666 -0.1274491 -0.19694266 -0.22904137
000260 b9 09 49 3d 11 1d 5b be 3c 93 8b bd 1c ce e0 bc
       0.049081538 -0.21397807 -0.06815192 -0.02744203
000270 89 2b 85 3e 3d 21 7e 3e 28 25 8d bd 78 24 3d 3e
       0.26009777 0.24817367 -0.068918526 0.18470943
000280 b3 f6 62 be b3 9f 4d 3d 16 b4 69 be f0 25 68 3d
       -0.22164421 0.05020113 -0.22822604 0.056676805
000290 96 ae 13 bd 5a ac 00 3e 76 c1 59 bd f8 31 7a bd
       -0.03605517 0.12565747 -0.053163014 -0.06108281
0002a0 70 53 89 bd a3 2d 90 3d c8 0d f4 bd dc b3 ba bd
       -0.067053676 0.070399545 -0.11916691 -0.09116337
0002b0 e5 e1 bd bb a9 a2 1d be bf dc fd ba 95 d8 97 3c
       -0.005794751 -0.15394081 -0.0019368156 0.018535892
0002c0 02 bf 43 bd aa 32 53 bd fa f9 34 bd 58 a5 3e be
       -0.04778958 -0.05156199 -0.04418371 -0.18617761
0002d0 ff 2e 55 be 62 71 05 3c ed af 17 3e e0 c3 1e be
       -0.20818709 0.008144708 0.14813204 -0.15504408
0002e0 49 b6 48 be 82 98 c5 bd 05 98 1d 3e 15 7b d0 bd
       -0.19600786 -0.09648229 0.15390022 -0.10179726
0002f0 17 37 b8 3d ed 42 0c 3d 8a 97 5b 3d cf c0 4c 3e
       0.089948826 0.034243513 0.053611316 0.19995426
000300 3d 3e b8 3d 0b c0 87 bd 1e 0b c6 bc 22 91 1b be
       0.08996246 -0.06628426 -0.024175223 -0.15192083
000310 15 a2 b2 bd fe 49 e9 bd 37 11 72 3e 4c 17 d1 bc
       -0.08722321 -0.11391066 0.2363938 -0.025523804
000320 3d 24 d4 bd 3a 72 a5 ba 70 9e a7 ba ed f2 ab bd
       -0.103584744 -0.0012622543 -0.0012788307 -0.08395944
000330 f9 ec 1f 3d 91 8c ab bd 47 58 3c be a1 3c 92 bd
       0.039044354 -0.0837642 -0.1839305 -0.0714047
000340 7d 45 6f 3e 18 7a 1b be ff f7 f3 bd 36 12 d7 bd
       0.23366351 -0.15183294 -0.11912536 -0.1050152
000350 56 16 48 bd 55 66 3a 3e ba bc 2d be 97 87 8b 3d
       -0.048849426 0.18203099 -0.16966525 0.06812971
000360 0a 0c 3f be 8c a7 62 3e ca 4b 4c bd cc 15 48 be
       -0.18656936 0.22134227 -0.049876966 -0.19539565
000370 1a fa 05 3e f7 e0 c4 3d e7 6c 59 be c4 53 5a 3e
       0.13083687 0.09613221 -0.21232949 0.21321017
000380 1b fb ca 3d
       0.09911176

gru.weight_ih_l1 f4 [225, 75]
000000 95 8c f1 bc 03 41 98 3c 98 f9 6a 3d d2 a2 0c be
       -0.02948598 0.018585688 0.057366937 -0.13733986
000010 6b 41 6d 3d c1 b5 79 bd b6 35 01 3a 31 3d 45 3c
       0.057923716 -0.06096435 0.0004928963 0.012038515
000020 c1 e1 ba bd 0e 72 f3 3b 4c 9f c4 bd 8b 45 d3 3b
       -0.091250904 0.007429368 -0.09600696 0.006447499
000030 d8 8b 05 3d 59 ad 07 3d 86 c6 30 3d 3f 40 ae bc
       0.03260407 0.0331243 0.043158077 -0.02127087
000040 2e cf 96 3c a8 fe 2a 3d 01 24 68 bd d4 ce 0b 3e
       0.018409338 0.041746765 -0.05667496 0.13653117
000050 f9 a5 de 3d cb 53 2f be 12 0e 32 bd 80 03 19 3e
       0.108715005 -0.17121808 -0.04347045 0.14942741
000060 b2 55 05 3e d4 b9 d1 3c 1b 6c 5c bd b1 c5 3b bc
       0.13020971 0.025601305 -0.053814035 -0.0114607075
000070 3e d8 b1 bd 3c d1 30 3e cd a3 f2 bc bf 4e 88 3d
       -0.08683823 0.17267317 -0.029619122 0.066556446
000080 c8 28 4f 3d 54 f9 d9 3c 29 bb 29 bd 79 2f 7d 3d
       0.050576 0.026608147 -0.041438255 0.06181285
000090 4f 17 9b bd 06 35 17 3e 6a 53 0e 3e 19 5c 72 bc
       -0.07572805 0.1476632 0.13899007 -0.014792466
0000a0 82 a9 54 3d 17 b9 cd bd 8f 74 5c bd 48 ce 87 bd
       0.051919468 -0.10045069 -0.053822096 -0.06631142
0000b0 cf 00 4b 3d 1b 19 19 be 3d 5b 42 3e 0f 2b fc bc
       0.049561318 -0.14950983 0.18980117 -0.03078225
0000c0 6b d4 ff 3c f7 5e 5b bc 21 f7 13 be 07 58 31 3d
       0.031229218 -0.013389341 -0.14449741 0.04329684
0000d0 1d 26 33 3d a8 93 1d 3d df d6 00 be bd 04 bd bd
       0.04373752 0.038470894 -0.12581967 -0.092294194
0000e0 36 7b b9 bd 3d bd 34 bd 87 b3 c8 3d 0a a7 27 3d
       -0.09056704 -0.044125784 0.09799867 0.040930785
0000f0 2c 9d 9b bc 33 28 04 be e4 be 16 3e 30 00 c6 bd
       -0.018995844 -0.1290596 0.14721256 -0.096680045
000100 48 7d c4 bd 7c 09 db bd 9c 70 a5 bd a0 54 5e bb
       -0.09594208 -0.106951684 -0.08078119 -0.0033924952
000110 be 86 71 3d f4 e8 c5 bc ff 68 00 3d a2 8f fc 3d
       0.05896639 -0.024158932 0.031350132 0.12332083
000120 33 34 83 3d bb ca e8 bc ac c1 86 bc 61 26 de 3c
       0.064064406 -0.028416982 -0.016449772 0.02711791
000130 b9 8d 49 3c 6a 98 ae 3d c3 1a 49 bc 24 3d a5 3d
       0.012301856 0.085251644 -0.012274447 0.08068302
000140 a6 e8 66 bd 6c 0a 6d 3d 58 02 d0 bd 3c 1a 92 bc
       -0.056374215 0.057871267 -0.10156697 -0.017834775
000150 00 7f 7d 3d de e4 08 be 90 6d 25 3e ec ae c5 3c
       0.061888695 -0.13368556 0.16155076 0.02413126
000160 99 ee e9 3d a8 36 ce bc a9 ca 15 be e5 ef 03 3d
       0.11422462 -0.025172547 -0.1462809 0.032211203
000170 3a a0 62 bd c4 42 45 3d c6 ae 7f 3d 5c 63 fa bd
       -0.055328585 0.048159376 0.062422536 -0.122259825
000180 3a 3d 73 3d c6 b4 ee bc 47 50 e0 bd 63 e8 3e bd
       0.059384562 -0.029138934 -0.10952812 -0.04660834
000190 e2 43 15 bc 31 1b ed 3d ae 8f be 3c 56 f4 cb 3c
       -0.009110423 0.11577452 0.023261871 0.024896782
0001a0 e9 8f 9f 3d ee 33 dd bc e0 01 7f bb b8 55 ca 3c
       0.077911206 -0.027002301 -0.003891103 0.024699077
0001b0 08 0c a4 bd 98 d8 11 3d 66 e3 d1 bd 85 65 54 3c
       -0.08010107 0.03560695 -0.10248451 0.012963657
0001c0 04 ab 1f be 21 bd d0 3d 5c d3 85 3d 07 b7 40 bd
       -0.15592581 0.101923235 0.06534454 -0.04704955
0001d0 ce 56 2e 3e 26 09 d8 3d 1b ca af 3d 62 98 07 bd
       0.17025301 0.1054862 0.085834704 -0.033104308
0001e0 e8 82 81 bd 9a 59 c4 3c 9b 91 ba bd ad 5a b3 3d
       -0.063237965 0.023968507 -0.09109803 0.087575294
0001f0 69 a1 7a 3d 34 a5 1b bd ab b6 c6 bd b7 23 0c bd
       0.06118909 -0.037999347 -0.0970281 -0.034213748
000200 41 af 06 bd b2 15 72 bd 4b 12 e1 3c 7f b0 a5 bd
       -0.03288198 -0.05910272 0.027474543 -0.080903046
000210 95 1f 1c be 00 b6 33 3e 57 3e 86 bd f8 00 1b bd
       -0.15246423 0.17549896 -0.06554859 -0.03784272
000220 74 d2 8c 3c da 1d 06 be 08 4b a3 bc a3 de dd 3d
       0.017190196 -0.13097325 -0.019933239 0.1083348
000230 ae e4 a2 bc a5 ef 8a 3c e8 eb bf 3d 3f 7c 7d bd
       -0.019884434 0.016959975 0.093711674 -0.06188607
000240 b9 d8 af bd c8 bd e2 3d da a7 f9 bd 36 fd c5 b9
       -0.085862584 0.11071354 -0.12190218 -0.00037763425
000250 fd 34 28 3e 98 ea b9 3d e6 c4 b3 bc a3 da 19 bd
       0.16426463 0.09077948 -0.021944474 -0.037562024
000260 73 98 1a bd 53 c6 00 be 14 99 35 3e 09 10 ec 3c
       -0.037743043 -0.12575655 0.17734176 0.02881624
000270 26 99 2f 3d b7 0e 8e 3d d4 c5 a1 bd 57 90 37 3d
       0.042870663 0.069364004 -0.07899061 0.044815388
000280 c0 8e bd bc 3d 83 96 bd 32 22 94 bd e5 02 4f 3d
       -0.023139358 -0.073492505 -0.07233085 0.05053987
000290 56 6d 0b be e6 87 7c bc 26 f7 0d 3d 29 21 11 3e
       -0.13615927 -0.01541326 0.034659527 0.14172806
0002a0 6c a5 b0 3d b4 f7 23 3e ed af 07 3b 21 7b 4b bd
       0.08625302 0.1601246 0.0020704225 -0.04967797
0002b0 16 bf c5 3c 89 48 44 3e f7 d7 73 3d 86 fe d0 3c
       0.024138968 0.19168295 0.059532132 0.025511991
0002c0 4e 3d 6e 3d 5b 57 76 bc 1f 21 f6 3d c9 0e 17 3e
       0.058163933 -0.015035476 0.12018036 0.14751734
0002d0 97 12 d8 3c cf 71 24 3d d7 83 e3 bc 4c 40 e4 bc
       0.026376052 0.0401476 -0.027772827 -0.02786269
0002e0 ec 12 60 3d be 04 9e bd bb 8b c2 3c 10 04 52 bd
       0.054705545 -0.07715748 0.02374827 -0.051273406
0002f0 7e a1 d1 3b 38 5b e4 bb 0a 4f 14 3d 55 91 36 3d
       0.006397425 -0.006968882 0.03620819 0.044572193
000300 01 aa 18 3e 11 f7 ce bd 0b 4d f7 3d d1 ed 48 be
       0.14908601 -0.10105718 0.12075242 -0.1962197
000310 78 44 32 bd e5 14 a3 bc 02 3e 95 bd e7 2f 42 bd
       -0.04352233 -0.019907424 -0.07287218 -0.047408964
000320 bf 61 01 3d 63 93 6a bd 76 2d 35 bd 32 95 d7 bc
       0.03158736 -0.057269465 -0.044232808 -0.026316259
000330 af 95 24 be 26 4d f4 bd 40 cf 99 3d bf ed 3c 3b
       -0.16072725 -0.119287774 0.07510233 0.002882823
000340 3b 85 ab bc 22 4f 0a bd 77 1a f3 bc bf 06 74 bd
       -0.020937553 -0.033766873 -0.029675705 -0.059576746
000350 3e 89 33 3c 7a dd aa 3d 47 58 bd bd 56 33 f9 3c
       0.010958014 0.083430246 -0.09245353 0.030419987
000360 6a a2 3c bc 04 89 76 bd ea 3c 61 3d d7 b3 74 3c
       -0.011513332 -0.060189262 0.054989733 0.014935455
000370 ea aa 0d bd c6 96 28 3d 44 51 e9 3b 61 e6 92 3d
       -0.034586824 0.041159414 0.0071202833 0.071728475
000380 25 33 b3 3d ea ca c4 3b 53 4e ae bd 7a 55 b0 3d
       0.087499894 0.0060056346 -0.08511033 0.08610053
000390 3f d9 88 bd 0f 01 41 bd 80 6d a8 3d b2 6f ab bc
       -0.066820614 -0.04712015 0.082240105 -0.020927284
0003a0 b9 d6 12 3b 48 94 af bd 03 8a ca 3c d3 4d 80 3a
       0.0022405817 -0.08573204 0.024724012 0.0009788818
0003b0 9a 8f 66 bd a2 e4 06 bd c4 14 8d bd 13 40 1c 3d
       -0.056289293 -0.032932885 -0.06888726 0.038147043
0003c0 48 1a 37 3d 47 11 30 3d 04 ff 03 bd a2 c4 3b bd
       0.044702798 0.042985227 -0.032225624 -0.04584182
0003d0 14 0c 07 3e 00 fa 8d bc 67 86 ea bd ca d1 da 3d
       0.13188201 -0.017331123 -0.114514165 0.10684545
0003e0 70 1d 71 3d f7 8a 83 3d 93 c1 8d bd 7d b5 2c bd
       0.058865964 0.0642299 -0.06921687 -0.04216527
0003f0 b3 d1 cb bd cf 36 af 3c 91 9e 62 3d 25 db 97 bd
       -0.09952106 0.02138844 0.055327002 -0.074148454

gru.weight_hh_l1 f4 [225, 75]
000000 c4 60 bb 3d 90 72 b7 3d a0 c6 e1 bd 1f fe fa 3c
       0.09149316 0.08957398 -0.11024213 0.030638753
000010 34 f7 13 3e 5b b5 82 3d 47 35 40 bd 59 0c 38 be
       0.1444977 0.06382247 -0.04692581 -0.1797346
000020 08 85 bc bd 89 8f 70 be 7f f6 51 bb eb 95 89 bc
       -0.09205061 -0.23492254 -0.0032037792 -0.01679512
000030 3c e5 34 be 76 63 13 3e a3 19 23 3e aa 15 db bd
       -0.17665571 0.1439341 0.15927748 -0.106974915
000040 61 85 25 be c1 4c 8b be 74 26 3a 3e 6b 55 a6 3d
       -0.16164161 -0.27206996 0.18178731 0.08121761
000050 17 7d 09 bd b0 b4 d2 3d 65 dd 6f 3e 93 3a 91 bd
       -0.03356656 0.1028837 0.23424299 -0.0709125
000060 28 24 aa 3d e2 02 e0 3d 48 8d 94 3c 7f 33 42 be
       0.083076775 0.1093805 0.018133774 -0.18964957
000070 a9 bc c4 bd d6 81 21 3e 81 4c d3 3d 6e 44 17 be
       -0.096062966 0.15772185 0.10317326 -0.14772198
000080 3f 25 66 3e 7d c1 15 be ba 09 62 3d 0e b9 a7 bd
       0.22475146 -0.14624591 0.055185057 -0.08189593
000090 62 49 0e 3e 23 88 21 be 6f 70 8e bd 5e 17 c1 3d
       0.13895181 -0.15774588 -0.06955039 0.09428285
0000a0 5a 65 68 3e 26 48 59 be 37 e4 2f bd 28 a6 14 be
       0.22694913 -0.21218929 -0.042942252 -0.14516509
0000b0 4f 4d 58 3d 5a ed 2a 3e a6 90 ea 3d a9 6d a6 3d
       0.052808102 0.16692105 0.11453371 0.08126385
0000c0 e7 e6 3d be 32 9d 00 3e f2 4c 38 be f3 af e3 3d
       -0.18545114 0.12559965 -0.17998102 0.11117544
0000d0 a9 c8 fb 3d 92 f1 34 3d 4f 62 02 be 71 21 05 3e
       0.12294132 0.044175692 -0.12732814 0.13001038
0000e0 3b f5 3e be f7 55 92 3d 53 cc df bd 6b 7f 13 be
       -0.18648235 0.07145303 -0.109276436 -0.14404075
0000f0 4e 24 3c bd a9 d8 22 be f8 7b a3 bd 9e 0f 62 be
       -0.04593306 -0.15902962 -0.079826295 -0.2207627
000100 d0 5d 3a 3e 09 c0 68 be b0 02 d0 3d a0 69 a0 3d
       0.18199849 -0.22729506 0.101567626 0.07832646
000110 1d c2 7d bc 6c ed 7f bd 6d 1b 5c 3c b5 66 1a 3e
       -0.015488175 -0.062482283 0.013434273 0.15078242
000120 b0 5f 26 3e bc fc ab bd 3d f3 72 be d4 70 4e bd
       0.1624744 -0.08397815 -0.237256 -0.05040057
000130 64 40 2c 3e bb 0e bb bd 07 4d b9 3d 63 1c 11 3e
       0.16821438 -0.09133669 0.09047895 0.14170985
000140 83 f5 3a 3e fb c4 57 3e 27 06 54 be e9 0b 84 be
       0.18257718 0.21071236 -0.20705472 -0.25790337
000150 e6 46 1d be 68 4f 18 3e 83 ce 05 be 9f f0 0a be
       -0.15359077 0.14874041 -0.13067059 -0.13568352
000160 8f 15 80 3d 89 a2 27 3e 74 4b 2e be ed fe 3a be
       0.06254112 0.16370596 -0.1702097 -0.18261309
000170 4e dd 81 be 11 18 84 3e e5 7b 8b 3d 21 b9 ee bd
       -0.25364155 0.2579961 0.068107404 -0.11656404
000180 67 6c 37 3e 6a 98 19 3e b7 8e 86 be 96 ba 25 3e
       0.17912446 0.14999548 -0.26280758 0.16184458
000190 9c f3 3d 3d 0d 6b 19 be 57 ce 92 bc 72 a5 94 bd
       0.046374902 -0.14982243 -0.017920656 -0.07258119
0001a0 95 28 00 3e 14 52 af 3d 8d db 1c be a6 6f fd 3d
       0.12515481 0.08560577 -0.15318127 0.12374811
0001b0 55 10 90 bd e1 7e fd 3d 34 a8 83 be ec 96 2d 3e
       -0.07034365 0.12377716 -0.25714266 0.16952103
0001c0 74 52 64 be b1 2d 8b be 05 9b 8a 3e ba 70 cf 3d
       -0.22297078 -0.27183297 0.27071396 0.10128923
0001d0 57 f4 41 be d8 ff 73 3e 1f 29 1a bd 1f 33 2b 3e
       -0.18940865 0.23828065 -0.037636872 0.1671872
0001e0 7f 00 cd 3d 1d 2c 8d 3d 35 b7 1e 3c 34 07 14 be
       0.1000986 0.068931796 0.009687235 -0.14455873
0001f0 b1 cd 8d 3b 25 35 9e bd 01 20 29 3e 57 96 b7 bd
       0.004327499 -0.0772498 0.16516115 -0.08964222
000200 2d ae 40 3e f6 3b 6c be 6f 0a b8 3d 7d 3b 07 be
       0.18816443 -0.23069748 0.08986365 -0.13206287
000210 fb ba 04 3e 00 6e d6 bc 12 91 62 3d 5f 3b 2f be
       0.12961952 -0.026175499 0.05531413 -0.17112492
000220 a8 c6 eb 3c 15 2b 27 be d8 89 29 3c d4 bc 28 3e
       0.02878125 -0.16325028 0.010347806 0.16478282
000230 54 a5 a7 bd 7e 4a b6 3d 01 3b 06 3e da 6f 89 bd
       -0.08185831 0.08900927 0.13108446 -0.06710787
000240 8b 46 19 3d dc ed 99 bc d9 4f 79 3e f3 15 00 3e
       0.03742079 -0.018790178 0.24346866 0.12508373
000250 12 5a 41 be db ea 5c bc b8 09 16 3d b6 f7 88 3e
       -0.18882015 -0.013483728 0.036630362 0.26751488
000260 af 37 21 bd df a4 bd 3d c1 cc 36 3e 67 16 a4 3d
       -0.039359745 0.09259962 0.17851545 0.080120854
000270 53 4c 12 3d 30 81 a6 bd 78 de 0a be 64 90 53 bd
       0.03571732 -0.08130109 -0.13561428 -0.051651374
000280 e8 d4 99 3d 89 bf 33 be fc f2 24 be b9 18 6a 3d
       0.07511312 -0.17553534 -0.16108316 0.057152484
000290 1d b1 74 3e a6 73 2e be e5 4e 4d be 90 7a ef bd
       0.23895688 -0.17036304 -0.20049627 -0.11693299
0002a0 eb 40 37 3e 3c b4 11 3e 80 31 3d be e5 bb 33 3d
       0.17895858 0.1422891 -0.18475914 0.043880362
0002b0 5a a2 b9 3c b1 69 18 bc 23 0f 30 3e 0a 9a e6 3d
       0.022660423 -0.009302543 0.17193274 0.11259849
0002c0 fc 5a 0d be f6 58 1d bd 6b 45 34 bd a1 cc f3 3c
       -0.13804239 -0.038414918 -0.044011515 0.02976066
0002d0 69 fd 2f 3e b1 80 51 be d3 36 05 3e fa 07 19 be
       0.17186512 -0.20459248 0.13009195 -0.14944449
0002e0 e7 e5 4d 3d e2 8e ff bd 2b 83 a2 3c 1b 57 da bd
       0.05026808 -0.124784246 0.019837936 -0.10661145
0002f0 d3 b4 1a be 3a 0b 96 3c 34 f1 80 3d 09 3c 95 bd
       -0.15108041 0.0183159 0.06296006 -0.072868414
000300 41 0c 2b 3d e0 b2 23 be 4b 2e 68 3d 35 69 c3 3d
       0.041759733 -0.15986204 0.056684773 0.09541551
000310 1e 28 52 bd 2d f0 4b 3d b8 3c 46 be 3c 72 a6 3c
       -0.05130779 0.049789596 -0.193591 0.020318143
000320 e2 c0 31 bd db 9e 5f bd 04 42 8c bc 1c 10 80 3d
       -0.043396838 -0.054594856 -0.017121322 0.062530726
000330 e7 58 0e bd 4a 41 22 3e bc 17 39 bc 93 fb 1c 3e
       -0.034752753 0.15845218 -0.011297163 0.15330343
000340 02 fc 31 be 32 0c c4 bd 9c 81 95 bc ec 32 b8 bd
       -0.1738129 -0.095726386 -0.01825028 -0.089940876
000350 82 61 b4 bd 1e 1b 16 be e2 8c 31 3e 4e 12 3c bb
       -0.08807661 -0.14658782 0.17338899 -0.0028697434
000360 66 f1 79 3d 98 e0 bc 3c 02 23 2f 3e 1e 24 44 be
       0.06102123 0.023056313 0.17103198 -0.19154403
000370 6b dc 06 be 61 3f 42 3e 82 79 ee 3d d1 59 f5 bc
       -0.1317002 0.1896949 0.116442695 -0.029950054
000380 6a 3a ce bd 25 85 f3 3d 28 f6 d7 3d 68 30 45 be
       -0.10069735 0.1189063 0.105449975 -0.19256747
000390 60 f5 03 3e b1 38 69 3e 6e 6a 37 3e a4 29 f4 3d
       0.12886572 0.22775532 0.17911693 0.11922005
0003a0 2d 6b c9 bd ac 17 24 be 2d 85 5c be 0e b7 e4 3c
       -0.09834895 -0.16024655 -0.21535178 0.027919319
0003b0 68 4c 07 bd fc ba 28 bd 1b e2 89 3d 6d c1 1d 3e
       -0.03303185 -0.041193947 0.06732579 0.15405817
0003c0 17 b0 16 be fe b3 22 be 42 44 7a be 7e e1 29 3e
       -0.1471561 -0.15888974 -0.24440101 0.16589925
0003d0 ea b7 09 bc 2f 38 1a be ba 6b f3 3d f6 85 4c 3e
       -0.008405665 -0.15060495 0.118857816 0.19972977
0003e0 7b ae 8d 3d 42 28 86 3d ea e0 8f 3d ff 19 be bd
       0.06918045 0.06550647 0.07025321 -0.09282302
0003f0 75 43 33 be 5f a2 3e be b9 f7 62 3e 1b f9 10 3e
       -0.17506202 -0.18616627 0.22164811 0.14157526

gru.bias_ih_l1 f4 [225]
000000 c5 c3 8b bd eb ca f9 3c 15 12 ba bd 68 67 ad bd
       -0.068244494 0.030492267 -0.0908548 -0.08466989
000010 43 19 b8 3c 3f c0 0e bd 8a aa 0d 3d fc eb 00 be
       0.022472983 -0.03485131 0.034586467 -0.12590021
000020 7f 03 b1 3d 00 a4 5d bd 76 ca 91 3c fe 7a 53 bd
       0.08643245 -0.05411148 0.017796736 -0.051630966
000030 00 9f ea bd 7a ac 12 be e2 c7 8a bc ec ac 7f bd
       -0.11456108 -0.14323607 -0.016941015 -0.06242077
000040 3e b6 88 bc d3 5a ac bd 7c 5a c7 3d a5 12 dd bd
       -0.016688462 -0.08415761 0.097340554 -0.10794572
000050 4a 7f 8a 3d 62 87 9e bd bb f7 1d 3d b0 5f 28 bd
       0.0676256 -0.07740666 0.038566332 -0.04110688
000060 8e 2f ee 3c 4c a3 c1 bd 3e 70 d6 bb 4d f9 52 bd
       0.02907541 -0.094549745 -0.006544142 -0.051507283
000070 74 3f e9 3c 8e 14 74 bd c3 33 15 be 15 39 e9 bc
       0.02847264 -0.059589915 -0.14570527 -0.028469602
000080 96 70 01 be ce f7 74 bd d8 fd b2 bd 04 28 82 bd
       -0.12640604 -0.059806637 -0.08739823 -0.063552886
000090 a0 3a 0d 3d 36 01 81 3b 03 1d fb bd c9 7c 68 bd
       0.034479737 0.003936912 -0.12261393 -0.05675963
0000a0 55 a0 52 bd 7b 38 c1 b9 bf 70 3f bd 70 13 d6 bd
       -0.051422436 -0.0003685391 -0.046738382 -0.10452926
0000b0 ec cc 84 3d 7b 27 6e bd f7 de de bd 20 b7 8f bd
       0.06484398 -0.05814312 -0.10882371 -0.0701735
0000c0 68 9e 63 bd 86 91 23 be be d1 a5 bd 75 e3 55 bd
       -0.05557099 -0.15973482 -0.08096646 -0.052218873
0000d0 df cf 38 be 4e 48 ec bd 4b 7b 7e bd fd c6 a8 bd
       -0.18048047 -0.115372285 -0.0621293 -0.08241079
0000e0 23 55 fa bc c0 a0 3b bd 71 9d 9c 3d bb a1 82 bd
       -0.030558174 -0.0458076 0.07647217 -0.06378504
0000f0 60 9a 1e bd 2a 32 e5 bd 96 30 5d 3d 31 65 d7 bd
       -0.038721442 -0.11191209 0.054001413 -0.105173476
000100 ea de df bd 79 1b 03 be 6e af 27 be 66 0e fd bd
       -0.10931189 -0.12803449 -0.16375515 -0.12356262
000110 f2 5b fe bb 5f fc cb 3d cc 4b d5 bd c2 a6 f5 bb
       -0.0077624256 0.09960245 -0.10414848 -0.0074966857
000120 58 4f de bd 71 0c 13 bd 01 1e 84 3c d6 47 39 bd
       -0.10854977 -0.035900537 0.016127588 -0.045234524
000130 c7 54 b6 bd d9 fb 98 bd d4 f7 52 be 2c f6 59 bd
       -0.08902889 -0.07469911 -0.20602351 -0.053213283
000140 71 85 15 be 5a a9 4a 3e 25 d9 79 bc 88 25 3d be
       -0.14601685 0.19791165 -0.015249525 -0.18471348
000150 46 63 e0 bd 16 d1 03 be ae 40 03 be 9a 79 d3 bd
       -0.10956435 -0.12872729 -0.12817642 -0.10325928
000160 f9 d5 f5 bd 56 86 8f bc d1 a5 3e be cd 65 57 be
       -0.12003703 -0.017520111 -0.18617941 -0.21034928
000170 20 cc 33 be 51 87 07 bd 7f 7a 4e be 45 50 5a bd
       -0.17558336 -0.033088032 -0.20163916 -0.053299207
000180 77 94 ab bc 0b 07 19 be 15 ff 43 ba 8a e9 03 be
       -0.020944817 -0.14944093 -0.000747667 -0.12882057
000190 73 76 e8 bd a8 69 49 3e 89 30 46 be b7 0b 21 be
       -0.113507174 0.19669211 -0.19354452 -0.15727125
0001a0 8a 53 3a 3a 11 6d 9e 3c f8 7e 87 bd 1d 07 6b be
       0.0007107785 0.019339116 -0.06616014 -0.22951932
0001b0 bb 86 5a be 0c f4 5d be e4 43 cc bd b2 d2 3a be
       -0.21340458 -0.21675128 -0.099738866 -0.18244436
0001c0 46 3b 00 bc 24 30 a6 bd 94 09 fb bb 32 d6 22 bb
       -0.007826632 -0.08114651 -0.007661054 -0.0024846909
0001d0 e8 97 46 be 83 5c 9f bd da 3d 6e bb f9 9c 56 be
       -0.19393885 -0.07781317 -0.0036352784 -0.20958318
0001e0 73 18 e7 bd e0 21 8d bd a7 3d 01 be 7d 0c d2 bd
       -0.1128396 -0.06891227 -0.12621175 -0.10256288
0001f0 a8 63 34 be 50 b2 14 be 96 b0 1a 3d ce 43 0d bd
       -0.17616141 -0.14521146 0.03776606 -0.03448849
000200 88 33 86 bb c8 62 68 bb 9f f6 3a be aa b8 61 be
       -0.0040954985 -0.003545927 -0.18258141 -0.220431
000210 41 11 7a 3e 3b 97 07 be a2 bc f0 bd 84 a8 25 be
       0.24420644 -0.13241284 -0.11754729 -0.16177565
000220 7b 7d af bc 08 5f b8 bd db 4b 46 be 77 d3 eb bd
       -0.021422138 -0.09002501 -0.19364874 -0.11514943
000230 44 88 84 bc a9 47 93 bc 9b 0a a2 bd 00 6e a3 3d
       -0.016178258 -0.017978506 -0.07912179 0.07979965
000240 e3 dd 5d bd ae 51 5f bd 31 3b 18 be b9 eb bc bd
       -0.054166686 -0.054521255 -0.1486633 -0.09224648
000250 c4 a3 50 3e 95 80 02 be a2 5f b3 3d a1 74 8a 3e
       0.20374972 -0.12744363 0.08758475 0.27042106
000260 7c 10 06 be fe 03 59 3e b9 3e 39 3e f0 81 12 3d
       -0.13092226 0.21192929 0.18090333 0.03576845
000270 81 70 a9 3d 5e 5c 4e be 33 d9 1e be 29 36 e1 bc
       0.082734115 -0.20152423 -0.15512542 -0.027491646
000280 1d 35 57 3e e5 24 09 bd fa 96 38 be df c7 53 3e
       0.21016355 -0.03348245 -0.18026343 0.20681714
000290 d5 48 7d 3d 6c 03 44 be bd b9 ec bd 6f 09 49 be
       0.061837036 -0.1914193 -0.11558864 -0.19632505
0002a0 53 a9 06 3e 0f ac f7 3d 2b 80 77 be 7a ac 63 3e
       0.1315053 0.120933644 -0.24169986 0.22233763
0002b0 3a 55 86 3d 93 eb fb 3c 97 cb 0c 3e 16 f6 1a 3e
       0.065592244 0.030751979 0.13749538 0.15132937
0002c0 34 30 df bd 83 ef 77 bd ca 65 36 be 09 92 22 3e
       -0.10897866 -0.06053115 -0.17812267 0.1587602
0002d0 66 03 c1 3c 46 57 68 be bb fe 70 3e 10 1e d5 bd
       0.02356119 -0.22689542 0.23534672 -0.104061246
0002e0 64 98 33 3e 86 1b ac bd c2 3b 79 3e f3 d8 60 be
       0.17538601 -0.08403687 0.24339202 -0.2195776
0002f0 9b 24 6e be 1b e6 9c bd 63 ae c9 3d da bb da bd
       -0.23256151 -0.07661077 0.09847715 -0.10680361
000300 09 f2 4e 3e e4 98 7a be b5 ce d8 3c 51 18 a9 3d
       0.20209517 -0.24472386 0.026465753 0.08256591
000310 df 75 3f 3d 51 f9 52 be 1f 69 dc bc ee b3 13 3e
       0.04674327 -0.20602919 -0.026905594 0.14424106
000320 fe 62 f1 bd 1f 9f e2 3d 4d 99 4c 3e c9 78 1b 3d
       -0.117864594 0.11065506 0.19980355 0.037956987
000330 ab 21 ec bd 87 6a 14 3e 35 0a b2 bd ec 85 ca 3d
       -0.11529859 0.14493762 -0.08693353 0.09888825
000340 c4 21 31 be 8b ea 89 bd 76 08 12 3d 66 b4 b2 bd
       -0.17298037 -0.06734189 0.0356526 -0.087258145
000350 bc 8b 00 be 65 e1 31 be 85 8e 64 3e 9c 29 7f be
       -0.12553304 -0.17371137 0.22319992 -0.24918216
000360 a1 23 9d 3b 33 aa 8c 3e 51 48 30 3e b0 5e 69 be
       0.004795507 0.27473602 0.17215087 -0.22790027
000370 4c 67 20 be c6 e7 21 3e 2d 0e 85 3e c4 5a d2 bc
       -0.15664405 0.15811071 0.25987378 -0.025678046
000380 bc c8 c3 bd
       -0.095597714
