models/lstm_trial_6.pth (torch, 540222 bytes, 9 tensors)

lstm.weight_ih_l0 f4 [392, 44]
00000000: f04d b53c cbef 55bc 9077 24be 0c45 ea3d
00000010: 2e54 38be 0a71 94be 84ff 9a3c 860d fbbd
00000020: eedf 38bd e9d2 073e 800f c73c a564 2c3e
00000030: b658 31be b3d4 d1bd 0a0c 17bc 55c8 19bd
00000040: 7682 03bd f29b 8dbd 723d efbd 5f02 be3d
00000050: 2279 a13c 1c47 2d3e 6f3b 6e3c 21bf e2bd
00000060: c0b6 2a3c 8a9e 003d bf35 073d a3d7 08be
00000070: e598 40bb b607 b33c 53f2 413e e880 3a3e
00000080: 2bbd 00be 1656 d03d 4853 11bd 6d80 1dbd
00000090: ba4a 493e 42a0 89bd 74bf 453c 38da e9bd
000000a0: 97b2 783d d960 a1bc 8bfd 043d dc77 9e3c
000000b0: a6d0 5cbe ba08 d63c 4627 d5bd ba45 3b3d
000000c0: 5114 2bbe fff8 67bd b28d 073d bb80 0c3d
000000d0: 749c 0e3e 2a4f 3dbe cd27 983d 3891 093d
000000e0: 5e4e 73be dc99 3cbe 5dda 4abd a936 1f3e
000000f0: 68fa d0bb 26d6 7bbd 6b09 28be 9d74 b83c
00000100: da80 9fbd 1116 d1bb b816 6abd ca61 2d3d
00000110: e2af 8b3d db9f e03d e53c e93d de47 5abd
00000120: 87cd a4bd cb69 f7bc 1390 523d 83ca 123d
00000130: f447 623d 9ca5 36bc fe3e 303d ebe7 5dbc
00000140: cc3d b1bd 8b2d 363e 7f15 4dbe 6a7e 223e
00000150: 3ad0 dc3b d51e 4f3e 4864 33be cf60 91bd
00000160: 348a 403d 5758 973d 7ea4 d93d 074b f73c
00000170: bf62 4cbe a6df 1ebd 02bc 2d3e 2c93 2bbd
00000180: 6646 ff3d 5768 473d c503 7f3e 1cc7 8ebd
00000190: c719 083e 4985 07bc 1f04 ca3d f0cd 0abe
000001a0: 39c6 6ebd b66f 383d 7752 ac3d f706 3b3b
000001b0: 76ce b43d 662b 963d a455 373d 9185 693d
000001c0: a061 9ebd 2df0 cebd 545e 90be dab2 253e
000001d0: 5612 443e 151b 11be 1975 16be 14d1 10be
000001e0: 2e7f 8c3c d5c5 8bbd cfea bcbd 0383 85bd
000001f0: a88e 363c 03b0 ca3e 0021 87be b7cb ef3d
00000200: a62f 143e bab1 3dbe 98ad 46bc 9c4d bb3c
00000210: 84c0 203d 7a95 993e 7e46 2abc f3d5 b83e
00000220: 2607 a1be a938 04be a7b3 f4bd 9fbb 87bc
00000230: fe3c 893e 8cf4 cbbe 5a9c 383e fd18 1abd
00000240: 72ca 5bbe 1ce2 7f3e c50f 72be 8fe8 673d
00000250: 0550 8dbd 5735 003e c22b c33d 0d36 82be
00000260: d891 1ebe 5cb5 38bb 7c71 bcbc 8e73 06be
00000270: 6fc2 5ebe ac28 cebc 5f3f 103c 0589 3dbd
00000280: ea21 e03d e9d9 3abe 8386 14be 8c5c a3bd
00000290: f9f5 a83d ff14 8e3e e7ea 9ebd a96c 0fbd
000002a0: ac23 c83d 5f26 aa3d 3ece 0bbe fa3c cbbb
000002b0: db0f 4cbd 18d4 063f 2fb3 95bd 45e8 52be
000002c0: 3bed febb 0f0a 003e f100 0ebe 5793 c23d
000002d0: 13b3 91be e5fa cb3d e11e 723e 8fef 043e
000002e0: d414 b3bc ec82 2cbd b5c4 1ebe cbd6 20bc
000002f0: c241 423e e32a 943e 9847 d2bc 7a15 38bc
00000300: f896 143b efde b6bc b53f cd3e 53ea dc3c
00000310: b0fe 633d dd5d ec3d 0717 1dbd c758 1b3d
00000320: c14c b6bd 06f7 4fbd 894b d4bd 52a1 bfbc
00000330: 0df9 553e 1a8d 843c d7ec 86be 35bd 16bd
00000340: 3127 8bba 19ba 34bb 32a1 673d 8a02 c13d
00000350: f92b f93c 0fb3 7a3e d911 54be a825 aa3e
00000360: 1d7d d8bb 2c70 64be 5f36 643d 3c69 4ebe
00000370: bfaa 85bd 0328 e63d b651 873d cf73 03bb
00000380: c40f 3b3b 44f1 813d f6a6 fcbd 24cc 053d
00000390: 0ca9 cfbc e61a 893c f553 033d 79a2 5c3d
000003a0: 36d1 e83d 25c6 efbd 2a6e bbbd ac60 e93c
000003b0: 4306 11be 48e5 54bd 5382 c63d c7ac 1a3d
000003c0: 90eb 08bd 7f62 313d ad39 223e 9a05 06be
000003d0: a4aa 6b3e a4e6 e1bd 530c 20be 6a2b d03d
000003e0: 064e dc3c f70e 88bd 7529 84bd cc88 82bd
000003f0: d98e 843d 18fb 71bd 7bcf 683e a55c b33d
0.02213189 -0.013057659 -0.16061234 0.11438951 -0.18000862 -0.28992492 0.018920667 -0.12258439
-0.04513543 0.1326405 0.024299383 0.16835268 -0.17318997 -0.10245647 -0.009219179 -0.037544567
-0.03210684 -0.0691451 -0.11681642 0.09277796 0.019711081 0.16921657 0.014540537 -0.11071611
0.010419548 0.031401195 0.03301024 -0.13363509 -0.0029388007 0.021854263 0.18940096 0.18213236
-0.12572162 0.101726696 -0.035479814 -0.038452554 0.19657412 -0.0672002 0.012069572 -0.11418575
0.06071719 -0.0196995 0.03246836 0.019344263 -0.21563968 0.026127208 -0.104078814 0.045720793
-0.16706969 -0.056633946 0.033094116 0.034302454 0.1392687 -0.1848723 0.074294664 0.033585757
-0.23760363 -0.18418068 -0.049524654 0.15548195 -0.006377507 -0.061483525 -0.16409843 0.022516543
-0.07788248 -0.0063808043 -0.057150573 0.042329587 0.06820656 0.1096799 0.11388568 -0.053291194
-0.08047014 -0.030201813 0.05140693 0.03583766 0.0552444 -0.011147883 0.043028824 -0.013544063
-0.08654365 0.17790811 -0.20027731 0.15868536 0.0067386897 0.20226605 -0.17518723 -0.07098543
0.0470068 0.07389896 0.106270775 0.030187143 -0.19959544 -0.038787507 0.1696625 -0.0418884
0.12464599 0.04868349 0.24903782 -0.06971571 0.13291083 -0.008271524 0.09864067 -0.13555121
-0.05829451 0.04502841 0.084141664 0.0028538087 0.08828442 0.07332496 0.044759408 0.057012144
-0.07733464 -0.10104404 -0.28196967 0.16181508 0.1914762 -0.14170487 -0.14693107 -0.14142257
0.017150488 -0.06824843 -0.09224474 -0.06519129 0.01114241 0.3958741 -0.26392365 0.117087774
0.14471301 -0.18524829 -0.012126349 0.022864155 0.039246097 0.29996854 -0.010392783 0.3610073
-0.31450766 -0.12912239 -0.119483285 -0.016568957 0.26804346 -0.39835012 0.18028393 -0.037621487
-0.21463946 0.24988598 -0.23638828 0.05661827 -0.06900028 0.12520348 0.095298305 -0.25431862
-0.15485322 -0.002818427 -0.023003332 -0.13130018 -0.21753858 -0.025165878 0.008804171 -0.04627325
0.109439686 -0.18247189 -0.14504437 -0.07976636 0.082500406 0.27750394 -0.07759648 -0.035015736
0.09772429 0.083081 -0.13652894 -0.0062023373 -0.04981981 0.5266738 -0.07309567 -0.20596416
-0.007779745 0.12503837 -0.13867547 0.09500759 -0.28456935 0.09959964 0.23644592 0.1298201
-0.021860518 -0.042117044 -0.15504725 -0.009816836 0.18970397 0.2893897 -0.025668904 -0.011235589
0.0022672992 -0.0223231 0.40087667 0.026967203 0.05566281 0.115413405 -0.03835204 0.03792646
-0.089013584 -0.05077269 -0.1036597 -0.023392353 0.20895787 0.016180564 -0.2635257 -0.036801536
-0.0010616538 -0.0027576743 0.056550212 0.094243124 0.030416476 0.24482368 -0.20709933 0.33231854
-0.0066067115 -0.22308415 0.055715915 -0.20157331 -0.06526708 0.112381004 0.06607382 -0.002005804
0.0028543333 0.06344846 -0.12336533 0.032665387 -0.025349163 0.016736459 0.03206249 0.053865883
0.11368029 -0.11707715 -0.091518715 0.02848848 -0.14162545 -0.051976472 0.09692826 0.03776243
-0.033427775 0.043306824 0.15842314 -0.13088074 0.23014313 -0.11030319 -0.15629701 0.101645306
0.026892673 -0.06643479 -0.0645322 -0.06373748 0.064725585 -0.059077352 0.22735398 0.08757905

lstm.weight_hh_l0 f4 [392, 98]
00000000: 2ed9 8b3c 8d89 ae3d 8cba 863e b4f8 eabd
00000010: bf69 f4bd 139d f23b 3e27 ce3a 9c92 07bd
00000020: 29be 45be 3477 cbbe 7dc3 163e cc64 57be
00000030: 3bfd 9c3d b727 a43d 67b4 123e f139 46be
00000040: 4812 ebbd aa16 cb3e 719f ad3d fda8 a3bd
00000050: 26a1 2fbe b598 503e ff57 843d c3f0 a4bc
00000060: e197 8abe ab45 1b3e d8e2 fc3d 298f e43d
00000070: 9c57 eebb f60f 1c3e 712d 3d3b c21a a63e
00000080: cd23 0b3d 280d d03d f89f 19be 7e07 08bd
00000090: 3867 d43c dbc8 be3e c8e6 b03d 535a 993d
000000a0: 7ad0 83be 4d3b 223e be50 9abd f13b b33d
000000b0: c51c 7f3c 8f88 07bc ea74 a53d f45a 3f3e
000000c0: 0b4b 653d 4296 653d baea a03d 7f1c a6be
000000d0: 5f2b 4e3d 8764 8a3e b40b 9f3e c042 f5bd
000000e0: 1672 1fbe b59b 593e 21ed c5bd 148c d1bc
000000f0: 6c29 973c fc7c 583c 013c 9c3c f49d 973e
00000100: 25fd d83d 043b 603e 4074 ca3e 72d8 a03d
00000110: ad88 94bc 4312 6dbe ee3d 56be 7202 cc3d
00000120: d064 edba b5f2 abbc 95b7 5fbd 9447 91bd
00000130: 3f3f 493e 6342 023b 4c3f 43be 7712 343d
00000140: 98fa 00be 1694 3f3e 9526 39bd 5e16 a4bd
00000150: 6ab6 2f3d 929d d6bd fc79 aebc 88e7 49bd
00000160: 9d2f febd 7fc6 603e 305a f5bd 3e03 65be
00000170: 950e 953d 8b1c dcbd ff8a 143c 7776 9fbe
00000180: 9d13 d0bd d3b2 d03d e6c6 8d3d 36ae 863e
00000190: c83e 9e3d 3c34 353d b6ef 94be 578b 02be
000001a0: 8f71 06be 5fc4 cd3d 3496 55bd 5beb bdbe
000001b0: 4d15 e83c c9cf d0bd f955 6b3e 26d3 043e
000001c0: 4a9e 86be 0467 ddbd b287 64bc c590 c3bc
000001d0: 9208 84be 335d a5bd 0493 36be b376 463e
000001e0: 5d24 ce3d fa30 cebe f9aa 53be 8e3b 633d
000001f0: 7798 e83c 20fa 463e d652 3abe 3a9a 863e
00000200: 5c34 adbe ca17 2c3e c61e dfbe 1e77 debd
00000210: 0aed 123d 7011 0cbe b507 1fbe 90f7 cc3d
00000220: 985b 8a3d 0861 8e3c 3bf5 da3b 41b4 1f3d
00000230: d995 91be 6863 5f3e a554 303d 7d6a 9abe
00000240: 6a7a 003e 48ba 943e f1d9 5bbe 87d2 1a3e
00000250: e407 93ba 78c6 b8bd 278d 3dbe 127e 1ebe
00000260: 4a54 f1bd b61f e3be ae42 16be 72f4 1b3e
00000270: 2a1d 643c 6735 413e 6ad3 da3c 8b95 d9bd
00000280: 28ce cf3d 581f aabd 32a9 653e 8d7a 363d
00000290: 9ce7 2fbd e7af 5bbe 804c f0bc 4644 f33d
000002a0: a6cb a0bd b4aa 023e 8b92 f13a 2c7c df3d
000002b0: caaf abbc f0c5 58be 01e2 3a3e 3a91 38be
000002c0: a2ab 59be 4860 1f3c 81f1 2bbd 4c37 303d
000002d0: ba9f ccbd d36e f43d 4d41 be3d 82ad 523c
000002e0: 77ef 11be 7adb 3dbd a722 3dbe 14d7 243d
000002f0: 38b8 ff3a 8ff5 45be 44f5 a13d 1812 8ebd
00000300: 2539 16be 0f75 22be 1cde 263e 7cd0 563e
00000310: e938 eebd 8ecc 52bc 06d0 1c3e a894 f5bd
00000320: e0cc f1bd d802 18be b740 b93d 496d 23be
00000330: 7409 d9bb 86e7 3b3e 3127 16be 1b41 4cbe
00000340: 355a 7bbd 82e8 cd3d cc03 24bd 608c 3ebe
00000350: d955 ed3d 405e 5e3e 0b75 853d 9e1f c13d
00000360: 4725 623d 0fe8 e1bc 10d5 973d 3566 823c
00000370: 11b7 fd3c 17d3 153d 4ff0 89be 47bb cebd
00000380: e989 82be c6c8 bdbc 2ba1 09be f825 3c3e
00000390: 0807 c73d f767 0c3e e8b9 11be 5d75 e0bd
000003a0: a3fb 1b3d 6429 0b3e 226c 04bd 526b 19bd
000003b0: a1a5 d03a 210c 043d 9d41 0abe 4b59 703e
000003c0: ef64 663c fa4b 86be 7296 8ebc fb7e 643e
000003d0: ac8b 54bd b8dd d23d f3c9 f7bd ad1e 0c3e
000003e0: b9b6 c6bd 368d 9a3d b189 233e 4999 08be
000003f0: c10a 36bd cddf 26bc 0261 c9bc 5be9 a03d
0.017071333 0.085223295 0.263142 -0.114732176 -0.11934232 0.0074039786 0.0015728248 -0.033098802
-0.19310822 -0.39739382 0.1472301 -0.21034545 0.076654874 0.080153875 0.1432663 -0.1935804
-0.11478096 0.3966573 0.08477677 -0.07991216 -0.17151317 0.20370753 0.064620964 -0.020134335
-0.27069 0.15163295 0.123479545 0.11160118 -0.0072736274 0.15240464 0.0028866197 0.3244229
0.03396969 0.10158759 -0.1500243 -0.03321027 0.025928125 0.37262616 0.08637768 0.07487931
-0.25744992 0.15842934 -0.075349316 0.08751667 0.015570824 -0.008272304 0.0807894 0.1868704
0.05597977 0.0560515 0.078572705 -0.32443616 0.05033433 0.2702982 0.31063616 -0.11975622
-0.15570864 0.21250804 -0.096643694 -0.02557949 0.018452369 0.013213392 0.01907158 0.29612696
0.105951585 0.21897513 0.39541817 0.07853784 -0.018131578 -0.23151498 -0.20922062 0.09961404
-0.001811171 -0.020989755 -0.054618437 -0.070937306 0.19653033 0.0019875995 -0.19067115 0.043962922
-0.12595594 0.18708834 -0.04520281 -0.08012079 0.042898573 -0.10479273 -0.021298401 -0.04929307
-0.12411425 0.2195072 -0.119800925 -0.22364518 0.07278172 -0.10747632 0.009066342 -0.3114507
-0.10159991 0.10190358 0.069227025 0.26304787 0.07726818 0.044239268 -0.29089135 -0.12748466
-0.13129257 0.100472204 -0.052145198 -0.37093624 0.02833047 -0.10195882 0.22982015 0.12971172
-0.2629264 -0.10810664 -0.013948368 -0.023872742 -0.2578779 -0.08074417 -0.1782952 0.19381218
0.100655295 -0.4027174 -0.2067069 0.055476718 0.028393013 0.19431353 -0.18195662 0.2628954
-0.3382901 0.1680595 -0.43578166 -0.108625636 0.03587059 -0.13678527 -0.15530284 0.10008156
0.06755751 0.017380252 0.006682066 0.038990263 -0.28434637 0.21815264 0.043049473 -0.3015937
0.12546697 0.2904837 -0.21469857 0.15119372 -0.0011217562 -0.0902223 -0.18510877 -0.1547778
-0.11783655 -0.4436013 -0.14673874 0.15229967 0.013922969 0.18868028 0.026712138 -0.10624226
0.10146743 -0.083067596 0.22427824 0.044550467 -0.04294549 -0.2145382 -0.029333353 0.118782565
-0.07851343 0.1276043 0.0018430514 0.10912356 -0.020957846 -0.21169257 0.18250276 -0.1802415
-0.21256879 0.009727545 -0.041978363 0.043021485 -0.09991403 0.119352005 0.09289799 0.01285875
-0.14251505 -0.046351887 -0.1847025 0.040244177 0.0019509858 -0.19331954 0.07908109 -0.06937045
-0.14670236 -0.15864967 0.16295666 0.20977968 -0.116319485 -0.012866152 0.1531373 -0.119912446
-0.11806655 -0.14844835 0.090455465 -0.15959658 -0.0066234414 0.18350038 -0.14663388 -0.19946711
-0.061365325 0.10054113 -0.040042683 -0.18608236 0.1158864 0.21715641 0.06516465 0.094298586
0.05521133 -0.027576474 0.07413685 0.015917877 0.030971082 0.036578264 -0.26941153 -0.10094314
-0.25495842 -0.023167025 -0.13440387 0.18373859 0.09718138 0.13711534 -0.14231074 -0.10959885
0.038081776 0.13590008 -0.032329686 -0.037455864 0.0015918502 0.03223813 -0.13501592 0.23471563
0.01406215 -0.2622984 -0.017405722 0.22314064 -0.051891014 0.10296196 -0.12099066 0.13683577
-0.0970282 0.07546465 0.15970494 -0.13339724 -0.04444385 -0.010185194 -0.02458239 0.07857009

lstm.bias_ih_l0 f4 [392]
00000000: efbe 043d 7007 923c 469c 68ba 1c8d 1cbe
00000010: 9843 f63c d063 923d 25f7 643e f05f 8fbd
00000020: cb5b 223b 6cfd 773e 6780 d0bb 301a 5fbe
00000030: adb5 83be 103d 63bc 32fa cbbd 4270 29bc
00000040: 552a d23d ed59 9c3d 7d44 393d 31ab 323d
00000050: af32 0c3e 6e15 1ebe eb00 d5bc ccb0 c4bd
00000060: 4552 953d ad62 903d 2ef5 d8bd 2125 5e3d
00000070: 1204 7c3e 75a4 7c3e 5bc2 b2bc 18f2 233e
00000080: b30f 093d 0b92 203d e19b 0cbe db24 f1bd
00000090: 29f7 7dbd 6a16 7fbe 1616 bc3c 5c6b 2cbd
000000a0: 3a3c 5ebe 287a 593d 4ff2 24bd f8c6 f1bd
000000b0: 77c1 eabd a6fe 333e dd1e 17be 406f 96be
000000c0: 9534 553e f8e7 773d 23a7 18be 8fe6 833e
000000d0: ba7e a03e f425 2d3e ebad e2bd 6699 26be
000000e0: 2498 ffbd 50f2 543d 77e3 bc3c b508 463e
000000f0: 08a4 38be 3456 0cbe 2820 00bd 4422 b7bc
00000100: 66af 933e fede 2d3e fe6e 74bd e6f1 013d
00000110: 64b8 a1bd f809 f23d d523 063e 116a 0b3e
00000120: ae9c 21be 19e8 803d 8216 4fbe bb53 ac3c
00000130: 2d33 223e edb5 d53e c7e2 213d 3a24 8bbd
00000140: d26b c3bd 1cf1 babd 25a7 41bc 9652 c13d
00000150: 97f5 43bc a525 00be 6c03 d7bd b51d 96bc
00000160: b98e 7ebc 2f7b 4c3e 4dcc 96bd 49e3 a9bd
00000170: 4e89 0fbe 09b7 03be e29a 32be 9928 f93c
00000180: 8184 c3bd f07c b13d ae38 e5bd 8287 a33d
00000190: 1e38 c93d ca43 d23d 720a be3d 7e66 413e
000001a0: 5b34 3d3d ebfc 95bb b313 853c aef3 04be
000001b0: 9b5e 853d 9f82 c2bc 0ee0 f33c ae51 3bbe
000001c0: 0ac4 853d 225f 2bbd 0420 6dbe e42f 37be
000001d0: f704 3ebd 2942 2f3e 8dc3 cebd 727a 8b3d
000001e0: fd7d 8cbd e770 a9bd 0272 efbc 64ed b43d
000001f0: 517e 323e 1644 d9bd 9a53 68bd 5be8 8abd
00000200: 1cd8 b93d b520 b93e 0e6a 40bd bf5b c03d
00000210: 03c7 ce3d deaf 693d f9b7 82be 1554 bbb9
00000220: 5f15 a43d 9307 25be 53c1 c8bc 24b3 4abe
00000230: c4e5 0d3e fbea 313e 9770 713e 3402 f23d
00000240: cde4 8bbe afaa 71bc 4f8a 6e3c 4805 443d
00000250: da90 2a3e 2d86 9bbd 9d32 80bd 869e 89bd
00000260: 6499 e5bc 1ed6 b5bd 3b4c d7bd a52f 01be
00000270: 5cd5 febd b31c 1cbe f23a 2cbe d22b a9be
00000280: 0f04 1dbe 11af 3cbe cc94 863e 76c0 14bd
00000290: 7d74 7fbd 2527 82bd 3f75 07be 4a73 f93d
000002a0: 1213 84bc 7e2e 993d 645f ebbd a641 943d
000002b0: e884 0cbd 9775 fdbd c54c e6bd c05c 33be
000002c0: 8438 08be 690d aabd 4ffe babd aad2 29bd
000002d0: d029 623e a574 2abc a265 23be 1882 0e3e
000002e0: 8b66 9f3e ee68 0cbe de95 243e cfcd 0dbe
000002f0: 1b13 bdbd 7148 fb3c 5519 1abe e4a3 e8bd
00000300: 01f3 8fbd d024 653d c2d1 4cbe f229 0ebd
00000310: 65c6 b4bb c190 403e 2507 333e d507 293e
00000320: 510b a83d f85c 23be 9cfc 613d 9eba 51be
00000330: 50d2 8fbd 2f84 823d 1112 24bd 8cdc 5bbe
00000340: df4d 76bd 2eef 5b3d 0cc0 f83d 76ea 2dbe
00000350: 9eb3 473d 4034 b13d f31f 9e3d 0f02 16be
00000360: 824e 013d 3534 4d3e fa68 333e 1fd8 dd3d
00000370: 1dd4 7a3b 7274 b43d 5487 0d3b cf55 4f3b
00000380: 5e6b 81bd 07ad 1c3d e477 1a3b f11b 3e3c
00000390: 99be 923d ee95 043d 2570 7d3d 8ba7 ff3d
000003a0: 20fc 8c3d ee82 543d b63d 933e 62b0 f9bd
000003b0: 957e 56bd 5c55 1ebd 493c 4cbc 70b4 793e
000003c0: 441d 14bd a104 dfbd 60f2 66bd dd1a 003e
000003d0: 3360 803e 63a5 553d 0b63 b03d e8c3 3c3d
000003e0: b407 01be a10d e73c 3167 17bd 36ca 06be
000003f0: e34d 8fbc d1fd 043e 3289 23be bad2 80bd
0.03240865 0.017825812 -0.0008873384 -0.15288204 0.030061528 0.07147944 0.22359903 -0.070007205
0.002477395 0.24217767 -0.006362963 -0.21787333 -0.25724545 -0.013869539 -0.0995983 -0.010341706
0.102619804 0.076343395 0.04523133 0.043620292 0.1369121 -0.15437862 -0.026001414 -0.09604034
0.07291082 0.07050071 -0.10593639 0.054234628 0.24610928 0.2467211 -0.021821192 0.1601032
0.033462238 0.039201777 -0.13731338 -0.11774608 -0.06200329 -0.24910894 0.02295975 -0.042094573
-0.21702662 0.053095013 -0.040270146 -0.118055284 -0.11462682 0.1757761 -0.14757867 -0.29381752
0.2082084 0.060523957 -0.14907508 0.2576184 0.31346685 0.16909009 -0.110683285 -0.16269454
-0.124801904 0.0519889 0.023057682 0.19339259 -0.18031323 -0.13704759 -0.031280667 -0.022355206
0.28844756 0.16979596 -0.059676163 0.031724833 -0.07896498 0.11818308 0.13099606 0.1361468
-0.15782425 0.06294269 -0.2022343 0.02103602 0.15839835 0.4174036 0.039522912 -0.06794019
-0.095420495 -0.09128019 -0.0118196355 0.0943958 -0.011960409 -0.1251436 -0.104986995 -0.018324712
-0.015536957 0.19968866 -0.07363186 -0.08295304 -0.14017221 -0.12862791 -0.17441896 0.030414866
-0.095467575 0.08666408 -0.111924514 0.079848304 0.09825157 0.10266836 0.09279336 0.18886754
0.04619251 -0.0045772693 0.016244745 -0.12983581 0.06512185 -0.023743926 0.029769924 -0.18292877
0.06531532 -0.041838773 -0.23156744 -0.17889363 -0.046391454 0.17115082 -0.10095892 0.06810464
-0.06859968 -0.082734875 -0.029229168 0.08834341 0.17430998 -0.106086895 -0.056720354 -0.067825995
0.09074423 0.36157766 -0.04697614 0.09392499 0.10096552 0.057052486 -0.25530985 -0.00035730065
0.08011889 -0.1611617 -0.024506247 -0.19794899 0.1385718 0.17374794 0.23578106 0.118168265
-0.27323 -0.014750167 0.0145593425 0.0478566 0.16656819 -0.075939514 -0.06259654 -0.06719689
-0.028027244 -0.0887873 -0.10512587 -0.12615831 -0.12443039 -0.15245323 -0.16819361 -0.33041245
-0.1533358 -0.18426158 0.26285398 -0.036316358 -0.06236695 -0.063551225 -0.1322832 0.12180193
-0.016122375 0.07479571 -0.11492804 0.07239084 -0.034306437 -0.12375944 -0.112451114 -0.1751585
-0.13302809 -0.08303339 -0.09130537 -0.04146067 0.22086263 -0.010403787 -0.15956739 0.13916814
0.31132922 -0.13711902 0.16072795 -0.13848041 -0.0923216 0.030674191 -0.15048726 -0.11359385
-0.07028771 0.05594331 -0.20001891 -0.03470797 -0.0055168145 0.18805219 0.17483194 0.16506894
0.082052834 -0.15953434 0.055172548 -0.20481345 -0.07022536 0.06372868 -0.040056292 -0.2147085
-0.060132857 0.053694896 0.12146005 -0.16983971 0.04875528 0.08652544 0.077209376 -0.14649223
0.03156901 0.20039447 0.17520514 0.108322375 0.0038273402 0.08811273 0.0021595554 0.003163684
-0.06319307 0.03825095 0.0023569996 0.011603341 0.0716526 0.032369547 0.061874527 0.12483128
0.068840265 0.051882677 0.2875802 -0.121918455 -0.05236681 -0.038655624 -0.012465545 0.24385238
-0.036160722 -0.10889555 -0.05638349 0.12510248 0.25073394 0.05215968 0.08612641 0.04608527
-0.12600595 0.028204741 -0.036963645 -0.13163075 -0.017493194 0.12987448 -0.15970305 -0.06290193

lstm.bias_hh_l0 f4 [392]
00000000: 07b7 b83d 91e5 e53d e842 bfbd 4058 f3bd
00000010: 976f 873d 60c2 a13d 55a7 623e 9400 a9bd
00000020: 2808 fb3d 2960 be3d 62b2 9b3d 5fec 0bbe
00000030: 5cb6 c8be 58df 70bd 797b 90bd c2a1 d2bd
00000040: 1ff2 993d 7d67 c33d 86a2 4c3e fb04 abbd
00000050: 2fed 273e be9e 21be 082d 93bb 7477 b23d
00000060: d143 b63d 49a7 afbd 18d3 98bd 16f9 fbbc
00000070: acbc 373e e37f 773e 9acf 0a3c 6da7 9d3d
00000080: 5e96 233e 03e2 753d 9037 97bd c379 1dbe
00000090: 8884 babd 6efe 6fbe 9c8d 803d a0bb fa3d
000000a0: c8f4 d6bd dcee 4dbd 1d5a 863d a0f5 51bd
000000b0: 1a02 3bbd d2b5 e83d b21c d9bd fc5c 7dbe
000000c0: 8ff5 a83e f99a 5d3e b9f1 89be 8db9 943e
000000d0: c7e8 893e 4597 533e 69df 00be a859 4dbe
000000e0: 1623 e63c 9ee8 5b3c 34d5 42bd 48f3 993d
000000f0: 35d0 87be ddec bebd ebb5 9cbd 991a 2a3d
00000100: b5f6 fd3d e81a 0b3e bfaf 24be efab 2d3e
00000110: a6db c5bd bb95 6d3d 0c85 323e 51fb 10bc
00000120: f4d5 e3bd 86fd d73d 9afe 32be f04e 2c3e
00000130: 4407 d93d 6a1c e73e 294b bb3d e329 d13d
00000140: 1224 16be c779 11be 6922 94bd 12e1 cabb
00000150: 767a 38bd aaaa 91bd 7c5b afbd a596 233e
00000160: 74e2 c3bc dcfb f73d 52b4 2c3d 7488 37be
00000170: 5839 14be cc58 2bbe 5cae 8bbe 5330 4d3e
00000180: 2ae3 4fbe b8d6 a23c 8584 82be b619 f83d
00000190: 5971 ab3c b09b 503e 634a 3e3c ee46 513e
000001a0: b935 4dbd 9925 94bd 7441 bebd 1767 ea3a
000001b0: f011 3cbd 0d83 fb3d b3cf b8bd 2ea3 2fbe
000001c0: 155c 9e3d 88b3 8cb9 b9bc 79be 94fe 64be
000001d0: 27c6 46bd ea90 bc3d 827e 2bbe c4cd fb3d
000001e0: 4c38 653d ca4c bf3d d6d1 58bd 58a4 573c
000001f0: 3cf3 5d3d 681c f9bc 9d95 42bc 19bc 5fbe
00000200: 4eb0 cb3d 957f 613e 2453 aebd 678e 2cbd
00000210: ad60 48bc faa9 0a3e ecda 4dbe 56b0 94bd
00000220: 4349 983d 0762 d4bd 05a1 14be e187 4ebe
00000230: a1ca 793d 9003 053e f784 683e ad33 253e
00000240: 34da 44be 4daa e43b e4c8 e73d 39dd 89bc
00000250: 7bb8 d13c 731b b93c 1d31 d3bd 214b 00be
00000260: 79ab b63c d74b 66be fbeb 8fbb a1c4 18bd
00000270: 7712 71be 7c1b 14bd a570 70bc 0bf1 c6be
00000280: ba6a 70be d9f2 4bbe 320f 683e 0fef 53be
00000290: c1b8 01be 0786 02be 6f18 92bd 427c 1c3e
000002a0: 781d 82bd 6146 363e 7ae5 06be 46de 44bd
000002b0: 9b21 c23c 6b9a f0bd e3fe 25be eacc 14be
000002c0: 2079 17be 298f 3bbe 83f9 49be db6c 703d
000002d0: 162b 4e3e 7dd8 9b3d 84cc 2bbe 1f05 443e
000002e0: 5559 a93e af27 febc 1ccb 623e 921b 04be
000002f0: c51f c33d decc 483d 2d29 9fbd 82e0 04be
00000300: f416 9c3b f284 463e 330a a5be be9e 9e3c
00000310: 568b b63d 061a 203e 8d86 d53d 5735 153e
00000320: cd01 b7bc 5a9d 8ebd 4d42 0cbe e43e e2bd
00000330: 8f64 c3bd 3953 473e 3208 dbbd 97ac 89bd
00000340: 1dae c13c 1753 243e 0efe 123e 301e cdbd
00000350: 7a80 933d f893 8f3d 2757 b9bc 2d69 7b3c
00000360: f442 143e 259b 983d 960a e63d fc4a 603d
00000370: 4df6 523c f8b4 bb3d ddbe 043d e7ed af3d
00000380: 82c9 0abe 44d3 cfbd e138 6f3b 11a9 f33c
00000390: 86c1 d03d 6912 873d 6313 02bd 6b4e dc3d
000003a0: 6d4c 58bc efbb 1c3e 867a 813e 9b09 01be
000003b0: 8b79 b13c 97c8 a13d 1dbb 0a3e 5640 3c3e
000003c0: c44c 08be e77c ebbd ab84 1bbe 1e3e a03d
000003d0: b212 c13d 2934 e63d 4567 1a3e 771e 94bd
000003e0: 2421 3cbe ea50 b63d ea31 103e 556f 01bc
000003f0: 7db8 3bbd 8495 14bd cb69 65be b8bd 0c3e
0.09019285 0.11225427 -0.09338933 -0.11882067 0.06613081 0.07898402 0.22134145 -0.082520634
0.12257415 0.09295685 0.07602383 -0.13664387 -0.3920163 -0.058806747 -0.070548005 -0.10284759
0.07516884 0.09541223 0.19983873 -0.08350559 0.16399072 -0.15783212 -0.004491452 0.0871419
0.08899654 -0.08576829 -0.07462138 -0.030758422 0.17943066 0.24169879 0.008472348 0.076979496
0.1597533 0.060029995 -0.073836446 -0.1537848 -0.091073096 -0.23436901 0.0627701 0.12242818
-0.10495907 -0.050276622 0.065601565 -0.051259637 -0.0456563 0.113628045 -0.10601176 -0.24742502
0.32999846 0.21641149 -0.26942232 0.29047814 0.26935408 0.20663173 -0.12585224 -0.20053732
0.028092902 0.0134221595 -0.047566608 0.07517105 -0.26526037 -0.09322522 -0.076518856 0.04152927
0.12400571 0.13584483 -0.16082667 0.16960119 -0.09661035 0.058004122 0.17433566 -0.008848981
-0.11124793 0.10546403 -0.17479935 0.16826987 0.10597089 0.45138866 0.09145195 0.102130674
-0.14662197 -0.1420661 -0.07233126 -0.0061913813 -0.045038663 -0.0711263 -0.08562371 0.15975435
-0.023911692 0.12108585 0.042164154 -0.17923146 -0.14475 -0.16733092 -0.27281463 0.20037965
-0.203015 0.019877777 -0.2549173 0.12114279 0.020928072 0.2037189 0.011614415 0.20437214
-0.050100062 -0.07233734 -0.09289828 0.0017883506 -0.045915544 0.12280855 -0.090239905 -0.17152092
0.07732407 -0.00026836642 -0.24388398 -0.22362739 -0.048528817 0.09207328 -0.16747478 0.12295106
0.055961892 0.09340818 -0.05293449 0.013161741 0.054187045 -0.030409053 -0.011876491 -0.21849097
0.09945737 0.22021325 -0.085119516 -0.042127993 -0.012230081 0.13541403 -0.20103043 -0.07260196
0.074358486 -0.1037026 -0.14514549 -0.20169021 0.060984258 0.1298964 0.22706972 0.16132994
-0.19223863 0.0069783092 0.11317614 -0.01682912 0.025600662 0.022596097 -0.10312102 -0.1252866
0.022298561 -0.22489868 -0.0043921447 -0.037296895 -0.235422 -0.036159024 -0.014675294 -0.38855776
-0.23478213 -0.19916858 0.22662047 -0.20696662 -0.12668134 -0.1274644 -0.071335666 0.15281776
-0.06353277 0.17800285 -0.13173476 -0.04806354 0.023697665 -0.11748203 -0.16210513 -0.14531294
-0.147923 -0.1831633 -0.19724087 0.058697563 0.20133623 0.07609651 -0.16777235 0.19142579
0.33075967 -0.031024782 0.22147793 -0.12901142 0.09527544 0.0490235 -0.077715255 -0.12976268
0.0047634784 0.19386652 -0.32234344 0.019362804 0.08913295 0.15634927 0.10426054 0.14571129
-0.022339726 -0.06963606 -0.13697167 -0.11047152 -0.095406644 0.1946534 -0.106949225 -0.06722372
0.023642594 0.16047321 0.14354727 -0.100155234 0.07202239 0.07010645 -0.022624565 0.0153449
0.14478666 0.074514665 0.11232488 0.05475901 0.0128761055 0.091653764 0.032408584 0.08590298
-0.13553432 -0.101477176 0.0036502408 0.029743703 0.10193162 0.06595308 -0.03175677 0.107571445
-0.013201815 0.15306066 0.2528879 -0.1260132 0.021664402 0.078995876 0.1354794 0.18383917
-0.13310534 -0.114984326 -0.15187328 0.07824348 0.09427394 0.112404175 0.15078457 -0.07232373
-0.18372017 0.08902152 0.1408154 -0.007900079 -0.04583024 -0.0362754 -0.22403638 0.13744247

lstm.weight_ih_l1 f4 [392, 98]
00000000: 4a5b a03d a34c 9ebd 5f0a 0cbd 6992 713d
00000010: 0fe4 8ebb 5b3c 71bd ee1d dbbd 37f0 7e3d
00000020: 7d8b c4bd ac85 f0bd 03dc 77bd 527f 813d
00000030: 8f75 b4bd 4eca 363d fb3b 503d 3b92 39bb
00000040: 5012 1cbd 7b39 b4bc 24aa 60bd 18ae 623d
00000050: 45eb ccbd aedc 013e a897 ecbc dd67 00bd
00000060: ec44 8ebc 27d3 0c3e a162 d23b d06f 1bbc
00000070: 5aae 913d ba9e 3c3c 6f13 503c 7d0e 873b
00000080: 6196 d6bc 90fb bfbd 29bf f93b 587a 563d
00000090: a550 02bd b600 dbbd 4d60 eabd c38f cfbd
000000a0: 2152 a03c 7ecd abbd e71e a03d fcc0 3cbc
000000b0: 2b68 86bd 9eb2 91bc 3fce eb3d 029d 13bd
000000c0: 9537 0ebe 6478 3d3d 90cf 1d3d 3faa 4e3d
000000d0: 44db 4abc 35ce b7bd 5e29 9c3c 050d ecbc
000000e0: a86e 973b b5b4 45bd bdef abbc 99f2 acbd
000000f0: 35ff 473d e08a 8dbd 9683 373d 735b 1e3d
00000100: 9149 21bd f3e8 153d 8a14 f93c 153c 7f3c
00000110: ccd4 a5bc 2ca5 8bbd 8db1 b13d f9ac d4bd
00000120: c58e 983c e957 2bbe d5d4 203e 9681 f7bd
00000130: 7dcd 003e 25a4 f1bb 519c b0bd 5f4e c83d
00000140: 7857 0dbc 1100 81bd 8dc8 f33d 8c7c d33d
00000150: 0fc5 9bbc f2ea eb3d 4ca5 aa3d 07ae 993c
00000160: 368e 1d3d 2982 e8bc eb6d 993d 4dbc c8bc
00000170: 34f4 3bbd 9f4e c73d ab99 f93d 7a84 08bd
00000180: dde5 123b 1c2b 543d ef25 253e b1f8 093d
00000190: 904b 05bd 2f72 ac3d 63da f5bd 4549 ee3c
000001a0: 2e6d cdbd 3669 69bd a092 24bd 5f49 2cbd
000001b0: 0d39 9d3c c925 273c bc95 4bbc 6825 b3ba
000001c0: c50a d13d f989 2a3d 2f07 983c 66bf a73b
000001d0: 909f 973d ee5b 893d b11e 97bd 150f 8f3d
000001e0: aca3 e53d 9c67 173d 0d2f d8bd cbd5 663d
000001f0: b48d 3f3d 5be8 c83b ed1c 9c3d 42f9 23bd
00000200: 3ff0 95bb f00c e33c feab 193d 665f eabd
00000210: 4cdc 2f3d 785b 873d f1c6 0f3e 272b 243d
00000220: 39d4 963d bbf5 3fbd bf87 393d 59f1 ac3c
00000230: 5151 05be 318c d9bd ff3a 3b3c a38b 0b3e
00000240: f979 1a3d 169a 71bc 0bbb f83c 3b65 f13c
00000250: 799c 873d 11b4 b83c 03c5 ee3d 5617 a33d
00000260: 5dda 12be 7849 8d3d ac35 8c3c a04a 033d
00000270: e60c d63d d0b5 19bd ad33 d63d 7972 f53c
00000280: 19ca a93b 4e56 983c 5f2a 90bc a989 5abc
00000290: 518d 193d 594b cd3c 209f 1cbd b312 8b3c
000002a0: b072 a63d 850a ef38 489f 3fbd ca82 2e3d
000002b0: 62ce 3abd ddeb 66bd d0de f3bc b2c3 84bd
000002c0: c72e 9c3c e44c 073e 39ac ec3b 415b 47bd
000002d0: 3c23 08bd 6880 3c3d 6a32 6a3b 1c3d 6e3d
000002e0: efea 203e 6267 d9bd ae39 693d bbc7 a23d
000002f0: 4bcc 0f3d 2d80 8ebd fc8c a33d 6171 483d
00000300: bb1c c8bd c94f 97bc a0d7 09bd bd12 f63d
00000310: eb99 2f3d 15f6 f4bd 97af e13b d316 393e
00000320: 01ef 4a3b 36ee 9dbd bbcb 93bd 3414 393c
00000330: a293 d3bd 5070 2ebd 9fbb 98bc 07da 343e
00000340: c2c1 a43c babe fbbd 52d5 b3bc d164 c23d
00000350: de83 e23d 7f74 73bd 90e9 99bc b83a 6bbb
00000360: 313f 37bc c082 673c 7312 513d ef85 24bd
00000370: 7078 19bd 881a e13c 0b71 6d3c 9593 e4bc
00000380: 4006 193d ed4b d8bc ab8e 273e 5d7a cbbd
00000390: bdc9 a2bd 52fa 0a3c 9f4f a6bd 0575 923d
000003a0: 8e1c acbd 31a1 b13c 2439 ccbd 3024 2dbd
000003b0: 94bf 823c 39fd fbbd 5fdd acbc dbc9 00bc
000003c0: 0a2e 813d 35ae 9cbd b334 223b 4e71 98bc
000003d0: 9afb 0fbd e3fd fc3b 3f76 18bd 72aa 01bd
000003e0: 0587 97bb ec7a ed3d aad9 2cbe 6cd3 623d
000003f0: f840 e2bd b6bf 11be 914c 503d bc40 2e3e
0.07829912 -0.07729461 -0.03418958 0.05897752 -0.004360683 -0.05889545 -0.10699068 0.062240805
-0.09596918 -0.11744246 -0.060512554 0.063231125 -0.08811485 0.044626527 0.05083845 -0.002831592
-0.0381034 -0.022000065 -0.05484976 0.05534181 -0.100058116 0.12681839 -0.02888091 -0.03134905
-0.017366849 0.13752423 0.006420449 -0.009487107 0.07113333 0.011512453 0.012699946 0.0041216
-0.026194753 -0.093741536 0.007621665 0.05236277 -0.03181519 -0.10693495 -0.11444149 -0.10134842
0.019570412 -0.08388804 0.07818394 -0.01152062 -0.06562837 -0.017785367 0.11513948 -0.036038406
-0.1388839 0.04625739 0.038528025 0.050455328 -0.012381379 -0.08974878 0.019062694 -0.028814802
0.0046213455 -0.04826804 -0.02098834 -0.08444709 0.04882737 -0.06911254 0.044803225 0.03866143
-0.0393768 0.03659911 0.030405302 0.0155782895 -0.020243071 -0.068186134 0.08676443 -0.103845544
0.018622765 -0.16732754 0.15706189 -0.120852634 0.12578388 -0.007374304 -0.08623565 0.09780573
-0.008626811 -0.06298841 0.119034864 0.1032649 -0.019014863 0.11519422 0.08332309 0.01875974
0.0384657 -0.028382378 0.07491668 -0.024503851 -0.045887187 0.09731793 0.12187513 -0.033329464
0.0022414841 0.051798925 0.16127752 0.033684436 -0.032542765 0.08420216 -0.120045446 0.029087672
-0.1003059 -0.056985103 -0.040178895 -0.04206216 0.019192243 0.01020188 -0.012425836 -0.0013667764
0.10207132 0.041635487 0.018558113 0.005119252 0.07403481 0.06706987 -0.07378901 0.069852985
0.112128586 0.036964044 -0.10555849 0.056356233 0.046765998 0.0061312146 0.07622705 -0.040032633
-0.0045757587 0.02771613 0.03751754 -0.11443977 0.0429347 0.06609243 0.14040734 0.040080216
0.07364697 -0.046865206 0.045295473 0.021111177 -0.13019301 -0.106224425 0.01142764 0.13627486
0.03771398 -0.01474621 0.030362627 0.029467216 0.06621642 0.0225468 0.11658671 0.07963435
-0.14341111 0.06898779 0.017115436 0.03205359 0.10451679 -0.037526906 0.10459075 0.029961811
0.0051815626 0.01859584 -0.01759833 -0.013338485 0.037488285 0.025060343 -0.03823769 0.01697669
0.08127344 0.000113983675 -0.04678276 0.0426052 -0.04560698 -0.05637728 -0.029769331 -0.064826384
0.019065274 0.13212925 0.007222679 -0.04867101 -0.033236727 0.046020895 0.0035735616 0.058163747
0.1571462 -0.10615422 0.056939773 0.07948252 0.03510694 -0.06958041 0.07985875 0.04893625
-0.09771105 -0.018470662 -0.0336529 0.12015293 0.042871397 -0.11960999 0.006887387 0.18075113
0.0030965211 -0.07711451 -0.07216593 0.011296321 -0.10330893 -0.04258758 -0.018644152 0.17661296
0.020111922 -0.122922376 -0.021952305 0.094918855 0.11060308 -0.05943727 -0.01878813 -0.0035893153
-0.0111845 0.014130294 0.051042985 -0.04016679 -0.037468374 0.027478471 0.014492284 -0.027902404
0.037359476 -0.026403392 0.16363017 -0.09935448 -0.07948635 0.008482533 -0.08120655 0.07151226
-0.08403884 0.021683307 -0.09971836 -0.04227084 0.015960492 -0.12304158 -0.021101652 -0.007860626
0.063076094 -0.07650415 0.002475065 -0.018608715 -0.035152055 0.0077206953 -0.037222143 -0.03165669
-0.00462425 0.11595711 -0.16879907 0.05537741 -0.11047548 -0.14233288 0.05085427 0.17016882

lstm.weight_hh_l1 f4 [392, 98]
00000000: 7930 413e f1c2 b53d 6003 f03c d7d9 923d
00000010: 31f9 bcbc 404d 4d3d 61e9 21bd 3de9 a1bd
00000020: 9ac2 fb3d 615f b7bd a074 693d 62bd 8c3d
00000030: 5972 2cbd 6263 3dbd f439 d2bd 71d7 86bd
00000040: f41e b03d 0f4a 6b3e fad2 eabd ac1f 283b
00000050: 8561 d8bd ce44 233d 3862 e63d 3b58 57be
00000060: 92ad fc3c ad9e 0bbe 8dee 033e 26b5 a6bd
00000070: a1e4 e33d 274f 3dbd d74a 4f3c d294 3bbe
00000080: 532a 863c e716 a7bd 03e4 503c d6e5 4cbc
00000090: c57e d7bd 3f00 48bc 355b e5bd d856 c53d
000000a0: 5300 a3bc 7b06 d9bd a51f 2fbd b77d d1bd
000000b0: b4fd f03d bfe9 313e a6af e3bd 85a1 f63c
000000c0: 1d74 42be c054 b9bd 6295 d2bd 7dca 13be
000000d0: cf27 f43d eef2 bf3d 9470 8b3d 2ee0 1bbe
000000e0: 4a8f e53d c4b3 a83c 6d95 7dbe 8000 2a3d
000000f0: a040 abba 687c 3bbe 245f 7e3c a006 c83b
00000100: d42b 933d 8101 103e 0c03 1dbe 8d14 0a3e
00000110: 9f39 d83c f39b debd f4e8 d5b9 e1cf 35be
00000120: 160f 2d3c ef4b 633e 01d8 67bc 55e5 babd
00000130: e2dd 9a3d 6a11 7d3c 892f aebd 3cac de3d
00000140: 4133 88bb fc54 55bd 8248 d1bc 0b59 523d
00000150: 7792 2c3c 5f9b 133d 1338 2bbd 337c 543d
00000160: 9509 83bd 43d8 a23d ea60 ec3c 2c4b a2bd
00000170: 56e7 b3bc 54ac a1bd f985 773e 9034 853d
00000180: 94fc e4bd 1cea 07be 3191 8b3c 805e aa3d
00000190: 5002 1c3e 49c9 513e a1d0 2f3c 8795 183e
000001a0: f7ae ffbd b44d f6bd 2990 413c 2923 4dbd
000001b0: 952c 9e3d 8290 803d b695 10bd 095f 4ebe
000001c0: 280b 2ebd c8d4 70bd c418 a43d 670b 463e
000001d0: ea9e 69bc bc4a 4c3e f1e6 10be 9f19 d73d
000001e0: 5847 aa3d b19b 78be a881 723e 4e02 c5bd
000001f0: 9cfd cd3d e723 88bd 3745 fb3d 77ba 66bd
00000200: ecd9 5c3d 1f17 9dbd d645 603c 24bf 1fbe
00000210: 0de3 49bd b6fa e73b 2198 cdbd 26e2 1abe
00000220: 1478 a6bd 9f89 ba3c 3046 4cbe e428 02be
00000230: 759c 3cbe 4ac5 acbc aa21 a23d 4d5b 213d
00000240: 690c d5bd cd4e 9f3d 392a 51bd d515 5e3b
00000250: 5025 a5bc 4f78 5bbe 0ddb 583e 4e17 923d
00000260: 216e cd3d fb58 6fbe 7c88 243c 9a2b 5e3e
00000270: da6d 6bbd b5f7 ef3d 5855 273d 4366 19be
00000280: 271a 35be 222d 503d b680 c5bc d8b8 cb3d
00000290: 2fd1 b2bd c947 6b3e dacd 49bc a567 80bc
000002a0: 8428 a43d 80ec a8bd 8479 963d 4a94 ad3d
000002b0: f4ae 3ebe 1e85 373b 4941 273d 98ff 47be
000002c0: a37f c0bd 05c0 af3c 437b af3b a054 85bc
000002d0: 36cf 25be 20f2 adbd 783f 873c c630 1dbd
000002e0: 87cb 6ebd d1d7 f23d d201 d0bd 8888 573e
000002f0: 1e37 fb3a 5098 6cbd dd00 34bc 7d91 093e
00000300: 72b2 0e3e ed6d 073d 4baa 57bd d609 c0bd
00000310: 45ed 9f3d 4400 283e bcde 2d3e 4ff7 053e
00000320: 3841 b93d e321 ab3d 05ff 6abd bbea 96bd
00000330: b48a de3d 3e37 81bc 8463 243e 03ee 113c
00000340: d6ce 7ebb a8ed 6cbd d3bb aabd 4c08 3fbe
00000350: aaa5 243e 77ec e63c 603d 14be 69fc 973d
00000360: be1b d93c ef02 483d faf9 20bd c528 90bd
00000370: fab2 0e3e 0139 94bd e31d d13d bc9b 1bbc
00000380: 3b32 803d 6d05 dabd 933e 9f3d 29d4 17be
00000390: 6fc7 2bbe a2c6 adbc beaf c5bb 700a 0fbd
000003a0: 0e83 0f3c 49d2 19be 6461 6dbd 07ad b6bc
000003b0: d870 80bd 8833 3ebe 9ecc c7bd 9a19 bc3c
000003c0: 2687 623d a150 1b3e c34c 90bd 61c7 5cbc
000003d0: 13c0 c3bd ce27 69bc aa49 a53d ebe8 f2bd
000003e0: a586 8f3d 65bf f2ba cc1c f3bc e4d8 c2bd
000003f0: d28e ec3c 3d5b 3b3e 6a26 5ebe 1895 403d
0.18866147 0.08875073 0.029298484 0.07170456 -0.023068042 0.0501225 -0.039529208 -0.07905815
0.12292977 -0.08953739 0.056995988 0.068720594 -0.042101238 -0.046237357 -0.1026496 -0.06584061
0.08599654 0.2297747 -0.11466022 0.0025653644 -0.105654754 0.03986054 0.112492025 -0.21029751
0.030844484 -0.13634749 0.12883969 -0.0814002 0.11127592 -0.046218064 0.012652121 -0.18318489
0.016377604 -0.08158665 0.012749675 -0.012505969 -0.10522226 -0.01220709 -0.11199037 0.09635705
-0.019897616 -0.10596939 -0.042754788 -0.10229056 0.1176714 0.17374323 -0.11117487 0.030106315
-0.18989606 -0.09049368 -0.10282399 -0.14432712 0.119216554 0.09372507 0.06808582 -0.15222237
0.11208971 0.020593531 -0.24764033 0.041504383 -0.0013065524 -0.18309176 0.015525613 0.0061043054
0.07186094 0.14063074 -0.15333194 0.13484402 0.026394663 -0.10869589 -0.0004080009 -0.17755081
0.010562679 0.22196935 -0.01415062 -0.09125773 0.07561852 0.015446046 -0.0850516 0.10872695
-0.0041565006 -0.052083 -0.02554727 0.05135445 0.010532967 0.036036845 -0.041801523 0.051876258
-0.06398312 0.07951405 0.028854806 -0.07924494 -0.021960896 -0.07894197 0.241722 0.06504166
-0.11180988 -0.132729 0.017037006 0.08318806 0.15235257 0.2048694 0.010730893 0.1490079
-0.12484544 -0.120265394 0.011814156 -0.05008236 0.07723347 0.06277563 -0.035299025 -0.2015344
-0.04249111 -0.058796674 0.08012536 0.19340287 -0.0142590795 0.19950384 -0.14150597 0.10502934
0.08314389 -0.24278142 0.23682272 -0.0961958 0.10058138 -0.06647473 0.12269061 -0.05633017
0.053918764 -0.076704256 0.013688525 -0.15600258 -0.049288798 0.0070794476 -0.10038782 -0.15125331
-0.08128372 0.022770701 -0.1994865 -0.12710911 -0.18419059 -0.021090169 0.07916577 0.03939371
-0.10402758 0.07778702 -0.051065657 0.0033887525 -0.020159394 -0.21432613 0.21177311 0.07133351
0.10030771 -0.23373787 0.010042306 0.2169632 -0.05747781 0.11717168 0.040852875 -0.14980416
-0.17685758 0.050824292 -0.024109226 0.099473655 -0.08731305 0.22976603 -0.012317145 -0.015674422
0.0801554 -0.08248234 0.07347396 0.084755495 -0.18621427 0.0028002928 0.040833745 -0.19531095
-0.09399345 0.021453867 0.00535527 -0.016275704 -0.16192326 -0.08493447 0.016509756 -0.038376592
-0.058299568 0.1185757 -0.10156597 0.21048176 0.0019166206 -0.057762444 -0.010986534 0.13434406
0.13935259 0.033063818 -0.05265264 -0.09376876 0.078089274 0.16406351 0.16979498 0.13082622
0.090456426 0.08356073 -0.05737211 -0.0736899 0.10866299 -0.015773412 0.16053587 0.008906844
-0.0038880608 -0.057843834 -0.08336606 -0.18655509 0.16078821 0.028188927 -0.14476538 0.0742119
0.026502486 0.048830923 -0.039300896 -0.07039026 0.13935462 -0.07237435 0.102107786 -0.009497579
0.06259581 -0.10645566 0.07775607 -0.14827026 -0.16775297 -0.02121288 -0.006032913 -0.034922063
0.008759273 -0.15021624 -0.057954207 -0.022299303 -0.06271523 -0.18574345 -0.097558245 0.022961427
0.05530467 0.15167476 -0.07045891 -0.01347527 -0.095581196 -0.014230682 0.08070691 -0.11860832
0.07008103 -0.0018520175 -0.029676817 -0.09514025 0.028876696 0.18296523 -0.21694341 0.047017187

lstm.bias_ih_l1 f4 [392]
00000000: 33ce c83d 97e5 3139 143f 933d 214b b13d
00000010: a74b 5c3d 70d0 8bbb ad55 66bc d5c2 873d
00000020: 13f2 7d3e 685a a2bc ac0a 6dbc 93f1 053e
00000030: 01ce 273e d80a 01bc 9678 983d d832 943d
00000040: 4dd8 9b3e 9f9b 0b3e 9964 afbd 3264 04bd
00000050: 5735 e8bd cd8d 573e 4689 58bc bbc8 2f3e
00000060: b7f7 e53d 28d2 2cbe 2c92 1c3c 6500 c5bd
00000070: b0ae c73c 488e 3c3d a756 363d 4ad8 4a3d
00000080: 8035 fe3c 12f8 a03d 507f 063e ca36 263d
00000090: ca54 973d b68e e7bd 4ff6 df3d 598c ecbb
000000a0: 5db3 8e3d 2d29 713e aa99 d93d 04af ef3c
000000b0: 6bf8 213a b0b8 1e3e 058d 8c3d 18bc 70bd
000000c0: 2809 793d cdc3 c53d cbb0 61bd 5d1c 3c3d
000000d0: f788 563d ff59 7c3c e617 243e 91cf 0f3e
000000e0: 3d40 1e3e e1ce 3a3e 7c34 6b3e f8ed aabc
000000f0: a1cd 553e 9c33 473e 9740 573d c151 d4bc
00000100: 841c 52bd 47ab 17be 211c 41bc e1d6 043e
00000110: 1bb9 1c3e e6de d13d e282 1a3e 10ff fc3d
00000120: 80b4 573d f8d5 523e 6119 a23d 3e88 dabc
00000130: 2426 db3d 78b5 e43c 2173 c43d 99c1 a5bd
00000140: 5c7f 4b3e 5b22 02bd 7623 163e cb9a dc3c
00000150: 2395 183d b9f0 963d dff7 303b 6f60 e33d
00000160: 6b07 253e 42b1 9f3d e56d 30be f4b3 0fbc
00000170: c2d2 6f3d 27a2 083e 5084 373e 143f ddbc
00000180: 4f9a ec3d 1bf8 fd3d 2542 df3d a5a4 6d3d
00000190: 0ce0 053e 2be9 05bd 73b8 0d3e 36a6 27bd
000001a0: 4bbc fb3c 8708 c53c e265 7a3c 13f1 e0bd
000001b0: 8ca4 9b3d 1095 393d 46c4 963c 792e f63d
000001c0: 6266 963d 1069 dbbc 2869 103e b790 1c3e
000001d0: e9dc 9f3c f6b4 743c eb58 0dbe 2363 6f3e
000001e0: 5f58 42bd 94d5 393d 2003 b03d 550d 5cbe
000001f0: 379f 39bd f84e 2d3d c195 3ebd 8de8 123b
00000200: 8f11 033e 4a50 0e3e 4a7a c13d 0549 ce3c
00000210: f0dc aabd 05b2 08be 998f 00bd fa7b 4cbd
00000220: 2c2b b23d 42b9 9ebd ecb9 03bb 7eef 213e
00000230: c564 f33c 5de9 203d fe16 3cbe a77c 113e
00000240: 40da 533e f6be 0dbe 4194 adba a03c 2f3d
00000250: af1b 8c3d f59f f23d f926 113e 85aa 9e3d
00000260: f154 123c 3fa9 153e 9fb7 81bc ac1b da3d
00000270: 4a5c 9f3d 90f9 3a3d 6127 803a 8d47 b93c
00000280: 0d73 073e ac9e 063e 5a32 aa3d 9cc7 d3bd
00000290: ba3d eb3d 3974 623c b7d2 bb3c c899 133d
000002a0: 57c9 233d ffba 2d3e 0ff4 743d f9d4 613e
000002b0: 4fa2 973d def9 cebd 0e58 b23d f4c0 a8bc
000002c0: bacc e13c 252c 883b f073 40bd 1e4e e8bd
000002d0: d5bf fe3d c54a 733c b4ff 00be 6edc a23a
000002e0: 0566 7a3c 805c 5b3d d391 3d3e cead bc3d
000002f0: 7491 1dbe 2258 943d 7e10 9d3c 7572 8e3d
00000300: 96e4 6b3d cbdb 543d 9a8d 083e 33cc 773c
00000310: 727c 7f3e c4ce a73d 6ed7 763e 38f3 673e
00000320: 1d41 983d 376b 993d 2d54 fabd 1620 56be
00000330: c534 423e e50a 293d dcdd 033e 9d1a 113d
00000340: 2c94 69be 135e 5abe 2edb 27be bd87 34be
00000350: 83db 513e 8b8b 453e 7671 aebd c7d4 033e
00000360: 1428 a3bd f09b c33d 00cb 413e 8351 c5bd
00000370: 9696 3a3e a0d8 843d 6daa 263e d750 55be
00000380: e742 333e f1c3 96bc 5cd1 243e 9d61 c1bd
00000390: 376f e5bd 8ec5 81be 2d85 0a3e be66 4a3d
000003a0: 8946 10ba fb80 e6bd 4649 3ebe 2d07 5b3d
000003b0: 44c8 c5bd c225 63be a5c5 ecbd afaa ac3c
000003c0: 90be 2cbe 565f 103e cfb0 79be 6344 56be
000003d0: 612f b7bd 433f 5b3d ccd1 0bbc 05fd 0bbe
000003e0: 8b81 503e d1a1 9f3d 2014 b53d 5432 44be
000003f0: e57c 153e 77bb 573e fc3e 16be ab7b fb3d
0.098049544 0.00016965564 0.071897656 0.08656908 0.053783085 -0.004266791 -0.014058513 0.06628958
0.24799375 -0.0198185 -0.014467876 0.13080435 0.16387178 -0.0078761205 0.07444875 0.0723626
0.30438462 0.13633583 -0.08564109 -0.032322116 -0.11338299 0.21050186 -0.013216322 0.17166416
0.112288885 -0.16877043 0.0095563345 -0.09619216 0.02437529 0.046034127 0.044516232 0.049522676
0.03103137 0.07859816 0.13134503 0.040579595 0.07389219 -0.11306517 0.109356515 -0.007218879
0.069678046 0.23550864 0.10625012 0.029258259 0.000617868 0.1550014 0.06862835 -0.05877313
0.060799748 0.09656487 -0.055100244 0.045925487 0.052376714 0.015402316 0.16024742 0.14044024
0.15454192 0.1824298 0.2296924 -0.020865425 0.20879222 0.19453281 0.052551832 -0.02591789
-0.051296726 -0.14811431 -0.011786492 0.12972595 0.15304987 0.10247593 0.1508899 0.12353337
0.052662373 0.20589435 0.07914997 -0.026676293 0.10700634 0.027918562 0.095922716 -0.080935664
0.19872802 -0.031771045 0.14661965 0.02692928 0.037251603 0.07370133 0.0027003211 0.111023776
0.16116111 0.07797481 -0.17229421 -0.0087709315 0.058550604 0.13343106 0.17921567 -0.027007617
0.115528695 0.12400838 0.10901288 0.058018345 0.13073748 -0.03269307 0.13839893 -0.040929995
0.030729434 0.024051918 0.01528308 -0.10983481 0.07599744 0.045308173 0.018404137 0.12020583
0.07343747 -0.026783496 0.14102614 0.1528958 0.019514518 0.014935723 -0.13803451 0.23377661
-0.04744756 0.0453697 0.08594346 -0.21489461 -0.045317855 0.04231164 -0.046529535 0.0022416443
0.12799667 0.13897815 0.09447153 0.025181303 -0.08342922 -0.13349159 -0.031386945 -0.04992292
0.08699641 -0.07750179 -0.0020099832 0.15814015 0.029711137 0.039285053 -0.18368146 0.14207707
0.20688725 -0.13842377 -0.0013243036 0.042782426 0.06841218 0.11846916 0.14175023 0.07747368
0.008931384 0.14615344 -0.015834628 0.10649809 0.077812746 0.045648158 0.0009777361 0.022617126
0.13227482 0.13146466 0.08310385 -0.10340807 0.11486383 0.013821655 0.022927625 0.03603533
0.039986935 0.16965865 0.059803065 0.22053899 0.07404005 -0.10106252 0.08708201 -0.02059982
0.027563442 0.004155653 -0.046985567 -0.11343025 0.12438933 0.014849369 -0.12597543 0.0012425312
0.015283112 0.05355501 0.18512659 0.09212838 -0.15387517 0.072433725 0.019172903 0.06955425
0.057591043 0.051967423 0.13335267 0.0151243685 0.24949816 0.08193734 0.24105617 0.22651374
0.074342944 0.07491153 -0.122230865 -0.20910677 0.18965442 0.041270155 0.12877601 0.03542577
-0.2281043 -0.21324949 -0.16392204 -0.17629905 0.20493893 0.19291513 -0.08517735 0.12874137
-0.07966629 0.09551227 0.18925095 -0.09634688 0.18221506 0.064866304 0.1627595 -0.20831619
0.1750599 -0.018403979 0.1609549 -0.094424464 -0.11202853 -0.25346035 0.13527365 0.04941439
-0.00055036746 -0.1125507 -0.18582639 0.05347364 -0.09657338 -0.22182372 -0.11561135 0.021077482
-0.16869569 0.14098868 -0.24383853 -0.20924525 -0.08944584 0.053527128 -0.008533906 -0.13670738
0.20361917 0.07794536 0.08841729 -0.19159824 0.14598425 0.21067606 -0.14672464 0.12279447

lstm.bias_hh_l1 f4 [392]
00000000: d91e 1b3e 23c8 123b a842 b23d f04b 1c3e
00000010: 6c69 3b3d 25c1 33bb 64c1 363d 02ad 693d
00000020: a38a 8a3e a8e2 6bbd 69b8 b13a b152 093d
00000030: 2198 e73d da00 d63d c5a6 423e 2170 073e
00000040: 302c 6c3e 88d0 593e caf1 64bd 57c9 0b3e
00000050: 3095 f83a be78 803e edb5 5d3d e761 263e
00000060: c963 cb3d 435f d9bd 0899 01bd 6853 23bd
00000070: e60f 923d f338 aabc 4298 073e 44d6 073e
00000080: f4e4 143c feb4 0a3e a3ce 553c a67a 8b3d
00000090: 12d9 433d 645a 09bd 4f4d f23d 33e8 e23c
000000a0: 7330 0d3d bde5 863e 6dc6 3cbd e17f 123e
000000b0: 2656 e7bd cce2 693e 0f49 3e3e 54bc 4abd
000000c0: 3015 0e3e 67b6 d8bc 4e66 ca3d 9bf0 373d
000000d0: d49d 953d f7be a53c e675 b83d 827c 1f3e
000000e0: e936 933d 9205 eb3d fec2 cd3d 9c14 4a3d
000000f0: 4f43 4f3e bc64 de3d 3250 023c 41b1 8d3d
00000100: 321c c23d 5eed cfba 02a3 6e3d d2ef 353d
00000110: 655e c53d 660b 5c3d 894d 9e3d 937e 3a3e
00000120: dd9f c33d 22b5 643e 8c71 643d 920c fd3c
00000130: 7db1 3abd b329 bf3b afce 5e3d 2c17 13be
00000140: a0c7 293e ab6b f4bc 42cd 273e 1779 a2bc
00000150: 946e 8e3d b1be 833c 8c69 f53d 0a29 c13c
00000160: 6fd0 043e 313c a63c 0327 1ebe 9139 1d3d
00000170: 5ba0 ffbd 7eec 2b3e b59f d23d 7d80 093d
00000180: 7019 053e 0d7c 833d 6d46 6a3d 6bd5 cb3d
00000190: b6bd fc3c c913 bbbc 16c0 1d3e 4639 bc3d
000001a0: 88b7 94bd 746b 923a 904b 0a3e 84ed 80bc
000001b0: 14de 313d 08fd 593d 3618 56bd f35b 6b3d
000001c0: 639b 53bc 1727 9ebc 07cc b83d a5ac 4f3e
000001d0: a8fb 64bb a05c 763d ed12 1dbd e00e b43e
000001e0: 8b75 babd 4471 5a3d 481b 0e3e 7023 edbd
000001f0: 3b9c c03d 0877 c83a 1ea2 f43c bac1 9f3d
00000200: 0b0e f03d 3a96 da3d f168 97bd 43e5 aa3d
00000210: a612 593c ef56 8dbc 43d7 4abe 4583 013c
00000220: e2f1 23bc 8681 6abd 7bc6 3dbc 4b16 1d3d
00000230: e2d9 053e a591 b4bc 467a 44be 2f92 b03d
00000240: 2714 e03d d296 29be 481d a53c f880 57bd
00000250: f220 bebd e9f7 4e3d 583d a03d faaf 0b3d
00000260: 387f 5dbb a590 363d ff86 a23d b037 893d
00000270: 4863 653e 728c 6c3d df9a 093e 64c6 e13d
00000280: b7d4 41bd 7af9 8d3d 12b9 4dbd c57a e7bc
00000290: 4d92 4dbd 43fa dd3d 519e 1fbd 9829 983c
000002a0: bf57 093e 1bac 223e 117c 613d 4350 2d3e
000002b0: 10a3 23bd 8ebd 6cbd b6b3 943d bffc 863d
000002c0: 9fad cf3d a887 28bd 5bfc b2bc 0891 543d
000002d0: 959c 213e df90 b73d cabc 8fbd 0b92 693c
000002e0: f5ab 6a3d 3423 04bc 4668 b13c 5886 463e
000002f0: 3b72 a8bd 1597 673d 3a22 363d be49 5ebd
00000300: 761b 733e c9b7 d2bc ef7e db3d da56 fa3d
00000310: e978 633e b1b3 5a3e 394c fe3d 5be7 da3d
00000320: 3b25 4d3e 1d5b 2b3e 2344 a5bd a6d3 21be
00000330: 84d6 ee3d bcfe 6d3d 17d5 ca3d 927f 7c3d
00000340: e906 e4bd 9955 d7bd bb9b ebbd c9be 23be
00000350: 94a6 d73d 6fee 453e 5ebf 1abe 18a9 8c3d
00000360: da8a 6bbd e857 61bd fdb4 d03d c73d 5bbe
00000370: aae7 3c3e bf25 8f3d 8a8a 4a3e 29a5 4fbe
00000380: f224 3e3e 01ec babd 080a 113e 5525 73be
00000390: 28d1 4b3c faaf 07be f256 e33d ab6e 293e
000003a0: b1a9 bebc 8332 b8bd 1160 9abd e1df 753d
000003b0: 4292 46be 4d59 bbbd 7598 94bd 864d 3abb
000003c0: 1a8a 98bd 141b 3f3e 7f3e 7dbe eed1 b8bd
000003d0: 94c0 0abe 2fd9 a13c 2719 9a3d bad9 bbbd
000003e0: b504 493e 0d42 4d3e b3cf a7bc 2052 16be
000003f0: 1c71 7b3d 8312 153e 23af 3fbe 7171 cb3d
0.15148486 0.0022397123 0.0870412 0.15263343 0.045754835 -0.0027428356 0.044618025 0.05704976
0.27058896 -0.057589203 0.0013558987 0.033526126 0.11308313 0.10449381 0.1900893 0.13226368
0.23063731 0.21270955 -0.05589465 0.13651024 0.001896536 0.2509212 0.054128576 0.16248284
0.09931142 -0.10613873 -0.031640083 -0.039874464 0.07131939 -0.020779109 0.13241675 0.1326533
0.00908779 0.13545606 0.013049754 0.06810503 0.047814436 -0.03353347 0.11831152 0.027698612
0.034470033 0.2634715 -0.04608767 0.14306594 -0.112957284 0.22840422 0.18582557 -0.04949601
0.1387527 -0.026454164 0.09882794 0.044907194 0.07305494 0.02023266 0.09006862 0.1557484
0.07188208 0.11475672 0.100469574 0.04933606 0.2024052 0.10859057 0.00795369 0.06918574
0.09478034 -0.0015863588 0.058260925 0.044418164 0.09637145 0.053721808 0.077296324 0.18212347
0.09551976 0.22334722 0.05577235 0.030889783 -0.045579422 0.0058338284 0.054396328 -0.14364308
0.16580057 -0.029836496 0.16386893 -0.01983313 0.06954685 0.01608214 0.11983022 0.02357914
0.12970136 0.020292373 -0.1544457 0.038384978 -0.12481757 0.16789433 0.10284368 0.0335698
0.12997985 0.06420145 0.05719607 0.099528156 0.03085218 -0.022836583 0.15405306 0.091906115
-0.07261568 0.001117094 0.13505387 -0.015738256 0.04342468 0.053219825 -0.052269183 0.057460736
-0.012915465 -0.019305749 0.0902329 0.20280702 -0.0034940038 0.060146928 -0.038348127 0.351676
-0.09104451 0.053330675 0.13877594 -0.11579025 0.094047986 0.0015294263 0.02986246 0.07800622
0.117214285 0.10673185 -0.07393063 0.083445095 0.013249075 -0.017253367 -0.19808678 0.007904832
-0.0100064 -0.05725243 -0.011582966 0.03835134 0.13071397 -0.022042105 -0.19187269 0.08621632
0.10941344 -0.1656144 0.020155564 -0.05261323 -0.092836276 0.050529394 0.078242004 0.03410337
-0.0033797752 0.044571538 0.07935905 0.06700075 0.22401154 0.057751127 0.13437985 0.11024168
-0.047322 0.069323495 -0.050225325 -0.028256783 -0.05018835 0.10838749 -0.03896934 0.018574521
0.13412379 0.15885966 0.05504996 0.16925149 -0.03995043 -0.05779796 0.0726084 0.06591176
0.101405375 -0.041144997 -0.021848848 0.051896125 0.15782388 0.08963179 -0.070184305 0.014256011
0.057292897 -0.008065034 0.021656167 0.19387186 -0.08224913 0.056540567 0.044466235 -0.054269545
0.23740944 -0.025722401 0.1071757 0.12223597 0.22214092 0.2135761 0.12416882 0.10688659
0.20033734 0.16733976 -0.08069637 -0.15803394 0.11662009 0.05810426 0.09903925 0.061645098
-0.111341305 -0.10514373 -0.115043126 -0.15990748 0.10529819 0.19329236 -0.15112063 0.068681896
-0.057505466 -0.055015475 0.10190771 -0.21410285 0.18447748 0.06989621 0.19779411 -0.20277847
0.18568781 -0.091270454 0.14163983 -0.2374471 0.012440003 -0.13250723 0.11100568 0.16546123
-0.023274275 -0.08994009 -0.075378545 0.06002796 -0.1939173 -0.09147892 -0.07255641 -0.0028427555
-0.07448216 0.18662673 -0.24730872 -0.09024416 -0.13550025 0.019756882 0.07524329 -0.091723874
0.19630702 0.20044728 -0.02048478 -0.14679766 0.061387166 0.14557843 -0.18719153 0.099337466
