models/lstm_trial_4.pth (torch, 167678 bytes, 9 tensors)

lstm.weight_ih_l0 f4 [204, 44]
0	0x3d179ce0	0.037014842
1	0x3e08470d	0.13308354
2	0x3d9f4473	0.077767275
3	0xbdf5a1b5	-0.11993734
4	0xbc44a93d	-0.01200324
5	0x3e0787e1	0.13235427
6	0x3cf0617b	0.029343357
7	0x3e14e2ba	0.14539614
8	0xbe2a7b00	-0.16648483
9	0x3e1faf7c	0.15594286
10	0x3d9717bf	0.07377576
11	0x3d70094c	0.058602616
12	0x3df33c23	0.118767045
13	0xbb083328	-0.0020782445
14	0xbcda8860	-0.026676357
15	0x3d1a5996	0.037683092
16	0x3d9c0a8b	0.076191984
17	0xbcf07156	-0.029350918
18	0xbda54cce	-0.0807129
19	0x3e0bdae2	0.13657716
20	0xbcd1e77c	-0.025623076
21	0xbc3db857	-0.011579595
22	0xbd1bac8e	-0.038006358
23	0x3d2fd9b1	0.042932216
24	0xbddca451	-0.10773528
25	0x3e24743f	0.1605997
26	0x3dabbb83	0.083853744
27	0xbe0b2abc	-0.1359052
28	0xbc47cc1f	-0.012194662
29	0xbd58f3c1	-0.052966837
30	0xbd8984f6	-0.067148134
31	0x3db24b96	0.08705823
32	0x3db70820	0.089370966
33	0x3c1ad721	0.009450705
34	0xbdef9225	-0.11697797
35	0x3e00ffd6	0.12597594
36	0xbca84a60	-0.020543277
37	0xbdce87bb	-0.10084482
38	0x3e07f570	0.1327722
39	0xbd5a7791	-0.053336684
40	0x3db5acf8	0.08870882
41	0xbdf4e712	-0.11958136
42	0x3e34bf61	0.1765113
43	0x3dc44edb	0.09585353
44	0x3dd5fecf	0.104489915
45	0x3d98a678	0.074536264
46	0x3d935070	0.071930766
47	0x3dc4fe30	0.09618795
48	0xbe0887be	-0.13333032
49	0xbcf4e2c6	-0.02989329
50	0xbe08c2e7	-0.133556
51	0xbc9f3958	-0.019436523
52	0x3da4c104	0.08044627
53	0x3e30482d	0.17215033
54	0x3cf94b7b	0.0304315
55	0xbd5efda9	-0.054441128
56	0xbc93fb92	-0.018064294
57	0xbdc88659	-0.0979125
58	0xbe0b5c0d	-0.13609333
59	0x3c98361b	0.018580487
60	0xbce1e829	-0.027576523
61	0xbdc9e845	-0.09858755
62	0x3cad5310	0.021157771
63	0x3dc1eb13	0.09468665
64	0xbdf6ee47	-0.120571665
65	0x3cb2dbe9	0.021833377
66	0xbdda3e94	-0.10656467
67	0xbd86d4de	-0.0658357
68	0xbd60e944	-0.05490996
69	0x3e010f92	0.12603596
70	0x3d70dfbc	0.05880712
71	0xbd84c4c1	-0.0648284
72	0x3d072754	0.03299649
73	0xbcaf0b48	-0.021367684
74	0xbc8792ad	-0.016549433
75	0xbd63d464	-0.055622473
76	0x3c656543	0.014001193
77	0x3ddfb089	0.10922343
78	0x3c9aec57	0.018911524
79	0xbdc27371	-0.09494675
80	0x3d53acba	0.051678397
81	0x3d47e681	0.04880381
82	0x3dcd8659	0.100353904
83	0xbcbefbcf	-0.023313431
84	0xbd50d90d	-0.050988246
85	0x3d403ddc	0.046933994
86	0x3d997f0a	0.07494934
87	0x3dfd655e	0.1237285
88	0xbb6d816a	-0.0036240467
89	0xbe20bb53	-0.15696459
90	0x3d6cb385	0.05778839
91	0xbd9a1839	-0.07524151
92	0x3deb98a6	0.11503725
93	0x3d083fb7	0.03326389
94	0x3cf6fb42	0.030149106
95	0x3d9fd7ac	0.07804808
96	0xbd67858b	-0.05652384
97	0xbc8f2d35	-0.017477611
98	0xbdbd4a50	-0.092426896
99	0x3baa8395	0.005203674
100	0x3d31aa6d	0.04337542
101	0x3d401ce6	0.04690256
102	0xbd8d5f37	-0.069029264
103	0xbe11729e	-0.14203879
104	0x3dcbe145	0.09955076
105	0x3d188d0e	0.037243895
106	0xbd9d80fa	-0.07690616
107	0xbd33fdb5	-0.043943126
108	0xbd9365a3	-0.0719712
109	0x3dcce42d	0.100044586
110	0x3d974fe8	0.07388288
111	0x3e4b2f59	0.1984228
112	0xbd802f27	-0.062589936
113	0x3d829de0	0.063777685
114	0x3e0319a4	0.1280275
115	0xbd4f2af5	-0.050578076
116	0x3e03c825	0.12869318
117	0xbd9c3f81	-0.076293
118	0x3aab6d8a	0.001307891
119	0xbde2925f	-0.11063074
120	0x3be5a67c	0.007008372
121	0xbd8db1e4	-0.069186956
122	0x3df73646	0.12070899
123	0x3deebde8	0.116573155
124	0xbd9f1700	-0.07768059
125	0x3df68af5	0.12038223
126	0x3d0178eb	0.031609457
127	0xbdf3beb6	-0.119016096
128	0x3dcab5bc	0.09897944
129	0x3b8f35ab	0.0043704114
130	0x3d58f90e	0.052971892
131	0xbe2bc1d6	-0.16773161
132	0xbd2b4f8a	-0.0418239
133	0x3d13f9b5	0.03612681
134	0xbe008e56	-0.12554297
135	0xbbc4f179	-0.006010231
136	0xbdc2b25a	-0.09506674
137	0xbd15f9ae	-0.036615066
138	0xba6aeeea	-0.00089619926
139	0x3da0b684	0.07847312
140	0xbe099177	-0.13434397
141	0xbdaa0699	-0.0830204
142	0xbe0382b0	-0.12842822
143	0x3e2298d9	0.15878619
144	0x3c4a2c69	0.01233969
145	0xbda56418	-0.08075732
146	0x3d841834	0.06449929
147	0xbdeebafb	-0.116567574
148	0xbd08dad5	-0.03341182
149	0xbc8a68a0	-0.016895592
150	0xbd91b3a4	-0.07114342
151	0x3d72da71	0.059290353
152	0xbd6e9592	-0.05824811
153	0xbc66bcf0	-0.014083132
154	0x3e2bda7a	0.16782561
155	0xbe209d8f	-0.15685104
156	0xbd507f85	-0.050902862
157	0x3df46882	0.11933996
158	0x3d865ac4	0.06560281
159	0x3d80f55b	0.06296798
160	0x3e0e5b6a	0.13902059
161	0x3da709ca	0.08156164
162	0x3cd00ac2	0.025395755
163	0x3db3d60b	0.0878106
164	0xbd7d8dea	-0.061902918
165	0x3dba00d4	0.09082189
166	0x3dbf741f	0.0934832
167	0x3d685023	0.05671705
168	0x3df26770	0.118361354
169	0xba8d7f00	-0.0010795295
170	0x3d9ff40e	0.078102216
171	0xbdd31d14	-0.103082806
172	0xbdb6fbe4	-0.08934763
173	0xbdea6403	-0.11444857
174	0xbd99d1c3	-0.07510712
175	0xbd26d020	-0.040725827
176	0xbe136d93	-0.14397268
177	0x3b301ddb	0.0026873264
178	0xbd88cc86	-0.06679635
179	0xbe0e786a	-0.13913122
180	0x3d5935d0	0.053029835
181	0xbd8de290	-0.06927979
182	0xbdaec6cb	-0.085340105
183	0x3dd22a55	0.102619804
184	0xbc938db0	-0.018011898
185	0xbc0878a5	-0.008329545
186	0x3d95d63f	0.07316255
187	0xbdd07646	-0.10178809
188	0xbd913ed6	-0.07092063
189	0x3d313dae	0.043271713
190	0xbd5a9fbf	-0.053375002
191	0xbceb7e80	-0.028746843
192	0x3e12a8ad	0.14322157
193	0xbdadb819	-0.084823795
194	0xbdde25ad	-0.1084703
195	0x3e1e013f	0.15430163
196	0xba845e41	-0.0010098891
197	0xbdaa7b84	-0.0832434
198	0x3d907e0c	0.070552915
199	0xbd828616	-0.06373231
200	0xbcd33402	-0.025781635
201	0x3dc4530c	0.095861524
202	0x3d67e05d	0.056610454
203	0xbdd23bc8	-0.102653086
204	0xbcda3ed9	-0.026641296
205	0x3e0f0fdf	0.13970898
206	0xbd5d39a5	-0.054010052
207	0x3d16d021	0.03681958
208	0xbd616c0b	-0.05503468
209	0xbd4948d9	-0.04914174
210	0xbd809918	-0.062792
211	0xbd79187a	-0.06081436
212	0xbe01d339	-0.12678231
213	0xbdd356fd	-0.10319326
214	0x3d1b36e5	0.03789415
215	0xbdd3f428	-0.103493035
216	0xbe0f9ef1	-0.14025475
217	0x3bf997c3	0.0076169684
218	0xbc4b9095	-0.012424608
219	0xbdb21c44	-0.086967975
220	0x3d975bf6	0.07390587
221	0xbc010d93	-0.0078767715
222	0xbbbd3e89	-0.005775277
223	0xbdb46e6d	-0.088101245
224	0xbdba9a9d	-0.091115214
225	0x3c1da51d	0.009621886
226	0x3cf9a61f	0.03047472
227	0xbcf6bb4f	-0.030118613
228	0xbd609833	-0.05483265
229	0xbc563c9e	-0.013075976
230	0xbb0ed45c	-0.0021794057
231	0xbe0d369e	-0.13790366
232	0xbbd3aeb3	-0.0064600348
233	0x3dc09b70	0.09404647
234	0x3d41357e	0.047170155
235	0x3d92a399	0.0716011
236	0x3e26f6ea	0.16305128
237	0x3cae932d	0.021310413
238	0xbdefab92	-0.11702646
239	0xbd91cb71	-0.071188815
240	0xbc4f22ca	-0.012642572
241	0xbc4f8e04	-0.0126681365
242	0xbdd37752	-0.10325493
243	0xbe002c51	-0.12516905
244	0xbd5d968b	-0.054098647
245	0xbe23c433	-0.15992813
246	0x3d20ae14	0.039228514
247	0xbddfaac7	-0.10921245
248	0x3d37c309	0.044863734
249	0x3e2a0982	0.1660519
250	0x3e12cd90	0.14336228
251	0x3daa6e32	0.08321799
252	0xbc88212d	-0.016617382
253	0x3d96f58e	0.073710546
254	0x3d793515	0.06084164
255	0x3bd28785	0.0064248466

lstm.weight_hh_l0 f4 [204, 51]
0	0x3b1baabb	0.0023752886
1	0x3dca1eb8	0.098691404
2	0x3cd29dfe	0.025710102
3	0xbe313f5f	-0.1730933
4	0x3dc950df	0.09829878
5	0xbc21cb15	-0.009875079
6	0x3db73a21	0.08946634
7	0x3e57e586	0.2108365
8	0xbd02f2db	-0.031969886
9	0x3da2e9cf	0.07954752
10	0xbc7ea594	-0.015542407
11	0xbca1886c	-0.019718371
12	0x3ad1e7af	0.0016014482
13	0x3dff3dcb	0.12462958
14	0x3dad4fca	0.08462484
15	0x3d8838d9	0.06651468
16	0x3db459a2	0.088061586
17	0xbd6f5d7f	-0.058438774
18	0x3d17395e	0.036919944
19	0xbcf7a9fb	-0.03023242
20	0x3da9669f	0.082715265
21	0x3e308529	0.17238297
22	0x3d86e418	0.06586474
23	0xbe1466a1	-0.14492275
24	0x3df7b4b8	0.12095016
25	0xbcd70d09	-0.026251333
26	0xbd4ae0ab	-0.049530666
27	0x3d90e832	0.07075538
28	0xbd86b816	-0.0657808
29	0x3dc06aff	0.09395408
30	0xbd47f701	-0.048819546
31	0x3d4e3b92	0.05034978
32	0xbd4f5ae6	-0.050623797
33	0x3d5598ff	0.05214786
34	0x3d9b4ca0	0.075829744
35	0x3d38fe01	0.045164112
36	0x3d258516	0.040410124
37	0x3d9bcd89	0.07607562
38	0x3d9bde23	0.076107286
39	0x3afe16aa	0.0019385417
40	0xbd6ccb0f	-0.05781084
41	0x3e268e4b	0.16265218
42	0x3e15f1e8	0.14643061
43	0xbcaf378c	-0.021388792
44	0x3dc1695e	0.09443925
45	0xbdf46bd1	-0.11934627
46	0x3c2e0003	0.01062012
47	0x3e29db14	0.16587478
48	0xbb48599d	-0.0030570992
49	0xbd362bbd	-0.044475306
50	0xbd508909	-0.050911937
51	0x39d378b5	0.0004033499
52	0x3e0e4bc6	0.13896093
53	0x3cf444cb	0.02981796
54	0x3e08aa1a	0.13346139
55	0xb972bc13	-0.00023148982
56	0x3d424d1b	0.047436815
57	0xbe0b6790	-0.13613725
58	0x3db91cab	0.09038671
59	0xbd5c2ee7	-0.053755667
60	0xbd270c0e	-0.04078298
61	0x3e187c52	0.14891174
62	0xbdcb7dab	-0.09936079
63	0xbd8f3164	-0.069918424
64	0xbcabeee0	-0.020987928
65	0xbe158e0a	-0.14604965
66	0x3b408c24	0.0029380405
67	0x3de4b05b	0.1116645
68	0xbdb96fff	-0.09054565
69	0x3dbfb56e	0.09360777
70	0xbdb7c289	-0.089726515
71	0xbda79eac	-0.08184561
72	0x3cdff382	0.027337793
73	0xbda17962	-0.0788448
74	0x3d67045a	0.056400634
75	0xbb7cbb1d	-0.0038563677
76	0xbdbc703a	-0.09201093
77	0xbe0f4304	-0.13990408
78	0xbe029eee	-0.1275594
79	0xbd71bc32	-0.059017368
80	0xbd8f8b5c	-0.070090026
81	0xbc82209f	-0.015884696
82	0x3e028f63	0.1275001
83	0x3dddf801	0.108383186
84	0x3dab044e	0.083504304
85	0xbd933a7d	-0.0718889
86	0x3dca77c9	0.098861285
87	0x3e260558	0.16212976
88	0xbc84b33e	-0.01619875
89	0xbb8987a6	-0.0041970788
90	0xbd0b2743	-0.03397299
91	0x3ccad497	0.024759574
92	0x3db0f3e5	0.08640269
93	0xbd465b54	-0.04842694
94	0x3dfb529b	0.12271615
95	0xbcad6f4c	-0.021171235
96	0xbe1eafbe	-0.15496728
97	0x3d5ab318	0.053393453
98	0xbd850e91	-0.06496919
99	0x3cee6a23	0.029103344
100	0x3d0da193	0.034577917
101	0x3df4540f	0.119300954
102	0xbe194b5a	-0.1497015
103	0xbabe3932	-0.0014512895
104	0x3e3dc74e	0.1853306
105	0xbdafdad2	-0.085866585
106	0xbc95bae6	-0.018277597
107	0x3d8488b8	0.064713895
108	0x3df47fac	0.11938414
109	0x3bdfee89	0.0068338555
110	0xbd6b047e	-0.05737733
111	0xbc355669	-0.011067965
112	0xbe2963e7	-0.16542016
113	0xbcb137ec	-0.021633111
114	0xbe3072c4	-0.1723128
115	0x3e1539a4	0.1457277
116	0x3d59ebe4	0.05320348
117	0xbd9e69f8	-0.07735056
118	0x3d8bd60b	0.06827935
119	0xbca42834	-0.020038702
120	0xbced22b5	-0.028947214
121	0xbd9d0a2a	-0.07667954
122	0x3ddcb890	0.1077739
123	0xbd8250fa	-0.06363101
124	0x3ded5f81	0.115904815
125	0xbe19a207	-0.15003215
126	0x3df20426	0.118171975
127	0x3da11a3a	0.078663304
128	0x3cf66c21	0.030080857
129	0xbd03722b	-0.0320913
130	0x3d764efd	0.060133923
131	0x3a5ec383	0.00084977614
132	0x3da387cb	0.07984885
133	0xbb4e6b8f	-0.0031497215
134	0xbd5e7b27	-0.054316666
135	0xbc2522e8	-0.010079123
136	0x3cb70e2c	0.022345625
137	0xbda2df52	-0.07952751
138	0x3d1d032f	0.038333114
139	0x3d14a705	0.036292095
140	0xbdc64f42	-0.09683086
141	0x3d55e2fb	0.05221842
142	0x3e21d332	0.15803221
143	0x3e204c79	0.15654172
144	0x3e14be7c	0.14525789
145	0x3dace43b	0.08441969
146	0x3dafd31b	0.08585187
147	0xbd88fe9a	-0.066891864
148	0x3d93f765	0.07224921
149	0x3e1a7afe	0.1508598
150	0xbd873500	-0.06601906
151	0x3d985550	0.07438147
152	0x3d04d9aa	0.032434143
153	0xbd7aa325	-0.061190743
154	0xbce75a34	-0.028241254
155	0x3e04be4c	0.12963217
156	0xbde0b1ed	-0.10971437
157	0x3b884c9a	0.0041595222
158	0x3e0a84b9	0.13527192
159	0xbd1e5c0d	-0.038662005
160	0xbdbbb595	-0.091654934
161	0x3df50a2d	0.119648315
162	0x3df9efa1	0.12203909
163	0xbd1f32cd	-0.038866807
164	0x3d7f141c	0.062275037
165	0x3d8b8a18	0.06813449
166	0xba06aecd	-0.00051377417
167	0xbd8cfb69	-0.0688389
168	0xbb8a918f	-0.0042287777
169	0x3d4f70ad	0.050644565
170	0x3d0b4421	0.03400052
171	0xbde3eb16	-0.111288235
172	0xbbda44f1	-0.0066610505
173	0x3e484e54	0.1956113
174	0x3d5cdc8f	0.05392128
175	0x3d959aaf	0.07304894
176	0xbe3a1070	-0.18170333
177	0x3d0615a2	0.032735474
178	0xbda61305	-0.081090964
179	0x3ded8b32	0.11598815
180	0x3d1b6fc4	0.037948385
181	0xbd26a546	-0.04068496
182	0xbcff4ac9	-0.03116359
183	0x3e30f650	0.17281461
184	0x3bdd5a8c	0.006755179
185	0x3daf354f	0.0855509
186	0x3d54989e	0.05190336
187	0xbe09839e	-0.13429114
188	0x3da659c0	0.08122587
189	0xbca1fc1c	-0.019773535
190	0x3d0da680	0.034582615
191	0x3d4a9b21	0.04946435
192	0xbdd735e8	-0.10508329
193	0xbcc1c218	-0.023652121
194	0xbd082a6f	-0.033243593
195	0xbcca22b9	-0.02467476
196	0xbda28de4	-0.0793722
197	0x3d57acdf	0.052655097
198	0xbd673aad	-0.056452442
199	0xbd6e732c	-0.058215305
200	0x3ce779d7	0.02825634
201	0x3db11610	0.08646786
202	0xbbc309d6	-0.0059521003
203	0x3da39108	0.07986647
204	0xbcee865f	-0.029116808
205	0x3d34ce5c	0.044142112
206	0xbc925b6f	-0.017865865
207	0xbc2eeee2	-0.010677071
208	0xbd171e09	-0.036893878
209	0x3d87ab21	0.06624437
210	0xbdc868ad	-0.0978559
211	0x3c5924f6	0.013253441
212	0x3b9da660	0.004811093
213	0x3d285af7	0.041102376
214	0xbe3e6753	-0.18594103
215	0xbd2ffc12	-0.042965002
216	0xbc4cd455	-0.012501796
217	0xbda48f14	-0.080351025
218	0xbe05aecb	-0.1305496
219	0x3da1cc4a	0.07900293
220	0x3c3df3ba	0.0115937535
221	0xbdbd44c3	-0.09241631
222	0xbd561178	-0.052262753
223	0xbe1dcdd9	-0.15410556
224	0x3daf7d25	0.08568791
225	0x3e079e3a	0.13243952
226	0x3e5292b6	0.20563778
227	0x3cb3a4f7	0.021929247
228	0xbd27f199	-0.04100189
229	0xbc0a8026	-0.0084534045
230	0x3e1196ca	0.14217678
231	0x3db85898	0.09001273
232	0x38cbfdc9	9.7270655e-05
233	0xbc382ec0	-0.011241615
234	0xbdc8a3a9	-0.09796841
235	0x3d8cff30	0.06884611
236	0x3e416015	0.18884309
237	0x3cc08f2c	0.02350577
238	0xbe0c985e	-0.13729998
239	0xbdbbeb6d	-0.09175763
240	0x3cd9c84b	0.026584765
241	0xbcd0dae6	-0.025495004
242	0xbdccfbdb	-0.10008975
243	0xbe4b8d6f	-0.19878171
244	0x3e158d24	0.14604622
245	0x3dabeffe	0.08395384
246	0xbd9e0889	-0.07716472
247	0x3cd2a2f3	0.025712466
248	0x3c9d4973	0.019200062
249	0xbd1344b3	-0.03595419
250	0xbe38f625	-0.18062647
251	0x3d12649a	0.035740472
252	0xbba6635a	-0.0050777616
253	0xbc54e332	-0.012993621
254	0x3d8a580c	0.06755075
255	0x3c7cb361	0.015423627

lstm.bias_ih_l0 f4 [204]
0	0x3d884d38	0.06655353
1	0xbbadee57	-0.0053079533
2	0x3de0ff60	0.10986209
3	0xbd80e0ab	-0.06292852
4	0xbdd74e26	-0.105129525
5	0xbd06cef4	-0.03291221
6	0xbd03af23	-0.032149445
7	0x3e3a189a	0.18173447
8	0xbc7b43fb	-0.015336032
9	0xbb6836b4	-0.0035432996
10	0x3be1d29c	0.0068915617
11	0xbb31024e	-0.002700943
12	0x3bf316bc	0.0074184816
13	0x3db32dbd	0.08748958
14	0x3b1854d9	0.0023243933
15	0x3dc47512	0.09592642
16	0x3dba85f1	0.091075785
17	0xbd093666	-0.033499144
18	0x3bc7bd99	0.0060956
19	0xbd33eb15	-0.043925364
20	0xbd63cf8d	-0.055617858
21	0x3e5031b5	0.20331462
22	0x3da11c36	0.07866709
23	0xbd2c3be1	-0.042049292
24	0x3dd1fc5d	0.102532126
25	0x3ca4d932	0.020123098
26	0xbd747992	-0.05968625
27	0xbd8f1f35	-0.06988374
28	0x3be41f5d	0.0069617466
29	0xbd4d6f19	-0.05015478
30	0xbceba059	-0.028762983
31	0xbd2bc8c5	-0.041939516
32	0x3e16735e	0.14692447
33	0xbcf31291	-0.02967194
34	0xbd0bed38	-0.034161776
35	0x3dd6ecc1	0.10494376
36	0x3d785359	0.06062636
37	0x3d9088ae	0.070573196
38	0x3df51390	0.11966622
39	0x3d8a65a6	0.06757669
40	0xbd90f87d	-0.070786454
41	0x3e3f4325	0.18677957
42	0x3d986071	0.0744027
43	0xbdbaf7ac	-0.09129271
44	0xbd6fa59e	-0.058507554
45	0x3e134c78	0.1438464
46	0xbd78b415	-0.060718615
47	0x3de63746	0.11241011
48	0x3d74bea4	0.05975212
49	0x3c425bfd	0.011862752
50	0xbdf9b5dc	-0.1219289
51	0xbd2cda96	-0.042200647
52	0xbd3fc171	-0.04681534
53	0x3dce7688	0.10081202
54	0xbd588bd1	-0.052867714
55	0xbd6e7b94	-0.058223322
56	0x3d28a1bd	0.04116987
57	0x3e2a651a	0.1664013
58	0x3d0d1ca0	0.034451127
59	0x3c96be82	0.018401388
60	0x3d4b5adf	0.04964721
61	0x3da00bdf	0.07814764
62	0x3c680cda	0.01416322
63	0xbd2743a1	-0.04083598
64	0x3d587eff	0.052855488
65	0xbd4b7d11	-0.04967982
66	0xbd831cc3	-0.0640197
67	0x3cce572c	0.025188051
68	0x3db9612e	0.09051739
69	0xbdd03d7a	-0.10167976
70	0x3ce71301	0.028207304
71	0x3d8187a9	0.06324703
72	0x3d26ddfd	0.04073905
73	0x3e09ea3b	0.13468258
74	0x3e47812a	0.19482866
75	0xbdc30a63	-0.095234655
76	0x3cd0d967	0.02549429
77	0xbd99308a	-0.07479961
78	0x3dcc0aa7	0.09962969
79	0x3e36af49	0.17840303
80	0x3e003c02	0.12522891
81	0xb86dcfbf	-5.6698682e-05
82	0x3c3da7f7	0.0115756905
83	0x3d456abe	0.0481975
84	0x3da67fe3	0.08129861
85	0x3e11d156	0.14240012
86	0xbd49db5a	-0.049281456
87	0x3e10d63b	0.14144222
88	0xbd1b9b82	-0.0379901
89	0x3dfb8c2b	0.12282594
90	0xbdb3981b	-0.08769246
91	0x3de7b579	0.1131391
92	0x3d4be4a8	0.04977861
93	0xbdb01356	-0.08597438
94	0xbbf3f6a3	-0.007445173
95	0xbd414e16	-0.04719361
96	0x3e106fd5	0.1410516
97	0x3dfb45fd	0.122692086
98	0xbdae4fcd	-0.085113145
99	0x3df2ed69	0.11861689
100	0x3d5e7c70	0.05431789
101	0x3df20a77	0.11818402
102	0xbda57e59	-0.080807395
103	0xbcf182ec	-0.029481374
104	0x3e471191	0.19440295
105	0x3d0eeac3	0.034891855
106	0x3e3e70c6	0.18597707
107	0x3d8a9ead	0.06768546
108	0x3d513104	0.051072136
109	0x3d5c9275	0.05385061
110	0xbc5ac83e	-0.0133534055
111	0xbe13c2c9	-0.14429773
112	0xbe5608b3	-0.20901756
113	0x3e1d08aa	0.15335336
114	0xbe258e16	-0.16167483
115	0x3dd99f1e	0.10626052
116	0x3e5ebdb3	0.21752052
117	0xbe5c2552	-0.21498612
118	0x3d339fad	0.04385345
119	0xbe3e57b1	-0.18588139
120	0x3cbb0748	0.02283062
121	0xbe3f2205	-0.18665321
122	0x3e203aa0	0.15647364
123	0x3e576e22	0.21038106
124	0x3dde6f88	0.10861117
125	0xbe37f275	-0.17963584
126	0xbc767a6e	-0.015043838
127	0xbc917830	-0.017757505
128	0x3d5b2cd8	0.053509563
129	0x3e5ca912	0.2154887
130	0x3dc3f6c5	0.09568552
131	0x3a55b5dd	0.0008152405
132	0xbd0741a4	-0.033021584
133	0x3e215b18	0.15757406
134	0x3dac0eec	0.084012836
135	0x3c7a748d	0.015286577
136	0xbe059197	-0.1304382
137	0xbe6a632b	-0.22889392
138	0xbe0ac6b9	-0.13552369
139	0xbd30d79d	-0.043174375
140	0x3d999940	0.07499933
141	0xbd88e953	-0.06685128
142	0x3e4c6f40	0.19964314
143	0x3e62ec4f	0.22160457
144	0x3e179cb4	0.14805871
145	0x3ab7bf72	0.0014018847
146	0x3e24dd39	0.16100015
147	0x3e4fd764	0.20297009
148	0xbd4c0d77	-0.04981753
149	0xbba7ce35	-0.0051210173
150	0xbe19e8e3	-0.15030245
151	0xbe4221c1	-0.18958189
152	0x3d6da4d6	0.058018528
153	0x3e0cd410	0.1375277
154	0xbc8439c0	-0.016140819
155	0x3d5259d4	0.051355198
156	0x3e3af960	0.18259192
157	0x3e04fbd9	0.12986697
158	0x3e21e24f	0.15808986
159	0x3dd3c4fc	0.10340306
160	0x3d55c9bf	0.052194353
161	0xbdb54fdf	-0.08853125
162	0x3de7f434	0.11325875
163	0xbc39409f	-0.011306911
164	0x3c3c26c2	0.01148385
165	0x3d252c85	0.04032566
166	0xbda00f91	-0.07815469
167	0x3e368cb8	0.17827117
168	0x3e09d00f	0.13458274
169	0x3dc45daf	0.09588181
170	0xbc344192	-0.011001961
171	0x3d0db296	0.03459414
172	0x3e58c323	0.21168189
173	0x3dafab1c	0.085775584
174	0xbcfabe24	-0.030608244
175	0x3e0cb37f	0.13740347
176	0x3bb9ab55	0.0056661763
177	0x3cbe23af	0.023210375
178	0x3daeaf06	0.08529477
179	0x3db83df1	0.089961894
180	0xbb4214be	-0.0029614414
181	0x3e41d183	0.18927579
182	0xbd031f06	-0.032012008
183	0x3dab6648	0.08369118
184	0xbc318755	-0.010835488
185	0x3c718c52	0.014742928
186	0x3df3c37c	0.1190252
187	0x3c4cc82b	0.012498896
188	0x3df336ca	0.118756846
189	0x3d6fe07b	0.05856369
190	0x3d8226b8	0.06355041
191	0x3d92d973	0.071703814
192	0xbd57b833	-0.0526659
193	0xbc90cb91	-0.017675193
194	0x3dfb29de	0.12263845
195	0x3d504b4e	0.050853066
196	0x3cac9a6b	0.021069726
197	0xbcde0449	-0.027101653
198	0x3d7367fe	0.059425347
199	0x3e539f24	0.20666176
200	0x3e3a97d9	0.18221988
201	0xbc649e76	-0.013953796
202	0xbd4be7fd	-0.04978179
203	0xbc37521d	-0.011189011

lstm.bias_hh_l0 f4 [204]
0	0xbcfb6f27	-0.03069265
1	0x3cb20476	0.021730643
2	0x3de93c9e	0.11388515
3	0xbd9bab79	-0.07601065
4	0xbda37927	-0.07982092
5	0xbc8d79dc	-0.017270021
6	0xbc83a428	-0.016069487
7	0x3d87b2a2	0.066258684
8	0x3d7ac322	0.06122125
9	0xbdad1103	-0.0845051
10	0x3e2aa9ed	0.16666384
11	0xbd644c10	-0.0557366
12	0x3d008d17	0.031384554
13	0x3d65ff56	0.05615171
14	0xbd14894c	-0.03626375
15	0x3dbd569a	0.092450336
16	0x3d9b0bc2	0.07570602
17	0xbdc1e6c7	-0.094678454
18	0xbc09a218	-0.008400463
19	0xbc3e470e	-0.01161362
20	0xbd205727	-0.039145615
21	0x3c774aee	0.015093548
22	0x3d0f7337	0.035021987
23	0x3ccdbfc9	0.025115864
24	0xbd60cdbb	-0.0548837
25	0x3de14fbd	0.11001537
26	0xbccb689a	-0.024830151
27	0x3d903f11	0.07043279
28	0x3dea5a3f	0.11442994
29	0x3e25eef7	0.16204439
30	0x3e01fbec	0.12693757
31	0xbd864329	-0.065557785
32	0xbcc6c384	-0.024263151
33	0x3de1783a	0.110092595
34	0xbce303c0	-0.02771175
35	0x3c1803e6	0.009278273
36	0x3d3e16b3	0.046408366
37	0xbd1b8a29	-0.037973557
38	0xbd04bcfa	-0.032406785
39	0xbe094381	-0.13404657
40	0x3e4ec06b	0.20190589
41	0x3e4b523c	0.19855589
42	0x3d78d8fb	0.060753804
43	0x3e1089e7	0.14115106
44	0x3d63ab62	0.055583365
45	0x3cb31382	0.021859888
46	0xbc8352f4	-0.016030766
47	0x3dd8de2c	0.10589251
48	0x3d513508	0.051075965
49	0xbd905c9f	-0.07048916
50	0x3dfed34b	0.12442645
51	0x3b5abbf3	0.0033376187
52	0xbdbe5177	-0.09292882
53	0x3d91832b	0.071050964
54	0x3e1d87d8	0.15383852
55	0x3db212eb	0.086950146
56	0xbd319b9d	-0.043361295
57	0x3d3ac9e9	0.045602713
58	0x3e17f92f	0.1484115
59	0x3dc2037e	0.09473322
60	0xbe040eaa	-0.12896219
61	0xbd2d64b4	-0.042332366
62	0x3d7a9a7f	0.061182495
63	0x3d8fb31d	0.07016585
64	0x3e1877be	0.14889428
65	0xbdc54979	-0.096331544
66	0x3e0184ed	0.12648363
67	0x3c3697b5	0.011144568
68	0x3e18f546	0.14937314
69	0xbdaa8c7a	-0.08327575
70	0x3e2245e0	0.15846968
71	0xbcb485d2	-0.022036467
72	0x3dddda84	0.10832694
73	0x3ddb6832	0.10713233
74	0x3bdb3bc6	0.006690475
75	0xbe111c0c	-0.14170855
76	0x3e24a7e6	0.16079673
77	0xbd365269	-0.044512186
78	0x3e1a3b6f	0.15061735
79	0x3d0458fc	0.032311425
80	0xbdce26e2	-0.1006601
81	0x3d3f7f4b	0.046752255
82	0xbc634a8d	-0.013872755
83	0x3c618da4	0.01376668
84	0x3d789b99	0.060695264
85	0x3d9f4ed9	0.07778711
86	0x3dadc514	0.08484855
87	0x3e101239	0.14069451
88	0x3e2e0e44	0.1699763
89	0xbdbbf561	-0.09177662
90	0xbd807077	-0.06271451
91	0x3e481037	0.19537435
92	0x3d5cba66	0.0538887
93	0xbd4615e8	-0.048360735
94	0x3ddcfe80	0.107907295
95	0x3d8e87d7	0.06959503
96	0xbd395eaf	-0.045256313
97	0x3ca9ad68	0.02071257
98	0xbd88fb39	-0.06688542
99	0x3dd667e7	0.104690365
100	0xbd649f79	-0.055816147
101	0x3d719ce7	0.058987524
102	0xbd54a112	-0.05191142
103	0x3dde8449	0.10865075
104	0x3def0350	0.11670554
105	0xbe6dc5f5	-0.23220046
106	0x3e1dd745	0.1541415
107	0x3e48cae7	0.19608651
108	0x3e5c37e8	0.21505702
109	0x3df3129e	0.11868785
110	0xbdaebcd3	-0.08532109
111	0x3cf1e6f6	0.029529076
112	0xbd920113	-0.07129111
113	0x3e254da0	0.16142893
114	0x3d391507	0.04518607
115	0x3d3f9874	0.04677625
116	0x3d938c7b	0.07204529
117	0xbcbdce53	-0.023169672
118	0x3dfcda29	0.12346298
119	0xbe285d85	-0.16441925
120	0xbcbab68b	-0.022792121
121	0xbe5fdf34	-0.21862489
122	0x3d0a798b	0.03380732
123	0x3da46418	0.08026904
124	0x3e01f3b3	0.1269062
125	0xbdc98b0a	-0.09840973
126	0x3d8bb9db	0.068225585
127	0xbcc7a753	-0.024371779
128	0x3d5906eb	0.052985113
129	0x3e3eae18	0.18621099
130	0x3dff66c0	0.1247077
131	0x3d03962f	0.032125648
132	0x3e0ec557	0.13942467
133	0x3dbee3bb	0.0932078
134	0x3e0f0934	0.13968354
135	0x3d00260c	0.031286284
136	0xbe5d7184	-0.21625334
137	0xbdb32f90	-0.08749306
138	0xbe5979bb	-0.21237843
139	0xbddbbd05	-0.10729412
140	0x3d303343	0.043017637
141	0xbd20062b	-0.039068382
142	0x3d535528	0.051594883
143	0x3e3e1cb6	0.1856564
144	0xbcffb6bf	-0.03121507
145	0x3e177187	0.14789401
146	0x3e1f34a1	0.1554742
147	0x3c48e053	0.012260514
148	0xbe265ca6	-0.1624628
149	0x3e0c6e23	0.13713889
150	0xbe2d38aa	-0.16916147
151	0xbe2beafd	-0.1678886
152	0xbd261579	-0.04054782
153	0xbd6ce406	-0.057834648
154	0x3dc7abdf	0.09749579
155	0x3d556e3a	0.052107073
156	0x3d737737	0.059439864
157	0xbd5566fa	-0.05210016
158	0x3dd7743c	0.10520217
159	0x3c78b75f	0.015180438
160	0x3e38ba8b	0.1803991
161	0x3c4e784b	0.012601922
162	0x3c607485	0.013699655
163	0xbd1d0339	-0.03833315
164	0x3e5679e8	0.20944941
165	0x3d996bb6	0.07491247
166	0x3d3c312b	0.045945328
167	0xbd26b9c7	-0.040704515
168	0x3ced3cd8	0.028959677
169	0xbdadd859	-0.08488531
170	0xbc8ac840	-0.01694119
171	0xbda8716f	-0.08224761
172	0xbc82aaca	-0.01595058
173	0x3e2103c2	0.1572409
174	0x3d895414	0.0670549
175	0x3d4c4d3a	0.049878336
176	0x3e146f71	0.14495637
177	0x3d4d02ea	0.050051607
178	0x3dbc69c7	0.09199863
179	0xbd4536c6	-0.04814794
180	0x3e10cb52	0.1414006
181	0xbd75b8b6	-0.059990607
182	0x3e1af01a	0.15130654
183	0xbd4999cb	-0.049218934
184	0x3df9c432	0.121956244
185	0x3dba5a03	0.090991996
186	0x3d9137c6	0.07090716
187	0x3e3a14b0	0.18171954
188	0x3d77cf24	0.06050028
189	0x3d6c593f	0.0577023
190	0x3e245989	0.1604978
191	0x3db4d5ff	0.08829879
192	0xbd9f649c	-0.077828616
193	0xbd55e4f7	-0.05222031
194	0x3db1257e	0.08649729
195	0x3db6f604	0.089336425
196	0xbd24a012	-0.040191717
197	0x3c21ac2d	0.00986771
198	0x3d823660	0.063580275
199	0x3e0fed2c	0.14055318
200	0xbc820bee	-0.01587483
201	0x3e1b9f4d	0.15197487
202	0x3dd676fe	0.10471915
203	0x3e27025f	0.16309498

lstm.weight_ih_l1 f4 [204, 51]
0	0x3d0fc506	0.035100006
1	0x3dbeabac	0.093100876
2	0x3cd741f7	0.026276572
3	0x3db3455a	0.08753462
4	0xbc97b969	-0.018521028
5	0xbde3fa18	-0.11131686
6	0x3e000c87	0.12504779
7	0x3d0db958	0.034600586
8	0x3dee1210	0.11624539
9	0x3d86e4b6	0.06586592
10	0xbe0a5d23	-0.13512091
11	0xbb29e57d	-0.002592414
12	0xbdd93e44	-0.10607579
13	0xbce757ef	-0.028240172
14	0x3d3363ee	0.043796472
15	0xbdbe5c85	-0.092949905
16	0x3d7b78cc	0.061394498
17	0xbcc8d4de	-0.024515565
18	0xbe020592	-0.12697437
19	0xbe0b108e	-0.13580534
20	0x3d978cf1	0.07399929
21	0xbd1c2df6	-0.03812977
22	0x3d80aff5	0.06283561
23	0x3a8c53f7	0.0010706176
24	0x3df8e5d8	0.12153214
25	0x3c860e10	0.016364127
26	0xbd9bbf1c	-0.076048106
27	0xbd8ec690	-0.069714665
28	0x3b42f73a	0.002974941
29	0x3d8fc29e	0.07019542
30	0x3cdb1f02	0.026748184
31	0x3d74b77a	0.05974529
32	0xbdbcdb32	-0.09221496
33	0xbdbd4553	-0.09241738
34	0xbd5c7ae5	-0.05382814
35	0x3c86591f	0.016399918
36	0x3dad1720	0.08451676
37	0xbe29b430	-0.16572642
38	0x3d2f8e6f	0.042860445
39	0xbd7269b4	-0.059182838
40	0xbd8f2e95	-0.06991307
41	0xbd042d89	-0.03226999
42	0x3d160c98	0.036633104
43	0xbd60ae6f	-0.054853853
44	0x3dc500a4	0.09619263
45	0x3e116ede	0.14202449
46	0xbde0bb4f	-0.10973226
47	0x3d035ebb	0.032072764
48	0xbce0e6e1	-0.027453842
49	0x3d230294	0.03979738
50	0xbd5debf7	-0.05418011
51	0xbdefe41d	-0.11713431
52	0x3d8988d2	0.067155495
53	0xbd9776ee	-0.07395731
54	0xbe3266f6	-0.17422089
55	0xbd9b7677	-0.07590955
56	0x3d881e75	0.06646434
57	0x3df1ebeb	0.11812576
58	0xbd888b07	-0.06667142
59	0xbaf77bd3	-0.0018881507
60	0xbacf508e	-0.0015816854
61	0x3dbd7ac3	0.092519306
62	0xbd0a3918	-0.033745855
63	0xbdf2e10b	-0.1185933
64	0x3da8710f	0.08224689
65	0x3d9325b0	0.07184923
66	0xbe048b74	-0.12943822
67	0x3d114f4e	0.03547602
68	0xbd99dbc4	-0.0751262
69	0x3cd1c643	0.025607234
70	0xbd7831d5	-0.0605944
71	0x3d19ee02	0.037580498
72	0x3c95c3d1	0.01828185
73	0xbbcff3e8	-0.0063462146
74	0xbe360745	-0.1777621
75	0xbda1e036	-0.07904093
76	0x3e1458a7	0.14486943
77	0x3d7d3a63	0.06182326
78	0x3e293b1c	0.16526455
79	0x3df9fc02	0.1220627
80	0xbd35829e	-0.04431402
81	0xbd31a019	-0.04336557
82	0xbcca763c	-0.024714582
83	0xbd8bdbcb	-0.068290316
84	0x3e1214b1	0.14265706
85	0xbd30f877	-0.043205705
86	0xbe157e59	-0.14598979
87	0xbe38036f	-0.1797006
88	0xbe0bf6f9	-0.13668431
89	0x3dce00bb	0.10058733
90	0xbd1c5682	-0.038168438
91	0x3e13a699	0.1441902
92	0xbda22774	-0.07917681
93	0xbd00d796	-0.0314556
94	0x3d816073	0.06317224
95	0xbce8e89b	-0.028431227
96	0x3e260f48	0.16216767
97	0xbcb1b5f3	-0.021693205
98	0x3e376924	0.17911202
99	0xbc91f25a	-0.017815758
100	0xbe1b5277	-0.15168177
101	0xbe029694	-0.12752753
102	0x3d6582c5	0.056032915
103	0xbd98ddf4	-0.07464209
104	0xbd2ad9f1	-0.04171175
105	0xbd325ebd	-0.04354738
106	0x3df153a9	0.11783535
107	0x3d880a6d	0.066426136
108	0x3c070c65	0.008242701
109	0x3d8afe48	0.067867815
110	0xbb113954	-0.0022159414
111	0x3dd0c7c9	0.10194356
112	0xbd853e07	-0.065059714
113	0x3ddb0d4f	0.10695898
114	0x3d91d7bc	0.07121226
115	0xbd9423cd	-0.07233391
116	0xbd84e8ce	-0.064897165
117	0xbd4edcd3	-0.050503563
118	0x3db641b6	0.08899252
119	0xbde092a7	-0.10965472
120	0x3cada47e	0.0211966
121	0x3d2c75e0	0.0421046
122	0x3acdee9b	0.0015711369
123	0xbd6ee0e8	-0.058319956
124	0xbcfb5dad	-0.030684317
125	0x3d7df1f9	0.06199834
126	0xbd9b63d1	-0.07587398
127	0x3e09165c	0.13387436
128	0x3d538e18	0.051649183
129	0x3d57531b	0.05256949
130	0x3c6b9377	0.01437842
131	0xbd0309b6	-0.031991683
132	0xbdb32617	-0.087474994
133	0xbdb7c6fd	-0.08973501
134	0x3d50c4bf	0.05096888
135	0x3e2a771e	0.16647002
136	0xbc92ef0c	-0.017936252
137	0xbdbc30db	-0.09189006
138	0xbcd1fc37	-0.02563296
139	0x3d217c78	0.039425343
140	0x3e1e9ee6	0.15490302
141	0x3da2b039	0.07943768
142	0xbdcc0132	-0.099611655
143	0xbdd2dfe3	-0.10296609
144	0x3d53bd09	0.05169395
145	0x3dbfeb68	0.09371072
146	0x3e117d25	0.14207895
147	0x3d2ebd07	0.04266074
148	0xbd64fe89	-0.055906806
149	0x3e046df7	0.12932573
150	0xbda45c43	-0.0802541
151	0xbd9dbb7b	-0.07701775
152	0xbcded442	-0.027200822
153	0x3d84de02	0.06487657
154	0xbd38b6eb	-0.04509632
155	0xbdf44e98	-0.11929053
156	0xbd2976d6	-0.041373096
157	0xbd8372ca	-0.06418379
158	0xbdefced1	-0.11709369
159	0x3dddc56a	0.10828669
160	0x3d06be72	0.032896467
161	0x3d61ef39	0.05515978
162	0xbdb5ce27	-0.08877211
163	0xbddaf031	-0.10690344
164	0xbd13b9c1	-0.03606582
165	0xbd8d4dc3	-0.068995975
166	0xbdd446ca	-0.103650644
167	0xbdc28e7d	-0.09499834
168	0xbc35b3d5	-0.011090239
169	0xbd91134e	-0.0708376
170	0x3dd4cecc	0.10391006
171	0xbcd62600	-0.026141167
172	0x3d923259	0.07138509
173	0xbd8e9c7f	-0.06963443
174	0xbd87b49f	-0.066262476
175	0xbb68fae6	-0.0035549938
176	0xbe06f9b8	-0.13181198
177	0xbde91542	-0.11381008
178	0xbdd8c63e	-0.10584687
179	0x3d9dc079	0.07702727
180	0x3e0900e6	0.13379249
181	0x3dc1473a	0.094374135
182	0x3d8e9106	0.06961255
183	0x3e1dbbc3	0.15403657
184	0x3dd306c2	0.10304023
185	0xbc395b9d	-0.011313346
186	0x3e04e490	0.12977815
187	0xbdab37e7	-0.08360272
188	0x3d364fcf	0.044509705
189	0x3d74adea	0.05973617
190	0x3daca353	0.08429589
191	0x3dfff963	0.124987386
192	0xbdb91c21	-0.09038568
193	0xbd89da15	-0.06731049
194	0x3e03ebc5	0.12882908
195	0x3c00a50e	0.007851852
196	0xbdf89928	-0.12138587
197	0x3db019b2	0.08598651
198	0x3d79e08b	0.061005156
199	0x3d8a609a	0.067567065
200	0x3e044581	0.12917139
201	0xbdc0fcae	-0.09423195
202	0xbbcfdb4a	-0.00634328
203	0x3dc2c0f2	0.09509458
204	0xbcae82cc	-0.021302603
205	0xbcd803c1	-0.026368978
206	0xbcb34c3d	-0.02188694
207	0xbe1c649b	-0.15272753
208	0x3d89d68b	0.06730374
209	0x3df06503	0.117380165
210	0x3d0f6fc5	0.0350187
211	0x3daf342f	0.08554875
212	0xbd6e79c5	-0.058221597
213	0xbdf07097	-0.11740225
214	0xbd853717	-0.06504648
215	0x3e20b3e9	0.1569363
216	0xbdbf07a1	-0.09327627
217	0x3dd0dbe5	0.101981916
218	0x3d85a7f2	0.06526174
219	0xbdd5bbc1	-0.10436202
220	0x3e24a978	0.16080272
221	0xbd1becd8	-0.03806767
222	0xbdd113b2	-0.10208835
223	0xbc342a59	-0.010996425
224	0x3e113021	0.14178516
225	0x3defa357	0.117010765
226	0xbdee586a	-0.116379574
227	0xbdc791d1	-0.09744609
228	0x3e07500b	0.13214128
229	0xbd6f47cf	-0.05841809
230	0xbd67f28d	-0.0566278
231	0x3c6eb6ec	0.014569979
232	0x3dd3596d	0.10319791
233	0xbb314d88	-0.002705427
234	0x3d36c079	0.04461715
235	0xbd9ae769	-0.07563669
236	0xbd68c14b	-0.056824964
237	0xbdddd10c	-0.10830888
238	0x3d964b7b	0.073386155
239	0xbd65d2a5	-0.05610909
240	0xbb9a4452	-0.0047078514
241	0x3dcabc48	0.09899193
242	0x3dfd7b30	0.12377012
243	0xbd3584d0	-0.044316113
244	0x3c244495	0.010026117
245	0x3c7b23ad	0.01532833
246	0x3d9327ae	0.07185303
247	0x3e024769	0.12722553
248	0x3d851687	0.064984374
249	0xbd8cd020	-0.06875634
250	0x3d0809e1	0.033212546
251	0x3e00ff83	0.1259747
252	0x3c877be7	0.016538573
253	0x3d370955	0.044686634
254	0xbdf9dda6	-0.12200479
255	0xbd1b690a	-0.03794197

lstm.weight_hh_l1 f4 [204, 51]
0	0x3d0fe491	0.035130087
1	0xbd09c130	-0.033631504
2	0x3e240516	0.16017565
3	0xbcd6d8b2	-0.026226375
4	0x3e33d459	0.17561473
5	0xba91aaa3	-0.0011113476
6	0xbdadca32	-0.08485831
7	0xbe2e9f09	-0.17052855
8	0x3e074652	0.13210419
9	0x3df2706d	0.1183785
10	0x3e1f0559	0.15529384
11	0x3e0f23f0	0.13978553
12	0xbda59a36	-0.08086054
13	0x3dd1aa4a	0.10237558
14	0x3cd69eab	0.026198706
15	0x3e1eff1b	0.15527003
16	0xbe3d1551	-0.18465163
17	0x3dbe4419	0.09290332
18	0x3a95f0c0	0.0011439547
19	0xbdfa51bf	-0.12222623
20	0x3d998a28	0.07497054
21	0x3d6dccb4	0.05805655
22	0x3cf8db07	0.030377878
23	0x3daa942f	0.08329045
24	0xbd15c1fd	-0.036561955
25	0xbd4104bb	-0.047123652
26	0x3d84863f	0.06470918
27	0xbe34a45d	-0.17640825
28	0x3dbd45b6	0.09241812
29	0xbd0824b3	-0.033238124
30	0x3c9e17c1	0.019298436
31	0xbde48eab	-0.11160024
32	0xbd26262a	-0.04056374
33	0xbbab825c	-0.005234046
34	0xbd904f60	-0.070463896
35	0x3d312349	0.04324654
36	0xbd813864	-0.06309584
37	0xbe22318c	-0.15839213
38	0xbe28582f	-0.1643989
39	0x3e0f36db	0.1398577
40	0x3e1f0d2c	0.15532368
41	0x3db592b2	0.088658705
42	0xbce13f49	-0.027495997
43	0xbd7c706f	-0.061630663
44	0x3db30d23	0.0874274
45	0x3d96a584	0.07355788
46	0xbd157915	-0.036492426
47	0x3c610c19	0.013735794
48	0xbd09ca37	-0.033640113
49	0xbd5e3be3	-0.05425633
50	0xbdb0a789	-0.08625705
51	0x3dc181f1	0.094486125
52	0x3d9562b4	0.07294217
53	0x3e15b279	0.14618863
54	0x3da8d591	0.082438596
55	0xbdd4e5f7	-0.10395425
56	0x3dc9f408	0.098609984
57	0xbe298fb1	-0.1655872
58	0xbd9c4dbb	-0.076320134
59	0xbdbdba4a	-0.092640474
60	0x3dc1eb8a	0.09468754
61	0x3c6404ef	0.013917192
62	0xbb979333	-0.004625702
63	0x3baf9a7f	0.0053589935
64	0x3c0feee2	0.008784981
65	0x3e20a8c2	0.15689376
66	0xbdc0f501	-0.09421731
67	0x3dd5d36e	0.10440718
68	0xbcc67042	-0.02422345
69	0x3d6eaeb1	0.058272067
70	0xbe11013c	-0.14160627
71	0xbdc99293	-0.0984241
72	0x3dcc8101	0.09985543
73	0x3d8913b8	0.06693214
74	0x3daa498f	0.083148114
75	0xbd2864c2	-0.041111715
76	0xbda3785e	-0.079819426
77	0xbe2a7a5a	-0.16648236
78	0xbdc81b6e	-0.09770857
79	0x3df88078	0.121338785
80	0xba746b1c	-0.0009323822
81	0xbe098fe6	-0.13433799
82	0x3d544787	0.051826026
83	0x3e1a982e	0.15097114
84	0xbd91bd8b	-0.071162306
85	0xbd5e8dd5	-0.05433448
86	0x3d374208	0.044740707
87	0xbd5889b7	-0.05286571
88	0xbdee0a4f	-0.1162306
89	0xbe254780	-0.16140556
90	0x3db178fd	0.08665655
91	0xbcb400ff	-0.021973131
92	0x3dd1d5b1	0.102458365
93	0xbd92f525	-0.07175664
94	0xbe196cff	-0.14982985
95	0xbc1a795c	-0.009428348
96	0x3d892e67	0.06698304
97	0x3e19ea68	0.15030825
98	0x3b5d6c42	0.003378645
99	0xbd0df503	-0.03465749
100	0x3db9794c	0.09056339
101	0xbda3f754	-0.080061585
102	0xbd81022f	-0.062992446
103	0xbdd1b4c3	-0.10239556
104	0x3e199b36	0.15000615
105	0x3d2ddae3	0.042445075
106	0xbd39ab03	-0.045329105
107	0x3dabd05b	0.0838935
108	0xbce575c1	-0.028010251
109	0xbc750024	-0.014953647
110	0xbbfdf46b	-0.007750084
111	0x3e3874cb	0.18013303
112	0x3d81dc0a	0.06340797
113	0x3d61a201	0.05508614
114	0xbd4a6b5b	-0.04941879
115	0x3de93e0c	0.113887876
116	0x3d865975	0.06560031
117	0x3e2f16de	0.17098567
118	0xbd22dd1c	-0.039761648
119	0xbdc453b4	-0.095862776
120	0xbd6c77be	-0.057731383
121	0xbd68517e	-0.056718342
122	0xbd60da28	-0.05489555
123	0xbdab8220	-0.08374429
124	0x3dc6025a	0.09668417
125	0x3c9d4362	0.01919717
126	0x3dfa5112	0.12222494
127	0x3d7b1ebb	0.061308604
128	0xbe29bab0	-0.16575122
129	0x3c7f84bf	0.015595614
130	0xbdec78e8	-0.115464985
131	0xbbc3f2b3	-0.0059798597
132	0x3d8d6eee	0.06905924
133	0xbb818063	-0.0039520725
134	0x3e0496ae	0.12948105
135	0xbd9439c3	-0.0723758
136	0xbdd52f23	-0.10409381
137	0xbe19acb9	-0.15007295
138	0xbda59f4e	-0.080870256
139	0xbc87be0c	-0.016570114
140	0xbe26acc9	-0.1627685
141	0x3e241135	0.16022189
142	0x3dc3738e	0.09543525
143	0xbcb976a7	-0.022639586
144	0x3e061039	0.13092126
145	0xbc3966f5	-0.011316051
146	0x3da3af5a	0.0799243
147	0xbdd2a5f3	-0.102855586
148	0x3c32b243	0.010906759
149	0xbd7f34b3	-0.062306117
150	0xbc3c3398	-0.01148691
151	0x3d04940c	0.03236775
152	0xbd474e21	-0.048658494
153	0x3d409a24	0.047022
154	0xbd3ffcb2	-0.04687185
155	0x3d3d8b0f	0.046275195
156	0x3d9aa039	0.07550091
157	0xbc48640f	-0.012230887
158	0x3df4ae73	0.11947336
159	0xbdbe19f8	-0.09282297
160	0x3d61047a	0.05493591
161	0xbde5748e	-0.11203872
162	0xbcb18443	-0.021669513
163	0x3e1a4fcf	0.15069507
164	0x3da64086	0.081177756
165	0x3cf9479c	0.030429654
166	0x3dfed86f	0.12443625
167	0x3d81787d	0.063218094
168	0x3de86bee	0.11348711
169	0x3ba14260	0.0049212426
170	0x3e13c0dc	0.14429039
171	0x3c546eee	0.012965901
172	0x3df4cef0	0.11953533
173	0x3de2cfc1	0.11074782
174	0x3db61858	0.08891362
175	0xbcd7c0dd	-0.026337082
176	0xbcb2185e	-0.021740135
177	0x3e184136	0.14868626
178	0x3c04a6c4	0.008096401
179	0xbba77b2e	-0.0051111197
180	0xbd84f3da	-0.064918235
181	0x3dd053f7	0.10172265
182	0x3e22f2cb	0.1591293
183	0x3d2add90	0.041715205
184	0xbe0748c9	-0.13211359
185	0x3d9862e5	0.07440738
186	0x3dcb30d3	0.09921422
187	0xbe0a66fe	-0.13515851
188	0xbda0305f	-0.07821726
189	0x3e1facd6	0.15593275
190	0xbd815215	-0.06314484
191	0xbdb1f7e4	-0.086898595
192	0x3e1044da	0.14088765
193	0x3db8ed92	0.09029688
194	0x3df9aeb2	0.121915236
195	0x3e2321c0	0.15930843
196	0xbd99456d	-0.07483945
197	0xbd1db23d	-0.03850006
198	0x3d7500dd	0.059815276
199	0xbe23b80e	-0.1598818
200	0xbd3d1256	-0.046160065
201	0x3e050f60	0.12994146
202	0xbe027ba5	-0.12742479
203	0xbe1a6e5e	-0.15081164
204	0xbd3a8c87	-0.045544174
205	0xbd52e428	-0.051487118
206	0x3c3a8d38	0.011386208
207	0x3dd62a46	0.10457282
208	0x3d5a41e1	0.053285483
209	0x3c1ed88b	0.009695183
210	0x3d40151e	0.04689514
211	0x3c7475e7	0.014920688
212	0x3d775ed3	0.060393166
213	0xbd10101e	-0.03517162
214	0x3c31f2da	0.010861123
215	0x3d4ef7ba	0.05052922
216	0x3da5d9e6	0.080982015
217	0xbb2a7f68	-0.0026015881
218	0x3dc01829	0.09379608
219	0x3e05b9b4	0.13059121
220	0xbd5033ca	-0.05083064
221	0x3d8bbcd4	0.068231255
222	0xbd784931	-0.060616676
223	0x3d1fca19	0.039011095
224	0xbd8ddb47	-0.069265895
225	0x3cf6d33a	0.030130018
226	0x3dae95b0	0.085246444
227	0x3d461ba7	0.048366215
228	0x3e15a76c	0.14614648
229	0x3d57a255	0.052645046
230	0xbd266ef0	-0.040633142
231	0xbc9a32e6	-0.018823098
232	0x3b905057	0.0044041085
233	0x3e1c4e0e	0.1526415
234	0xbcfd4ed6	-0.030921381
235	0xbcfeb5bb	-0.031092515
236	0x3e02d398	0.12776029
237	0x3ddb0042	0.106934085
238	0xbd4377da	-0.04772172
239	0x3d4658a2	0.04842437
240	0x3e216ba0	0.15763712
241	0xbd2809e5	-0.04102506
242	0xbd734341	-0.05939031
243	0x3d8f2c3a	0.069908574
244	0x3e315b91	0.17320086
245	0x3e36ceeb	0.1785237
246	0xbda85123	-0.082186006
247	0xbe1c0775	-0.1523722
248	0xbde7c23d	-0.11316345
249	0xbdafdb49	-0.08586747
250	0xbdd8c1d4	-0.10583845
251	0xbd1c40aa	-0.038147606
252	0xbd78dc24	-0.060756817
253	0x3dd1ecb0	0.10250223
254	0x3d8e61c9	0.06952245
255	0xbe2c16ad	-0.16805525

lstm.bias_ih_l1 f4 [204]
0	0x396b74d9	0.00022454876
1	0x3da653cd	0.081214525
2	0x3deb153b	0.11478659
3	0x3d6bdad7	0.05758175
4	0xbdbc38db	-0.09190532
5	0x3de1211f	0.109926455
6	0x3d21d80c	0.03951268
7	0xbd21e4d6	-0.039524876
8	0x3daf2391	0.08551706
9	0xbd13d52a	-0.03609196
10	0x3dee91a0	0.116488695
11	0xbb6fe99f	-0.0036607755
12	0xbd66b0f1	-0.05632109
13	0x3daee2f2	0.0853938
14	0x3d6a9bf0	0.05727762
15	0x3d0011bf	0.031266924
16	0x3e252dbd	0.16130729
17	0x3e15f054	0.14642459
18	0x3e2f126b	0.1709687
19	0x3c79c64a	0.01524503
20	0xbd7c38d7	-0.061577644
21	0x3d807a40	0.06273317
22	0x3dcd8ed2	0.100370064
23	0xbd9942ae	-0.07483421
24	0x3d79143c	0.060810313
25	0xbd8cf206	-0.068821
26	0x3da08a0f	0.078388326
27	0x3e1c1343	0.15241723
28	0xbdaace0e	-0.08340083
29	0xbdb1d525	-0.08683232
30	0x3d3823f6	0.04495617
31	0x3e085253	0.13312654
32	0x3d85b20f	0.065281026
33	0x3e2df41c	0.16987652
34	0x3d10717f	0.03526449
35	0xbdd100be	-0.1020522
36	0x3d9e64fc	0.07734105
37	0x3e1779e7	0.14792596
38	0xbd847222	-0.064670816
39	0x3e206d2d	0.15666647
40	0xbdc22a45	-0.094807185
41	0x3d05ff45	0.032714147
42	0xbdb09c0d	-0.08623514
43	0xbca14ee8	-0.019690946
44	0x3e231687	0.15926562
45	0xbdc739ca	-0.09727819
46	0x3bb0ce89	0.0053957147
47	0x3ddcf322	0.107885614
48	0xbd489633	-0.048971366
49	0xbb732fd9	-0.0037107377
50	0x3e2c13b8	0.16804397
51	0x3d9d97bc	0.07694957
52	0x3e17a5bf	0.14809321
53	0x3e2cfda5	0.16893633
54	0x3d14442d	0.03619783
55	0x3d18f6ba	0.03734467
56	0x3d1cbc20	0.038265347
57	0x3e2d272f	0.16909479
58	0x3d4b812a	0.049683727
59	0x3e0d1e34	0.13781053
60	0x3ddae254	0.106877
61	0x3e1c73f3	0.15278606
62	0x3dc8de86	0.09808068
63	0x3d32671c	0.043555364
64	0x3de6ef8d	0.112761594
65	0xbd99e955	-0.07515208
66	0x3d3a9048	0.045547754
67	0x3e096b0f	0.13419746
68	0x3d01f23d	0.031725157
69	0xbb86a615	-0.004109154
70	0xbdbce5b6	-0.092235014
71	0x3e3d81ec	0.18506593
72	0x3c19da72	0.00939046
73	0x3ae7058f	0.0017625558
74	0x3dfe7dd2	0.12426342
75	0xbd8d0aaa	-0.068868
76	0x3d6c29b9	0.057656977
77	0xbd421225	-0.047380585
78	0xbd43ff12	-0.047850676
79	0x3df5cb79	0.120017
80	0xbd2a488a	-0.041573085
81	0x3d9f4808	0.07777411
82	0x3dc11389	0.09427554
83	0x3d50b87c	0.050957188
84	0x3e0bf808	0.13668835
85	0xbc5ab6b4	-0.013349224
86	0x3cf687a5	0.030093977
87	0xbd8372be	-0.0641837
88	0x3e2c96d3	0.1685441
89	0x3daced96	0.084437534
90	0x3e14d514	0.14534408
91	0xbd20930a	-0.039202727
92	0x3dcedcea	0.1010073
93	0x3e0e1e6a	0.1387879
94	0xbb14a346	-0.0022680326
95	0x3e1b1883	0.15146069
96	0x3d7f77fe	0.062370293
97	0x3dbdf455	0.09275118
98	0xbd24e384	-0.04025604
99	0x3d4daa14	0.050211027
100	0xbaa4d741	-0.0012576358
101	0x3dc8d73f	0.0980668
102	0xbe08fd20	-0.1337781
103	0xbdf60eb4	-0.12014523
104	0x3d1445fd	0.03619956
105	0x3cc48756	0.023990314
106	0xbdacacc2	-0.084313884
107	0x3d330033	0.043701362
108	0xbdcf8967	-0.10133629
109	0xbe21610c	-0.15759677
110	0xbd14d8e6	-0.036339663
111	0xbd094c3b	-0.033519965
112	0x3df4f243	0.1196027
113	0x3e085a0b	0.13315599
114	0xbcde2922	-0.027119223
115	0xbd606666	-0.054785155
116	0x3e200725	0.15627725
117	0x3cc30eec	0.023810826
118	0xbd828ee2	-0.06374909
119	0xbd6425eb	-0.055700224
120	0xbe25c0d1	-0.16186835
121	0xbde8b63f	-0.11362886
122	0x3e124a97	0.14286266
123	0x3e02bbff	0.12767027
124	0xbdd6c972	-0.104876414
125	0xbcee32b5	-0.029076913
126	0xbca57845	-0.02019895
127	0x3dcb39e4	0.09923151
128	0x3dcba7f2	0.099441424
129	0xbdda3d43	-0.10656216
130	0xbc89d519	-0.016825246
131	0x3e138aa1	0.14408351
132	0x3d105671	0.035238687
133	0x3daa0997	0.0830261
134	0x3cf207b8	0.029544696
135	0x3e1b2ddc	0.15154213
136	0xbdc85dc4	-0.097835094
137	0xbdba26b4	-0.09089413
138	0x3cd7623c	0.026291959
139	0xbd0d6367	-0.034518626
140	0x3dc6f83c	0.09715316
141	0x3d3157f0	0.043296754
142	0x3e056b76	0.13029274
143	0x3dc05db6	0.09392874
144	0xbc1e7329	-0.009671011
145	0xbdfe656c	-0.124216884
146	0xbe152322	-0.14564183
147	0x3cbc075d	0.02295273
148	0xbd313a92	-0.043268748
149	0x3e2533a9	0.16132988
150	0xbd9a079e	-0.07520984
151	0xbc5afdb3	-0.013366151
152	0xbe2798c5	-0.1636687
153	0xbc463894	-0.01209845
154	0xbd2ae2e1	-0.041720275
155	0x3e56ddfe	0.20983121
156	0x3c9ea777	0.019366963
157	0xbc4e52e8	-0.012593009
158	0x3ded2469	0.1157921
159	0x3dc1b56e	0.09458433
160	0x3d806c72	0.06270684
161	0xbd4669e2	-0.04844082
162	0x3e2d09a6	0.16898212
163	0x3e46943e	0.19392487
164	0x3d641af5	0.05568977
165	0x3cf85f13	0.030318772
166	0x3d194d2f	0.037427124
167	0xbd0dbc30	-0.034603298
168	0x3e1f4c87	0.15556537
169	0x3e2fd4b6	0.17170987
170	0x3d78156c	0.060567304
171	0x3e52bc5e	0.20579669
172	0x3e55f1c3	0.20893006
173	0x3df2bfd2	0.11852993
174	0x3cc958aa	0.024578411
175	0x3e036d25	0.12834604
176	0x3dfb8449	0.12281091
177	0x3c4236b2	0.011853861
178	0x3e021194	0.12702018
179	0x3dba6a07	0.09102254
180	0x3da5504c	0.08071956
181	0x3d35bcff	0.044369694
182	0x3d75dcf6	0.060025178
183	0x3d02c675	0.031927545
184	0xbb87e357	-0.004146974
185	0xbc672bd6	-0.014109572
186	0x3b47ce31	0.003048789
187	0x3cca0e1d	0.024664933
188	0x3e232129	0.15930618
189	0x3dbc7fed	0.092040874
190	0xbd307379	-0.043078873
191	0x3d91c5f3	0.07117834
192	0x3e3177a5	0.17330797
193	0x3da619d1	0.08110393
194	0x3e39b5d9	0.18135776
195	0xbd162f36	-0.036666118
196	0x3d223989	0.03960565
197	0x3e45f13a	0.19330302
198	0x3d09a664	0.033605948
199	0x3e4cd274	0.20002156
200	0xbd770e8d	-0.06031661
201	0x3d28ddf9	0.041227315
202	0x3cb60761	0.022220315
203	0x3e12b174	0.14325505

lstm.bias_hh_l1 f4 [204]
0	0xbcaa8bc3	-0.020818597
1	0xbdb02959	-0.086016364
2	0xbbf6d91a	-0.0075332047
3	0x3e1bc780	0.15212822
4	0x3c3a0e8c	0.011356007
5	0x3e2a299f	0.1661744
6	0xbdad8cf2	-0.08474149
7	0x3ce85345	0.028360019
8	0x3de5c63a	0.11219449
9	0x3d8e6891	0.06953538
10	0xbca3b044	-0.019981511
11	0xbda1eead	-0.07906852
12	0xbd682f2a	-0.056685604
13	0xbd96a0d4	-0.07354894
14	0x3de524aa	0.11188634
15	0x3d7f5b5c	0.062342986
16	0xbda60ae1	-0.08107544
17	0xbcd2eb89	-0.025747078
18	0x3e28c82d	0.16482611
19	0x3ced83c0	0.028993487
20	0xbd47180f	-0.04860693
21	0x3db9ed71	0.090784915
22	0x3c5706cb	0.013124178
23	0xbad2118a	-0.0016026956
24	0xbcd38f67	-0.025825216
25	0x3d8e5e2a	0.06951554
26	0xbbb2a799	-0.005452108
27	0x3ce7eaea	0.028310258
28	0xbc1e4f0b	-0.0096624
29	0x3c91ef2c	0.017814241
30	0xbd82d61e	-0.06388496
31	0xbd4415cc	-0.04787235
32	0xbd380944	-0.04493071
33	0xbda63288	-0.08115107
34	0x3e258a2d	0.16165991
35	0xbc67f731	-0.014158056
36	0x3e2113e6	0.15730247
37	0xbd242d6e	-0.040082388
38	0xbcddd699	-0.027079867
39	0x3e0b07b5	0.13577159
40	0x3dc5f0f9	0.096651025
41	0xbda0bbd1	-0.07848323
42	0xbdb049d1	-0.08607829
43	0x3e215157	0.15753685
44	0x3df636f3	0.120221995
45	0xbd0f1be0	-0.034938693
46	0xbcd85c28	-0.026411131
47	0x3cf46050	0.029831082
48	0x3df3d4ba	0.11905809
49	0x3cdef92c	0.027218424
50	0xbd520481	-0.051273827
51	0xbda21ab2	-0.07915248
52	0xbda69c99	-0.081353374
53	0xbd729d46	-0.05923202
54	0x3a8cac2d	0.0010732465
55	0x3ddde738	0.10835117
56	0x3ba52132	0.0050393576
57	0xbdc7236d	-0.09723554
58	0x3d9b7975	0.075915255
59	0xbdcbf555	-0.09958903
60	0x3e13585e	0.14389178
61	0x3de97f3c	0.11401221
62	0x3ddc4a3a	0.10756345
63	0x3e0007a3	0.12502913
64	0x3d586f82	0.052840717
65	0x3dbc9bff	0.092094414
66	0x3d862da5	0.06551675
67	0x3d4ec1af	0.05047768
68	0x3e02fbea	0.1279141
69	0x3cb37f43	0.021911269
70	0x3d406cd5	0.04697879
71	0x3d79a521	0.060948495
72	0x3e13a28c	0.14417475
73	0x3d061192	0.0327316
74	0xbdcada86	-0.09904961
75	0xbc7dd51a	-0.015492702
76	0x3a3b8d30	0.00071545225
77	0xbd9b7614	-0.07590881
78	0x3caa5282	0.020791296
79	0xbd5122bd	-0.05105852
80	0x3d8ffc68	0.070305645
81	0xbd6bdada	-0.05758176
82	0xbc4f2d99	-0.012645149
83	0x3df19de7	0.117976956
84	0x3db96e2c	0.09054217
85	0x3d98ccc6	0.074609324
86	0xbdab10a0	-0.0835278
87	0x3e37ce6c	0.17949837
88	0x3d4f74eb	0.05064861
89	0xbdab6deb	-0.083705746
90	0xbd01c969	-0.03168622
91	0xbd420519	-0.047368143
92	0x3e1f5c11	0.15562464
93	0xbd54f73b	-0.05199359
94	0x3ce7eca2	0.028311078
95	0x3df7fd52	0.12108864
96	0x3e2f6162	0.17126992
97	0x3d0647c0	0.03278327
98	0x3d87f1d0	0.06637919
99	0x3d3170df	0.043320533
100	0xbc9f8a02	-0.019474987
101	0x3d711efe	0.058867447
102	0xbe0b5c80	-0.13609505
103	0xbc3bd386	-0.011464005
104	0xbc61dd28	-0.013785638
105	0xbd8709d7	-0.06593674
106	0x3e2c138c	0.16804332
107	0x3df3ee0b	0.119106375
108	0x3d87c746	0.06629805
109	0xbd66aec2	-0.056319006
110	0x3d58ff34	0.052977756
111	0x3e1cd275	0.15314658
112	0x3d64a78e	0.055823855
113	0x3cb2b2e0	0.02181381
114	0x3dc4a2f9	0.09601397
115	0x3e1460ee	0.144901
116	0x3e2987cc	0.16555709
117	0x3e28ef21	0.1649747
118	0xbda4186b	-0.0801247
119	0xbcee3075	-0.02907584
120	0xbe2c9e46	-0.16857252
121	0xbe0091d0	-0.12555623
122	0x3df6d27a	0.12051864
123	0xbd5e6e11	-0.054304186
124	0xbdab61e3	-0.0836828
125	0xbd1af013	-0.03782661
126	0x39189e9d	0.00014554938
127	0xbde0a12c	-0.10968241
128	0xbdef3116	-0.11679284
129	0xbdf67bc2	-0.12035324
130	0xbda29ccd	-0.079400636
131	0xbd283995	-0.04107054
132	0x3d469ccd	0.04848938
133	0xbdf0ac18	-0.11751574
134	0xbd01a2fd	-0.03164958
135	0xbd0da987	-0.034585502
136	0x3d373606	0.044729255
137	0x3d790c09	0.060802493
138	0x3e3110a8	0.1729151
139	0xbdde4c84	-0.10854438
140	0xbde1b55a	-0.11020918
141	0x3db873ef	0.090064876
142	0x3ce04a26	0.027379107
143	0x3d678fc5	0.056533594
144	0x3dbca14d	0.09210453
145	0xbd29e167	-0.041474726
146	0xbd4d2e17	-0.050092783
147	0xbd46d860	-0.048546195
148	0x3c4c63bf	0.012474953
149	0x3d9bb94c	0.07603702
150	0x3e21aea1	0.15789272
151	0xbd65990e	-0.056054167
152	0x3d6b9d60	0.05752313
153	0x3e32c92d	0.17459555
154	0x3c02b114	0.007976789
155	0x3cba0e9f	0.02271205
156	0xbd2ecde7	-0.042676833
157	0x3deef6d4	0.116681725
158	0x3c739d4a	0.014869044
159	0x3e49e80f	0.1971743
160	0x3e39b6e4	0.18136173
161	0x3dc461c7	0.09588962
162	0x3dd15492	0.10221209
163	0x3e4b101a	0.19830361
164	0x3d95328d	0.072850324
165	0x3e11f3f2	0.14253214
166	0x3d82e12e	0.06390606
167	0x3dee1b90	0.11626351
168	0x3e154c85	0.14579971
169	0x3b834a9d	0.0040066973
170	0x3e44a5d9	0.19203891
171	0x3c9f7335	0.019464115
172	0x3e45465f	0.19265126
173	0x3dea0f2f	0.11428677
174	0x3db4cde1	0.08828331
175	0x3e142630	0.14467692
176	0x3d948c71	0.072533496
177	0x3e345189	0.17609228
178	0xbd6dc22c	-0.058046505
179	0x3cf7757e	0.030207392
180	0x3dea5aa6	0.11443071
181	0x3d66c1ed	0.056337286
182	0x3e2528b6	0.16128811
183	0x3dd45f71	0.103697665
184	0x3e217dd9	0.15770663
185	0x3e3668a3	0.17813353
186	0x3dac2c00	0.0840683
187	0xbc034292	-0.008011477
188	0x3e177f9b	0.14794771
189	0x3e5f354a	0.21797672
190	0x3d5e6a12	0.054300375
191	0x3e116de4	0.14202076
192	0x3c2a576a	0.010396818
193	0x3e45fe15	0.19335206
194	0x3d7c7482	0.061634548
195	0x3d3f142c	0.046650097
196	0x3cb30fbb	0.021858087
197	0x3d1ee9cd	0.03879719
198	0x3d822a96	0.06355779
199	0x3cb4b9af	0.022061197
200	0xbc973192	-0.018456254
201	0x3d2bf83b	0.041984778
202	0x3e178845	0.14798076
203	0xbcbf599d	-0.02335816

fc.weight f4 [1, 51]
0	0xbf87c94d	-1.0608307
1	0xbf8bd276	-1.0923603
2	0x3f906288	1.1280069
3	0xbf915b85	-1.1356055
4	0x3f848c0d	1.035524
5	0x3f8cfdc5	1.1014944
6	0xbf8869f6	-1.0657337
7	0xbf8b2b22	-1.0872538
8	0x3f8d866f	1.1056651
9	0x3f8b7785	1.089585
10	0x3f898740	1.07444
11	0x3f844c29	1.0335742
12	0x3f8cc434	1.0997376
13	0x3f85eb8e	1.046251
14	0x3f7fa9ef	0.99868673
15	0x3f8a1ea2	1.0790598
16	0xbf862c2d	-1.0482231
17	0x3f8697a1	1.0515023
18	0xbf8bf07f	-1.0932769
19	0xbf8d272f	-1.1027583
20	0x3f809742	1.004616
21	0x3f90c348	1.1309595
22	0xbf866256	-1.049876
23	0xbf8eb20a	-1.1148083
24	0x3f91bcb8	1.1385717
25	0xbf93adc1	-1.15374
26	0xbf8b6fb8	-1.0893469
27	0xbf84d024	-1.037602
28	0x3f9102e4	1.1329007
29	0x3f950715	1.1642786
30	0xbf86dafb	-1.0535578
31	0xbf92773e	-1.144264
32	0x3f850b0a	1.0393994
33	0x3f89c2a9	1.076253
34	0xbf933823	-1.1501507
35	0xbf8d36a5	-1.1032301
36	0x3f83da7f	1.0301055
37	0xbf82bb89	-1.0213481
38	0xbf876795	-1.0578486
39	0x3f912381	1.133896
40	0x3f8a4d33	1.0804809
41	0x3f863674	1.0485368
42	0x3f8d7466	1.1051147
43	0xbf8d5029	-1.1040088
44	0xbf8b65a2	-1.0890391
45	0xbf95442d	-1.1661431
46	0x3f9524d9	1.165187
47	0x3f8ee792	1.116442
48	0x3f822c35	1.0169741
49	0xbf8fc453	-1.1231788
50	0xbf95cb3c	-1.1702647
