models/lstm_trial_13.pth (torch, 331340 bytes, 9 tensors)

lstm.weight_ih_l0 f4 [300, 44]
000000 4c 6f 0d bd 87 22 fb 3c 7b c8 08 bc e9 af 9a bc
       -0.03452997 0.030656112 -0.0083485795 -0.018882709
000010 ee ed 16 bd 0f ee a8 3c ac d4 af 3d e6 54 08 bd
       -0.036848 0.020621328 0.08585486 -0.03328409
000020 b5 82 de 3d 51 29 0d be b0 18 54 ba 6e d9 d2 bc
       0.10864774 -0.13785292 -0.0008090837 -0.025738444
000030 16 ef 0a 3d bd bc 9f bd 68 e0 5f bd 2b 77 29 bd
       0.033919416 -0.07799671 -0.05465737 -0.041373413
000040 8b 91 07 bd cc 26 7c bd f2 a8 99 bd c3 43 54 be
       -0.033097785 -0.061560437 -0.07502927 -0.20728974
000050 34 6a 78 3d 48 c4 4c bd 10 0b d2 3d 0d c8 84 3d
       0.06064816 -0.049991876 0.10256016 0.06483469
000060 ea 2b b3 ba fd bc 41 be 24 f7 09 bd f8 34 15 3e
       -0.0013669704 -0.1891975 -0.033682957 0.14570987
000070 a0 97 f6 3d 45 7c e6 bd 71 56 49 3c 83 99 5c 3d
       0.12040639 -0.11254171 0.012288676 0.053857338
000080 94 5f 67 3c 75 1a d7 bd 17 8f 0c 3e 81 9a c2 bd
       0.014121909 -0.10503093 0.1372646 -0.095021255
000090 99 b6 9f 3c a1 d7 45 3c 1d 5a 67 be 74 eb 0e be
       0.019496249 0.012075336 -0.22592969 -0.13957006
0000a0 41 3e 7b 3d 70 5d 85 be 94 bb 6c bc 90 54 1c be
       0.061338667 -0.2604785 -0.014449019 -0.15266633
0000b0 22 fc ef 3c 00 1b 4e be 86 40 0a be 52 ff bf 3d
       0.029295031 -0.20127487 -0.13501176 0.0937487
0000c0 2f f5 10 3e 1c c3 bb 3d 91 1a af 3d d9 ef f5 bd
       0.1415603 0.091680735 0.08549989 -0.12008638
0000d0 7e 74 15 be 44 e8 e1 3d cd fa 44 be 5c 3a 99 3e
       -0.1459522 0.11030629 -0.19236298 0.29927337
0000e0 d5 a9 94 bd ee 1b 13 be 60 c2 90 3d ad 15 8c bb
       -0.072589554 -0.14366123 0.07068324 -0.004275045
0000f0 91 ea 9a bc 7d cf 6f 3c 6f 14 4f be 13 ba ac 3e
       -0.018910678 0.014636871 -0.20222639 0.33735713
000100 b6 84 4e 3e f0 83 c6 b7 77 ee 73 3a 06 81 ae bb
       0.20167813 -2.3664878e-05 0.00093052484 -0.0053254394
000110 f7 f8 20 3c e3 e2 fd bc c8 2b bd 3d 23 fe 2b 3e
       0.009824983 -0.030991977 0.09236866 0.16796164
000120 61 f0 8f 3d 76 bc 97 bd c7 c8 2d be 15 81 29 3d
       0.070282705 -0.07408993 -0.16971122 0.041382868
000130 ed 11 7c bd ae 3e d8 bd a3 ad d7 bc 68 4b 16 bc
       -0.061540533 -0.1055883 -0.026327914 -0.009173252
000140 cc 5c 59 be ca cf f4 bd a4 47 ef ba c0 fa 6d bd
       -0.21226805 -0.11953695 -0.0018255603 -0.058100462
000150 01 35 d9 3d ff 6c 8b be 0a 39 39 3d 49 1a 44 3e
       0.10605813 -0.27231595 0.045220412 0.19150652
000160 0b 73 7b bd 49 03 38 3e 6a 4f 82 bd 88 ae db bb
       -0.06138901 0.17970003 -0.06362803 -0.0067041554
000170 17 12 13 3d a2 d6 e6 3d 4f 77 81 bd f9 c6 82 bd
       0.035905924 0.11271407 -0.063215844 -0.06385607
000180 ad f7 1e 3d 26 07 13 be aa be c8 3b aa c2 4c be
       0.03881042 -0.14358196 0.0061262446 -0.19996133
000190 da 97 95 bd 65 6c 31 bc c0 07 8e 3c f6 a0 5b be
       -0.07304354 -0.010829066 0.01733768 -0.2144812
0001a0 43 14 be 3c 5c 05 93 3d da 88 c9 bd f6 00 d6 bb
       0.02320302 0.071787566 -0.098405555 -0.0065308763
0001b0 ea f7 c9 bc 7c be 90 bd a2 93 f7 bc fb 58 1e 3e
       -0.024654347 -0.07067582 -0.030221764 0.15463631
0001c0 57 59 29 be 42 9f 69 3d 0e 4d ac 3d fa fd 46 bd
       -0.16537987 0.057036646 0.084131345 -0.048582055
0001d0 47 85 4e 3e 20 71 5c 3e 91 5c 53 3d b8 96 f9 3d
       0.20168029 0.21527529 0.05160195 0.121869504
0001e0 89 23 1e 3e 5b 68 22 3d f7 fd 04 bd 70 da e5 3d
       0.15443243 0.039650302 -0.032468762 0.11223304
0001f0 7d 13 21 be 20 16 a6 3d bb 50 5d 3d 1a f3 92 bc
       -0.1573009 0.08109689 0.05403207 -0.017938185
000200 71 05 99 3c d3 a5 ea 3c e7 1f 12 3e a1 7e 54 be
       0.018679352 0.028643524 0.14269982 -0.2075143
000210 ff 92 ba 3d e7 5c 57 3d be c0 86 3c 2f b8 42 3e
       0.091100685 0.052578833 0.016449329 0.19015573
000220 5d fc 3d 3e 8e cb 1c 3e e2 81 9f bc 96 b2 50 bc
       0.185533 0.15312025 -0.019471113 -0.012737891
000230 58 aa 81 bd 86 b6 79 be 04 5d 8a bd 53 c1 37 3b
       -0.063313186 -0.24386033 -0.067560226 0.0028038814
000240 e6 fa f6 3d 3b fd 81 3d 5b 4a a6 bd cf 80 55 bd
       0.12059574 0.06347128 -0.08119651 -0.052124795
000250 e9 7a 3e bd 40 18 ee bc a5 12 ad 3d e5 01 b4 bd
       -0.046503935 -0.029064298 0.08450822 -0.08789424
000260 4b db 45 3e 75 ac f2 3d 07 b7 15 3d 50 22 0e 3d
       0.19321935 0.118493 0.0365515 0.03470069
000270 8f 8a b1 bc bb 4e d9 bc 74 aa db 3c db 13 92 3c
       -0.021672515 -0.0265268 0.026814677 0.017831733
000280 76 63 48 3e 50 60 96 bd d1 a1 1d be b7 72 39 bc
       0.19569191 -0.07342589 -0.1539376 -0.011318854
000290 fb 79 fd 3d 59 e9 78 bd 9e cc 5c 3e 6b 83 a4 bd
       0.123767816 -0.060769413 0.2156243 -0.080328785
0002a0 8b b0 a4 3d b5 05 5c bc 0b a7 3b be 74 56 d6 bd
       0.080414854 -0.013429095 -0.1832544 -0.104657084
0002b0 dd 65 74 3c 19 24 ea bd ff 25 14 be 88 9e 15 bd
       0.014916864 -0.11432666 -0.1446762 -0.03652814
0002c0 98 03 98 bd d3 93 bf 3b 69 9a 30 bd 74 db 50 3d
       -0.074225605 0.0058464794 -0.043116007 0.050990537
0002d0 2e a6 de 3c aa 2e b3 3d 72 5f e6 3d b5 ce bf bd
       0.02717885 0.08749135 0.112486735 -0.09365598
0002e0 88 3f 1f be 4e 35 2f bc 49 32 b4 3d 78 fa 3d 3e
       -0.15551579 -0.010693861 0.08798654 0.18552577
0002f0 c3 54 cd 3d c6 2b 10 be 41 c7 59 3d f5 7c 9b bc
       0.10025933 -0.14079198 0.05316854 -0.018980483
000300 04 33 14 bd 85 c1 69 bc b2 8d b8 be 75 1f 4a 3e
       -0.036181465 -0.01426733 -0.36045605 0.19738562
000310 21 ac e5 3c 5d 4f 01 be ce 5e 8d bc 9e 08 2b be
       0.028036179 -0.12627931 -0.01725712 -0.16702506
000320 e3 5f 62 3e 2c a6 fd 3d b7 ef c0 bc 46 70 f0 bd
       0.2210689 0.123852104 -0.023551805 -0.117401645
000330 4d cb e0 3d 0f d7 26 3d 42 e6 e5 3d b0 93 80 3e
       0.109762765 0.04073244 0.11225559 0.25112677
000340 c9 92 cb bd 89 31 47 3e 15 30 97 bc c9 2c 94 bc
       -0.099401064 0.1945249 -0.018455544 -0.018087761
000350 50 bc ce 3c 03 ac fd 3d d1 d6 23 bd 86 00 7c be
       0.025236279 0.12386324 -0.039999787 -0.24609575
000360 8b 44 83 3d 57 03 0f bd c0 a7 39 bd ed 20 2e 3d
       0.06409558 -0.034915294 -0.045325994 0.04251187
000370 05 b3 6e 3e 5c 3d ba 3b bb 9e 66 bd e8 55 1b 3e
       0.23310478 0.005683584 -0.05630372 0.1516949
000380 1f 35 f5 3b f6 60 d6 3c 08 46 85 3e 03 2d 37 3e
       0.007483139 0.026169281 0.26029992 0.17888264
000390 0d d0 6c 3d 30 63 e7 be 64 fc 3b be 54 17 73 3e
       0.0578156 -0.45192862 -0.18357998 0.23739368
0003a0 18 3e 8d 3d cd f2 68 3e 88 71 ad be f5 a1 10 be
       0.06896609 0.22748871 -0.3387568 -0.14124282
0003b0 3a 08 03 3b e2 59 3e 3c 8a 72 21 3e 91 73 93 bd
       0.0019993917 0.011618109 0.1576635 -0.07199777
0003c0 5d bc 04 bd 7d ef c9 3d ca 3f 1c be d3 ca 24 3e
       -0.0324062 0.09860132 -0.15258709 0.16092996
0003d0 31 49 86 be 6d 94 12 3d 9c 7c 5f bd 87 1f 15 3e
       -0.26227716 0.03578608 -0.054562196 0.14562808
0003e0 af be c6 bc 62 ea 94 be 7a 1c 97 3c 9d 9e aa bd
       -0.024260847 -0.2908507 0.018446196 -0.08331034
0003f0 b7 b0 a2 bd d2 6c 48 3e 0d aa bb bd 52 ea 07 3d
       -0.07943862 0.19572762 -0.09163294 0.03318245

lstm.weight_hh_l0 f4 [300, 75]
000000 2f c8 02 be 0d 03 fb 3d 19 7d 25 be d4 1f 16 3c
       -0.12771676 0.12256441 -0.16161002 0.009162862
000010 4c fa 72 3d 1b 7d 23 3e e6 01 bb bd 6c 6c 15 bd
       0.059320733 0.15965693 -0.091312215 -0.036480352
000020 0e a2 84 3e 6e d5 22 3e b9 8a bc 3d 75 06 ba be
       0.25904888 0.1590173 0.09206147 -0.3633305
000030 ee 33 dc 3e ba 68 21 be 7f 2f 8e 3d d0 49 a4 be
       0.4300837 -0.15762606 0.06942653 -0.32087564
000040 b9 67 4e be 40 d2 84 be 38 91 69 3d 97 0d 31 bc
       -0.20156755 -0.25941658 0.057023257 -0.010806463
000050 6b fc 4e 3d 8d 76 dc 3d 54 8e 63 be 6a a6 61 be
       0.050533693 0.10764799 -0.22222263 -0.22036138
000060 5a 8c ad 3d 16 93 7f 3e 04 54 bd 3e 0a d5 86 3e
       0.084740356 0.24958453 0.3697816 0.2633441
000070 96 a8 00 3d 19 32 7b 3e 6e a8 78 bd 3e b4 f3 3b
       0.031410776 0.2453083 -0.060707502 0.007437258
000080 43 c3 d4 3d 86 ec 4a bb bd dc f9 3d 65 5e ab bd
       0.10388806 -0.0030963733 0.122003056 -0.08367614
000090 32 46 b3 3d 27 17 9e 3c 8b 9a 9d be 5d 07 29 be
       0.08753623 0.01929815 -0.3078197 -0.16506715
0000a0 4a 42 cb bc fe 88 41 3d 62 6d 16 3e 1e aa 53 be
       -0.024811883 0.047249787 0.14690164 -0.20670363
0000b0 55 08 99 3d 5a a5 df ba 23 d9 a8 bc 0c 63 3a 3e
       0.07472292 -0.0017062828 -0.020611351 0.18201846
0000c0 50 c5 70 bd 22 b2 1a bd e1 cc 69 bd 08 bb d6 3d
       -0.058781922 -0.037767537 -0.057080153 0.10484892
0000d0 08 a5 12 3e ef 00 0c be 6d ea 8c be d0 e4 09 3e
       0.14320767 -0.13672231 -0.27522603 0.13466191
0000e0 23 3f 3b ba 24 a2 13 be 23 7d 02 be 3b 2c 4c be
       -0.0007142892 -0.1441732 -0.12743048 -0.19938748
0000f0 e9 4c 06 3d aa 30 ae 3e 87 0d 4c be 21 dd 30 be
       0.03278819 0.34021503 -0.19927035 -0.17271854
000100 a7 77 10 bd 28 68 f9 3d 98 a0 b6 bd c3 54 92 be
       -0.03527036 0.12178069 -0.089173496 -0.28580293
000110 31 78 2e 3e 9c f8 ab bd 36 6c 38 be 2a 16 a8 bd
       0.17038037 -0.08397028 -0.18010029 -0.082073525
000120 b5 33 b9 bd e0 af fe bc 5a fe d0 be 34 4f 5e be
       -0.090430655 -0.031089723 -0.40819055 -0.21709901
000130 74 d5 dc be 3f 00 5f be cb a4 d2 bd 61 08 e6 bd
       -0.43131602 -0.21777438 -0.10285338 -0.11232067
000140 f3 19 fa 3d e9 eb c6 bd 64 44 16 3e 6e 77 4a 3c
       0.12211981 -0.09712965 0.14674526 0.012357576
000150 83 c5 9f 3e 5d 79 88 bd a7 6c 16 3e 95 31 56 3d
       0.31205377 -0.06663773 0.14689885 0.05229338
000160 20 9e 23 bc 0c 31 a3 3e e0 94 91 3d e4 22 89 be
       -0.00998643 0.31873357 0.07108474 -0.26784432
000170 59 62 40 be d3 63 32 bc 84 79 19 3e 4b 28 37 3e
       -0.18787517 -0.010888058 0.14987761 0.17886464
000180 ef 43 0b 3e 94 15 e7 3d 57 85 9c 3d 79 50 0f bd
       0.13600133 0.112834126 0.0764262 -0.034988854
000190 2f a0 7a bc d1 60 37 bd c9 33 1c 3e ed 8b a2 bd
       -0.01529698 -0.044770066 0.1525413 -0.07936845
0001a0 61 dc ac bd f4 53 18 3e 66 e9 4a 3d 40 99 1a be
       -0.084404714 0.14875776 0.049538992 -0.15097523
0001b0 21 e9 2d 3e dd a5 8a bd aa 21 22 3e 19 e0 44 3e
       0.16983463 -0.06769917 0.15833154 0.19226111
0001c0 36 e5 19 3e 75 7d a3 bd 5b b3 af bd 0d 4a 80 be
       0.15028843 -0.079829134 -0.08579131 -0.25056496
0001d0 9b f6 8d bd 5a 8e 28 be 4b f1 99 be ad e9 dd bd
       -0.06931802 -0.16460553 -0.30066904 -0.10835586
0001e0 85 35 d4 3c 8c 1e b5 bc e8 6e a1 bd 54 d0 04 3f
       0.025904426 -0.022109292 -0.07882482 0.51880383
0001f0 49 41 f1 bd e3 06 8f bd 85 90 4f be 6b e8 22 be
       -0.1178003 -0.069837354 -0.20269974 -0.15908973
000200 90 25 ad 3d fc 80 82 3c 0f 31 bf bc 49 c8 70 3d
       0.0845443 0.015930645 -0.023338823 0.058784757
000210 79 2b a7 be 8b 3f b0 3c 43 2d 03 be 50 50 04 3d
       -0.32650355 0.021514675 -0.12810235 0.032303154
000220 5e 4c c2 3d e3 e6 a7 bd 59 6c 20 bf 3b 38 f6 bc
       0.09487222 -0.08198335 -0.62665325 -0.03005611
000230 ba 1e 8b 3e c5 e2 7a 3e 4a 65 7a bc f9 52 24 be
       0.2717188 0.24500568 -0.015282938 -0.16047277
000240 57 2b 13 be 2c 5d 59 bc ef 97 26 3e cf 0e 2b be
       -0.14372002 -0.013266843 0.16268896 -0.16704868
000250 7a 72 94 3e e0 9c 0c 3e 87 23 76 3b 8f 74 a7 bd
       0.2899359 0.13731718 0.0037557797 -0.08176529
000260 19 d2 26 be 14 91 81 3d eb d0 f1 bd 59 a4 aa 3d
       -0.16291083 0.063264996 -0.11807426 0.08332128
000270 c3 a7 d5 3d bc e4 df 3d 1b 1e 9c 3e 81 ab db 3e
       0.10432389 0.109322995 0.3049172 0.42904285
000280 70 71 7e 3d e2 ee 04 be b0 aa 3d bc a7 09 0b be
       0.0621199 -0.12981752 -0.01157634 -0.13577901
000290 a0 c3 80 bc bd de af be 89 de 3b bd 4f 17 37 be
       -0.015718281 -0.34349623 -0.045866523 -0.17879985
0002a0 ab 6c 1d be ce ab 16 3e 97 69 d0 bc ec 5f 5f 3e
       -0.15373485 0.14713976 -0.025440974 0.21813935
0002b0 bd ad e3 bc df 61 23 be 7f fc 37 3d c4 90 1d 3d
       -0.027792806 -0.15955304 0.044918533 0.038468137
0002c0 1d d2 3b 3d 07 2b 3b bd fd 70 bc bd 4b 8f 56 3e
       0.045854677 -0.04569533 -0.09201238 0.209531
0002d0 08 2a 73 bb 17 02 c9 bd d4 4a a1 3c 03 45 06 bc
       -0.003710391 -0.09814852 0.019689001 -0.008195165
0002e0 72 a7 80 be 02 57 3a be 28 1f 00 be bc 55 1b bc
       -0.2512775 -0.18197253 -0.12511885 -0.00948089
0002f0 80 7d a8 3d 13 18 02 3c 20 95 2d be fb b3 29 3d
       0.08227062 0.00794031 -0.16951418 0.04143141
000300 ad 8f fb bd 63 17 dd bd be 09 f7 bc 7f 76 2e 3e
       -0.12283263 -0.10795476 -0.030156013 0.1703739
000310 2e ed f0 3d 29 4a 07 be 85 bf a2 3e f2 54 ce 3b
       0.117639884 -0.13211884 0.31786743 0.0062967474
000320 3d 82 13 be 3b 61 fa 3d 56 8a 69 bd a0 ba a8 bd
       -0.1440515 0.122255765 -0.057016693 -0.08238721
000330 e9 9e 09 be 17 13 f2 bd f3 cd 71 3e 7c 97 2c be
       -0.13439526 -0.11820047 0.2361372 -0.16854662
000340 7a 6d a7 bd f7 a7 db bd 10 e4 0a 3c 91 4e 0d 3d
       -0.08175178 -0.10725396 0.008477226 0.034498755
000350 d5 16 5b be 18 22 f2 be 2b 63 07 3e 9f 2b 80 3e
       -0.21395428 -0.47291636 0.13221423 0.2503328
000360 c4 88 9d bc 00 55 1e bd f6 c5 43 be 2d be 6d be
       -0.019230254 -0.03865528 -0.19118485 -0.23217078
000370 c6 54 11 be 35 c3 3b be 4f 75 3a be d1 ff 11 3e
       -0.14192495 -0.18336184 -0.18208812 0.14257742
000380 b8 e0 20 bd 0c 48 fb bc 2c a2 8a 3d d4 9c 28 bc
       -0.03927681 -0.030674003 0.06769213 -0.010291297
000390 c5 cd 14 bd 97 62 df 3d 58 17 f3 3c a1 d7 6a bd
       -0.03632905 0.109074764 0.029674217 -0.057334546
0003a0 f6 6a 37 bc cd 33 ac bc 00 58 94 3d 51 49 1b be
       -0.011194935 -0.021020794 0.07243347 -0.15164687
0003b0 37 36 26 3e 14 3d 1c 3d 8e ba 10 3e a3 61 f2 bd
       0.16231619 0.038144186 0.14133665 -0.11835029
0003c0 dd 7b de 3d 20 0c 24 3e ce 1f a4 bd 87 94 2a bd
       0.10863469 0.1602025 -0.08013879 -0.041645553
0003d0 28 cb 73 3e 5a 30 2c 3e 62 75 01 be da 4a 80 3e
       0.23807967 0.1681532 -0.12642434 0.25057107
0003e0 d2 59 95 be 75 8f 86 be 92 c8 56 3e e0 4c d2 bd
       -0.2917009 -0.26281324 0.20974949 -0.10268569
0003f0 a7 fc 5a bd 3a fc ce bd 23 b3 29 bd 15 2d 60 3e
       -0.053463604 -0.10106702 -0.041430604 0.21892197

lstm.bias_ih_l0 f4 [300]
000000 27 a8 06 bd 3f c9 88 bc a1 08 16 be 8d c9 bd bd
       -0.032875206 -0.016697524 -0.14651729 -0.092669584
000010 93 d9 75 bd de 11 76 3c de 8e 41 3e ce 5e 4f 3e
       -0.060021948 0.015018908 0.18902156 0.20251009
000020 44 f7 41 bd c5 e4 19 be 30 a9 73 3d 37 3d b1 3d
       -0.04735495 -0.15028675 0.05948752 0.08654254
000030 e6 3e 04 be c3 7c 83 be 0f dc d2 3d bd b7 17 3d
       -0.12914619 -0.25681123 0.10295879 0.03704046
000040 2f 15 59 3e 34 ae de bd a1 4a e4 3d 36 9e 42 3c
       0.21199487 -0.1087307 0.11147047 0.011878541
000050 39 25 1d be 64 52 1f 3e a0 66 66 3e 65 02 80 be
       -0.1534623 0.15558773 0.22500086 -0.25001827
000060 12 cc 2c 3d ff 4e b6 3d 9f 8f 2e be 77 43 4c be
       0.042186804 0.08901786 -0.17046975 -0.19947611
000070 b1 24 b1 3d 20 f5 3f 3e 7d a5 02 3e eb cc 57 bd
       0.086495765 0.18745852 0.12758441 -0.05268566
000080 d9 7a 42 be 44 d7 44 3e 35 df a6 3d a3 84 a3 3d
       -0.18992175 0.19222742 0.08148042 0.07984283
000090 50 d4 a2 3d db 3f 5d be 73 4f f0 3c ce b3 46 be
       0.07950652 -0.2160639 0.02933476 -0.19404528
0000a0 90 72 79 be 92 d5 60 3d 0c 40 9b 3d 20 fb a2 bc
       -0.24360108 0.054891177 0.07580575 -0.019895136
0000b0 56 20 3d 3e af 92 b3 bd 09 84 e3 bc c3 45 f5 3d
       0.18469366 -0.08768212 -0.02777292 0.119761966
0000c0 9e e7 6f 3d d1 b4 49 bc 6e cc 8c bb a2 34 42 bd
       0.058570497 -0.012311176 -0.004296831 -0.047413476
0000d0 78 02 10 be 89 5d 8b 3e 4e fb e1 3c 16 35 0f bc
       -0.14063442 0.272198 0.027585652 -0.008740684
0000e0 8f ff 47 3d 6e ee 26 be 8d d1 89 be 9c b2 e9 3d
       0.048827704 -0.16301891 -0.26917687 0.1141102
0000f0 83 b6 db 3d 9c b0 9a bd 94 33 56 3d 3b 3c 44 3d
       0.10728171 -0.07553217 0.052295282 0.047909003
000100 cb c3 07 3e f3 20 a4 bd ba 55 87 bd 0b 40 35 be
       0.13258283 -0.08014097 -0.06608148 -0.17700212
000110 83 2f 20 bc 36 a6 da bd ff 19 86 3d c0 7f 81 3d
       -0.009776953 -0.106762335 0.06547927 0.063231945
000120 55 72 99 bd 41 c0 6c be 58 c9 f0 bc 86 31 20 3d
       -0.0749251 -0.23120214 -0.029392883 0.03910973
000130 96 ca 5e 3e 75 ee 7d bd 9e 94 e1 bc 37 89 7b bd
       0.21756968 -0.06199499 -0.027536687 -0.061410155
000140 b4 31 b4 3d 21 8c 11 3e 53 85 a3 3d 80 70 2b 3e
       0.087985426 0.14213611 0.07984414 0.16742134
000150 08 d5 1b 3e a8 39 58 bd b9 3e ef 3d 27 92 38 be
       0.15217984 -0.05278936 0.11681885 -0.18024503
000160 7f 41 0d be f8 0e 32 be 3d 52 91 3d d2 15 4e 3e
       -0.13794516 -0.17388523 0.07095764 0.20125511
000170 e2 6e 48 3d 4e 2f 75 3c fb 1b 3d 3e 54 97 61 bd
       0.04893387 0.014964892 0.18467705 -0.05507596
000180 ce ea 99 3d 80 a0 6d 3b b7 3e 33 be d4 77 1e 3e
       0.075154886 0.0036258996 -0.17504393 0.15475398
000190 86 9f c6 bc bb ea a1 3d 34 ca 98 be aa f0 0a 3e
       -0.024245989 0.079060994 -0.2984177 0.13568369
0001a0 9b dd 70 3e f4 da d6 bc 7c 3d 08 be ea 31 8f 3c
       0.23522036 -0.026227452 -0.13304704 0.017479856
0001b0 f2 b5 29 bc 34 f6 08 3e 62 c2 c9 3d 59 fe af bd
       -0.010358321 0.13375169 0.09851529 -0.08593435
0001c0 3d 00 06 be 48 cf 7a be 84 81 f4 bd ab 74 f2 bd
       -0.13086028 -0.24493134 -0.11938766 -0.11838659
0001d0 af 4b af bd df 9b f8 3c 7d ca 83 bd 74 9a 46 3e
       -0.085593574 0.030347763 -0.06435106 0.19394857
0001e0 a3 27 40 3d 20 3d 65 3e e7 37 ce bc f1 e6 38 be
       0.0469128 0.22386599 -0.02517314 -0.18056847
0001f0 ad c6 5b 3c 48 94 95 3d 29 7b 4b 3e 02 9c 73 be
       0.013414067 0.07303673 0.198712 -0.23789981
000200 17 fa 01 be da dd 80 3d db a4 61 bc 88 8d 11 bc
       -0.12693058 0.06292315 -0.013772215 -0.008883841
000210 64 8d 45 be cb fe ac bd 03 9e 01 3e dd 08 08 3e
       -0.19292217 -0.084470354 0.12657933 0.13284631
000220 de b2 46 be 7b b9 8a bd ea 7b 2b bc e3 23 45 bd
       -0.1940417 -0.06773659 -0.010466555 -0.048129927
000230 94 55 14 be 0f 69 fb 3c 5f 49 72 be f5 e5 16 be
       -0.1448577 0.030689744 -0.23660801 -0.14736159
000240 f4 ef af 3d 82 a0 9c 3d 2d 5f 45 be da d1 2d 3e
       0.08590689 0.07647802 -0.19274588 0.16974583
000250 43 9f b3 bd 54 83 27 be c2 4d 4a bc b2 3b 4b 3e
       -0.08770611 -0.16358691 -0.0123476405 0.1984699
000260 ea e7 ff 3b 5b b9 bd 3d 99 09 84 bd 7b 7d 34 3e
       0.0078096287 0.092638694 -0.06447143 0.17625992
000270 a0 c1 ff bd 13 43 52 be 25 53 eb 3b 7f a3 06 bd
       -0.12488103 -0.205334 0.0071815425 -0.032870766
000280 3a 23 16 be 42 59 8a be d5 38 2e 3e b4 e0 e1 bd
       -0.14661875 -0.27021223 0.17013867 -0.11029187
000290 bc 46 04 3e 04 ef bf 3d 9d d6 a5 be a8 76 30 be
       0.12917608 0.093717605 -0.323903 -0.17232764
0002a0 e3 5a 8c 3e 72 a6 8e be 26 e6 a8 bc af f7 14 be
       0.2741309 -0.27861363 -0.020617556 -0.14547609
0002b0 18 4b 1d be 0e c4 51 be 40 9c b5 3d 52 7a d5 3d
       -0.15360677 -0.20484945 0.08867693 0.104237214
0002c0 f1 98 22 3e 7e 8f a9 3d e5 8e c8 3d f3 5b 19 be
       0.15878655 0.08279322 0.0979288 -0.14976482
0002d0 2f 05 f7 bd 45 29 91 3d 52 42 c6 3c c7 4f 2e 3e
       -0.120615356 0.0708795 0.024201546 0.1702262
0002e0 56 2a b6 3e 8d ee 0b 3e 61 23 e3 3c 4d a0 d5 3d
       0.35579175 0.13665219 0.02772683 0.104309656
0002f0 fd 43 87 bd 6c e6 ad 3d 83 a1 02 3e 30 c8 ab 3b
       -0.066047646 0.08491215 0.12756924 0.00524237
000300 f4 fa 86 3d 6d 34 24 be dd 4c d7 3d 4b 1c ff 3d
       0.06590834 -0.16035624 0.105127074 0.12456568
000310 7b 26 89 3e 40 38 b1 3d 50 0d 16 be e1 d5 87 be
       0.2678717 0.08653307 -0.14653516 -0.26530364
000320 64 b6 0d 3e 57 83 c0 3d 7a 15 59 bd ba 6f 13 3d
       0.13839108 0.09400051 -0.052998997 0.035995223
000330 7f 53 a4 bd 2a 26 dd bc 03 e1 18 3d 08 65 3e be
       -0.08023738 -0.026995737 0.037323963 -0.18593228
000340 94 6d 1b be d5 44 7d be 96 f9 0e 3e 52 ad 47 3e
       -0.1517852 -0.24733289 0.13962397 0.1949971
000350 42 25 66 be b9 21 de bd ec 01 db 3d 73 65 8b 3e
       -0.2247515 -0.10846276 0.10693726 0.27225837
000360 4c 00 20 3e d3 73 68 be e7 b0 74 3c 28 bb 2e 3e
       0.15625113 -0.22700433 0.014934755 0.17063582
000370 95 5b 49 be 21 fa 64 3d 4e 19 b0 bd 45 ba 25 bb
       -0.19663842 0.055902604 -0.085985765 -0.0025288027
000380 be 42 16 be de 99 3b bd 3a ca b8 3d 51 62 2e be
       -0.14673898 -0.045801036 0.09022947 -0.17029692
000390 67 f2 9c bd cb de 34 3d aa e7 2d be 35 06 ef bc
       -0.07663422 0.044157784 -0.16982904 -0.029177764
0003a0 53 9f 08 3d 5b 24 8a be d3 44 71 be 32 2a 12 bc
       0.03335507 -0.26980862 -0.2356141 -0.008921193
0003b0 79 f9 e9 bd e9 7f 7b be c5 cc 9d be 54 30 f2 3c
       -0.11424536 -0.24560513 -0.3082029 0.02956406
0003c0 f5 d3 28 3c cf e2 9d bd b4 7d b1 bd 17 5f 5e be
       0.010304441 -0.07709276 -0.08666554 -0.21715961
0003d0 0e 77 45 bc 89 2a 99 be 0f 01 bf 3c 99 18 2b be
       -0.012052311 -0.29915264 0.023315934 -0.16708602
0003e0 6a ae 2f be c4 76 d4 bd db 11 59 bd 37 9b e7 bd
       -0.17156377 -0.10374215 -0.052995544 -0.11308902
0003f0 22 fb 5c be fe fb e4 bc 7c 57 13 3d 6f 09 47 bd
       -0.21580175 -0.02795219 0.035972103 -0.04859298

lstm.bias_hh_l0 f4 [300]
000000 30 77 11 3e 07 aa d8 bd 98 f3 50 3d df e0 e7 bc
       0.14205623 -0.10579305 0.05101356 -0.02830547
000010 80 ea 85 bd ac 05 75 bc 8d 75 a1 3d 58 eb 3d 3e
       -0.06538868 -0.014954966 0.07883749 0.18546808
000020 cf 89 96 3d 22 f0 d0 3c 02 c8 53 3d 67 cb b4 3d
       0.07350504 0.02550513 0.051704414 0.088278584
000030 02 26 1d be 9d 88 62 be 86 c5 13 3e 43 e1 7d bd
       -0.1534653 -0.22122426 0.14430818 -0.061982404
000040 1f 70 49 3e d3 dc 2b 3c e7 d2 b1 3d 61 0f 0a 3c
       0.19671677 0.01048966 0.086828046 0.008426518
000050 df 04 e4 bd 46 29 16 3c 24 2b 41 3e c9 0e ea bd
       -0.111337416 0.009165114 0.18864113 -0.11428601
000060 71 0e 68 3e d1 6e e4 3d e2 41 25 be ee 85 eb bd
       0.22661759 0.11153949 -0.16138414 -0.115001544
000070 4e eb 4e 3d 35 f7 05 3e 0c c6 87 ba a7 97 20 be
       0.050517373 0.13082583 -0.0010358705 -0.15682851
000080 7b 0e 1d be 62 f9 38 3e 61 6d d4 3c 57 40 b9 3c
       -0.15337555 0.18063882 0.025931062 0.022613687
000090 51 2c d2 bd 6e 8b 9f bd f6 2e 86 3d 56 31 d1 bd
       -0.10262359 -0.07790266 0.06551926 -0.10214488
0000a0 dd b2 b4 bd 04 a9 27 bd 7e 89 af bd 6f ad 5b 3d
       -0.08823178 -0.04093267 -0.085711464 0.053632196
0000b0 e6 3b 30 3e 39 b6 74 3c 80 e8 05 bb 1f 99 04 bd
       0.1721035 0.014936023 -0.002043277 -0.03237259
0000c0 f0 20 c4 3d 1e a9 e1 bc cd d4 6f bd f7 2c f6 bd
       0.09576595 -0.027546462 -0.058552552 -0.12020295
0000d0 0b a9 73 3b a8 f8 87 3e b4 d9 79 bd 07 07 c7 3d
       0.0037179615 0.26556897 -0.060998634 0.09718137
0000e0 48 8c 08 3c fb 77 af bb dc e0 b1 be c8 fd b4 3d
       0.008334227 -0.005354879 -0.34741867 0.088374674
0000f0 05 c2 46 3d 44 a6 7e be 31 6e 2b 3d b9 76 8a 3d
       0.048524875 -0.24868113 0.041853134 0.06760926
000100 ac 28 0d bd 67 5d 0f be 18 f8 86 3d b3 fd 83 be
       -0.034462616 -0.14000474 0.06590289 -0.25779495
000110 f8 45 ad 3d 8a 38 9c 3d b9 72 9b 3d 1d 23 2c 3e
       0.08460611 0.076279715 0.07590241 0.1681027
000120 9b 66 71 bc e0 1f 96 be da e4 bc bc 27 42 1d be
       -0.014733936 -0.29321194 -0.023058344 -0.15357266
000130 3a 93 00 3e 0c f0 8c bc f0 a7 83 bd 45 9e 9c bd
       0.12556162 -0.017204307 -0.06428516 -0.07647375
000140 6e d8 79 b9 d8 c3 1f 3c fb a9 22 3c 5e 9a 76 3e
       -0.00023827117 0.009751283 0.009928222 0.24082324
000150 5c 8c 1d 3e d0 f2 51 bd 3d fd 3f 3e dd c1 2c be
       0.15385574 -0.051256955 0.18748946 -0.16870828
000160 b5 68 4f 3c b4 e7 09 be ae ad 25 bd 65 43 7d 3e
       0.012659241 -0.13467294 -0.040448837 0.2473274
000170 87 2c c0 bd b9 7e da bd 0b 5d 49 3e ee 40 60 3d
       -0.09383493 -0.10668702 0.196644 0.05474942
000180 fb 23 fd 3d 35 21 f6 3d 31 54 98 bd a8 27 e8 3d
       0.12360378 0.120180525 -0.07437933 0.11335689
000190 e6 10 cb 3b 2f ee ca 3a 82 a4 7e be 05 c0 9b 3c
       0.006197083 0.0015482361 -0.24867442 0.01901246
0001a0 ed ce 29 3e 2a 5a cb 3d 36 6f 42 bd 0c fc 87 3d
       0.16582842 0.09929307 -0.04746934 0.06639871
0001b0 48 4f 2f 3e be ae 16 3e d2 92 b1 bd 1b 0e fc bd
       0.17120087 0.14715096 -0.08670582 -0.12307378
0001c0 dd 1b e9 bd 8e ca 65 be 7d c9 60 3d d0 44 95 3d
       -0.113822676 -0.2244055 0.054879654 0.072885156
0001d0 16 97 05 be 24 12 f3 3c 17 62 f0 bc 01 be 8f 3e
       -0.13045916 0.029671736 -0.029343648 0.2807465
0001e0 d4 ad d1 bd 08 2b a7 3d be 51 a4 3d 60 e7 08 bd
       -0.10238233 0.081625044 0.080234036 -0.03342378
0001f0 fc 9b 35 3e 66 4e 94 bd 11 4c 56 3e 29 3c a9 be
       0.17735285 -0.07241516 0.20927455 -0.3305371
000200 53 cb 2a be 63 73 77 3e 19 7a 91 3b 4e 73 44 3d
       -0.16679125 0.2416511 0.004439604 0.047961526
000210 fe bd b8 bd d1 8a 4e be 14 38 02 3e 13 0b 22 3e
       -0.09020613 -0.20170142 0.12716705 0.15824537
000220 41 fa 92 be ca 18 b6 bc 95 84 a8 3d e1 91 1f be
       -0.28706554 -0.022228617 0.08228413 -0.15582992
000230 ae 30 09 bd 35 c7 56 3d af 32 12 bc f5 26 13 be
       -0.03349369 0.052436072 -0.008923217 -0.1437033
000240 52 14 cf 3d fd 28 9d 3c 18 2f 96 bc 18 83 11 3d
       0.10111298 0.019184584 -0.018333003 0.03552541
000250 3f 1f 57 bd f3 cc 1e be 31 8a 09 3d b2 64 00 3e
       -0.052520033 -0.1550787 0.033579055 0.12538412
000260 f0 b3 bb bd 0d db 76 bd c9 65 53 be 91 32 43 3e
       -0.0916518 -0.060267497 -0.20644297 0.19062258
000270 2c 7e 1f be 09 76 22 be a3 bb 0f be e8 d2 9c bd
       -0.15575475 -0.1586534 -0.14036421 -0.07657415
000280 96 87 d0 bd e4 39 96 be 73 19 0a 3e e7 3c 18 bd
       -0.10182111 -0.29341042 0.1348627 -0.037167456
000290 c8 c5 81 3e 28 19 f6 3d 89 b7 9e be e4 85 5d be
       0.25346208 0.12016517 -0.309994 -0.21633106
0002a0 94 7c 9a 3e 71 7e 2b be 36 7e b4 bd a8 af 65 bd
       0.3017317 -0.16747452 -0.08813135 -0.056075722
0002b0 84 87 c5 bc 44 79 21 be 6c 7e 97 3e 16 53 d6 3d
       -0.02411247 -0.15768915 0.2958864 0.10465066
0002c0 1b 9b 4a 3e 1d 0a 5a 3d ec 6c 81 3e 27 35 de bd
       0.1978573 0.0532323 0.25278413 -0.10849982
0002d0 44 cc 16 bd a5 2e b5 3d 1a b3 a7 3c 63 6b a0 3e
       -0.036815897 0.08846787 0.020471144 0.3133193
0002e0 26 ec 80 3e f1 03 e2 3d 1d 5f 2e bd 3f 67 c1 3c
       0.25180167 0.11035908 -0.042571176 0.023608802
0002f0 74 38 e6 bc 16 31 df 3c 0a bb e2 3d e0 a5 80 3d
       -0.02810309 0.027245086 0.11070831 0.06281638
000300 0a 6b 43 bd 7f b5 8a be e0 ef 52 3d f8 0e 91 3d
       -0.047709502 -0.27091596 0.051498294 0.07082933
000310 97 45 84 3e 87 9b 6b 3c 47 d3 52 bd 5c 3b 9e be
       0.25834343 0.014380342 -0.05147102 -0.30904663
000320 dd 51 57 3e c0 d3 0b 3d 21 ca 43 bd 12 0f ef 3b
       0.21027322 0.034137487 -0.047800187 0.0072954977
000330 c9 1f 73 be c0 44 99 3c fb fe 2b 3e 14 c2 4f be
       -0.23742594 0.01870954 0.16796486 -0.20288879
000340 5b 4c ed bc b5 a4 8f be ea 0b 9d 3e 7a c6 00 3e
       -0.028967073 -0.2805535 0.30673152 0.12575713
000350 8c 3b 52 be 50 e7 59 bd 9e d0 81 bd 31 f9 91 3e
       -0.20530528 -0.053199112 -0.06338619 0.2851043
000360 12 b2 4a 3e 3f 81 8b be b6 b6 f5 3c 65 fd 12 3e
       0.19794491 -0.27247044 0.02999435 0.14354475
000370 7b c1 55 be d9 10 a8 3d fa 63 2f bd ee 9f 8e 3d
       -0.20874588 0.082063384 -0.042819954 0.06964098
000380 38 38 64 bd c2 86 2e 3d 02 83 fa bd 36 b3 83 be
       -0.055717677 0.042608984 -0.12232019 -0.25722665
000390 be 0e 96 3d ba c7 fa 3d c9 c1 5f be 50 bb 05 3d
       0.073270306 0.12245126 -0.21851267 0.03264934
0003a0 c8 bf 86 3c 2c 6c 68 be 22 63 c6 bd 31 09 09 be
       0.01644887 -0.22697514 -0.09686877 -0.13382412
0003b0 a0 4a 3d be f7 2d 0c be ea 44 b2 bd 3e 3a b8 bc
       -0.18485498 -0.13689409 -0.087045506 -0.02248871
0003c0 f7 a8 b5 3d bc da e4 bd 10 39 10 be 4a fc 8b be
       0.08870118 -0.11174533 -0.14084268 -0.2734092
0003d0 5c 29 41 bb 00 c9 6b be 7b 08 40 3b 8b c1 0d be
       -0.0029474115 -0.23025894 0.002930193 -0.13843362
0003e0 58 e8 97 be 48 be cb bd 7f 23 6b be 31 4e 3a be
       -0.29669452 -0.09948403 -0.2296276 -0.1819389
0003f0 82 ce 90 be 97 29 87 bd 99 1d 49 bd f4 09 8a 3d
       -0.28282553 -0.065997295 -0.049100492 0.0674018

lstm.weight_ih_l1 f4 [300, 75]
000000 4a 50 cc bd c6 ad 7e 3d 59 aa ee 3d 38 4e 21 bd
       -0.099762514 0.062177442 0.11653585 -0.039381236
000010 70 0a 64 bb 2a 6f e5 bc c3 23 21 3c 9e 8a 06 3d
       -0.003479626 -0.028007109 0.009835186 0.03284704
000020 7d 89 b7 bd 9a f8 14 3d 62 b2 0b 3c da 6f 00 3e
       -0.08961771 0.036369897 0.0085264165 0.12542668
000030 98 bf 19 bc b5 c1 1a 3d 0a f1 5f bd 92 ff 1e 3c
       -0.009384058 0.03778239 -0.054673232 0.009704487
000040 f9 ab 87 3b 50 2e dd bc 33 19 57 3d 30 90 55 3d
       0.004140374 -0.026999623 0.052514266 0.05213946
000050 8f 2c 46 bd b5 d5 81 3c 71 ef 23 3d 23 7c 09 be
       -0.048382338 0.015848974 0.04002327 -0.1342626
000060 b9 7c 7e 3c b6 2e 26 bd 53 a7 0d bd ad bd 0d bd
       0.015532666 -0.04057189 -0.0345834 -0.034604717
000070 4d 36 65 bb 34 7a ee 3c 7a a4 be bc 0f bd 91 bd
       -0.0034974993 0.029111005 -0.023271788 -0.07116138
000080 15 73 53 bd b3 0c b2 3d c9 be 0d 3d bc 4a 99 3d
       -0.051623423 0.086938284 0.034605775 0.074849576
000090 a7 56 e9 3d 19 7b a9 bb 23 eb ed 3d 95 6a b9 bd
       0.11393481 -0.005172145 0.116171144 -0.09053532
0000a0 2d 01 c1 bd e3 1b a9 bb 26 5b 8a 3d 22 aa 80 3c
       -0.094240524 -0.005160795 0.067556664 0.015706126
0000b0 58 fd d5 3d 41 24 06 bd 7e f4 1f bd 15 70 05 3d
       0.10448712 -0.03274942 -0.039051525 0.032577593
0000c0 63 29 c9 3d fc 1b 99 bd f8 45 a8 3d cb 2c 65 bd
       0.09822347 -0.07476041 0.082164705 -0.05595092
0000d0 83 db f9 3d 81 df 88 3d ef 51 89 3b 45 08 9b 3c
       0.12200072 0.06683255 0.0041906754 0.018924842
0000e0 06 cf a1 3c b7 74 35 bd 4b 11 43 3d 8e 34 af 3d
       0.019752037 -0.04430076 0.047623914 0.08554946
0000f0 b7 c6 da bc 3d 74 cf 3d e0 df 98 3b c2 3b 8d 3d
       -0.026706083 0.101295926 0.00466536 0.068961635
000100 9b 08 b4 bd 66 05 96 3d a5 21 75 bd f6 14 59 3d
       -0.08790704 0.073252484 -0.05984654 0.052998506
000110 48 fb ac 3d f3 e6 17 be a1 75 9e bd 67 79 92 3d
       0.084463656 -0.14834194 -0.0773728 0.07152062
000120 21 a1 c4 3d 31 79 47 3c e2 11 79 b9 a1 b4 7a bd
       0.096010454 0.01217489 -0.00023753152 -0.061207417
000130 66 a9 13 3d 18 3a 1d bc a9 6e 95 3d e8 85 83 3d
       0.036050223 -0.00959637 0.072964974 0.06422025
000140 35 2a 91 bd 75 58 a2 bd 43 1f 9d bc 66 cc 0a be
       -0.070881285 -0.07927028 -0.019179946 -0.13554534
000150 8a d5 85 3d 73 10 34 be f8 52 62 3d ae 26 e0 3c
       0.0653487 -0.175844 0.055254906 0.027362194
000160 f0 f8 95 3d ed 95 5e bd b6 f1 83 bd 64 0c 8a 3d
       0.07322872 -0.0543422 -0.06442587 0.067406446
000170 b9 b0 94 3d 8c a2 e3 b9 5a 7b b6 bd 53 37 65 3d
       0.0726027 -0.0004341792 -0.08910246 0.055960964
000180 fa 55 0a 3e 87 87 4e 3c 13 bf 5e bc 09 79 30 3e
       0.1350936 0.012605554 -0.01359536 0.17233671
000190 35 fa a5 bb 78 5e 69 3d 3f 23 c0 bd 7b 51 c5 3c
       -0.0050652274 0.056974858 -0.09381723 0.024086704
0001a0 9f 72 3e bd d5 61 58 3c 9a fb 97 3c 06 b1 89 bd
       -0.04649603 0.013206919 0.01855259 -0.06723218
0001b0 81 07 14 3e 22 33 d2 bc 2f 76 fb bc 87 d8 12 3e
       0.14455988 -0.025659148 -0.030696003 0.14340411
0001c0 93 f6 27 3e ef e4 47 3d 80 3f eb 3c 35 1a 4f 3c
       0.16402654 0.048802312 0.028716803 0.012640526
0001d0 a1 94 11 bd 4c 5d 23 3d 79 6d 19 3d 55 71 15 bc
       -0.035542134 0.039883897 0.037457917 -0.009121259
0001e0 3c ad 2e 3d 5d 7e 04 b8 7a 9d d0 3c f4 46 d1 3d
       0.042645678 -3.1588937e-05 0.025465716 0.10218611
0001f0 d0 77 e2 bd 48 50 89 bb a1 bd ab bc 87 3a 49 3d
       -0.11058009 -0.0041904785 -0.020964446 0.04912808
000200 f3 d2 96 3c d2 53 68 3d b8 2c af bc 3d 65 d6 bd
       0.018411135 0.056720562 -0.021383628 -0.104685284
000210 d5 65 d5 3d 77 f9 14 3e 3d d1 00 3e 21 eb 98 3d
       0.104198135 0.14548288 0.12579818 0.07466722
000220 6d 4e b2 3c f7 ea db bd 4d cb c2 3d 64 bc 14 bd
       0.021765912 -0.10738175 0.09511433 -0.036312476
000230 64 91 70 bd e6 73 28 3d d3 0a fe 3d 5b 96 03 3e
       -0.058732405 0.041126154 0.12404408 0.12850325
000240 d3 c6 03 bd d2 4a 58 bd f1 a3 ba 3c 4e dc ae bd
       -0.032172035 -0.05280573 0.022783251 -0.085381135
000250 aa 57 c8 bc 49 c7 ef 3c 3d 01 9d bc b9 6a 7c bd
       -0.024455864 0.029269831 -0.01916563 -0.061625216
000260 2e ba 33 3d eb 8e 78 bc f1 3c 7d 3d 98 01 56 3d
       0.043878727 -0.015170793 0.061825696 0.052247614
000270 99 69 32 3c 2e f6 8f 3d fc a0 23 be b0 58 33 bd
       0.010889434 0.07029377 -0.1597938 -0.04378575
000280 2c 20 fa 3d b5 70 c0 bc 29 be a9 3e 3d 4e 63 be
       0.122131675 -0.023491243 0.33152893 -0.22197814
000290 34 e3 ca bc 55 10 ba be ce 6f 80 bd 2c 11 d5 bd
       -0.024766542 -0.36340585 -0.06271325 -0.10403666
0002a0 31 73 2b 3d 9b e0 ac bd 0f 93 74 bd f9 2d 97 3e
       0.041857902 -0.084412776 -0.05971056 0.29527262
0002b0 3e 03 d8 bd ce 02 7c 3d 85 d1 3a 3e 99 66 1d bd
       -0.105474934 0.061526112 0.18243988 -0.038427923
0002c0 31 36 93 3e 15 78 50 3e 66 3d 83 3e 09 ba 53 bc
       0.28752282 0.20358308 0.2563278 -0.012922772
0002d0 18 5e 88 3d f6 41 01 be a0 65 da 3d e9 f9 12 3c
       0.06658572 -0.12622818 0.10663915 0.008970716
0002e0 bb 96 2d 3e 8e a0 5a bc 9d db 5f be 7d 16 83 3e
       0.1695203 -0.013343943 -0.2186112 0.25603095
0002f0 b8 cc 11 3e 5c f5 42 3e b3 af 80 bd b3 fa 83 bc
       0.1423825 0.1903891 -0.06283512 -0.016110754
000300 d1 a4 1e 3e e0 dc e2 bd 71 92 cb 3d 4a ed 44 be
       0.1549256 -0.11077285 0.09940041 -0.19231144
000310 cb b2 25 3d 2d ab 23 3e 4d bb 25 bd cc 55 bf bd
       0.040453713 0.15983267 -0.040461827 -0.09342536
000320 20 68 7b bd f7 2e 7a 3c 04 2f 40 3e 3d 56 91 be
       -0.0613786 0.015269986 0.18767935 -0.28386107
000330 f2 af 0e be d3 1d 38 3e f1 58 96 bc ab 7a 3f bc
       -0.13934305 0.17980127 -0.018352957 -0.011686961
000340 c8 15 b9 3d 51 7a 2a 3e 43 87 de 3d 6c 24 96 bc
       0.090373576 0.16648223 0.10865643 -0.018327914
000350 69 22 72 be f5 6e c9 bd 1a 9b a2 3d dd cd 95 3c
       -0.23645939 -0.098356165 0.079397395 0.01828664
000360 ac db 88 bd ff b1 0e be 17 48 45 3e 40 18 c7 3d
       -0.06682524 -0.13935088 0.19265781 0.09721422
000370 73 bb 82 bd e8 dc 07 bd 49 6c 3b be 0e ba 97 bd
       -0.06383409 -0.033169657 -0.18303026 -0.07408534
000380 ce ae db 3d 05 82 07 3b 8c aa 95 3c b5 58 d9 3d
       0.10726701 0.0020676863 0.0182698 0.10612623
000390 03 32 f6 bd 18 ab 42 bc 6a 69 64 bd 31 76 f0 3c
       -0.12021258 -0.011881612 -0.055764593 0.029353233
0003a0 11 f5 d1 bd db 14 01 be 51 6c 17 3e a6 a3 00 bd
       -0.10251821 -0.12605612 0.14787413 -0.031406067
0003b0 b4 26 24 bd cf a7 8c bd b9 14 21 3c c1 d3 12 be
       -0.040075973 -0.068679444 0.009831601 -0.1433859
0003c0 84 c0 09 3e b1 09 99 bd 74 1f 72 3d 07 b3 73 bd
       0.13452345 -0.074725516 0.059112027 -0.059496906
0003d0 89 7d ac bc 90 a4 3e 3c 5d ac 87 3d 1e b1 ac bd
       -0.021055954 0.011635914 0.066246726 -0.0843222
0003e0 fe a9 5d bd db b7 1f 3e 78 a0 41 3d f9 aa d1 bd
       -0.054117195 0.15597479 0.047272176 -0.102376886
0003f0 f7 8a 83 bd d6 14 9e 3c e3 1d e6 bd f0 75 a3 3d
       -0.0642299 0.019297045 -0.11236169 0.07981479

lstm.weight_hh_l1 f4 [300, 75]
000000 34 0a 33 be 1e 7f 3a 3d de c0 65 3d 08 d3 fc 3d
       -0.17484361 0.045531385 0.056092136 0.123449385
000010 eb 75 05 be b8 68 2d 3e f4 35 38 be 1e b3 9e bc
       -0.13033263 0.16934478 -0.17989331 -0.01937252
000020 14 f8 63 3c ba 57 7b 3d 8f 29 22 be 42 d4 ba 3d
       0.013914127 0.06136296 -0.15836166 0.09122516
000030 5c 52 46 3c e8 6f 0f be 3f 61 2b 3e 0f ee 91 3d
       0.012104597 -0.14007533 0.16736315 0.07125484
000040 45 c7 06 3e 8c 76 07 3d 44 09 16 be 1d 03 c0 bd
       0.13161953 0.03307204 -0.14651972 -0.09375594
000050 86 3f 38 3d 42 ec 37 be 91 e0 a3 bd 93 d8 b0 3c
       0.044982456 -0.17961219 -0.08001817 0.021587646
000060 f7 58 08 3b b9 ab ba 3d a3 0e cd bd 57 3f fb 3a
       0.002080498 0.09114785 -0.10012557 0.0019168657
000070 57 49 7f 3d 11 09 54 3d 79 2f 01 be 63 1a 2d 3e
       0.0623258 0.05176646 -0.12615766 0.16904597
000080 49 3e cf 3b f8 dc f7 3c f5 d7 f3 3c 49 61 50 be
       0.0063245636 0.030256733 0.029766062 -0.20349611
000090 a6 07 59 bd b9 47 8f bc 7f 07 59 bd 63 92 33 bd
       -0.05298581 -0.017490255 -0.052985664 -0.043840777
0000a0 54 3a 06 3e b6 77 df 3c 0c 67 2d 3d a4 bc a1 bd
       0.13108188 0.027278762 0.0423346 -0.078973085
0000b0 b5 a9 7c 3d 71 2c 16 be 87 79 04 be 4e 4d de 3d
       0.061685283 -0.1466539 -0.12936984 0.108545884
0000c0 36 24 24 bd 6d 60 f8 3d 61 3d 50 bd 6a 23 21 bb
       -0.040073596 0.12127767 -0.050839785 -0.0024587759
0000d0 b8 62 25 3e b9 80 41 3d 46 5b 00 be 49 72 42 be
       0.1615094 0.0472419 -0.12534818 -0.18988909
0000e0 82 eb b0 bb f2 db e2 3d a2 c2 ca bd 56 28 8c 3d
       -0.0053991685 0.110771075 -0.099004045 0.06843631
0000f0 33 1c 44 3d ee c5 a0 3a df b0 0b 3e 5b 3b 80 3c
       0.047878455 0.0012266019 0.1364169 0.015653303
000100 da 50 c8 3c c3 c8 45 bd 87 1f 15 be 36 86 0c 3e
       0.024452616 -0.048287164 -0.14562808 0.13723072
000110 02 e8 4b 3c 7f 92 00 be 89 35 d8 bd 29 bb 93 3c
       0.012445452 -0.12555884 -0.10557086 0.01803358
000120 dd 82 6e 3d f7 5f 0c 3e b8 c6 96 3d 85 f8 21 3b
       0.05823027 0.13708483 0.07362121 0.002471478
000130 8c c1 dc 3d 61 da 2e 3e de 9d 1f 3d 39 44 e5 bd
       0.10779104 0.17075492 0.038968913 -0.11194653
000140 c9 64 92 3d c1 1a 26 be ef ab 23 3e d2 65 5d 3c
       0.071481295 -0.16221143 0.15983556 0.013513045
000150 ab 62 42 3e 03 a5 41 be 20 ce 44 3e f5 d6 1f 3e
       0.18982951 -0.18910603 0.19219255 0.15609343
000160 03 10 0c be b6 cd a3 3d 16 a0 2b bd 07 5e 26 3e
       -0.13677983 0.079982206 -0.041900717 0.16246806
000170 97 13 2f 3d 14 4c 14 be 4f 82 46 be 93 be 28 3e
       0.04274329 -0.14482147 -0.19385646 0.16478948
000180 1b 0c 1b bc aa ed 63 bd 22 58 d3 ba 4e 96 fc bd
       -0.009463335 -0.055646576 -0.0016124288 -0.12333356
000190 4b bd cb 3d 30 17 58 bd 35 24 13 3d 69 94 eb 3c
       0.09948214 -0.05275649 0.0359232 0.02875729
0001a0 98 05 29 3e d7 4c 55 bd 15 7f 2d 3d 6b b6 2a bd
       0.1650604 -0.052075233 0.042357523 -0.041677874
0001b0 9f 35 f4 bd 3d 68 36 3e bb 94 17 be d4 4e 62 bd
       -0.1192429 0.17813201 -0.1480283 -0.055250958
0001c0 43 f4 50 bd 66 fd 3e be a8 87 69 3d eb 76 f0 bc
       -0.051014196 -0.18651351 0.057014138 -0.02935358
0001d0 3b 4b ed bd 8e 79 d7 3d 99 7e f8 bd f4 bb 0a 3e
       -0.11586615 0.105212316 -0.121335216 0.13548261
0001e0 2a e1 86 bd df 1c 06 be b6 f3 e3 3d 2d 54 03 bd
       -0.065859154 -0.13096951 0.111304685 -0.0320627
0001f0 04 40 08 3d bc 72 80 bc 82 00 f3 3c d9 44 80 3d
       0.033264175 -0.01567971 0.029663328 0.06263132
000200 1f f0 72 3d ef be a8 bd 44 7e 17 be 32 52 02 bd
       0.05931103 -0.08239543 -0.1479426 -0.03181667
000210 ac 37 17 3d a2 39 32 3c 54 3d 03 bd 6a b6 38 be
       0.036918327 0.010877999 -0.03204091 -0.18038335
000220 20 57 36 be 8b e5 08 3d e3 65 6a bd 75 d9 9c bb
       -0.17806673 0.033422034 -0.057226073 -0.004786665
000230 2c 03 86 bb 26 8d 1a be b3 c4 97 bc 82 67 e2 3c
       -0.0040897336 -0.15092906 -0.01852641 0.027637247
000240 68 69 1d be c0 3c bd bd a3 8f d2 3d d2 a1 26 3e
       -0.1537224 -0.09240103 0.10281303 0.16272667
000250 eb 5e 0c 3c a5 c6 9b 3d 4b 73 fb bd 31 e3 d1 3c
       0.008567552 0.07606248 -0.1227785 0.025621029
000260 da 8e 4f 3e 43 70 14 3e 0e e6 c8 bd cb 99 a0 bc
       0.20269337 0.1449595 -0.098095044 -0.019604584
000270 66 45 11 3c 78 93 03 3e 3e d0 01 be b3 34 db ba
       0.0088666435 0.12849224 -0.12677094 -0.001672408
000280 f5 c8 ed bc 76 1c d1 bc 28 11 74 3d 44 ad 61 bd
       -0.029026488 -0.025526267 0.059586674 -0.05509688
000290 1c 5b fd 3d cf b0 4c bc 8f b5 78 bd 31 d5 14 bd
       0.12370893 -0.012493326 -0.060720023 -0.036336128
0002a0 f3 9f 1c be 78 43 1d bd b4 42 b9 bd 5a a1 b7 bd
       -0.15295391 -0.03839442 -0.09045926 -0.08966322
0002b0 95 16 d0 3c 2d 18 a8 bd 9c 17 da bd 85 10 64 bd
       0.025401393 -0.08207736 -0.106490344 -0.055679817
0002c0 7e 11 5a 3c 4f 62 c2 bc f0 19 d1 3d d0 4a 0e 3d
       0.0133098345 -0.023728518 0.10210025 0.034739316
0002d0 15 0b 13 be 6a 16 77 bd 16 af 06 be b4 0f ed bd
       -0.14359696 -0.06032411 -0.13152727 -0.11575261
0002e0 7b ce a9 bc 02 58 dd bc 85 81 33 3b ec fd f3 bd
       -0.02072834 -0.027019504 0.0027390432 -0.11913666
0002f0 7c 9b 26 3b 6c b1 85 bd 98 f9 f0 3d ca ba d4 bc
       0.0025422266 -0.06527981 0.11766356 -0.025967974
000300 b2 81 1a be 8a 69 da bd 7c 25 86 bc 56 b7 a9 bd
       -0.15088537 -0.10664661 -0.016375296 -0.08286922
000310 3d 8f 04 be ae 36 18 bd d3 26 44 be d0 bf 83 bc
       -0.12945266 -0.03716152 -0.19155435 -0.016082674
000320 12 ec 68 bd 00 7f 18 3e aa ca 63 bc 21 be 90 3c
       -0.05686576 0.14892197 -0.013903299 0.017668786
000330 a1 e6 a4 3c 62 67 0f be b7 0b 4b 3d 2c 70 04 3d
       0.020129504 -0.14004281 0.04957172 0.032333538
000340 ba 3e b3 bd cb ac d4 bc 32 b5 d2 bb 6d d8 95 bc
       -0.087521985 -0.0259613 -0.0064302916 -0.018291676
000350 cd a6 01 3e 7c 1d 47 bb d9 43 05 3e c1 72 de bd
       0.12661286 -0.0030382564 0.13014163 -0.10861731
000360 e9 42 0e bc da bf 89 3d ab 70 0e bc ce 35 a5 bd
       -0.008682945 0.06726046 -0.008693854 -0.08066903
000370 02 7a 12 be 01 24 9f bd 16 95 86 bc e5 52 1c 3d
       -0.14304355 -0.07770539 -0.016428512 0.038164992
000380 62 8b 96 bd 6b 8e 03 bd 5b 98 06 3e 7f d7 e0 3c
       -0.07350804 -0.032118242 0.13144056 0.027446507
000390 3e 96 95 bc 99 46 23 be fb e1 32 3d 60 01 d9 3c
       -0.018260118 -0.159449 0.043672543 0.026489913
0003a0 38 0c 2b 3e 15 5c d9 3b f9 09 b6 39 c5 d0 e5 bd
       0.1670388 0.0066332915 0.00034721175 -0.1122146
0003b0 9c a4 d5 bc 08 40 1d 3e 1c 5c 20 be 9b 18 38 3e
       -0.026079468 0.15356457 -0.15660137 0.17978136
0003c0 52 f4 83 bc 31 78 b0 3d 15 ff 43 3d dd 0f 4a bc
       -0.016107712 0.08616675 0.047850687 -0.012332884
0003d0 9a ea ea 3c 3c 97 01 3e 04 be d7 3c 0b 3f b4 bd
       0.02867632 0.12655348 0.026335724 -0.08801087
0003e0 e2 41 47 bd 0f 69 21 bd 8b ef ad 3d d8 46 7c bd
       -0.048646815 -0.039406832 0.08492955 -0.061591
0003f0 c5 ee 75 3c 26 7d 4b 3c 70 69 13 3e 97 91 32 be
       0.01501054 0.012419974 0.1439569 -0.1743835

lstm.bias_ih_l1 f4 [300]
000000 43 13 26 3e 3a d6 1e bd 41 1f a6 3d b5 d8 d2 3c
       0.16218285 -0.03877852 0.0811143 0.0257381
000010 24 79 12 3c 7a 7f e9 3c 84 57 6d 3d 71 f3 21 3e
       0.008940015 0.028503168 0.05794479 0.15815522
000020 0f b5 17 3e 89 82 1e 3d 26 9a 68 bc 0c 38 06 3e
       0.14815162 0.038698707 -0.014196908 0.13107318
000030 2e cd dc 3b 6c 3d 34 3d 0b 47 00 3e 08 91 d3 3d
       0.0067383265 0.04400389 0.125271 0.10330397
000040 35 c0 1f 3e 66 ed 65 3d 12 cd 83 bd 0d cd ec 3d
       0.15600665 0.056134604 -0.064355984 0.11562548
000050 67 14 9d 3d 03 21 8d 3d cc 23 ea bc 38 fd b3 3d
       0.07669907 0.06891062 -0.028581522 0.08788532
000060 7a e8 6c 3d 54 02 11 3d 18 ab 4c 3d 27 c3 27 3e
       0.057838894 0.03540261 0.049967855 0.16383038
000070 cb dd 5f 3d 00 90 3b 3d 6c 00 17 3e f2 28 e8 3d
       0.054654878 0.045791626 0.14746255 0.11335935
000080 87 9a 36 3d 3b 28 a7 3d 96 39 71 bd 06 8f 5f 3d
       0.044580963 0.0816197 -0.05889281 0.054579757
000090 89 63 99 3d d3 40 88 3d 25 d4 be 3d fd 15 14 3d
       0.07489688 0.06652989 0.09317807 0.036153782
0000a0 3c 9e 2a 3d 2b 2c fd 3d 68 d2 9f bd 06 33 20 3e
       0.04165481 0.1236194 -0.07803804 0.15644464
0000b0 b2 94 bb 3d 9a a5 40 bc 8c dc 80 bd 78 4c b5 3d
       0.09159221 -0.0117582325 -0.06292066 0.08852476
0000c0 ad 27 cd bc 52 d2 09 3e 2b cd 53 3c 6e 93 01 3e
       -0.025043333 0.13459137 0.012927334 0.12653896
0000d0 7e 19 de 3d 5d c8 02 3e b9 a6 1c 3e 15 3d 14 bd
       0.10844706 0.12771745 0.15297975 -0.036191065
0000e0 4b b6 7b 3d 3f 58 cc 3d b8 df 09 bd cc 9b bc 3d
       0.061453145 0.09977769 -0.03366062 0.092094034
0000f0 c3 cf 81 ba d4 3c 36 bc 39 51 fc 3d 75 ba c3 3d
       -0.0009903837 -0.011122901 0.123201795 0.09557048
000100 b4 af 2e bd 86 db 35 bd e2 2d 7b 3d 02 53 1c 3e
       -0.042648032 -0.044398807 0.061323054 0.1526604
000110 b5 ac f1 bc 4c 36 f5 3d 66 18 9e 3d 8c 7b c0 bd
       -0.029501298 0.11973247 0.077194974 -0.09398565
000120 ae c5 55 3d ca 8e 23 3e 51 da 54 3d aa 1e 14 3e
       0.052190475 0.15972438 0.051966015 0.14464822
000130 6b 55 44 bd 16 73 02 3e cf ec 94 3d 67 96 8a bc
       -0.047933023 0.12739214 0.0727173 -0.01691742
000140 8d 9d 6d 3d e5 61 cb 3d 68 69 6f 3d 44 e0 5f 3c
       0.05801158 0.09930781 0.058450133 0.013664309
000150 90 b1 4a 3c 6b 9a 84 bc f2 25 8d 3d 94 04 1d 3e
       0.012371436 -0.016186913 0.06892003 0.15333778
000160 77 39 ab ba 5d 7d 89 bc 58 ce 3a bd 4c e2 72 3d
       -0.001306339 -0.01678341 -0.04560694 0.059297845
000170 71 c8 fc 3c 63 1c bc bc 3f 7e 78 bd 5b 63 43 3d
       0.030857297 -0.022962755 -0.060667273 0.047702175
000180 fb 4b a4 bc ea 03 3d 3d 37 06 f7 3d aa 58 6f 3d
       -0.020055762 0.04614631 0.12061732 0.058434166
000190 98 71 5c 3d 73 be 22 3b 8f a6 11 3e cd ff 9b bc
       0.05381927 0.0024832755 0.14223693 -0.019042874
0001a0 8f ce 0c 3e d7 4d 88 3d df 86 d2 3d a6 ff a8 3d
       0.13750671 0.06655472 0.10279631 0.08251886
0001b0 9f 7e 10 3c 7d e3 83 3d 87 bb e2 3d 4f a6 9a 3c
       0.008819251 0.06439874 0.11070924 0.01887813
0001c0 81 95 14 3d cb cc a5 3d 1d c8 75 3c 09 2a b3 3c
       0.03627539 0.08095702 0.015001324 0.02187063
0001d0 70 ec 23 bd 70 4d ed 3d 16 66 35 3e f8 34 0e 3e
       -0.040020406 0.11587036 0.17714724 0.13887393
0001e0 d2 fb 37 bd ab 93 0e 3e 7d 9b 04 3e 12 2e 0c 3e
       -0.04491789 0.13923518 0.12949939 0.1368945
0001f0 66 85 c3 3c bb 37 b2 bb a3 d7 0b bc 81 c2 c1 bc
       0.02386732 -0.0054387725 -0.0085352985 -0.023652317
000200 b3 23 63 bc 1a 86 f8 3c e5 15 08 3e 25 85 20 3c
       -0.013863492 0.030337382 0.13289602 0.009797369
000210 e1 35 98 bb 97 7b bb 3d f1 25 13 3e 73 6e 12 bd
       -0.0046450947 0.09154432 0.14369942 -0.035749864
000220 64 f7 bf 3d d0 71 a5 bc a3 a7 d1 3d 79 c7 d2 3d
       0.09373358 -0.020195872 0.10237052 0.10291953
000230 48 9e c3 3d 4d 8a 1f 3d 5a aa 23 3e 14 fc 04 3d
       0.09551674 0.038950253 0.15982953 0.032466963
000240 ad 45 98 3d 21 1a d7 ba f5 ff 05 3e 7a 12 1f 3e
       0.074351646 -0.0016410985 0.13085921 0.15534392
000250 eb e0 25 bd 3a 36 03 3e 89 ca 44 bd 88 cb 9b 3c
       -0.0404977 0.12813655 -0.048044715 0.01901795
000260 fa d6 92 3d 5d 80 bb 3d 06 bd 6d bc a5 fd 5d bb
       0.0716991 0.09155343 -0.014510399 -0.0033873108
000270 62 6a 14 be e0 57 db 3d 06 84 c9 bd 91 1c 7c 3d
       -0.14493707 0.1071012 -0.098396346 0.06155068
000280 73 5a 2d bd b4 09 8d bc a5 7a 3b 3c 14 ee 11 be
       -0.042322587 -0.01721654 0.011442815 -0.14250976
000290 f8 a0 29 3d ec 77 35 3e b8 19 de 3d dd e7 24 bc
       0.041413277 0.17721528 0.10844749 -0.010065046
0002a0 d3 63 38 3d 83 35 19 be fd cd d9 3d 57 a5 83 bc
       0.045017075 -0.1496182 0.10634992 -0.016070051
0002b0 c1 79 c0 bd 6c 15 c4 bd 05 96 6a bd 9d 1d 02 bd
       -0.09398223 -0.095743984 -0.057271976 -0.031766523
0002c0 b0 19 fc bd a3 02 12 3e c2 01 0d bd ab fc 4e bc
       -0.12309587 0.14258818 -0.034425505 -0.012633483
0002d0 81 ad 06 be eb a6 d3 bb 31 a4 59 bd cc 0f be bd
       -0.13152124 -0.006459107 -0.0531351 -0.09280357
0002e0 ea f5 12 3e f6 67 fa bd 08 d1 e9 bd 0a 83 a0 bd
       0.14351621 -0.1222686 -0.11416823 -0.07837494
0002f0 30 d8 2e bb 3a 99 00 3e da 7d 28 bd 0c 48 31 be
       -0.002667915 0.12558451 -0.041135646 -0.1731264
000300 0c 5a d5 3c da 76 96 bd a4 18 1d bd 0b a6 1c 3d
       0.026043914 -0.07346888 -0.038353577 0.03824429
000310 61 d4 17 bd 78 5b 4b 3d f1 43 2a be a4 5a 0a 3e
       -0.037067775 0.04964778 -0.1662748 0.13511139
000320 cf 3a 24 be 83 3a a8 3d 2c e0 2b 3e 61 5d 11 3e
       -0.16038059 0.08214285 0.16784734 0.14195777
000330 99 eb 3a be 0f dc c8 bc 56 95 1f 3e cf 54 32 3d
       -0.18253936 -0.024518995 0.15584311 0.04353791
000340 6a 44 28 be b1 be b8 bc b6 58 c4 bb b5 54 94 bd
       -0.16432348 -0.022551866 -0.0059920205 -0.07242719
000350 17 e7 88 3d 55 7b ca bc 96 e1 38 3d 2b bb 2c be
       0.06684702 -0.024717012 0.04513701 -0.16868274
000360 74 aa f7 bd ed 57 35 3e 70 c8 23 be 9d 1a 1c be
       -0.12093058 0.17709322 -0.1599443 -0.15244527
000370 1c b0 40 bd ca a4 82 bd a4 73 9b 3d de 09 a8 3c
       -0.04704295 -0.06379087 0.07590416 0.020512518
000380 5b 91 0b 3e 56 46 07 3e 0d 45 19 be 41 fa cf bd
       0.13629667 0.13210425 -0.14967747 -0.10155154
000390 94 38 07 3d fe d2 1a 3e a8 84 ec bd c6 76 e1 bc
       0.03301294 0.1511955 -0.1154874 -0.027522456
0003a0 bd 42 66 3e e6 47 84 bd 8b 97 18 3e 00 d2 ef 3c
       0.22486396 -0.06459026 0.14901559 0.02927494
0003b0 af b1 9d bc ae 49 f3 3c 74 6f 4d 3e 74 e2 8e 3d
       -0.019249765 0.02969822 0.20062047 0.06976786
0003c0 ae 4f 46 3e 7d fa 22 3e 5a cf 53 3e 63 7b fd bb
       0.19366333 0.15915866 0.20684567 -0.007735656
0003d0 7a fb 3b 3c b4 94 cb bc 88 c2 82 3d a6 89 1f be
       0.011473531 -0.02485118 0.0638476 -0.15579852
0003e0 28 b4 31 bc 31 21 e2 bc 2d a5 10 3e 70 19 b4 3d
       -0.010846175 -0.027603718 0.1412551 0.08793914
0003f0 2a 77 86 3c a9 7a 96 3c 6b 80 0d 3e b9 a3 38 3d
       0.016414244 0.018369036 0.13818519 0.045078013
