models/lstm_trial_5.pth (torch, 102206 bytes, 9 tensors)

lstm.weight_ih_l0 f4 [152, 44]
000000 87 e1 67 3d 21 9f 06 3e 91 70 73 bd 6d 02 a0 3d
       0.056611564 0.1314664 -0.059433524 0.07812963
000010 2a 98 d5 bd 1f 09 b9 3d 00 0e 78 3e 9d d5 16 3d
       -0.104294136 0.09034943 0.2422409 0.03682481
000020 be 0c 05 be 97 ef e0 bc b8 2b 16 3e 83 ac 31 be
       -0.12993142 -0.027457995 0.14665115 -0.17350964
000030 6f b3 e5 3c 6a 66 f4 bd 23 88 ca 3d d8 76 30 3e
       0.028039662 -0.119335964 0.09889247 0.17232835
000040 73 1f 03 be 4a 20 23 3e 5a 59 47 be 98 2f a0 bd
       -0.12804966 0.15930286 -0.19467679 -0.07821578
000050 31 e8 2f bd aa 4c 81 bd 9e f6 16 3e ba bd 11 bd
       -0.042946044 -0.06313451 0.14742514 -0.035581328
000060 2d d5 f4 3c 9a e2 14 3e 08 f1 f7 bc 7b b5 50 3c
       0.029886806 0.14539567 -0.0302663 0.012738581
000070 f7 52 9c 3e 0f 32 b1 bd df 5a 69 3e 0b 99 f4 3d
       0.30532047 -0.08652126 0.22788571 0.11943253
000080 78 83 10 3c cf dd f0 3d 0f f7 24 be 15 58 27 3e
       0.008820407 0.11761057 -0.1610987 0.16342194
000090 7a 99 76 3e 47 70 20 3e 63 10 a1 be 27 f6 14 be
       0.24081984 0.1566783 -0.31457815 -0.14547025
0000a0 cb 6a f3 3d f7 c5 2c 3e d0 74 e1 bc 68 61 20 be
       0.118856035 0.16872393 -0.02752152 -0.15662158
0000b0 05 57 00 3e ed db 04 3d d8 66 d5 bd 7c bb c7 3d
       0.12533195 0.0324363 -0.104200065 0.09752557
0000c0 4a d5 19 bd f8 d1 92 3e 3c 18 41 be 84 0a 84 3d
       -0.037556924 0.28675818 -0.18856901 0.06447318
0000d0 0c 1c 62 bc 62 d5 43 3e e2 a3 fa bd 35 73 24 3d
       -0.013800632 0.19124368 -0.122382894 0.040148932
0000e0 5d ee 83 3e 5d 4d af bd 7c 24 05 3e 27 95 b9 bc
       0.25767794 -0.08559678 0.13002199 -0.02265413
0000f0 eb 11 70 bd c1 d3 5a be 38 e7 0b be 30 d5 74 3d
       -0.058610838 -0.2136984 -0.13662422 0.059773624
000100 46 24 cd 3c 49 21 a6 bd 12 f5 4c 3d f2 81 a3 be
       0.02504171 -0.081118174 0.050038405 -0.31935078
000110 f0 96 4b be ab cd 50 3c 7e 3d 24 bc 35 6e ff 3b
       -0.19881797 0.012744348 -0.0100244265 0.00779512
000120 76 5b 2f 3e fe 81 5c bc 6b f4 0a 3c b6 30 f1 3d
       0.17124733 -0.013458727 0.008481125 0.11776869
000130 de 38 0b bd 82 12 56 be ce d6 78 3e eb ef 64 3e
       -0.03398978 -0.20905498 0.24300691 0.22357146
000140 71 66 1a 3e e3 2a 1f 3c 9a bc 13 3d 44 6f 91 bd
       0.15078141 0.009714815 0.036068536 -0.071013
000150 10 ca 2f be 31 40 40 3b e4 a8 ba 3e 44 ff 1a 3a
       -0.17166924 0.0029335136 0.36456978 0.00059126713
000160 44 4a 36 3e 50 99 a7 3d a2 7c 7f 3c 39 ca ed 3d
       0.17801768 0.08183539 0.01559368 0.116108365
000170 07 90 3f 3e 18 fa 2e 3e 9c 2c cf 3d df 88 94 3e
       0.18707286 0.1708759 0.101159304 0.29010674
000180 f7 54 d4 bd 60 4f a3 bd 21 fb 28 be 50 19 29 3e
       -0.10367768 -0.07974124 -0.16502048 0.16513562
000190 09 73 8b 3e 70 37 c7 3d e7 8c 9e bd 35 28 bc bb
       0.27236202 0.09727371 -0.07741719 -0.0057420977
0001a0 47 fa 22 3d 4c 98 ce 3d 60 ec b8 3d 4f 4c c1 bd
       0.039789464 0.10087642 0.0902946 -0.09438383
0001b0 67 86 e4 bd e0 e7 25 bd cb a1 ec 3d c3 ab 33 be
       -0.11158448 -0.040504336 0.11554297 -0.1754599
0001c0 fb 1d 3c be a2 43 49 3d f0 ab 9f 3d e2 06 46 be
       -0.18370812 0.049136765 0.07796466 -0.19338563
0001d0 57 f4 de bb 81 00 2f 3e 02 8b 53 bd 06 a1 0a 3e
       -0.00680403 0.17090036 -0.05164624 0.13537988
0001e0 de ae 46 bc c7 fa 39 be 4a 83 ec 3d 10 ea bb 3e
       -0.0121266525 -0.1816207 0.11548479 0.36702013
0001f0 a5 73 14 3e 62 87 6f 3c 67 2c 00 bf 21 d3 66 bb
       0.1449724 0.01461968 -0.5006775 -0.0035221057
000200 da 5d 94 3e 01 90 ca 3d 6d d4 6a 3c 1e 84 4a 3e
       0.28977853 0.09890748 0.014332873 0.19776961
000210 a0 b2 2c be f3 d3 18 bd ea bb f0 bd aa 83 23 3e
       -0.16865015 -0.037311506 -0.11754592 0.15968195
000220 e0 12 ca bd ab 50 c4 be fa 0f 15 be fa 0d d7 bd
       -0.09866881 -0.38342795 -0.14556876 -0.10500713
000230 38 ad bf 3d 85 b4 a2 3c 94 32 30 3b c7 19 5a bd
       0.09359211 0.019861469 0.0026885616 -0.05324724
000240 28 08 c8 bd e6 6a c4 3c d5 30 89 bd 1e 3e 93 be
       -0.09767181 0.023976754 -0.06698767 -0.2875833
000250 d4 04 0b 3e 2f e4 e0 3d 93 2e d2 bd ed 97 37 be
       0.1357606 0.109810226 -0.102627896 -0.17929049
000260 9a 5f f5 3b 4b 4e a6 bc 28 28 d6 3c fe 3d 8d 3e
       0.0074882032 -0.020301005 0.026142195 0.2758636
000270 9f 25 bd 3d 51 4c 43 3d 7c 8b 64 3b 4c 0b 9e bd
       0.09235691 0.047680203 0.0034873178 -0.077169985
000280 f8 e1 6e be 1b c3 6a 3c f3 c2 75 3e 12 32 f6 bc
       -0.23328388 0.014328743 0.24000148 -0.030053172
000290 8c c2 3c be 2b ed 36 bc 42 41 76 3d 62 ae 52 be
       -0.18433589 -0.011164944 0.06012083 -0.20574334
0002a0 54 2c 28 3d 16 df c9 3d 74 9f 0b 3e 82 f2 a8 be
       0.0410579 0.098570034 0.13635045 -0.3299752
0002b0 2a 07 4f be be 4d 79 3e dd 20 70 3d 98 ae ee 3a
       -0.20217577 0.24346063 0.05862509 0.0018209992
0002c0 08 ab e2 3d ab 49 8e bd 9a fa 95 be 3e 87 2c 3e
       0.11067778 -0.06947645 -0.29292756 0.16848466
0002d0 15 7c 5e 3d 62 42 72 be bc 1d 84 bc de a3 39 3d
       0.054317553 -0.23658136 -0.01612746 0.04532229
0002e0 72 a7 b9 3d ec f7 58 3d 0b 6d bb bd f0 ef 35 bd
       0.09065141 0.05297081 -0.09151658 -0.044418275
0002f0 b9 08 8a be 67 9f c9 3d 88 c1 bb 3c e2 98 40 3d
       -0.2695978 0.09844857 0.022919431 0.0470208
000300 bf d3 d9 bd 52 26 0e 3e 7a 08 40 3e 2d bc 68 be
       -0.106360905 0.13881806 0.18753234 -0.22728033
000310 48 10 8e bd 3a 22 96 bc bf ff 17 3e 34 5e 8b 3d
       -0.06936699 -0.018326867 0.14843653 0.06805077
000320 3f 1a 22 be b9 c2 b9 bd d6 ca 35 be 54 b6 ec 3d
       -0.15830325 -0.090703435 -0.17753157 0.11558214
000330 a0 06 aa 3d d0 f5 b7 bd d5 d0 58 3e e8 03 69 3d
       0.08302045 -0.08982432 0.21173413 0.05688849
000340 f5 c4 aa 3c 7d ab a3 3b e3 e6 5f bd b0 66 90 3e
       0.02084587 0.004994808 -0.05466355 0.28203344
000350 a9 c0 1a bc 9c 4f 48 bd e5 cf 0c be 5e 54 cc 3c
       -0.009445348 -0.048904046 -0.1375118 0.024942573
000360 1f 21 f0 3d af 1e 75 3e a9 88 8d bd 32 a1 64 be
       0.11725067 0.23937486 -0.069108315 -0.22327116
000370 33 2e 00 3e 19 ed 9e bc c2 0b 1f 3e 69 29 e1 3c
       0.12517624 -0.019400166 0.15531829 0.027485566
000380 5c 1c 06 be 8f b5 f6 3d 76 6a 3e 3e 72 25 a8 3d
       -0.13096756 0.12046348 0.18595299 0.08210267
000390 31 97 cd 3c 05 e6 01 be de 1a 78 3d 53 4d 38 3e
       0.025096508 -0.12685402 0.060572498 0.17998247
0003a0 fd 38 38 3e 52 25 58 3e 74 51 04 3e 92 e0 c2 bc
       0.1799049 0.21107987 0.12921697 -0.023788724
0003b0 db aa 9d 3e 6f 72 86 3e f7 5e 67 3d 77 ea a3 be
       0.30794415 0.2625918 0.05648705 -0.3201482
0003c0 c6 e2 57 3e 8a 3a fe bc c6 0d c1 3b 24 73 cb 3d
       0.21082601 -0.031033773 0.0058915345 0.09934071
0003d0 74 28 b2 be b2 ff 5c 3c c2 88 10 be 14 b9 39 3e
       -0.34796488 0.013488697 -0.14114669 0.18137008
0003e0 d3 e2 ec 3d 62 95 0c 3d 25 e0 ef bd 80 20 25 be
       0.11566701 0.03432215 -0.11712674 -0.16125679
0003f0 53 db 28 3e a3 3e fd bd 14 a2 30 bb 71 de 57 3c
       0.16489916 -0.12365463 -0.0026952075 0.013175593

lstm.weight_hh_l0 f4 [152, 38]
000000 97 d6 f3 3d e8 25 0a 3e 8b f0 aa 3d dc cb b9 ba
       0.11906164 0.13491023 0.08346661 -0.0014175135
000010 79 61 74 bd 95 20 11 3c 21 52 c3 3d e9 d3 28 3d
       -0.05966327 0.008857866 0.09537149 0.04121772
000020 4b 95 b1 bd 68 67 36 3e 05 6c 19 3b 1a 59 8d 3d
       -0.086710535 0.17812884 0.0023410332 0.069017604
000030 50 91 8e 3d 57 d1 1a 3d 58 af f6 bb 35 32 3a bd
       0.0696131 0.0377973 -0.007528227 -0.045458037
000040 86 82 79 bc 48 ba 92 3d 28 9d 50 3e bc d7 3e 3e
       -0.015228873 0.071644366 0.2037245 0.18636984
000050 b5 55 87 3d 6e 54 70 3e 06 45 d0 be 29 2d 55 3e
       0.06608144 0.23469707 -0.4067766 0.20818008
000060 21 1a f2 bd bd bd a0 be 85 1f 17 be 97 7d 1f 3d
       -0.1182139 -0.3139476 -0.14758117 0.03893813
000070 14 4b ab 3d 2c 8a e9 bd c8 3d aa be b0 39 74 be
       0.083639294 -0.11403307 -0.3325026 -0.23850131
000080 7e d4 15 3c 15 fc bd 3d 2d 25 1d 3d 3b da 7d 3d
       0.0091449 0.092765965 0.03836553 0.0619757
000090 8c 1f b6 3d 53 dc be 3d 47 0f 86 be b1 c5 d5 be
       0.08892736 0.09319367 -0.2618353 -0.4175239
0000a0 fd 80 d7 bb c9 15 72 3c 04 aa 3e 3e a9 78 89 be
       -0.006576656 0.014775702 0.18619543 -0.2684987
0000b0 be 26 67 3e 9e 6c a9 bc 3d 85 85 3e a1 82 5a be
       0.22573373 -0.020681676 0.26078215 -0.21338893
0000c0 5c 21 12 be a3 f6 66 3d 62 ce 98 3d b6 78 22 3e
       -0.14270538 0.056387555 0.074612394 0.1586636
0000d0 f9 c9 66 3e 0a 3b 9c 3e 47 bb c6 bc d5 f7 27 be
       0.22537984 0.30513793 -0.024259223 -0.16403134
0000e0 91 e3 f2 bd 90 21 20 be 07 c5 02 3e 4f 57 61 3d
       -0.11859811 -0.15637803 0.12770472 0.055014905
0000f0 5f 90 0b 3e dd 42 21 3e 6c 32 3b 3d 05 0d be 3d
       0.13629292 0.15748163 0.045702383 0.09279827
000100 4b ed d3 bd 9e 35 7a be fc 8d da 3c 99 b5 f8 bc
       -0.103479944 -0.24434516 0.026679032 -0.03036003
000110 ff 39 6c 3d 4e 1c 3a 3d e5 62 16 3d 7e 42 91 be
       0.057672497 0.04543715 0.036715407 -0.28371042
000120 e2 76 63 bd b0 14 ff 3c 3e b4 a9 3e 75 3a 91 bd
       -0.055533297 0.031137794 0.33145326 -0.07091228
000130 75 aa 91 bd e5 53 f5 3c 0c c6 dc be 54 4b 1e bd
       -0.0711259 0.02994723 -0.43119848 -0.038646057
000140 f0 8c b7 3d f7 52 f4 3d 74 1c 3c 3e 28 5d d3 3d
       0.089624286 0.11929887 0.18370229 0.103205025
000150 74 27 10 3d 0e d6 73 3d 87 a5 0e 3e 14 4f 92 be
       0.035193875 0.05953031 0.13930331 -0.28575957
000160 a9 3c 23 3d 54 b3 74 3d 09 9c fa bd e2 34 08 bd
       0.039852772 0.059741333 -0.122367926 -0.033253558
000170 d9 d9 10 be d4 b2 8c 3a e7 b4 ca bd e4 d5 1c 3d
       -0.14145602 0.0010734447 -0.09897786 0.03828992
000180 e0 88 d0 bd 89 df 92 bd bf 61 0b be 50 f2 1f 3c
       -0.10182357 -0.07171542 -0.13611506 0.009762362
000190 66 14 c5 3d e0 24 c1 bd 63 21 12 be d9 b5 fe bb
       0.09623031 -0.094308615 -0.14270549 -0.007773143
0001a0 80 a2 88 be 30 8e 6b 3d bc c6 b1 bd 81 43 1e be
       -0.26686478 0.057508647 -0.08680484 -0.15455438
0001b0 10 51 90 3c 55 bb 2f 3d c1 d5 8f be 43 9c 8a 3e
       0.017616779 0.042903263 -0.2809277 0.27072343
0001c0 83 bf ce bc 08 8b 13 3d a9 4d 3b be 5e e5 27 be
       -0.025237804 0.036021262 -0.18291344 -0.1639609
0001d0 70 3b a3 be 30 b0 e2 3e fb ac 71 3c e4 28 cf 3d
       -0.31881285 0.44275045 0.014750714 0.10115221
0001e0 b4 3d c8 bd 4f 0c 83 bc 4f ad 86 3d 98 fb 85 39
       -0.09777394 -0.01599708 0.06576025 0.0002555519
0001f0 b5 80 7c be ab 9c 01 be 38 6f f7 3d aa b9 99 bc
       -0.24658473 -0.1265742 0.1208176 -0.01876529
000200 13 6e 8f 3d 19 2b 6d 3d de 75 59 bc 18 72 a9 bd
       0.07003417 0.05790243 -0.013272731 -0.08273715
000210 f3 d5 66 be 6d 37 c5 bd f3 a1 c0 be 0c b7 47 be
       -0.22542553 -0.09629712 -0.37623557 -0.1950342
000220 86 a5 0b bc e2 71 95 3d 63 b2 2b be 2e 60 38 be
       -0.008523351 0.07297112 -0.16767268 -0.1800544
000230 dd 41 c4 be 47 d7 03 be 21 64 11 3d a7 f2 2d be
       -0.383315 -0.1287509 0.03549588 -0.16987096
000240 c3 82 f2 3d 02 9d cd bd 4d bb 89 bc bb 1c 0d 3e
       0.11841347 -0.100397125 -0.016812945 0.13780491
000250 9e 14 0f be e0 45 46 3d 53 1c 46 3d 67 b3 03 be
       -0.13972709 0.04840648 0.048366856 -0.12861405
000260 db f2 64 be 5c 8f 25 be af 3f f8 bd ef 36 ff 3d
       -0.22358267 -0.16167969 -0.12121522 0.124616496
000270 3d 61 83 3e 07 a2 21 3e 06 93 5a be ee 48 82 be
       0.25660124 0.15784465 -0.21345147 -0.25446266
000280 a8 24 86 3e 8f ad 6d 3c cf fb 55 be be 00 38 be
       0.26199841 0.014506712 -0.20896839 -0.17969033
000290 df 53 0d 3e 40 2f 8e bc fc 2b 1d 3e e3 8b 23 3e
       0.13801526 -0.017356515 0.1534881 0.15971331
0002a0 cf be fa bc 35 32 9f bd 63 3b 67 be d1 24 79 3e
       -0.030608563 -0.07773248 -0.22581248 0.2433045
0002b0 2c 51 10 3d 12 37 b6 bc e4 21 ed bd f6 a1 3f 3e
       0.03523366 -0.022243056 -0.1157873 0.18714127
0002c0 01 08 45 bd 8d 39 38 3d aa fd 86 be 66 cd 02 be
       -0.048103336 0.04497676 -0.26365405 -0.12773666
0002d0 45 d3 4b 3e 83 e8 c0 bd 9c ee 21 be 7b eb a2 bd
       0.19904812 -0.09419348 -0.15813679 -0.079550706
0002e0 00 b4 a2 bc c6 95 ef 3b e1 d6 45 be c9 33 59 3d
       -0.019861221 0.0073115556 -0.19320251 0.0530279
0002f0 57 43 a5 3d 55 9d e3 3d 3f a8 26 be 4c 0e e0 bd
       0.08069485 0.11113993 -0.16275118 -0.10940227
000300 26 7b 77 3e 66 5a 0b 3e 2c c1 46 3e 2e e1 5d bd
       0.24168071 0.13608703 0.19409627 -0.054169826
000310 ab 94 48 bd 68 74 21 be b1 9a c2 3d 24 6c df bd
       -0.048969906 -0.15767062 0.09502161 -0.10909298
000320 cb ef 4d be c4 0c 3b 3d 4c fc 13 be 58 de 7b 3c
       -0.20111005 0.04566647 -0.14451712 0.015372835
000330 2f d1 bd 3c 04 7b a0 bc a3 9c 8a be 86 e8 ae bd
       0.023171036 -0.019589908 -0.2707263 -0.08540444
000340 1c ac 1e be 5e d4 3f 3e c7 a8 45 3e 3b 21 2d 3e
       -0.15495342 0.18733355 0.19302665 0.16907208
000350 6f 82 f9 bd 1b 08 62 3e cc 64 1a 3b 28 e6 fc 3d
       -0.12183081 0.22073404 0.0023558615 0.12348586
000360 93 f6 96 3d 15 52 9f 3d 50 f6 27 be ad e8 a6 be
       0.07371249 0.07779328 -0.16402555 -0.32599393
000370 0e 11 4a be 8b b7 93 be 38 33 eb 3c af a1 50 be
       -0.19733068 -0.2885097 0.028710946 -0.20374177
000380 9a 1b 90 3d 94 49 ec 3c 16 86 22 3d 97 ae 0e 3d
       0.070365146 0.028843679 0.039678656 0.03483447
000390 28 67 36 be e5 bc e5 bd 39 af 60 be 85 9e e2 3d
       -0.17812788 -0.112176694 -0.21941842 0.110653915
0003a0 e8 ff c6 3e 96 b3 a8 be dd 92 8b 3e ad 5e 0e 3e
       0.38867116 -0.32949513 0.27260485 0.13903303
0003b0 2a 4b 38 3d b2 e3 d9 bd e7 fb 83 be ed 05 63 bd
       0.044993557 -0.106391326 -0.25778124 -0.055425573
0003c0 13 c4 5c 3c 20 44 5c bd ad 66 be 3d 2e 0a 4a 3e
       0.013474482 -0.053775907 0.092969276 0.19730446
0003d0 fb 62 8d be 2b 6a 2a be da 66 77 be 63 72 d8 bc
       -0.2761458 -0.16642062 -0.24160329 -0.026421731
0003e0 9a 9e ed bd 0f d0 d9 3d d4 f9 1d 3d 6c 1d 09 3e
       -0.116025165 0.10635387 0.038568333 0.1339013
0003f0 a1 cc a7 bd 3e 90 d6 3d 15 e6 0c be f2 44 42 bd
       -0.08193327 0.10476731 -0.13759644 -0.047429033

lstm.bias_ih_l0 f4 [152]
000000 8a b5 15 3e a4 1a e8 3c 77 2f 4a bd 75 42 48 3e
       0.14620033 0.028333016 -0.049361672 0.19556601
000010 80 53 c2 bd 1c d0 c1 bd c7 e6 79 bd 23 6c 01 3e
       -0.094885826 -0.09463522 -0.061011102 0.12638907
000020 e6 67 a6 bd 3a 4f 1a 3e ff 83 d8 bd e0 ad 91 bc
       -0.08125286 0.15069285 -0.10572051 -0.017783105
000030 a5 95 27 3d 13 02 6f bd 66 4b d1 bc 9d 41 7b 3c
       0.040914197 -0.058351588 -0.025548648 0.015335468
000040 6c 7a 63 bd 27 cd de 3c e0 e1 93 3d 43 4a 26 3e
       -0.055536672 0.027197434 0.072208166 0.16239266
000050 32 ca d4 3d b5 8c df bc 3a f1 b1 3c c1 06 72 3e
       0.10390128 -0.027288774 0.021721471 0.23635389
000060 8e 2b 14 be 68 61 73 bd 15 54 2b bd 28 d4 b0 be
       -0.1446974 -0.059419066 -0.041828234 -0.34536862
000070 5a ae 88 3d 49 9c a4 3b 0d da fc bd a4 89 e3 bc
       0.0667388 0.0050235135 -0.123462774 -0.027775593
000080 1f 9e 97 3d b8 6d 5c 3d 33 15 b6 bd 44 63 89 3c
       0.07403206 0.053815573 -0.08890762 0.016770966
000090 22 b6 c3 bd 77 67 79 3e de 6b 02 3e 33 8d fb 3d
       -0.095562235 0.24355875 0.1273646 0.12282791
0000a0 dc 51 3f 3e e3 1c 9b 3e 2d 57 7f 3e b9 57 be bc
       0.1868357 0.30295476 0.24935599 -0.023235189
0000b0 62 a9 ed 3d 73 f6 03 bf cf 02 63 bd c0 53 30 be
       0.11604573 -0.51547927 -0.0554226 -0.17219448
0000c0 3d c9 8e 3d c7 0b 8e 3e ca 82 f8 3d 58 ef aa 3d
       0.06971977 0.2774336 0.12134321 0.083464324
0000d0 a0 48 3f 3e 52 87 e5 3d 7d e5 ff 3d 39 cd 1d 3d
       0.18680048 0.11207451 0.12494943 0.038525794
0000e0 80 5f 01 3e 8b 9e 0a be 31 34 24 3d 53 18 6e bd
       0.12634087 -0.13537042 0.040088836 -0.058128666
0000f0 a3 f2 54 bc de ce 61 3e 76 51 a6 bd 23 0c 8c 3e
       -0.012997302 0.2205157 -0.08121006 0.2735301
000100 3c 15 5a 3e 27 12 9e bc 07 94 70 be f3 bf 2f 3e
       0.21297163 -0.019295765 -0.23493968 0.17163067
000110 47 db 9a 3e 2b a1 0b bd b8 b9 f2 3d b3 c8 67 bb
       0.3024542 -0.03408925 0.11851829 -0.0035367429
000120 a9 b8 15 be ba 67 cf 3d 49 c4 2f 3e 31 65 05 3e
       -0.14621224 0.10127206 0.1716472 0.13026883
000130 dd 62 2e be 17 bf 45 be bf dc 32 be 16 5d 62 3e
       -0.17029901 -0.19311176 -0.1746702 0.22105822
000140 b4 8d 17 3e 7e 45 8f be b7 4e 13 3e 98 36 30 3e
       0.14800149 -0.27982706 0.14385496 0.17208326
000150 0a 9d 97 3e c2 c4 27 be b2 15 8e be 0f f3 4f be
       0.29612 -0.16383651 -0.27750927 -0.20307563
000160 6a f0 23 3e 8f 36 6b be 6b 19 1e 3e 7f 16 9a 3e
       0.1600968 -0.22970031 0.15439384 0.30095288
000170 55 b5 54 be 2a ee 1a be 49 46 68 be 88 d6 2f be
       -0.20772298 -0.15129915 -0.22683062 -0.17171681
000180 cc d8 b5 be 45 86 c4 3d 9c 04 4c be fb df 81 3d
       -0.35516965 0.095959224 -0.19923633 0.06341549
000190 e1 b3 75 3d 42 3a a6 3d ab bf 7d be d8 68 09 be
       0.059986 0.081165805 -0.24780147 -0.13418901
0001a0 54 4b 80 be be c3 9f be 56 4d 8f bd 7d 80 c7 bd
       -0.2505747 -0.31204027 -0.069971725 -0.09741304
0001b0 6c c2 4f bd 0e 0f 49 be fb 61 71 be 7e 0d 36 3e
       -0.050722525 -0.19634649 -0.23572533 0.17778584
0001c0 ff 60 5c 3e 17 9f 6a be 89 e9 1a be a3 1f cc bd
       0.21521376 -0.2291225 -0.15128149 -0.09966972
0001d0 fd 98 b4 3d 5d d9 82 bb 32 75 62 3b f6 fb 33 be
       0.08818243 -0.003993197 0.0034554717 -0.17576584
0001e0 18 b8 3a bd 66 fb bd 3e 15 8a 32 3e b1 68 a8 3c
       -0.04558572 0.37105864 0.17435487 0.020557733
0001f0 d5 b5 76 be 29 56 89 bd 2c 21 86 3c 81 a5 7e bd
       -0.24092801 -0.06705887 0.01637324 -0.062169556
000200 67 10 f2 bc 8e cd 74 bc 2d 47 e3 3d 6b c2 fd 3d
       -0.029548837 -0.014941586 0.1109756 0.12390598
000210 02 e6 61 3d 8e d2 8f 3d ed b9 e2 bd 47 bb 07 3e
       0.055150993 0.07022582 -0.11070619 0.13255034
000220 36 f7 91 3d b0 85 29 3d 13 e3 d9 bd bc 51 2e 3e
       0.0712723 0.04138726 -0.10639014 0.17023367
000230 4a fa 2a 3d bc 8f 06 be 79 48 30 3d 85 86 db bd
       0.0417426 -0.13140768 0.043037865 -0.10719017
000240 16 5f 94 bd 92 00 f9 3d 31 c5 8a 3e db a2 84 3d
       -0.07244699 0.12158312 0.2710357 0.06476375
000250 5f cf 84 3d be d2 79 3d 9b 12 14 be 6e 15 ef bd
       0.064848654 0.060991995 -0.14460222 -0.11674009

lstm.bias_hh_l0 f4 [152]
000000 e1 75 71 bd 64 6d b1 3d c3 32 6c bd df 1c 12 3b
       -0.05895031 0.08663443 -0.057665598 0.002229504
000010 8f 3e c4 bc 4e 1c ce bd e7 66 42 3e ad 79 8c 3e
       -0.023955612 -0.100639924 0.18984567 0.2743658
000020 58 8a dd 3d d5 6c 0e bd 46 19 7a 3c c6 56 59 3d
       0.108174026 -0.03477176 0.015264815 0.05306127
000030 05 7f c0 3d 29 b2 97 bd 70 38 89 bc 65 f3 ed bd
       0.09399227 -0.07407028 -0.016750544 -0.116186894
000040 d4 b8 8f be 57 e6 af bd 47 43 00 3c 09 82 a2 3e
       -0.280707 -0.08588856 0.00782854 0.31739834
000050 d1 2b 5a 3e ba 34 51 3e a4 d4 11 bd 4d dd 4c 3e
       0.21305777 0.2043027 -0.03560318 0.20006295
000060 c5 2a 5b bd 4f 97 31 3d 44 1d a5 bc 72 d9 a4 be
       -0.053507585 0.04335719 -0.020155556 -0.32197148
000070 a7 a7 87 3e b7 58 1c 3e 1d a3 9f bd 5d 54 48 3d
       0.26495096 0.15268217 -0.07794783 0.04890858
000080 6d 1c ca 3d ab bb b8 3d e1 34 b0 bd 08 08 18 3e
       0.09868703 0.0902017 -0.08603836 0.14846814
000090 a2 2d b3 3c 39 e4 05 bd bc 00 c2 3c 64 f8 89 3e
       0.021872345 -0.032688353 0.02368199 0.2694732
0000a0 f9 9d 17 3d d0 6f ba 3e 2f 59 35 3e ef 1b 93 3c
       0.03701589 0.3641343 0.17709802 0.017957656
0000b0 ec 1a b7 3d bb e1 fa be d9 ba b2 bc 88 cd 7b be
       0.08940682 -0.49000344 -0.021817612 -0.24590123
0000c0 fd 12 d6 3c 83 a4 71 3e 7b 9d 8b bd 23 7d 7e 3e
       0.026132101 0.23597912 -0.068171464 0.24852423
0000d0 be 20 62 3e 26 e9 72 3e 06 3f b5 3d 16 52 4e 3c
       0.22082803 0.23721752 0.088499114 0.012592813
0000e0 3e 2d 35 3e 31 20 58 be 89 be 2b be 52 23 d6 3d
       0.1769304 -0.2110603 -0.16771902 0.104559556
0000f0 a1 e9 32 3e 40 2e 1d 3e 64 d3 d1 bd 39 8b 07 3e
       0.17471935 0.15349674 -0.10245398 0.13236703
000100 46 fd 41 3e 47 17 16 be e6 f2 43 be 89 7c fc 3d
       0.18944272 -0.14657317 -0.19135627 0.12328441
000110 bd 20 87 3e 01 d5 46 3e 5e 8d d4 bb c2 ca 2d 3d
       0.26392165 0.19417192 -0.006486579 0.042429693
000120 46 c4 1a bc ad ca 68 bd a5 83 53 3e af 2a 53 bb
       -0.009446209 -0.05683391 0.20655687 -0.0032221486
000130 38 11 bb bd 4c 78 94 be 93 e1 88 bc 42 c8 aa 3e
       -0.091341436 -0.2899803 -0.016709125 0.3335591
000140 fd 34 fd 3d 02 93 aa be 5c 33 83 3e 1c 2f af 3d
       0.12363622 -0.33315283 0.25625122 0.08553907
000150 fd d8 92 3e 31 16 8b 3d f6 a0 78 be 35 75 90 be
       0.28681174 0.06791342 -0.24280152 -0.28214422
000160 98 f4 9c 3d 5c b0 8b be bb 07 74 3e 71 95 84 3e
       0.0766384 -0.2728299 0.23831074 0.25895265
000170 05 c0 63 bd 11 d4 dd bd c5 51 01 be f0 e9 d4 bd
       -0.055603046 -0.10831464 -0.12628849 -0.103961825
000180 46 be 4f be 2e 0c 88 bd d8 2f 4d be 84 44 9e bd
       -0.20287427 -0.06642948 -0.20037782 -0.07727912
000190 ca a2 b3 3c f1 69 6b 3e c0 ab 95 be 4d 04 0e be
       0.02192821 0.22989632 -0.29232597 -0.13868828
0001a0 dc 72 ad bc 9c 2c 41 be cc d4 af bd 64 5f 0c be
       -0.021172933 -0.18864673 -0.0858551 -0.13708264
0001b0 c4 f4 34 bd 13 09 92 bd 3e 74 b4 bd 47 16 60 bd
       -0.04417874 -0.07130637 -0.08811234 -0.054708745
0001c0 3e 83 82 3e 3b b2 39 bd d5 17 3c be 6b 12 0f be
       0.25490755 -0.04533599 -0.18368466 -0.1397187
0001d0 9b 57 9e bd 69 d6 60 bd ba f7 21 3c c4 e2 58 be
       -0.07731553 -0.054891977 0.009885723 -0.21180254
0001e0 45 0d c0 3d c8 b9 d9 3e a1 07 9a 3d 82 03 1d 3d
       0.09377531 0.42524552 0.07520986 0.038333423
0001f0 7d 10 00 3d 1b a8 a0 3d 10 7f 34 3e 2a e9 12 3d
       0.031265724 0.078445636 0.17626595 0.035866894
000200 71 a0 37 be 20 0d f6 3d ab 26 db 3d e0 d6 d6 bd
       -0.17932297 0.12014222 0.10700735 -0.10490203
000210 30 0e be 3c 27 98 5a 3e f5 db dd bd 38 1c 07 3d
       0.023200125 0.21347104 -0.10832969 0.032985896
000220 67 35 4f 3e d8 dd 1c 3d 6e 81 af bb e1 59 14 bd
       0.20235215 0.038297504 -0.0053560054 -0.036218528
000230 1c c3 68 3d ed 71 6c bd d8 a1 9f 3d e1 b1 0e 3d
       0.056826696 -0.057725836 0.07794541 0.034837607
000240 7c fe a9 3d c4 e3 af 3d 1b 36 ae 3e 6c b0 3f be
       0.08300492 0.08588365 0.34025654 -0.18719643
000250 ba 09 5a be e3 e9 a6 3d be fe 59 be 71 58 42 bc
       -0.21292773 0.08150079 -0.21288583 -0.011861906

lstm.weight_ih_l1 f4 [152, 38]
000000 76 91 09 be 24 a2 a5 bd ab 3f 00 bd 1c f4 84 3d
       -0.13434395 -0.080875665 -0.03131072 0.06491873
000010 54 8f d9 3d 71 2e c1 bc 20 4d 92 3d 04 ad 0b be
       0.10623041 -0.023581715 0.07143617 -0.13640219
000020 82 c0 60 bd b6 f5 d5 3d 22 ef 2a be 22 be 50 3d
       -0.05487109 0.10447256 -0.16692784 0.050962575
000030 58 18 94 3d b5 d8 2e be fb 23 1f be 52 62 ea 3d
       0.07231206 -0.17074855 -0.15541069 0.11444534
000040 0f ca 1e be dc 26 03 3e cd 95 29 bc 94 e6 a1 3d
       -0.15506767 0.12807792 -0.010350657 0.079053074
000050 85 fc cf bd 61 d0 d7 3c 33 10 24 3e 1a a7 5f 3e
       -0.10155586 0.02634448 0.16021805 0.21841088
000060 a9 b1 12 3e f8 1a bf bb d3 b3 31 be 6e 9d 8b bd
       0.14325584 -0.0058320723 -0.17353754 -0.06817137
000070 79 46 f4 bc 7b 66 65 be 80 7b 04 3e d7 71 11 3e
       -0.02981876 -0.22402374 0.12937737 0.14203583
000080 28 a2 58 3d 8d 14 f3 bd fc a2 8a 3d f5 3b 0a be
       0.05288902 -0.11869154 0.06769368 -0.13499434
000090 4d cb c6 3c 7e 61 96 bd 66 c0 1f 3e 3c 28 32 be
       0.024266863 -0.07342814 0.15600738 -0.1739816
0000a0 26 95 66 ba 5d f0 62 3c bd 10 b3 3d 69 5e e5 bd
       -0.00087960286 0.013851252 0.08743427 -0.11199648
0000b0 a7 33 c9 bd 75 68 1c be e1 1c 03 3d 28 08 1a bb
       -0.09824305 -0.15274222 0.032009963 -0.0023503397
0000c0 f2 bf c9 bc c9 3c d5 3d 6d b1 d1 3d 2b 2e 8f 3d
       -0.02462766 0.104119845 0.102389194 0.06991228
0000d0 19 07 8b 3d 9f 4e 4b 3e de bc 6c be 0a 70 87 bd
       0.06788463 0.1985421 -0.23118922 -0.06613167
0000e0 09 f2 c5 3d 80 03 92 3d 85 9d d2 bd 96 91 ae bd
       0.09665305 0.07129574 -0.10283951 -0.08523862
0000f0 25 c6 2d 3e 22 45 33 3e 74 18 d0 3c e0 21 11 3e
       0.16970117 0.17506841 0.025402285 0.14173079
000100 a7 5e 5e be e1 dd 08 bd 8f d6 1b 3e 75 af 50 3d
       -0.21715795 -0.033414725 0.15218566 0.05094858
000110 af 31 04 3e 65 ad 02 be ea d6 a9 bc 83 14 48 bc
       0.12909578 -0.12761457 -0.020732362 -0.012211922
000120 a9 23 53 bd 35 b4 0d 3e 5b 82 01 3e a5 3e 18 be
       -0.05154768 0.13838275 0.12647383 -0.14867647
000130 dc ae 15 3e a4 38 15 be d5 65 da bc 58 20 2d 3e
       0.14617485 -0.14572388 -0.026659885 0.1690687
000140 f3 1f 58 3e f1 9c 8f bb d9 8b 9f 3d 7b 4c e7 bd
       0.21105938 -0.0043827225 0.07790346 -0.11293884
000150 ff 19 94 bc c7 a8 1f 3b 85 5d 30 be 28 70 f1 3b
       -0.018078802 0.0024362074 -0.17223175 0.0073681064
000160 6f 4d 97 3d f9 60 22 be 2c fb e1 bd 65 05 17 3e
       0.07387816 -0.15857305 -0.11034235 0.14748152
000170 38 ef 71 3c 6d 15 a6 3d fc 93 d7 bd 6c 1a 8a 3d
       0.014766507 0.081095554 -0.10526273 0.06743321
000180 5d bf 0c be 6b 6e b0 3d 5b 6e 05 be c2 0b 0b 3d
       -0.13744874 0.086148106 -0.13030379 0.03394676
000190 11 a4 ce 3c a0 92 0d 3e 03 20 71 be 96 29 91 bd
       0.025224717 0.13825464 -0.23547368 -0.0708801
0001a0 e8 10 33 3e 2f 55 20 bc 8e 61 01 3d a1 84 1f 3e
       0.17486918 -0.009785934 0.031587176 0.15577938
0001b0 23 29 38 bd f1 28 24 be 2a fe 29 3d 16 5f 1e bd
       -0.044961106 -0.16031243 0.041502155 -0.0386649
0001c0 34 b4 ad bd 25 31 a6 3d db cc 33 bd 14 64 fe 3c
       -0.08481637 0.08114842 -0.043896537 0.03105358
0001d0 c2 7d 15 be de 8d bc 3d cc d2 51 bd be 66 d5 bd
       -0.14598754 0.092067465 -0.051226422 -0.10419987
0001e0 3d 49 3e 3e 42 22 65 bd 0a 12 1d 3d bd f0 5c be
       0.18582626 -0.055940874 0.03834728 -0.2157621
0001f0 9f a4 de 3c a3 04 d1 3c 7d e8 87 be 59 52 82 be
       0.027178107 0.025514906 -0.26544562 -0.2545345
000200 ca e5 76 3d 80 52 74 3c bd 26 d7 bd df ad c7 bd
       0.060277738 0.014912248 -0.105054356 -0.0974996
000210 b8 98 a4 3d 40 40 1b 3d 04 63 a1 be 9e 18 05 be
       0.08036941 0.03790307 -0.31520855 -0.12997672
000220 9e a9 88 be 24 39 4e bd 5b cb 25 be 1b 9b ae 3b
       -0.26691908 -0.050347462 -0.16190855 0.0053285486
000230 46 39 95 be 6a 1e 88 3d 9a 99 82 bd 81 56 1c be
       -0.2914526 0.06646426 -0.063769534 -0.15267374
000240 37 14 08 3e 40 ab 20 bb 1e ac b6 3b 98 97 19 bc
       0.13288961 -0.0024516135 0.005574717 -0.009374522
000250 06 a4 83 bd 4f 18 98 bd d8 cb 86 3d 0b b7 e5 3c
       -0.06427769 -0.074265115 0.06581849 0.028041383
000260 d7 53 fa bc 12 dc a2 bd ad f1 88 3d cd db 9b 3d
       -0.030557556 -0.07952131 0.06686721 0.07610283
000270 18 1d 90 3b 9e 82 b1 3a 0b 46 e5 bc da c8 80 3d
       0.0043979995 0.0013542955 -0.0279875 0.062883094
000280 be 1b 43 3e 82 26 da bc 74 6d c6 3c d4 5e 0e 3e
       0.19053552 -0.02662969 0.024222113 0.13903362
000290 8a b6 97 3d 83 a8 1f be a8 1c f8 3d 8c e9 53 3e
       0.074078634 -0.15591626 0.12114841 0.2069456
0002a0 f3 a4 13 be 54 ab ab 3d b2 33 99 bc f6 ac b8 3c
       -0.14418392 0.083822876 -0.018701408 0.022543412
0002b0 d6 f9 5d bd e1 ac 5b 3d 58 1c 0d 3e 0f 70 31 3e
       -0.05419334 0.053631667 0.13780344 0.17327903
0002c0 11 00 06 be 33 53 59 bd 80 f3 ef ba 0e ed d8 bc
       -0.13085963 -0.05305786 -0.0018306822 -0.026480224
0002d0 6b 41 2e 3d 7a 96 bb 3d a1 bd 0e bd c5 46 af bd
       0.042542856 0.091595605 -0.034848813 -0.0855842
0002e0 36 01 ca bd 50 9e 06 be 54 d6 98 bd a2 51 00 3e
       -0.09863512 -0.13146329 -0.07462755 0.1253114
0002f0 5d 4e 1b 3c 8b e1 37 be df eb 88 bd 9c fd de bd
       0.0094791325 -0.17957132 -0.06685614 -0.10888216
000300 03 fb 69 bd 8c 0d d2 3d 70 43 a2 3d d3 c8 2e be
       -0.05712415 0.1025649 0.07923019 -0.17068796
000310 fd ca 20 3e 3d 4c 8f 3d a7 57 21 3e a2 03 20 be
       0.15702434 0.06996963 0.15756093 -0.15626386
000320 4b 97 b4 3c e9 08 b7 3d 83 ee 2b 3e 07 4f f4 bd
       0.022044798 0.08937246 0.16790204 -0.11929136
000330 48 d8 ad 3d 7e aa 3a 3e f3 8a c6 3d fa b1 8e bc
       0.08488518 0.182291 0.09694471 -0.01741885
000340 3c 6f 9e bd fd 4e 1d 3e 8d 1f f4 bb a6 ed 5b 3e
       -0.0773606 0.15362163 -0.00745005 0.21477374
000350 9a 2d a7 3d 1a 31 13 3e 92 57 09 3e 8d 77 03 3e
       0.08162995 0.143742 0.13412312 0.12838574
000360 ea 26 d6 bd 39 ec a2 3d 36 fb 2c 3e 66 a7 c2 bc
       -0.10456641 0.07955212 0.16892704 -0.023761462
000370 bf 47 e0 bc c4 10 dc 3d 97 18 af bc a9 b4 16 bd
       -0.027377961 0.10745385 -0.02137403 -0.036793385
000380 15 95 f3 3d 17 0e 8e 3d e4 62 96 3a 6c 22 35 bd
       0.118936695 0.06936281 0.0011473563 -0.04422228
000390 56 5b 31 bd 03 38 6d be c0 ad a4 bd c2 43 eb 3d
       -0.043299995 -0.23165898 -0.08040953 0.11487533
0003a0 e5 99 47 3d 75 58 a1 be cc 2e bb 3c 65 39 a5 3e
       0.04873075 -0.315128 0.022849463 0.3227035
0003b0 00 04 8f be 41 dd 97 be 76 27 34 be 27 d9 7b bd
       -0.2793274 -0.2966099 -0.17593178 -0.06148639
0003c0 0b fc 81 be 12 fc cc bd ce 9f 80 3e a8 1c ef bd
       -0.25387606 -0.10009016 0.2512192 -0.116753876
0003d0 9a 82 82 3d da ed 2a be 6a cc e2 bb 60 34 88 be
       0.063725665 -0.16692296 -0.0069213407 -0.2660246
0003e0 c0 b8 6d be 45 7e 90 be d8 9e 6c be 8b 98 2e be
       -0.23215008 -0.28221336 -0.23107469 -0.17050378
0003f0 da 67 3c bd c2 5a 0d be ad 36 2a be 1f 4a 5b 3e
       -0.045997478 -0.13804153 -0.1662242 0.21414994

lstm.weight_hh_l1 f4 [152, 38]
000000 37 26 2c bd fc bb 63 3e 68 63 16 bd 2c 89 05 bd
       -0.042028632 0.22239679 -0.036715895 -0.03260152
000010 8b 44 37 3e c0 c9 72 be 88 d3 1c be 29 c7 3c 3e
       0.17897241 -0.23709774 -0.15315068 0.18435349
000020 8f dd 2c be 78 d7 15 3d 65 be 16 3c 52 02 fb bc
       -0.16881393 0.03658244 0.009200667 -0.030640755
000030 ad 18 81 bd 1e 66 80 3d b9 92 d8 bd e3 b9 86 3d
       -0.06303535 0.06269477 -0.1057486 0.06578424
000040 30 98 06 3e a4 7f 2c 3d a7 27 38 3e f1 1d 10 3d
       0.13143992 0.042113915 0.17983876 0.035184804
000050 d4 0c 47 3e ce 0e 1a bd b0 e4 7e 3d fd cf 11 bd
       0.19438487 -0.037611775 0.062229812 -0.035598744
000060 c0 e6 d5 bd cc 65 b4 bd 1e d6 16 3d 0c d8 2e bd
       -0.10444403 -0.08808479 0.03682529 -0.042686507
000070 a3 12 9b bd 31 c6 27 3e 0e 41 80 3d dc 25 66 3e
       -0.07571914 0.16384198 0.06262408 0.2247538
000080 35 e5 19 bd 8d 8b bc bd 1d 8a 37 be c2 90 e7 3d
       -0.037572104 -0.09206305 -0.1792378 0.11306907
000090 e2 ce 9e 3c 50 c0 49 3d c4 ad 06 bc 92 69 ce 3d
       0.019385759 0.04925567 -0.00822014 0.1007873
0000a0 fb 19 7f 3e 34 55 76 bd b2 dc c8 3d ca d6 35 be
       0.24912255 -0.06013985 0.09807719 -0.17757717
0000b0 38 78 25 be 68 bc 43 3e a5 be a3 bd ac 4a d1 3d
       -0.16159141 0.1911484 -0.07995347 0.10219321
0000c0 75 31 f5 bd 98 d2 2a be 4a df 46 bd 1a 57 85 bd
       -0.11972324 -0.16681898 -0.04855279 -0.06510754
0000d0 46 02 34 bd 0b 9b 17 be d7 a6 05 3e cd 14 78 bc
       -0.04394748 -0.14805238 0.13051926 -0.015141678
0000e0 dd 42 54 3d 58 92 ed bd 77 e8 88 3d c1 82 ec 3c
       0.05182158 -0.116001785 0.06684964 0.028870942
0000f0 f9 93 d7 bd d1 72 94 3c 79 f9 8e bd c4 0f be bc
       -0.105262704 0.018121155 -0.06981177 -0.023200877
000100 cf 47 4b 3d d5 f5 05 3c a9 99 1c 3d 8b 7e 46 3e
       0.04962903 0.008176287 0.03823248 0.1938421
000110 5a cf 07 3e 4b 3f 74 3e f8 4d 76 3e ec 7a c6 3d
       0.13262692 0.2385227 0.2405318 0.09691414
000120 59 9f 30 3c 17 b9 de 3d 51 9a 79 3e e1 e2 9a bb
       0.010780179 0.10875147 0.24375273 -0.004726753
000130 7d bf c6 3d 52 48 30 3d c6 e2 4d 3e bd f3 23 bd
       0.09704492 0.04303772 0.20106038 -0.04002737
000140 80 7a 5e 3e 3e 4b 2f 3d f9 a4 1b be 95 c6 d6 3d
       0.21726418 0.042796366 -0.15199651 0.10487095
000150 ab 58 b3 bd 85 e0 58 3d 87 c1 15 be 53 da 13 be
       -0.087571464 0.052948494 -0.14624606 -0.14438753
000160 c8 e9 64 3e 59 d6 77 be 1f ed 5d be c3 09 25 be
       0.22354805 -0.24202861 -0.21672486 -0.16117005
000170 5e cd b4 3d f9 1f ed bb 64 1e 4f 3e 65 9e 0a 3e
       0.08828233 -0.0072364775 0.20226437 0.13536985
000180 36 26 ec bc 59 7d e4 bd 54 fb f3 bc 47 6c 8d 3d
       -0.028826814 -0.11156721 -0.029782929 0.06905418
000190 51 7e 66 bc 71 16 a3 3d 81 40 9a 3d 3f 49 64 be
       -0.014068202 0.07963265 0.075318344 -0.22293566
0001a0 33 1a 4c be 32 5c 33 bc 52 99 33 3e 99 fc dd bc
       -0.19931869 -0.010947274 0.17538956 -0.027097987
0001b0 d4 36 e5 3d 50 f4 0f be 84 6b f0 bd 77 aa 34 be
       0.11192098 -0.14058042 -0.11739257 -0.17643152
0001c0 80 85 f2 3d 77 a9 4d be 7f 0d 01 bd c6 eb b8 3d
       0.11841869 -0.20084177 -0.03150701 0.09029345
0001d0 c9 c0 d0 3d b2 c8 42 be 43 28 54 3e 76 80 0a be
       0.10193021 -0.19021872 0.20718484 -0.13525566
0001e0 cd c8 a2 3c d7 70 28 3e 64 3d 9a bd a1 d2 6a 3e
       0.01987114 0.16449295 -0.075312406 0.22931911
0001f0 35 cb dd bd 4d c5 93 bd 5a dc 9f 3d de e2 2f be
       -0.10829774 -0.072153665 0.078057006 -0.17176387
000200 a4 e3 0e be d5 fd 15 3d e9 14 d1 3d 34 87 b2 bd
       -0.13954026 0.036619026 0.102090664 -0.08717194
000210 e7 86 18 bd dc 47 a3 be ec f3 f1 bd cd cb d5 3c
       -0.037238028 -0.31890762 -0.118141025 0.026098156
000220 29 c7 70 be 99 43 02 3e f9 56 13 be b0 c8 55 3e
       -0.23513474 0.12721099 -0.14388646 0.20877337
000230 8d 52 65 be 1e 36 ae 3c ad 7a 50 be 62 f7 2b 3d
       -0.22394772 0.02126604 -0.20359297 0.04198397
000240 3d bb 40 3e 96 64 3d 3e 82 0a 3c 3e d7 d9 c8 3c
       0.18821426 0.18495402 0.18363383 0.024517937
000250 5c 6e 26 be d2 e1 18 be 8f 85 24 3d 24 27 78 3d
       -0.16253036 -0.14929894 0.040166434 0.060584202
000260 31 54 2f 3e 60 75 46 3d 48 19 bc 3d d9 2c 72 bc
       0.1712196 0.04845178 0.091845095 -0.0147812
000270 08 28 b9 bb 71 41 fd bc d5 a8 7a 3d 9d e1 6a 3e
       -0.005650524 -0.030914994 0.061196167 0.22937627
000280 eb 5e 01 bd 1b 3e 66 3e 61 f3 bc bd ce c1 1b be
       -0.03158466 0.22484629 -0.09226108 -0.1521065
000290 23 9a 3b 3e ab 1d e3 bd 32 ad 36 be a0 78 6f 3d
       0.18320517 -0.11089643 -0.17839506 0.058464646
0002a0 dc 34 69 3e 7a 9e 04 be 52 b0 55 3e b2 e0 c2 3d
       0.2277407 -0.12951079 0.20868042 0.095155135
0002b0 a8 bf d3 3d 4f ca 69 3d 4d 3d 23 be f7 e9 fb bc
       0.1033929 0.057077702 -0.15941353 -0.030751212
0002c0 d9 6c d4 bd 26 87 56 3d d7 9b 32 be 77 66 0f bc
       -0.103723235 0.05237498 -0.1744226 -0.008752457
0002d0 ba cb 17 be eb ea 6a 3d 55 4c 11 3c c8 25 fc 3d
       -0.1482381 0.05735294 0.008868297 0.12311894
0002e0 05 98 2c 3d ac bf 6b be 11 d9 2e bd b9 0b 00 3e
       0.042137165 -0.23022336 -0.04268748 0.12504472
0002f0 eb 06 9b 3c 72 9e 65 be fc 78 e7 3d df ca a3 3c
       0.018924197 -0.22423723 0.11302373 0.019994197
000300 b0 df 1e 3e 48 31 8d bd 4f 84 d0 bc fa 5c 51 be
       0.15515018 -0.06894165 -0.025453715 -0.20445624
000310 1a 94 73 3d b2 8d d4 3d 0c 48 fb bd 8f b1 56 bd
       0.059467413 0.10378589 -0.12269601 -0.052415427
000320 ab 71 24 be 55 ac 68 3d 65 14 c7 3d 5b 0d 3e 3d
       -0.16058986 0.056804974 0.09720687 0.046399456
000330 10 8d 28 bd 65 90 27 bd 1f 2b 51 3e 50 c7 43 3d
       -0.041150153 -0.04090919 0.20426606 0.0477975
000340 61 fc 6a 3e e4 75 06 3d 7b 5e 08 be 3c 2b 8e 3c
       0.22947837 0.032827273 -0.13317291 0.0173546
000350 e1 45 17 3e 5e 18 43 bb 19 b2 27 bd db a5 fa bb
       0.1477275 -0.0029769163 -0.04094133 -0.007649166
000360 32 94 0c be 92 d6 71 be d2 2e 81 bd 03 f0 92 3c
       -0.13728407 -0.23617008 -0.063077584 0.017936712
000370 ea 45 49 3e 51 65 cd bc 9f 9f 07 3e bc 9c 27 be
       0.19655576 -0.025072725 0.13244484 -0.16368383
000380 e9 27 92 3d 8c b0 9e bd c5 06 50 3c ed 54 29 be
       0.071365185 -0.077485174 0.0126969265 -0.16536303
000390 36 fa 0d 3e 32 79 ff bb da 42 82 bd 5b 3f a5 3b
       0.13864979 -0.00779643 -0.06360407 0.005042953
0003a0 2c 40 bb 3d d7 68 d5 3d 43 df 91 bb 7c b9 9c 3e
       0.09143099 0.10420387 -0.0044516637 0.30610263
0003b0 c3 8a 3e bb 08 c7 42 be 40 5b cd bd a2 5e 5f 3e
       -0.0029074408 -0.19021237 -0.1002717 0.21813443
0003c0 5f 3d c6 bd 24 10 4d 3e 93 bd db 3d 75 70 2c 3d
       -0.09679674 0.20025688 0.10729518 0.042099435
0003d0 fb 74 6b bd 18 97 24 3e 7a 48 1e 3e 47 ac 5d be
       -0.05748461 0.16073263 0.15457335 -0.2164775
0003e0 ee cb d1 3e f9 b0 27 3e 1d bc dd bd 23 97 4d 3d
       0.40975899 0.16376103 -0.108268954 0.050192963
0003f0 af 8f af bd 33 d8 4d bb 36 23 09 bd fa ad 70 3c
       -0.08572327 -0.0031409382 -0.033480845 0.014689917

lstm.bias_ih_l1 f4 [152]
000000 9c 9f 7a bd b9 d8 c0 3d 3a 70 4f 3e 59 90 2a 3d
       -0.06118737 0.094163366 0.20257655 0.041641567
000010 44 ee ce 3b 3e e1 f9 3d c4 42 58 be bf 08 49 3d
       0.0063150246 0.12201165 -0.21119219 0.049080607
000020 bc ae e8 3d 45 0f 51 3e be e0 de 3d d3 70 a6 bc
       0.11361453 0.20415981 0.1088271 -0.02031747
000030 04 32 5b 3e ea 31 52 3e ce 15 3a 3b d1 cc 63 3c
       0.21405798 0.20526853 0.0028394344 0.0139038125
000040 80 25 1c 3d dd b1 cc 3d 7d 1b dd 3d 7d 70 25 be
       0.0381217 0.09994862 0.107962586 -0.16156192
000050 90 66 13 be c7 62 7f 3e d5 c7 e6 3d 21 18 3e bd
       -0.14394593 0.24940024 0.11268584 -0.04640973
000060 b3 9c 00 3e 3c 34 48 3e 1a 5a 0c 3e 23 48 70 3e
       0.12559776 0.19551176 0.13706246 0.23465018
000070 db 60 9a bc 1e 93 dd bc 2b 26 85 3d e5 b9 31 3e
       -0.018845012 -0.02704769 0.065014206 0.1735607
000080 50 0a 4f 3e 0e 54 3c bd 92 2a 08 3e e5 f0 3a 3e
       0.20218778 -0.0459786 0.1329749 0.18255956
000090 e7 dd 10 bd 3d 8f 76 3e 1d dc 3d 3e 78 58 7d 3d
       -0.035367873 0.24078079 0.18540998 0.06185195
0000a0 14 a5 84 3e 75 bb 08 3e 87 0d c6 bc 97 29 3f 3e
       0.25907195 0.13352759 -0.024176372 0.18668209
0000b0 b5 54 56 be b3 5e 94 bd 1f 56 87 3d 21 52 03 3e
       -0.2093075 -0.07244625 0.06608223 0.12824298
0000c0 e3 e3 90 3d 48 d7 2b bc a6 12 83 3d 59 57 cf 3d
       0.07074716 -0.010488339 0.06400041 0.10124082
0000d0 79 c3 b1 bb 3a 97 4f 3e d6 58 21 3e d4 3e 43 bd
       -0.0054249135 0.20272532 0.15756544 -0.04766734
0000e0 77 5c c0 3d 66 2e 7b 3d f0 cb 86 bd a2 2e 6b bc
       0.09392636 0.061323546 -0.06581867 -0.01435438
0000f0 47 26 68 3e 3d a3 d3 bc aa 90 a8 3c 6f 57 96 3d
       0.22670852 -0.025834674 0.020576794 0.073408954
000100 32 f7 44 bd 7e 2d 94 3d c3 1e 3f 3e 65 4e 22 3e
       -0.048087306 0.072352394 0.18664078 0.15850218
000110 78 1e ab 3d 7d 83 b6 bc 14 0d df 3b 87 91 73 bd
       0.08355421 -0.022279495 0.006806979 -0.059464958
000120 7d 58 c2 3d 7a 43 97 bc df e6 4c bd 77 df c5 3d
       0.09489534 -0.018464793 -0.050024863 0.09661763
000130 d1 df 50 3e a9 2d 2c 3e 81 19 b7 bc 28 ac 38 3d
       0.20397879 0.16814293 -0.022351028 0.045086056
000140 c9 b9 8b bc ce 65 f5 bd 84 c5 9c bd 28 6a 02 bd
       -0.017056363 -0.11982308 -0.076548606 -0.03183952
000150 69 4c d4 bc ce ac 0c 3e a0 a6 90 3d 02 4b f8 3c
       -0.025915341 0.13737795 0.07063031 0.030309204
000160 5c 7f 76 3e 88 87 84 be ec 6a 1c bd 80 7b 13 3d
       0.24072021 -0.25884652 -0.038187906 0.03600645
000170 94 8b 20 3e 7f 98 17 be 26 20 02 3e 6c b2 66 3d
       0.15678245 -0.14804266 0.12707576 0.0563225
000180 d0 1d 86 3d 61 a7 23 be 15 96 f2 bc da f7 8a 3d
       0.06548655 -0.15981819 -0.02961258 0.06785555
000190 b8 59 65 be ca c1 99 38 0c e0 b5 3c 6d 5a 88 bd
       -0.22397506 7.3317045e-05 0.02220156 -0.06657872
0001a0 1f 53 de bd ec 78 57 3e 82 3b 26 3d 44 82 a0 3c
       -0.10855698 0.21042222 0.040584095 0.019593365
0001b0 c7 74 4b bd dc 17 59 3d 2a 43 4f bd f8 c0 74 bc
       -0.049671914 0.05300127 -0.050601162 -0.014938585
0001c0 c4 ef 7b 3e 65 f7 1c be 70 13 30 3e ef 8a ce 3d
       0.24603182 -0.15328749 0.17194915 0.10085093
0001d0 87 24 46 3d fe 51 85 3b 33 67 c3 bd 37 12 df bc
       0.04837468 0.004068612 -0.09541168 -0.027230365
0001e0 04 71 1c be a7 a6 ef bd b2 20 05 3e 0d 55 d0 3c
       -0.15277487 -0.11701708 0.13000754 0.02543118
0001f0 a6 19 8e bd db e1 6a 3e 84 2b 34 3e e6 28 5a 3e
       -0.06938486 0.2293772 0.17594725 0.21304664
000200 2f f6 5e 3d 3a c3 5e bc e7 73 5d 3d 77 20 0f 3d
       0.054433998 -0.01359635 0.05406561 0.03494307
000210 10 7d 4b 3e 21 b9 c3 3d fd 3e 79 be 1a 86 f5 3c
       0.19871926 0.09556795 -0.24340434 0.029971171
000220 46 3c ec 3d 11 be 51 3d 46 6c d2 3c fd 46 09 bd
       0.11534934 0.051206652 0.025686394 -0.033514965
000230 a4 c8 3a be a0 2d 41 bc 51 54 2a 3e e9 aa d0 3d
       -0.18240601 -0.011790663 0.16633727 0.101888485
000240 e2 bf 23 be d5 2d ab 3d 8b 0d d6 3d 05 42 ef 3d
       -0.15991166 0.08358351 0.10451802 0.11682514
000250 a9 76 de 3d a7 bf 3d bd 53 cb b5 3d ef a1 20 3e
       0.108624764 -0.046325352 0.08876672 0.15686773

lstm.bias_hh_l1 f4 [152]
000000 24 5c e5 bc cf 4b 7d 3e 7e 45 98 bd af a9 3a bd
       -0.027998038 0.2473595 -0.074351296 -0.04557198
000010 d7 ec f0 bc eb 45 5b 3e a3 17 a5 bd f9 6d ac 3d
       -0.029409809 0.2141339 -0.08061149 0.08419413
000020 26 bb 28 3e 08 87 20 3e 9e bf 20 3e ae 1c a4 bd
       0.16477641 0.1567651 0.15698096 -0.08013283
000030 d9 8c fe 3c d0 bb 29 3e 2d 88 2b 3d 5b fe 94 3d
       0.03107302 0.16575551 0.041877914 0.07275077
000040 55 e9 67 3e b0 9f b6 3c d3 3e 1c 3e f8 82 72 3d
       0.22647603 0.022292942 0.1525834 0.059206933
000050 09 39 f9 bd f9 5a f3 bc c4 47 08 3d 55 58 30 3d
       -0.12169082 -0.029706465 0.033271566 0.04305299
000060 06 f1 3d 3e ab 85 7c 3d ab 03 03 3e 34 ce c7 3c
       0.18548974 0.061650913 0.12794368 0.024390317
000070 c0 51 63 3e 18 3d 83 3d 60 83 04 3e b8 10 9e 3d
       0.22199154 0.06408137 0.1294074 0.077180326
000080 d4 27 4c 3e 55 a9 76 bc 07 e4 f2 3d 8f 08 0a 3d
       0.19937068 -0.01505502 0.11859899 0.03369957
000090 e6 b5 a5 3d 41 f1 7d 3e 34 b5 6b 3e aa 22 40 bd
       0.08091335 0.24799062 0.23018342 -0.04690806
0000a0 8e 9d 31 3e d5 c3 d5 3d 9d 0f 07 3e fb fe 79 bd
       0.17345259 0.104377426 0.1318955 -0.061034184
0000b0 eb ac d1 bd f3 3d 85 3d 7d c6 7e bb cc a8 78 3e
       -0.102380596 0.065059565 -0.0038875632 0.24283141
0000c0 2c 7f 52 bd af 59 4f bc 93 22 e9 3c 4a af ea 3d
       -0.05139081 -0.01265566 0.02845887 0.11459215
0000d0 86 45 39 3e 7f 6d 02 3e 18 bc 1f 3e 31 b3 4e 3d
       0.18092927 0.12737082 0.15599096 0.05046386
0000e0 d1 1a 7a 3d 9c f1 9d 3d be 9c 5c 3d 1d 66 06 3d
       0.06106073 0.07712099 0.05386042 0.032812227
0000f0 70 57 64 3d 57 45 45 3c 79 60 30 3e 87 26 0e 3e
       0.05574745 0.012040458 0.17224301 0.13881885
000100 0e 60 fb bc 1c de f9 3d df 5d 76 3e 3b 37 2f bd
       -0.03068545 0.12200567 0.24059246 -0.04277728
000110 c8 ac a8 bd 34 cf 60 3e 62 e4 65 3e 5a 92 41 3e
       -0.082360804 0.21954042 0.22450402 0.18903485
000120 8a 25 e5 bb c6 61 c5 bc 38 09 1c 3e b8 31 ca 3d
       -0.0069930004 -0.024094474 0.15237892 0.09872764
000130 c6 e5 2b 3e ed de 58 3d c8 32 73 3e d9 5c 2a bc
       0.1678687 0.052946974 0.2374984 -0.010398113
000140 13 92 c9 3d a4 62 0e bc a7 b7 08 be 99 17 80 3d
       0.098423146 -0.00869051 -0.13351308 0.06254501
000150 c1 a8 78 3d c9 35 70 3d 90 5b 67 be c9 d4 ee bd
       0.06070781 0.058645044 -0.22593522 -0.11661679
000160 5c 73 52 3e 45 d7 90 bd ae 6b 51 be 6f 15 5f be
       0.20551819 -0.070723094 -0.20451233 -0.2178552
000170 12 be 32 3e 07 28 2b be 0e 31 7d 3e 51 96 66 be
       0.17455319 -0.16714488 0.24725744 -0.22518279
000180 c8 a2 0e bd 96 f7 32 be 1e bc 6b 3d dd d8 7c 3e
       -0.03482321 -0.17477259 0.05755245 0.24692102
000190 82 84 4e be 1b 68 83 bb ce b4 aa 3d 96 73 65 be
       -0.20167735 -0.004010213 0.08335267 -0.22407374
0001a0 6e 63 27 be 40 03 5b 3e 73 6b 94 3d c9 d6 6a 3e
       -0.16346523 0.21387959 0.07247057 0.22933497
0001b0 3b 50 29 3e 51 da c6 bd 11 42 3a be b4 36 59 be
       0.16534512 -0.09709609 -0.18189265 -0.21212274
0001c0 79 66 c1 bc 75 40 db 3c 30 39 73 3d 79 0d 1e 3e
       -0.023608433 0.026764134 0.05938071 0.15434827
0001d0 34 48 8e 3d d9 6a fb 3d 72 bc 3f 3d 1d eb 87 3e
       0.069473654 0.12276239 0.046810575 0.26546565
0001e0 7e 8c 6c be e0 68 d0 bd 1b 02 a1 bc 3d df 8e bb
       -0.23100469 -0.10176253 -0.019654324 -0.004360108
0001f0 c2 bd 01 be cd 67 b8 3d a9 f9 3c 3d 85 72 8c 3e
       -0.12670043 0.090041734 0.046136532 0.2743112
000200 3e 62 c3 3d 37 01 72 3e dd 92 4a bd dc 06 47 3e
       0.095402226 0.23633276 -0.049456466 0.1943621
000210 ac e7 34 3e 8d b5 25 be be 33 97 be 48 94 31 3e
       0.17666501 -0.16182537 -0.29531664 0.17341721
000220 bc 76 6a 3c 42 8d 7b ba 6e 01 41 3d 89 fe 96 3d
       0.014310535 -0.0009595939 0.047120504 0.073727675
000230 58 4b 36 be bd 7d 5b 3e 07 26 7e 3e cf a3 76 3d
       -0.17802179 0.21434684 0.24819194 0.060214814
000240 d4 08 82 3c e7 01 0c 3d 56 36 99 3e c5 12 86 3d
       0.01587335 0.0341815 0.29924268 0.06546549
000250 88 28 c4 3c 12 37 25 3b 77 0f 3c 3e 0a f3 31 3e
       0.023945108 0.0025209826 0.18365274 0.17377868

fc.weight f4 [1, 38]
000000 bd a0 db 3f ce f5 e1 3f 8f 8b e6 3f fd ce de bf
       1.7158428 1.7653139 1.801134 -1.7406918
000010 c1 d2 db 3f 3e a4 dc bf 90 33 e3 3f 58 4a e2 3f
       1.7173692 -1.7237623 1.7750111 1.7678938
000020 f0 13 e0 bf 2b c8 e8 3f af 49 e1 bf c0 0b ef bf
       -1.7506084 1.8186086 -1.7600611 -1.8675461
000030 97 93 dd 3f 14 3b e1 bf 5b 02 e0 bf 06 bd ee bf
       1.7310666 -1.7596154 -1.7500719 -1.8651435
000040 b7 b9 db 3f 06 91 e8 bf 0f f6 e4 3f e3 4a e3 bf
       1.7166051 -1.8169258 1.7887591 -1.7757229
000050 5c b6 e9 3f 10 35 e1 bf 32 b2 e9 bf c6 52 e2 3f
       1.8258777 -1.7594318 -1.8257506 1.768151
000060 ff 8a ef bf 1f c6 f0 3f 54 60 e3 bf 65 9f dc bf
       -1.8714293 1.8810462 -1.7763772 -1.7236143
000070 71 26 e1 bf 58 84 ef 3f 06 70 e1 3f ce 90 e6 3f
       -1.7589856 1.8712263 1.7612312 1.8012941
000080 73 db e9 3f e6 66 e3 bf 00 c7 e9 bf 8b 48 de bf
       1.8270096 -1.7765777 -1.8263855 -1.7365888
000090 39 e1 f1 3f ff 25 e6 bf
       1.8896858 -1.7980345
