models/lstm_trial_2.pth (torch, 156670 bytes, 9 tensors)

lstm.weight_ih_l0 f4 [196, 44]
0.22572257 0.008907399 -0.17829502 0.066468254 -0.008640113 -0.049344663 -0.11833107 0.24599284
-0.19665048 -0.13630785 -0.26941314 0.15660563 -0.053182054 -0.11178863 -0.19231544 0.082318656
0.105577536 0.041790795 0.01641103 0.010826126 0.14741284 0.13561147 -0.043413274 -0.06734676
-0.10325465 0.034019653 -0.073235385 0.09556436 0.20627621 -0.010047167 -0.015493541 -0.16464147
-0.16737229 -0.059045948 -0.050054405 -0.015674178 0.1590649 -0.03258727 -0.15557489 -0.020171067
-0.11554162 0.09274005 -0.081555024 -0.028538825 0.28868398 -0.21883763 0.2330729 0.13370106
0.008590856 -0.039414793 0.06410055 0.21828116 -0.18741527 0.1965717 -0.37027955 0.06368461
-0.17927322 0.15410155 0.08423635 -0.2634757 -0.070563495 0.08880182 0.047691595 0.1980606
0.13637185 0.29787746 -0.20015727 0.12649259 0.12304084 -0.050003152 0.018490117 0.16639578
0.10843959 0.17848034 0.07133667 -0.08269184 0.109010756 0.008466454 -0.06034556 -0.03531695
0.17527723 0.06987156 0.011459364 -0.014640554 0.084993415 -0.046510283 -0.16002092 -0.1492205
-0.35428596 -0.14928871 -0.15529475 0.007896646 -0.042394046 0.12101171 0.023335617 -0.07441435
-0.055503156 0.06569037 -0.0685607 -0.0939085 -0.27905566 0.019984618 0.15151237 0.23431441
0.101019084 -0.14198807 -0.13255914 -0.08690262 -0.17222272 -0.090342976 -0.074547626 -0.0029811827
-0.03949838 -0.082383566 -0.005234521 0.27041766 0.054514196 -0.053704556 0.2411801 0.13072829
0.11621069 -0.04518519 -0.10683389 -0.22246763 -0.04638546 -0.1579365 0.124723464 -0.14862998
-0.08897663 0.08750103 -0.19551755 0.27784055 -0.25564006 0.18102083 0.075501025 -0.1849298
0.01067995 -0.07562562 0.18686098 -0.25416008 0.30890954 -0.12918137 0.14255533 -0.0051180716
0.09995355 0.1571405 -0.1623838 -0.13461336 -0.04364129 0.29527417 0.08940217 -0.1940022
0.005601385 0.10198517 0.16309592 -0.087177254 0.033993192 0.045493916 0.07775022 0.10433419
0.048104882 -0.19995452 -0.22442728 0.15390171 -0.011317562 0.0717614 -0.19651324 0.052365225
-0.10102061 0.031575337 -0.104485355 -0.3812126 0.10975817 0.27116913 0.065589264 -0.18914767
0.22277778 0.08070651 -0.13805777 0.106122546 -0.14706767 0.09180764 -0.026229283 0.15043662
-0.12001465 -0.03738425 -0.073032245 -0.22563516 -0.30741116 -0.06955209 0.18501489 0.027051814
-0.27733013 0.007623105 0.027113302 0.14343902 0.014155567 0.02207708 0.07998203 -0.11728121
-0.11877179 0.22331887 0.22110784 -0.041773144 0.04583426 -0.05134485 -0.066311084 0.19016866
-0.25162315 0.011833389 0.26555526 0.1472287 0.026572911 0.012637217 0.02905222 -0.17493378
0.084106185 0.0025816516 -0.08349175 0.2279737 -0.08024975 -0.044923116 -0.016703237 -0.0019650622
0.17027219 0.02334097 -0.023950772 0.013179781 0.17246306 -0.19106993 -0.09736821 0.05833643
-0.044833392 0.16197404 0.23290473 -0.1439386 -0.10629403 -0.021505909 0.2748217 0.14272466
0.07174217 0.1761151 0.03177355 -0.09853254 0.2208317 0.007630942 0.16927224 -0.03668938
-0.021995855 0.21389368 -0.011404743 0.09765988 -0.056976493 0.0213964 0.32009736 -0.000816291
00000000: d123 673e 57f0 113c f892 36be 8220 883d
00000010: 438f 0dbc a11d 4abd 8f57 f2bd 8ce5 7b3e
00000020: be5e 49be 4994 0bbe 85f0 89be 3a5d 203e
00000030: 6dd5 59bd 70f1 e4bd 57ee 44be af96 a83d
00000040: 0939 d83d d32c 2b3d 6d70 863c 1060 313c
00000050: 64f3 163e bcdd 0a3e 1ed2 31bd 19ed 89bd
00000060: 2d77 d3bd 3158 0b3d 6ffc 95bd 3fb7 c33d
00000070: 123a 533e df9c 24bc 9fd8 7dbc c697 28be
00000080: a463 2bbe 2ada 71bd d905 4dbd 2267 80bc
00000090: e9e1 223e 3b7a 05bd 064f 1fbe cb3d a5bc
000000a0: 16a1 ecbd 7fee bd3d 5206 a7bd 41ca e9bc
000000b0: 63ce 933e f916 60be aaaa 6e3e eee8 083e
000000c0: a9c0 0c3c 6871 21bd 2647 833d 1985 5f3e
000000d0: cae9 3fbe 174a 493e 4895 bdbe 146d 823d
000000e0: 6693 37be cccc 1d3e 1c84 ac3d 49e6 86be
000000f0: 9883 90bd bbdd b53d 4358 433d 66d0 4a3e
00000100: 10a5 0b3e 6583 983e 07f6 4cbe 4687 013e
00000110: d6fc fb3d 1bd0 4cbd 9678 973c a863 2a3e
00000120: 9315 de3d 8dc3 363e f618 923d 575a a9bd
00000130: 0841 df3d e2b6 0a3c e82c 77bd 82a8 10bd
00000140: e07b 333e d218 8f3d 0ec0 3b3c efde 6fbc
00000150: 0711 ae3d 9181 3ebd 86dc 23be 42cd 18be
00000160: f864 b5be 24df 18be 9605 1fbe ef60 013c
00000170: 61a5 2dbd fdd4 f73d 562a bf3c 8d66 98bd
00000180: 4757 63bd ac88 863d 8d69 8cbd 1a53 c0bd
00000190: 62e0 8ebe c8b6 a33c 0f26 1b3e 1ef0 6f3e
000001a0: 18e3 ce3d 5265 11be 95bd 07be 00fa b1bd
000001b0: 275b 30be bd05 b9bd 6dac 98bd f25f 43bb
000001c0: 0ec9 21bd b7b8 a8bd 5886 abbb 2f74 8a3e
000001d0: 474a 5f3d 4ff9 5bbd ebf7 763e a3dd 053e
000001e0: dfff ed3d 1b14 39bd bacb dabd 8ece 63be
000001f0: aefe 3dbd 1bba 21be 046f ff3d 7532 18be
00000200: 6139 b6bd bd33 b33d c135 48be 1e41 8e3e
00000210: 41e3 82be 865d 393e 48a0 9a3d 3d5e 3dbe
00000220: f5fa 2e3c 9be1 9abd 7c58 3f3e 4521 82be
00000230: 6429 9e3e 1f48 04be 06fa 113e 7fb5 a7bb
00000240: 72b4 cc3d 70e9 203e f047 26be 16d8 09be
00000250: 36c1 32bd 2d2e 973e 7c18 b73d 83a8 46be
00000260: d38b b73b 9add d03d 9e02 273e fd89 b2bd
00000270: 723c 0b3d d457 3a3d 823b 9f3d 2aad d53d
00000280: a009 453d e1c0 4cbe 44d0 65be 6998 1d3e
00000290: 4c6d 39bc a4f7 923d c43a 49be eb7c 563d
000002a0: e5e3 cebd 2455 013d 6bfc d5bd 4c2e c3be
000002b0: e4c8 e03d aed6 8a3e aa53 863d edaf 41be
000002c0: dc1f 643e 7449 a53d 045f 0dbe c756 d93d
000002d0: e898 16be a505 bc3d cbde d6bc 0f0c 1a3e
000002e0: 3eca f5bd 3a20 19bd ee91 95bd e70c 67be
000002f0: ff64 9dbe 5371 8ebd 8b74 3d3e c49b dd3c
00000300: 37fe 8dbe 3dcb f93b b71c de3c aee1 123e
00000310: c0ec 673c feda b43c 9ecd a33d 2231 f0bd
00000320: a03e f3bd b4ad 643e 186a 623e 511a 2bbd
00000330: b4bc 3b3d fa4e 52bd 1bce 87bd 93bb 423e
00000340: c0d4 80be d5e0 413c dcf6 873e 1fc3 163e
00000350: 6faf d93c 540c 4f3c ecfe ed3c d721 33be
00000360: dd3f ac3d ed30 293b b9fd aabd f071 693e
00000370: fb59 a4bd 4d01 38bd 3ad5 88bc 46c8 00bb
00000380: d55b 2e3e 9035 bf3c 6934 c4bc 02f0 573c
00000390: 289a 303e d6a7 43be fc68 c7bd 2ef2 6e3d
000003a0: 38a3 37bd 86dc 253e 947e 6e3e a464 13be
000003b0: afb0 d9bd 292d b0bc 6eb5 8c3e 6a26 123e
000003c0: 8fed 923d 8457 343e fb24 023d 6ecb c9bd
000003d0: b521 623e fb0c fa3b b455 2d3e 9a47 16bd
000003e0: a730 b4bc f206 5b3e f6da 3abc e701 c83d
000003f0: 2f60 69bd 8147 af3c cde3 a33e 5dfc 55ba

lstm.weight_hh_l0 f4 [196, 49]
0.15865038 0.051091406 -0.07812026 0.09503787 0.030581642 0.009105404 -0.28612635 -0.104474135
-0.06801381 -0.03313843 0.18173471 -0.0507756 -0.04344016 -0.18488413 0.07722591 -0.14760755
-0.096148066 0.22616218 -0.022821186 0.005701513 -0.18271074 -0.010966391 -0.07063951 0.2513055
-0.33896723 0.20597027 -0.07005624 -0.011127159 -0.14775753 0.016333343 -0.17437722 -0.07447086
0.008776286 0.031552162 -0.076002374 -0.18408611 0.028741317 0.09029241 0.253129 -0.052913986
-0.03916049 0.04668441 0.09282002 0.11327474 0.11453754 0.03780369 -0.09309132 -0.09854795
0.18997541 0.08463984 -0.11390139 -0.08650248 0.17237248 0.0035310034 -0.034218386 -0.010809474
0.17135179 0.021144588 -0.3121228 0.18844123 0.03243017 -0.20511867 -0.05448205 -0.23080136
0.2269283 -0.093379445 0.2810037 0.123179846 0.044851806 -0.110798426 0.07167293 0.034450952
0.10566834 0.021296605 -0.13498351 -0.058771387 0.050201748 0.19171405 -0.051950052 -0.120916456
0.095633194 -0.13165446 -0.06606626 -0.29116684 -0.29279867 0.28761584 0.14992107 -0.24371426
0.12426796 -0.19330812 0.15374842 0.07091022 0.0710739 0.32163525 0.212671 0.046129193
0.13948858 0.1646479 0.07958906 0.10444168 -0.26843885 0.21568139 -0.15351574 0.11728676
0.12860426 0.075468406 -0.3547192 -0.26291668 0.046948753 0.07622633 0.06377441 -0.35012066
-0.040244665 0.099129446 -0.13980864 -0.06011144 -0.15550543 -0.2146858 -0.09954733 -0.30087528
-0.041733872 0.07645018 -0.16136344 -0.35899928 -0.14542587 -0.17422952 0.30197504 -0.049847364
0.26032996 0.03849852 -0.09319359 -0.12446202 0.24242076 0.42408824 0.12041155 0.17123753
0.3584897 0.22311331 0.14439319 -0.18438523 -0.18836066 -0.09380674 0.031057708 0.39301488
0.09111043 -0.038527045 -0.1321359 -0.2358871 -0.41827238 0.027816955 0.13103767 0.025935562
-0.029882183 0.2840743 -0.17789118 0.36519098 0.14589189 -0.029353006 0.06262475 -0.34040013
-0.14450851 0.087560594 -0.19411443 0.55657136 -0.11330096 0.1234543 0.35571328 -0.028435184
0.0433905 0.07708315 -0.3241987 0.08875695 0.24881071 0.02576891 0.3708809 -0.029688576
-0.20891985 0.41084918 -0.04538684 0.038368516 0.19247581 0.05855938 0.14122134 -0.08501138
0.038189046 -0.20968236 0.06579687 -0.09283771 0.17569664 0.023010194 0.20659664 -0.09065051
0.021930426 -0.15971294 -0.5822091 0.51510584 0.09308384 0.06966693 0.05747772 0.07280253
-0.09669606 -0.07432899 -0.18061553 -0.017092979 -0.18150917 -0.14649567 -0.07849341 -0.13368978
0.018160565 0.113463804 0.055543996 0.039424177 0.097412385 0.2072492 0.19904731 0.17852703
-0.20275603 -0.097236805 -0.05707939 0.24787723 -0.12943418 -0.0023923197 0.19841182 -0.0018143867
-0.21380147 0.10824315 -0.2641828 0.013532672 0.0213405 -0.029464306 -0.12606919 0.018235622
0.04731511 -0.056545734 0.063283056 0.11822528 -0.22235344 0.12646905 -0.11059549 0.17556004
0.16152178 0.0593217 -0.012151343 -0.15811606 0.10925207 0.35731342 -0.23095056 -0.011397597
0.14640506 0.17116839 0.18901564 0.016819537 0.044289697 0.08825774 -0.054397244 0.001021899
00000000: 3f75 223e 3945 513d 84fd 9fbd 37a3 c23d
00000010: 5a86 fa3c d52e 153c 277f 92be 89f6 d5bd
00000020: d34a 8bbd 2abc 07bd aa18 3a3e 13fa 4fbd
00000030: 4fee 31bd 4452 3dbe 9e28 9e3d 6f26 17be
00000040: 47e9 c4bd 0f97 673e 7ff3 babc c2d3 ba3b
00000050: 8618 3bbe 61ac 33bc 73ab 90bd 1dab 803e
00000060: 1d8d adbe dfe9 523e a579 8fbd b04e 36bc
00000070: c04d 17be 81cd 853c f18f 32be 2e84 98bd
00000080: 69ca 0f3c d73c 013d 22a7 9bbd 1281 3cbe
00000090: e972 eb3c 3aeb b83d 209a 813e 56bc 58bd
000000a0: c066 20bd 2738 3f3d 6c18 be3d 96fc e73d
000000b0: a892 ea3d 0bd8 1a3d a9a6 bebd 82d3 c9bd
000000c0: ea88 423e a757 ad3d 2245 e9bd 3628 b1bd
000000d0: 6982 303e 6868 673b 9428 0cbd 381a 31bc
000000e0: d876 2f3e 6a37 ad3c 8fce 9fbe bdf6 403e
000000f0: 7fd5 043d a10a 52be 9228 5fbd 3157 6cbe
00000100: e45f 683e b93d bfbd b8df 8f3e b745 fc3d
00000110: 87b6 373d 49ea e2bd 42c9 923d 711c 0d3d
00000120: a568 d83d 3876 ae3c 1e39 0abe 44ba 70bd
00000130: 59a0 4d3d b050 443e 94c9 54bd 0ca3 f7bd
00000140: 56db c33d 6dd0 06be bf4d 87bd d213 95be
00000150: b5e9 95be 6242 933e e984 193e 3b90 79be
00000160: 3380 fe3d 90f2 45be 3a70 1d3e 6139 913d
00000170: 318f 913d 60ad a43e 6dc6 593e f7f1 3c3d
00000180: 18d6 0e3e 7699 283e 97ff a23d 85e5 d53d
00000190: d170 89be 95db 5c3e 3b33 1dbe 0a34 f03d
000001a0: d6b0 033e 2e8f 9a3d c19d b5be 049d 86be
000001b0: 564d 403d 8d1c 9c3d 289c 823d 0443 b3be
000001c0: 97d7 24bd 6104 cb3d ff29 0fbe 6a37 76bd
000001d0: d13c 1fbe 98d6 5bbe 78df cbbd 530c 9abe
000001e0: 23f1 2abd e991 9c3d 753c 25be c1ce b7be
000001f0: 85ea 14be 3969 32be 799c 9a3e c02c 4cbd
00000200: f849 853e a0b0 1d3d 48dc bebd f2e5 febd
00000210: 263d 783e 1822 d93e 559a f63d e458 2f3e
00000220: f68b b73e d177 643e cfdb 133e 7bcf 3cbe
00000230: 9ee1 40be c01d c0bd bc6c fe3c 3f39 c93e
00000240: 1b98 ba3d 89ce 1dbd a24e 07be 638c 71be
00000250: cc27 d6be 62e0 e33c bd2e 063e d176 d43c
00000260: 7bcb f4bc 3072 913e 1b29 36be 50fa ba3e
00000270: af64 153e b775 f0bc 6841 803d ed48 aebe
00000280: 0afa 13be f852 b33d efc5 46be 767b 0e3f
00000290: 550a e8bd 9cd5 fc3d 0d20 b63e e7f0 e8bc
000002a0: 3dba 313d c5dd 9d3d 5ffd a5be 34c6 b53d
000002b0: 3cc8 7e3e 5219 d33c 1ae4 bd3e 7535 f3bc
000002c0: 16ef 55be d35a d23e 8de7 39bd 4e28 1d3d
000002d0: 6118 453e f6db 6f3d 549c 103e 721a aebd
000002e0: 1e6c 1c3d f9b6 56be 82c0 863d b321 bebd
000002f0: d2e9 333e e07f bc3c 128e 533e f9a6 b9bd
00000300: 70a7 b33c ca8b 23be a80b 15bf fadd 033f
00000310: bea2 be3d 89ad 8e3d c26d 6b3d 7e19 953d
00000320: 9508 c6bd cc39 98bd 47f3 38be 9306 8cbc
00000330: 8add 39be f602 16be 27c1 a0bd f9e5 08be
00000340: 77c5 943c b65f e83d 1a82 633d 3f7b 213d
00000350: 2580 c73d 2239 543e 0fd3 4b3e cacf 363e
00000360: 479f 4fbe 1724 c7bd 14cc 69bd 87d3 7d3e
00000370: 658a 04be 77c8 1cbb 782c 4b3e b7d0 edba
00000380: c6ee 5abe 96ae dd3d f842 87be 24b8 5d3c
00000390: 46d2 ae3c 215f f1bc 4818 01be df62 953c
000003a0: 7dcd 413d 809c 67bd 8c9a 813d 1820 f23d
000003b0: 9fb0 63be 1a81 013e e37f e2bd 03c6 333e
000003c0: f765 253e 50fb 723d 6d16 47bc 2de9 21be
000003d0: 8dbf df3d c9f1 b63e 4e7e 6cbe fdbc 3abc
000003e0: 35eb 153e c446 2f3e 518d 413e 20c9 893c
000003f0: 1d69 353d 79c0 b43d a5cf 5ebd 3ef1 853a

lstm.bias_ih_l0 f4 [196]
0.12533076 -0.026319463 0.259491 -0.31225196 -0.099408805 0.025332313 0.005297997 0.095298156
0.04628901 0.13103771 0.0029230337 0.087568566 -0.028417578 -0.034154918 -0.13988125 0.110790364
0.2234845 0.07032488 -0.08426882 0.025004243 0.043453716 0.1214341 0.047415476 -0.07894768
-0.16509123 -0.05533368 -0.12447746 -0.042430095 -0.0659938 0.0019786349 -0.28354535 0.013158701
0.09245198 -0.16520754 0.29102924 0.19627117 -0.12951191 -0.18494785 0.058537886 0.10371748
-0.00012293275 -0.1507984 0.15203601 -0.061990082 -0.20179977 -0.14826632 -0.025520768 0.101329595
0.028556747 0.102457225 -0.104713574 0.07607879 -0.028515134 0.020965934 0.015122548 -0.13755699
0.018023731 -0.07411066 -0.002146317 -0.0063840067 -0.024585187 -0.18516068 -0.054590642 -0.3065039
0.36680272 0.02284931 -0.09953658 -0.0750738 -0.09152295 -0.06786531 -0.08303793 0.044651512
-0.044242077 -0.082423 0.13302375 -0.11332419 -0.07542753 -0.0870203 0.20499362 0.05552115
0.08589075 -0.24779575 0.03332947 -0.04962403 -0.10319735 -0.17390458 -0.061320215 -0.16095906
0.022705795 0.004187393 -0.06835349 0.16286503 0.012946696 -0.0830551 0.06614184 -0.091622055
0.1093338 0.16002804 0.18648084 0.08261112 -0.16036329 0.049043182 -0.02596192 -0.08306012
-0.17907463 0.004436996 0.021503003 -0.13912344 -0.07839829 -0.15927479 -0.024071945 -0.23012668
-0.13702832 -0.18988807 -0.15150593 0.12293724 -0.21778071 -0.18882993 -0.09683222 -0.2729578
0.2371164 0.037030913 -0.09308368 -0.18436815 -0.028522165 0.056869313 0.12523907 0.21776122
-0.0011004725 -0.16223449 -0.16171063 -0.17667106 -0.03654471 0.08230875 -0.017272223 0.049941026
0.29760256 0.0642495 -0.098496385 -0.11937114 0.1465347 0.039464228 -0.10473566 0.115268044
0.04748084 0.05004481 -0.302261 -0.007183453 -0.0455391 0.27197862 0.024599332 -0.20505893
-0.06023589 0.04091382 0.21185161 0.13869353 0.036921278 0.17089951 0.020394815 0.0077085444
-0.121835515 -0.1809751 0.17626567 0.15823516 0.06369405 0.007133195 0.08804263 -0.01969662
-0.034268353 0.04226878 -0.19398704 -0.11463331 -0.23361515 -0.08235961 0.25573248 0.14418708
0.033396587 0.120187834 -0.07953355 -0.2512853 -0.18146968 0.16450301 0.15395738 0.036604166
-0.20752813 -0.0144425575 -0.12681262 0.015283499 -0.042944312 0.11733108 0.20370774 -0.1017421
-0.21257399 -0.0033740953 0.093334496 -0.068220936
00000000: b556 003e ea9b d7bc 01dc 843e 7ddf 9fbe
00000010: d896 cbbd b685 cf3c d29a ad3b ae2b c33d
00000020: 8c99 3d3d c02e 063e 5e90 3f3b 2657 b33d
00000030: fbcb e8bc 07e6 0bbd 083d 0fbe 0fe6 e23d
00000040: 1fd9 643e 7e06 903d 2295 acbd b3d5 cc3c
00000050: 86fc 313d 71b2 f83d bb36 423d 52af a1bd
00000060: ad0d 29be 92a5 62bd 0aee febd 2ecb 2dbd
00000070: c227 87bd fcab 013b db2c 91be 9897 573c
00000080: 7757 bd3d 2a2c 29be c901 953e 4ffb 483e
00000090: c59e 04be f862 3dbe 6cc5 6f3d d569 d43d
000000a0: 82e7 00b9 e56a 1abe 54af 1b3e 50e9 7dbd
000000b0: 99a4 4ebe 20d3 17be ee10 d1bc e485 cf3d
000000c0: d7ef e93c 18d5 d13d 1274 d6bd 32cf 9b3d
000000d0: 9298 e9bc c0c0 ab3c 90c4 773c bddb 0cbe
000000e0: 81a6 933c 54c7 97bd 39a9 0cbb ee30 d1bb
000000f0: e066 c9bc c39a 3dbe 709a 5fbd 14ee 9cbe
00000100: 91cd bb3e 7a2e bb3c d6d9 cbbd 4bc0 99bd
00000110: 6270 bbbd f8fc 8abd ca0f aabd 81e4 363d
00000120: 2e37 35bd 64cd a8bd 6137 083e 8316 e8bd
00000130: c079 9abd b337 b2bd d9e9 513e 256a 633d
00000140: 7de7 af3d 2bbe 7dbe 7b84 083d 9142 4bbd
00000150: 2259 d3bd 0b14 32be e82a 7bbd 74d2 24be
00000160: 8101 ba3c 6636 893b eafc 8bbd 17c6 263e
00000170: 611e 543c cb18 aabd 5f75 873d 58a4 bbbd
00000180: 66ea df3d 64de 233e d5f4 3e3e 0530 a93d
00000190: 4636 24be 81e1 483d 18ae d4bc 6d1b aabd
000001a0: 575f 37be 3864 913b 1127 b03c 6076 0ebe
000001b0: 488f a0bd ee18 23be 8732 c5bc 54a6 6bbe
000001c0: 2751 0cbe 0572 42be 5f24 1bbe 85c6 fb3d
000001d0: e801 5fbe a25c 41be f94f c6bd 20c1 8bbe
000001e0: a4ce 723e baad 173d a8a2 bebd 01cb 3cbe
000001f0: 51a7 e9bc ccef 683d ac3e 003e ccfc 5e3e
00000200: bb3d 90ba cc20 26be 7997 25be 42e9 34be
00000210: e8af 15bd 7d91 a83d 7a7e 8dbc f68e 4c3d
00000220: 5d5f 983e 3e95 833d 79b8 c9bd db78 f4bd
00000230: 310d 163e 3ea5 213d a67f d6bd a711 ec3d
00000240: 457b 423d c9fb 4c3d f4c1 9abe 2c63 ebbb
00000250: 3587 3abd c840 8b3e 8a84 c93c f8fa 51be
00000260: e9b9 76bd 4095 273d a1ef 583e ad05 0e3e
00000270: c43a 173d 4800 2f3e 0713 a73c f597 fc3b
00000280: e684 f9bd 8951 39be fd7e 343e 6608 223e
00000290: 0772 823d 94bd e93b b24f b43d ce5a a1bc
000002a0: f95c 0cbd 0722 2d3d 8aa4 46be dec4 eabd
000002b0: cf38 6fbe 28ac a8bd 5eef 823e c7a5 133e
000002c0: dcca 083d 0a25 f63d 7ce2 a2bd 78a8 80be
000002d0: 30d3 39be 7a73 283e 01a7 1d3e 40ee 153d
000002e0: 4182 54be 7aa0 6cbc 2bdb 01be a467 7a3c
000002f0: 60e6 2fbd 474b f03d c398 503e 2a5e d0bd
00000300: ffac 59be ed1f 5dbb 2826 bf3d 6bb7 8bbd

lstm.bias_hh_l0 f4 [196]
-0.09597605 -0.08588785 0.12538712 -0.30641797 -0.08057992 0.17278133 -0.10051355 -0.03707017
-0.025788702 0.063558236 0.0055178995 -0.12000474 -0.20596212 -0.19478875 0.047252394 -0.05625348
0.2213744 0.095183045 0.12385648 -0.0588257 0.015743705 0.021154229 -0.0996822 -0.03213006
0.003984015 0.15933926 -0.104407236 -0.115467064 0.07098799 -0.0052270507 -0.1011514 0.0632754
-0.08996602 0.023773512 0.31638846 0.1444893 -0.02270974 -0.1689651 -0.006876637 0.19199674
-0.029318973 -0.0339097 -0.00062096503 0.18219942 0.00042556907 -0.30123767 0.012841832 0.25822943
0.005809806 0.19932984 -0.13960117 0.2651379 0.0715313 0.06621571 -0.15426698 0.015717685
0.08879803 -0.014431371 0.06505372 -0.040445745 0.050972812 0.047632314 -0.03750518 -0.33035412
0.2532189 -0.07935442 -0.07067917 0.14086004 -0.10386512 0.053066175 -0.022073535 -0.13527931
0.058912117 0.047651354 0.18849993 -0.018949514 -0.008428502 -0.12126725 0.12966773 0.0601635
0.1231166 -0.09540422 0.13852778 -0.08803994 -0.12515074 -0.0027279705 0.083062455 -0.14113238
0.03391563 0.047976233 0.11360217 0.005874989 0.21627432 -0.115174085 0.013410473 0.09722692
0.20889637 0.12676866 0.20222007 0.057289425 -0.25888777 0.041341197 -0.12469806 0.106260434
-0.1609898 0.02436533 -0.018278461 0.038407907 0.016665589 -0.060233276 -0.073209435 -0.21516347
-0.07767926 0.087070346 -0.10601651 -0.04390924 -0.27262348 -0.21794605 -0.024886927 -0.065167315
0.055441547 0.10850638 -0.029678302 -0.29275793 0.18952727 0.008329542 0.077505484 0.1658198
-0.10035892 -0.075587235 -0.02326035 -0.30072206 0.08827736 -0.03583325 0.09042052 0.12227637
0.12645693 0.06618058 -0.22530739 0.10206615 -0.011725873 0.25342178 -0.011818422 0.2228464
0.10767517 -0.014939839 -0.16401263 -0.14781882 -0.04038994 0.29568362 0.07741287 -0.1267228
0.13697244 -0.00841681 0.24419113 0.1682384 0.065678835 0.044215705 -0.14833193 -0.19502178
0.0077319057 0.044370044 0.16527648 0.16134083 0.14815181 -0.12023994 0.121073276 0.025841277
0.07846177 0.06553921 -0.18912262 -0.14021145 -0.14811628 -0.17054585 0.088588454 0.16577093
0.17862515 -0.02698439 -0.15685372 -0.04406867 0.04272687 0.2884669 0.19778699 0.13849944
-0.112985134 0.088464834 -0.19741677 -0.057551276 0.043797098 0.09899194 0.26560906 -0.08227024
-0.28753737 0.08662775 0.18941712 -0.00900791
00000000: 178f c4bd f8e5 afbd 7b65 003e d1e2 9cbe
00000010: 1607 a5bd 97ed 303e 0cda cdbd e4d6 17bd
00000020: d442 d3bc d22a 823d 7fcf b43b 0cc5 f5bd
00000030: bce7 52be b476 47be ba8b 413d 0d6a 66bd
00000040: f9af 623e 54ef c23d 77a8 fd3d 38f3 70bd
00000050: f1f8 803c a24b ad3c 2e26 ccbd cf9a 03bd
00000060: 578c 823b d529 233e 76d3 d5bd ff79 ecbd
00000070: 2762 913d ae47 abbb 7728 cfbd 8896 813d
00000080: 1b40 b8bd abc0 c23c abfd a13e 01f5 133e
00000090: c709 babc 3005 2dbe 6a55 e1bb cb9a 443e
000000a0: 582e f0bc e6e4 0abd 42c8 22ba 7c92 3a3e
000000b0: ea1e df39 d33b 9abe 8c66 523c a636 843e
000000c0: 2f60 be3b 1f1d 4c3e 9cf3 0ebe 28c0 873e
000000d0: 017f 923d 1a9c 873d 2af8 1dbe 60c2 803c
000000e0: bedb b53d 8f71 6cbc e23a 853d 70aa 25bd
000000f0: dec8 503d 1a1a 433d 089f 19bd 2d24 a9be
00000100: e8a5 813e 9284 a2bd 3ec0 90bd 9d3d 103e
00000110: 3cb7 d4bd eb5b 593d 8fd3 b4bc a986 0abe
00000120: d54d 713d 112e 433d 2006 413e 033c 9bbc
00000130: b317 0abc f75a f8bd 9ec7 043e 016e 763d
00000140: 8e24 fc3d 4a63 c3bd 3ada 0d3e 494e b4bd
00000150: 8427 00be c0c7 32bb a61c aa3d 0285 10be
00000160: 1eeb 0a3d ba82 443d 41a8 e83d fb82 c03b
00000170: 0477 5d3e 64e0 ebbd 9ab7 5b3c e81e c73d
00000180: eee8 553e a5cf 013e c712 4f3e 51a8 6a3d
00000190: f08c 84be 6355 293d b261 ffbd 129f d93d
000001a0: 83da 24be cd99 c73c b6bc 95bc 9c51 1d3d
000001b0: 4686 883c 2bb7 76bd d4ee 95bd d053 5cbe
000001c0: 4e16 9fbd f051 b23d 2f1f d9bd 2dda 33bd
000001d0: 4e95 8bbe 402d 5fbe abdf cbbc 7176 85bd
000001e0: ad16 633d 9838 de3d e91f f3bc 5ee4 95be
000001f0: 7013 423e a278 083c 32bb 9e3d aacc 293e
00000200: fa88 cdbd 7bcd 9abd 7d8c bebc 3ef8 99be
00000210: c3ca b43d e3c5 12bd 652e b93d 096c fa3d
00000220: ed7d 013e af89 873d fbb6 66be 0f08 d13d
00000230: e01d 40bc 80c0 813e 0ea2 41bc d931 643e
00000240: cd84 dc3d 3ac6 74bc edf2 27be d15d 17be
00000250: ec6f 25bd d863 973e a48a 9e3d 9fc3 01be
00000260: 8142 0c3e a9e6 09bc 3d0d 7a3e b046 2c3e
00000270: a082 863d 871b 353d 53e4 17be cab3 47be
00000280: ed5b fd3b 5dbd 353d 3d3e 293e 8836 253e
00000290: 1cb5 173e 5c40 f6bd 44f5 f73d 16b1 d33c
000002a0: 91b0 a03d 6c39 863d 5ca9 41be 9793 0fbe
000002b0: cbab 17be 92a3 2ebe dd6d b53d dbbf 293e
000002c0: 83e9 363e 5e0e ddbc 439e 20be 5a81 34bd
000002d0: 5f02 2f3d efb1 933e ac88 4a3e ccd2 0d3e
000002e0: c064 e7bd 0d2d b53d 9f27 4abe e3ba 6bbd
000002f0: 9664 333d 49bc ca3d e9fd 873e 4d7d a8bd
00000300: 1938 93be e469 b13d 90f6 413e ea95 13bc

lstm.weight_ih_l1 f4 [196, 49]
0.072454184 0.023617694 -0.046526313 -0.024462955 -0.084145375 0.036495402 -0.058916796 0.051534355
-0.032433257 -0.03748789 0.07537158 -0.03429349 -0.04787312 0.099018864 0.06829288 -0.10156518
-0.204982 0.15293261 -0.22489458 -0.11771219 -0.12910399 0.09347825 -0.11000764 -0.030430755
-0.23635525 0.007112557 0.06961126 0.05699033 -0.04990795 -0.027660836 0.009804814 0.19845787
0.13701586 0.12756847 -0.16507712 -0.07900442 0.017945 0.012207553 0.04258 -0.061547328
0.10530817 -0.16109572 -0.024345139 -0.077619895 -0.16065991 -0.10571286 -0.0068459185 0.01187987
0.11951886 -0.0067676874 0.025735158 -0.07223973 0.13492334 0.037265677 0.0037807056 -0.07648059
-0.07819822 -0.07690836 0.0059426567 -0.10669817 -0.036555704 -0.12239088 -0.09910083 -0.070686415
-0.09622389 0.12450143 0.009356281 -0.06254973 -0.063660845 0.038990114 -0.04608898 -0.09077143
0.04966581 0.048618358 -0.22286366 0.2086407 0.023546096 0.16792095 0.16280493 0.06833678
-0.07003399 0.008425763 -0.25696814 0.030626511 0.023463598 -0.06514869 0.22938107 0.11522155
0.16400547 -0.01732544 0.08113009 0.061313912 0.1441167 0.1982833 0.18904082 0.008356372
0.11503681 0.046389394 0.104211524 0.03718936 -0.16630843 0.03467142 0.018376678 -0.10935354
0.11061835 0.05132112 -0.11712981 -0.035077564 -0.016428202 0.058209766 -0.013565301 -0.17132953
0.024238626 0.008623777 -0.17895675 0.12529993 -0.0075841127 -0.11484374 -0.04604308 -0.13059577
0.1015516 -0.08316793 0.14311454 0.016072048 -0.14871825 0.0413163 0.052717116 0.003911494
0.095319666 -0.09460233 -0.04799352 -0.12059916 0.05793435 0.07454639 -0.12801895 -0.04728499
-0.08716631 0.05226772 -0.15643762 -0.06932819 -0.17269146 0.0997339 0.05455379 0.008562832
0.10858958 0.14104335 -0.13153413 -0.04155232 -0.028425617 0.08016465 -0.01956111 -0.053164158
0.13171798 0.0638889 -0.018207557 -0.05242433 0.10191522 -0.011597727 0.07679966 0.12250904
0.017291205 0.06968656 0.11679727 0.0033374708 -0.0025077518 0.033887804 0.056786064 -0.041562304
0.1543879 -0.08089016 0.20756865 -0.13155822 0.15153754 -0.012853689 -0.15738577 0.07518832
-0.05183595 -0.03560438 0.20267183 -0.101306446 0.039938353 -0.13409309 0.00062388025 0.08760994
-0.1623023 -0.07854756 -0.10415848 0.07670471 -0.013978388 0.15578486 -0.033802155 -0.052956346
0.007390324 -0.050942365 0.123780526 0.084539264 0.04768174 0.029444683 -0.029796997 -0.08530484
0.000632523 0.071412995 -0.14086173 0.102336936 -0.18613958 0.14369667 0.010483003 -0.0046777395
0.0053229504 -0.03965028 -0.10768666 0.16706456 -0.14095305 -0.08999933 -0.061957862 0.055419423
-0.0053336043 -0.10152152 -0.07088996 0.07712369 -0.07539737 -0.016889354 -0.16547646 -0.051981833
0.08154699 0.076771125 0.086228244 0.06267779 0.04201643 -0.056625884 -0.1644956 -0.17059064
-0.03074739 0.06879945 -0.09545523 0.024170611 0.121841036 -0.08012205 0.12778378 0.07985482
0.064542964 0.13119029 0.123517156 -0.08351697 0.14908472 -0.027873356 0.03662184 -0.011768832
0.09914719 0.025161745 -0.023509389 -0.08881155 -0.017360909 -0.07649729 -0.059630953 -0.12297322
00000000: dc62 943d e579 c13c 6092 3ebd 8966 c8bc
00000010: 6954 acbd 347c 153d bd52 71bd b015 533d
00000020: bcd8 04bd e78c 19bd 6a5c 9a3d 5577 0cbd
00000030: 9b16 44bd 67ca ca3d 23dd 8b3d 6801 d0bd
00000040: cde6 51be 5e9a 1c3e c44a 66be 1713 f1bd
00000050: d633 04be 8671 bf3d b04b e1bd eb49 f9bc
00000060: 1c07 72be 7410 e93b 5990 8e3d b16e 693d
00000070: 476c 4cbd fa98 e2bc 5fa4 203c 8a38 4b3e
00000080: e34d 0c3e 4fa1 023e fa09 29be 12cd a1bd
00000090: 6501 933c 3002 483c 5e68 2e3d 0d19 7cbd
000000a0: cfab d73d 47f6 24be 756f c7bc 2ef7 9ebd
000000b0: 0884 24be fc7f d8bd ba53 e0bb c9a3 423c
000000c0: 4ec6 f43d 7ac3 ddbb 8ad2 d23c 6cf2 93bd
000000d0: 5829 0a3e e5a3 183d b7c5 773b dba1 9cbd
000000e0: 6326 a0bd 2182 9dbd 9eba c23b 9284 dabd
000000f0: 6fbb 15bd 12a8 fabd 60f5 cabd 0ac4 90bd
00000100: 0811 c5bd 9bfa fe3d 164b 193c 131a 80bd
00000110: 9e60 82bd 19b4 1f3d ccc7 3cbd 5fe6 b9bd
00000120: 606e 4b3d 0b24 473d 5f36 64be e8a5 553e
00000130: bee3 c03c 78f3 2b3e 56b6 263e 27f4 8b3d
00000140: fb6d 8fbd 360c 0a3c 5491 83be 73e4 fa3c
00000150: bb36 c03c ad6c 85bd dfe2 6a3e 47f9 eb3d
00000160: 0df1 273e 15ee 8dbc 8827 a63d 4c24 7b3d
00000170: 5493 133e c70a 4b3e eb93 413e 2ae9 083c
00000180: 6b98 eb3d ce02 3e3d da6c d53d df53 183d
00000190: c24c 2abe 9e03 0e3d b08a 963c c0f4 dfbd
000001a0: e08b e23d 1836 523d c1e1 efbd 7ead 0fbd
000001b0: 7094 86bc 5d6d 6e3d ff40 5ebc 0271 2fbe
000001c0: 1590 c63c be4a 0d3c 7040 37be a04e 003e
000001d0: 2684 f8bb 3233 ebbd ab97 3cbd e6ba 05be
000001e0: 49fa cf3d f353 aabd 9e8c 123e 87a9 833c
000001f0: 9949 18be 483b 293d e7ed 573d fd2b 803b
00000200: f536 c33d debe c1bd da94 44bd b1fc f6bd
00000210: 924c 6d3d c7ab 983d 6617 03be e8ad 41bd
00000220: 4084 b2bd ad16 563d 2f31 20be f0fb 8dbd
00000230: 08d6 30be 4941 cc3d cb73 5f3d 1f4b 0c3c
00000240: 3764 de3d ab6d 103e e2b0 06be c432 2abd
00000250: d7dc e8bc 5d2d a43d 9f3e a0bc a9c2 59bd
00000260: 14e1 063e 2fd8 823d 0428 95bc e5ba 56bd
00000270: edb8 d03d 6504 3ebc 2449 9d3d 05e6 fa3d
00000280: 49a6 8d3c d4b7 8e3d 6833 ef3d 78b9 5a3b
00000290: 1859 24bb f0cd 0a3d 8198 683d 3c3d 2abd
000002a0: dd17 1e3e bda9 a5bd e08c 543e 33b7 06be
000002b0: a82c 1b3e 4798 52bc bc29 21be 55fc 993d
000002c0: ef51 54bd e6d5 11bd 3489 4f3e c179 cfbd
000002d0: 6696 233d b34f 09be e58b 233a d76c b33d
000002e0: 9332 26be 8bdd a0bd 0b51 d5bd 5c17 9d3d
000002f0: 9c05 65bc 1186 1f3e 2174 0abd c1e8 58bd
00000300: 882a f23b f1a8 50bd a580 fd3d ec22 ad3d
00000310: ee4d 433d fa35 f13c d518 f4bc 4eb4 aebd
00000320: e6cf 253a fa40 923d 0f3e 10be 0796 d13d
00000330: 609b 3ebe 3825 133e e7c0 2b3c b947 99bb
00000340: 256c ae3b 5568 22bd d38a dcbd f912 2b3e
00000350: ff55 10be 9251 b8bd 87c7 7dbd 7aff 623d
00000360: 84c5 aebb 84ea cfbd c12e 91bd 06f3 9d3d
00000370: f069 9abd 8b5b 8abc a972 29be e7ea 54bd
00000380: 1c02 a73d 2e3a 9d3d 6f98 b03d 375d 803d
00000390: 6c19 2c3d 8bf0 67bd 8971 28be 50af 2ebe
000003a0: f3e1 fbbc bae6 8c3d 087e c3bd 7201 c63c
000003b0: cb87 f93d 0817 a4bd c0d9 023e ed8a a33d
000003c0: 1a2f 843d bf56 063e 90f6 fc3d f20a abbd
000003d0: aaa9 183e aa56 e4bc c800 163d 0fd2 40bc
000003e0: af0d cb3d 0120 ce3c c396 c0bc d4e2 b5bd
000003f0: 7738 8ebc 9caa 9cbd 963f 74bd 62d9 fbbd

lstm.weight_hh_l1 f4 [196, 49]
0.026053395 -0.10640538 0.19953084 -0.19480488 -0.063639894 -0.18213348 0.020905936 0.008095917
-0.18136775 0.12851258 0.060308114 -0.051294036 0.13021152 -0.17131358 0.09403059 0.12948138
-0.018040748 -0.14447607 -0.070291 -0.001960665 0.095413774 0.024731006 -0.20630702 0.084976144
0.11740955 0.16269037 -0.17432375 0.21031974 -0.15666042 0.022644805 -0.07541208 0.16777486
0.012711619 0.14182715 0.04203114 -0.019107739 -0.16654108 -0.016061148 -0.006768298 0.16678856
-0.19151132 -0.006933124 -0.19902836 -0.112703025 0.14436989 0.00992635 -0.008295151 -0.036497593
0.04349089 -0.019777179 0.009002533 0.11535369 0.02621873 -0.14957674 0.014280632 0.14790194
-0.12088614 -0.16544718 0.12567651 -0.046106588 0.001227269 -0.009437102 0.030291134 0.19315223
0.23016807 0.009567241 0.045023315 0.07662171 -0.19468197 -0.094936125 -0.08116747 0.053509384
-0.05037903 -0.025007831 0.059320364 -0.035021912 -0.025231069 0.033087593 -0.17022699 0.005048967
-0.053141344 0.020195767 0.098454624 0.054507114 -0.18891653 -0.09165428 0.14568067 0.16332214
0.10718426 -0.2598758 -0.17720692 -0.0033829818 -0.12468699 0.16147582 0.11489362 0.027617952
-0.107032984 -0.016375706 0.0055371863 -0.11998403 0.22407597 -0.044719115 -0.028771225 -0.19715838
0.03279614 -0.15946722 -0.17868516 -0.048928067 -0.103803575 -0.051609684 0.094072595 -0.21081114
0.0076749395 0.23134844 -0.11225466 -0.02595265 0.11927265 -0.1567315 -0.0046476373 0.116624415
-0.09571119 0.10446803 -0.053709287 0.039878663 -0.09346627 0.080697596 -0.026100049 0.011322647
-0.0015284471 0.070832044 -0.011857947 0.15632306 0.16752167 0.09375368 0.106014155 0.07390787
0.18910816 0.08543334 -0.012923361 -0.00523466 -0.14067495 0.09935474 0.09037548 0.08088411
-0.16219671 -0.10075256 0.15236309 -0.12825635 -0.02955684 0.016407752 -0.2170522 -0.08941664
-0.07140671 0.1074514 -0.069014885 -0.19652653 -0.022347827 0.051016267 0.15589449 0.024364688
-0.0068297237 0.061635803 0.14268185 -0.1894891 0.07517263 -0.08879571 -0.033346422 0.103052266
-0.08318057 -0.088698864 -0.14661302 0.11457451 0.13778809 -0.10072715 0.043316517 -0.16650042
-0.0062842937 0.03686019 0.101349875 -0.017024469 0.15596959 0.050296668 -0.03554186 -0.14503898
0.08100931 -0.029389871 0.13004132 -0.118914 0.029498845 -0.09541305 0.020511972 0.06925087
0.17625219 0.0069129216 -0.18107118 -0.075209275 -0.18149154 -0.096008435 0.07667527 -0.24157797
0.01901473 -0.13070859 0.1704775 -0.027949579 -0.16511635 0.0588415 0.084081665 0.009058628
-0.027177325 0.009035798 0.07443344 0.095902264 -0.02624369 -0.050678995 0.06815685 -0.0013814971
-0.13590147 0.12224792 -0.06456192 0.14298366 -0.0716218 -0.044693634 -0.014960506 0.21925917
-0.2451384 -0.14832915 -0.15586932 0.19417657 0.17490706 0.13565008 0.14275953 -0.060421087
-0.0899105 0.15184851 0.01403059 -0.035963316 -0.098525465 -0.0315899 0.0054967753 -0.1139896
-0.08352596 0.054522555 0.061624635 -0.019664899 -0.07313249 -0.19974966 -0.1179992 0.084922954
0.08896975 0.030915746 -0.2580975 0.0003324921 -0.10813592 -0.026484622 -0.024857827 -0.113388576
00000000: ee6d d53c 10eb d9bd d051 4c3e ee7a 47be
00000010: a255 82bd 3381 3abe ed42 ab3c bda4 043c
00000020: 78b8 39be cd98 033e a405 773d b219 52bd
00000030: 2b56 053e d46c 2fbe 1c93 c03d c496 043e
00000040: 31ca 93bc 89f1 13be baf4 8fbd 807e 00bb
00000050: 4c68 c33d ae98 ca3c 2642 53be f907 ae3d
00000060: 6b74 f03d 4e98 263e ed81 32be 0f5e 573e
00000070: 976b 20be 9981 b93c a671 9abd 2ccd 2b3e
00000080: 6544 503c 233b 113e d828 2c3d d587 9cbc
00000090: bf89 2abe ab92 83bc 99c8 ddbb 9fca 2a3e
000000a0: 8b1b 44be 422f e3bb 17ce 4bbe d8d0 e6bd
000000b0: b3d5 133e 21a2 223c 63e8 07bc 807e 15bd
000000c0: 8123 323d c003 a2bc 5c7f 133c 8e3e ec3d
000000d0: a9c8 d63c a52a 19be 50f9 693c 9b73 173e
000000e0: 2793 f7bd fc6a 29be 58b1 003e 43da 3cbd
000000f0: 50dc a03a 139e 1abc 1d25 f83c b3c9 453e
00000100: 2eb1 6b3e ebbf 1c3c 5e6a 383d d8eb 9c3d
00000110: b65a 47be df6d c2bd 213b a6bd a82c 5b3d
00000120: 3e5a 4ebd 39dd ccbc e9f9 723d 2373 0fbd
00000130: 63b1 cebc db86 073d fc4f 2ebe ce71 a53b
00000140: bdaa 59bd 9871 a53c 94a2 c93d da42 5f3d
00000150: 5673 41be 3db5 bbbd 502d 153e eb3d 273e
00000160: 6c83 db3d 710e 85be bb75 35be 04b5 5dbb
00000170: e55b ffbd eb59 253e 594d eb3d 0b3f e23c
00000180: 1c34 dbbd 5826 86bc 4971 b53b 30ba f5bd
00000190: 2c74 653e 642b 37bd a2b1 ebbc e3e3 49be
000001a0: 3f55 063d 604b 23be 3ef9 36be cc68 48bd
000001b0: f896 d4bd ad64 53bd 22a9 c03d e0de 57be
000001c0: 0f7e fb3b 9be6 6c3e c5e5 e5bd a79a d4bc
000001d0: 3845 f43d 397e 20be 354b 98bb c8d8 ee3d
000001e0: 3a04 c4bd 56f3 d53d 45fe 5bbd cf57 233d
000001f0: 3e6b bfbd c844 a53d c5cf d5bc a082 393c
00000200: 2d56 c8ba 6410 913d d647 42bc 2713 203e
00000210: cd8a 2b3e ee01 c03d f31d d93d 025d 973d
00000220: 92a5 413e adf7 ae3d 81bc 53bc 8387 abbb
00000230: 180d 10be 7f7a cb3d c816 b93d 91a6 a53d
00000240: e516 26be 5c57 cebd 1205 1c3e a255 03be
00000250: 3021 f2bc 8d69 863c ef42 5ebe 1220 b7bd
00000260: ae3d 92bd 7b0f dc3d ad57 8dbd 403e 49be
00000270: ca12 b7bc 6ff6 503d cea2 1f3e 7498 c73c
00000280: e0cb dfbb d375 7c3d 311b 123e 6e09 42be
00000290: 1cf4 993d 86da b5bd 4296 08bd 110d d33d
000002a0: 935a aabd c0a7 b5bd b921 16be 0aa6 ea3d
000002b0: 5218 0d3e 094a cebd a96c 313d 167f 2abe
000002c0: 7aec cdbb b6fa 163d 8690 cf3d e676 8bbc
000002d0: 7eb6 1f3e e103 4e3d 5794 11bd 1985 14be
000002e0: 36e8 a53d 07c3 f0bc 8d29 053e 2f89 f3bd
000002f0: 90a7 f13c eb67 c3bd b908 a83c 66d3 8d3d
00000300: 747b 343e ca85 e23b b96a 39be 5207 9abd
00000310: ebd8 39be 12a0 c4bd ed07 9d3d 3760 77be
00000320: c7c4 9b3c 79d8 05be a791 2e3e 84f6 e4bc
00000330: 4314 29be c903 713d 0233 ac3d a46a 143c
00000340: fba2 debc e20a 143c 8f70 983d 6868 c43d
00000350: 02fd d6bc c794 4fbd d295 8b3d 5a13 b5ba
00000360: c129 0bbe 1e5d fa3d 0a39 84bd 4f6a 123e
00000370: 73ae 92bd ac10 37bd e91c 75bc 7a85 603e
00000380: 9005 7bbe 99e3 17be 359c 1fbe 39d6 463e
00000390: d61a 333e dbe7 0a3e 8e2f 123e 1a7c 77bd
000003a0: ff22 b8bd 2d7e 1b3e 8fe0 653c 454e 13bd
000003b0: b8c7 c9bd 6964 01bd 4b1e b43b 6173 e9bd
000003c0: a90f abbd 0b53 5f3d 1d6a 7c3d 4818 a1bc
000003d0: 7dc6 95bd 2d8b 4cbe 91a9 f1bd 16ec ad3d
000003e0: c635 b63d 0543 fd3c 5b25 84be 5652 ae39
000003f0: 5d76 ddbd 47f6 d8bc a4a2 cbbc 4538 e8bd

lstm.bias_ih_l1 f4 [196]
0.13890131 0.09160404 0.038279008 0.13115087 0.13430004 0.14141555 0.08586489 0.1454998
-0.016948247 -0.088684686 0.05435831 0.14858529 0.13225937 0.11445363 0.049227066 -0.015186964
0.044911567 0.0512685 0.046810728 -0.01030769 0.033684682 -0.009832515 -0.020168656 0.17508572
0.20348619 -0.0075668273 0.19204685 0.20499259 0.1494627 0.060085885 0.14126493 0.11690416
0.11317322 -0.08387879 0.22890447 -0.036624767 -0.06740444 0.07257577 -0.0930263 0.09208622
0.10475005 0.07212039 0.0026132483 0.15512498 0.04603719 0.09476189 0.11208197 -0.084143534
0.23366779 0.08171705 0.024952877 0.21433553 0.12724693 -0.024409154 0.17831463 0.17308502
0.008716442 0.0605744 0.07254169 -0.0024386535 -0.016716937 0.16570133 -0.0024047215 0.017964708
0.23104423 0.17720647 0.17064759 0.1685869 0.02762457 -0.06796556 -0.035557546 0.021675384
0.07109305 0.15359077 0.05193545 0.080238715 0.04979828 0.25283143 0.16634138 0.09886827
0.017531086 0.115693904 0.06258505 0.102410406 0.037676778 0.049109824 0.1513409 0.113243096
0.043235976 0.22418287 0.0794061 0.15595274 0.13956891 0.18577223 0.16030297 -0.031042535
0.19504355 0.20125552 -0.24679287 -0.07544279 0.078238696 -0.18999755 -0.104020685 -0.22761708
0.24160884 -0.18662038 -0.14752749 0.07734312 0.0034135098 0.054618753 0.17026019 -0.15899985
0.10238809 -0.0022923346 -0.04945744 -0.22990133 -0.10119062 -0.03291078 0.037304044 0.01181096
-0.003040123 -0.09990748 0.084947966 0.16751285 -0.2177111 0.23335326 0.02320351 0.016953476
0.0632391 0.11133392 0.12510993 0.23100913 0.2536605 -0.15737236 -0.035472836 0.19294946
0.18778393 0.17499663 -0.25132832 0.04084975 -0.18240719 -0.040189423 0.087277934 0.017422039
0.03786846 -0.18249962 0.091070205 0.030809337 -0.19424085 0.19762501 0.16430044 0.056166563
0.16046196 0.11398215 0.038007084 0.0843265 -0.0024667124 0.3095465 0.09383543 0.0013632767
0.180911 0.1472478 0.14960174 0.15783197 0.26423407 0.06867503 0.072777286 0.02963989
-0.013940139 0.2869047 0.010180405 -0.03084733 0.09254583 0.3067885 0.19044682 0.15006173
-0.07519988 -0.23064023 0.059908193 -0.1052428 0.12591715 0.10004596 0.009969686 0.0136676645
-0.03943078 -0.0042303195 0.10394924 0.24038517 -0.0058699865 0.01843553 0.07903387 0.0631555
0.2776222 -0.20738709 0.07143393 0.023963774
00000000: 253c 0e3e e69a bb3d 73ca 1c3d 6a4c 063e
00000010: f385 093e 3dcf 103e eed9 af3d e6fd 143e
00000020: 0dd7 8abc 51a0 b5bd d2a6 5e3d be26 183e
00000030: 006f 073e aa66 ea3d 52a2 493d bed2 78bc
00000040: 31f5 373d ebfe 513d 9bbc 3f3d 96e1 28bc
00000050: f3f8 093d 8f18 21bc bd38 a5bc ac49 333e
00000060: af5e 503e 26f3 f7bb eea7 443e 94e9 513e
00000070: c00c 193e 9e1c 763d c1a7 103e 736b ef3d
00000080: 5cc7 e73d a5c8 abbd ef65 6a3e da03 16bd
00000090: 570b 8abd 9ba2 943d 9384 bebd b397 bc3d
000000a0: 3287 d63d dbb3 933d 0843 2b3b 15d9 1e3e
000000b0: 7e91 3c3d 8612 c23d 3b8b e53d 7253 acbd
000000c0: 9c46 6f3e 455b a73d fa69 cc3c c67a 5b3e
000000d0: 054d 023e b5f5 c7bc 1c98 363e 333d 313e
000000e0: 68cf 0e3c dd1c 783d bd90 943d d1d1 1fbb
000000f0: f5f1 88bc 9cad 293e 8898 1dbb b92a 933c
00000100: dc96 6c3e 9d75 353e 3ebe 2e3e 0ba2 2c3e
00000110: ec4c e23c 8731 8bbd caa4 11bd 9390 b13c
00000120: 3c99 913d e646 1d3e 44ba 543d 3254 a43d
00000130: 48f9 4b3d 1f73 813e 6555 2a3e 737b ca3d
00000140: 5a9d 8f3c edf0 ec3d 972c 803d 8cbc d13d
00000150: f752 1a3d 6227 493d 1cf9 1a3e ffeb e73d
00000160: 3518 313d 3290 653e aa9f a23d 13b2 1f3e
00000170: 27eb 0e3e 133b 3e3e 7626 243e ea4c febc
00000180: 7fb9 473e ed15 4e3e 45b7 7cbe c081 9abd
00000190: 9c3b a03d b88e 42be cc08 d5bd 7414 69be
000001a0: 4f68 773e 6a19 3fbe 7211 17be 1266 9e3d
000001b0: 31b5 5f3b eab7 5f3d b058 2e3e dbd0 22be
000001c0: d9b0 d13d fe3a 16bb e293 4abd 416b 6bbe
000001d0: 073d cfbd 74cd 06bd 20cc 183d c282 413c
000001e0: cd3c 47bb 4b9c ccbd 33f9 ad3d 7d88 2b3e
000001f0: a9ef 5ebe 28f4 6e3e 4a15 be3c 04e2 8a3c
00000200: 8083 813d 0a03 e43d d11c 003e a88d 6c3e
00000210: cadf 813e 3826 21be f74b 11bd 8b94 453e
00000220: 6e4a 403e 5132 333e 1bae 80be 1152 273d
00000230: f3c8 3abe aa9d 24bd c6be b23d aab8 8e3c
00000240: f51b 1b3d 2ee1 3abe 0483 ba3d dd63 fc3c
00000250: 13e7 46be 365e 4a3e 603e 283e e90e 663d
00000260: 2450 243e 796f e93d 51ad 1b3d 5fb3 ac3d
00000270: 91a8 21bb e17c 9e3e ca2c c03d faaf b23a
00000280: bc40 393e 21c8 163e 3331 193e b49e 213e
00000290: b049 873e 7ea5 8c3d 420c 953d 5bcf f23c
000002a0: 2e65 64bc 2ce5 923e b7cb 263c 8ab3 fcbc
000002b0: ab88 bd3d 6213 9d3e 7e04 433e c8a9 193e
000002c0: 6502 9abd f42c 6cbe 4b62 753d 8a89 d7bd
000002d0: 6df0 003e e5e4 cc3d e557 233c 57ee 5f3c
000002e0: 2b82 21bd 7e9e 8abb 57e3 d43d 8827 763e
000002f0: 0459 c0bb 1c06 973c 82dc a13d ac57 813d
00000300: 7f24 8e3e 485d 54be f44b 923d ad4f c43c

lstm.bias_hh_l1 f4 [196]
0.051574327 0.10313484 -0.029540094 0.057460204 0.059421577 0.058644164 0.057709645 0.07817844
0.06165076 -0.08496614 0.04704804 0.0527743 -0.05918336 -0.013282237 0.077918455 0.07170992
-0.03560963 0.1423123 0.2147213 -0.050266773 0.02504559 0.06035892 0.21343923 0.16187601
-0.02312682 0.049537607 0.14090714 4.8887712e-05 0.15815634 0.019947702 -0.0007962918 0.112176605
0.00096780364 0.0969417 0.16157474 0.18610601 -0.029000727 0.14002816 -0.049751505 0.0029303192
0.027586084 0.122722425 0.14260237 0.051640496 0.17108977 0.12702061 0.08348777 0.11570055
0.05831823 0.06525957 -0.077914484 0.21147911 -0.025372626 0.05497769 0.04700606 0.1601777
0.025741981 -0.0006913198 0.08548643 0.11473561 0.10491423 -0.023118654 0.13146865 0.04172438
0.13964893 -0.09039259 -0.009572765 -0.059400856 0.13830425 0.030127047 -0.010635684 0.02349001
0.047769807 0.12713689 -0.0089301625 0.01717879 0.15393075 -0.015918177 0.010568404 0.073549874
0.13259958 -0.017696662 -0.032441683 0.15848367 0.08912321 -0.11014317 -0.077315465 0.19166473
0.108984224 0.21524093 -0.0972245 0.06528453 0.01744838 0.012121644 0.008473933 0.0552183
0.09578201 0.11468727 -0.1135915 -0.018644674 0.09739326 -0.03337564 -0.011021508 -0.20867759
0.20234323 -0.24159135 -0.15161517 0.13959384 -0.22788474 0.11989072 0.08641299 -0.20476423
0.0025827014 0.11869864 -0.24157776 0.023150196 0.08734379 -0.14464787 0.012356447 -0.19249348
-0.21423762 -0.09535571 0.15933543 -0.018414306 -0.21146636 0.20039344 -0.19110574 -0.07839427
0.047787108 0.15352862 0.07070728 0.038507763 0.22182359 -0.14786394 -0.015551587 0.11553405
0.06393208 0.15792663 -0.14892448 0.013426746 -0.09417231 -0.22385156 0.0973324 0.16523354
-0.11412919 -0.1295425 0.14189836 0.17597537 -0.20743407 0.10985531 0.07382861 -0.004055618
0.342686 0.22276899 0.104442336 0.15361062 0.059439108 0.21119937 0.18796624 0.26461536
-0.020547336 0.11402209 0.01204716 0.20969607 0.110451296 0.18063526 0.08737562 0.008572106
-0.21893685 0.26053783 0.024412911 0.17449346 -0.013666119 0.17357546 0.03780618 0.22621113
0.030228898 -0.22083952 0.23360938 0.11273274 0.16810262 0.044697233 0.26398298 -0.05893153
-0.110153474 -0.0023541828 0.08215142 0.2995676 0.019245341 0.20585632 -0.05234089 -0.055119373
0.16348419 -0.057320163 0.07580508 0.044772107
00000000: 9a3f 533d 5c38 d33d 11fe f1bc 645b 6b3d
00000010: 0a64 733d dd34 703d f360 6c3d 051c a03d
00000020: 8285 7c3d ba02 aebd 72b5 403d dd29 583d
00000030: 406a 72bd bd9d 59bc b693 9f3d a7dc 923d
00000040: 67db 11bd 51ba 113e e7df 5b3e 88e4 4dbd
00000050: 692c cd3c ea3a 773d d08f 5a3e d3c2 253e
00000060: 7574 bdbc f2e7 4a3d f649 103e c80c 4d38
00000070: bcf3 213e 5d69 a33c 3dbe 50ba d9bc e53d
00000080: 34b4 7d3a 5f89 c63d d973 253e 9392 3e3e
00000090: ef92 edbc 8b63 0f3e 3cc8 4bbd 990a 403b
000000a0: 36fc e13c e555 fb3d 5b06 123e fc84 533d
000000b0: 2832 2f3e b111 023e a3fb aa3d 69f4 ec3d
000000c0: 19df 6e3d cfa6 853d a191 9fbd fb8d 583e
000000d0: 41da cfbc 4930 613d 6d89 403d 9f05 243e
000000e0: d9e0 d23c b039 35ba 8213 af3d 81fa ea3d
000000f0: 46dd d63d 5563 bdbc b89f 063e 2fe7 2a3d
00000100: 2100 0f3e c01f b9bd 16d7 1cbc 504e 73bd
00000110: a19f 0d3e ffcc f63c 4b41 2ebc 1f6e c03c
00000120: 46aa 433d 2c30 023e d14f 12bc 89ba 8c3c
00000130: 06a0 1d3e d666 82bc 1927 2d3c 51a1 963d
00000140: 2fc8 073e 97f8 90bc 92e1 04bd 8b49 223e
00000150: 3b86 b63d be92 e1bd 9257 9ebd c243 443e
00000160: 1f33 df3d 1e68 5c3e a31d c7bd e5b3 853d
00000170: e8ef 8e3c dc99 463c 40d6 0a3c 962c 623d
00000180: 5c29 c43d 29e1 ea3d a9a2 e8bd b7bc 98bc
00000190: 1e76 c73d e5b4 08bd 8e93 34bc 94af 55be
000001a0: 1033 4f3e b963 77be 0241 1bbe b0f1 0e3e
000001b0: 9e5a 69be 4489 f53d 4bf9 b03d b7ad 51be
000001c0: 8a42 293b 4618 f33d 2960 77be 7ba5 bd3c
000001d0: 4de1 b23d 921e 14be b272 4a3c 031d 45be
000001e0: 1b61 5bbe db49 c3bd d428 233e 99d9 96bc
000001f0: a38a 58be f033 4d3e 39b1 43be 2d8d a0bd
00000200: 6abc 433d 9b36 1d3e face 903d 51ba 1d3d
00000210: b925 633e a569 17be 15cc 7ebc 1e9d ec3d
00000220: d3ee 823d 85b7 213e a97f 18be dbfb 5b3c
00000230: 69dd c0bd 5839 65be 3656 c73d fb32 293e
00000240: 91bc e9bd caa6 04be ce4d 113e e332 343e
00000250: 9969 54be d2fb e03d 7433 973d fde4 84bb
00000260: 8a74 af3e 8e1d 643e dde5 d53d 1a4c 1d3e
00000270: 6c76 733d a644 583e 397a 403e aa7b 873e
00000280: e352 a8bc 6a84 e93d 7461 453c 91ba 563e
00000290: 4a34 e23d 73f8 383e fdf1 b23d 0572 0c3c
000002a0: fb30 60be 3765 853e 96fd c73c 6aae 323e
000002b0: dce7 5fbc c4bd 313e a7da 1a3d e4a3 673e
000002c0: 98a2 f73c c123 62be 4c37 6f3e 6ce0 e63d
000002d0: 1823 2c3e 7214 373d c728 873e 3062 71bd
000002e0: 2598 e1bd a248 1abb 013f a83d ed60 993e
000002f0: 68a8 9d3c 00cc 523e 6763 56bd dac4 61bd
00000300: 6668 273e 8cc8 6abd b23f 9b3d f562 373d

fc.weight f4 [1, 49]
-1.3875631 1.5057435 1.4827651 -1.4130158 -1.4259037 -1.4262992 1.5172269 -1.5127867
-1.5246997 1.354882 -1.4075415 1.4681445 1.436034 -1.3541429 1.4436073 1.4003731
-1.4485233 -1.5182365 1.4552417 -1.4142606 -1.457624 -1.5139774 -1.4690806 1.4723876
-1.4296579 1.4969951 -1.4694744 1.4138176 -1.4802699 -1.44886 -1.4855114 1.3800619
1.4257183 1.3898989 1.3919054 -1.4408314 -1.3986408 1.4104978 1.5169284 1.4167637
-1.446229 -1.4505616 -1.4002903 -1.3553733 1.3971342 1.4246092 -1.469087 -1.3813719
1.4108609
00000000: ab9b b1bf 34bc c03f 3fcb bd3f b4dd b4bf
00000010: 0384 b6bf f990 b6bf 7e34 c23f ffa2 c1bf
00000020: 5c29 c3bf c66c ad3f 522a b4bf 29ec bb3f
00000030: f6cf b73f 8e54 adbf 20c8 b83f 6d3f b33f
00000040: 3669 b9bf 9355 c2bf 5c45 ba3f 7e06 b5bf
00000050: 6c93 babf 03ca c1bf d50a bcbf 3277 bc3f
00000060: 08ff b6bf 899d bf3f bd17 bcbf faf7 b43f
00000070: 7c79 bdbf 3f74 b9bf 3d25 bebf dea5 b03f
00000080: f07d b63f 35e8 b13f f529 b23f 2a6d b8bf
00000090: a906 b3bf 318b b43f b62a c23f 8358 b53f
000000a0: 081e b9bf 01ac b9bf b63c b3bf df7c adbf
000000b0: 4bd5 b23f 9859 b63f 0b0b bcbf cbd0 b0bf
000000c0: 1797 b43f
