models/lstm_trial_1.pth (torch, 461822 bytes, 9 tensors)

lstm.weight_ih_l0 f4 [360, 44]
00000000: ce1b 5c3d 22ab 25bd f73a 573d ecaf 533d
00000010: 4739 b83d 754e bbbb ab1a 0bbd 1dbf 423c
00000020: 8bd3 0d3d f575 47bd e255 14bd 3c78 92bb
00000030: 45ae 8cbc 7e2a 23bd 4151 193d fb7e 4b3d
00000040: 6cc4 c8bd 62e9 5f3d b31f 463b 77a6 19bd
00000050: 67c5 c3bc ee8b 213d 4c8e 18b8 6000 1dbc
00000060: 981c adbd 7d12 8fbd 6cc0 b43d 3af1 053c
00000070: 6a18 0739 5230 69bd 0af2 343c e579 783b
00000080: 9959 86bc c68b 453d e834 e1bd 1f23 0f3c
00000090: aa4a 7c3a 6159 2dbd a626 a0bd 1f23 9b3c
000000a0: 0907 48bd 6d07 c83c d974 b4bd 0f60 e3bc
000000b0: 2250 fdbc fdd4 b03d 1e0b 5f3d 8c21 49bd
000000c0: 8c77 423d b90e 9ebd 237f 9e3d 4572 4a3d
000000d0: 1e2d f1bd 89ed ecbd 3e43 6f3d 34b4 3a3d
000000e0: 4abb 7f3d 4704 383d 5d05 db3c 8f35 0dbd
000000f0: 4a78 803d 1ddb 9f3d c4c2 653c 64d7 9abd
00000100: 8d7c b0bd 5aa5 c83d b78e 11bd a482 c83d
00000110: f16c fe3d 8812 483d c3a2 2bbc c79c c5bd
00000120: 30a1 3f3d 0596 5ebd cd10 9f3d ccc4 94bd
00000130: f65d 7b3c 44c8 e3bc 605a d9bc b31a 2fbc
00000140: 0b17 b93c c134 09bd d025 a3bd 56fe 9ebb
00000150: 4c0d 783d 0191 40bd 0254 d53c 10db f93b
00000160: 08a7 f33d 314e 943c b713 753d 1b33 8fbd
00000170: 00f9 c2bd 7c7b 8c3d e786 a4bd 360a 2ebd
00000180: c40e 753d e824 533d 1ec9 e23c 080c 12bc
00000190: ca2c 9abd a402 d23d 8cf6 973c bfe1 fe3d
000001a0: bc0d 02be 58be 0abc 03c0 ac3d 4d3d 8f3b
000001b0: 9e49 603d 763d 9bbd c48f 91bd 4ca6 433d
000001c0: 109d a2bd 1bce 60bd 93d9 313d df9e 9bbb
000001d0: 5cea f53d 17e9 11bd 11cc a7bb bf2f 4fbd
000001e0: 6ffd 62bd f853 ac3c 14ea 64bc 9fee 89bd
000001f0: d03b 92bb 0870 ea3c cbb0 843d 936e 2f3b
00000200: 5f9d 8cbd a7fc d7bd 976a 83bc c818 133d
00000210: 151a 953c c596 57bd 8371 813d 9035 193e
00000220: 0224 943d c341 d0bd c685 45bd 5138 babd
00000230: ce9b 4ebd a1d9 813d 2a6a 9fbd 2714 ce3d
00000240: 156a 83bd ab4f d03d b6bd ebbc a05a 9f3d
00000250: a09e 95bd ca0d 613d 5f60 f8bc 3bde 3a3d
00000260: 9ec3 6c3d aa4e 453c c85d 95bd 8c71 943d
00000270: 074b b03d d613 9eba d513 de3d 5db5 8e3d
00000280: c76f af3d 263b f13b 1cf2 9cbd 9480 0a3d
00000290: ef33 38bd 423a c83c 1556 e43d 5658 023e
000002a0: 44d6 c9bd fef9 8abd 7da7 05be 6afe 35bd
000002b0: 1cb2 b13c a59c ae3b 0d72 fbbd a0c2 9cbd
000002c0: bf26 8fbd cfc5 b9bd ebd2 3dba 49d2 4a3d
000002d0: c4f2 4c3d fe82 8ebd 5291 aebd 6daf 243d
000002e0: cac1 e5bc e9e9 8fbd 2c77 d5bd bfd2 d53c
000002f0: 1888 91bd 288a 8f3d a7da b3bd f62d 8d3d
00000300: 5d3d f8bd 3f22 1d3d a9ef 5f3d e619 81bd
00000310: 317b 9fbd b7b3 35bd 7c6d 95bd f6f0 59bd
00000320: fb87 2e3d 2198 313d bdd7 823d 0ae7 b53c
00000330: f13a f0bc 6fbb 10ba 4029 59bd a833 623d
00000340: d233 ad3d c70d 1bbd 8406 eebd 66d1 76bd
00000350: 99c1 bc3d f080 93bd eed7 843d e0cf 793d
00000360: ec53 553c 09d1 f7bd d0d0 dabd efad 81bd
00000370: 7657 92bd d21c d13d fa6e 613c 38f9 67bd
00000380: 2cf6 0ebd 6ec6 633d c123 a63c 476e dcbd
00000390: cb00 93bb 94be 183e 87f0 99bd 1b85 65bd
000003a0: 367f ccbc d006 8cbd 5b8d cb3d 0e32 e4bd
000003b0: 992b cfbd c58c 153d 1d35 9bbd a59a e53c
000003c0: 1be4 013e 06d6 a1bd 8cd2 9abb 772c 773d
000003d0: 9b98 bfbd ef6b 8f3d 6f5f 7cbd d8ac 4fbd
000003e0: de16 bdbd 67aa 9d3d c999 89bd 8580 a1bd
000003f0: e1d6 de3d 708c b7bc 8294 2c3d 2545 1abd
0.053737454 -0.040446408 0.052546468 0.051681444 0.089953 -0.00571614 -0.03396098 0.011886385
0.03462557 -0.048696477 -0.036214717 -0.0044698995 -0.017172942 -0.039835446 0.037431005 0.049681645
-0.098030895 0.05466593 0.0030231297 -0.03751227 -0.02389784 0.039440088 -3.637215e-05 -0.009582609
-0.084527194 -0.06985948 0.08825764 0.008175189 0.00012883698 -0.056930847 0.011044035 0.0037914452
-0.016400145 0.048229 -0.10996419 0.008736401 0.0009624163 -0.042321566 -0.078198716 0.018937645
-0.048834834 0.024417603 -0.088113494 -0.027755765 -0.030922 0.08634374 0.05445396 -0.04910426
0.04747729 -0.07717652 0.07739093 0.049425382 -0.117761835 -0.11568744 0.058413737 0.04558201
0.062434472 0.044925954 0.026735956 -0.034474906 0.06272943 0.078054644 0.0140234865 -0.07560614
-0.08617506 0.09797163 -0.035536494 0.09790543 0.12423123 0.048845798 -0.010475817 -0.096490435
0.04678458 -0.05434229 0.07766876 -0.072640985 0.015342226 -0.027805455 -0.026532352 -0.010687518
0.022593996 -0.033497576 -0.079661965 -0.0048520966 0.060559556 -0.047013287 0.026041035 0.0076249912
0.11897093 0.01810369 0.059833255 -0.069921695 -0.09520149 0.0685949 -0.08033543 -0.042490207
0.059828535 0.05154887 0.02768379 -0.008914001 -0.07528074 0.1025441 0.01855018 0.124454014
-0.12700552 -0.008468233 0.08435061 0.0043713213 0.054757707 -0.07580082 -0.07107499 0.047766015
-0.079401135 -0.054884057 0.043420386 -0.0047491635 0.12007591 -0.035622682 -0.005120762 -0.050582644
-0.055417474 0.021036133 -0.013971824 -0.067349665 -0.0044626966 0.028617874 0.06479033 0.0026768788
-0.06865954 -0.105462365 -0.016042037 0.035912305 0.018200913 -0.05263402 0.06320479 0.14961839
0.072334304 -0.10168793 -0.04822328 -0.09092773 -0.050441556 0.063403375 -0.07783921 0.100624375
-0.06416718 0.101714455 -0.028776985 0.07780957 -0.07305646 0.05494479 -0.03031939 0.04562209
0.057803743 0.012042681 -0.07293278 0.0724822 0.0860806 -0.0012060355 0.108436264 0.06968186
0.08566242 0.0073617874 -0.07663366 0.033814028 -0.044971403 0.024441842 0.11149231 0.1272901
-0.09855321 -0.067859635 -0.13052173 -0.04443208 0.021691374 0.005328732 -0.12277613 -0.07654309
-0.06989812 -0.09070932 -0.0007241207 0.04951695 0.050036207 -0.069585785 -0.085238114 0.04020636
-0.028046507 -0.07027037 -0.10423121 0.026101468 -0.07106036 0.07008773 -0.08781939 0.06893532
-0.12121079 0.038362738 0.054671917 -0.06303768 -0.07787169 -0.044360843 -0.07296273 -0.053208314
0.04261015 0.043357972 0.06388805 0.022204895 -0.02932498 -0.0005521094 -0.053017855 0.055225044
0.084571496 -0.037854936 -0.116223365 -0.06025829 0.09216613 -0.07202327 0.06486498 0.06098926
0.013020497 -0.12100417 -0.10684359 -0.06332003 -0.07145588 0.10210575 0.013759369 -0.056634158
-0.034902737 0.05560916 0.02028072 -0.10763221 -0.0044861785 0.1491645 -0.0751658 -0.056035142
-0.024963003 -0.06837237 0.09939071 -0.1114236 -0.101157375 0.0365112 -0.0757849 0.028027842
0.12684672 -0.0790215 -0.004724806 0.06034514 -0.09355279 0.070030086 -0.06161445 -0.050701946
-0.09232877 0.07698517 -0.06718785 -0.07885841 0.10880829 -0.022405833 0.042133816 -0.037663598

lstm.weight_hh_l0 f4 [360, 90]
00000000: fd7a 983d 0e44 8a3d 6afc efbc 481c 8bbd
00000010: fa96 813d 012a 9cbc ac55 23bb f113 00be
00000020: 5311 6b3d a6e3 94bd 2b71 4dbc 746c 89bd
00000030: e6ba c53d b848 9a3d 0453 8dbd c5fc ab3d
00000040: da6b 31bd 85b0 483d b4e6 8e3d 7de9 8abd
00000050: 8be1 623d a71f c8bd ca8c 90bd 93de ae3d
00000060: ee0c 60bd ec3a d83d fd05 0cbc 51d0 4cbc
00000070: 14b2 76bb c168 81bd 8b75 abbd fe62 4dbd
00000080: d773 013e 9b00 763d 899a f7bd ff33 ee3d
00000090: aa34 88bd f9a9 27bc 1b46 93bd 2a9a d9bd
000000a0: ceac 29bd 9aa0 8e3d cd90 9cbd 5b20 bb3d
000000b0: cd4c afbc 41a5 4d3d ed84 c3bd e1fc 1e3d
000000c0: a9da afbd d919 cfbd 0772 96bb 2c20 77bd
000000d0: 98e2 67bd 393b a23d d011 bcbd a73d ec3c
000000e0: 33e6 d4bd 0305 f0bd 89b2 63bd 1702 47b8
000000f0: b424 24bd 7ca5 2bbb 962d 8fbd 4733 bdbd
00000100: baf7 c83c d6b9 37bc 38f2 99bd 82eb a8bd
00000110: bae2 76bd 7aa1 043e 61f5 b0bd 09ee 9fbd
00000120: 51d8 87bd 4ab7 b23b 0a05 863d 7bc9 a33c
00000130: 9d98 5abb 7cee e5bd 4a61 9abd 9c14 0e3d
00000140: 74b1 0fbd d385 223d 7399 e2bd 7482 0bbc
00000150: cacf 93bd 3b3f de3d 8dce 973b 4a3c 153d
00000160: e71c 0f3d 9bee 663d 5bf8 8fbd 8fd2 343c
00000170: 58a8 a33d 0185 b73c fc2f dbbc 4b5e ffbc
00000180: 0615 febd 1386 f2bc 270e c1bd 1182 a83c
00000190: ea3f 4cbd 8b2b 853d 249b 463d 1cbb 2dbd
000001a0: fea0 14bc e748 0e3d 8369 d8bd 3622 c53c
000001b0: 05bb 463d 2b58 95bd 66a4 843d 332b d53c
000001c0: 8f06 cdbd acf3 afbd 5cc4 473c 7fbf b2bc
000001d0: 3ae9 d03c 1ac8 22bd 69c4 7fbb 90f0 02bd
000001e0: 7817 ebbc dc36 dbbd a3bf 653c 7d0d 8c3d
000001f0: b916 763d ead7 1dbd 5cfa f73d 8b51 99bd
00000200: 63df c8bc 18c5 91bd 5e47 bfbd 6b04 9abd
00000210: 79f5 f63c 6437 32bd f1f2 bcbb 247f f2bd
00000220: 2e73 abbd a973 59bd 7503 5abb 1977 7b3b
00000230: 7b0c 05be d61d 903d da51 efbc d8ac c03d
00000240: f05d cdbd 2f08 e23b bfff 50bd 19c6 96bb
00000250: 8ecb 1dbb 85fb 54bd b09c 923b c3aa 49bc
00000260: abf8 52bd 7ca6 90bd cc30 933b 4397 d73c
00000270: c9db 933c 9a79 d73d 20dd 9b3d d6a7 823d
00000280: 6402 0bbd 4ee6 8cbd 530e 9b3d bb7c 7a3d
00000290: c09e 3dbd a3ec bbbd 5f9d dfbd ce3e 553d
000002a0: 486c a1bd aa77 8ebd 16f1 803d 1492 b5bb
000002b0: 59cc 483c 4388 a43d c41e a2bd 0164 92bd
000002c0: 8ad8 c2bc f1b1 08bd 2276 6ebc f949 56bc
000002d0: dda5 18bc 9956 273c 8556 dd3d e033 db3d
000002e0: 76e8 023e 4b3b 903d 80bb bf3c b4c9 cdbd
000002f0: b209 71bd c97b 533d 5ee0 fb3c cbc3 48bd
00000300: 174e 463d 5be5 78bc 5e07 123c d8d0 3abd
00000310: 5ab3 edbd 875c 38bd 4735 6f3d 57ee 05bd
00000320: c785 dfbc 6584 e0bd 025f 1dbd d2c4 a83c
00000330: e4d1 dc3a b6c0 933d 9a65 073d dbda c23c
00000340: 9a58 793c c292 3fbd 743a 803d a6ea 733d
00000350: a2e2 24bd 9ddf 0bbe 8f60 4cbc 5834 753d
00000360: a8b4 17bd 6134 adbc 12a1 e73c e100 45bd
00000370: 27c6 333d b947 57bd 50a7 14bd 1f9a 65bc
00000380: 2267 c4bd a261 953b 7f0d d1bc dfd8 b6bd
00000390: 3a63 cabd e17a 343d 8b18 02be a05c 03bd
000003a0: 4503 b23b ea82 c2bd 5048 7ebc 825c 07bd
000003b0: e3da b0bd 2a86 49bd 0c0a 6cbd b3a6 1a3e
000003c0: 2b17 0abe c782 87bd 20e0 fb3d ac16 913c
000003d0: bf0b 253d 7e93 c23d deb3 74bd 7f96 403c
000003e0: 3f43 f83c c4f0 863d aea2 9e3d 182f 83bd
000003f0: 92a9 fabc f120 debd ae17 323d 7ecc f8bc
0.07445333 0.06751262 -0.029295165 -0.067925036 0.063276246 -0.019062998 -0.002492289 -0.12507607
0.05738957 -0.07269983 -0.012539188 -0.06710139 0.09654789 0.07533401 -0.069005996 0.08397821
-0.043315746 0.048996467 0.06977597 -0.067828156 0.055390876 -0.09771662 -0.070581034 0.085385464
-0.05469983 0.105581135 -0.00854635 -0.012500838 -0.0037642764 -0.06318808 -0.08372029 -0.050143234
0.12641846 0.06005917 -0.12090022 0.11631011 -0.0665067 -0.010233396 -0.07191106 -0.106251076
-0.041424565 0.06964226 -0.07644806 0.09137031 -0.021398926 0.050206427 -0.09546838 0.038815383
-0.08586628 -0.10112352 -0.00459123 -0.060333416 -0.05661258 0.07921452 -0.09183085 0.028837992
-0.103954695 -0.11719706 -0.055590186 -4.7447244e-05 -0.040074065 -0.0026191166 -0.06991117 -0.09238296
0.024532188 -0.01121374 -0.07516903 -0.082480446 -0.060274817 0.12952223 -0.08640552 -0.078090735
-0.06633056 0.0054539787 0.0654393 0.019993534 -0.0033355125 -0.11227128 -0.07538088 0.034687623
-0.035081342 0.039678406 -0.11064424 -0.008514989 -0.07217367 0.10851904 0.004632777 0.03643445
0.034939673 0.056379896 -0.07029792 0.011036529 0.079910934 0.022402288 -0.02675628 -0.031172892
-0.12406354 -0.029604947 -0.094265275 0.020569833 -0.04986564 0.06502446 0.048487797 -0.04241477
-0.009071587 0.034737494 -0.10567 0.024064165 0.0485182 -0.07292207 0.06476669 0.026021576
-0.100110166 -0.085913986 0.012192812 -0.021819828 0.025501836 -0.039741613 -0.0039026982 -0.0319677
-0.028697714 -0.10703823 0.014022741 0.0683851 0.060080264 -0.03853599 0.12108299 -0.07486256
-0.024520582 -0.07117671 -0.09339784 -0.07520374 0.030146347 -0.043509856 -0.0057662656 -0.118406564
-0.08371578 -0.053088818 -0.003326622 0.0038370548 -0.12993042 0.07036941 -0.029213835 0.09407967
-0.10027683 0.006897948 -0.05102515 -0.004601252 -0.0024077627 -0.05199768 0.004474245 -0.012308779
-0.05150668 -0.070630044 0.004491901 0.026317244 0.018049138 0.105212405 0.076105356 0.063796684
-0.033937827 -0.06879865 0.075710915 0.06115411 -0.046293974 -0.09175994 -0.10918688 0.05206185
-0.07881981 -0.06956418 0.062959835 -0.0055410955 0.0122557515 0.08033802 -0.07916024 -0.071479805
-0.023784894 -0.033372823 -0.014554532 -0.01307916 -0.009316889 0.010213518 0.10807518 0.10703254
0.1278399 0.07042559 0.023404837 -0.100482374 -0.058847137 0.051631723 0.030746635 -0.049014848
0.048414316 -0.015191401 0.008912889 -0.045609325 -0.11606474 -0.045010116 0.05840042 -0.032698
-0.02728547 -0.10962752 -0.038420685 0.020601664 0.001684722 0.07214491 0.03305588 0.023785999
0.015218878 -0.04677082 0.06261149 0.05954995 -0.040255196 -0.1365952 -0.012474193 0.059864372
-0.03703752 -0.02114314 0.028275046 -0.04809654 0.043890145 -0.052558634 -0.036292374 -0.014013796
-0.095899835 0.004558758 -0.02551913 -0.08928084 -0.09882207 0.0440625 -0.12704675 -0.032070756
0.0054325187 -0.09497626 -0.01552017 -0.033047207 -0.08635499 -0.049200214 -0.05762677 0.15102653
-0.134854 -0.06616741 0.12298608 0.017711006 0.040294405 0.09500788 -0.059741847 0.011754631
0.030305503 0.06588891 0.077458724 -0.06405467 -0.030598436 -0.10846127 0.043479614 -0.030370947

lstm.bias_ih_l0 f4 [360]
00000000: 5d08 85bd 8d9c 1b3d f5d2 4cbc 43f2 963d
00000010: 07fc 3ebd efc0 1dbd ca36 f0bc 053c d03d
00000020: 835e bebd 03b1 323d 4867 24bd fe89 c83d
00000030: 7b29 063d e766 1f3d e6df 283d b605 46bd
00000040: ff8c 88bd 46cc d53a 4174 853d 42e7 c83c
00000050: 77ab 053e 7337 803d 90f0 663d 6db8 513d
00000060: 5de0 873d d5d6 003d 11c7 163d e557 2cbc
00000070: 2724 e23d 34ac b43d 224d d93d dbc4 a8bc
00000080: bbc2 823c d14a b0bc 1914 f6bc db32 e23c
00000090: 7093 a63d 4af5 cb3b bdde 7bbd 266c c539
000000a0: 8f49 743d 8d81 803c 9c77 823c 1ed6 91bc
000000b0: 056a a63c 445b 1e3c 2f20 883d 253a a83d
000000c0: 6f9f 933d b37b 493b 08dc 5f3d faee 563d
000000d0: 7162 bdbd ce2c a0bd d198 ad3d acdc 7a3d
000000e0: c00e 6a3d 7c69 d1bd 532e aa3d c29f 623c
000000f0: adb4 44bb 9b27 8abd b696 9abd a616 eb3d
00000100: 6464 da3c a552 f93b d57b 1fbd 319d ed37
00000110: cddc c33c 2e75 9b3d 82cc 633d dbab 0b3e
00000120: 292e 81bc 8766 d83d c69a 113e 2ffc 8ebd
00000130: 6dbb 4ebc 518f e5bc 8414 0b3e 4600 fa3c
00000140: c52e c8bc 66d8 943d 91ee 6abc bfae 703b
00000150: 20c0 a23b 25e3 45bd 1a27 5ebd 388a f2bc
00000160: 1d77 c3bc 5913 133d 4119 023d 2cc9 ab3d
00000170: d74e 383d 7b1f d63a 201a 6cbd b355 b83d
00000180: 0386 da3d 37bf 2c3d f957 963d af4f ad3d
00000190: 4584 153c b75f ef3d be26 6a3c 9ed6 9c3d
000001a0: 8c32 01bd e1a7 403d 85c6 80bd 8dbf 2abd
000001b0: 4f20 403d 3393 703d 7cce 7ebd 6e75 ed3d
000001c0: 52d9 0c3d 68e4 5c3d c90d 063d f2db dabc
000001d0: d5eb 503d 284f 243e 66d0 9abc 6941 a33d
000001e0: e961 92bd 7f7a d23d e37c 3fbc efc5 a13c
000001f0: e773 013d 17cd 9d3d a3dd 903d 66ef c83d
00000200: 6eac 58bd 7187 0a3d 4b05 c33d 9b6c 3a3d
00000210: 2b00 9c3d 4a2a 893d 095c d13d ea4a f43d
00000220: e70b 8dbd 6b8d f73c c1dc 94bc 3c79 943c
00000230: 3b1c bebc ca0c 09bd 610c ce3d ac47 8a3b
00000240: 29c5 543d 9c97 99bd e833 5d3d 6482 893d
00000250: 6601 1dbc 59a7 86bd 367d 83bd e892 89bd
00000260: 5b03 893d 4ceb ef39 6d24 a23d d3c5 83bd
00000270: 0655 40bb f24b 1abb 0c62 93bd c6bc 383d
00000280: 3078 883d 8dc9 ef3d fdfc 84bd 631e 3a3d
00000290: 430d 46bd 829b 00bd 005e f93d e34f 5539
000002a0: 1cf1 e83c 5d99 15bc c568 f03a 90b4 ec3d
000002b0: 6c55 c83d b09e 86bd a9c7 12bc b7b7 2bbd
000002c0: bfc1 5c3d e4a6 113e 68ae 20bc 5e81 04bd
000002d0: c6c2 113d e93c 13be 33ee ce3d 0ff5 223e
000002e0: f4d5 9c3d aecd bfbd 346e 6abd 0ba5 86bd
000002f0: 9bed c33c 7520 9bbd 837a 203d b8c0 e6bd
00000300: 7582 e93d 46ca 283e b502 3fbd e534 063e
00000310: 4f74 fdbd 1a7d 59bd 51c3 ffbd ff95 243e
00000320: f19b 8f3c afc7 d9bd d76b afbd a4ed dfbc
00000330: 9bad 09be 0c21 a6bc 39e4 133e 3db1 d33d
00000340: fb96 28be 6f90 8d3c d151 9ebd e84d 2dbd
00000350: 0b3f b43d c12b 823c 0f6a 17be b1cb 3c3d
00000360: 0c79 0b3e 9ab2 efbd 26ee 1a3e 7966 1e3d
00000370: 2735 59bc 9864 eebd eecb 07be f498 f5ba
00000380: b9ef 95bd 6f9c f3bd c7d7 0e3c dca7 c73d
00000390: 4556 513d f48a 96bc 0658 6abc 6bb3 c13d
000003a0: c562 ca3c e591 1f3e 9d69 25be 251f 243e
000003b0: 6ecb 8ebd 2eee dfbc 5d81 8dbc 752b 5a3d
000003c0: c3b2 f8bd 52d4 8cbc 33fc 6d3d 2612 edbd
000003d0: 6264 d0bb 02a7 963d 74bb a5bd ed68 373e
000003e0: 1ce0 d43d 3462 0b3e dffe 16bd 864c 253c
000003f0: d052 e33c a2c0 17bd 6199 103e 84a7 e6bd
-0.06495736 0.037991095 -0.012501468 0.073704265 -0.04662707 -0.038514074 -0.029323 0.10167698
-0.092953704 0.043625843 -0.04013756 0.09791945 0.032754403 0.038916495 0.04122915 -0.04834529
-0.06667518 0.0016311489 0.06516314 0.024524335 0.1305369 0.06260576 0.056381762 0.051201273
0.06634591 0.03145488 0.03681094 -0.010519003 0.11042052 0.08821908 0.10610415 -0.02060168
0.015961995 -0.02152005 -0.03003888 0.02761214 0.0813359 0.006224309 -0.061491717 0.00037655345
0.059640463 0.015686775 0.015926175 -0.017802294 0.020314226 0.009665314 0.066467635 0.08214215
0.07208144 0.0030743896 0.054653198 0.052474 -0.09247292 -0.07821046 0.08476413 0.061245605
0.057142973 -0.10225198 0.08309617 0.013832035 -0.0030014918 -0.067458354 -0.07548277 0.11478929
0.026659198 0.007608729 -0.038936455 2.83258e-05 0.023908997 0.075907096 0.055614956 0.13639776
-0.015769081 0.105664305 0.14219198 -0.06981694 -0.012617928 -0.02802244 0.13582045 0.030517709
-0.024436364 0.07267837 -0.014339105 0.003672525 0.0049667507 -0.048312325 -0.05423651 -0.029606923
-0.023860509 0.035907123 0.031762365 0.0838798 0.044997063 0.0016336286 -0.057642102 0.09000721
0.10670092 0.042174544 0.07340998 0.08462464 0.009125774 0.11688178 0.014291463 0.076581225
-0.031542346 0.0470351 -0.062878646 -0.041686583 0.046905812 0.05873413 -0.062208638 0.115946636
0.03438694 0.053928763 0.03272799 -0.026716206 0.051006157 0.1604582 -0.0188982 0.0797146
-0.07147581 0.102772705 -0.01168749 0.019747702 0.031604674 0.077051334 0.07073524 0.09811287
-0.052898817 0.033820573 0.09522494 0.04551373 0.076172195 0.06697519 0.102226324 0.11928351
-0.06887036 0.0302188 -0.01817167 0.018124215 -0.02320682 -0.033459462 0.10060955 0.0042199697
0.05194584 -0.0749962 0.05400458 0.06714323 -0.009582853 -0.06574888 -0.064203665 -0.06717473
0.06690093 0.00045760942 0.07917104 -0.06434216 -0.0029347553 -0.0023543802 -0.07196435 0.045101903
0.06663549 0.11708365 -0.06493566 0.045439135 -0.04835249 -0.031398304 0.12176132 0.00020343023
0.028435282 -0.009130803 0.0018341771 0.11557877 0.09781918 -0.06573236 -0.0089587355 -0.04192325
0.05389571 0.1422382 -0.009807207 -0.032349937 0.03558614 -0.14378704 0.10104027 0.15913795
0.07657996 -0.09365402 -0.057234004 -0.06574448 0.02391701 -0.0757455 0.039179336 -0.11267227
0.11401836 0.16483411 -0.04663344 0.13106115 -0.123757 -0.05309782 -0.124884255 0.16072844
0.017530413 -0.1063379 -0.08565491 -0.027334996 -0.13445131 -0.02027943 0.14442529 0.1033654
-0.16463844 0.017280785 -0.07730449 -0.042310625 0.08801087 0.015890004 -0.14786552 0.046092693
0.13620394 -0.117039874 0.15129909 0.038671944 -0.013257301 -0.116402805 -0.13261387 -0.00187376
-0.07321114 -0.11895072 0.0087184375 0.097488135 0.051107664 -0.018376805 -0.014303213 0.094580494
0.0247053 0.15582998 -0.1615357 0.16027506 -0.06972395 -0.027335253 -0.0172736 0.0532641
-0.12143471 -0.017191086 0.058101844 -0.11575727 -0.006359623 0.07356073 -0.080923945 0.1791112
0.10394308 0.1361168 -0.036864158 0.010089045 0.027749449 -0.037048943 0.1412101 -0.1126242

lstm.bias_hh_l0 f4 [360]
00000000: 54d8 4e3c 8084 87bd 6d93 3a3d 0b1b 403d
00000010: 23aa 733c 5f36 a8bd 4686 adbd f50a 3b3d
00000020: 6b74 57bc 3d93 be3d f99a 193d b2b9 1cbc
00000030: 3dde 013d 065a c43d 87bd 96bc d8e1 063e
00000040: 3b38 d8bb b2d2 e5bb 549f bc3d ccf6 da3d
00000050: efa6 eb3d 2282 f13d a37a af3d da3e cbbc
00000060: b080 e23d 6891 e5bc 337c 1f3d 4ad5 7fbc
00000070: 9584 80bd f198 8f3d 4c02 df3c f14c 42bd
00000080: 8988 7b3d 0970 8bbd 906d 5bbd f307 533d
00000090: 60a4 ee3d 42a7 32bd f56e ca3c 691e e43c
000000a0: 0711 bc3d 9841 353d 92ef 213d 38f6 e13c
000000b0: ada0 bc3d 9d27 b3bd 5329 c2bc ef08 d6bb
000000c0: 1c59 113d 89a9 5abd b38e 01bd 03cf b43d
000000d0: 89da febc 3bb2 a73b d916 ee3d 6f9a f13d
000000e0: 3a78 52bc 365a 343d 832a 86bd 704a c13a
000000f0: f755 1b3d 4f7a 6bbd 1473 75bd 3a5c 72bc
00000100: 2fe4 e23b dce2 863d f899 d7bc 30f5 eb3d
00000110: 9c0b 59bb c52d cbbc 0003 94bd 32d0 033e
00000120: 8a43 a03d 6dee ab3d a0de cc3c 21b8 8b3d
00000130: 6e1b eb3d 1d37 1d3c b45d 053e 6e9d 923c
00000140: 0799 4e3d 447c e4bc 4f95 d63d 7af5 69bc
00000150: 9627 9d3d 1e60 ae3b df64 b43d 7e56 1ebc
00000160: 1228 663c 81a2 113d 70dc 9fbc 97e2 f23c
00000170: d340 ec3d 41e2 9e3d 0d5f 833d 45e5 383d
00000180: db1f 9bbd 11c1 823d 2d18 9d3d f785 d33d
00000190: 54e0 c83d 77c3 ef3c d2a6 0b3e 8d12 9c3c
000001a0: 647a 853d e532 3a3d 0a6e 15bd dd79 5d3d
000001b0: 2063 713c 8ba2 083d ba3c bd3d 3fb0 d83c
000001c0: 7bf5 cb3d 21b3 ac3d afe2 5c3d 0ce4 213d
000001d0: 7145 33bd c1b6 d63d dc9b 8a3d 1c90 4abd
000001e0: 9807 24bd f6de 973c 3c5a 56bd 2caf dbba
000001f0: 4d41 c23d 9354 18bd c236 12bd b76e 293c
00000200: 5e49 c33d 2d6e c63d 0db2 393d 1fe4 793d
00000210: 0a84 503d f49f 55bd 395c 6c3c d624 ed3d
00000220: 55c3 b83d 757e c3bb fe4d bdbd 4007 d83d
00000230: 39fd fabc cbdd 073e 5b54 b03d 587c 1c3d
00000240: dfe9 5d3c 9a05 a7bb f5bf 703c 4fa4 3b3d
00000250: 2379 943b 993b b0bd 4c6d 0f3d 99ca 8cbd
00000260: fc23 92bd 2223 b93d 40d1 2ebd f6c9 77bd
00000270: 9af1 1dbd 9af8 2bbd 78ad 91bd 381c a73d
00000280: 84f2 b13d bae7 f5bc ec3b 873c 787e f23d
00000290: a546 56bd 0f89 1b3d f832 90bd 696f 88bd
000002a0: 365b 033d ced0 4a3c 0cd8 fa3d 76b8 3bbc
000002b0: 0d5b 7f3d e621 1fbd add0 803d 3776 9ebd
000002c0: 9951 053d 4093 dc3c f996 a03c df56 a33d
000002d0: 57b6 7bbb 5523 1bbe f440 2b3e 6c9a acbb
000002e0: d44d 163e 2c66 87bc 855b d9bb f038 06be
000002f0: 60c4 d8bc ba18 153d fef6 6d3c 1e32 0a3d
00000300: 77ce 873d 475c f43d 5fb0 fc3b 0537 e63d
00000310: f4e6 f0bc 6ab0 02be 2949 1fbd 7a0b fd3d
00000320: ee15 2fbe dd78 23be ad39 b7bc 2836 b8bd
00000330: c2d7 0cbe deb1 e4bd b1bd 893d 8ffb 0e3e
00000340: e97e 03be c50f 13bd 1245 a1bd 0a6d d8bd
00000350: bba7 063e dba3 05be 5c4b f4bd ed97 c23d
00000360: 8d67 f33c f709 46bd 8793 c03c b6a5 c3bd
00000370: c71b 64bd 5c92 6ebd b7d5 2abc 698d a53d
00000380: 6edd d3bd 9705 c2bd 9293 39be 014e 003e
00000390: 600d a2bb 6ec6 01be 772c 18be aadc ec3d
000003a0: 7094 57bd 8482 283d d098 d73c 34ed b6bc
000003b0: 14df 20be f15c 0cbd edf1 3fba 4876 063d
000003c0: 3023 7ebc 8bcb fcbd 1c1a 203e f543 0cbd
000003d0: 90de 24be 9992 b93d 5167 2f3d 8743 d73d
000003e0: 0fda 093d 4243 a03c e3a1 bf3d 243d 46be
000003f0: 84e1 413d 91ff cabd b011 653d 698b 25be
0.012624819 -0.06617069 0.045550752 0.04690079 0.014872107 -0.082134955 -0.08472876 0.045664746
-0.013150315 0.09305427 0.03750131 -0.009565758 0.031706084 0.09587483 -0.01840092 0.1317209
-0.0065985 -0.007013642 0.09210077 0.10691604 0.115064494 0.11792399 0.08568313 -0.024810243
0.110597014 -0.028023437 0.038936805 -0.015614817 -0.06275288 0.07011593 0.027222775 -0.04743666
0.061409507 -0.068084784 -0.053571284 0.051521253 0.11652446 -0.04361654 0.024711112 0.027846532
0.09182935 0.04425201 0.039535113 0.027583227 0.09210334 -0.0874779 -0.023701346 -0.0065318267
0.035485372 -0.053384338 -0.03163023 0.08828547 -0.031110065 0.0051176823 0.116254516 0.11797034
-0.012846047 0.044031344 -0.06551077 0.0014746916 0.03792378 -0.05748969 -0.0599242 -0.014792496
0.0069241743 0.06586239 -0.026318535 0.11521375 -0.0033118492 -0.024802098 -0.07227135 0.12872389
0.07825382 0.083950855 0.0250085 0.06822229 0.11479841 0.00959566 0.13024026 0.017897334
0.050438907 -0.027891286 0.10477697 -0.014279718 0.07673566 0.0053215167 0.08808302 -0.009664176
0.014047639 0.035555366 -0.019514292 0.029649062 0.11535802 0.07757998 0.06414614 0.045140523
-0.07574435 0.06384481 0.07670627 0.10328286 0.09808412 0.02926801 0.13637856 0.019051814
0.06517485 0.045458693 -0.036481895 0.054071296 0.014733106 0.033358138 0.09240098 0.026451228
0.09958931 0.084326036 0.05392712 0.039524123 -0.043767396 0.10484076 0.06768009 -0.04945384
-0.040046304 0.018538933 -0.052332148 -0.0016760579 0.094851114 -0.03719003 -0.035696752 0.010341338
0.09535478 0.09688983 0.045335818 0.06100857 0.050907172 -0.052154496 0.0144262845 0.115792915
0.09021632 -0.0059660026 -0.092433915 0.10548258 -0.030638324 0.13268201 0.086098395 0.03820452
0.013544529 -0.0050971033 0.014694204 0.045810994 0.004531042 -0.08605117 0.035016343 -0.0687458
-0.0713577 0.09039904 -0.042680025 -0.06049534 -0.038560487 -0.04198513 -0.07113165 0.08159679
0.08688834 -0.030017722 0.016508065 0.11840528 -0.052313466 0.037972506 -0.070409715 -0.06661875
0.032069407 0.0123788845 0.12248239 -0.011457553 0.062342692 -0.038850687 0.06289802 -0.077373914
0.03254852 0.026925683 0.01960324 0.07975554 -0.0038408244 -0.15150197 0.16723996 -0.005267432
0.14678127 -0.016528212 -0.0066332244 -0.13107657 -0.026460826 0.036400534 0.01452422 0.0337392
0.06631177 0.11931663 0.0077114548 0.11240963 -0.029407002 -0.12762609 -0.03888813 0.123557046
-0.1709821 -0.15964074 -0.02236637 -0.089947045 -0.1375418 -0.11166738 0.06725634 0.1396315
-0.12841381 -0.03590371 -0.07874502 -0.105676726 0.13149922 -0.13050787 -0.11928436 0.09501634
0.029712463 -0.048349347 0.023507847 -0.09553091 -0.055690553 -0.058245048 -0.01042693 0.080836125
-0.10344969 -0.094737224 -0.181227 0.12529756 -0.004945442 -0.12673351 -0.14860712 0.11565526
-0.052631795 0.041140094 0.026317984 -0.022329904 -0.15710098 -0.034268323 -0.00073221215 0.032827646
-0.015511319 -0.1234351 0.1563496 -0.034244496 -0.16100526 0.090611644 0.04282314 0.10510927
0.033655223 0.019563321 0.09357049 -0.19359261 0.04733421 -0.09912027 0.05592507 -0.16166462

lstm.weight_ih_l1 f4 [360, 90]
00000000: aef2 563d f55f b9bd f761 433d c392 783d
00000010: 2e15 693d ab91 b3bd 50c1 43bd 7407 943d
00000020: 3489 e5bc 9542 4a3c c75b 8ebd 26a1 2bbd
00000030: d5d2 753c d10e 253c b063 88bd 61d3 bf3c
00000040: 67df 88bd eec7 603b 4f42 8cbd 3d8f 2bbd
00000050: 9a84 b93d e4a7 2c3d 6d0a 80bd 5f4b d63c
00000060: 6872 0ebc bc49 943d 3987 a9bd b289 573d
00000070: 1ada 203d 9930 85bc 5751 94bd eeba 063d
00000080: 8bcc eabc 2cbe 973d a84d f4bd 6d0c 213d
00000090: 49a2 603d a14c 12be 2567 a33c 0edd 973d
000000a0: fcb2 92bd 0c08 ccbd f479 1cbd 4377 fd3b
000000b0: 626a 9e3d 1cda 90bd 416b 06bc b2f6 c13c
000000c0: e69f f1bb 22b1 b7bd a4e5 2d3d 74f0 ea3c
000000d0: 1211 60bd 83a0 103c 9ca0 733d cb6c 2f3d
000000e0: 9b68 07bd d9a6 f2bd 4e88 723d d1b2 c4bd
000000f0: fed2 f13c 1eae b8bd 4a20 6cbc a494 1bbd
00000100: 54fc a1bd c152 073a e92d d8bd bc63 9d3d
00000110: f5bc acbd 793c a8bd fc2f 80bd f045 ddbc
00000120: 13a3 0f3d 7a1d 86bc fa09 56bc 555e cd3a
00000130: b68a 2bbd efe8 91bd a59c 673c 1267 a53d
00000140: 2abf c2bd 823e 5e3d c7bc 353d e60d 123c
00000150: f833 fbbc 191e d1bc 5f88 b3bc dc10 483d
00000160: 390c d1bd b379 70bd a0c4 c7bd 446c 4c3d
00000170: 9874 a93d 713a 5a3d fbf2 843d 58a1 ae3b
00000180: 3ef6 3dbd ee78 833d 1abc 48bd 1aad 343d
00000190: 6b50 823c 31b0 703d 7a43 8a3d 2df4 a43d
000001a0: c8b6 a6bd 37fa 97bd 70ef 993d 9ac1 f5bd
000001b0: 7b67 e53c f1bd 933c 7258 e4bc a276 6bbd
000001c0: a0a0 2abc 51ac fe3b 6502 35bd 7d08 d7bb
000001d0: 16d3 bebc c484 853d b283 f0bc f049 52bd
000001e0: 9940 8abc 060b c1bd 5f8e 893c 2841 c73a
000001f0: b431 a23a 8be1 1e3d 3af0 a43d d6f5 abbd
00000200: 2cfe 87bd b0e4 cfbd f9b3 363d 2ef7 eb3b
00000210: 5d2a b63c ec03 693c 72c1 333c b1b5 ecbd
00000220: 8241 f43c 68f8 bc3d f2df 18bc 6395 5a3d
00000230: b9a9 f9bd 59d4 863d 9341 843d 25c1 e23d
00000240: b5c9 573d 14bb 8dbd d9b3 a1bd 463d 623d
00000250: e620 e93c 8dce f73d d23a 39bd 2efe 2a3c
00000260: a1cc e6bc 0bd6 e4bc 92ad 883d cc73 b33d
00000270: 6830 03bd f347 643d f24a 88bd c6f0 1bbd
00000280: 125e d03d f199 bf3d 9de3 97bc cd4b f3bd
00000290: e1d8 913d d1f8 273d dcec ef39 6c97 dbbd
000002a0: 110e 7ebd f66f 30bd 1181 c23d e8b5 5ebd
000002b0: 012c 3cbd a8a9 543d ca3d f63d 8b75 2d3d
000002c0: 8222 173d e49d 6ebd 6e85 513d 75b0 0ebc
000002d0: 6d4c 853c b2fd 4bbd 87c6 053d 6d48 183b
000002e0: 1885 ad3d 029f 39bd c17c babc 8929 513d
000002f0: c90e 63bd 1956 12bd f692 ce3d a0cb 933b
00000300: 4454 98bd 7079 f1bb 5125 833d b62f 49bb
00000310: b353 393d af75 123d 7fe2 ddbd 8f52 2f3d
00000320: 0a91 a8bd d328 52bd 9d39 43bd 8a77 993d
00000330: 111d 933d 86b1 dc3d eea8 8dbd 4417 bb3d
00000340: db5a f33c aa50 ab3d c172 04be 68e1 62bd
00000350: ac66 c23d b775 b7bc ef2e 7d3d 30b5 0cba
00000360: f104 1cbd b603 a13b 1dcc 333d 0f2b b1bc
00000370: d1b3 2d3d 038b a93c 9279 9bbd 40d0 023d
00000380: 874f ddbd 5502 143c ea05 613d c3e7 d53d
00000390: 2b90 5d3d 1ecb 623d c84a 443d 2ac0 62bd
000003a0: 24ca 8abd 67c8 833d 92fa 4fbc bbc7 31bd
000003b0: 8565 a13c 755f c0bd 89eb a0bd 018b 2bbd
000003c0: 8ded 9bbd 9360 f2bd 7b1f 2b3d d35b aabd
000003d0: 9a3b 52bd b363 12bd d5d4 aebd a54d ff3d
000003e0: 239a 88bd 96cc 213b 3753 cf3d b4c3 2ebd
000003f0: 46b3 bb3d 3db9 9dbd 40a8 a0bc cca8 0bbc
0.05247753 -0.090515055 0.04770085 0.060686838 0.056904964 -0.08768018 -0.04779178 0.07227984
-0.028019525 0.012344976 -0.06951099 -0.04190173 0.01500388 0.010074333 -0.06659639 0.023416223
-0.066832356 0.0034298855 -0.06848585 -0.04188465 0.09058495 0.0421523 -0.062519886 0.026158987
-0.008694269 0.07240626 -0.08277745 0.05262155 0.039270498 -0.016258525 -0.07242077 0.032893114
-0.028661987 0.07409319 -0.11928874 0.03931849 0.054842267 -0.14287044 0.019946644 0.0741521
-0.07163045 -0.09962472 -0.03820224 0.0077351644 0.07735135 -0.07072851 -0.008204282 0.023677204
-0.0073737977 -0.08969332 0.04245533 0.02867911 -0.05470378 0.0088273315 0.05947934 0.042828362
-0.033058744 -0.1184823 0.05921202 -0.09604419 0.029519554 -0.09017585 -0.014411995 -0.03798355
-0.07909456 0.00051621726 -0.10555632 0.076850384 -0.08434478 -0.08214659 -0.06259152 -0.027010888
0.03506763 -0.016371477 -0.013063902 0.0015668372 -0.041880332 -0.07124507 0.014136468 0.080763
-0.09509118 0.05425883 0.044369485 0.008914446 -0.030664429 -0.025527047 -0.021915613 0.048844203
-0.102074094 -0.05870981 -0.097543 0.049907938 0.082741916 0.05327839 0.06491657 0.0053292923
-0.046377413 0.0641955 -0.049007513 0.044110395 0.015907487 0.05876178 0.067511514 0.08054385
-0.081403315 -0.074207716 0.07516372 -0.11999817 0.028003445 0.018034907 -0.027874205 -0.057486184
-0.010414273 0.0077720066 -0.044191737 -0.006562291 -0.023294013 0.06519464 -0.029359672 -0.051340044
-0.016876506 -0.09425931 0.01679152 0.0015201913 0.0012374432 0.038789313 0.08053632 -0.08396499
-0.06640276 -0.101510406 0.04460523 0.007201097 0.022236997 0.014222126 0.010971414 -0.115580924
0.029816393 0.09227067 -0.0093307365 0.053365123 -0.12190575 0.06583471 0.0645782 0.11071996
0.052682597 -0.06920448 -0.07895631 0.055234216 0.02845807 0.12099943 -0.04522211 0.010436578
-0.028173747 -0.027934095 0.06673731 0.08762321 -0.032028586 0.05573268 -0.0665492 -0.038071416
0.101741925 0.09355534 -0.018541152 -0.11879692 0.071214445 0.041008774 0.00045762106 -0.10722241
-0.062025134 -0.043075524 0.09497274 -0.054372698 -0.045940403 0.05191961 0.12023504 0.042348426
0.036898144 -0.058256045 0.05115264 -0.008709063 0.016271794 -0.04980249 0.032660034 0.0023236529
0.08472651 -0.045317657 -0.022764565 0.051065 -0.055434022 -0.03572664 0.10086624 0.004510358
-0.074379474 -0.007369213 0.06403602 -0.0030698604 0.045245837 0.035756763 -0.10834216 0.042803343
-0.08230789 -0.051308464 -0.047662366 0.074935034 0.07183278 0.107760474 -0.069169864 0.09135297
0.02970641 0.08364995 -0.129344 -0.055390745 0.09492239 -0.022394998 0.061812337 -0.0005367575
-0.03809065 0.0049137725 0.04389583 -0.021626977 0.042407814 0.020696169 -0.07591547 0.031936884
-0.10806184 0.009033759 0.05493728 0.10444596 0.054092567 0.05536949 0.04792288 -0.055359043
-0.067768365 0.06434708 -0.012694018 -0.04340337 0.019701729 -0.09393207 -0.07857425 -0.04188061
-0.076136686 -0.11834826 0.04177807 -0.08318295 -0.05132637 -0.03573961 -0.08536688 0.124659814
-0.06670024 0.0024688593 0.10123294 -0.042667106 0.09165053 -0.07701347 -0.019611478 -0.008524131

lstm.weight_hh_l1 f4 [360, 90]
00000000: 8c20 dd3d a95a 853b 0a56 fcbd 97b8 d53d
00000010: ff3b 4dbd 2271 40bd a07b 62bd 59f5 803c
00000020: 2ec9 e93d 7010 e03d 0479 acbd 0068 c1bd
00000030: 4735 253d 6cfd c23d de10 a4bd 8b3e 1ebb
00000040: 8715 48bd d8d5 f3bb f43d a7bd f871 bd3c
00000050: b736 e5bc a6b6 2bbd 9089 413d b4a4 7abd
00000060: fd06 9fbd b018 97bc a1ec b53c 85fa 41bd
00000070: d0a3 cfbc 35aa b7bd 8220 6e3d 6c9b 2b3d
00000080: 9b51 f1bd 8c47 fcbb 8861 b23d 5d15 5c3c
00000090: 9185 bbbd 1857 92bd 1b2c bd3c 4558 cbbd
000000a0: b7ee 5d3c 0585 a63d 0295 e43d 8a08 ea3d
000000b0: d992 e93d b0a4 b4bd 5241 0ebd e1be 34bd
000000c0: a9c6 5fbd 352b 82bd 9e7b 183d c816 743d
000000d0: ec0b 803d beb0 e9bd 77a5 dd3a 19e6 993d
000000e0: c6bf c7bd c701 c83a 71b5 8e3d 712f b6bd
000000f0: 10d6 bdbc 463e 473d ad70 42bc a665 5c3d
00000100: 6612 b4bc 16f5 1cbc 6764 303d 7710 a1bd
00000110: f0fe a33d de61 b6bd c3f5 94bc 0cc2 7d3d
00000120: 55bc 583c 7063 0f3d f234 603d 52a9 753d
00000130: 9029 943c 09ef 3dbd 52cf f43d 7fc8 bdbc
00000140: a533 2b3d 99f4 35bd 15b0 88bd b796 1e3d
00000150: c44f 1dbd 743f bb3d b83f 25bd ff5c b63d
00000160: 87f0 193d 850b c5bd 546d a0bd 412c 95bc
00000170: ca18 5e3d 8066 063d afcd f0bd 7088 ed3d
00000180: e3c0 c13c 783e bd3d 7adb 4e3d c7d2 65bb
00000190: f086 b5bd de8b 503d a6d2 953d c2b3 6a3d
000001a0: 2b43 11bd 922e 74bd 2c6c bdbd 4cb4 83bb
000001b0: 9384 933d 7909 573d 33c5 dcbc ee5e 7a3d
000001c0: c1ec f8bd ea36 f23d acfb 993d cb35 6fbc
000001d0: e53e babd 47f4 33bd 137f 9a3c f3c5 313d
000001e0: c8cc 6ebd 494a 933d 028f aebd 70c7 51bd
000001f0: 76ff 76bc 3c63 d23d 7056 753d a533 b9bc
00000200: 72a0 9dbd b510 e3bc c8c6 b93c d1f3 1ebd
00000210: 82cb 0abd 70df 54bb 706d 7f3d 605f a6bd
00000220: 0d40 6d3d abc2 e2bc 3373 d33b 59f4 8abd
00000230: a0ce c63d adaf 88bd df69 883c 87d4 983c
00000240: 216e ac3d 16e9 56bd be6c 68bd 4404 a5bb
00000250: 2ddf 6fbd 2e45 023d 96e5 cfbd a1ae 67bc
00000260: 6510 873d 9960 ec3d a16c 09bd 962d a3bd
00000270: 3a0d fa3d ef4e 21bd 4385 423d 2df0 42bd
00000280: c975 cc3d 0437 8f3c a47f 923d 5600 eebc
00000290: e74f 903b b33e 3dbd 8c93 ea3c 408a 3f3d
000002a0: 9e43 06bd 1ff0 793c 5209 513d 2c45 ea3d
000002b0: 5a90 7dbd f8c5 ac3d 133b c2bd b152 9a3c
000002c0: 13e8 d7bb ad4d b23d 628a ddbd a848 8ebd
000002d0: 6ecd e23c d675 9b3c 6b8d 9b3c bce2 013e
000002e0: 0d78 873d 2c21 fe3d 74f6 68bd c4ba df3d
000002f0: 64d4 803d adf7 b4bc dbe9 743d 1a80 003d
00000300: 0972 01bd 585a de3d 8730 85bd 0164 9b3d
00000310: 5a4e 43bc 2919 9abc 10a9 21bd c95f 483d
00000320: 0c13 023d 05b4 e93d 50bc f9bc fa92 eb3d
00000330: e52f 083e 57c6 93bc 740d 913d 81fb 593d
00000340: 0575 133d 99ab e5bd beb1 40bd d463 9bbc
00000350: 7fce c13c abf3 8b3d 1888 e93d 6a0c ba3c
00000360: fa5f 1dbb 0a7c 56bd 02a5 853d 0e3a c5bd
00000370: 0992 92bd 5337 a93d 2be3 c93c 020a 823d
00000380: 199b 32bd 47f5 073d 36c8 b93c b063 6cbd
00000390: bc16 963d 2d10 9f3d 917a 8dbd f408 21bd
000003a0: f8c5 bc3c 31be 9dbd bd04 583d 309c 89bc
000003b0: 02a9 25bd a0e2 5a3d 3504 aa3d d93a c33d
000003c0: 44e8 abbd d631 5dbd 6767 61bd 67d7 3b3d
000003d0: 4865 9cbd 1a19 913c a469 93bd abc8 bd3d
000003e0: 359c eb3c 8579 51bd 0334 053e 6f90 a2bb
000003f0: 4200 35bd 320c c83d 68f5 3abd 08c4 8dbd
0.107972234 0.0040696454 -0.12321098 0.10435598 -0.050106045 -0.04698289 -0.05529368 0.01574199
0.11415325 0.10940635 -0.084215194 -0.094436646 0.040334012 0.09520993 -0.0801103 -0.0024146165
-0.048848655 -0.0074412636 -0.081661135 0.023125634 -0.027980192 -0.041922234 0.04725033 -0.06119223
-0.07765005 -0.01844439 0.02220756 -0.047358055 -0.025346667 -0.08968011 0.05813647 0.04189627
-0.11783143 -0.0076989587 0.08710009 0.013432828 -0.09156335 -0.07145518 0.02309232 -0.099289455
0.013545684 0.0813084 0.111612335 0.1142741 0.11404962 -0.08820474 -0.034730263 -0.04412735
-0.054632816 -0.06355897 0.037227266 0.05959204 0.06252274 -0.11410664 0.0016910274 0.07514591
-0.09753375 0.0015259319 0.06968201 -0.088957675 -0.023173362 0.048643373 -0.011867684 0.053807877
-0.02198143 -0.009579917 0.0430645 -0.078644685 0.0800761 -0.089053854 -0.018183595 0.061952636
0.013228496 0.03500694 0.054737993 0.05997593 0.018086225 -0.04637054 0.11953606 -0.023166893
0.0417973 -0.04442272 -0.0667421 0.03871795 -0.03840615 0.09142962 -0.04034397 0.08904456
0.0375829 -0.09621338 -0.07833353 -0.018209578 0.05422286 0.032812595 -0.11757981 0.11598289
0.023651546 0.092404306 0.050502278 -0.003506826 -0.08863628 0.050914638 0.073155686 0.057300337
-0.035464447 -0.059614725 -0.09249148 -0.004019296 0.07203021 0.05249927 -0.0269495 0.06112569
-0.12154532 0.1182688 0.07518706 -0.014600228 -0.090940274 -0.043934133 0.018859422 0.04340167
-0.058300763 0.07191903 -0.0852337 -0.05121559 -0.015075555 0.10272834 0.059896886 -0.022607634
-0.07696618 -0.027717927 0.022677794 -0.03880674 -0.033885486 -0.0032481812 0.062360227 -0.0812366
0.05792241 -0.027680716 0.006452942 -0.06784887 0.09707379 -0.066741325 0.016652046 0.018656028
0.08419443 -0.05246838 -0.05674433 -0.005035909 -0.058562446 0.031804256 -0.10151212 -0.014140756
0.06594924 0.11541862 -0.033550862 -0.07967679 0.12209554 -0.039381918 0.04749037 -0.04759233
0.09983403 0.017482288 0.07153252 -0.029052895 0.0044040564 -0.046202373 0.028634809 0.046762705
-0.03277933 0.015255003 0.05103428 0.11438975 -0.061905243 0.08436197 -0.09483924 0.018838258
-0.0065889447 0.08706222 -0.1081741 -0.06947452 0.027685847 0.018977087 0.018988332 0.12684149
0.06614695 0.12408671 -0.05687566 0.109242946 0.0629051 -0.022090757 0.059793334 0.031372167
-0.031602893 0.108570755 -0.065033965 0.075874336 -0.011920536 -0.018810825 -0.03946787 0.048919473
0.031756446 0.11411289 -0.030485302 0.11502643 0.1329952 -0.018038912 0.07082644 0.05321837
0.03600027 -0.1121437 -0.04704451 -0.0189685 0.023658035 0.06833585 0.11402911 0.022710998
-0.0024013505 -0.052364387 0.06525613 -0.09630214 -0.0715676 0.082625054 0.024644455 0.06349565
-0.043604944 0.0331929 0.022678476 -0.057712257 0.07328555 0.07766757 -0.06908143 -0.03931518
0.023043618 -0.07702292 0.052738894 -0.016798109 -0.04044438 0.053438783 0.08301584 0.09532709
-0.083939105 -0.054002605 -0.055030253 0.04585972 -0.07636505 0.017712165 -0.07197884 0.0926679
0.028761009 -0.05114128 0.13008122 -0.0049610655 -0.0441897 0.09767951 -0.045644194 -0.069221556

lstm.bias_ih_l1 f4 [360]
00000000: 4db1 a63d e6a8 8e3d dfdc a33d 002e 49bd
00000010: 61e5 86bb a0ec 313d 25ae 93bd 2b1d dbbc
00000020: 366c d5bc 76c8 953d ee88 bc3c bb5f e33d
00000030: 2f92 003e 3a2b 1f3c 4d17 87bd 081d 993d
00000040: b411 9d3d 2f39 023e ac24 ac3b dfaf 83bc
00000050: 8035 4ebd df8f dcbb d118 00bc b1bb 45bd
00000060: 124d 8fbc 7da6 61bd 816c e3bc ef49 b03d
00000070: efd5 773d 77f0 d7bc de1c 3f3d c379 1e3d
00000080: cbf6 29bc 787e 903d 39ef 39bd b3c0 2bbd
00000090: e926 00bd 39ff 57bc 6524 4c3c 4a5b 80bc
000000a0: 59ec 8f3d b42b 283c cc43 fb3d ad7b 9abd
000000b0: b688 da3d 8087 dc3c 0666 a2bd 2ff7 85bd
000000c0: 5a55 a3bc 67bb 28bd e240 853d a759 fdbc
000000d0: 278c 023e 4e53 9f3b 0553 6f3d dd12 ab3d
000000e0: 489d 93bb c3d6 bf3a bcf4 b5bd 6554 0d3d
000000f0: 2b48 ed3d 14a9 8dbd 4a46 293d 4132 263d
00000100: 7cc5 a63d 9634 98bd 5e80 8bbd 0e81 78bb
00000110: 78a8 eb3d 3046 4bbd 48dc 1e3c 664c cd3d
00000120: 6556 833b 17dc 2b3d a9b6 6f3c 0cc1 54bb
00000130: 0492 d13d 9d7f 83bd 7b65 3b3d c728 34bd
00000140: 79c6 7dbd ca07 5b3d 5f8d c63d c6b8 bbbc
00000150: eb42 9f3d c605 053c 58e9 8c3d 7cae 643d
00000160: 5ebd 053b a5a0 7cbb b2fc 313a 4b50 073e
00000170: e477 393d 6f53 813d 6e8d 1f3d 3192 86bd
00000180: 5440 dd3d 8c5b 33bd 80d2 97bc 79a6 783d
00000190: a469 51bb 2511 803c ff06 37bd 4934 99bc
000001a0: 4969 d9bd ce91 75bd b112 583d 8ce4 64bc
000001b0: 4b6c 73bd fe05 913d d615 33bd 3fb2 cebb
000001c0: d7a5 813d 4cbe 003d 41b5 0f3d a7d7 a4bc
000001d0: 5fe5 7a3b 81c4 e8bc 8fdb 0fbd d422 243d
000001e0: bf14 8bbb 48b7 98bd 173d 873a 5a18 0cbd
000001f0: d694 973d 4616 3bbd 9c15 67ba 2d1b 37bd
00000200: 9514 213c ae12 a0bc 3545 573c f465 6f3d
00000210: bc9f e4bc 5116 3d3d 2f7f 69bd 3dad 8a3d
00000220: b5f2 df3d 6977 a53d 0d5f 77bc 336f 44bd
00000230: 564f e1bc 1866 c83d 3bab 33bd 3d78 b33d
00000240: fcb7 eb3d 95e0 90bc 28e1 b23d 4688 c13c
00000250: 1965 013c ea45 b8bc 005b f33d 3097 af3c
00000260: c29e 643d 6b1b db3d e68b f03d ff50 1abd
00000270: 0f34 e2bc e689 5b3d a2c8 a33b 9eb6 5fbd
00000280: 6e23 65bd bf6e c13d 48c0 373d cb92 ce3d
00000290: 657e 973d 5e70 12bd edda 48bd b63a cf3d
000002a0: 03d6 da3d 6c95 9e3d ae30 0a3e 025e a9bc
000002b0: 4655 013d a9e1 5e3c b70f d33d fb30 b13c
000002c0: 4241 993d f61f 69bc 6113 53bd 3653 f53d
000002d0: bb9f e9bd b8c1 b9bd e76e 53bd eb98 143e
000002e0: 05e7 0cbe 654d 163d 70b9 2f3d eb65 e7bc
000002f0: 5c29 41bb d0a6 cabc 9601 00bc a4d8 a23b
00000300: 09e0 423d 64b8 413d 3d7d 9b3c 6a4d 3dbd
00000310: f9b3 4f3d b235 4ebd 1d51 69bd a537 ef3c
00000320: 3c33 e0bd 2e9e 25bd 8c43 e8bd ac61 893d
00000330: c1fb 893c 1f0a 893d 73fe 0ebe f1db 98bc
00000340: 480e 053e 8746 86bd ee62 ee3d 4824 fa3c
00000350: 00a3 64bd 6705 f7bc c120 e33d 9bf5 41ba
00000360: c273 1ebe 3c12 cfbc 2c9a 24bd 9f27 0cbe
00000370: 3994 0c3d 5d6b 85bd b3a1 f03d ba23 043e
00000380: ab17 063d 9aa9 93bd cc83 723d 2b7e 0c3d
00000390: 09ec f13d c6e5 f2bd 69a5 a73d d931 093e
000003a0: 72fd 9fbd 15e7 933d 2d6d a83d ec7f 79bd
000003b0: ceb5 0dbe 3b31 9fbc 814c 0ebd 4cfa f2bb
000003c0: cf0f 00be 274f d9bd a90e 2bbd 5f8b 303c
000003d0: a4c5 cb3d 8ba1 6e3b e82a b73d 2cc3 f93d
000003e0: 882a 943d c04e f1bd 4bc7 a63d 8f4a 7a3d
000003f0: 8c16 19be b941 663d 84a0 6b3d e4d8 d23d
0.08139286 0.069658086 0.08001112 -0.049116135 -0.0041166996 0.043438554 -0.0721095 -0.026747307
-0.026052576 0.073136255 0.023014512 0.111022435 0.12555765 0.009714896 -0.06596241 0.074762404
0.07669392 0.12717126 0.005253395 -0.016075073 -0.05034399 -0.006731018 -0.007818417 -0.0482747
-0.017492805 -0.055090416 -0.0277617 0.08607852 0.060506757 -0.02635978 0.04665839 0.03869034
-0.010373781 0.07055372 -0.045394156 -0.04193182 -0.031287108 -0.013183408 0.012459849 -0.01566853
0.070275016 0.010264326 0.122687906 -0.075431205 0.10670607 0.02692008 -0.07929616 -0.06541287
-0.01993816 -0.041194346 0.06506516 -0.030926539 0.12748776 0.0048622256 0.058428783 0.08353207
-0.0045048334 0.0014636148 -0.0888457 0.034504313 0.115860306 -0.06917015 0.0413268 0.04057527
0.08143136 -0.07431905 -0.068115935 -0.003791872 0.11506742 -0.049627483 0.009696074 0.100243375
0.0040081018 0.04195794 0.014630952 -0.0032463698 0.102329284 -0.06420825 0.045751076 -0.0439842
-0.061956856 0.053474225 0.09694933 -0.022915255 0.077764355 0.008119052 0.06880444 0.055830464
0.002040706 -0.00385479 0.00067896687 0.13214223 0.045280352 0.06314742 0.038953237 -0.065708525
0.10803285 -0.043788478 -0.018532991 0.060705636 -0.0031953836 0.015633175 -0.044684406 -0.01870169
-0.10615785 -0.059953503 0.0527522 -0.013970505 -0.059429448 0.07081221 -0.043721996 -0.0063078697
0.063304596 0.03143148 0.035084967 -0.020122362 0.0038283688 -0.028414013 -0.035121497 0.040072277
-0.0042444165 -0.07456833 0.0010317889 -0.03420291 0.07401435 -0.04567554 -0.0008815171 -0.04470365
0.009831567 -0.019540157 0.013139059 0.05844684 -0.027908199 0.04616386 -0.057006057 0.06771324
0.109349646 0.08079416 -0.0150983455 -0.04795761 -0.02750365 0.09785098 -0.04386447 0.08763168
0.115097016 -0.017685214 0.087343514 0.02362455 0.007897639 -0.022494275 0.11882591 0.021434397
0.055815466 0.10698589 0.117454335 -0.0376749 -0.027612714 0.053598307 0.0049982825 -0.054617517
-0.05594199 0.09444951 0.044861108 0.10086592 0.07397155 -0.035751693 -0.04903691 0.1011862
0.10685351 0.07743344 0.13495132 -0.02067471 0.031575464 0.013603606 0.10305732 0.021629801
0.0748315 -0.0142288115 -0.051532153 0.11978762 -0.11407419 -0.09070152 -0.051619437 0.14511459
-0.13760002 0.036694903 0.042901456 -0.02824684 -0.0029474115 -0.024737746 -0.007812878 0.004969673
0.047576938 0.04729499 0.018980617 -0.046216406 0.050708745 -0.050344177 -0.05696212 0.029201338
-0.10947272 -0.040434055 -0.113410085 0.067080826 0.016843678 0.066913836 -0.13964252 -0.018659564
0.12993729 -0.06556421 0.11639963 0.030534878 -0.05581951 -0.030153943 0.11090232 -0.0007398964
-0.15473846 -0.02527725 -0.040186092 -0.13686989 0.034321044 -0.065146185 0.11749592 0.12904254
0.032737415 -0.07210083 0.059207723 0.03430001 0.11812598 -0.11860232 0.08185846 0.13397922
-0.07812013 0.0722181 0.08223949 -0.06091301 -0.13838884 -0.019432655 -0.03474093 -0.0074150916
-0.1250603 -0.106108 -0.041762028 0.010775416 0.09949806 0.0036412205 0.089437306 0.12195429
0.07234675 -0.117825985 0.08143481 0.06110626 -0.14950007 0.05621502 0.057526127 0.10295275
