models/lstm_trial_14.pth (torch, 285388 bytes, 9 tensors)

lstm.weight_ih_l0 f4 [276, 44]
00000000: 2677 abbc 88d6 903c a952 7abe dca9 6b3e
00000010: 452b 763e fd3c afbd 55cb 643d c4e9 203d
00000020: ba83 59bd 7e81 7dbc 3a94 293c 96d7 1f3d
00000030: 3f3a 6abd e99d ce3c f9f6 78be bb4e 813d
00000040: 0a23 8b3e 4e23 dfbd 9863 babd 6720 bebd
00000050: fba6 03bd 3417 c1bd ade4 e0bd 52d6 923d
00000060: 9d71 ac3d 121a a9bd 6ac2 ea3d 5046 1f3e
00000070: f113 0b3e b575 b8bc 07f2 023e ed31 3b3e
00000080: a5b2 c53c 656f d83d f979 13be 6a07 5dbc
00000090: e82a 873d 29f2 a9bd 9359 0cbe d3eb 50be
000000a0: 3618 783e 3f43 fc3e 0e1d dabe 02ad e0bd
000000b0: b9dd c6bd d2ad d43d e6f3 1cbd 7eca e53e
000000c0: 3368 b3bd e7c3 afbd 60b2 453d 95db 973a
000000d0: 6fb1 a3bd 07da df3d 0632 24be 2faa 2a3d
000000e0: db1d 91be 6b7d 12be e83f 1dbe 65bb 9ebd
000000f0: 0b29 f13c 0c8f afbc c897 663d e08e a23d
00000100: 5755 2fbd a160 333c b537 883b 0916 4d3d
00000110: 4f42 693d 26e0 3c3e 6cca 8d3d a4f6 b13d
00000120: 6bf2 0b3e a8ca 5b3e 40a7 d2bd bc51 b6bd
00000130: 4d00 533d f076 42be 9215 023e 93ea 0cbe
00000140: 1b32 7bbd 1a3d b3bd b2c3 c5bd b144 1c3e
00000150: fc83 e1bd 1c3c 1a3e 1483 c1bd e63e 573d
00000160: fd26 913e a365 20be 246b 413e f2da 0d3d
00000170: 7bd7 203e 0fc5 973e 6ff3 023e 6f82 073e
00000180: f029 bcbd 71c7 21be 5f26 76be ad8c 523e
00000190: 2608 193e b6ab ea3c 82d0 fe3d 09bd d13d
000001a0: 6407 9338 d89d 0dbd bcbc e1bd da76 d5bc
000001b0: dcc3 1e3d ed12 e23d 5f58 53bd 9c95 e53d
000001c0: cc6d 433e d8f1 443e ee41 063d d80c 8cbd
000001d0: 3ef3 c6bd 1e97 203d e55e f23d 3b09 193e
000001e0: 64c4 a83c 214e 0b3e de01 203d a85a 07bc
000001f0: bf33 753e 0ce2 80bd 585c 6cbe c3c7 c5bd
00000200: 4683 453e f3cc 1cbe 0699 4bbd 2842 0b3e
00000210: b1ac dfbc 071c 273c 3743 e43c e5ec fbbc
00000220: 4478 39be 787e 9fbd b81c 75bd f88f 073e
00000230: a032 34be 32ac a8bd 92c7 a93d 1828 383e
00000240: ea2b 1fbd 42d9 b2bd 2576 8ebd 1432 34bd
00000250: 0b94 bd3d 039d c0bd 72b9 bbbd 296c f73d
00000260: b988 af3d f71f c03d 97b3 6e3e 7fc1 503c
00000270: 3a54 403e 3ec5 5d3c f2e3 913d 30e0 98bd
00000280: 38c1 aa3c 169a 04be 82a3 6bbc 34b1 08bd
00000290: 70f2 d73b c116 e83c eb04 a63d 23ac 643d
000002a0: 7a46 b3bc 8a8f 753d 7492 3abe bdab 9abc
000002b0: 5078 3b3d 1742 f03c 307a 15be 690c e7bc
000002c0: 498a a83d d9e0 c93c 6b9e 66bd bacb 9e3c
000002d0: 2862 ac3d 6277 c9bd c207 87bd c417 923e
000002e0: c37b c4be 1a36 40be 2806 61be 43b2 e83d
000002f0: 0c85 2cbd c4e2 d93b 0508 b83d a52f 1d3e
00000300: ee86 9ebd d7a8 74be 3b88 d83c 4d2c 773d
00000310: a922 443e aa67 dbbd a111 b9bc d477 06be
00000320: d37e bbbb 4847 37bd d75a e13d d271 82bd
00000330: a28b 28be c001 3a3d 3d6c 1d3e fc92 3c3e
00000340: b2b0 2ebe 610b b23d 65d4 2abe 7d8c 4abd
00000350: e40c 363d 4af3 1dbe d9e3 613e 3bd5 7dbe
00000360: ca76 e13d 1a97 9b3d 88f3 1abe 544e d93d
00000370: d841 273e 3495 633e 177d 913d 351e 40be
00000380: 4bb7 e13b 2fbc 553d bcc2 ebbd aee8 183e
00000390: e152 953d a1e7 79bc f618 b3bd acd1 b63d
000003a0: 7ab8 9b3e d8a7 c8bd 54ae 3c3d 04a6 8a3d
000003b0: 35f6 be3d 6b59 dfbc d0c2 853d 6c6d 88bd
000003c0: c18c e63d 6492 e33d 1681 963c f349 40bd
000003d0: ccc1 3f3d 6f4a dd39 e0d0 933d 025b fd3d
000003e0: f25e 2abe b155 0f3c 7ea6 02be e50a 863d
000003f0: c2de 1f3e a167 fbbd 384d 60bd f409 9c3c
-0.020930838 0.017680421 -0.24445595 0.23014015 0.24039944 -0.085565545 0.055857975 0.039285436
-0.05310414 -0.015472768 0.010350281 0.03902396 -0.057184454 0.025221782 -0.24312963 0.06313845
0.2717517 -0.10895406 -0.09101027 -0.09283524 -0.032141667 -0.09428254 -0.109811164 0.071697846
0.084201075 -0.08256926 0.11462863 0.15554166 0.13581826 -0.022517065 0.12787639 0.18280764
0.024133036 0.10568122 -0.14401998 -0.013490537 0.065999806 -0.082981415 -0.13706045 -0.2040246
0.24227986 0.49270055 -0.42600292 -0.109704986 -0.09710259 0.10384716 -0.038318537 0.44881052
-0.08760109 -0.08582287 0.048265815 0.0011585826 -0.07992827 0.10930257 -0.16034707 0.041666206
-0.2834309 -0.14305656 -0.1535641 -0.077505864 0.029438516 -0.021430515 0.056297094 0.079374075
-0.042805996 0.010948331 0.0041570314 0.050069842 0.056948002 0.18444881 0.069233745 0.08689621
0.13666694 0.21464026 -0.10285807 -0.08902308 0.05151396 -0.18990684 0.12703541 -0.13761358
-0.06132708 -0.087518886 -0.096564665 0.15260579 -0.11011502 0.15061992 -0.09448829 0.05255022
0.28350058 -0.15663771 0.18888527 0.03463263 0.157072 0.2964253 0.12788175 0.1323335
-0.091876864 -0.15798737 -0.24038075 0.20561476 0.14944515 0.028646331 0.124421135 0.10241134
7.010883e-05 -0.03457436 -0.11022326 -0.02605765 0.038761005 0.11038766 -0.05159795 0.11210176
0.19084853 0.19232881 0.03277772 -0.06838387 -0.097143635 0.039206617 0.11834506 0.14944927
0.020601459 0.13604023 0.03906428 -0.00826136 0.23945521 -0.06293115 -0.23082101 -0.09657242
0.19288358 -0.15312557 -0.04970648 0.13599455 -0.027304025 0.010199553 0.027864082 -0.030752609
-0.18112284 -0.07787794 -0.05984184 0.13238513 -0.17597437 -0.08235969 0.08290018 0.17984045
-0.03886024 -0.08732845 -0.06956128 -0.04399307 0.092567526 -0.094049476 -0.0916623 0.12081177
0.08571 0.09381097 0.23310696 0.012741446 0.1878213 0.013535796 0.07123555 -0.07464635
0.020844087 -0.12949404 -0.014382245 -0.03337212 0.00659018 0.028331162 0.08106407 0.055828225
-0.021884192 0.059951343 -0.1821993 -0.01888072 0.045769036 0.02932839 -0.14597392 -0.02820416
0.08229501 0.024643349 -0.056303423 0.019384254 0.08417159 -0.098372236 -0.065932766 0.28533757
-0.38375673 -0.18770638 -0.21975005 0.11362126 -0.04211907 0.006649347 0.089859046 0.15350206
-0.077405795 -0.23892532 0.026432147 0.060344983 0.19153847 -0.10713132 -0.022591414 -0.13131648
-0.0057219057 -0.044745713 0.110036545 -0.06369366 -0.16459516 0.045411825 0.15373321 0.18415445
-0.17059591 0.086935766 -0.16682585 -0.049450386 0.044445887 -0.15424839 0.22059573 -0.24788372
0.11008985 0.0759718 -0.15131962 0.10610643 0.16333711 0.22224885 0.07103937 -0.18761523
0.0068883053 0.05218142 -0.11511752 0.1493251 0.072911985 -0.015252979 -0.08744995 0.089267105
0.30414182 -0.09797639 0.04606469 0.06769946 0.09324304 -0.027264317 0.06531298 -0.066614956
0.112573154 0.11111906 0.0183721 -0.046945523 0.04681568 0.00042207862 0.07217574 0.12370874
-0.16637781 0.008748458 -0.12758824 0.06545047 0.15612319 -0.12275625 -0.05476114 0.019047715

lstm.weight_hh_l0 f4 [276, 69]
00000000: 62fa a4bc 5238 8a3e 8759 8abd 1cc8 fc3b
00000010: bd98 fcbd cd78 903c fd79 2e3d 5274 943d
00000020: ebda da3d 8663 d4bd 14e0 0b3d ba16 33bd
00000030: 93ba 04be 084b c6bd 41dd 85be d57d 1b3d
00000040: 32cf 283d 706d 8e3e 7fa2 2cbc a139 3f3d
00000050: 1dbb f9bd 0167 26be 012b 073d e891 6fbc
00000060: c7fb 4b3d cf34 81bd 2e22 5cbe fe87 17be
00000070: 401d 31be 92bf 0d3d 9b83 0bbe f646 0a3d
00000080: 5969 de3d 172d 943d 20dd b63d 07f6 353d
00000090: 8515 83be aabe 233e e846 3b3d 7fe1 a9bd
000000a0: 4183 5b3c 38bc fb3b 258f 0d3e 594e 9bbd
000000b0: 5c5b 12be 4226 fabd 921c fa3c e642 debd
000000c0: 06a1 22be 230f 593c 633d a6bd 8240 093e
000000d0: 98ca 353a ef1a 13be 1084 023e 4d13 2dbe
000000e0: c4e4 b73d fc31 a83c f705 303d 4433 213c
000000f0: 3fd9 bb3b 3250 163e 4966 1ebe 9ea5 5cbd
00000100: 6229 efbc c8aa 94bd 16bf 0f3e f6a4 2a3d
00000110: 0652 acbd ec8f 103e 80fb c03d 29bb 8cbd
00000120: 0349 a13d d950 4e3e 8928 32bc a9f2 663d
00000130: b6c6 50be 770f b83d 58e6 1dbd 16c6 9cbd
00000140: b1a5 a4bd 4114 88be ead3 ad3d b1cd 1dbe
00000150: 2c4f f1bc 3ad9 e33d 5f4f 85be 1e27 0dbd
00000160: 877e 3b3d 0fb1 9bbe 06de 19be 16c3 0b3e
00000170: eef6 0d3e 0e39 473e 2113 8bbd aec2 ee3d
00000180: 3f8e 33bd 61e1 673d d56f 083d ce17 14be
00000190: fa32 e5bd ec81 443e 6e16 63be 9f94 4d3e
000001a0: 647b a7bd 9858 ce3d ab87 123d 451e 413d
000001b0: e9e9 1c3d 1a5f 133e ed3e f4bb daad 283d
000001c0: 41e1 bfbc 340e 2cbe 8da5 f73b aa80 91bd
000001d0: 7465 19be c7e5 62bd 2eb6 09bd 2fb2 713e
000001e0: 74de 203d a0e7 85be 6f25 573c 4466 13be
000001f0: 2a94 c13d a100 0a3e 2dd4 00be d0b5 87bc
00000200: 3267 9fbc 51a1 c6bd f455 16bd 83a0 bdbd
00000210: 412a 27bb c13e 443e 66da 913d 0d88 28be
00000220: d8e6 083d d26e 5abc 6fb2 80be a7ec 6fbd
00000230: 6393 433e 6663 c83d cd08 21be 2fb8 ab3c
00000240: cab8 cd3d d383 40bd 9aa9 e43c 22a4 e7bd
00000250: 86a5 a43d a4b8 a3bd 9f0a 8c3c 25a0 f43d
00000260: 17e4 883e 2236 9a3c e8f2 773d ca74 453e
00000270: 8d6e b53d c8e5 763c 1cf5 173e d1ac 353e
00000280: 7903 d8bd 43c4 63be ce61 f7bd 824c 4fbe
00000290: 66aa 1ebe dbc2 e23d 6792 36bb b7fe 18be
000002a0: 8cb9 8f3d 9625 343e 7e90 5bbe 414a 003e
000002b0: 2238 cbbd 2d26 ca3b 9dcd b9bc 9e76 f1bd
000002c0: be9f 3bbe 3df3 063a a8c2 90bc b609 8ebb
000002d0: c91d e53d fd06 d73d 95da 23bd 279b 503d
000002e0: ebe5 91bd 0107 423e 6137 f9bd ff66 19bd
000002f0: 48e0 183d 0611 e9bd 1060 533e d16e b9be
00000300: c61e 233b 8fce 23be 386f e3bc 104f 253d
00000310: c3a5 c2bc 6512 123d fd91 2ebd 9b00 3ebd
00000320: ad92 7a3d e752 893c 800c 99bd 950b df3c
00000330: 2beb b6bd e187 16bd 46b1 a3bd 1d28 363d
00000340: e3f3 c23c 67c6 aa3d 72bb 0bbc f1dd 3f3e
00000350: 921f dd3c b4cd cc3d 38cd 00be 3895 fc3d
00000360: 9b06 eb3d 9e1c 4a3d 44a0 c3bd 254b 6ebe
00000370: 184b 51bd 9995 b7be 30d5 46bd ab24 9cbd
00000380: 2535 443d 0c34 10be 08cb 5d3d a2e1 14be
00000390: 71bc 60bd 8705 efbd 5858 953d fd6d 71bc
000003a0: 86de fbbc e08d 83bb 7e46 06be 0697 0c3e
000003b0: 24fb 93bd 68f7 3139 e524 6fbd ccdf 813e
000003c0: 23ee 7bbd 1e5c e43d 0c91 5d3d 2660 86bc
000003d0: e6ca 12be 46a8 b6bc 1ab9 463d d2e5 61be
000003e0: b217 7d3e 5c1a 043e cbe0 58be d020 e4bd
000003f0: 4cbe 4abe 4e60 0c3e 7c29 39bd a3aa 18bc
-0.020138923 0.26996094 -0.06755357 0.0077142846 -0.1233382 0.017635727 0.042596806 0.07248749
0.106862865 -0.10370545 0.034149244 -0.043722846 -0.12961797 -0.0968228 -0.26145366 0.0379618
0.04121322 0.2781787 -0.010536789 0.04668582 -0.12193892 -0.1625023 0.032999996 -0.014622189
0.04980066 -0.063089006 -0.21497414 -0.1479797 -0.17296314 0.034606524 -0.13624422 0.03375908
0.10859937 0.07235163 0.08928895 0.044424083 -0.25602356 0.15990701 0.04572192 -0.08294963
0.013397993 0.0076823495 0.13824137 -0.07583303 -0.14292663 -0.12214328 0.030531202 -0.108526036
-0.15881738 0.013248238 -0.08117177 0.13403514 0.0006934791 -0.14365743 0.1274569 -0.16901894
0.089791805 0.020531647 0.04297444 0.009838883 0.005732685 0.1467903 -0.15468706 -0.053868882
-0.029194538 -0.072591364 0.14037737 0.041661225 -0.08414082 0.14117402 0.0942297 -0.068716355
0.07875254 0.20148028 -0.010873922 0.056383763 -0.20388302 0.08987325 -0.03854975 -0.076549694
-0.08039416 -0.26577953 0.08487685 -0.15410496 -0.029456697 0.11125417 -0.26037118 -0.034461133
0.045774963 -0.30408522 -0.15026101 0.13648638 0.13863727 0.19455358 -0.06790758 0.11658226
-0.04383683 0.056611422 0.033309776 -0.14462206 -0.11191364 0.19190186 -0.22176525 0.20076226
-0.08177832 0.10075492 0.035773914 0.047148008 0.03830901 0.14391747 -0.0074537904 0.041181423
-0.02342284 -0.16802293 0.007557577 -0.07104619 -0.14980108 -0.055394914 -0.033621006 0.23603128
0.039274648 -0.26153278 0.013131483 -0.1439448 0.09452088 0.13476802 -0.12580939 -0.016566187
-0.019458387 -0.096987374 -0.036703065 -0.09259131 -0.0025507363 0.19164564 0.07121734 -0.16458149
0.033423275 -0.013332086 -0.25136134 -0.0585753 0.19099192 0.09784584 -0.15726013 0.020961849
0.10045011 -0.047000717 0.027912904 -0.11310603 0.080393836 -0.07994202 0.017094908 0.11944608
0.2673652 0.01882464 0.060534388 0.19282833 0.088589765 0.015069433 0.14839596 0.17741705
-0.10547537 -0.22242837 -0.12079202 -0.20244029 -0.1549469 0.11072322 -0.0027858259 -0.14940916
0.07017812 0.17592463 -0.21441838 0.12528326 -0.09922816 0.0061691017 -0.022681052 -0.117902026
-0.18322656 0.00051479397 -0.017670944 -0.0043346537 0.11187322 0.1049938 -0.040003378 0.050929215
-0.071239315 0.18947984 -0.12168766 -0.03745174 0.037323266 -0.113802 0.20642114 -0.3621736
0.0024890169 -0.15996765 -0.027762994 0.040358603 -0.023760682 0.035662074 -0.042619694 -0.046387296
0.061175037 0.016763164 -0.07473087 0.027227202 -0.089315735 -0.036750678 -0.079927966 0.04447185
0.023797935 0.083386235 -0.008528577 0.18737008 0.026992593 0.10000172 -0.12578285 0.12333149
0.11475869 0.049343698 -0.095520526 -0.23270853 -0.051097006 -0.3585632 -0.048543155 -0.07624181
0.047902245 -0.14082354 0.054148704 -0.14539197 -0.05486721 -0.11670976 0.07292241 -0.014735696
-0.030745756 -0.0040147156 -0.13112828 0.13729486 -0.07225636 0.00016972201 -0.058384795 0.25366056
-0.0615064 0.111503825 0.054093406 -0.016403269 -0.14335212 -0.022297036 0.04851637 -0.22060326
0.2471607 0.1290068 -0.21179502 -0.11139071 -0.19799155 0.13708612 -0.04520558 -0.009318027

lstm.bias_ih_l0 f4 [276]
00000000: 85bf 85bd 500b 243e c7f8 69bd 91df 613d
00000010: 8296 57bd c5a9 fbbd d0d2 5dbd d697 a2bd
00000020: 423d 4e3e b419 d93c a481 d93b f6c2 07bd
00000030: 76d4 18be 651a 723a dcbb 50bc 98ff a53d
00000040: 427f 993d 9f12 53bd 2667 0abe d929 e7bc
00000050: 7175 24be 9846 4dbd 2430 66bd d162 2a3e
00000060: 4b0c c1bd 68b0 c93d 7ab2 66bc ff31 cabd
00000070: 34d6 a53b fb44 5e3d 7a3c 3bbe c05f 853d
00000080: d3bb 82bd d204 7fbd 546e 083e 8fa8 d73d
00000090: 150a 833e abe4 2e3e 3ede 06be 4d86 1e3e
000000a0: d0f8 0b3e c5ab 58be 755b a43d 63a1 a4bd
000000b0: def5 bd3c bbcd b53d 08c3 8a3d 224f c2bd
000000c0: ea2f 483e 71e8 0bbd 7ebf 853b 6d46 15bc
000000d0: 1e2d 55bd bc3a bfbd b612 0ebe 434e fc3c
000000e0: 2ae9 15be 34ff 18bd 02b8 893c d2a8 cabc
000000f0: 9681 e73d 178f 21be e658 003e 978c f33d
00000100: d0fc 42be ad52 2ebe 2b95 40be 77eb 8ebd
00000110: 493d 853e 7883 4abe 0abd a0be f0e1 19be
00000120: e112 433e 3565 313e fea8 60be 5984 14be
00000130: a4f2 bcbd 8495 94bd 6279 adbd f057 8dbd
00000140: 9b7c 673d 260f 203c 7bbf 4ebd c54b 163d
00000150: 2f4a 8b3c c9a6 683d 30c3 11be e836 0bbe
00000160: b012 b53d 6742 11bb 7da4 2cbe 00bf 89be
00000170: ecbb 3e3e 446f a53d 64a8 b5be d3b6 44be
00000180: a56d 9e3b 652d 9a3d 4a94 b73d 87b1 5dbd
00000190: b31d 8bbe 924f c13d 16ae 66bd d877 653e
000001a0: c6fd 1cbe 3004 a9be 4c57 58bc 5ab2 cfbd
000001b0: cf46 c13d 54a9 48be 9e52 73be 0579 113e
000001c0: fb91 31bd 9d3b a73d eb8b 9d3c 9bd1 e13d
000001d0: f5b8 eb3d 68f9 823d a657 eabd 4d41 e9bb
000001e0: 3715 fd3d 80e9 22be 875c 91bb 9446 04be
000001f0: 6a84 2fbd 2caa 273c 3229 aabc 0e02 1fbe
00000200: 50ee 243d 0426 cebd 16e2 0bbe 71c7 bf3c
00000210: af62 4bbe df5e a03d e887 80bd 4b18 82be
00000220: 6112 3ebd 2fa9 74be 8166 283e 23a6 02be
00000230: ba61 ae3d a242 5ebc 8bc8 203e 49f2 863c
00000240: 9c4d eb3d 986c 0b3d 9f26 f5bc 5b43 41bb
00000250: c1c3 c73c e1a6 75be c8bc 1bbe 6237 0bbd
00000260: b186 9bbe 7695 8bbd 583f 863e 6cbb 26be
00000270: 0fe8 323c e4ec 40bd 8e86 3fbe 2f21 65bd
00000280: a0d9 1b3e 1e98 963d bb62 7b3e 77a2 5b3d
00000290: 8c14 cb3d acdb 6bbe 5e98 dcbd e1df cb3d
000002a0: fd36 70bc c2a5 c5bd 7c55 2f3e f446 b2bd
000002b0: 9e31 363d 213f 03be 20cc 323e d538 d9bc
000002c0: 704a 203e 151b 993e 18fd 91bc 1ad0 e1bc
000002d0: 8c81 61bd 859e 2abb 8412 65be 0023 50bd
000002e0: aafc 4fbe b9c2 c0bd 2b7d 4ebe 7c39 49be
000002f0: 4714 8cbd 5d2c a63d 4fde 19be 6156 28bd
00000300: f031 f73b 7995 91bc 2c5a 6b3d 9586 3bbe
00000310: 4a55 983c e5f1 143e 074c 4c3d 281d 35bd
00000320: 4c57 603d 9fd4 de3d 2548 613d 865c 8a3d
00000330: 6679 bdbd 8ab7 0d3d f58b 2e3d 4f50 473d
00000340: ecd5 343e 70d6 07be 82fa ddbb 7f71 c0bd
00000350: 1891 1c3d 8a78 a93c 457e fa3d 2e1b 543e
00000360: 3ee4 a4bd 459a b2bd 68a9 11be 9076 04be
00000370: 848a a8bc 18ab a9bd 12ad 9439 e0d7 353e
00000380: a8a2 79bd 5fb6 9abd a6da 943b ce2d 78be
00000390: 6241 f33c c781 ec3c ea0b 803d 029b b4bd
000003a0: 287d 0f3d 3ec3 9cbc fbd3 79bd 20d8 ae3c
000003b0: 7349 a53d 0b68 51be c705 2bbb 3a70 83bd
000003c0: bf94 5dbe eca7 993d 77a3 62bd af05 423e
000003d0: dc23 243e e278 83bd 18bc 923d 3662 323e
000003e0: cf27 67be 974a 63bd 2426 16bd 7b6a 263d
000003f0: b701 053e e199 093d 3222 37be 7cd1 2e3e
-0.0653067 0.1601994 -0.05712202 0.05514485 -0.05263377 -0.1228824 -0.054156125 -0.07939117
0.20140556 0.026501514 0.006637769 -0.033144914 -0.14924797 0.00092355005 -0.012740102 0.08105391
0.074949756 -0.05153143 -0.1351591 -0.028218197 -0.16060425 -0.05011615 -0.056198254 0.16639258
-0.09426173 0.098481 -0.014080638 -0.09872817 0.0050609354 0.054265004 -0.18284789 0.065124035
-0.06383481 -0.062260456 0.13323337 0.10530197 0.2559363 0.17079417 -0.13170716 0.15480919
0.13669133 -0.21159275 0.080252565 -0.080385946 0.023188528 0.088771306 0.067754805 -0.0948775
0.19549528 -0.03415722 0.0040816655 -0.009111029 -0.05204498 -0.093373746 -0.13874325 0.030799037
-0.14639726 -0.037352756 0.016811375 -0.024738703 0.113040134 -0.1577724 0.12533912 0.1189205
-0.19041753 -0.17023726 -0.18806903 -0.06978505 0.2602332 -0.19776714 -0.31394225 -0.15027595
0.1905017 0.17323764 -0.21939465 -0.14503612 -0.092259675 -0.0725508 -0.084704176 -0.06901538
0.056515317 0.009769237 -0.05047558 0.036693353 0.017003147 0.056799684 -0.14234614 -0.13595164
0.08841455 -0.0022164823 -0.16859622 -0.26903534 0.18626374 0.08077863 -0.35480034 -0.19210367
0.004834848 0.075281896 0.08963831 -0.05412438 -0.27171096 0.09439005 -0.056318365 0.22408998
-0.15331182 -0.33011007 -0.013204407 -0.1014144 0.09437334 -0.19595844 -0.23761985 0.14206322
-0.04335211 0.08165667 0.019231757 0.11026307 0.11509887 0.06395227 -0.11442499 -0.00711838
0.12357562 -0.15909386 -0.004436079 -0.12917548 -0.04285089 0.010233443 -0.020771597 -0.15528128
0.040266335 -0.10065845 -0.13660464 0.02341053 -0.19861864 0.07830595 -0.06275922 -0.2540916
-0.046404246 -0.23892663 0.16445352 -0.12758689 0.085147336 -0.013565691 0.15701501 0.016472952
0.11489412 0.03403911 -0.029925643 -0.002948961 0.024385335 -0.2398944 -0.15208733 -0.033988364
-0.303762 -0.06815617 0.26220202 -0.16282433 0.010919585 -0.047100917 -0.18703672 -0.05593985
0.15219736 0.07353233 0.24549381 0.053621735 0.099160284 -0.23033017 -0.10771249 0.09954811
-0.014661548 -0.096507564 0.17122453 -0.087049395 0.044480912 -0.1281705 0.1746068 -0.026516357
0.15653396 0.29903474 -0.01782088 -0.02756505 -0.055055186 -0.0026034426 -0.22370344 -0.05081463
-0.20311227 -0.094121404 -0.20164935 -0.19650835 -0.06839805 0.081139304 -0.1502621 -0.041098002
0.007543795 -0.01777147 0.05745904 -0.18313058 0.018595356 0.145454 0.049877193 -0.04421726
0.054770753 0.10880398 0.055000443 0.06755929 -0.092516705 0.034598865 0.042613942 0.048660573
0.1765973 -0.13265395 -0.0067742476 -0.09396648 0.03822431 0.02068736 0.12231115 0.20713493
-0.08051346 -0.08720831 -0.1422478 -0.12935853 -0.020573862 -0.08284587 0.00028357707 0.17758131
-0.060946137 -0.07554316 0.0045426665 -0.24236223 0.029694263 0.028870476 0.062522724 -0.08818628
0.035031468 -0.019136067 -0.060993176 0.02134329 0.0807065 -0.20449845 -0.0026095973 -0.0641789
-0.21638773 0.07502732 -0.055331673 0.1894748 0.16029304 -0.06419541 0.07164782 0.17420277
-0.2257378 -0.055491056 -0.036657467 0.04062889 0.12988935 0.033594016 -0.17884138 0.170721

lstm.bias_hh_l0 f4 [276]
00000000: 8d07 933d 8e3b 2f3e d1fe aebd 2c60 fcbd
00000010: e17b 933d 69a5 803d 7a13 8b3d e284 ba3c
00000020: f5dc c93d 5373 f63b 8a18 e5bd 2c34 32be
00000030: 019c a7bd 1aff 2dbd c0d7 06be 31e1 183e
00000040: 3879 7a3a 6add fbbd 958e a7bd 80a7 1bbd
00000050: 02aa 65be 6afb 933d 3abd 00bd efc2 3a3e
00000060: de24 773d cfce 983c 9693 3bbe 0a66 1a3d
00000070: 8bf0 d8bc 7ae8 143e 6d38 f3bc fe92 ca3d
00000080: 05b9 c3bd f0d3 103c 3e75 dc3d 2ec7 533e
00000090: 87ef fa3d e066 d33d fb4c f2bc 93ba 603e
000000a0: 5c0d f33b b84c 53be cfb5 3b3e 831d 39be
000000b0: aee8 cabc c822 3d3e 65b8 d4bd d454 ee3c
000000c0: 0881 773d 38f4 2cbe 00f2 bc3d ac9a b73d
000000d0: ba11 68be 627a b3bd 3a18 fbbd 0ed8 883d
000000e0: a5d7 72bd 620c 11bd 6995 6f3c 3813 d0bd
000000f0: 96a1 c03d e552 9ebc fb03 9c3d 6bcd 483d
00000100: 7284 11be 4877 99be 301b 80be b6db e43b
00000110: 69a8 823e e1b9 b6bc 48eb a3be 2720 0ebe
00000120: ddf6 a93d 2263 eb3d f0c6 c3bc 3fd9 6dbe
00000130: 622b 2e3d ba48 0ebe 7921 27bd 1afc b3bd
00000140: 090c 163e c54d 303d 8aa2 873d 601a 4a3e
00000150: 3567 adbd 2c47 e9bc eb00 2bbd 2305 01be
00000160: cbaf 063e bc3e a93c b370 97bd d52c 05be
00000170: c106 b73d a488 09bd bbec 2abe 6d8d 31be
00000180: f1a0 0f3e 6a4a 293b f6e1 7fbd c421 e4bd
00000190: a177 00be aa58 5eba cb0c 00bc 9d98 883c
000001a0: 92d4 0ebe 6b06 8cbe 12e0 f6bd 4ab7 d6bd
000001b0: 76a6 073e 5448 62be 812a d2bd fc44 023e
000001c0: 675c 723d 8f27 f03d a7d8 e6bd 413d cc3d
000001d0: a038 423e 9787 bc3d 348e 96bd 6094 49be
000001e0: 7c2a 833c 0efb 01be e3e3 29be fc54 d9ba
000001f0: 11c3 dfbd 4c71 40be e540 3b3e 685c d0bd
00000200: d55c adbc 409e 41be 44fc 06be 7507 f5bc
00000210: be51 d8bd 69b0 afbd 18e4 55bd b9fc 94be
00000220: 8f9d 48be 1508 9abe af38 233e 2435 133b
00000230: f386 81bb 0bce 17be 93dd 053e 6085 f33d
00000240: 78fb eb3d ce8a 9e3c 2ede 87bd 45fd 4cbe
00000250: 1460 313d 9d75 87be 983b 3ebd 5626 47be
00000260: e9b5 69be a65e e2bc b338 183e 182b 15be
00000270: d4f3 f1bc ae19 60be 3893 51be 5324 963d
00000280: bbab be3c 0839 d3bd 236e 9c3e e4bb 8b3d
00000290: cafc c53d 9a5f 21be 847f 51be 3c33 663e
000002a0: 8324 02be 214b f7bc 06db 663e 776d 9fbd
000002b0: 31aa fc3d cd74 a9bd 3bac 883d a55f 5cbd
000002c0: 1a00 383e 832b 893e 554b a4bd 1816 153d
000002d0: 3476 72bd e3bb f8bd 56d9 5cbd 7952 b7bc
000002e0: bfcf 583c d704 9abd 6163 35be 32a2 5fbe
000002f0: 86e4 c9bd 0166 153e 78e9 39bd d20c 86bc
00000300: ef85 18be 2b29 913c 8050 19bd 36f6 de3c
00000310: c731 4c3d a2dc 213e c4e6 dc3c 125d 6bbd
00000320: a2a5 323e b9af cb3d 2e10 743d ed93 653e
00000330: 9442 903d 0741 8a3d 3217 cabb 97f3 5f3d
00000340: c089 353e ac2a 21be 9385 4abd e914 c13d
00000350: 9464 283b 093b dfbd 64c3 973d 4454 4e3e
00000360: 66af 99bd ceb8 2abe 9b01 3dbe 9509 ddbc
00000370: 9b61 ffbd 8a0b 96bd 867f 7b3d 6ca2 0cbc
00000380: c346 1a3c 8502 23be 5b87 0ebe 7850 74be
00000390: 9962 fd3c 6c99 f5bd d2c5 a33d c60e 96be
000003a0: ff60 1e3e 3ef2 e13a 2954 b0bd 5ea1 1f3b
000003b0: dcfd 043d 1571 2ebe 48a2 363d 297d 26bc
000003c0: 2b62 2cbe d79e 733d d1f5 793d 3f4e b03e
000003d0: 133f a13b 74f2 f4bd bc2b 693d 7286 403e
000003e0: 0c7a 9bbe f2ac a83d b007 40bd 4945 013e
000003f0: 74f5 843d c7f8 a7bd cf57 2cbe 4a03 9d3d
0.071791746 0.17112562 -0.08544696 -0.12323031 0.072013624 0.062815495 0.06790824 0.022768442
0.09856597 0.007521072 -0.11186321 -0.17402714 -0.08184052 -0.042479612 -0.1316824 0.14929654
0.0009554806 -0.12298091 -0.08181492 -0.038001537 -0.22428134 0.07225688 -0.03143046 0.18238424
0.060337894 0.018653302 -0.18318018 0.03769497 -0.026481887 0.14541808 -0.029689992 0.09891318
-0.09556774 0.008839592 0.1076455 0.2068145 0.122527175 0.10322356 -0.029577723 0.21946172
0.007417364 -0.20634735 0.18331073 -0.18077664 -0.024769153 0.18470299 -0.10386733 0.029093184
0.06042579 -0.16890037 0.09225845 0.08965048 -0.22663012 -0.08763577 -0.1226048 0.06681834
-0.059287686 -0.0354122 0.0146230245 -0.10159916 0.0940582 -0.019326637 0.07617947 0.049024027
-0.1421068 -0.29973817 -0.25020742 0.0069841994 0.25519112 -0.02230543 -0.32015443 -0.13879453
0.082990386 0.114935175 -0.023898572 -0.23227404 0.04252184 -0.1389493 -0.040803406 -0.08788319
0.14653029 0.043042917 0.06622799 0.19736624 -0.08466951 -0.02847632 -0.041748922 -0.12599616
0.13152997 0.020659797 -0.073945425 -0.13005383 0.08936835 -0.033577576 -0.16691868 -0.17339106
0.14026238 0.0025831708 -0.062471353 -0.11139253 -0.12545635 -0.000848184 -0.00781555 0.016674334
-0.13948277 -0.27348647 -0.12054457 -0.10484178 0.13247094 -0.22097903 -0.10262013 0.12721628
0.059170153 0.11726295 -0.11271792 0.09972621 0.18966913 0.09205549 -0.07351342 -0.19685507
0.016011469 -0.12693426 -0.16590838 -0.0016581113 -0.10925878 -0.1879322 0.18286474 -0.10173875
-0.02116243 -0.18908024 -0.13182169 -0.029910782 -0.10562466 -0.085785694 -0.05221948 -0.29099062
-0.19591354 -0.3008429 0.15939592 0.0022462094 -0.003952855 -0.14824693 0.13072805 0.11890674
0.11522573 0.019353297 -0.06634174 -0.2001849 0.043304518 -0.2645692 -0.04644355 -0.19448218
-0.228233 -0.027633023 0.14865379 -0.1456722 -0.029535212 -0.21884796 -0.20466316 0.07331147
0.023275247 -0.10313612 0.30552778 0.06822947 0.09667356 -0.15759125 -0.204588 0.22480482
-0.1270924 -0.030187191 0.22544488 -0.07784551 0.12337149 -0.08274231 0.06673475 -0.05380215
0.17968789 0.2679101 -0.08022181 0.036398023 -0.05919476 -0.121452115 -0.053918205 -0.022378193
0.013233124 -0.075204544 -0.17713691 -0.21839216 -0.098580405 0.14589693 -0.04538867 -0.016363535
-0.14894842 0.017719826 -0.037430286 0.027217012 0.04985216 0.15806821 0.026965506 -0.057461806
0.17445996 0.09945626 0.059585743 0.2241971 0.07043949 0.06750684 -0.006167316 0.054675665
0.17728329 -0.15738934 -0.049443793 0.094278164 0.0025694715 -0.10899932 0.07410315 0.20149332
-0.07504158 -0.1667206 -0.18457644 -0.026982108 -0.12469789 -0.0732642 0.061400913 -0.008583646
0.009416285 -0.1591893 -0.13918822 -0.23858821 0.030930804 -0.119921535 0.079967156 -0.29308146
0.15466689 0.0017238331 -0.08609802 0.0024357657 0.03246866 -0.17035325 0.044588357 -0.010161676
-0.16834323 0.059477653 0.061025444 0.34434697 0.004920849 -0.11960307 0.056926474 0.18801287
-0.30366552 0.08236112 -0.04688233 0.12624086 0.06492129 -0.082017474 -0.16830371 0.07666643

lstm.weight_ih_l1 f4 [276, 69]
00000000: 4ed7 ca3c 06e6 2abd 9be9 033e 16d3 eebd
00000010: f826 bdbd c28a c33c aca4 3d3e 011a 0bbe
00000020: 8b85 a23b e595 06be 2ce7 833d d032 8dbc
00000030: f5b5 94bd e504 33bd 55da 04bc c08f 62bd
00000040: 981f 043d 16f3 b03c 5ef1 1fbc 9db3 e33c
00000050: 733c 9f3d 0bf3 63bd 9dca c73d 844b 8a3d
00000060: cdfe 733c 12b8 40bd 2f61 2d3e b7dd 00be
00000070: e43a 803d 4c48 d6bd 4e97 0a3d 6a11 2cbe
00000080: 6f75 963d 036d aebd ec13 44bd dd3e 8c3d
00000090: 93ed f4bb ed17 2cbd 2ee0 32bd 2426 093d
000000a0: 4b77 a93d 5631 f7bc 4cf3 c8bd 3d3a c8bd
000000b0: 6a2e 29be e2a8 2ebd 21df 983d db7b 703d
000000c0: d29a 213c f2f0 2dbd f0a1 fcbc 26d5 503d
000000d0: be62 b23c 228a 8ebd dbe2 07be 443d 713d
000000e0: 9f17 2dbb 17e3 ddbc d0f8 ba3d 949b 2d3c
000000f0: a041 9dbc 9145 9cbd f42d 533d 02fd 17ba
00000100: 5d70 833d b508 663d e80a dc3c 45fe 56bd
00000110: 175e 8c3d 10b0 ecbc 95b3 553d 818a c2bd
00000120: ee31 7bbd 8aad 96bc 9f64 28bc ed9e 1a3e
00000130: 67d4 1d3e 1fac f9bc ec29 28be eb35 133d
00000140: c4b0 50be bc05 07be b4dc ad3b e7b7 18be
00000150: 5798 bdbd 72d0 2bbc dc61 09be a450 143d
00000160: 01f4 35be 79dd 77bd 9da9 243e ef7b 103e
00000170: 790e 003e e91a c13d 03c2 123e f818 edbb
00000180: 9494 0abe 9592 1cbe 333f f53b ee1c 2ebc
00000190: 118b d5ba 142d de3d e735 b2bb 9a3c 26bd
000001a0: ff0a 8abd ad0c e93d bca4 66bb 1f6f 453b
000001b0: 78e2 1c3e 20c2 4cbe e7cb 933d 5da4 ba3c
000001c0: 2d9c 27be c9f7 bbbd 3f8d 443d 5c16 d6bd
000001d0: d1e5 b0bd f16c 4fbe 2ddf 0cbe 2585 983d
000001e0: e6d8 593e 3e08 07be 791e 1fbd 9488 a5bd
000001f0: 6bcc 173b 0a04 8bbd b619 61bd c40d b83c
00000200: 26ea 2c3d 248c 1dbd 38d3 bd39 4a0d 853d
00000210: e5fe 2d3d aae8 0c3e 8441 c13d 54a5 e9bd
00000220: fb17 343c f526 ea3b 28df 9cbd 98cc 4cbd
00000230: 207e 943d 0572 413c 507b 083e 4f29 523d
00000240: 014b d2bd 7ba0 983d 38ac fd3d ab72 233c
00000250: a74d 92bb 7d83 e5bd 1e34 a23d 656d 39bd
00000260: f182 c0bd 4b76 ee3d 16a2 fd3d 5022 1d3c
00000270: 5e7e b1bd b229 4ebd 1a83 b1bd 9bcb 503c
00000280: 8f7b fcbc 4e67 fabd f17d a6bc 7c67 1cbd
00000290: 93ef e7bd 28cf 9a3d b31c 4e3c 71a1 853b
000002a0: 9ac8 90ba d9b9 d8bd 93ad 173a 8f3c 8bbd
000002b0: 56df e4bb 8b71 e63b f3f1 4c3d aef4 3cbd
000002c0: e081 89bd e880 39bd 4231 033e afd8 313d
000002d0: a1f8 b93c b308 f53c 822d 95bb 483c e63d
000002e0: fef3 8fbc 220d 633d 0e1d 23be bd81 f2bd
000002f0: b3c3 223d 8853 053e 9915 93bd 6102 20bd
00000300: ff95 463c 9924 7a3d 3af5 cc3a 84be 2b3d
00000310: 95c4 36bd d192 3d3e 5bca fc3d 799e 2a3d
00000320: 89e5 acbd e763 b8bd b784 8cbd 7226 aebd
00000330: a115 713d 5ff9 75bc e6cc bdbd 5196 99bd
00000340: 8612 e13d ece0 99bd 0083 58bd 16b6 bebd
00000350: 2512 ccbd a99a b23d 6301 9dbd 8b56 01bc
00000360: 18e6 723d c480 d2bd a414 b0bc 7dbd febb
00000370: 1938 c9bd 0c9f e93d bd51 08bd 82d0 013e
00000380: 546e 253d 3886 43be 6a29 c5bd a48a 2c3d
00000390: 92fd 283d c663 0fbd db13 8f3c 76b8 02bd
000003a0: aaa7 993c f98f 9e3c 4ecf 59bd bf7f 393d
000003b0: d5c1 23bd 05c8 543d 2701 adbd bb43 52bc
000003c0: d528 a63d dd5b c43c 0d0a 283c bc53 af3d
000003d0: 733c 093d 2658 20be bb54 2a3c 98a9 cf3d
000003e0: 02fe 913d b091 10be 3a81 093e 0c83 6a3c
000003f0: a70e a1bd 68c6 773d 3ff8 e93d 226c 03bc
0.024760868 -0.041723274 0.12882082 -0.11661355 -0.09235948 0.023869876 0.18519849 -0.13584138
0.004959767 -0.13143118 0.06440577 -0.017236143 -0.07261268 -0.04370584 -0.008108695 -0.055312872
0.032256693 0.021600287 -0.009762136 0.027795607 0.07775202 -0.055651706 0.09755442 0.06752685
0.014892292 -0.047050543 0.16931604 -0.12584578 0.062612325 -0.10463008 0.0338357 -0.16803518
0.073466174 -0.08516886 -0.04787056 0.06847928 -0.00747461 -0.042015005 -0.043670826 0.03348364
0.082747065 -0.030174892 -0.0981203 -0.09776733 -0.16521612 -0.042641528 0.074644335 0.058711868
0.009863572 -0.04246611 -0.030838937 0.050984524 0.0217756 -0.069599405 -0.13270132 0.058896318
-0.0026411784 -0.027085824 0.091294885 0.010596175 -0.019196332 -0.07630456 0.051557496 -0.0005797894
0.06417916 0.056160647 0.02686067 -0.052488584 0.06853884 -0.028892547 0.052173216 -0.09499074
-0.061326914 -0.018393297 -0.010277896 0.15099688 0.15413056 -0.030477582 -0.16422242 0.035940092
-0.2037993 -0.13185781 0.005305851 -0.14913903 -0.09257572 -0.010486709 -0.13416237 0.036209717
-0.17768861 -0.060513947 0.16080327 0.14109777 0.12505521 0.09428961 0.14331822 -0.0072356425
-0.1353324 -0.15290292 0.0074843406 -0.010627015 -0.0016292055 0.10848442 -0.0054385546 -0.040585138
-0.067403786 0.11379371 -0.0035193404 0.0030126048 0.15320766 -0.19995928 0.07216626 0.022783453
-0.1636817 -0.09178121 0.047986265 -0.104534835 -0.08637584 -0.20256402 -0.1375701 0.0744727
0.21274146 -0.13186738 -0.03884742 -0.08082691 0.0023162614 -0.0678788 -0.05495616 0.022467501
0.04221549 -0.038463727 0.0003620626 0.06496675 0.042479414 0.1376063 0.09436324 -0.11408487
0.0109920455 0.0071457573 -0.07659751 -0.049999803 0.07250619 0.0118069695 0.1332829 0.051308926
-0.10268212 0.07452484 0.12386364 0.009976069 -0.0044648233 -0.1120672 0.07920097 -0.045270342
-0.09399975 0.11643656 0.12384431 0.0095907 -0.08666681 -0.050332732 -0.08667584 0.012743856
-0.030820636 -0.12226735 -0.020323725 -0.038184628 -0.11324992 0.07559043 0.012580085 0.004078083
-0.0011046112 -0.105823226 0.00057860574 -0.0679866 -0.0069846315 0.0070325783 0.05003543 -0.046131782
-0.06714225 -0.04528895 0.12811759 0.043419536 0.022701563 0.029911375 -0.004552544 0.112419665
-0.0175724 0.055432446 -0.15929052 -0.11841152 0.039737415 0.13020146 -0.07181854 -0.03906477
0.012120723 0.06107006 0.0015637048 0.041929737 -0.04462107 0.18513037 0.12343284 0.041655038
-0.08442218 -0.0900343 -0.06861251 -0.085034266 0.058858518 -0.015013068 -0.09267597 -0.07499374
0.10989861 -0.075136036 -0.052859306 -0.09312074 -0.09964398 0.08720905 -0.0766628 -0.007894169
0.059301466 -0.10278466 -0.021494217 -0.0077740536 -0.09825153 0.11407289 -0.033281077 0.12677196
0.04038842 -0.19094169 -0.0962704 0.042124406 0.04125745 -0.03500726 0.017465523 -0.031914197
0.018756706 0.01935576 -0.053176217 0.045287844 -0.039979775 0.051948566 -0.084474854 -0.012833531
0.08113257 0.023969585 0.010256303 0.08560893 0.033504914 -0.15658626 0.010396178 0.10139769
0.07128526 -0.14118075 0.13428202 0.014313471 -0.07864123 0.06049195 0.11424302 -0.008021386

lstm.weight_hh_l1 f4 [276, 69]
00000000: 64bb 67bd 7988 ff3c f12d d5bd 9b31 7cbc
00000010: 8964 c9bd 6bd8 35be 2592 343d fcd5 b63c
00000020: cfa5 06be 459d d3bd ba82 d3bd cd75 8e3c
00000030: 6ff2 b6bd 1fd2 3e3d 8395 2f3e 551b 01be
00000040: 1ec2 08be 4cb9 57bd 28d9 f7bc bf8e ea3d
00000050: c131 ce3d 9a8b 83bc 8af1 bc3d d31f c93c
00000060: 01dd 6f3c 09c1 123d 2bc2 0dbc dd92 34be
00000070: 411f 373e 99fa ae3b 9b3f bb3c 9c4c 1ebe
00000080: 8e2e 763d 48f5 18bb 2189 f93d 7c47 b2bd
00000090: b0aa 5bbd 8bc3 abbd 296a 05bc b5bf 273e
000000a0: 5c31 38be 1848 e1bd fdba f63d 337a 3cbd
000000b0: 9767 193e c3cf 83bd 9098 4e3d 9d4c d13d
000000c0: 01b2 a83d 8eac f9bd dbb4 143e 087b 06be
000000d0: 0e27 ca3b bdb8 b9bd 42a3 53bb 125e c83d
000000e0: a4c8 9c3d c980 3f3d c1ac 94bd d65e 813d
000000f0: 5d07 773d 0f38 fabd eacb 2f3d 21bb 933d
00000100: bf36 3bbd 9b78 2d3e 5a7b 363d 480d 6dbd
00000110: bc37 433e d104 c83c 3f9b 0a3e 0461 e4bc
00000120: f8b7 d3bd 4cc1 55bd 04ab 183d 3928 a63b
00000130: 637e ef3d 6f57 cdbd 7a8e de3a d236 d8bb
00000140: 9e37 d33d e991 2cbb 0c25 843d 93da e63d
00000150: d1ae 0ebd 06a7 c33d 04dc fd3d 2978 c23d
00000160: c871 0e3e ef5a 9e3d 7ecf 6f3d 9a6c 08be
00000170: f5b0 fdbc aea4 dc3b df51 0fbe 87d4 75bd
00000180: 3775 7d3c f080 c43d e9a5 d2bc 1de9 dfbd
00000190: e4fa a43c 881f be3c 9eef 353e 1c0d 1dbd
000001a0: cef4 e3bd 6619 48bd cad8 df3d aba5 f13d
000001b0: 91b4 09bd 90a7 d73d b9ba fd3b d587 92bc
000001c0: 7036 fe3d e6e7 a7bd 4530 8d3d 2952 863c
000001d0: cc81 233d 938d 983d 128a f0bd 0ef5 713c
000001e0: 007d 16be 01c2 50bd 6ed3 e7bc 49b1 febd
000001f0: df7c 07bd 6a47 fc3d 0021 163b 54e2 2ebd
00000200: d91b 01bd c351 cb3d 5676 e1bd 20d6 a6bd
00000210: c34b 1939 f1c2 133e a119 67bd db03 01bd
00000220: 910e 173d 82ee 413d 700d c13b ee86 44bd
00000230: 486f b63d 0539 1dbe b7c0 24bd 98cd 72bd
00000240: c53d b13d c51f cf3c c47c 35bd a8a4 263d
00000250: 9207 38be ee85 c93c 05b2 a6bd 25bb 723d
00000260: 4e3a b93d e40b 2dbe 04c0 f2bd 76aa e0bd
00000270: 5197 db3d c61a 9f3d 2ae8 14bd f6f1 b93d
00000280: ad9d c83d 2c8c d0bd 41d4 afbd 5112 a43d
00000290: 2e23 e13c 1b19 6e3d 9cff 073e e8f6 e9bc
000002a0: 9522 143c 925c 31bc fa58 f2bd 1978 91bd
000002b0: 3e65 e3bc 3e7b 853c 6bbc 65bd 3b5a 32b9
000002c0: f577 793d b85b 173e 98ed 29be 2355 87bd
000002d0: bbbe a13c 5187 9ebd 7d54 cebc 7320 f7bd
000002e0: 7abb 923c 26d0 c2bd c9bb 2e3e 9665 3abd
000002f0: 1a64 06bd b799 b93c 104a e03c 214f 173d
00000300: f7e8 b3bd fa32 adbc b56e 69bd fce7 f73c
00000310: cac6 9ebd eb28 b8bd 06ad d73d 1b5f a8bc
00000320: b61d f4bd e877 4bbd ef87 533d 8890 48bc
00000330: 3a42 49be 3056 38bd 04b6 9cbd c2bc 81bd
00000340: b987 7dbd eb0d a1bd 8ece 24be 95ad c5bd
00000350: eea2 113c bfdb 1cbd 311e 103e 6c98 c73d
00000360: 6488 dbbd a523 ffba f38d 863c fe38 743d
00000370: 2eb7 483d 0668 5d3d 4660 063d 66b6 9ebd
00000380: 2589 213d e4e4 be3d 87c2 f6bd 9361 8f3d
00000390: 8944 623d 9fde 7cbc 7f49 e2bd f880 073d
000003a0: e936 c43d 7379 f53d e757 57be 61d3 813d
000003b0: d310 07be 2332 93bd c574 c8bd 56f2 cabd
000003c0: 70d7 af3d 06ae 5ebd a302 6dbd 4e9e 3cbe
000003d0: a6b4 20be 2539 513e d910 cebc d81d 2f3c
000003e0: 08f0 aeba 84d9 3b3e c6ac e9bd dedb 7abc
000003f0: 7406 c3bd 046d 013d bbdb 06be 7f51 863c
-0.056575194 0.031193005 -0.10409153 -0.015392686 -0.09833629 -0.17758338 0.044084687 0.022318833
-0.13149188 -0.10332731 -0.103276685 0.017390156 -0.08932959 0.046587106 0.17146878 -0.12608083
-0.133553 -0.052666947 -0.030254915 0.11453008 0.100680836 -0.016057778 0.092257574 0.024551308
0.014640094 0.035828624 -0.00865225 -0.17634149 0.17883016 0.005339932 0.022857478 -0.15458912
0.06010299 -0.0023339558 0.121843584 -0.08705041 -0.053629577 -0.08386906 -0.008142986 0.16381724
-0.17987579 -0.11000079 0.12047384 -0.046014976 0.14980923 -0.06436112 0.050438464 0.10219691
0.082370766 -0.12191115 0.14522116 -0.1313287 0.0061692065 -0.09068439 -0.0032293354 0.097835675
0.07655457 0.04675368 -0.07259513 0.06316917 0.060309757 -0.122177236 0.042919077 0.072134264
-0.045706507 0.16940539 0.04455123 -0.057873994 0.1906423 0.02441636 0.13535784 -0.027878292
-0.10337824 -0.052186295 0.03727247 0.005070713 0.11694028 -0.10026442 0.0016979717 -0.006598332
0.103133425 -0.0026332086 0.06452379 0.112721585 -0.034834687 0.095533416 0.1239548 0.09495575
0.13910592 0.07732188 0.05854749 -0.13322678 -0.030968169 0.0067334985 -0.13996075 -0.060017135
0.015469841 0.095949054 -0.025713878 -0.10933135 0.020139165 0.023208395 0.17767188 -0.03834258
-0.11130677 -0.048852347 0.10930021 0.11799177 -0.033619467 0.10530007 0.0077432063 -0.017887035
0.12412727 -0.08198528 0.06893972 0.016396599 0.039918706 0.07448878 -0.11745085 0.014767898
-0.14696121 -0.050966267 -0.02829906 -0.12436158 -0.03307807 0.12318309 0.0022907853 -0.042696312
-0.0315207 0.09927704 -0.11008899 -0.0814631 0.0001461944 0.14429833 -0.056420926 -0.031497817
0.036879126 0.0473466 0.0058914945 -0.04798024 0.08907944 -0.15353782 -0.04022285 -0.0592781
0.0865436 0.025283704 -0.04430844 0.040684372 -0.17971638 0.024599995 -0.08139423 0.059260506
0.09044324 -0.16899067 -0.1185303 -0.10970013 0.10722221 0.077687785 -0.03635422 0.090793535
0.09795699 -0.10182986 -0.08585406 0.08011306 0.027482595 0.05812941 0.13281101 -0.028560117
0.009041448 -0.010825293 -0.11833377 -0.07102985 -0.027758237 0.016294118 -0.056087893 -0.00017009016
0.060905416 0.14781082 -0.16594541 -0.066080354 0.019744268 -0.07740653 -0.025186772 -0.12066736
0.017911661 -0.095123574 0.17063822 -0.045507036 -0.032810308 0.022656305 0.027379066 0.036940698
-0.08784669 -0.021142472 -0.056990344 0.030261986 -0.0775276 -0.089921795 0.105310485 -0.020553162
-0.119197294 -0.0496749 0.05164331 -0.01224149 -0.1965417 -0.04500407 -0.07651904 -0.06334831
-0.061897013 -0.07863983 -0.1609442 -0.09652249 0.008888943 -0.038295504 0.14074017 0.09745869
-0.10719374 -0.0019465579 0.016425109 0.059624664 0.04900282 0.054054283 0.032806657 -0.077496335
0.03943743 0.09321001 -0.12048822 0.07001033 0.05524114 -0.015433936 -0.110491745 0.03308198
0.09580786 0.11986055 -0.21029626 0.063391455 -0.13190012 -0.07187297 -0.09787897 -0.09909503
0.08586013 -0.05436518 -0.057863843 -0.18419763 -0.15693912 0.20431955 -0.025154518 0.010688268
-0.0013346681 0.18344694 -0.11409907 -0.0153112095 -0.09522715 0.031598106 -0.13169758 0.016396282

lstm.bias_ih_l1 f4 [276]
00000000: baf0 a0bd 722e 64bd 2622 82bd 2f2a 73bd
00000010: 10f4 8b3d 0fc7 df3d 846d 94bd 86b4 82bc
00000020: 4cce 403d ff25 073d 3267 68bd 736d 0b3e
00000030: 014e 44bc 470a 613e 97f0 37bd 10c6 79bd
00000040: 6ae1 023d e23b 14be 0fc4 a5bb 6e9e 72bd
00000050: 7bec 423d 4755 1e3c a4b1 c6bd c6e3 8ebc
00000060: 8e98 233d 6982 93bd 1839 453d 4be8 263e
00000070: e6b4 1e3d c057 b33d 051a 5d3e a36e aa3c
00000080: 6623 633a 447c ac3d 5f65 de3d 381a 9d3d
00000090: d37c c53d cc2c 083d 662d 923d 77b8 233e
000000a0: 3a86 9f3d 0252 c43d 916a d73c 84e4 b53d
000000b0: 606f 3dbd b82c 0a3e 5c76 36be e511 0fbe
000000c0: 4ffa 263d 973c b53d d1c0 6a3e e06e 3c3e
000000d0: 9e49 1e3e 0438 1e3d f7e0 f1bc 0936 ab3c
000000e0: 3a17 243e f5d7 623d a1c9 ed3d 0c1d 1abd
000000f0: 6065 b03d fcde 193e 92e0 cebd 2a04 58bd
00000100: 608b 7ebc 49c9 30bc 2eef cd3c 3901 04bc
00000110: 188b bdbd f9dc 50bc 1851 8dbd 71e7 ac3b
00000120: 1c1b 903d 51a6 c0bc a080 0b3e eb95 323d
00000130: 7757 563b ddc8 403d 87af 7bbd ea41 013e
00000140: cf4b 0a3d c51c 333d 571a bd3d df8c 4abd
00000150: ed68 233d f071 5d3e d3af 5bbc 17d4 ae3d
00000160: 75ce f73d 0be8 e5bd 7bdd 90bc b72b 08be
00000170: 2151 f5bc aa28 de3d 4bef 363d dc6f 843c
00000180: 3e9e 683e 4a6d d7bc 0364 f1bc 753c 3d3e
00000190: 82da 063e 9bb3 0e3e 3e4b 95b9 4a7b ab3c
000001a0: 2ce8 2e3e 1ba1 b63d 2a8b b63d d431 4c3d
000001b0: 2025 223d cdd3 1b3e 84e7 da3d 17db c33d
000001c0: 03c9 8a3d 90b6 7f3d bf1c 843d d977 e73c
000001d0: 82ba 883c 845e 9ebd b0a0 e33d 7e5d 223d
000001e0: d852 893d 8376 7bbd 9783 653e e6cb 42bd
000001f0: 81e7 353d 4a9b 243c 4780 293c aa4a 22bd
00000200: f053 14be c1cb 8fbc 617d 9c3c 54dc c8bb
00000210: d79b 7bbd 06fa 003c b536 453e 3946 d4bc
00000220: df4e 28bc feb1 47bd 75ed 88bd 02e1 5fbd
00000230: 2e3e 40bc 8ebb 53be 20d8 2abe 925d 403c
00000240: 6570 093e a19e 3c3d 6736 933b ab7a 673d
00000250: 952d 33be 07c3 523e a79d 9d3d f1a6 393e
00000260: a3ce 173e f51a 32be fb22 1cbe f9b2 26be
00000270: b0fd 063e 0341 25bc 2809 193d acaf b83d
00000280: e581 d23d 53e8 49bd 5cbe b8bd 49b4 9a3d
00000290: d35a 8c3d 5939 cdbd 0a64 403e a8a0 06be
000002a0: a6c7 09be 8215 04bd 23c5 4cbe 53da 41bd
000002b0: ae9c 9c3d c030 74be 59ba 78bc d541 a5bd
000002c0: b934 0a3e fc9d 6f3e 5a86 5ebe 2fca 01be
000002d0: 0ed6 d23d 4254 b83d f4f5 963d 49a1 44be
000002e0: 1e8e 6a3c 2a7a dcbd 3f8a 1dbd a3ef 65bd
000002f0: 30c4 6f3e 0d0c d4bc e7f0 30be 16eb 68be
00000300: 3a11 383d 248e 413e b658 983d d2e8 613d
00000310: 8e32 16be 9266 283d 199c 153e 1090 3dbe
00000320: 1514 8ebd 27f0 ecbd f488 b43d 5c8b 453e
00000330: aadc 4dbe b0e2 76be b08d 7dbd 6b38 be3d
00000340: c93a e1bd 630a fb3c 309a f03d 2ffa ed3d
00000350: 9331 933d 3dd4 ba3d 6d7f e5bc f415 2e3e
00000360: c6a8 3bbe e39e 163e 0e2b debd ae0d 1ebe
00000370: 8823 1b3e c108 483e 2325 583e d05e 543e
00000380: 1919 853d 867d 733e fc0f adbd 1e63 13be
00000390: c1dc 38be 47a2 1ebe aeb9 4f3e d61a 0fbe
000003a0: 1299 87bd 357f e73d fccc 093e 1032 913e
000003b0: 7278 043e 7721 053e 604f 3e3d c711 5d3d
000003c0: 145d f9bd ecee d53c 5428 673e 2265 ba3d
000003d0: e41a 973e 9b15 513e 09ac 1d3e 3423 9a3e
000003e0: d276 6c3e 2a6e 153e 94ad 8d3d 3beb 783d
000003f0: a234 533e b246 28bb b492 023e fba9 1b3d
-0.07858415 -0.055708356 -0.063541695 -0.0593664 0.068336606 0.10926639 -0.07247451 -0.01595522
0.04707174 0.03299522 -0.05673904 0.1361597 -0.011981488 0.21976577 -0.04490718 -0.060979903
0.031953253 -0.14475968 -0.0050587724 -0.05923312 0.047588807 0.009663886 -0.09701851 -0.017442595
0.03994041 -0.07202608 0.048150152 0.1629955 0.038746737 0.08756971 0.21591957 0.020804709
0.00086646376 0.08422139 0.10859179 0.076710165 0.09642949 0.033245847 0.07137565 0.15988337
0.077892736 0.09585954 0.026295932 0.088814765 -0.046248794 0.13493621 -0.17818588 -0.1397167
0.040766057 0.08849447 0.22925116 0.1840167 0.1545777 0.03862764 -0.029526217 0.02089979
0.16024485 0.055381734 0.11610723 -0.037625358 0.08613086 0.15026468 -0.10101427 -0.052738346
-0.015536159 -0.010790178 0.025138464 -0.008056932 -0.09255046 -0.0127479965 -0.06900233 0.0052766134
0.07036421 -0.023516806 0.13623285 0.043600004 0.0032705942 0.04706656 -0.061446693 0.126228
0.033763703 0.04372861 0.092335396 -0.04945075 0.039894987 0.21625495 -0.013408619 0.08536547
0.120999254 -0.11225899 -0.017683735 -0.13297926 -0.029945912 0.108476 0.0446618 0.01616662
0.22716615 -0.02629723 -0.029466635 0.18480094 0.13169292 0.13935702 -0.00028475554 0.020932812
0.17080754 0.08917447 0.08913262 0.049852207 0.039586186 0.15217514 0.10688689 0.095632724
0.06776621 0.062429965 0.064507954 0.02825539 0.016690496 -0.07732871 0.11114633 0.039639942
0.06705254 -0.06139232 0.22413479 -0.047557734 0.044410232 0.010046789 0.010345525 -0.039621986
-0.14485145 -0.017553212 0.019102754 -0.006129781 -0.061427917 0.00787211 0.1925915 -0.025912391
-0.010272711 -0.04875373 -0.06685916 -0.054657944 -0.011733575 -0.20677015 -0.16684008 0.011741059
0.13421781 0.046049718 0.0044925692 0.05651347 -0.17497857 0.2058221 0.076960854 0.1813009
0.1482492 -0.17393096 -0.15247719 -0.1627921 0.13182712 -0.010086301 0.037362248 0.09017882
0.10278682 -0.049293827 -0.09020683 0.07553918 0.06853261 -0.10020704 0.18788162 -0.13147223
-0.13455066 -0.032247074 -0.19997077 -0.04732735 0.07647072 -0.23846722 -0.0151811475 -0.08069197
0.13496675 0.2340011 -0.21730939 -0.12674783 0.10294734 0.09000446 0.073711306 -0.1920215
0.01431611 -0.107654884 -0.03846192 -0.05613674 0.23414683 -0.025884653 -0.17279397 -0.22745928
0.044938304 0.18901879 0.07438795 0.055153675 -0.14667723 0.041113444 0.14610328 -0.18511987
-0.06937424 -0.11569243 0.08815184 0.19291443 -0.20103708 -0.24109912 -0.0619027 0.092881046
-0.109975405 0.030644601 0.11748159 0.11619984 0.0718719 0.091225125 -0.028014863 0.17000562
-0.183261 0.14709048 -0.10848056 -0.15434906 0.15150273 0.1953459 0.21107917 0.20739293
0.064989276 0.23778352 -0.084503144 -0.14393279 -0.18052961 -0.15491591 0.20285675 -0.13975081
-0.06620993 0.1130356 0.13457102 0.28358507 0.12936571 0.13001047 0.046462417 0.053972032
-0.12175956 0.026114903 0.22573978 0.09101321 0.29512703 0.20418398 0.15397657 0.30104983
0.23092201 0.14592806 0.06917873 0.06077121 0.20625547 -0.0025676903 0.12751275 0.038003903

lstm.bias_hh_l1 f4 [276]
00000000: c899 92bd dac3 47bd 7af5 9d3d 9476 113e
00000010: 3f04 af3d 5de3 f93d dcf4 f53b 31cc 8b3d
00000020: d759 653e fa26 a13d 9837 103e a173 af3c
00000030: ca5e 94bd 7cc8 783d 8b43 b53d 6633 ca3d
00000040: 6b61 b23d 636c 40be 9fc7 113e 33a2 8ebb
00000050: 66bf c23c 4159 84bd e4cf 57bd 78ae 693d
00000060: c6fa 9dbd c50e 653d 66e2 0abd 2700 173e
00000070: f68b c93c 8612 083e 0d26 b33d ae92 5bbd
00000080: d111 c73d 1f7d 593d 3ff7 a73d 55f5 e53c
00000090: cc48 44bc 9806 8bbc fcc5 9b3d 6591 a5bc
000000a0: 08c4 a9bc 7dc3 073e 35b9 b03d 8082 fe3d
000000b0: 22d4 46bd ad1a 423c dff4 a4bd 11a6 003c
000000c0: ba33 023e 5e9d fc3c 3527 6e3e 2481 bb3d
000000d0: b045 2f3e 8609 693d d0d8 72bd 6ede 103e
000000e0: 1d78 793d 6743 50bc 747c 503d b29d 2a3e
000000f0: 665c ef3d 7a9d c63d 2669 b83d 1e1d 8dbd
00000100: 6b9f 22bd 75dd 333e 38c6 e2bc a383 ff3d
00000110: f5dd fc3b 237f 0b3b b2d2 6bbd ebb7 46bd
00000120: 2b93 0a3e 4689 70bd d12c 32bd 5959 2f3d
00000130: 02d6 3f3d 3798 e73c 5171 4c3c 219b 3bbd
00000140: ae8b fc3d 8728 f83d 3a1a 173e 6f4f 853d
00000150: bd6d 313d b80e 7b3d 7af2 a9bd af2a 363b
00000160: 85cf 083e 4da6 80bc fc76 a1bd e3f3 23bd
00000170: 45c5 0e3d fd8d d53d ecbc b7bc 36bf e43d
00000180: 8801 303e 10e8 4c3d 6740 e73b 4b8b 333e
00000190: 01df 053e 2d1e 19bd c425 553d 4779 f4bc
000001a0: 9e6a 5a3d b1fd fe3c 088d a3bc 3651 0bba
000001b0: 4917 233d 829e f43c 187a f03d 018d d73d
000001c0: 2c9f 603e 6ca0 0f3e 14d4 883d 2e38 fbbd
000001d0: cc4d f73c 9ad2 d1bc 923a 143d 9bb0 4b3e
000001e0: e852 373e 8af8 ba3d 744c 32bc e1f0 bf3c
000001f0: 524d 3a3d 8d0d 9b3d df08 da3c 2d50 2f3e
00000200: f202 ae39 3b7b 90bc e9d2 333e 0c22 ffbc
00000210: 6f14 4cbd c255 233e ea8a df3d 1a7b de3d
00000220: bc9e 16bd 99c6 123e 6bb9 ad3a 6e40 213d
00000230: c4b0 88bd c686 c83b 1c17 dabb 9ed9 0fbe
00000240: 3f51 9e3d 6c60 f53c 362d 1cbe 5c12 b7bd
00000250: d04a 04be 4631 6e3d 0bad a33d cb8d 603e
00000260: 7f47 063e 6abe 80bd 281d 3ebe a06f 1ebc
00000270: e569 b63d 0041 d93c 4a8e 243e 94a6 57bc
00000280: 246e e93d 7c60 0abd f037 58bc c54e 51bd
00000290: 87bf ff3d 0eac 1cbe d8cd 2f3e e1b7 dd3c
000002a0: e2c5 49bd e096 133d 6f0b 57bd 56d8 05be
000002b0: 9a6c e73c 7ac2 84bd 7210 403d 1128 5abe
000002c0: d467 813d d193 f93d 6e0d b7bd 7038 c2bd
000002d0: 1e0d 85bc 398c bd3d 30d2 213e a393 14be
000002e0: ef3b 653d dd17 e0bd 9597 673d 8028 fabd
000002f0: aa67 723e eaf4 61be 4ead 1ebe e466 88bd
00000300: c5a6 02bd 35f6 e73d 540e d73d 73c1 9abc
00000310: 9c11 90bd 930a 86bd 9aff 3c3e adfc 343c
00000320: 43d2 76bd 59b3 f6bd 4595 3fbd bfcf 663e
00000330: b9f8 2fbe 80e9 fcbd 28c5 773d 79b3 7f3d
00000340: b7e1 3bbe bf0a 0bbe efa7 0a3e f726 f4bc
00000350: 2221 123e 2b83 c73d b357 863d 19cd d83d
00000360: a199 d1bd 404d 903e 147b 12bd 42bf abbc
00000370: b62b 703e 73f7 1c3e fc4b a83d 5886 903d
00000380: 2a58 dc3d dbc0 483e b8f0 5cbd 087e b0bd
00000390: c1a5 86be 8542 fe3c 8c46 6a3e 2309 b3bd
000003a0: 0776 393d 3789 513e 210d 9a3e 9577 8b3e
000003b0: 7f73 8e3d d6ae dcb8 caab 5c3e 5afd 09ba
000003c0: 75cc 2bbe 1e3a f63d bad4 e63d f230 613e
000003d0: 762c 903e fb65 3c3e 7b9c d73d 6b22 843e
000003e0: 4e4c fd3d 01b0 833e c553 fa3d bddf df3d
000003f0: a11d 923e 7593 9ebc 2538 373e f7fb a9bc
-0.07158238 -0.048770763 0.077128366 0.1420539 0.08545732 0.12201569 0.007505996 0.06826056
0.22397552 0.07868762 0.14083707 0.02141744 -0.07244642 0.06073807 0.088507734 0.09873085
0.08709987 -0.18791346 0.14236306 -0.0043528317 0.023772907 -0.06462336 -0.052688494 0.057051152
-0.07713847 0.05592229 -0.033907317 0.14746152 0.024602871 0.13288316 0.08747492 -0.05360668
0.09720195 0.05309784 0.08201455 0.028071085 -0.011980247 -0.016970918 0.07606122 -0.020210931
-0.020723358 0.13258167 0.086290754 0.12427235 -0.04854215 0.01184718 -0.08054518 0.007852093
0.12715045 0.030836757 0.23257144 0.09155491 0.17116427 0.056893848 -0.0592888 0.1414735
0.060905565 -0.0127113825 0.050899938 0.16661718 0.116875455 0.09698005 0.090044305 -0.06890319
-0.039702814 0.17564948 -0.027682409 0.124762796 0.007716889 0.0021285496 -0.05757398 -0.04851524
0.13532703 -0.058724664 -0.04349977 0.042809818 0.046834953 0.028270824 0.012478189 -0.04580224
0.12331329 0.12117105 0.14756098 0.065092914 0.043317545 0.061293334 -0.08298202 0.0027796437
0.13360412 -0.015704298 -0.078840226 -0.04002751 0.0348561 0.10427473 -0.022428952 0.11169283
0.17188084 0.050026 0.007057238 0.17533605 0.1307335 -0.037382293 0.05203797 -0.029842986
0.053324334 0.031126829 -0.01996471 -0.00053145306 0.03981713 0.029860739 0.117420375 0.10524941
0.21935719 0.1402604 0.06681076 -0.12266575 0.030188464 -0.025613118 0.03618867 0.19891588
0.1790272 0.09129436 -0.010882486 0.02343029 0.045483895 0.07570944 0.026615558 0.17120428
0.0003319006 -0.017636886 0.17560925 -0.031144165 -0.049824174 0.15950683 0.10915168 0.108633235
-0.036772475 0.14333571 0.0013254111 0.039368086 -0.0667434 0.006119582 -0.006655587 -0.14047858
0.0773034 0.029953204 -0.15251622 -0.08939049 -0.12919164 0.05815246 0.0799199 0.2192909
0.13113211 -0.062863186 -0.1856581 -0.009670168 0.089069165 0.026520252 0.16069904 -0.013162274
0.11397961 -0.03378342 -0.01319693 -0.05110051 0.12487703 -0.15300009 0.17168367 0.02706522
-0.04926098 0.036032557 -0.05250114 -0.13070807 0.028250027 -0.06482406 0.046890683 -0.21304347
0.06318632 0.12186397 -0.089381084 -0.09483421 -0.016241606 0.09255261 0.15802836 -0.14509444
0.05596536 -0.109420516 0.056541044 -0.12214756 0.23672357 -0.22066084 -0.15495798 -0.0666025
-0.031897325 0.11326257 0.1050078 -0.018891072 -0.07034609 -0.065449856 0.1845688 0.011046571
-0.060259115 -0.120459266 -0.046773214 0.22540186 -0.17184724 -0.12349224 0.060490757 0.062427018
-0.18347822 -0.13578318 0.13540624 -0.029803736 0.14270452 0.09741815 0.06559696 0.10585994
-0.102343805 0.28183937 -0.035761908 -0.020965222 0.23454174 0.1532877 0.08217618 0.07056874
0.107590035 0.19604819 -0.053940505 -0.086177886 -0.26298335 0.031037578 0.22878474 -0.08741977
0.045278575 0.204625 0.30088142 0.2723967 0.06955623 -0.00010522983 0.21549907 -0.00052638876
-0.16777213 0.12022804 0.11271043 0.21991327 0.2815892 0.18398277 0.10527893 0.2580751
0.123680696 0.25720218 0.12223009 0.109313466 0.2853823 -0.019357422 0.17892511 -0.020750029
