models/lstm_trial_8.pth (torch, 862846 bytes, 9 tensors)

lstm.weight_ih_l0 f4 [504, 44]
00000000: 401c a93b 7b17 503c 64d9 3bbd d636 4d3e
00000010: 6ada d2bc effe f0bc 0532 cf3c 62eb 563e
00000020: 82e2 ccbd 743f 263e 4aee 3e3c 6894 813e
00000030: 44f1 8e3e 414b e4bd 3518 013e 454e dbbd
00000040: f2f9 613d 30b8 833c ed66 83bd 9767 723d
00000050: e681 0f3e b132 ac3d e11e 9b3c c657 a1ba
00000060: cb0d b53d adc7 8ebd 9502 81be b49b 173e
00000070: 5868 243d 9a1c 753d f8ba 68bc f71d 8cbd
00000080: 2568 fc3d 0d47 babd 442b 0939 6535 283d
00000090: 2dbf 7f3d 3c65 f33c 12e8 c53d f9ce 24bd
000000a0: 1e7a 56be c7e6 69bd 484e 9a3d ca32 aa3d
000000b0: d9eb 0fbe a169 3cbc 0c5a b7bd 940b 093e
000000c0: adb6 cabd 2e9b 393e 16ce cbbc 57b9 3a3e
000000d0: 9cd1 92bc 6f8d a43e 1085 203c 8864 5a3e
000000e0: b53a b83d b861 9ebd e7a9 47bb 3f50 5dbd
000000f0: 5532 463e 5f33 563c 1e2e 86bd 0583 dfbd
00000100: 4e38 4bbd 936c b0bd 58df f5bd bb72 0abe
00000110: 60fd 323e 07b0 583e b949 a63c ab6d a13d
00000120: a497 a139 405a 9d3d 8e5c c7bb 8907 1d3e
00000130: d96e 78bd b8e5 f23d b5ba 473e 420b 613d
00000140: 881f 5a3d b808 45bd 35eb 49be 65ab 6ebc
00000150: e07d ad3d 2770 f6bd 9357 013e 0f6d b13e
00000160: ccb2 a33d aacb 43be 1c81 003d 801f 843d
00000170: dd32 773e 8ce9 0abe 1b6e 7c3b f9cc 953d
00000180: 29e2 b8bd dcda 3dbd f3d5 e8bd 12be 003e
00000190: b4b6 f9bd 100a 023e e2d9 803d 8b62 efbd
000001a0: 64f6 cebc 5f85 a3bd 2f4a c63d b046 353e
000001b0: 5816 8b3e 6fef adbc edf8 383d 63b2 7fbd
000001c0: d5cf a33d 86c6 bd3d 175c 743d 9d4f 1fbd
000001d0: c24f ffbb 7afd 02bc d4de a83c 4b81 84bd
000001e0: 3be4 e8bd 4971 76bd bc24 8db9 fcc7 d33d
000001f0: 0bfb 873e 2ceb c0bd 252b ed3d 7b07 293e
00000200: 57bd 393d 73c1 a33c c3f4 3f3d 62aa d1be
00000210: c532 cf3d 6ddd 27be a49c c93c ca6a cb3c
00000220: 8ef8 17be 28b3 6d3c 5823 c13d 78f1 d83d
00000230: cc77 193d 6b15 903e e39c 9fbd f0d3 503e
00000240: 8a0b 0d3e 71cb 1d3e ce40 54bd 3baa b6bd
00000250: 6094 c03d 2ce6 d03d 7c60 8c3e 0849 44be
00000260: ca83 8abd 79c0 3dbd 9e28 10bc a47c 0e3d
00000270: 91af 303e 0e8a 55bd f91a 54bc 73f4 cc3d
00000280: 98b6 703e 8a2a b43d d23a 48be e627 20bd
00000290: ba28 88bc b588 35be bb87 a53d cb81 593d
000002a0: 58c2 7c3e ea01 ce3d 0739 ee3c 9f74 413e
000002b0: 3f27 94be 6fbc cf3c 5039 9f3e c56e d13d
000002c0: 15d5 073e 36c7 00be 37bd a13c 41b2 5dbd
000002d0: 09fd c13d f27c d03c bde6 0b3e 8b3f 7abd
000002e0: 1d0e d0bd e60e cdbc 58e6 0abd 3791 53bd
000002f0: d9f9 d5bd eb63 34be 976b f73d 43bf 95bd
00000300: 138e f7bd 0155 163d 5222 d4bd b07d 3e3d
00000310: 4402 8e3e a984 583d 404a 8b3e 27e0 b4bd
00000320: 1e96 9abd 4551 75bd 960b 763c 348a ab3d
00000330: 21d6 b9bd feb9 5e3d 8159 1a3e c03f 3bbe
00000340: ea7e 073e b305 d6bd 2dc7 163d b7d2 773d
00000350: ad14 c03c 1059 c9bd 717d 0e3e 4ac2 61bd
00000360: 1aa6 f7bd ce72 a9be a1d9 a83c 4b02 333d
00000370: 44fa c23d 620e 32be 27a2 5fbd 18d7 173e
00000380: dcec 45be d27d a7bd 1ae4 2d3d 64b6 3cbc
00000390: 38aa f23d 9d84 acbd 47fa 833d a488 acbd
000003a0: 6fbd 96bd da90 a13c c892 18be 4914 f1bc
000003b0: ec77 593e fe9a 063e a2f9 093c 2a38 173d
000003c0: ba1e 103d 33f7 0cbe 6f0b 86bd 2a05 25bd
000003d0: 8d73 bf3d 443c 93bd dec8 1fbe 4e87 77bd
000003e0: 3fff 2a3e 3f4d 1fbe f4e0 f9bd 2a88 c6bc
000003f0: 9d4f 99bd ed7f 903c aae7 7e3d 8c49 e13d
0.0051608384 0.012700911 -0.045861617 0.2004045 -0.025738914 -0.029418437 0.025292406 0.20988229
-0.100041404 0.16235143 0.011653492 0.25308537 0.27918446 -0.11147166 0.1260689 -0.10708288
0.055170007 0.016079038 -0.06416116 0.059180822 0.14014396 0.08408106 0.018935623 -0.0012309484
0.088405214 -0.06971679 -0.25197282 0.1480549 0.040138572 0.05984173 -0.014204733 -0.06841653
0.123245515 -0.09095583 0.00013081456 0.041066546 0.06243818 0.029711358 0.096634045 -0.040236447
-0.20945022 -0.057104852 0.07534462 0.083104685 -0.14054812 -0.011499793 -0.08952722 0.13383323
-0.09898124 0.18125603 -0.024878543 0.18234764 -0.017922215 0.32139155 0.00979735 0.21327412
0.089955725 -0.07733482 -0.003046626 -0.054031607 0.19355138 0.013073771 -0.06551765 -0.10913662
-0.049614243 -0.08614459 -0.1200549 -0.13520329 0.17479467 0.21160899 0.020298826 0.07882246
0.00030821294 0.076832294 -0.0060840314 0.15334906 -0.060652588 0.118602216 0.19504817 0.054942377
0.053252727 -0.048104018 -0.1971863 -0.014567231 0.084712744 -0.1203311 0.12631063 0.34653518
0.07993087 -0.1912066 0.03137313 0.06451321 0.24140497 -0.13565654 0.0038517776 0.07314486
-0.090275116 -0.0463513 -0.113689326 0.12572506 -0.12193051 0.12699151 0.06291558 -0.116887175
-0.025263973 -0.07984423 0.09682118 0.17702746 0.27165484 -0.021232335 0.04515927 -0.062425982
0.07998625 0.09266381 0.059658136 -0.038894285 -0.0077914903 -0.007995004 0.020614065 -0.06469973
-0.113716565 -0.06016663 -0.00026920985 0.10340878 0.26558718 -0.094198555 0.11580495 0.1650676
0.045346584 0.019989705 0.046864282 -0.40950304 0.101171054 -0.16393061 0.024610825 0.024831194
-0.1484091 0.014508046 0.094305694 0.105929315 0.037467763 0.2814134 -0.07793596 0.20393348
0.13773933 0.15409638 -0.051819615 -0.08919188 0.094033 0.10200152 0.27417362 -0.19168484
-0.06763418 -0.046326134 -0.008798746 0.034786835 0.17254473 -0.052133612 -0.012945884 0.100075625
0.23507154 0.08797176 -0.19553688 -0.03910055 -0.016620982 -0.17727931 0.08082529 0.053102296
0.24683511 0.10058959 0.029079927 0.18892144 -0.28936192 0.025358407 0.31098413 0.10226206
0.13264878 -0.12575993 0.019743545 -0.054125074 0.09472091 0.025450204 0.13662238 -0.061095756
-0.10158942 -0.025031518 -0.03391108 -0.05165216 -0.10448045 -0.1761624 0.12081068 -0.07311871
-0.120876454 0.03670216 -0.103581086 0.046506584 0.27736104 0.05286089 0.27205086 -0.08831816
-0.07548164 -0.059891958 0.015017411 0.083759695 -0.09074045 0.054376595 0.15073206 -0.18286037
0.13232008 -0.10450306 0.036811043 0.060503688 0.023447359 -0.098314404 0.1391504 -0.05511693
-0.12092228 -0.33095402 0.020611586 0.04370336 0.09520391 -0.17388299 -0.054598 0.14828146
-0.19328636 -0.08178295 0.042453863 -0.011518095 0.11848873 -0.084237315 0.06444221 -0.084245
-0.0736035 0.01972239 -0.14899743 -0.029428618 0.21237153 0.13145062 0.0084213335 0.036918797
0.035185553 -0.13766174 -0.065451495 -0.040288128 0.093482114 -0.07189229 -0.15603969 -0.06043177
0.16698931 -0.15556811 -0.122011095 -0.02423485 -0.07485888 0.017639125 0.06223265 0.11000356

lstm.weight_hh_l0 f4 [504, 126]
00000000: 867e 50be c1d2 163d ebd0 cbbd 5cdb 43bd
00000010: 58ba 74be 4d68 2a3e e61c d93c acc8 9e3c
00000020: 914e 263e 547a 073e 89ae 0e3d a793 483d
00000030: 360c 0a3e 18eb ce3a 412c 153c 0f94 3b3d
00000040: adcc 9a3d e5b6 0dbc 6607 663d 3966 b7bd
00000050: 5fb3 b53d d860 85bc 26d8 10be f301 6abd
00000060: d487 3b3d 84b8 9bbd 55e7 e3bd 1d95 c33d
00000070: 33e4 02be 2902 ab3d 46cb c1ba 6c55 eabd
00000080: 892f 87be c3be e63d 7938 0cbd d09f c93c
00000090: b052 163e 7218 2b3c 6e40 d83d 005b 5fbc
000000a0: 0797 44bd 6eca 823d 8671 fc3c 092c d5bd
000000b0: c375 183c 2082 e73c 0369 143e c64f f13c
000000c0: f871 cabd e4b3 5e3d f897 213b 05b5 6b3d
000000d0: 78b8 d73b 5103 903d 2c46 01be 9037 07be
000000e0: 803c d43d 627d 27be a040 113d 2bde 4dbc
000000f0: cdd3 8fbb e08d 09be ff41 a2bd 4c46 2abe
00000100: 3caf 6f3c d05c 87bc 128b 29be bf1f d7bd
00000110: e5d5 863d 73b7 03bb cf82 023e 8e04 17bd
00000120: 5df6 c5bd 54f2 e5bd 7103 82bd 121e 4e3d
00000130: f257 b5bd fb79 c2bd 10f0 70bd fc0b dd3d
00000140: 7528 0fbd 62a1 0a3e 8ce3 89bd 2218 6ebd
00000150: 61d9 0bbe 117c 23bd a9a4 52bd bdf6 28bd
00000160: ec6d 97be 8648 5dbe c3ca e6bd ce30 843d
00000170: 800d 93bc dcd4 f8bd 057c d2bb 2ab1 823c
00000180: a302 10bd 2dd2 963d 3a40 213e a898 08bd
00000190: 4c6a 10be f409 bfbb 9af2 59bc b315 81bd
000001a0: 7a5f 49bc 6269 19be 511c bdbd 5adb 57bd
000001b0: bb7b 303e c30c 5dbd c24a 123e 6d24 833d
000001c0: 441e 62bd b1c3 533e 8c5f ebbd cc6f ab3d
000001d0: 61f0 c0bb 4a10 7dbd 6d39 f2bd 9b6f fd3b
000001e0: 7fc0 e0bb a52e da3b e25f 00be 7c7d 113e
000001f0: bc6c cd3c cb07 883c a82f e539 4416 a9bd
00000200: 9dd8 e33d e110 bb3d 5aec c4bd d304 d53d
00000210: f656 593e 57f7 2a3d 4448 ffbc 5f6d 433e
00000220: e7d6 89bd 9f6c 8abb 4dc6 143c 9a23 4dbc
00000230: 1da1 04bd ea67 f2bd e0b2 393d 7585 a6bd
00000240: e385 f2bd 02a7 993d 108b 4ebc fbdb 02be
00000250: 0922 c6bb 7314 863c ddce 5e3d 41c8 043d
00000260: e577 c7bd e4c0 0a3d ddaa cebd d159 da3c
00000270: 39c3 933c df0a 6fbd 5636 173e d0df aa3d
00000280: 0c19 57bd 0ded 153e d3ac e5bd 8b5c 8dbd
00000290: a1c2 c43d f5b0 e1bd 38ec 27bd f27e 003d
000002a0: 4cfa 643c eb89 903c cf5a 9ebc be7e 55bd
000002b0: 2530 84bb d23e 9f3c d82e 8ebd 8958 ac3d
000002c0: 3fee 05bd 3609 083e 45da d83c 29e9 073e
000002d0: 6447 a7bc 4a60 d9bd 25cf 7d3d 7b87 ce3c
000002e0: 2ada adbb 116b 0b3d 9662 d1bd 9ce7 e33b
000002f0: 4619 a03b ce41 0b3c 0550 7f3c e3fd 1f3d
00000300: ab86 263e 7229 393d fcff 3cbd 5f9f 493b
00000310: 19ac a13b 1055 b0bd a638 383e fc5e d53d
00000320: 16bb 10be 7b02 843d 822b 19be 7604 aabd
00000330: 7d2c 75be 7dc1 30bc e97c 493e fbae 3cbd
00000340: 9c18 c43c 2d55 ae3d beca 783d 6827 0abd
00000350: d8ff cbbd dcdd 363d 9c23 15be beec 48be
00000360: 6c09 a93c 0d08 aa3d d417 ce3d 7836 1a3c
00000370: 63df 3bbd be54 66bd 0660 0e3e 25e1 2c3e
00000380: 86d3 a53d be65 c33d 1d07 4d3b 597b 163b
00000390: 3a4d ae3c 9065 1ebd 3430 6c3d 6538 1a3e
000003a0: 3746 b53d 2a8e c83d 832f 14be 5e00 29bd
000003b0: c395 e3bd fd3e 2fbc 3bc6 0e3e 9c94 0abd
000003c0: 04a0 79bd 43c6 733d 540c 01be c5c7 b0bd
000003d0: 21f1 d2bd 69b2 383d 7eba 8dbd 0af9 d03d
000003e0: acb0 c9bb ac44 c7bc 86d9 253d 51ec 423d
000003f0: 0b81 18bd 1e4c 3dbe 4596 39bd c147 16bd
-0.20360765 0.036822084 -0.09951957 -0.04781662 -0.2389921 0.1664135 0.026503038 0.019382797
0.16240908 0.13230258 0.03483442 0.048968937 0.1348122 0.0015786616 0.009104789 0.045795497
0.0755857 -0.0086495625 0.0561594 -0.08955044 0.08872103 -0.01628153 -0.14144954 -0.057130765
0.045783833 -0.07603553 -0.111281075 0.095499255 -0.12782364 0.083500214 -0.0014785312 -0.11442074
-0.26403454 0.11266854 -0.034233544 0.024612337 0.1467998 0.01044284 0.10559164 -0.013632536
-0.047995593 0.06386267 0.030815851 -0.1040879 0.00930542 0.02826029 0.14493184 0.029456984
-0.09885019 0.054370776 0.002465723 0.05754568 0.0065832697 0.070318826 -0.12624425 -0.13204789
0.10363102 -0.16356423 0.03546202 -0.012565176 -0.0043892623 -0.13433027 -0.07922744 -0.16628379
0.0146291815 -0.016523749 -0.16556957 -0.10504102 0.06583766 -0.0020098358 0.12745212 -0.036869578
-0.09666131 -0.11227861 -0.06348313 0.050321646 -0.08854665 -0.09495922 -0.05882269 0.107933015
-0.034950692 0.13538125 -0.06732854 -0.058128484 -0.13657142 -0.03991324 -0.051426563 -0.041250933
-0.2957605 -0.21609697 -0.112691425 0.06454621 -0.017950773 -0.12149975 -0.0064234757 0.015953619
-0.035158765 0.073643066 0.15747157 -0.03334871 -0.14103049 -0.005830044 -0.01330247 -0.06302967
-0.01229083 -0.14981607 -0.092339166 -0.052699424 0.172347 -0.05396725 0.1428633 0.06403432
-0.055204645 0.20680119 -0.114928335 0.08370933 -0.0058880304 -0.061783113 -0.11827359 0.0077342517
-0.006858885 0.0066583925 -0.12536576 0.14208025 0.025076263 0.016605278 0.0004371379 -0.082562
0.111253 0.09134079 -0.09615393 0.10401311 0.21224579 0.041739788 -0.031162389 0.1908469
-0.067304425 -0.0042243744 0.009080482 -0.012520695 -0.032380212 -0.11836226 0.045336604 -0.08130924
-0.11841943 0.07502557 -0.012606397 -0.12779228 -0.006046538 0.016367173 0.0543965 0.03241754
-0.09739665 0.03387536 -0.10091183 0.026654156 0.018037425 -0.058359977 0.14766821 0.0834347
-0.05251412 0.14641209 -0.11214604 -0.06902417 0.09607435 -0.1102008 -0.04099676 0.031371064
0.013975691 0.01764389 -0.01933041 -0.052122824 -0.0040340596 0.019439135 -0.069425285 0.08415324
-0.032697912 0.13284764 0.026471267 0.13272537 -0.020419784 -0.10614069 0.061965127 0.025211086
-0.005305548 0.034037653 -0.10223882 0.0069551 0.0048858253 0.008499576 0.015583043 0.039060485
0.16262309 0.04520554 -0.046142563 0.0030765159 0.0049338457 -0.086099744 0.1799036 0.104185075
-0.14133868 0.064457856 -0.14958003 -0.08301632 -0.23942752 -0.010788319 0.19676556 -0.046065312
0.023937516 0.0851234 0.060740225 -0.033728987 -0.09960908 0.044645175 -0.14564365 -0.1962156
0.020634376 0.08302317 0.100631386 0.0094124 -0.045867335 -0.05623316 0.13903818 0.16882761
0.080969855 0.0954089 0.0031284757 0.0022961705 0.021277059 -0.038671076 0.057663158 0.15060575
0.08851283 0.09792741 -0.1447125 -0.041260116 -0.11112549 -0.01069617 0.13942806 -0.03383313
-0.06094362 0.05951525 -0.12602359 -0.08631853 -0.10299898 0.04509202 -0.06920336 0.102037504
-0.006155094 -0.024324737 0.04049065 0.04758865 -0.03723244 -0.18486068 -0.045309324 -0.036689524

lstm.bias_ih_l0 f4 [504]
00000000: 37e0 2abe 45bb edbc bd90 05bd 47f7 3abe
00000010: 1822 133d dfeb 8a3d 8239 adbc d345 0fbe
00000020: 22e1 b7bd 5320 753d 346b d93d c87c 10bd
00000030: 09ee 983b 041c 14be bedb a63d 3738 293e
00000040: a094 8ebe 0232 3fbd 84f2 a23c fe2b 953d
00000050: 021f 87be 8fde 6a3e 4fbb 94bd 4335 df3d
00000060: 0c95 373c 4ac1 4a3d 6afe 3bbe cd5e 3abe
00000070: d690 1d3d b557 593e 93c3 11bb d7df f53d
00000080: b208 80be e064 72bc ba92 babc 353d 84bd
00000090: b1d4 ddbd 29ae ed3e af28 013e 14bb f33d
000000a0: c908 883a ac65 a3bc 8368 31be fd89 d03d
000000b0: bcc6 dd3d 0aa2 17be 7ddd ccbd 3399 873e
000000c0: e5b8 11be ac52 28be 3b63 52be a6eb 553d
000000d0: f3d8 3d3e 94d1 b43d e2d4 063e 5a60 f8bd
000000e0: 1d54 7dbe b6d6 7cbd decb a8bd 6392 a6bd
000000f0: 2c11 28bc ba9f a7bd 118e 303e 61c0 29be
00000100: a9c7 08be 4025 68be 0bdd 173e 4770 df3d
00000110: afdb bbbd 0982 a9bd 47aa c1bc 27a6 16be
00000120: f2f0 213e 6601 9d3d 3f71 033e 05db 27bd
00000130: 5d60 d23c 21dd 62bd 19f4 07be 6066 a0bd
00000140: 39af 54be c544 a4bd e397 3bbe 759f 8d3d
00000150: f56a b53d 6e86 de3c 4eda 943d 3c5e b93e
00000160: 10e0 37be d86b 94bc 3a89 d5bc 6eab fabd
00000170: 7a6c 483d bc0f b0bd 411c 65bb 484d 4d3e
00000180: e9b0 953d 006b c2bd d5bf 11bd e6e5 d43d
00000190: 7c0e 8ebd 12f6 05bb 759d 41be 4430 ce3d
000001a0: 6865 443c 45cd fd3d f841 11bd 68bd c53c
000001b0: 1639 7ebe 3ecf 02bb af34 82bd 3840 d03d
000001c0: 3df8 aa3e 3fea 29bd b461 10be da95 323e
000001d0: f74b 18be 5028 063c ad00 743d 27c2 12be
000001e0: 2c17 0d3d 9f23 57bd 86fe b7bc 66f8 e3bc
000001f0: 1eaf 0bbe b7ad 7dbe 092c 5b3c 5b14 ccbd
00000200: 7fa5 14be 29d3 5cbd 05b6 21bd 9ecb 48be
00000210: e480 20bc 813d 293d c63a 3e3d a945 963d
00000220: 30a8 a93d 825c 44be fa45 083d 1859 95bd
00000230: 05b7 34bb 7507 a43e 6148 13bd ea1a babd
00000240: ea12 08be 36f6 a3bd c141 1cbe 4f7c 34be
00000250: 50db 963d db6f babd 2af5 163e 17d4 0b3e
00000260: c274 d1bd 50b8 173d 7954 5ebb b8bc 90be
00000270: bbab a53c 6b71 91bd 2ed8 02bd bfc3 44bd
00000280: 64e9 7fbd ee36 f0bd d5fe 1dbc b043 e53c
00000290: 8b52 2c3e 9096 b7bd bedb 593e 0a69 0cbe
000002a0: 29db da3c 9b02 f8bc 631d c7bc a80b 57bd
000002b0: b765 2b3e 6962 39be b35d bcbd 34a4 f8bc
000002c0: 5a76 623e c310 6cbd 9375 e83d d587 04be
000002d0: 2e59 fabd 20ac 21bd 5354 2f3c 565e ae3d
000002e0: 368c c13c 24ab 99bd a30a fc3c 1b89 84bb
000002f0: b91c 54be 378f 8f3d cf32 0ebe eb7b e33d
00000300: 7d26 cf3d 0c95 24be 2413 c53d c742 9c3d
00000310: 9355 0e3d bbd9 733b 69b2 afbb 1565 0e3e
00000320: 26ce 33be 5185 e3bd 33e5 57bd e028 ee3d
00000330: 98f6 823d b31e c63b db02 5ebe 348c b23d
00000340: 5498 04be 197e cbbd 10c8 8d3c e820 143e
00000350: 9bbb a53d 55d0 6b3c c323 75bd 105c 0dbd
00000360: 9a36 29be 030f 883c 003d 0abe 60ed a5bc
00000370: 1568 01be 6d97 383d 23df 203e 1464 02be
00000380: 72d0 de3d 8762 b8bd 86ee a9bc ed45 f23b
00000390: e4da 283b 5f12 03bd 971b 8fbd fa71 523d
000003a0: baf2 0a3d 1221 93bd 46bd f73b 7a3b 453e
000003b0: 54db b33c 80a8 48be ecc0 2fbe fed8 bf3d
000003c0: 9461 c13d c511 623e 19b9 543d a8bf 58bd
000003d0: 8389 8d3e 2d0a 47bc f3bf efbc 9b5a 56bd
000003e0: 81bc bbbc 042d 033d 117b ef3c f528 07bd
000003f0: b9aa 07bd dc30 253c 3d8a a83d 7334 bc3c
-0.16687094 -0.029019961 -0.032608736 -0.18258391 0.035921186 0.0678327 -0.021145586 -0.1399148
-0.089784876 0.05984528 0.106161505 -0.03527525 0.004667048 -0.14463812 0.08147381 0.1652535
-0.27847767 -0.04667855 0.019891031 0.072837815 -0.26390845 0.22936462 -0.07262289 0.10898831
0.011204969 0.04950074 -0.1835877 -0.18200226 0.038468204 0.21224864 -0.0022241815 0.12005585
-0.25006634 -0.014794558 -0.022775043 -0.06456987 -0.10831583 0.46421936 0.12613176 0.11900917
0.0010378595 -0.019945942 -0.17325024 0.10182569 0.10828921 -0.14807907 -0.10003183 0.2648407
-0.14230688 -0.16437787 -0.20545666 0.052226685 0.18539791 0.08829036 0.13167146 -0.121277526
-0.24739118 -0.0617282 -0.082420096 -0.0813339 -0.010258 -0.08184762 0.17241694 -0.16577293
-0.13357414 -0.2267046 0.14830415 0.10910087 -0.09172761 -0.08276755 -0.023640765 -0.1471182
0.1581457 0.07666282 0.12836169 -0.040980358 0.025680715 -0.055386666 -0.1327671 -0.078320265
-0.20769967 -0.08020929 -0.18319659 0.0691518 0.08858291 0.02716371 0.07268201 0.36204708
-0.17956567 -0.01811783 -0.026066411 -0.12239729 0.048931576 -0.08596751 -0.0034959468 0.20049012
0.073091336 -0.09493065 -0.035583336 0.10395412 -0.069363564 -0.0020440859 -0.18907721 0.100678
0.011987068 0.12392668 -0.035463303 0.024138168 -0.24826464 -0.0019959952 -0.06357705 0.10168499
0.33392516 -0.04148316 -0.14099771 0.17439976 -0.14872728 0.008188322 0.059570957 -0.14331876
0.034445927 -0.052524205 -0.022460233 -0.027828407 -0.1364102 -0.24773298 0.013377198 -0.0996482
-0.14516257 -0.053912316 -0.039480228 -0.19608924 -0.009796355 0.04131842 0.04644277 0.07337505
0.08284032 -0.19175914 0.03326986 -0.07292384 -0.0027574908 0.3203694 -0.035957698 -0.09087165
-0.13288465 -0.080059454 -0.15259458 -0.17625545 0.07366049 -0.09103366 0.1474196 0.13655125
-0.10227348 0.03704101 -0.0033924861 -0.2826898 0.020223489 -0.07101711 -0.031944446 -0.04803824
-0.062478438 -0.11729227 -0.009643276 0.027986377 0.16828363 -0.089642644 0.21275231 -0.13711944
0.026715832 -0.03027468 -0.024306005 -0.05250135 0.1673802 -0.18103947 -0.09197559 -0.030351736
0.2211546 -0.057633173 0.113505505 -0.12942441 -0.12224041 -0.03947079 0.010701257 0.08514087
0.023626428 -0.075033456 0.03076679 -0.0040446646 -0.20714082 0.07009738 -0.1388657 0.1110762
0.10114763 -0.16072482 0.096227914 0.07629924 0.03474958 0.0037208635 -0.0053618443 0.13905747
-0.17559108 -0.111094125 -0.052708816 0.1162889 0.0639469 0.00604614 -0.21680777 0.08718148
-0.12948734 -0.099361606 0.017307311 0.14465678 0.080924235 0.014392932 -0.05984856 -0.034511626
-0.16524735 0.01660872 -0.13499832 -0.02025479 -0.1263736 0.045066286 0.1571012 -0.1273349
0.108796015 -0.090031676 -0.02074362 0.0073935897 0.0025765235 -0.031999942 -0.06987684 0.051378228
0.03392289 -0.07184042 0.007560405 0.1926097 0.02195517 -0.19595528 -0.17163438 0.0936756
0.0944244 0.22077091 0.051934335 -0.052917153 0.27643976 -0.012148422 -0.029266333 -0.0523325
-0.022917034 0.032025352 0.029233487 -0.032998044 -0.0331218 0.01008245 0.08229492 0.022974228

lstm.bias_hh_l0 f4 [504]
00000000: f083 cdbd 661a a9bd fbe7 98bc 41b0 37be
00000010: 118c 813c 3116 dbbc 2fb2 fcbd f94f 37be
00000020: ba58 01bd 92dc 423c f1ce 0c3e dd88 d8bd
00000030: 2979 e83c 88b1 84be 7bad 3bbc 6294 3d3e
00000040: 8407 90be 0407 03be 3b88 cf3d 0236 453d
00000050: b8cb 07be 89bf f23d 115b cfbd 2134 043e
00000060: 67e7 e33d c805 223e 95cc 93bd 50d8 f2bd
00000070: 56d0 85bc 9985 3a3e 409d 5c3c 1615 183e
00000080: 2043 a1bd 4978 0cbe 5dcf c63d 5171 ac3b
00000090: 1bf4 43be c9c3 a93e 8444 d13d 2a65 493e
000000a0: 4949 ecbd fa23 e1bd e9c4 16be 99be 6c3e
000000b0: fcc4 153e 48fc 67bd 031f 3fbe 47e0 4a3e
000000c0: 93d7 febc f633 33be 9ff4 1cbe 8e9c 13bd
000000d0: 07dd 573e acce 433e d41b 1e3e 34c8 f8bd
000000e0: 7303 43be 2f1e 3b3d 8a0e 87bd 24b8 87bd
000000f0: 60d2 4fbb e8ea 1bbe c9bc 583e e5f3 d9bd
00000100: 9d58 5cbe 2927 91bd d8a2 893d 2a99 383e
00000110: 4e99 1cbd 48de 03be 9270 eebb 227e 3ebe
00000120: fe36 093d 382f e93d 6fb2 133d dea3 273d
00000130: 4a5b 9cbd f1d0 0bbe 6ab6 d4bd e567 33bc
00000140: b559 a4be 9509 abbd 7b0e 49be 5c06 6c3d
00000150: 1f3f a23d fcbf 04bc 62f2 bc3d fe81 773e
00000160: 9b06 acbd d504 693d 5cbe edbd 7d86 43bd
00000170: 08c6 d53c be5e 6dbb cd76 08bd 4ea0 823e
00000180: e618 3c3e 604c 4ebe f3eb 00be 7bf9 5e3e
00000190: 47f1 46be 289a 083d 5352 fabd b864 af3c
000001a0: e011 65b8 d9e9 293e fa36 ec3c b60f a0bd
000001b0: 7862 37be 308d 2bbc 2342 03be 7246 ffbc
000001c0: a5c1 a33e ad5a 68bd b916 c33c 0437 a13d
000001d0: 5263 0bbe a98b 963c a32b 11bd 9fb6 36bd
000001e0: 4d56 24bb 4839 b8bd 65b1 643d 96d1 15be
000001f0: 45d2 69bd 7f55 85be bde0 c2bd 5087 293d
00000200: cc43 39bd ebd9 02bd 126a 24bc 46f3 1dbd
00000210: 6db2 dd3d b48d 9dbc d800 043d bdbd 2f3d
00000220: e8f7 283e f4cc 4bbe 3b63 a03d 202b 09be
00000230: 6179 8abd 962b e83e 3317 2a3d c02b 3fbd
00000240: e8d9 43be 2b25 76bd da23 d2bd 4dad 43be
00000250: 2f05 40bc 902d c13c b045 163e 0dba 233e
00000260: 6ed2 22be 1a2e 0b3d c348 dfbd 9451 8abe
00000270: db01 813d d666 43be 0ec7 32bd 844c bdbd
00000280: 4d93 98bd cd8e 15be f54f 83bd 785a 8ebd
00000290: 8f2a 603d e080 23be 5996 2a3e 9c97 3abd
000002a0: c1d8 b9bc b895 543d 7393 d73b 5100 aebd
000002b0: 8bce 663c ab9e 21be 6dd1 1ebe 2c4d 193d
000002c0: 8ff3 8a3e 1152 25bd 633b de3c 577e 0dbe
000002d0: 76b7 b4bc 1cf9 663d 96e9 a0bd 0ef9 5e3c
000002e0: 8191 34bc f4a6 42bd 1b4d b7bd eb3c 98bd
000002f0: 243e b8bd 97f0 fbbc 3e6f 9abd b58a 963c
00000300: 0786 043e 18a6 1cbe 52e5 183e dda8 af3d
00000310: 1440 d23c 7a3b c93c af77 70bd 31fe 07bc
00000320: df01 7dbe fdf2 bbbd cffb 6b3d ae0c c13d
00000330: e085 023e 73a7 fe3b 7218 89be 770a a7bb
00000340: b3a2 cebd 655f 6ebc 3f91 4cbc 9d32 e33d
00000350: d351 d63d b9ea acbc abfa 353d 3a12 2e3d
00000360: d48e 3ebe 6a26 3f3c a8a8 36bd ec40 ccbd
00000370: a3b1 07be 8d9e 323d cf47 ca3c 81f9 f6bd
00000380: 1aaf 5d3d 3fb6 4dbd 199d 013b 7d1f 28bd
00000390: d802 35bd d210 e3bd 3014 48bc 0bb1 af3d
000003a0: 87d5 373d d353 20be e17f 85bd bae9 503e
000003b0: 686d 633d 9fc6 fcbd 34ed 28be 0f66 4a3e
000003c0: 564d 043e f382 513e 838d aabd c8fd bd3d
000003d0: adf3 563e 7635 4a3b 2ee0 8bbd d75f 43bd
000003e0: e1b7 5ebd 40b9 4b3d 0dc2 edbd b04b f4bd
000003f0: 1e37 c5bd 1ae3 95bd 8605 c5bc 75bd 293e
-0.10034931 -0.08256988 -0.018665304 -0.1793833 0.01581386 -0.02674398 -0.12338673 -0.17901601
-0.031578757 0.011893408 0.13750817 -0.105729796 0.028378086 -0.25916696 -0.011454935 0.18513635
-0.28130734 -0.12795645 0.10133406 0.04814721 -0.13261306 0.11852939 -0.101247914 0.1291051
0.11128121 0.15822518 -0.07216755 -0.118576646 -0.016334694 0.18215026 0.013465226 0.14851794
-0.07874131 -0.1371776 0.0970752 0.005262532 -0.19136088 0.33157185 0.102181464 0.19667497
-0.115374155 -0.1099319 -0.14723553 0.23119582 0.14625925 -0.05663708 -0.18664174 0.19812118
-0.031108653 -0.1750029 -0.1532769 -0.036037974 0.21080409 0.19121808 0.15440303 -0.12147561
-0.19044285 0.045683082 -0.0659457 -0.06626919 -0.0031711087 -0.15226328 0.21165766 -0.10642222
-0.21518178 -0.07087547 0.06720513 0.18027177 -0.03823214 -0.12877762 -0.007276603 -0.18602803
0.03349971 0.113859594 0.03605884 0.04092776 -0.076345995 -0.13653924 -0.10386355 -0.010950063
-0.3209969 -0.08351437 -0.1963443 0.057623252 0.07922196 -0.008102413 0.09225918 0.24170682
-0.083996974 0.056889374 -0.11608574 -0.04773568 0.026095405 -0.00362198 -0.033316422 0.25512928
0.18368873 -0.20146322 -0.12590007 0.21774857 -0.19427978 0.03335014 -0.12222733 0.021410331
-5.4614502e-05 0.16593112 0.028834809 -0.078154966 -0.17908657 -0.010470673 -0.12818198 -0.03116152
0.31983677 -0.0567271 0.023814546 0.078718215 -0.13612106 0.018377142 -0.035442006 -0.044607755
-0.0025075853 -0.089953005 0.05583324 -0.14630732 -0.057085294 -0.2604179 -0.09515522 0.04138881
-0.04523067 -0.031946104 -0.010035055 -0.03856208 0.10825048 -0.019232608 0.032227367 0.042905558
0.16500819 -0.19902402 0.07831427 -0.13395357 -0.067614324 0.45345753 0.04152603 -0.046672583
-0.19126093 -0.06009404 -0.102607444 -0.19109078 -0.011719986 0.023581296 0.14675021 0.15988941
-0.15900585 0.033979513 -0.1090255 -0.27015364 0.06299182 -0.19082198 -0.043646865 -0.0924311
-0.074499704 -0.14605255 -0.06411735 -0.06950849 0.054728087 -0.1596713 0.16658916 -0.045554742
-0.022686364 0.051900595 0.0065788566 -0.08496154 0.01408733 -0.15783183 -0.15509577 0.037427112
0.27138945 -0.040361468 0.027127927 -0.13817726 -0.022060137 0.056389913 -0.07857053 0.013609184
-0.011021019 -0.0475225 -0.089502536 -0.07433494 -0.089962274 -0.03075437 -0.07540749 0.018376688
0.12941752 -0.15297735 0.14931229 0.0857713 0.02566532 0.024564493 -0.05870789 -0.00830035
-0.24707745 -0.09177206 0.05761319 0.094262466 0.12746382 0.0077714263 -0.26776463 -0.005097683
-0.10089626 -0.014549111 -0.012485801 0.11093638 0.104648255 -0.021108018 0.04442851 0.04249785
-0.18609172 0.0116668735 -0.044594437 -0.0997332 -0.13251357 0.043608237 0.024692444 -0.12059308
0.054122068 -0.05022263 0.0019777475 -0.041045655 -0.044192165 -0.110871926 -0.012211844 0.0857869
0.04488137 -0.15656976 -0.065185316 0.2040166 0.05552426 -0.123425715 -0.16496736 0.19765495
0.12920126 0.2046011 -0.083277725 0.092769206 0.20991392 0.003085462 -0.06829868 -0.047698822
-0.05437458 0.049737215 -0.11609278 -0.11928499 -0.096296534 -0.07318707 -0.024050485 0.16576178

lstm.weight_ih_l1 f4 [504, 126]
00000000: 06a0 893d a51e 6b3d eb80 963d 218f 713c
00000010: 9c3d 62bc b0f3 83bc f6dc c33b c4b6 89ba
00000020: 5830 193e 9da3 4cbc 6a98 923d 37a1 ce3c
00000030: d442 833d 7631 0ebd 72f7 8dbd 6778 b03d
00000040: 2bad f1bd 3436 fdbd d45f 30bd 7f87 e8bc
00000050: 619c b4bc 3ba8 e1bb 1a21 293d b602 95bc
00000060: c4ee e5bd 5e1c b83d 9146 d6bd a412 b43d
00000070: 8ff1 2fbd 7184 c8bc 929b 063e e74f 283d
00000080: c1b7 12bd baaf 753d 66cd a73d fe6b 943d
00000090: 05fa 59bc 07a6 adbd 2ab6 953d 2c84 d03d
000000a0: b36c d03d 6ac1 b3bd 5cd2 2d3e 7b2f 65bc
000000b0: eed1 adbb c125 1f3d eea6 d1bd d0fa acbd
000000c0: 0494 e33d 5744 43bc 13d0 d5bd 89da 833c
000000d0: baa9 7b3b 1bab f2bd 62e5 51bc 8139 253d
000000e0: ab7f a83d 7a7a 12be 14f2 a83d 21ae aa3c
000000f0: 36a4 c2bb 1dbb 2abe 5a63 fb3d ae8f 9ebd
00000100: 17b7 043e 5597 b03d 5249 95be 58f4 65bd
00000110: 9a1b bf3d e9ac 6ebd 5d54 e83c 28e9 303d
00000120: 4280 97bd 9ed3 01bd 772a d33c f21e d63c
00000130: 31d8 033d 5ae4 90bd d8a9 9e3d e215 2d3e
00000140: fdda 1ebd 0ac8 443e 7a69 043c 7524 a3bd
00000150: 6d06 223d 314d c33c f238 953d 8105 bfbc
00000160: 30d5 953d 642b dc3d 8ae1 bc3d 6c45 ad3a
00000170: 7096 c13c bd21 d13d 7e92 e13d dd58 493e
00000180: ad22 dd3c 0771 31bd 3934 883d 5829 bc3c
00000190: 784e 803c aa06 70be 35a1 9ebc 1af1 f23d
000001a0: 3c33 1a3e 6e85 01be a7df 21be a407 203d
000001b0: 2a4b e1bc fa17 863d ed2a 1d3e 05d9 f7bd
000001c0: b921 b63c 9b8f ebbc 1c41 97bd c40a d33c
000001d0: e4c7 90bc 33ce 0b3c 9555 a6bd de26 f33c
000001e0: bfe3 443d 4084 c0bc b0d3 80bd 3ec5 053d
000001f0: b004 0e3d ab65 8a3d 1f4b 493e 1964 07bd
00000200: e515 e43c 6154 1b3e ed17 d7bc 05e7 39bd
00000210: 693c af3d e431 403d 4304 5b3d acbd e2bd
00000220: 32ae 703c c191 ffbd 5935 45bd 607d e1bc
00000230: 711c 5f3c af3b 08bd 92db cebd 9ca3 7cbe
00000240: caa8 fbbd a524 d2bd e00f 8dbd 9fa8 fc3b
00000250: b4c7 62bd 4c32 463d 8d0a 9b3d acf9 b13d
00000260: 6aca a9bd e37b 9f3c f17b ab3d fd07 4b3c
00000270: 8148 cc3c 2033 d4bb c12f 6d3d 08d5 693d
00000280: 504b e83d 5dba 8bbc 9377 b5bd 2627 65be
00000290: 0e40 adbc 2a89 f4bc 94f6 46bc a64f eebd
000002a0: da05 1c3e e7d1 ccbc 5bff 973c 3f09 923d
000002b0: 15f9 d1bd 6fb8 a8bd 7c32 093d fc13 93bc
000002c0: b01f 9abd 945c 1f3d a1b9 7ebd 0e62 32bd
000002d0: c3a9 e23c fa23 0c3e 8d1d d73d 0271 44be
000002e0: d34c 2d3e d899 5bbb 0b27 80bd a71d 7dbd
000002f0: 41f8 793d 8556 68bd c537 febc f1cc 5ebd
00000300: 8846 efbd 95b3 d9bc e422 d2bc 08fb b43c
00000310: a406 733d 065d 723d ac0d 23bd f289 333d
00000320: eab6 cf3d a09b 8b3d e143 503d e4bf 943c
00000330: 04d1 4fbd 0074 8d3d 12d3 d3bd 8b4b bcbd
00000340: 01c0 3a3d 6648 113d a1fd 2fbd c567 7c3c
00000350: 8ab6 29bc 4068 4c3d bc5f c33d 959f da3d
00000360: f706 9e3d e98c cfbc f05f e23d b7e4 a83c
00000370: 93cb cf3c 2947 51bd caf0 473c 106a a6bd
00000380: 989b 053e b0cd 073e 3f06 f13d 8ea2 25bd
00000390: 8562 343b 533d 883d 68f9 53bc 8e8a 923d
000003a0: a8d6 b23c 5567 c3bd d944 4dbe 6466 dc3d
000003b0: 8140 8b3c 694c 02be 2a4e 713d bceb 1a3d
000003c0: 5ae6 33be 08cf 80bd e74e dbb9 4064 4abc
000003d0: dd3d 143d 98e3 a4bd 73bf 973d 04ab b33d
000003e0: be2b 47bc 39f7 133d 4273 03be a295 b7bd
000003f0: ea70 0dbd febb 0bbd ad33 a73d c4a2 873d
0.06719975 0.05740227 0.07348808 0.014743597 -0.013808634 -0.01610741 0.0059772683 -0.0010506739
0.14959848 -0.01249018 0.07157977 0.025223358 0.06409231 -0.03471514 -0.06931962 0.08616715
-0.11800607 -0.12363854 -0.04306014 -0.028384922 -0.022047224 -0.0068865097 0.041291334 -0.01818977
-0.112271816 0.089897856 -0.10462678 0.08792618 -0.042954978 -0.024477215 0.13145283 0.041091826
-0.035819773 0.05998204 0.081934735 0.072471604 -0.013304238 -0.08478933 0.07310136 0.1018146
0.10176983 -0.08777125 0.16974777 -0.013988371 -0.0053045666 0.038854364 -0.102369174 -0.08446276
0.11112216 -0.011918149 -0.10440078 0.016095417 0.0038400725 -0.11849042 -0.012811037 0.040338043
0.08227476 -0.14304534 0.08249298 0.020834984 -0.0059399856 -0.1667294 0.12274809 -0.077422485
0.12960468 0.08622614 -0.291575 -0.056141227 0.093314365 -0.05827037 0.02836054 0.043191105
-0.0739751 -0.031695955 0.025777085 0.026137803 0.032188598 -0.070748046 0.07747239 0.16902879
-0.038783062 0.19216934 0.008081788 -0.07965938 0.03955691 0.023840519 0.07286252 -0.023318054
0.07316053 0.107504636 0.09222706 0.0013219542 0.023631305 0.10211513 0.11014269 0.19662805
0.026994074 -0.043320682 0.06650586 0.022968933 0.015662417 -0.23440042 -0.019363979 0.11862393
0.15058607 -0.12648556 -0.15807973 0.039069787 -0.027501661 0.06547542 0.15348406 -0.1210194
0.022232877 -0.028755 -0.073854655 0.02576197 -0.01767344 0.008533048 -0.08121792 0.02968162
0.048068758 -0.023500562 -0.06290376 0.032658808 0.03467244 0.06757673 0.19657563 -0.033054445
0.027842471 0.15168907 -0.026256526 -0.045386333 0.08556444 0.04692258 0.05347086 -0.11071333
0.014689969 -0.12478972 -0.04814658 -0.027525604 0.013617621 -0.033260044 -0.101004735 -0.24671787
-0.12288053 -0.10260896 -0.068877935 0.007710531 -0.055366233 0.04838781 0.07570372 0.08690199
-0.082905605 0.019468253 0.08373249 0.012392041 0.024936916 -0.006475821 0.05790687 0.057087928
0.1134249 -0.017056638 -0.088606976 -0.22378215 -0.021148708 -0.029850561 -0.01214375 -0.116362855
0.15236607 -0.025002433 0.01855438 0.0713067 -0.10252587 -0.08238303 0.03349541 -0.017953865
-0.07525575 0.03890665 -0.06218875 -0.043550543 0.02766884 0.13685599 0.10503683 -0.19183734
0.16923837 -0.0033508446 -0.06257447 -0.061795857 0.06102777 -0.056723136 -0.031032452 -0.054394666
-0.11683375 -0.02657489 -0.025651403 0.022092357 0.059332505 0.059170745 -0.03980796 0.043832727
0.1014231 0.068167925 0.050845984 0.018157907 -0.050736442 0.06906891 -0.10342993 -0.09194096
0.045593265 0.035469435 -0.04296649 0.0154056 -0.010358462 0.049904108 0.09539744 0.10674969
0.07716172 -0.025335746 0.11053455 0.020616872 0.025365626 -0.051093254 0.012203405 -0.081256986
0.13047636 0.13262057 0.117687695 -0.040438227 0.0027524543 0.06652322 -0.012937881 0.071553335
0.021830872 -0.095411934 -0.20045795 0.10761717 0.016998531 -0.1272446 0.058912434 0.03782247
-0.17568341 -0.06289488 -0.00041829722 -0.012353003 0.03619181 -0.080512226 0.07409563 0.08772853
-0.012156425 0.03612444 -0.12836936 -0.08964087 -0.03453151 -0.03411483 0.08164153 0.06622842

lstm.weight_hh_l1 f4 [504, 126]
00000000: ec28 973d 5e1e 80bd b30c 953d fa6c 113d
00000010: f9c0 853d 6744 f4ba 40bd 49be 7a59 f0bd
00000020: 4d44 56bc bc5c 9c3d 6978 163d 767f b1bc
00000030: 15a4 0dbd 1f9c 76bd 5dfd 3bbe 67c7 8b3d
00000040: 8f77 6fbd 0e09 803d 37a5 e0bd 6dea 253d
00000050: 2d55 143e 630f 393e 4cc3 87bd aa46 6ebb
00000060: e27f 5f3d 1002 22bc 4834 04be 2efa 063d
00000070: f2c7 f5bb e190 983d b0f8 87bd fbea 9c3d
00000080: 354b 1bbd d63d 3c3e 4535 bb3d 77a4 f7bd
00000090: 41de 05be b94d b43d 88d8 0abd f502 a63c
000000a0: 44b5 3e3d 4657 f63b 2cac a6bc ec08 30be
000000b0: 789b e43d b4ca 31be 979d 503b 34d1 803d
000000c0: 7541 cabd 380b 603e f208 b53d a750 2a3d
000000d0: 5371 9fbd 45e5 b9bd 306d 4eba ea25 28bd
000000e0: 63f8 2dbd 50be 07bd 84e9 babd d874 363d
000000f0: 2b07 2c3c d9bc e6bd 4d23 913d 7e4e c83b
00000100: 93ea b83d e94e 2d3e cb3e 9e3c 81a6 26bc
00000110: 6223 bd3d 0634 16be e506 bcbd 970f 81bc
00000120: 7e5a 1b3d b15d 063e f121 0d3e 35e6 00bd
00000130: 2a87 6abc 856b 60bb e498 2fbd 8590 093e
00000140: 2685 123d 58f2 9abd ed64 38bc bd9c 01be
00000150: d940 45bd 6c29 9dbd a2d5 b43d 730f 033e
00000160: cd4d d93b 8d27 f13c c713 bf3d 7d29 4abd
00000170: 7b80 cdbd d47e 9c3c 1cc2 fa3c dc07 a33d
00000180: 33e3 27bc f842 583c bb30 2e3e 61cb 82bd
00000190: 669a 193b eda3 2cbc 2662 d53d b43a eabd
000001a0: a52c 013d cceb d9bd 1e9b ae3d 2d72 673e
000001b0: 205f 983d cbbf e13d afec a1bd 6733 943d
000001c0: df39 8dbd 5351 e7bd 12c2 2c3d 6162 0b3d
000001d0: 93c4 04bd f147 ee3c b46c b53c df69 05bd
000001e0: 59e3 0abe 0501 cabd 6333 e7bd ca64 14bd
000001f0: eb1c f63d ef9c 4dbc 295a 0f3e ba08 84bd
00000200: 0c65 853c 9f70 cdbd 7c90 0b3e f16d 18bd
00000210: 380c 04bd b412 14be 575c dd3d 7cdb f23d
00000220: 3c51 17be 614b bebd 6149 49bd ae77 683d
00000230: 1395 24be fc62 f73d a61e 07be d3c9 073d
00000240: 1053 a8bd 556c 0bbe 5768 303e 41c8 c63d
00000250: 0dbe 2b3e efaf a53c c63d 083d 9f20 d33d
00000260: ff97 0abd 2e79 a13c 5109 4f3d ca15 b2bc
00000270: 74ba 19be 086d 083e f3e5 4bbc 49c9 053e
00000280: 208f 1dbd 8371 a4bd 80a0 febd fc2d 803d
00000290: bb1f 8dbd 8dee cc3d d79e 2d3e 99f2 39bd
000002a0: 45a3 78bd be6b b0bd bc16 d63d 5234 63be
000002b0: 1cf9 24be 620b 853d a433 e8bd 1ee4 7d3d
000002c0: 7b9b e53c 148c 973d bdb0 f4bd af9b f1bd
000002d0: 94e8 53bd f035 783d 1c5e 86bd a3a4 283e
000002e0: 6481 b0bd 9198 433e f0ca c5ba 44f8 7bbd
000002f0: b4e1 a33d d176 e53d 1f5f 2a3d 8ff6 323a
00000300: 7e2e 333d d726 d13c 19b6 3e3d 2a06 30bb
00000310: 9e24 32be 516d 89bd 91fd 0dbd 0a19 313e
00000320: 7858 9b3d 07ea c93d 8abd 1d3c 78ca 413d
00000330: d1a7 d53d 0e27 ff3d b7fd cd3d 03d5 91bd
00000340: 48a9 453e 8d1a 51bc 1c5f 753d 1b83 c5bd
00000350: 7555 ed3c 644a 1c3e 96d2 6f3d 2a02 d73b
00000360: 03b6 90bd a986 d9bd 5b0e c3bc 38a4 e03d
00000370: eb7b ce3d f58d a33d 4f6b 64bd e3c4 67bd
00000380: 1a9a e73d d3ac 97bd aec2 913d f0aa 1ebd
00000390: 0933 853d 923c 26be c7e2 e5bc fbea 3ebe
000003a0: 0b68 823d 915d 9e3d af1b 533d 36b5 453e
000003b0: 0d27 9abd e137 ad3d 21be 8cbd affa a6bd
000003c0: fe94 12be 0466 373d d3a3 d53d 252f 8e3d
000003d0: e949 9f3d 332f 1ebe 5dd9 b3bd 0093 38be
000003e0: c06b d1bd 9b56 f7bd 0aa1 1c3e b4ac f23c
000003f0: 46e7 093d 2e1f e93d 68be 563e 5ef6 e6bd
0.07380852 -0.06255792 0.07277813 0.03550432 0.06530947 -0.0018636108 -0.197011 -0.11735816
-0.013077808 0.07634875 0.036735926 -0.021667223 -0.03458031 -0.060207482 -0.18358369 0.06825142
-0.05846363 0.06251727 -0.10969012 0.04050677 0.14485617 0.18072276 -0.06629047 -0.0036358037
0.054565318 -0.009888187 -0.12910569 0.032953434 -0.007500642 0.074495085 -0.0663923 0.076620065
-0.03791352 0.18382964 0.0914102 -0.12091916 -0.13073064 0.08803887 -0.033897907 0.020265082
0.046559587 0.007517728 -0.02034577 -0.17190903 0.11162466 -0.17362481 0.0031832212 0.06289902
-0.09875766 0.2187928 0.08839597 0.041580822 -0.07785287 -0.09076933 -0.00078745466 -0.041051783
-0.04247321 -0.03314048 -0.09126571 0.044545025 0.010499756 -0.112664886 0.07086811 0.0061128726
0.090291165 0.16924633 0.019317051 -0.010171534 0.09235264 -0.14668283 -0.091810025 -0.015754504
0.037928097 0.13121678 0.13782479 -0.031469543 -0.014314452 -0.0034243774 -0.042870417 0.13434036
0.03577151 -0.07565755 -0.011254531 -0.12657447 -0.048157547 -0.07673916 0.0882981 0.12798862
0.006631589 0.029437805 0.09329944 -0.049355973 -0.10034271 0.019103445 0.030610137 0.079604834
-0.01024704 0.01319956 0.17010777 -0.06386448 0.0023437976 -0.01053713 0.10419111 -0.11436978
0.031536717 -0.10640678 0.0852568 0.22602148 0.07440019 0.1102291 -0.07906472 0.07236367
-0.06895804 -0.11294808 0.042177267 0.03402937 -0.03241403 0.029087039 0.02214656 -0.03257167
-0.13563289 -0.09863476 -0.11289098 -0.036228932 0.120172344 -0.012549623 0.13999237 -0.06446977
0.016283534 -0.100312464 0.13629335 -0.037214223 -0.032238215 -0.1446026 0.10808628 0.118582696
-0.14777082 -0.09291721 -0.049142245 0.05675476 -0.16072492 0.12079427 -0.13195285 0.03315146
-0.08218968 -0.13615544 0.17227302 0.09706164 0.16771717 0.020225493 0.033262037 0.10308956
-0.03383636 0.019711103 0.050545994 -0.021738905 -0.15012532 0.13322842 -0.012444961 0.13065065
-0.038466573 -0.08029463 -0.12432957 0.06258771 -0.06890818 0.100064375 0.16955124 -0.045397375
-0.06070258 -0.086143 0.10453555 -0.22187927 -0.16110653 0.06496312 -0.11337975 0.061985128
0.02802824 0.07399765 -0.11947773 -0.117972724 -0.051735476 0.060598314 -0.06560919 0.16469054
-0.08618429 0.19101168 -0.0015090387 -0.06151606 0.08002034 0.11204303 0.04159462 0.0006826901
0.04374551 0.025531216 0.04656038 -0.0026859143 -0.17396781 -0.067103036 -0.034665648 0.17294708
0.075852334 0.0985909 0.009627709 0.04731223 0.10432399 0.12458621 0.10058158 -0.07120707
0.19302857 -0.012762678 0.059905156 -0.09644147 0.028971413 0.15262753 0.05855044 0.0065615373
-0.07065966 -0.106213875 -0.023810556 0.10968822 0.10082229 0.079860605 -0.0557664 -0.05658425
0.113086894 -0.074060105 0.0711721 -0.038737237 0.06503875 -0.16234043 -0.028062237 -0.18644325
0.06367501 0.0773269 0.051540073 0.19307408 -0.075269796 0.08457924 -0.06872202 -0.08153283
-0.14314649 0.044775024 0.104316376 0.06942586 0.07777769 -0.15447693 -0.08781693 -0.18024826
-0.1022563 -0.120770656 0.15295807 0.029623367 0.033667825 0.113829 0.20971072 -0.112774596

lstm.bias_ih_l1 f4 [504]
00000000: 687a 97bd c417 ffbc 564c 0f3e 8d67 3e3b
00000010: 4ea1 163d 77be 2a3d 1a46 d43d d8f4 fd3d
00000020: 5830 1f3e f525 7a3c a950 38bd 03d9 a83d
00000030: b01a 363b d84d 803d e586 a6bd ae64 66bd
00000040: d486 babd 95c2 ad3d 8573 1b3d fe78 91bc
00000050: c796 113e 70b1 81bd 3a11 403d ffa6 5ebd
00000060: 99ff 9cbd 4182 283e cdb0 18bd 37d6 3b3b
00000070: 13dc 2a3d db46 923d 6074 9c3d 5a0b 2bbc
00000080: 6364 13be a0e1 863e d7ef e03d 5e9b 90bd
00000090: b5ad 41bd 404b cdbd e73a 063d cecb 04bd
000000a0: a2d3 57bd ca6e 7c3d 3807 3abc b19e 07bd
000000b0: 5126 333e 55d0 6dbd 4217 273e 0a58 fd3b
000000c0: f441 0a3d 8f49 cb3d 402f b8b8 e070 083d
000000d0: 665b 273d 81b8 4c3e 50cb 0a3e ba13 29bd
000000e0: dbf0 bf3d 051d 0e3e 1f03 d43e 4449 f73d
000000f0: b771 34bd 635d 8abc 0dcb ec3d eb3a 743b
00000100: 7ed5 f73d 7c9f 9abd 7b58 01be 1667 cf3d
00000110: f63f 093e a27a 15bd 3417 6fbd 4b78 d3bd
00000120: 5b46 24be a8fc cdbd 7dd2 fd3d d393 8b3d
00000130: 707a 7a3e 528a 633d 282a c7bc 43b2 843d
00000140: fd59 82bd be00 543e bb3b 0cbd 9a2c a6bd
00000150: b061 0b3d e46b b63c 6973 b03d 0b62 53bc
00000160: 0fb2 4dbd 9790 f13c fee5 32be 8b49 013d
00000170: f8fe 0e3e 4555 4d3e c705 503d 1b18 d2bb
00000180: 513a c2bd 25d4 053c 5dd8 6f3c b3a7 26bd
00000190: af3d 383d c1be 1a3c ed4e e43d c7af 323d
000001a0: 54fd 553d e935 803d 01be 223e 5466 7b3d
000001b0: e690 b33d 1aa2 423d 22d3 f5bd cad1 54bd
000001c0: 7974 e2bd 0f48 a73d 9b3e 303e dc8f 263e
000001d0: fe33 cf3c fe38 00bb 4bd5 c03c 8c4a bfba
000001e0: f544 ba3d 87dc 823d 22f6 fa3c 8063 123e
000001f0: 25d3 f03d 0439 f9bd 50b0 3a3d 1793 5a3d
00000200: f88f b93d e350 a03d 23ba 593d 5d1f 9d3d
00000210: 2712 263b 9735 52bd a10d f63d 470b fbbb
00000220: 8462 7c3d 6a1b 8c3b 67f2 023e 1a4e 98bc
00000230: 3377 243d c15a 893d 115d e63d 959a 0ebc
00000240: 001c e93d 0bed 183e a959 8cba c591 583e
00000250: 9139 a6bc 78bd 7c3d 73aa af3c 44f7 debc
00000260: 8fec 763c d795 17be c6da b8bb 16ec dc3d
00000270: 7535 263d 9f2f f4bd 1fcd afbb 024f 84bd
00000280: d50c 80bd 00af 82bd b5e3 abbc 53dd 36bc
00000290: e41e 293d 3503 813e a94b 92bd a645 c63d
000002a0: 0003 e6bd 3bf6 483d 728c 873e c8ef a93d
000002b0: ab64 343e 45b1 40bd ecc9 19bd d869 b53d
000002c0: 560e f33d 0c13 e03d 8e7a 163e c847 26bd
000002d0: e287 c2bc 1dab d03c 28b2 373d 6d3d c5bb
000002e0: 2828 cb3e 7b6f 03be 61ce 8f3d 4fe4 dc3d
000002f0: 0c1f 09bc 1331 cebc ab28 ec3d 9c7a ae3d
00000300: b1ad 883c b571 453c 53bc 8c3d 47f8 303d
00000310: 4610 273c 2c1c 10be 876f febd 69a4 993e
00000320: d783 c1bb db9c 7b3d 2da5 843d cbd1 383e
00000330: 0fd6 24bd e844 2d3d 3806 823d 2842 173e
00000340: a1e1 5e3c d52c 4e3c fab1 e0bc 22a6 51bd
00000350: 4621 1d3d 06c7 debc d085 223d d366 b53d
00000360: b9c0 3c3d 4d04 cb3d 6908 673c a517 123d
00000370: c243 c23d 4a9a 153e 4ad9 b93d 3230 293e
00000380: 6262 223d a2b0 5dbd f09e 083d c1ab 3fbe
00000390: 1ab9 253e 9790 023e 5f28 b9bc 4746 3c3e
000003a0: a6e9 973d 2cd5 503c fc3c 533e 996d 8f3e
000003b0: 47a2 273e 69d2 573e 9d86 e03d b309 81bc
000003c0: 6621 8d3d 75b3 1e3d 8dcc 2b3d 3a28 993c
000003d0: b0ca 363d dda5 3b3d fe94 f43d 7b5f 973d
000003e0: 0450 cc3d 2a0e b73d 6e9b 213e eafa d43c
000003f0: 7131 4e3d 93f6 36be ee89 b33d 8f16 e7bc
-0.07396394 -0.031139262 0.13993964 0.002905342 0.036774926 0.041685548 0.10364933 0.12400216
0.15545785 0.015267839 -0.0449988 0.08244517 0.0027786903 0.062648475 -0.08131198 -0.05624836
-0.09107748 0.08484379 0.037951965 -0.017757889 0.14217673 -0.06332672 0.04689143 -0.05435848
-0.07665939 0.16455938 -0.037277985 0.0028661618 0.041713785 0.07142421 0.07639384 -0.010439718
-0.14393763 0.26344013 0.10983246 -0.07060884 -0.0472848 -0.100241184 0.032771017 -0.032420926
-0.052692063 0.061629094 -0.01135426 -0.033110324 0.17495085 -0.05806001 0.16317466 0.0077314423
0.033754304 0.099261396 -8.782605e-05 0.03331077 0.04085865 0.19992258 0.1355412 -0.04127858
0.093721114 0.13878258 0.4140863 0.12074521 -0.04405376 -0.016890233 0.11562166 0.0037266563
0.12101267 -0.075499505 -0.12631409 0.10127084 0.13403305 -0.036493905 -0.058371738 -0.103256784
-0.16042463 -0.10057956 0.12393663 0.068153046 0.24460769 0.055551834 -0.024312094 0.06479313
-0.0636482 0.20703408 -0.03423665 -0.08113976 0.03402871 0.022268243 0.08615763 -0.012901793
-0.050218638 0.029487891 -0.17470548 0.031564277 0.1396445 0.20052059 0.05078676 -0.006411565
-0.09483779 0.008168255 0.014638987 -0.040687274 0.0449807 0.009444893 0.111478664 0.043624666
0.052243546 0.062602825 0.15892793 0.061376885 0.087678716 0.047517873 -0.12003161 -0.051957883
-0.11057372 0.08168041 0.17211382 0.16265815 0.025293346 -0.001956522 0.023539206 -0.001459436
0.09095184 0.063897185 0.030634943 0.14295769 0.117590226 -0.12169078 0.0455783 0.053362932
0.09060663 0.07827928 0.05315603 0.07671998 0.002534041 -0.05132064 0.12014318 -0.0076612565
0.06161739 0.004275729 0.12787782 -0.01859193 0.04015274 0.06706763 0.1124822 -0.008703847
0.11382294 0.14934175 -0.0010707873 0.21149357 -0.020291122 0.06170413 0.021443581 -0.027217515
0.015071048 -0.14803253 -0.005641314 0.10787217 0.040578324 -0.119231455 -0.0053650285 -0.06460382
-0.062524475 -0.06381035 -0.020982603 -0.011161166 0.041289225 0.2519776 -0.07143337 0.09681253
-0.11231041 0.04906295 0.2647434 0.08297688 0.17616527 -0.047044057 -0.037546083 0.08858079
0.11867969 0.10941133 0.14695188 -0.0405958 -0.023746435 0.025472218 0.044847637 -0.0060192854
0.39679074 -0.12835495 0.070217855 0.10785734 -0.008369219 -0.025169885 0.11531194 0.0851948
0.016684385 0.012051036 0.068718575 0.043205526 0.010196751 -0.14073247 -0.12423616 0.30008247
-0.005905609 0.061428886 0.06476817 0.1804878 -0.040243205 0.042302042 0.063488424 0.1477133
0.013603599 0.012583931 -0.027428616 -0.051183827 0.03836181 -0.027194511 0.039678395 0.08857503
0.046082232 0.0991293 0.014101126 0.03566708 0.0948558 0.14609638 0.09074648 0.16522291
0.039644606 -0.05412353 0.0333547 -0.18717863 0.16183892 0.12750469 -0.022602258 0.18386184
0.07417612 0.012746137 0.20628732 0.28013304 0.16370498 0.21076359 0.109631754 -0.015751695
0.06891136 0.038745362 0.04194312 0.01869594 0.04462689 0.045812476 0.119424805 0.07391258
0.09976199 0.089382485 0.15781948 0.025998551 0.05034012 -0.17867498 0.087665424 -0.028208999

lstm.bias_hh_l1 f4 [504]
00000000: 28b2 5938 cb43 133c 0319 d83d 0069 963d
00000010: 1048 363e 43d9 f33c d0bb c93d aecf 453d
00000020: fcfa e53d 8dd6 5a3d 5775 ea3c e869 8a3b
00000030: 70ef 21bc 989d 823d 524a afbc 80bf 9e3d
00000040: 3482 cfbd 0282 9a3d 02dd 013e 698a 1bbd
00000050: 7789 ae3d a57f c9bc 46e5 be3c 856f f6bc
00000060: 457b 0c3c 6205 083e 28e4 a5bd 3cbf 0dbd
00000070: 50d7 423b 7350 dc3d b3cd 043c 553b 813b
00000080: cbcf 05be baaa 803e 4995 393d c2f5 203d
00000090: 7222 173d 7e80 0dbe dce7 8d3d 54f8 163d
000000a0: 9f5f 82bd cc13 f33d da6e 8a3d b21b e5ba
000000b0: 078d 3c3e 5523 913d ffbe be3d 4736 f13d
000000c0: f96f 95bd bbcd 0d3e 2a2a 04be af60 393e
000000d0: 4f5b 4a3d c58e 243e 887d 033e 289e 48bd
000000e0: c99f c43d 031b fd3d 0c76 8d3e aec2 2d3e
000000f0: 5bff 6b3d 33d0 db3d bd17 d23d 1388 87bd
00000100: 28c7 d63d 8675 973d 12aa adbd 6cf3 a93d
00000110: df9c b53d 2eff 93bd 51fd 87bb 3f71 f3bd
00000120: 588f b0bd 1445 d0bd 196f d03d d707 d93b
00000130: d705 863e 4c99 493e 96fa 81bd 9998 4d3d
00000140: 2395 aebd 189b 0a3e 67e5 0cbd 1922 5fbd
00000150: fcc3 db3d ba4a ed3d c397 36bd c81e 1bbd
00000160: 0739 b6bd f3f6 783c d0e3 c7bd f19f c9bd
00000170: 41c0 af3c 7d5f c43d cf17 c4bd bacb f13d
00000180: 0307 423d d3a5 953d a141 e9bd 1c12 e2bc
00000190: 8c6a 2d3d 040d 6a3d 1a22 503d 7684 e83d
000001a0: c461 87bc e905 be3d 82ea 953d fec8 423e
000001b0: e06e d13d 88f7 f93d 82cf f4bd 8ca9 0bbd
000001c0: 1ca8 b4bd 1eaa 9b3c 04f4 003e 3a29 0f3e
000001d0: 59dd b13c d225 ed3d f7e9 39bc cbd9 bb3d
000001e0: a90a b53d fbd4 86bb 9db9 6d3c 8acb ae3d
000001f0: 79b4 153e 2e59 4c3d 67d2 843d 4481 fdbc
00000200: b52f fd3c 1326 753d 697f 1a3e 406d e13d
00000210: bd61 da3d 84b9 603c a8ec d33d 3eac 543c
00000220: e245 2cbc a628 963d 8265 f53d 40ef 18bd
00000230: d490 a93d 10e5 453c 0307 e23d 4d57 8b3d
00000240: f150 0c3e a628 563e 4844 c13d c2b3 2f3d
00000250: 3b9a 123c c954 f33d 31dd b2bc 8d82 573d
00000260: a3e8 21bc 6139 53bd d101 863d 43b7 4a3e
00000270: 79d1 2d3e b19b bd3c a9c0 813c 09dc 493c
00000280: d393 85bd 266b e23c f707 063e 4533 9e3d
00000290: 3c6b 183d 3696 9c3e ba8f 29be 8068 3c3e
000002a0: eb3f 84bd 1849 c43d 3f8f 7c3e 9c76 933d
000002b0: 8766 0d3e 56cc b5ba fe96 acbd 1f37 813d
000002c0: b413 d8bc de05 de3d c2e4 be3d 4c01 423d
000002d0: 0099 62bc 159e bf3c cd32 103e 71ae 09bd
000002e0: d425 bb3e 4fde cfbd 333c 6cba fd44 8a3d
000002f0: d281 49bc 5b6c c33d 86a2 1c3e 5831 0b3d
00000300: c31c 5fbc d117 f43d 6973 ee3c 0d4c cfbb
00000310: 413d 093d ac69 15be 408e 08be 4b37 1a3e
00000320: f915 243b fcd8 003e a8d7 763d 282c 123e
00000330: 8eae 20be 3e46 e03d 5c25 b93b 361b 4e3e
00000340: 731a 023d 6439 f43d 16e1 f13c bd9c 07bc
00000350: 6e99 26bd aa48 923d cfc9 b53d 1b93 6c3d
00000360: 7870 2b3d 4e64 353c caf9 fe3d 32c3 0e3d
00000370: deea 723c f6e8 0f3e 515c 803d f5e8 173e
00000380: 4fbd aa3d 4f4b 20bd e9b9 c83d 4f4a 28be
00000390: d6d7 753d 66bc c83d 3d51 3c3c 716b f53d
000003a0: 81cd 19bd 0489 1d3e 10f0 683d bfa9 9f3e
000003b0: 61a4 ff3d d6cb 313e c1ed 0cbd 4ac7 713d
000003c0: 1da2 d93d 35f0 b5bc 6746 d33c d5f6 543d
000003d0: 6099 3dbd 614c 4bbc ee8d fa3d 5df3 023e
000003e0: 6b04 393d 2b73 523d a995 d13d 0835 c63d
000003f0: 0a14 f63d d44a ddbd 7c20 c83c f60e 15be
5.1902753e-05 0.008988331 0.105516456 0.07344246 0.17800927 0.029766684 0.098502755 0.048293762
0.11229512 0.053427268 0.028620405 0.004224051 -0.0098837465 0.06377715 -0.021397743 0.077513695
-0.10132256 0.07544328 0.12681964 -0.037973795 0.08522313 -0.024596998 0.023302685 -0.030082474
0.008574312 0.13283303 -0.08100158 -0.034606203 0.0029730387 0.10757532 0.008105683 0.0039438405
-0.13067548 0.25130254 0.045308385 0.039296873 0.036898084 -0.13818547 0.06928989 0.036857918
-0.063658945 0.1186901 0.067594245 -0.0017479567 0.18413173 0.07086817 0.09313773 0.11777931
-0.07296748 0.13848011 -0.1290671 0.18103288 0.049403485 0.16070087 0.12840855 -0.048978955
0.09600789 0.12358668 0.27629125 0.16968796 0.057616573 0.1073307 0.10258434 -0.06617751
0.10487205 0.07395463 -0.08479704 0.08298382 0.088678114 -0.07226406 -0.0041500707 -0.11886834
-0.08621091 -0.101694256 0.1017744 0.006623249 0.2617633 0.19687384 -0.063466236 0.050194357
-0.08524539 0.13535726 -0.034398463 -0.054475877 0.107307404 0.115865186 -0.044578325 -0.037871152
-0.08897596 0.015195596 -0.09760249 -0.098449595 0.021453978 0.095885254 -0.09574854 0.11806436
0.04736997 0.07307019 -0.11389471 -0.027596526 0.04233794 0.05714132 0.05081377 0.1135339
-0.01652611 0.09278471 0.073201194 0.19021985 0.10226226 0.12205416 -0.119536415 -0.03409724
-0.08821127 0.019002017 0.12593085 0.1398057 0.021711992 0.11579479 -0.0113472855 0.091724
0.08839924 -0.0041147447 0.014509586 0.08534916 0.14619626 0.049889736 0.064854436 -0.030945428
0.030906538 0.059850764 0.15087666 0.11007166 0.10663173 0.013716105 0.10347873 0.012980519
-0.010514708 0.07331972 0.11982252 -0.03733754 0.08279577 0.012078539 0.11036494 0.06803761
0.13702752 0.20913944 0.09436852 0.04289604 0.008947904 0.11881406 -0.021833988 0.052614737
-0.009882125 -0.051568393 0.06543315 0.19796471 0.16974439 0.023145529 0.015838938 0.012320527
-0.06522336 0.027638983 0.13088976 0.07724623 0.03721164 0.30583352 -0.16558734 0.18399239
-0.06457504 0.09584254 0.24664019 0.07200357 0.13808642 -0.0013870101 -0.08427237 0.06309342
-0.026376583 0.10840963 0.09320976 0.047364518 -0.013830423 0.02339081 0.14081879 -0.033613626
0.36552298 -0.10149824 -0.0009011656 0.0675144 -0.012299018 0.095421515 0.15296373 0.033982605
-0.013617697 0.11918605 0.029107766 -0.0063262046 0.033505682 -0.14591092 -0.13335514 0.15060155
0.002503751 0.12582773 0.06026426 0.14274657 -0.15691587 0.10950898 0.0056502055 0.20127568
0.031763505 0.11925009 0.029526275 -0.008277115 -0.040673666 0.07142766 0.088763826 0.05775748
0.041855305 0.011071278 0.12449987 0.03485412 0.0148265045 0.14053711 0.06267608 0.1483496
0.08336889 -0.03913432 0.098010845 -0.16434596 0.06002029 0.09801559 0.011493978 0.119833834
-0.0375495 0.15384299 0.056869566 0.31184193 0.12482525 0.17362913 -0.034406427 0.059027947
0.10626624 -0.022209266 0.025790406 0.05199321 -0.046288848 -0.012408347 0.12234102 0.12788148
0.04517023 0.051379364 0.102336235 0.09678084 0.12015541 -0.10805288 0.024429552 -0.14556488
