models/lstm_trial_3.pth (torch, 471166 bytes, 9 tensors)

lstm.weight_ih_l0 f4 [364, 44]
00000000: 3e86 813d 9afd d0bd 4091 25bb ed8e 9f3e
00000010: ba8d 2bbe 4c8e 72be 0dc3 03be bcd6 ebbc
00000020: 01c1 983b 5c52 84be 1f23 ed3d 248b 3f3e
00000030: 1c50 83be 3944 c1bd 4de4 6dbe 99b3 66bd
00000040: 1038 813e c333 57bd fc18 b63d 05d5 b33d
00000050: cb81 fabd 1f15 8bbd 8fab 683e 62b2 8cbe
00000060: 74fb 7a3e e4d2 98bc d044 95bb f541 a1bd
00000070: bf19 53bc e0d4 a23d 6cee 973d 9ca5 413c
00000080: b17f 23be 5d8e 093e cdcc 21be 131c 05be
00000090: be1e 6abd e672 83bd c50f e3bd 70ba 6b3e
000000a0: 7f88 2b3e c31c 123d 3735 e4be 5660 133e
000000b0: 5607 3e3e b7b0 1c3d 313e bebd dad7 963c
000000c0: 8f91 8bbd 4e05 ed3d b8fa 34be 0df8 713e
000000d0: 784e 2ebe 13e6 fdbc 5974 c0bc 5a4a d63d
000000e0: 4725 f83d c8ae 803e 5694 153d bc9b 983c
000000f0: 407d 0e3d 2ed3 c33c 28df 013e 87ac bbbd
00000100: 2b9a a33d 6b46 d9bc b605 a13d e386 833d
00000110: c5ea 93bd 559a d8bd 9818 b3bd 6b86 123e
00000120: 21d5 873e 2cc7 62bd ddb4 3cb9 10b0 5ebe
00000130: d684 c0bb 6e1d de3a 4b8d a83d e172 bb3b
00000140: 7398 16bd 0215 c43c 898e 59be db60 75bb
00000150: 6d55 c13d a1f9 833d c2e9 1a3d 5698 9ebd
00000160: 9420 593d 6a9d f3bd 33a3 03be cd53 8d3e
00000170: f19a 94bc 0126 9abd 08a4 ccbd 3806 2e3e
00000180: 7fe9 19be 5673 b23d f338 993d 379b 8d3c
00000190: 7628 66bd 3a6c a4bd efcf 38bd 86e9 033e
000001a0: 21cf 17bd 36ad 1a3e 76d2 fc3d 3592 72bd
000001b0: 57ee cebd c31b b13d dea2 1e3e c9c8 ab3d
000001c0: a9eb 9ebd 0964 84bb 6afa 63bd e11b 0f3e
000001d0: f09a af3d df0f 283d e7d1 993d ffb2 e23d
000001e0: 010e 98bd 1e0c 52bd 685d dabc c0fe 0a3e
000001f0: 895b e53d 11ce 203d c971 123d b06a 56be
00000200: 8cbf f1bd e7b2 723d b7d3 0c3b f849 5cbe
00000210: 492d e8bd 5b09 8c3d 7742 f2bc 3c46 62bc
00000220: a292 54be 454b 39bc 0e3d 51bd 3969 f6bd
00000230: ed6e 2e3e 5699 263c fa53 c43d 44d3 dcbd
00000240: ee12 653d b4dc 053e 35e1 58bd 8109 5cbd
00000250: 67d4 9cbd b6f1 033e 824d 253e 6631 18bc
00000260: b5f8 27bd 2a44 23be e842 aabd f205 b23d
00000270: 656c c8bc fed8 44be 6eb9 473d 6edb 00be
00000280: 42e3 3c3d e06d d0bd ef05 0bbd c349 2ebe
00000290: 0a82 0b3e c4ec edbd f773 adbd d7e1 d8bd
000002a0: 043c c7bc 2f71 163e eab3 903e 0096 733c
000002b0: 1603 61bd b424 043e 9e71 c63c 6721 9ebe
000002c0: e35f 673d c1a9 8d3c 47a2 f03c 8dfb 8c3d
000002d0: d10f d6bd 6d8a 2d3d ba99 e63d 34e4 a43d
000002e0: 7b06 7e3c fb91 7fbd 3ee0 79bc 66e8 303d
000002f0: 453e dc3c bce4 bebd 5ea4 d73d f011 13bd
00000300: fac4 003d a576 d23c ea52 eabc 6139 3cbd
00000310: 4056 323e 684a 0a3d b4f9 003e 282a c9bd
00000320: 6b6a 39bc cc24 32bc 5dc2 9dbd d927 d03d
00000330: d481 e4bc e92c 0f3e e560 633d 3027 73bd
00000340: 89c0 18bd 7efd c3bd 909c 9b3d a249 15be
00000350: c756 ac3d 2da7 733c 9dee 9d3d ef3f 8bbe
00000360: 8222 5abe 3dc1 04be f3db 153d e72b 37be
00000370: 8a38 63be 727b f3ba 3d4c 323d 7692 7cbd
00000380: e5fa c1bd 41e7 5fbb d2c3 103e 0d07 09be
00000390: ccb1 17be 524c 703e 0e38 4a3e 0edf 313d
000003a0: a5cd e93d 2aed 153e ecf8 41bd 15a8 88be
000003b0: e118 ecbd a4f7 94be 69e9 fbbd 4eef 563c
000003c0: ea67 ee3c 096f 43be 3082 a1bd 40e7 00bc
000003d0: e312 683d e6b1 023d 09b1 94bd 2442 0e3e
000003e0: c189 e9bc 7bd6 873d cc5d d6bc 1bf0 ec3d
000003f0: e754 47bd 75fc b63d 9ff6 c9bb 6b73 8fbe
0.06324433 -0.10204621 -0.0025263578 0.3116373 -0.16753283 -0.23687094 -0.12867375 -0.028788917
0.0046616797 -0.25844085 0.115789644 0.18705422 -0.25647056 -0.094368406 -0.23231621 -0.05632362
0.25238085 -0.0525396 0.08891484 0.087808646 -0.12231787 -0.06791138 0.22721694 -0.27479845
0.24509984 -0.018655248 -0.004555322 -0.078739084 -0.012884556 0.07950759 0.07418522 0.0118192695
-0.15966679 0.13433214 -0.15800782 -0.1299899 -0.057158224 -0.064183995 -0.11086992 0.23020339
0.16751288 0.03567196 -0.4457185 0.14392218 0.18557486 0.038254466 -0.09289206 0.018413473
-0.068148725 0.115732774 -0.17673767 0.2362978 -0.17022121 -0.030993497 -0.023492979 0.104634
0.12116485 0.25133348 0.036518417 0.018628947 0.034787416 0.02390441 0.12682784 -0.09163766
0.079883896 -0.026522836 0.078624174 0.06422212 -0.07222513 -0.105763115 -0.08744925 0.14309089
0.26529792 -0.055365726 -0.00017996454 -0.2174685 -0.0058752103 0.0016946027 0.082300745 0.0057204817
-0.03676648 0.023935799 -0.21245779 -0.0037441764 0.09440122 0.06444097 0.037820585 -0.077438995
0.053009585 -0.11895259 -0.12855224 0.27602997 -0.018140288 -0.0752678 -0.09992224 0.1699456
-0.15030478 0.08713405 0.07481565 0.017285926 -0.05619093 -0.08028455 -0.045120176 0.12882051
-0.037062768 0.15105137 0.1234483 -0.059221465 -0.101040535 0.08647873 0.15491816 0.08387906
-0.07759792 -0.0040402454 -0.055658735 0.13975479 0.08574474 0.04103076 0.07510739 0.11069297
-0.07424546 -0.051281087 -0.026655868 0.13573742 0.111990996 0.03925902 0.035753045 -0.20939136
-0.11804113 0.059252646 0.0021488497 -0.21512592 -0.113367625 0.06837722 -0.029572709 -0.0138106905
-0.20759061 -0.01130945 -0.051083617 -0.120317884 0.17034502 0.010168394 0.0958633 -0.10782483
0.055926256 0.13072473 -0.05294915 -0.05372 -0.076577 0.12885174 0.16142848 -0.009289121
-0.04100867 -0.15943971 -0.083135426 0.0869254 -0.024465749 -0.19223401 0.048760824 -0.12583706
0.046115167 -0.10177207 -0.033941206 -0.17020325 0.13623825 -0.11617425 -0.08469384 -0.105899505
-0.02432061 0.14691614 0.28262264 0.014867306 -0.054934584 0.12904626 0.024224099 -0.3088486
0.05648793 0.017292859 0.029374255 0.06883917 -0.104522355 0.04236834 0.1125979 0.08051339
0.015504475 -0.062395077 -0.015251217 0.043190382 0.026885161 -0.09320971 0.105293974 -0.03590578
0.03143785 0.02569134 -0.02860399 -0.04595316 0.17415714 0.033762366 0.12595254 -0.09822494
-0.011316876 -0.010873031 -0.077030875 0.1016385 -0.027893938 0.13981976 0.055512328 -0.059363544
-0.03729299 -0.09569834 0.07598221 -0.1457887 0.08414989 0.014871401 0.077115275 -0.27197215
-0.21302226 -0.1296434 0.036586713 -0.17887841 -0.22189537 -0.0018576218 0.043529738 -0.061663114
-0.094716825 -0.0034164938 0.141372 -0.13381596 -0.14813918 0.23466614 0.19747946 0.043425612
0.11416177 0.14641252 -0.04735653 -0.26690736 -0.11528183 -0.29095185 -0.12300379 0.013118578
0.029102284 -0.19085325 -0.078861594 -0.007867634 0.056658637 0.03190794 -0.07260329 0.13892418
-0.028508069 0.06632706 -0.026167773 0.11569234 -0.048664954 0.08934871 -0.0061634327 -0.28017744

lstm.weight_hh_l0 f4 [364, 91]
00000000: dab6 48bd 1b96 653e 00a9 4b3e df50 113e
00000010: ad68 f73c 30bd 8dbe b819 63be 0cc3 cd3b
00000020: 7eb9 973e 8878 533e 3892 763e 4824 2abe
00000030: 0624 80be 1048 a2be c416 713e 0f0b 06be
00000040: 258b 0ebe b954 06be dd8a 91bd 61ce f73d
00000050: c029 a53c 5e20 8d3d 52d5 9cbe 5c17 8cbd
00000060: 7e29 cebd b858 0fbe 2c9d 8d3d 5245 993e
00000070: e9a9 323e 2799 05bd 8cd2 52be 9d95 9c3e
00000080: 185b 21be 7f8d 403b caee 03be 8fb2 96be
00000090: f830 643e 890c 2a3e d572 9ebd c9a7 81be
000000a0: bc7d dc3d 9d4b f6bd beb6 313e bc2d 1f3e
000000b0: c155 823d 0942 273e 73de 76be a786 92bd
000000c0: 9fa8 f4bd 2b17 923e cf82 4a3c b9a7 723e
000000d0: efb9 40be 4281 02be f58d 3fbe 578c 2abe
000000e0: b368 94be f52a debd f01d c23d a43b 33be
000000f0: d2d1 b53d 1c42 7c3d c2f3 0b3e 996e 3fbe
00000100: 2c38 c33d 412f 8ebd 1b62 a6be be69 5d3e
00000110: 9eb7 01be 6601 643b e9d2 b6bd be7e a2bd
00000120: ce60 b73d 8b83 a03d d2cb 03be 1586 f5bb
00000130: a29c 413e 8c35 cd3d 457f 013e 75b1 783e
00000140: c285 19bd 09c4 b8bd 9795 b1bd 7e4b e33c
00000150: 8365 8cbd 6dff 153e b59c 56be 609d f03d
00000160: 3ec9 7dbe 00f4 75bd 72f1 f6bd 6325 f93b
00000170: 885a d6bd 4e00 00bd 32db ba3d 3b49 22be
00000180: c816 d13d 56bc 2fbd 4e84 903d 118a c63c
00000190: 4d60 b1be f612 1e3e 5a05 223e b515 c8bd
000001a0: 602f 8ebe fbc9 e83b 803c 653c 963e 48bd
000001b0: ab37 333d 585c 80be 87c2 82be 10e3 31be
000001c0: d7e0 73be c8e9 b4b9 f3d8 cebd 4a2f bc3d
000001d0: 3c44 b1bd 24f2 40bb ab49 893d b16c f63d
000001e0: cc95 ccbd a6de cebd e87e b639 9c6e d23d
000001f0: 2035 743d 77bc db3c 2536 613d 64b5 413c
00000200: ec97 94bc 12d1 58be b3a0 b33c 183e a2b9
00000210: aba3 d4bd 0da8 283e e2f1 1f3c 3686 763d
00000220: d7dd 273d c33e c73d ca9a 733e 6824 b23d
00000230: 9455 943d adcb f53d 468c 35be a639 d5bc
00000240: 4b63 9abd 71ba e1bd 8a6e 6c3c d509 aabd
00000250: 29a9 20be 625f 52be 47a2 ad3c 9c22 a8bd
00000260: e070 213e c66a 3fbe e2f7 d1bd 94dd 1f3e
00000270: 359b 19be 69bc 1c3d fc7d 81bd 3c89 fe3d
00000280: dedd 283d f858 db3c 8f99 0bbd cd8a 583d
00000290: 8ff5 8a3d 2739 663d a1f2 24be 4f0e 6d3d
000002a0: b5ac d23d 4798 ab3b 2d43 813d ae29 f1bb
000002b0: b148 8f3d 5f5b 913c d555 01be 72dd 29bb
000002c0: 185c 993c 37e1 85bc 3c2c 763d 8e40 c5bc
000002d0: 50b9 46bd 9ed1 bcbd fedd 66bb 3ffc 3bbd
000002e0: cb97 80b9 9233 cabc f858 cdbd be87 ae3d
000002f0: d44b 583d 4a38 1c3c a467 b9bd d4cb d6bd
00000300: 19f1 30be e2d3 3cbd 1977 aa3b e72c c53d
00000310: bae0 54bc a9cf b43d 344e df3d 2f92 cebc
00000320: b75e 9b3c 9a5a a6bd 2d54 723d 3690 1cbe
00000330: b7bf 45bc 2c3f 693d 7db2 823d 5413 943b
00000340: 064c 19bd 067b 513d 7a37 eebd 2030 1abd
00000350: baa9 84bd f789 d7bc bcef 113e e94b 9b3d
00000360: 5199 e7bd 1ae5 2a3c 0246 00be 394d 2ebe
00000370: 8f05 343d 915a 89bc d7cb e2bc a906 c4bd
00000380: d047 bcbc ff96 98bd 5c12 67bc 33d2 0cbe
00000390: cb59 8c3d 3c10 023d a16b 273e 5fbb 40bd
000003a0: 86ce 0f3b ae22 28be 1fb1 d53c d6fe 1d3d
000003b0: 7acb 05bb 1eaa 5ebd 55ee 113d e89b d6bd
000003c0: e095 70bd 5a50 463e 4d5d 63bb 7b9c 35be
000003d0: a08e 36be 5f71 40bd 7e75 b0bd 4d1d 83bd
000003e0: 08bc 083e f504 67be d08a 5b3e 08f1 b5ba
000003f0: 9154 3f3e c782 e9bd d847 b8bd 2f83 5a3d
-0.049002506 0.22420542 0.19888687 0.14191006 0.03020128 -0.276834 -0.2217778 0.006279355
0.29633707 0.20651448 0.24079216 -0.16615403 -0.25027484 -0.31695604 0.2354384 -0.13090156
-0.13920267 -0.13118257 -0.07106564 0.120999105 0.02016151 0.06890939 -0.306315 -0.06840393
-0.10066508 -0.13998687 0.06914744 0.299357 0.17447628 -0.03261676 -0.2058813 0.30582896
-0.15757406 0.0029381213 -0.1288406 -0.29433104 0.22284305 0.16606344 -0.07736746 -0.25323322
0.107661694 -0.12026141 0.17354867 0.1554479 0.063640125 0.16333784 -0.24108295 -0.07154589
-0.119462244 0.285333 0.012360289 0.23696794 -0.18820928 -0.1274462 -0.18706496 -0.16655098
-0.2898613 -0.10848037 0.094783664 -0.1750322 0.08877911 0.061586484 0.13667205 -0.18694533
0.09532198 -0.06942607 -0.32496724 0.21622369 -0.126677 0.0034790873 -0.08926947 -0.079343304
0.08954011 0.0783759 -0.1287072 -0.0074927905 0.18907407 0.10019979 0.12646206 0.24286444
-0.037481077 -0.09021766 -0.0867111 0.027745958 -0.06855299 0.14648218 -0.20958216 0.11748767
-0.24783799 -0.06004715 -0.12057771 0.007603334 -0.10466486 -0.03125029 0.091238394 -0.15848248
0.10209423 -0.04290422 0.07056485 0.024235757 -0.34643784 0.1543692 0.15822354 -0.09769765
-0.2777052 0.007104156 0.013991475 -0.04888781 0.04375426 -0.25070453 -0.25539038 -0.17371774
-0.23816238 -0.00034506456 -0.100999735 0.09188707 -0.08655593 -0.0029441202 0.06703504 0.1203245
-0.09989509 -0.101010606 0.00034808298 0.10275003 0.059620976 0.026823265 0.054983277 0.011823032
-0.018138848 -0.21173504 0.021927213 -0.0003094531 -0.1038278 0.16470356 0.009762259 0.060186587
0.040983047 0.09728768 0.23789516 0.0869835 0.07242885 0.12001739 -0.17729291 -0.026028465
-0.0753847 -0.11021889 0.014430651 -0.083026566 -0.1568953 -0.20544198 0.021195544 -0.08209726
0.15765715 -0.18693075 -0.10252358 0.15611869 -0.15000613 0.03826562 -0.06322858 0.12428519
0.041227214 0.026775822 -0.03408199 0.052866746 0.06785118 0.05620685 -0.1610818 0.057874974
0.102868475 0.0052366587 0.06311641 -0.007359705 0.06996287 0.017743764 -0.12630399 -0.0025919345
0.018720672 -0.016342742 0.06010078 -0.024078634 -0.04851657 -0.09219669 -0.0035227532 -0.045894857
-0.00024527157 -0.024682794 -0.10026735 0.085219845 0.05280669 0.009534905 -0.09052971 -0.10488096
-0.17279471 -0.046100505 0.005202186 0.09627705 -0.012993032 0.088286705 0.10903588 -0.02521619
0.018966062 -0.081227496 0.059162308 -0.15289387 -0.012069634 0.05694501 0.063817 0.0045189057
-0.037426017 0.051142715 -0.11631675 -0.03764355 -0.06477685 -0.026310904 0.14251608 0.07582838
-0.1130854 0.010430599 -0.12526706 -0.17021646 0.043950614 -0.016766818 -0.027685089 -0.09571583
-0.022983462 -0.07450675 -0.014103498 -0.1375206 0.06853064 0.031753764 0.16349651 -0.04705369
0.0021943166 -0.16419479 0.026085434 0.03857311 -0.002041547 -0.054361455 0.03562768 -0.104789555
-0.058736682 0.19366589 -0.0034693063 -0.17735474 -0.17827845 -0.04698312 -0.0861616 -0.06402073
0.13352978 -0.22560485 0.21439672 -0.0013881037 0.18684603 -0.11401897 -0.08998078 0.053347763

lstm.bias_ih_l0 f4 [364]
00000000: 74f0 debd a890 84bc b5c2 c53c 9e69 b2bd
00000010: 84c0 3d3e 5e20 8a3e f137 efbd 184a 31be
00000020: 6646 d8bd 30c9 1a3e 42ec 043e 2d3d a63c
00000030: 51ef 0cbd f151 c23d ef05 753d 16bd ff3d
00000040: 9e76 17be 9894 5fbc c9ee 3c3e 7a3a d63d
00000050: 06a6 2b3d 1357 1b3d 0a4f 6abe bbea 1b3e
00000060: bfc0 113d 177f 093e ea22 d8bc 4d29 69be
00000070: 1630 183e aff1 4539 fda7 c9bd ab69 17be
00000080: b9a9 1d3e bba2 db3d bef1 273e d977 dfbd
00000090: cf28 52bd 8773 813e 8fb6 603e f547 7d3d
000000a0: 453b ee3d 2e3f b6bb 4232 073e 66dc a7bd
000000b0: 23e7 853d e349 57bc 75e1 0c3e 11b6 093e
000000c0: e9af b8bc 40f1 54bd d1d9 6cbd 238c 95bd
000000d0: c183 85bd 68fe dcbd 5c7c 4a3e 70a6 a13e
000000e0: a809 3cbd 3418 1ebd 6869 163e 5ccc dcbd
000000f0: 4bea a23d bbdf ee3e c6e0 ec3d 02f0 083e
00000100: f64e be3e 7891 1e3d 1a8f ea3c 24b9 303e
00000110: 2c6f 0cbd 0b21 703d e0e6 a9bd a5fc a63c
00000120: 12d8 7d3d 2ca8 08be b8ee 21be 26a0 523d
00000130: 6c48 08bd bd0c 913d e90d 4abd 97f5 8bbd
00000140: c38a 66be 5304 883d 9904 083e d020 203e
00000150: db73 c3bd 197f 84bd c0bc 923d 59d3 cebd
00000160: 6409 c13d 481c b43e c0e9 483c 41c0 c2bd
00000170: 1a85 1bbd ff10 babd 56ab 6a3d 9b86 f5bd
00000180: 1268 f03e 22ee 05be acda eebd 6f59 15be
00000190: ae2b 2a3e 8d38 423e 0efd 163d 3f53 02bd
000001a0: 7aff d1bd 5b4e c33d fae7 15be 7187 cabc
000001b0: 99b6 01be 85bf f2bd da16 1b3e 0305 aebd
000001c0: f364 6b3d f73a 83bc 48d4 31be a6bc e13d
000001d0: 43bc a73d a91d 47be fa77 bbbd 32bf 103d
000001e0: 5f33 3c3c 1997 143c 1cde 51bc 770d 87bc
000001f0: be94 e33d ca42 fdbc df4c a2bc 12e5 b9bd
00000200: ed68 cb3d 8925 a93d 918a eebc 817b 1a3e
00000210: bad8 bf3c c246 483c fc50 fc3d 83f0 5d3c
00000220: 56c3 4b3d 3ea4 bcbd d201 2f3e c42e f33d
00000230: 7898 debd ecd8 f2bd c390 cabd 279b b73c
00000240: be73 f5bd cc73 373e 8283 e33d 7386 c63d
00000250: aeaa a93d b51b b53d 320a 13be 93b7 42be
00000260: 4b1e a2bd 1dfd d6bd 2c80 b1bd 8a26 8ebd
00000270: df7f 57bd 7620 5abd 9e41 093d 2203 a4ba
00000280: 89c9 fa3d 3424 28be cde2 da3d fc58 06be
00000290: 5776 1dbd 6957 483d a18a 80bd 58c0 8cbd
000002a0: 61bd 16be 0626 53bd e3ec a03d 292e 75bd
000002b0: 6073 2b3e 0e52 bebd 3c10 5c3b 2d20 f2bc
000002c0: ff1c b23d 050a 933c 032e 763d 0b25 233d
000002d0: dd6b cbbd 5221 d5bc f36e 31be 924b c3bd
000002e0: 0855 80bd edae 193e 8b4f c5bd 6951 6f3e
000002f0: f114 143e 86bb 1e3e ae90 c8bd e806 1cbe
00000300: 4a47 7bbe 6a71 b63d b9e5 163e e0dc 6c3e
00000310: cd56 2dbe 61e2 be3b 15fd 163e eac3 9fbb
00000320: 40f4 383d 080e 4fbe fbda c73b 5808 09be
00000330: cb74 123e 5b3c 653c 9fa9 c8bd 3061 11be
00000340: 1efa 843c d143 82bd 0936 e3bd 8eb2 5b3c
00000350: 8259 06be f355 09bd d0f1 583d a784 2d3d
00000360: 19cf e83b 2a2e cb3d 4ac5 aebd f883 4e3a
00000370: 6f4a 4e3e ef3b 6d3e 7692 96be 1bd1 02be
00000380: 2b65 6d3d 0ec6 b43d 6a33 c83d c11d 243c
00000390: 6524 29bd 4705 14be 82cc 4c3b 3263 f83c
000003a0: 60c8 9d3c 13ef 143e da47 8dbc 62fc e33c
000003b0: 9c42 8f3e 8593 013d 1790 393e 275f fb3d
000003c0: a441 21bd 29ba 5c3e 87c4 dcbd 1719 13be
000003d0: 6da8 50be 4f1c 813b 6300 ff3d 486c 563e
000003e0: d2dc 913d f2e1 13be e7a5 3a3d 0779 f4bd
000003f0: 2253 0b3e f172 a53c 2e94 e3bd ff44 473e
-0.108857065 -0.016182259 0.024140695 -0.08711551 0.1853047 0.2697782 -0.11680592 -0.17313421
-0.105603024 0.1511581 0.1298075 0.020292843 -0.034407917 0.09488285 0.05982011 0.12487237
-0.14791343 -0.013646267 0.18450464 0.10460372 0.04190638 0.037924837 -0.22881714 0.15226261
0.035584208 0.13427387 -0.026383836 -0.22769661 0.14862093 0.00018877418 -0.09846494 -0.14786403
0.15396775 0.10724398 0.16400811 -0.10911531 -0.05130845 0.25283453 0.2194464 0.0618362
0.116323985 -0.005561731 0.13202766 -0.081963345 0.065382265 -0.013140175 0.1375788 0.13448359
-0.022544818 -0.051987886 -0.057824913 -0.073021196 -0.06519271 -0.10790712 0.19774002 0.31572294
-0.045907646 -0.0385973 0.14688647 -0.10781166 0.07954844 0.46655068 0.1156631 0.13372806
0.37169617 0.03871295 0.02863269 0.17258126 -0.03428571 0.058625262 -0.08295989 0.020384142
0.06197364 -0.13345402 -0.1581372 0.05142226 -0.033272192 0.07082508 -0.049329672 -0.06833952
-0.22513871 0.0664145 0.13283004 0.15637517 -0.09543582 -0.064695545 0.071649075 -0.10098905
0.09425619 0.35177827 0.012262762 -0.09509326 -0.037968732 -0.09085273 0.057292305 -0.119885646
0.469544 -0.13079122 -0.11662802 -0.14584897 0.16618225 0.18966885 0.036862426 -0.03181767
-0.102538064 0.095364295 -0.14639273 -0.024722787 -0.12667312 -0.11852936 0.15145436 -0.0849705
0.05746932 -0.016019328 -0.17366135 0.1102231 0.08190205 -0.19444908 -0.09153743 0.035338588
0.011486857 0.009069228 -0.012809303 -0.016485913 0.11112355 -0.030915637 -0.019812046 -0.09076895
0.099321224 0.082591124 -0.029118808 0.15086176 0.023418773 0.012223901 0.12320134 0.013546112
0.049746834 -0.09211014 0.17090538 0.11874154 -0.10868925 -0.11857781 -0.09890892 0.02241285
-0.11984967 0.17915267 0.111090675 0.09693613 0.08284508 0.08843175 -0.14359358 -0.1901534
-0.07915934 -0.10497496 -0.08667025 -0.069409445 -0.05261218 -0.053253613 0.033509843 -0.0012513141
0.12245471 -0.1642006 0.1068779 -0.13119882 -0.038442936 0.048911486 -0.06276441 -0.06872624
-0.1472068 -0.051549934 0.078576826 -0.059858475 0.16743231 -0.092929944 0.0033579012 -0.029556358
0.08696937 0.017949114 0.060102474 0.03983025 -0.09932683 -0.026016865 -0.1732748 -0.09535898
-0.062662184 0.15008135 -0.09634312 0.233709 0.14461114 0.15501222 -0.097932205 -0.1523701
-0.24538913 0.08908351 0.1473607 0.23131132 -0.16927643 0.0058253263 0.1474498 -0.0048756497
0.04515481 -0.20220196 0.0060991026 -0.13382089 0.14302365 0.013991441 -0.09797978 -0.1419723
0.016232546 -0.06360591 -0.11094291 0.01340927 -0.13120082 -0.033529233 0.052964985 0.042362835
0.007104766 0.099209145 -0.08533724 0.0007877941 0.20145582 0.23167394 -0.29408616 -0.1277508
0.05795781 0.088268384 0.097754315 0.0100168595 -0.041294474 -0.14455138 0.0031249826 0.030320738
0.019260585 0.14544325 -0.017246176 0.027830306 0.27980506 0.031634826 0.18121372 0.12274008
-0.03936924 0.2155539 -0.10779672 -0.1436504 -0.2037675 0.003940142 0.12451246 0.20939744
0.07122196 -0.1444166 0.045568373 -0.11937147 0.13605931 0.02019641 -0.111122474 0.19459914

lstm.bias_hh_l0 f4 [364]
00000000: a5ab 7cbe 08c6 88bc 8162 8ebd 97e3 f3bd
00000010: 5650 4c3e c6a5 7f3e 50f3 cebd 7632 5ebe
00000020: 1bde f4bd dee4 1b3e a9a3 d53d a2bc 01bd
00000030: 012d e2bd c2ad d33c 282d ac3c 8781 86bc
00000040: f87c 8fbd 210f babd 312b 823e 0364 8b3e
00000050: 0b74 bebd 7f1a 0f3e e5f1 3bbe 73e7 4a3e
00000060: cd09 223e 59d4 fa3d f62a 063e 9148 58be
00000070: 2b35 1f3d bf84 d1bc 6737 87bd a6c2 7ebd
00000080: fe58 6a3d f013 2c3e a7f1 453e cfdf a73c
00000090: cfcf 533d 4ddf 793e 1870 b03d d1ba 32bd
000000a0: a7e9 9a3d 7805 d0bd 4c52 ff3d f948 dabc
000000b0: aa9d 7cbd 7c22 743d 44b6 703c f188 db3d
000000c0: 0fc2 e83d 27cd 21be 50be 11be 7416 acbd
000000d0: b347 35bd 07af 3bbe 4256 433e 714a 063e
000000e0: b572 cfbd 751e a83d 74ad e3bc 322e 53bb
000000f0: f449 343c 1242 ad3e 6219 163e 1370 003e
00000100: d39f 7d3e f0e6 3c3d 38f0 0b3e 4fef ca3d
00000110: ecbf 27bd c598 b0bd f152 95bd 43fa b73c
00000120: a089 59bc f8db 88be 1bbb bb3b 881b 763e
00000130: 79d1 20bd 2090 743d c0b7 a0bd 3129 cc3c
00000140: d146 4ebe 6137 3a3d 623c a33d fe83 203e
00000150: 3b9c f7bd 527a 99bd bd4c 253e b0a0 013c
00000160: aff2 12bc b0af 873e 1808 bfba 4722 11be
00000170: 2c40 00be 2906 82bd d26f 8bbd 1d16 7ebd
00000180: 7e51 a83e dbfa 45bd 959f 9cbd 1757 02be
00000190: 10c0 923e 8b4a 323e f43d 5f39 e4e9 03be
000001a0: 026f db3c 5bde 333d ce29 d3bc 2340 f5bb
000001b0: f049 883c f273 4fbb 2984 de3d 2008 9a3c
000001c0: 24c6 773d 0ace c93d 3291 e1bc 481f d23d
000001d0: 6f4a f33c 937a 41be 0b61 3a3d e528 863c
000001e0: 31e0 0fbd cf3f 903c c730 dd3b 6006 74bd
000001f0: 050b 84bb a0c7 c03c f8e2 323d ebe3 64bd
00000200: 1c62 4a3d 011c 0d3d de9b 5a3d 0cf3 cc3d
00000210: 62fa 1ebd 0b77 183e 87ae 523d 21b9 1dbd
00000220: d987 3e3c 7e3d 5bbe 30d0 303e 579c 7b3d
00000230: c26c f4bd dab2 563d 70e3 3ebd 0d1a ac3d
00000240: 4384 c53b c2d2 473e 37fc 6a3d b91e b63d
00000250: 5030 88bd f489 6d3e 078e e1bd 9dff 14be
00000260: a310 dfbc a113 c5bd 9620 c2bd 396f 893d
00000270: 0c9e 8eba 015a 113d 47a6 dd3d 342f 123e
00000280: 5195 bf3c b650 83be 95f6 523c ae20 80bd
00000290: 3caa f4bd 8d6e be3d fdfe 5abe 8df4 9fba
000002a0: 1883 10bb da47 25bb 8848 81bc 0ef8 8bbc
000002b0: 895a 5d3e 4989 77bd f700 2fbe b367 31bd
000002c0: a9e0 c53c 90ca ef3c 962c 3f3e eeff 063d
000002d0: 883e 32be 3ef4 63bd 245e 16be 102f a5bd
000002e0: 67c1 36be c7e2 093b 9b91 573c a78e 603e
000002f0: d6a3 333e 0256 8d3c 3eaa a8bd 3883 34be
00000300: ccd0 7ebe b8ea 1d3e 8acf 843e 787c b43d
00000310: 1da7 7cbe 17c7 633c 0f10 eb3d d5ce 923c
00000320: dbdc 893b 4b6d 13be b13c 2a3c 81d5 3bbd
00000330: 8a9a 233c 343b 563e 53f3 1ebd ba46 4ebd
00000340: 82a0 09be 42ae e93d c1b8 2bbe 9708 07be
00000350: 60f0 1ebe 8d67 6c3d 4805 093d bd33 3fbd
00000360: 8c83 2c3d b841 553e b8fe 913d f3b9 11be
00000370: 7344 693e 214e 443e 5e41 37be acc4 00be
00000380: 5aaf 46bc 8d2b a9bb eda6 813c da2f d83d
00000390: 1c72 54bd 117f 0bbe 5515 1c3e 8cb1 51bd
000003a0: 11d4 0f3e 2991 cebb 1843 433b 0256 123e
000003b0: 69c6 423e ab66 0f3e 19fb 433d d559 6c3c
000003c0: a245 b93d 8642 423e 6660 713d 476f 0fbe
000003d0: 9b55 70be c332 82bd 1742 7b3d 1681 563e
000003e0: 967d 5b3e fa16 ab3c f35e e0bd 05c1 adbd
000003f0: 792d 283e 0cef be3b 806e 18bd 4592 023e
-0.24674852 -0.016695991 -0.06952382 -0.11908644 0.1995252 0.24965581 -0.10105002 -0.21698937
-0.11956426 0.15224025 0.10431606 -0.031674035 -0.1104374 0.02583969 0.021017626 -0.016419185
-0.07006258 -0.09084917 0.25423577 0.2722474 -0.09299477 0.13974951 -0.18353994 0.19814853
0.15824051 0.12247533 0.13102326 -0.21121432 0.038869064 -0.025575994 -0.06602364 -0.06219735
0.057213776 0.1680448 0.19330464 0.020492462 0.051711854 0.24401589 0.0861513 -0.043635193
0.07564097 -0.10157293 0.12466869 -0.026646124 -0.061673798 0.0596032 0.014691893 0.10719479
0.11365139 -0.15800916 -0.14232755 -0.0840272 -0.04425783 -0.18328486 0.19075873 0.13114335
-0.101293005 0.08208934 -0.02779267 -0.003222358 0.01100396 0.3383947 0.1465812 0.12542753
0.24768 0.046118677 0.13665855 0.09908926 -0.040954515 -0.086228885 -0.072912104 0.022458201
-0.013277441 -0.26730323 0.005729092 0.2403394 -0.03926227 0.05970776 -0.078475475 0.024921985
-0.20144202 0.04546297 0.079705015 0.15675351 -0.120903455 -0.07494034 0.16142555 0.007911846
-0.008968993 0.26501226 -0.0014574556 -0.14173232 -0.1252448 -0.06348831 -0.068084374 -0.062032808
0.32874674 -0.048334938 -0.07647625 -0.12728535 0.28662157 0.17411248 0.00021290017 -0.12882191
0.026786331 0.043913227 -0.02577677 -0.0074844523 0.016636819 -0.0031654802 0.10865051 0.018802702
0.060491696 0.09853752 -0.027535055 0.10259873 0.029698579 -0.18894415 0.045502704 0.016376922
-0.035125915 0.017608551 0.0067501995 -0.059576392 -0.004029634 0.023532689 0.043673486 -0.055881422
0.04940997 0.034450535 0.053371303 0.10007295 -0.038813002 0.14889161 0.051435973 -0.03850663
0.011629068 -0.21410176 0.17266917 0.061428394 -0.119348064 0.05241666 -0.04660362 0.08403406
0.0060277297 0.19513991 0.057369437 0.08892579 -0.0664984 0.23197156 -0.11013418 -0.14550634
-0.027229613 -0.096228845 -0.094788715 0.06710667 -0.0010880842 0.035486225 0.108227305 0.14275819
0.02338663 -0.25647515 0.012876173 -0.06256233 -0.11946532 0.0929843 -0.21386333 -0.0012203619
-0.0022050794 -0.0025219829 -0.015781656 -0.017086055 0.21616568 -0.06043366 -0.17090212 -0.043311786
0.024154978 0.029271394 0.18669352 0.032958917 -0.17406666 -0.05565285 -0.1468435 -0.08065617
-0.17847215 0.002103971 0.013157274 0.21929418 0.17542967 0.017252926 -0.08235596 -0.17628181
-0.24884337 0.1542157 0.2593959 0.08812803 -0.24673124 0.013902447 0.11477672 0.01792089
0.004207236 -0.1439716 0.0103904465 -0.04585791 0.009985575 0.20921022 -0.03880627 -0.05036042
-0.13440135 0.1141019 -0.16769697 -0.1318687 -0.15521383 0.05771594 0.033452302 -0.0466802
0.04211764 0.20825851 0.07128662 -0.1423109 0.22780018 0.19170429 -0.1789603 -0.12575024
-0.012126768 -0.0051626624 0.015826667 0.10556002 -0.051866636 -0.1362269 0.15242513 -0.051194713
0.1404574 -0.0063039255 0.002979463 0.14290622 0.19021 0.14004008 0.047846887 0.0144257145
0.090464845 0.18970689 0.058929823 -0.14007293 -0.23470156 -0.06357338 0.061342325 0.2094768
0.21434626 0.02088498 -0.1095561 -0.08484081 0.16423596 0.0058268365 -0.037214756 0.1275111

lstm.weight_ih_l1 f4 [364, 91]
00000000: 697e 9dbd c421 10be e4d6 b2bc 5f09 d73d
00000010: 92a2 a6bd 347d 1a3e 52fa 083d d916 9e3d
00000020: b21b 93bd 78d7 36be 4107 2abe da1a d73d
00000030: 32f3 fd3d 4e3a fb3c b3b4 93bd d851 ed3d
00000040: 453c 54bb 9841 193d 2790 913d f82c 1ebe
00000050: 06f5 68bd 044b fcbd 7587 983d 9b69 473d
00000060: 16b0 173c c7ef c2bc 96ab 0cbc 6a0f 263d
00000070: f690 0e3d 4e46 443d 7b93 75bc 21bb 12be
00000080: b75f 313e a839 0b3e acdb 44bd eef2 09bd
00000090: c2c4 f4bd 61c3 93bd 9510 87bd a853 a63d
000000a0: 8a54 60bd 579c 12be 9ebd 1cbd 12ec 993d
000000b0: e372 08be 6047 8c3d 24bb 85bd bd8e 973c
000000c0: 6490 c43d ab83 e8bc 1178 073e 6392 7d3d
000000d0: 22b7 093d f04f 293c 67d0 093d 41bd 6c3d
000000e0: 6776 413e 7902 8f3c f2ab 873d cdf7 843d
000000f0: 4be8 81bc 8148 dfbd 3606 3d3c 9223 cb3d
00000100: e24a 2f3e 8d31 ec3c 5e13 183e 9192 d9bc
00000110: 1b28 203e cd55 043e 4b57 503c f115 b23d
00000120: 4e3e 23bd ad5e 6f3c 033b a13c cb7c 3dbd
00000130: 4b00 20bd 8dbb 57bd 02fa e53d e8af 9abd
00000140: e3f2 b0ba 2459 13bd b29f b4bc 2658 163e
00000150: eedd e8bc c07c 2dbe 7d0e 63bd 920e eabd
00000160: fde2 853d ea3a 833d 31ef 56bd ccd4 353c
00000170: cc84 b13d ecd1 23be 4fc1 d6bd a643 563d
00000180: 5c80 28bc eaee 84bd 3efd e63d 5189 723d
00000190: da01 82bc ac74 2ebd 3961 4d3d b464 433c
000001a0: f987 273e 8589 bebd bdfd 58bd 9811 c5bd
000001b0: 8bbc 173c 2d00 4ebd fd5d 0a3b 14fc 3bbd
000001c0: e91d 1e3c 6b72 09bd c6f9 c83d f5f3 023d
000001d0: 5f7f 6abc 965e d4bd cb3a 8dbd cb85 a43b
000001e0: 6e7d 8dbd c79c 99bd a0e1 dd3d 89b0 ce3d
000001f0: 748f 74bb ad6a 05bd 858c df3c 034a babc
00000200: 8d0e 353d 5f3f babc b7ca c5bc fd83 523b
00000210: 0dee 0bbe 9389 e9bd a398 3c3d 497b 6bbd
00000220: 365e 273c e5e8 303c 1ff0 493c ddc8 0bbc
00000230: b4cc 8aba be5b a9bd 7a59 883c ef9d 3d3d
00000240: 49ad 86bd 9035 1f3d 0531 b03d ddc0 6abd
00000250: 40c3 9d3d 00c0 403d 6445 b93d 86b2 f73c
00000260: ea08 11be 6c67 1abe 94ad 8c3d fa1e 2a3d
00000270: 1953 b93c 3db8 b23d 7fdb bcbc 8bb4 543c
00000280: adfa fcbb 6fbe f0bc b08b f93d 3d33 05be
00000290: 4c2f f63c f847 1cbe 7490 44bd 6bce 02bd
000002a0: c654 7abd 90e7 b0bb f03b 9bbd dfca c53d
000002b0: 1aeb fbbb ec40 8ebd 2ce4 a23c 847b 8ebd
000002c0: d4cd 5bbd b3c8 c0bd b300 84bd b9ce cbbd
000002d0: ae9f 793a c51e d43d 69dc debd 8216 e5bd
000002e0: 019b a1bd fa9a 643e dc56 143e 764d 323e
000002f0: 388f f93d d2bd 433c dfc5 793d 25bb 85bd
00000300: fc00 92bd 3b10 b7bd de9b 943c d215 c6bd
00000310: ec2b 573d c022 303d b35b d0bd 1aa0 d33d
00000320: aee2 36be 4346 5dbd 3c2c b63c 3f39 11be
00000330: dc90 bb3d 7b72 743e cf1c 8a3c 1b59 023e
00000340: 4095 2d3e 135c 15bd 171d 11bd 010b 523e
00000350: d2c0 263d 5ac8 a8bd 7f4f afbd 7525 08be
00000360: e105 153e 04b1 9cbc d34b ea3d 6ecb b8be
00000370: e0db 62bd a1d1 95bd 5b50 b83c 51c5 4cbd
00000380: 2ffb 54be 1f3f 163d 8b75 6ebd fb2e 6b3e
00000390: 2427 15be b1a0 1bbe 7892 fd3d 19f4 e83d
000003a0: e8a9 143e a33f 5dbd 1154 943e b6bb 733c
000003b0: 8896 0c3e 56d1 7dbe 2dfc 09be e696 bbbe
000003c0: 6f9e 77bd 1e17 44bd 04cc 75be 1d4e 523e
000003d0: aa0c 06be 3103 6a3e c4f5 a5bd 17e0 94bd
000003e0: fe93 2c3e 93dc 5b3e c471 02be 1a7a 2dbe
000003f0: fa99 54bd 8d4c 1a3e f9be 0f3d 673c 01be
-0.076901264 -0.1407538 -0.021830983 0.10499834 -0.081364766 0.15086824 0.03344185 0.077192016
-0.07183017 -0.17855632 -0.1660433 0.105031684 0.123999014 0.03066745 -0.072122 0.11587876
-0.0032384556 0.03741607 0.07107573 -0.15446842 -0.056874298 -0.123189956 0.074477114 0.048684698
0.009258291 -0.023795975 -0.008585831 0.040542044 0.034806214 0.04791861 -0.014988775 -0.14329197
0.17321669 0.13596213 -0.048061058 -0.03367894 -0.11951591 -0.07215 -0.0659496 0.08121425
-0.054768123 -0.14317451 -0.03826677 0.0751573 -0.13325076 0.06849551 -0.06529835 0.01850068
0.09597853 -0.028383097 0.13229395 0.061907183 0.033621915 0.010334 0.033646014 0.057797674
0.18892823 0.017457234 0.06624593 0.06492577 -0.015857836 -0.10902501 0.011537125 0.09918894
0.1711841 0.028832221 0.14851138 -0.026559146 0.15640299 0.12923355 0.012716125 0.08695591
-0.03985434 0.014609975 0.01968146 -0.04626159 -0.03906278 -0.052669097 0.11229326 -0.07553083
-0.001350012 -0.035973683 -0.022048805 0.14682063 -0.028426137 -0.1694212 -0.05543374 -0.1142856
0.06537435 0.06407721 -0.052474204 0.011098098 0.08667907 -0.15998048 -0.104860894 0.05231061
-0.0102845095 -0.06490882 0.11278771 0.059212986 -0.015870024 -0.042591736 0.050141547 0.011925865
0.16360463 -0.093035735 -0.05297636 -0.09622496 0.009261261 -0.050293136 0.002111315 -0.045894697
0.009650686 -0.033556383 0.098132655 0.031970937 -0.014312594 -0.10369603 -0.068959795 0.005020832
-0.069086894 -0.07500606 0.1083405 0.10092265 -0.003731695 -0.032572437 0.027288685 -0.02274037
0.04420333 -0.022735296 -0.024144514 0.0032122128 -0.13665028 -0.11403193 0.046044003 -0.05749062
0.010215333 0.010797714 0.012325316 -0.008531776 -0.0010589571 -0.082694516 0.016644228 0.046293195
-0.0657602 0.03886944 0.086031 -0.057312835 0.077032566 0.047058105 0.09046438 0.030236494
-0.14163557 -0.15078515 0.06869045 0.041533448 0.022622632 0.08726547 -0.023053883 0.012982498
-0.0077203126 -0.02938768 0.121848464 -0.13007827 0.03005185 -0.15261829 -0.047989324 -0.031935137
-0.061116003 -0.005398698 -0.075797915 0.09657835 -0.0076879384 -0.069459766 0.019884191 -0.069571525
-0.05366309 -0.0941328 -0.06445446 -0.099515386 0.00095223903 0.10357431 -0.10881884 -0.11185934
-0.07890893 0.22324744 0.14486259 0.17412362 0.1218552 0.011947112 0.06097972 -0.065298356
-0.07129094 -0.089386426 0.01814073 -0.09672131 0.05253212 0.04300189 -0.1017374 0.10333271
-0.17859909 -0.054022085 0.02223789 -0.14181994 0.09158489 0.23871796 0.01685944 0.12729304
0.16951466 -0.036464762 -0.035428133 0.2051201 0.04071123 -0.08241339 -0.085600846 -0.13295539
0.14553024 -0.019127376 0.114402436 -0.36092705 -0.05538547 -0.07315374 0.022499254 -0.049992863
-0.20798944 0.03668129 -0.058217566 0.2296714 -0.14565712 -0.15198018 0.12381452 0.11374683
0.14517939 -0.054015767 0.28970388 0.014876297 0.13729298 -0.24786887 -0.13475104 -0.36638564
-0.06045383 -0.04787361 -0.24003607 0.2053761 -0.13090768 0.2285278 -0.08103517 -0.07269304
0.1685333 0.21470861 -0.1273871 -0.1694111 -0.051904656 0.15068264 0.035094235 -0.12620698

lstm.weight_hh_l1 f4 [364, 91]
00000000: 0ace bdbd 7064 8cbd 560e ee3d 62a3 8dbd
00000010: 65bc 7e3d 9765 193e 3575 89bd dfa7 6fbd
00000020: 99f3 933d 5356 d1bb 9fcd 38bd 471a e7bd
00000030: b3ee b8bd 9425 55bd 4fb4 d5bb d47d 993d
00000040: 91d3 293d 09bd 0f3d 55d2 2f3d 4d79 313d
00000050: 0887 39bd 4b46 373d 5fe5 193d c0d2 973d
00000060: 8d09 113d 91af be3d 0a08 913c 9943 e7bd
00000070: 1805 82bd 3348 ab3c f202 24be 59d0 a33d
00000080: a61f 4dbe c12c cbbd 8ea9 e4bd f340 c7bd
00000090: 3360 9ebc 2d24 99bb 946b 2cbd 3040 dabc
000000a0: 8311 b8bd 7b9b e03d ee6a d2bd bacc febd
000000b0: c98c c3bc ab76 9c3d 9bec 703c 1bb7 efbd
000000c0: c8fa 19bd 1021 da3d 93c1 91bc 76ee 0cbe
000000d0: 5c9e d1bc 2688 023c ba2f e13c e635 013e
000000e0: 47fe b13d 1cc5 e73a 2b6d 43bd 763b 6dbc
000000f0: 429b 07be a208 1a3e 40ef 3dbd d7c8 49bd
00000100: 7f1e 53bc 19e5 54bd 9dcd 13bd 64eb c9bd
00000110: 0682 48bd 1dad 9239 6ffb 3f3e c59d 9cbc
00000120: 81ae f33d cc68 d6bd db6e d53d 336a 0c3e
00000130: b4c8 113d 3bea 3bbd 872a fdbd 8ad9 d93c
00000140: df5c 00be 9688 9f3d 6b3b 963c c19a f23d
00000150: 73be 8c3d b521 443c 57e2 b0bd fb90 f5bc
00000160: 6b23 183d e06d 233c b877 b43d c7a3 59bd
00000170: 16b9 3d3e 6fb2 c4bd f5a4 d4bc 2db2 febc
00000180: 3d6c 983d c929 d0bd 1da9 d03d fcb4 1b3e
00000190: 7ae9 0cbd 94d5 8c3c a6ac 43bd dfae bebd
000001a0: 1e33 d03d b870 a63d b597 0e3c f4c4 70bd
000001b0: 3aec 84bc 094b d23c c71c 3c3e e864 fcba
000001c0: 8fe9 d8bc c909 0f3e fb79 d33d dd26 cdbc
000001d0: 9bc7 eeb9 bc37 a93c f2df 19bc 6434 833d
000001e0: a3a6 403d 0b09 64bd 67ee ddbc d97f 0d3a
000001f0: ef2f 223d 2327 bd3d c98a 2e3d 01c0 0fbc
00000200: 43a5 2bbe f8ee 60bd e102 b0bc c5a7 863d
00000210: c178 c53d 47de 7cbd 33a5 60bd 76c5 563d
00000220: baf3 263e da17 453d dc60 b63d d905 4ebd
00000230: 1680 f13d a2f7 71bc efa3 1cbe 55e4 1dbe
00000240: 536e 663d 4a85 d43d 8474 813d 327c 073d
00000250: 10ae 933d 5d0a 38bc 7acb b53c 0d9c b53d
00000260: 87d9 f23d c132 b93d cf87 1f3e 99e7 2ebd
00000270: 3902 dcbd d1ff 073e dad0 8bbd cbcb a0bd
00000280: 6dc6 893c d7a1 c33d ab39 bd3d 01aa 023c
00000290: f42a a73c 1a6a 6dbc c9cb f33c 911b 633d
000002a0: 1aab 48bc eb93 51bd 1216 ceba 5cfc d4bc
000002b0: ae1d 323d 82d1 34bc 12d3 2d3e 9c00 093e
000002c0: 846d 28bc 3ac6 2bbd 2e74 5f3d a618 233e
000002d0: 36ef fbbc 7655 833c d3e3 afbd 4e0c 563d
000002e0: bb91 543e b1ca 423e c8ee b1bd 4ffd f73d
000002f0: 0430 1f3d 311f 34bd 4513 df3d a754 633c
00000300: c68a c1bd 7192 62be 16f1 453d db2b 783e
00000310: 5d83 8b3d 9cf4 5e3e 857a 38be d369 883d
00000320: 7295 47bd 0455 9e3d 9e80 903e 5a8e c43c
00000330: 5e98 8dbd 2e67 b3bc 9383 3abe 9e5a 973e
00000340: 8dd5 70be 4b0d f53c fb43 a63d bcd7 39be
00000350: 405d e0bd 8c45 73bd 9414 a93c 67ca 463d
00000360: 1d0f 42bd 2d78 06bd 9972 3ebb 78bd c6bd
00000370: 15e5 18bc 7f2e 973d 2cce a3bd 7aa0 9fbd
00000380: acd5 b23d 16eb 6cbe c3fc 3d3d 94d0 0b3d
00000390: 2c9f 493d 662f 963e 4541 feb9 a2ef 48bd
000003a0: 4811 63bd 22bb 82bd 2dca 83be ded1 dd3d
000003b0: 2d43 06bd f26c 88bd 8c37 d63d 510b 0fbe
000003c0: ea26 5cbd 146a dabc 43ab 573d 8ea7 c43d
000003d0: 274b 00be ef85 183e ff6a 6a3e 9291 8cbb
000003e0: 7fc4 863d 3854 4f3d 71bc 6e3b f4a5 08bc
000003f0: 0898 1a3b c53f f53b 6ed3 69be c489 53bd
-0.092678145 -0.068550944 0.11623828 -0.069159284 0.062191386 0.1498016 -0.067118086 -0.058509704
0.07224197 -0.0063884645 -0.04511797 -0.11284309 -0.09029903 -0.05203779 -0.0065217386 0.07494703
0.04146153 0.035092387 0.042925198 0.043328572 -0.04529479 0.04474477 0.03757226 0.07413244
0.0354095 0.093108304 0.017704029 -0.1129219 -0.06348628 0.02090845 -0.16016749 0.079987235
-0.20031604 -0.099206455 -0.111651525 -0.09729185 -0.01933298 -0.004673502 -0.042094782 -0.026641935
-0.08987715 0.109671555 -0.102743015 -0.12441392 -0.023870843 0.076398216 0.014704849 -0.117048465
-0.03759268 0.106508374 -0.017792499 -0.1376284 -0.025588207 0.007967031 0.027488578 0.12618217
0.08691078 0.0017682645 -0.047711533 -0.014479509 -0.1324282 0.15042356 -0.046370745 -0.0492638
-0.012885689 -0.051976297 -0.03608476 -0.0985935 -0.048952125 0.0002797627 0.18748258 -0.0191182
0.11898518 -0.10469207 0.10421535 0.13712387 0.035591796 -0.045877676 -0.12361627 0.026592989
-0.12535428 0.077897236 0.01833888 0.11845923 0.06872263 0.011970927 -0.08636921 -0.029976359
0.037143152 0.009974927 0.08811897 -0.053134706 0.18527636 -0.09604346 -0.025957564 -0.03109082
0.0744252 -0.1016422 0.10188506 0.15205759 -0.034402348 0.017191686 -0.047772072 -0.09310698
0.10166 0.08126968 0.008703162 -0.05878158 -0.016225923 0.025670545 0.18370353 -0.0019256147
-0.026478557 0.13968576 0.10326 -0.025042946 -0.00045543615 0.020656459 -0.009391772 0.06406477
0.047033917 -0.055672687 -0.027091218 0.0005397774 0.039596494 0.0923598 0.042612825 -0.008773805
-0.16762261 -0.0549154 -0.021485748 0.06574968 0.096421726 -0.061735418 -0.054845046 0.052434407
0.16303912 0.04811845 0.08905193 -0.050298546 0.117920086 -0.014768513 -0.1529691 -0.15419133
0.056257557 0.10376985 0.06321052 0.033077426 0.07210934 -0.01123294 0.022191752 0.08867655
0.11857896 0.09042884 0.1557915 -0.042701337 -0.107426114 0.1328118 -0.06826945 -0.078513704
0.01681825 0.09552353 0.09239515 0.007975102 0.020406224 -0.014490629 0.029760258 0.05544621
-0.012247825 -0.051166456 -0.001572313 -0.02599924 0.043485336 -0.011036279 0.16975048 0.13379139
-0.010280017 -0.04193709 0.054554157 0.15927371 -0.030753713 0.016031962 -0.08588376 0.05225783
0.20758717 0.19022633 -0.08688122 0.12108862 0.03886415 -0.04397506 0.10892347 0.013875163
-0.09450297 -0.22126175 0.04832562 0.2423548 0.06812165 0.21772999 -0.18015487 0.06660809
-0.048726507 0.07731059 0.28223127 0.02399366 -0.06913827 -0.021899786 -0.18214254 0.29561323
-0.23518963 0.029913565 0.08118435 -0.18148702 -0.10955286 -0.059392497 0.020639695 0.04853287
-0.047377694 -0.032829452 -0.0029060005 -0.09704107 -0.009331961 0.07381915 -0.079983085 -0.0779428
0.08732161 -0.23136553 0.04638363 0.034134462 0.049224064 0.29333037 -0.00048495285 -0.049056657
-0.055436403 -0.06383349 -0.25740185 0.108310446 -0.032778908 -0.06661405 0.104598135 -0.1396916
-0.05374805 -0.02666191 0.052653562 0.09602271 -0.12528668 0.14894842 0.22892378 -0.0042898143
0.065804474 0.050617427 0.0036428238 -0.008340348 0.0023589153 0.0074844086 -0.2283456 -0.051645055

lstm.bias_ih_l1 f4 [364]
00000000: 823c 113d 001d 313d dd9e 22bd de57 2cbd
00000010: d956 2bbd 147d d4bc 1c9f a63d 35cd 443c
00000020: 1afd 5a3d cf1c 753d 0850 353d 21eb 89bc
00000030: ed8a bc3d 1955 653d 75b0 c03d 68e4 003e
00000040: 40a9 313c 54e2 013e a0e9 e63c a713 363e
00000050: 363e 443c f4e7 7ebc c3ae 483e a8b1 0b3e
00000060: 7dc3 d83d 96e7 023b bb9d bc3d cb57 d53d
00000070: 382d b73d af8f d5bd a84f 0dbc e4ec 8b3d
00000080: a74f 2c3e adb0 73bd dcf7 e63d 65a0 c13d
00000090: 86f7 9abd d5cc a53d 7796 8cbd e950 793d
000000a0: 97eb 5fbd 7af9 bd3d 497a c039 d712 92bd
000000b0: 40f7 2e3e 8a05 943d 4f66 38bd 390c 113c
000000c0: 7e2a 923d 7766 073e 3cfd b2bc e6e4 3f3e
000000d0: c403 b0bd 54f3 393e a1d4 d73d 70e3 2f3e
000000e0: 8be6 1e3e 1623 70bc b507 fd3b 678c 82bd
000000f0: 7efb 523d 0fbe 003d 1539 18bc 56d6 933c
00000100: de55 34bc 390e 753d f95f dc3d 1b58 863d
00000110: f968 473e d939 61bd 16ed 9e3d 9b49 693c
00000120: 2e06 803d da6f 6ebd dca5 873d b0d6 b33c
00000130: a4eb e9bd 2eca 1cbe 988c 943d e62c 103c
00000140: f2ce 703d 0053 fe3c 980b e23d e64d 3ebc
00000150: b252 b53d a7b9 b83d d07c b43c 1c7f 203e
00000160: 8537 cd3d 30ce c73d c124 0e3e 2478 f73d
00000170: e498 153d e979 9c3d 0780 38bd d37a 593c
00000180: 2718 813d b65b 283e e0c1 e6bd ec2f 883d
00000190: a789 093e f67b e13d 84a8 4a3d 46f4 293e
000001a0: 6dfa eabd 683b 5c3c 74a2 ff3d 7a99 933d
000001b0: 2340 f13d cca2 9b3c 9aac 0dbc 6e77 54bd
000001c0: 7944 353d 52f7 d0bb 38af 343e d4e1 893d
000001d0: 197d d4bc baf4 59bc 27d9 183e 23d0 a9bb
000001e0: bd43 17bb b344 e13b 179b 9d3d bebc 4b3d
000001f0: b52c 943d dde1 3fbd 3e3b 5a3d f330 ae3c
00000200: 7edd 2a3e 6083 203c 4688 273b f827 21bd
00000210: ba68 853d cb17 d03d c086 85bc 4982 003d
00000220: 938d 9d3d 3685 943c d2ad b83d 7f71 b63d
00000230: 7ae8 c93d 8b0e 2bbd 6506 893b b373 bdbd
00000240: 5517 ff3d 9416 113e eae9 9c3d 03fd b63c
00000250: c864 c43d 7717 843d 00eb 5e3d 32d9 5c3c
00000260: 0961 f43b 4e44 2c3d 8bc8 32be fde8 0c3c
00000270: f3be 483d 7c9d 0a3e 2b98 623d 2f7a 203e
00000280: eddf 313d 004a 343e b973 7a3d 16ea d7bb
00000290: 2a4f 873d fe26 d53d 7aaf e73c 4f67 513b
000002a0: b730 22bd 459d 2f3d 4493 44bd f636 4f3c
000002b0: a05e 693d 95f2 40bc f984 8ebc 04ac f13d
000002c0: 5205 383e e501 a3bd 88b5 6e3d e8f8 f439
000002d0: 4c11 a6bc f304 733d 5637 c2bd 7da7 393e
000002e0: 9ef4 05bd dbd9 513c 3953 24bc 49ed bb3d
000002f0: 6a52 cabd cf08 51bc 51ef a53d 590a 88ba
00000300: c322 fcbc 561c e1bc 193d 73bd 1074 223d
00000310: 25f9 7bbd ea15 2a3d 2bc4 8e3d d025 83bc
00000320: 46c8 13be 1919 193e ef5e 073c 1631 fcbd
00000330: 20c0 293e a0ba 433e 17c1 87bc 3971 cd3d
00000340: 9758 29be 4094 45be e6b5 383e 8e3c db3d
00000350: 0d0c 42be 2d0c 623d d044 0dbe ccfe 18be
00000360: 4f4d f6bd ae50 553e 8dd1 b0bc 106b 34be
00000370: 8515 153e 77b2 ac3c 8a9c b2bd 6e8d ec3d
00000380: ec14 5f3d 2ea9 dabd 5b80 4a3e 0d54 a93d
00000390: 7cec f1bd f09b 9b3c 9078 18be b148 4e3d
000003a0: 75c0 8cbc 351a 3fbe dd7b 11be 602d e13d
000003b0: b887 3d3e 1c08 d93d 8f50 353e bbdb 37be
000003c0: 24e3 163e d8a7 083e 84e0 133e ed15 fc3d
000003d0: 507d f6bd 20c9 943c 9270 2bbd dfc4 34be
000003e0: 2bc0 233e 9f89 50be a9b7 bbbd ea13 33be
000003f0: 8dfd 213e 7c8c f73c 0f99 08be 782f 353c
0.035458095 0.043240547 -0.039702285 -0.042075984 -0.04183087 -0.025938548 0.081358165 0.012011816
0.053464033 0.059841927 0.044265777 -0.016835751 0.092061855 0.05598936 0.094086565 0.1258713
0.010843575 0.12683994 0.028187573 0.17780934 0.011977723 -0.015558232 0.19597916 0.13641989
0.105841614 0.0019974462 0.09209772 0.10417136 0.08944172 -0.10427796 -0.008624949 0.06832293
0.1682726 -0.059494663 0.11277744 0.09454421 -0.075667426 0.08095709 -0.068646364 0.060868178
-0.054668035 0.092760995 0.00036712203 -0.071325 0.17086506 0.07227619 -0.045019444 0.008853012
0.07137011 0.13222681 -0.021849267 0.18739662 -0.08594468 0.18159229 0.105386026 0.17176604
0.15517633 -0.014656803 0.007721866 -0.06374436 0.051509373 0.031431254 -0.009290953 0.01804654
-0.0110068 0.059828017 0.10760493 0.065597735 0.19473638 -0.05498681 0.07760064 0.01423874
0.06251179 -0.05821214 0.06623432 0.021952957 -0.11421898 -0.153115 0.07253379 0.008799767
0.05879111 0.031045437 0.110373676 -0.011615252 0.088536635 0.090197854 0.022032171 0.15673488
0.10020355 0.09756124 0.13881208 0.12083462 0.03652276 0.0764044 -0.04504397 0.0132739125
0.06303435 0.16441235 -0.112674475 0.06649765 0.13431416 0.11009972 0.049477115 0.16597089
-0.11473546 0.013441898 0.12482157 0.07207008 0.11779811 0.018998526 -0.008647108 -0.05187171
0.044254754 -0.006377139 0.17644966 0.067325264 -0.025938557 -0.013302976 0.14926587 -0.0051822825
-0.0023081147 0.0068746447 0.07695597 0.049740545 0.0723509 -0.04684626 0.053279154 0.021263575
0.16686055 0.009796947 0.0025563403 -0.039344758 0.06514116 0.10160788 -0.016299605 0.03137425
0.07693019 0.018129926 0.090175286 0.089083664 0.098587945 -0.041761916 0.0041816705 -0.092505835
0.12455622 0.14168769 0.07661803 0.022337442 0.09589535 0.06449788 0.054423332 0.013479518
0.0074578566 0.042057328 -0.17459314 0.008600471 0.04901023 0.13536638 0.0553209 0.1567161
0.043426443 0.17606354 0.061145518 -0.0065891845 0.06606896 0.10407828 0.028281916 0.0031952446
-0.03959724 0.042874593 -0.047992006 0.012647381 0.056975007 -0.011776586 -0.01739739 0.118003875
0.1797078 -0.07959346 0.05827859 0.00046724756 -0.02027192 0.05933089 -0.09483211 0.18130298
-0.03270399 0.012808288 -0.010029607 0.09176118 -0.098790005 -0.012758448 0.081022866 -0.001037906
-0.030778294 -0.027479332 -0.05938444 0.039661467 -0.0615169 0.041524805 0.0697101 -0.016009241
-0.14431867 0.1495098 0.00826238 -0.1231405 0.16577196 0.1911416 -0.016571565 0.10031361
-0.165377 -0.19294834 0.18038139 0.10704909 -0.1894991 0.055187393 -0.13795781 -0.14940947
-0.12026464 0.20831558 -0.021584297 -0.17618966 0.1455899 0.021081192 -0.08721264 0.11550413
0.054463312 -0.106768 0.19775526 0.082679845 -0.11812684 0.018995255 -0.14889741 0.050362293
-0.017181614 -0.18662341 -0.14207406 0.10994983 0.18508804 0.1059725 0.17706512 -0.17954914
0.14735085 0.13345277 0.14441115 0.123088695 -0.1203562 0.01816231 -0.041855402 -0.17653225
0.15991275 -0.20364998 -0.0916589 -0.17488065 0.15819378 0.030218355 -0.13339637 0.011058681

lstm.bias_hh_l1 f4 [364]
00000000: faff 36bd 21a4 d43d c049 e53d d2f7 3c3b
00000010: 9d13 f7bd fdd9 2a3d 3cd3 cd3d 4d83 443d
00000020: 471e 9a3d 33ba e3bc 9a9c 22bd d7af 57bd
00000030: 03df 383e f6c5 fc3d e016 dd3d e686 043e
00000040: 881c 523d dc4c 533d 2007 88bd 4348 5a3d
00000050: ee39 a3bb 8dfa 2c3e ab68 9a3d bb42 843d
00000060: b3b7 043d 4aa6 173e 55aa afbb 3b94 063e
00000070: 9530 2a3e 4941 04be 824e 2c3a 9894 813d
00000080: 5e13 43bc 5249 76bc fdaa dc3d 88cf 853d
00000090: 04ce 813d 47d7 fe3d ecb5 433d 1023 b33d
000000a0: c6e8 5a3d e2ec 2d3e 8fc4 cb3d 293d 8a3d
000000b0: 5f25 433e 719d 8d3c 98ca b83d 3684 773d
000000c0: 4541 ba3d bd8c da3d 5b8e aabd 2447 943d
000000d0: 0b86 99bd 5222 043c 2dc2 b53d 114e 9a3d
000000e0: 1cf2 c23c d68c 343d f67a e13c 37c0 973c
000000f0: 93c9 8fbd 9f3c e0bb 1cd8 fdbc 8ae9 a5bd
00000100: f683 b5bd ff68 2abb ca1a f3bc 2f0d de3d
00000110: 6a21 973d 1697 80bd eb40 523e 0f0f 4ebc
00000120: 9989 3fbc 4d2c c2bc c6ad 6b3d 411b 0d3d
00000130: fc55 223b 0529 2fbe b65e 0e3e de9d 8c3c
00000140: dfa7 043e 9c35 983d edd4 1a3e e8b2 a63d
00000150: 197b da3d 0920 47bc 055e a7bd df00 1a3e
00000160: 180a 453d d002 d93c f375 863d bbe2 0a3e
00000170: 0977 fe3d 2ec6 013e 74ee b9bd 283c 9d3c
00000180: 5eb2 9d3d 34c1 0b3c 2a4d 9b3d e81a b73d
00000190: 03fe 0a3e 7266 24bb c5b7 ac3d d401 203e
000001a0: 3c57 613d 19c2 ae3d 14ce 8bbc f21a a13d
000001b0: 4bd5 b03d c27f 9bbd 4955 d23c 0b3c ec3d
000001c0: 807e 3f3e 59ce 1a3d 1b13 273e a2cf b6bd
000001d0: 7da1 9d3c f98c 89bc 6f78 a6bc e03f 143e
000001e0: fb28 113a 3538 323e a537 8e3d 4e9d 2f3e
000001f0: b6d0 72bd 54a1 adbd 672f b93d 7266 64bd
00000200: 7558 113e fd4c 813c 136b 613d e3e6 853b
00000210: 4fe3 263e 6f05 853d d580 aebd 34d0 fa3d
00000220: dfd9 97ba 376b f23d eaf3 69bd 7756 89bd
00000230: 291f 003e 7975 96bd af53 013d 4dba 1e3d
00000240: 2940 6cbc dce2 6f3c f314 e83d 319c a43c
00000250: 6ca1 953d f54e 843d 0783 95bc b39b 30bd
00000260: 85d1 7e3d 0702 c4bd ddb5 a9bd b0aa fdbd
00000270: c9a8 213e d9d6 d43d d12c a93c ef10 183e
00000280: df69 05be e3a1 033e bba0 ff3d df36 b03d
00000290: 24c1 7ebd c1d5 143e 9ce0 c83d ec0d 4cbd
000002a0: 8010 8c3b 7d1a a73d 20b6 3bbd b786 343c
000002b0: adbb e93d 6d3d eebc 6878 703d 3a6b b23d
000002c0: 43fa 353e 23dd e13d e501 3e3e 111a d23c
000002d0: 7f46 22bd cdd5 923d 3a1a e3bd 0c6f 2f3c
000002e0: be18 80bd 092a 133d 3894 debc f7b1 2d3d
000002f0: 27d8 17be 9a4b 84bd a5ea 1d3e adbb 11be
00000300: 9735 f5bd 2061 8abc a0a4 e7bd f739 d43d
00000310: 795c bcbd 06cd d23d 7224 703d 89be 38bd
00000320: 8ebc 38be f47a c33d 7810 aa3c 57e3 1cbe
00000330: b8ac 2f3e 6592 443e 0082 26be 27e5 993d
00000340: 5fb3 2fbe ae78 49bc ff89 01bc b758 253e
00000350: c024 f7bc 9138 8d3d ee7a 38be 8a25 b8bb
00000360: 816e 14bd c70e 283d 9f22 30be a3f3 2ebe
00000370: 1a8c ab3d 0b91 353e ede7 14be 7ab1 b33d
00000380: e913 ecbd c4ac d2bd dc35 063d 2011 4e3d
00000390: 730f 32bd b3e9 9f3d e4fc d7bd 1148 023e
000003a0: dd30 1bbe 953c d5bc 8324 cfbd 05e6 bf3d
000003b0: d5d5 023e 4c44 303e ece6 333c 36be 573c
000003c0: f566 dc3d cd6c f23c 2dae 853c 3a81 3b3e
000003d0: ab14 ee3b 36d0 363d 5069 e7bc ced0 5cbd
000003e0: 4cbb 093e 8612 cabd 1fe8 09be bb6d 23bd
000003f0: 4c4d 123e 4976 ec3d fd72 21be 4de7 00be
-0.044677712 0.103828676 0.11195707 0.0028834236 -0.12064288 0.041711796 0.100500554 0.04797678
0.07525306 -0.027798748 -0.03970013 -0.05265793 0.18053822 0.123424456 0.10795379 0.12942085
0.05129674 0.05158697 -0.06641984 0.05329157 -0.004981271 0.16892453 0.07539495 0.0645804
0.03240175 0.14809528 -0.0053608813 0.13142483 0.16620095 -0.1291553 0.0006572978 0.0632717
-0.011906473 -0.015032129 0.10774801 0.06533724 0.063381225 0.12443405 0.047780916 0.08746922
0.053444646 0.16984895 0.099496 0.067499466 0.19057225 0.017286988 0.09023017 0.06042882
0.090944804 0.10671375 -0.083279334 0.072401315 -0.0749627 0.008064823 0.08874927 0.07534421
0.023797087 0.044079624 0.027524453 0.018524272 -0.07020869 -0.006843164 -0.030986838 -0.08101185
-0.0886306 -0.0026002524 -0.02967586 0.10842358 0.0737942 -0.06278817 0.20532577 -0.012576832
-0.011690521 -0.023702765 0.05753877 0.03444982 0.002477049 -0.17105491 0.13903317 0.01716512
0.12954663 0.074321 0.15120287 0.081395924 0.1066801 -0.012153634 -0.0817223 0.15039395
0.04810533 0.026490599 0.06565466 0.13563053 0.12425048 0.12673256 -0.090786844 0.019193724
0.077000365 0.00852995 0.07583077 0.08940679 0.1357346 -0.0025085476 0.08433489 0.15625697
0.055014834 0.08533115 -0.01706604 0.078664675 0.086344324 -0.07592727 0.025675433 0.1153489
0.187006 0.037794445 0.16315882 -0.089263216 0.019242043 -0.016790854 -0.0203211 0.14477491
0.00055374176 0.17404254 0.06944207 0.1714985 -0.059281074 -0.084780365 0.090422444 -0.055761762
0.141939 0.015783781 0.055033755 0.0040863617 0.16297649 0.06495177 -0.085206665 0.12246743
-0.0011585316 0.11836856 -0.05711738 -0.06705945 0.12511887 -0.07346625 0.031573948 0.03875189
-0.014419594 0.01464149 0.11332121 0.02009401 0.073061794 0.06460372 -0.018250955 -0.043117236
0.062211532 -0.09570699 -0.08286641 -0.12386072 0.15787043 0.103925414 0.020651253 0.1485021
-0.13028668 0.12854724 0.12481829 0.08604216 -0.062195912 0.14534666 0.09808466 -0.049817964
0.004274428 0.08159349 -0.045827985 0.011018447 0.114127494 -0.029082024 0.05870858 0.08711858
0.17771249 0.110285066 0.1855541 0.025647195 -0.03961801 0.071696855 -0.11088987 0.010707628
-0.06254719 0.03592876 -0.027170286 0.04240605 -0.1482855 -0.06459732 0.15421541 -0.14231749
-0.11973112 -0.016892016 -0.113106966 0.103626184 -0.09197325 0.10293011 0.058628507 -0.045103583
-0.18040678 0.09544936 0.020759806 -0.15321098 0.1715573 0.1919647 -0.16260529 0.075144105
-0.17158268 -0.012296839 -0.007906436 0.16147123 -0.030168891 0.06895555 -0.18015644 -0.0056197094
-0.036238197 0.041029718 -0.17200707 -0.17085128 0.083763316 0.17731111 -0.14541598 0.08774085
-0.11527235 -0.10286859 0.032766208 0.0503093 -0.043471765 0.078082465 -0.10546282 0.12722804
-0.15155359 -0.026029864 -0.10114386 0.093700446 0.12776883 0.17213553 0.010980349 0.013167908
0.10761825 0.029592896 0.016318405 0.18311015 0.0072656474 0.04463216 -0.02824846 -0.05391007
0.13450354 -0.09866814 -0.13467453 -0.03989957 0.14287299 0.115459986 -0.15766521 -0.12588234
