models/lstm_trial_9.pth (torch, 111358 bytes, 9 tensors)

lstm.weight_ih_l0 f4 [160, 44]
-0.044958312 0.13032988 0.14774509 -0.13969597 0.1795301 -0.09923638 0.07884466 -0.07947536
0.08673712 0.024894759 -0.18948872 -0.0822362 -0.09150284 -0.031966325 -0.09947746 0.03456574
-0.016494237 0.092864886 0.013897956 0.03507097 0.07353099 -0.09460916 -0.111000024 -0.057138126
-0.02595667 -0.17027384 0.018577274 -0.010327783 0.0006515023 0.010643024 -0.09928964 -0.04752782
0.09840625 0.11894369 0.13567294 -0.06853893 -0.09202643 0.10659812 -0.15699953 -0.18959837
-0.05130072 0.08536123 0.0723977 0.004649697 -0.07864882 -0.08106268 0.08229179 -0.01988494
-0.034087945 0.118798964 0.048198704 -0.1785575 -0.13635665 0.19663927 0.08073497 -0.09764562
-0.12456277 0.008691572 0.1664061 -0.034984555 0.026221985 0.037464183 0.09602906 0.13817637
-0.10506018 -0.060667817 0.13214567 0.08679144 -0.06525582 -0.058529753 -0.060440872 0.19693744
0.03736476 0.13852729 0.029914143 -0.1508668 0.10806789 -0.020790808 0.08474483 0.0064983424
-0.13311717 -0.04386886 0.110649034 0.13429385 -0.063629985 -0.13036089 0.16013998 0.012222979
0.14023378 -0.14818357 0.14289 0.027747035 -0.1333049 -0.07126514 0.066481605 0.020520996
-0.17789535 -0.14063664 0.0035288485 -0.06606205 -0.106480055 -0.14552476 0.13305129 -0.09735604
-0.17370111 0.021910645 0.060090598 -0.11652826 0.14665242 0.08520886 -0.0442015 -0.04223887
-0.06716593 0.15079525 0.06943593 -0.025280453 0.17428929 -0.02821048 -0.04944402 -0.101702094
0.04103372 0.027883625 0.0043655247 0.18112107 0.11818132 0.17591372 0.0068450496 0.029006796
-0.046539124 0.07200819 -0.113160044 0.032026846 0.19786368 -0.033951838 0.06221407 0.041896924
-0.007363028 -0.042177547 0.0068472503 0.006759113 0.04366145 -0.053982895 -0.04122784 0.10240326
-0.17244412 0.058215544 0.00021411768 0.13629957 0.025177674 0.013567316 0.15978226 0.014326807
0.09974749 0.11772731 -0.035115395 0.03383725 0.09818061 0.12148488 0.08719646 -0.12954445
-0.12942934 0.008388032 0.053624097 -0.036318127 0.10899102 -0.12022854 -0.14325695 0.09834055
-0.089503564 0.12119371 -0.01836229 0.11219434 -0.07730309 -0.078301825 -0.16123141 -0.078920364
0.07955715 0.055138413 0.09910357 -0.11406767 -0.042343073 -0.060545884 -0.0229025 0.036515594
-0.12592427 -0.1279026 0.017680094 0.0036757318 -0.1264081 0.019152556 -0.06320092 -0.015853502
0.16763729 0.12337864 0.070662834 -0.14681034 -0.15781231 -0.09429212 -0.036782995 -0.16990526
-0.012626979 0.02906458 0.05015261 -0.15589736 -0.0942358 -0.04592449 0.17610134 0.05872877
-0.038029004 0.14917152 0.09742857 0.05328036 -0.04538121 0.09251647 -0.051854786 0.07979054
0.052984707 0.060084827 -0.043198816 -0.14795062 0.16701296 0.030119825 -0.016084379 0.073953226
-0.0366079 -0.06693122 0.12511985 0.024219584 0.08260233 0.007898458 -0.0740699 0.012167379
0.14968702 0.063809894 0.045615524 0.10662658 0.059037272 -0.10791601 -0.090504564 -0.05798066
-0.021505412 -0.15252988 -0.10002943 -0.0795234 -0.0002479325 -0.035352778 -0.09157976 0.16097336
0.06879564 0.016125187 -0.09112586 -0.0024786133 -0.0062255696 -0.024814922 -0.16337895 0.03715914
00000000: 3526 38bd 3275 053e 7d4a 173e 760c 0fbe
00000010: bdd6 373e 713c cbbd 4f79 a13d fac3 a2bd
00000020: 3ba3 b13d 18f0 cb3c 5509 42be 746b a8bd
00000030: d765 bbbd 1fef 02bd d7ba cbbd ce94 0d3d
00000040: ec1e 87bc f22f be3d 41b4 633c 94a6 0f3d
00000050: 6a97 963d 73c2 c1bd fb53 e3bd ab09 6abd
00000060: 15a3 d4bc 445c 2ebe 5e2f 983c dd35 29bc
00000070: 94c9 2a3a 1460 2e3c 5e58 cbbd 88ac 42bd
00000080: 3789 c93d c098 f33d d9ed 0a3e 235e 8cbd
00000090: 5a78 bcbd 1d50 da3d 7cc4 20be 1326 42be
000000a0: b420 52bd ded1 ae3d 3f45 943d 7c5c 983b
000000b0: a212 a1bd 3104 a6bd 9988 a83d bee5 a2bc
000000c0: cd9f 0bbd df4c f33d 016c 453d c7d7 36be
000000d0: 14a1 0bbe ce5b 493e 6058 a53d 6dfa c7bd
000000e0: c41a ffbd 1867 0e3c 5c66 2a3e f74b 0fbd
000000f0: 7dcf d63c 0b74 193d e2aa c43d 1b7e 0d3e
00000100: cb29 d7bd d17e 78bd 3251 073e b6bf b13d
00000110: d8a4 85bd e5bc 6fbd d990 77bd f8a9 493e
00000120: ca0b 193d 19da 0d3e 810e f53c d47c 1abe
00000130: b352 dd3d 7c51 aabc b38e ad3d 0cf0 d43b
00000140: de4f 08be d5af 33bd f69b e23d 5484 093e
00000150: 7050 82bd 537d 05be bcfb 233e e442 483c
00000160: 7299 0f3e 6fbd 17be c251 123e c04d e33c
00000170: 1481 08be 75f3 91bd 8227 883d a61b a83c
00000180: 332a 36be 0d03 10be 4144 673b 8a4b 87bd
00000190: 3712 dabd 7104 15be 993e 083e 9a62 c7bd
000001a0: b4de 31be f47d b33c 8f21 763d 5ea6 eebd
000001b0: 0d2c 163e fc81 ae3d a20c 35bd aa02 2dbd
000001c0: 4b8e 89bd 126a 1a3e 6d34 8e3d f418 cfbc
000001d0: e478 323e aa19 e7bc d085 4abd 3049 d0bd
000001e0: f912 283d 336c e43c ad0c 8f3b cd77 393e
000001f0: 0c09 f23d ba22 343e 704c e03b a99f ed3c
00000200: cf9f 3ebd 0879 933d 74c0 e7bd 952e 033d
00000210: c79c 4a3e 1511 0bbd 2ed4 7e3d 1c9c 2b3d
00000220: 8e45 f1bb 5dc2 2cbd e65e e03b 8d7b dd3b
00000230: 59d6 323d 2b1d 5dbd 86de 28bd cdb8 d13d
00000240: 3195 30be 6c73 6e3d c784 6039 1d92 0b3e
00000250: 6941 ce3c 7349 5e3c f69d 233e fcba 6a3c
00000260: 6948 cc3d 041b f13d 29d5 0fbd ee98 0a3d
00000270: ea12 c93d 11cd f83d 0f94 b23d 4da7 04be
00000280: 2089 04be f56d 093c f1a4 5b3d 51c2 14bd
00000290: af36 df3d 613a f6bd f3b1 12be c566 c93d
000002a0: a54d b7bd 6834 f83d 836c 96bc 25c6 e53d
000002b0: 1551 9ebd b55c a0bd d919 25be 00a1 a1bd
000002c0: dcee a23d d1d8 613d d0f6 ca3d 509c e9bd
000002d0: ee6f 2dbd f6fe 77bd 069e bbbc 6091 153d
000002e0: 4bf2 00be e6f8 02be d8d5 903c 8ce4 703b
000002f0: 2071 01be d2e5 9c3c 7c6f 81bd 34df 81bc
00000300: 1ca9 2b3e f1ad fc3d adb7 903d 7355 16be
00000310: 8d99 21be 3a1c c1bd c4a9 16bd a5fb 2dbe
00000320: 63e1 4ebc d818 ee3c d36c 4d3d 8fa3 1fbe
00000330: b3fe c0bd 511b 3cbd e953 343e 948d 703d
00000340: 4dc4 1bbd 6bc0 183e a188 c73d 823c 5a3d
00000350: a6e1 39bd 4679 bd3d af65 54bd 3969 a33d
00000360: 7e06 593d 821b 763d 3ef1 30bd 5e80 17be
00000370: 7205 2b3e dabd f63c 63c3 83bc ca74 973d
00000380: 2af2 15bd 3c13 89bd 6b1f 003e 2668 c63c
00000390: 692b a93d 8968 013c f6b1 97bd b059 473c
000003a0: 8e47 193e c3ae 823d 58d7 3a3d 095f da3d
000003b0: 11d1 713d 1203 ddbd 755a b9bd 217d 6dbd
000003c0: 1e2c b0bc cb30 1cbe 3bdc ccbd 2add a2bd
000003d0: f0fc 81b9 13ce 10bd 2b8e bbbd 33d6 243e
000003e0: bae4 8c3d f818 843c 32a0 babd 3b70 22bb
000003f0: ddff cbbb aa48 cbbc d04c 27be 2f34 183d

lstm.weight_hh_l0 f4 [160, 40]
-0.074312076 -0.1016435 -0.17538264 0.00025861574 -0.21936512 -0.0836556 0.105126485 -0.056633785
0.19896671 -0.06517311 -0.02529079 -0.01566999 -0.010382095 0.22509558 -0.0034316818 -0.15065674
-0.12700869 0.019085625 -0.021705087 0.17012538 -0.10917067 -0.0962165 -0.15618475 0.040206987
0.15224713 0.039176952 0.12246089 -0.10861195 0.045469485 0.004952036 -0.06876535 0.03237758
-0.019743638 0.20862424 0.08271068 -0.0020107422 0.09017917 -0.17499602 0.052169807 0.12725005
0.113528185 0.020491505 0.10831674 -0.056504145 -0.047246937 -0.18727611 -0.026111739 -0.2975228
0.11910571 0.15449142 -0.042714365 0.12934703 -0.07739052 -0.08237711 -0.12046602 -0.11036529
-0.1099799 0.028613163 -0.11998184 0.07276598 0.05577766 -0.18656516 -0.020626133 0.083810546
-0.06923442 -0.037805382 0.0015249179 0.1741558 -0.010844245 -0.102490045 0.13289644 -0.052874472
-0.159067 0.02473405 0.10762214 0.018824391 -0.08162994 -0.115447044 0.27527457 0.023301573
0.056231484 -0.1957797 -0.14415891 0.067837596 0.074789174 -0.03662989 0.038339913 0.066165134
-0.062113825 0.11463608 0.15805176 -0.2115732 0.08933184 0.14229959 -0.061345894 0.03229971
0.017713351 0.056237124 0.042582892 0.16267723 -0.10939488 -0.031269815 -0.14546306 0.118368395
0.08552844 -0.10300505 0.10434692 0.06290168 -0.0024206545 0.08409044 0.052719984 -0.15928933
0.01508451 0.21236417 0.0625797 0.078908764 0.040659804 0.006226017 -0.07041334 0.20092444
0.08185488 -0.033907454 0.06856257 0.030815251 -0.10205898 -0.11850262 0.15069948 0.018726535
0.011667491 0.18808295 0.13359927 0.010150232 0.21885775 -0.030647516 0.039737467 -0.21160714
0.058634385 0.0031848869 0.01577034 0.062384494 0.061544422 -0.12452772 -0.12635113 0.23030089
0.010097894 -0.08484679 0.107365526 0.056663558 -0.17707229 -0.018584173 0.10684387 -0.13563722
0.07670646 0.10266525 0.12881103 -0.09958701 -0.20025796 -0.03420313 0.11704437 -0.05575815
0.065729134 0.08082565 0.019981911 -0.060190354 -0.023456799 -0.11815274 0.18769109 -0.135212
-0.10111057 0.06814471 0.06434742 -0.14742024 -0.0063373796 0.1674713 -0.12713222 0.0019662057
-0.044370033 -0.08664967 0.029979918 -0.0194466 0.0056727147 -0.06695198 -0.1515522 -0.011473911
0.17998981 -0.101712495 0.1826768 0.11589884 -0.020018592 0.06939627 0.020307153 -0.07754124
-0.079706594 0.1672918 0.18201761 0.06396544 -0.09367549 0.024436528 0.11646924 -0.021477716
-0.079591535 -0.16708253 -0.14694746 0.11875618 0.1364949 0.0018356122 0.11250793 -0.10856697
0.09231362 0.12752678 0.06460506 0.052339662 0.13753648 0.043256424 -0.12285175 -0.03696837
0.010495192 -0.11938497 -0.097697414 0.1321251 0.021290967 0.090460144 -0.14440162 0.10701213
0.19693539 0.020724682 0.14904463 -0.06444643 -0.07716351 -0.11596903 -0.0042963885 -0.12346888
0.119474754 -0.06699076 0.1341154 0.09026029 -0.11278657 0.10533371 0.18940324 0.16443814
-0.07040579 -0.20888922 0.11866271 -0.053748596 -0.18181309 -0.15536886 0.22167554 -0.006452342
0.1418037 0.043032046 0.16007903 -0.078686915 0.040219527 -0.08377156 0.023148103 -0.06315872
00000000: ee30 98bd 782a d0bd 8297 33be d196 8739
00000010: 40a1 60be a153 abbd 8e4c d73d d4f8 67bd
00000020: eebd 4b3e 7b79 85bd a12e cfbc 5a5e 80bc
00000030: aa19 2abc 757f 663e 11e6 60bb c345 1abe
00000040: 910e 02be 7559 9c3c dece b1bc 5935 2e3e
00000050: df94 dfbd 280d c5bd e5ee 1fbe 15b0 243d
00000060: ace6 1b3e 0378 203d c6cc fa3d f16f debd
00000070: 363e 3a3d b044 a23b d9d4 8cbd 5a9e 043d
00000080: 69bd a1bc 98a1 553e 3864 a93d a8c6 03bb
00000090: dbaf b83d 2832 33be 02b0 553d d64d 023e
000000a0: 7781 e83d cddd a73c 2bd5 dd3d e470 67bd
000000b0: 0186 41bd 4fc5 3fbe 49e8 d5bc e954 98be
000000c0: b2ed f33d 0033 1e3e 42f5 2ebd 8c73 043e
000000d0: ec7e 9ebd 55b5 a8bd e4b6 f6bd 3207 e2bd
000000e0: 243d e1bd 2766 ea3c 0ab9 f5bd 5506 953d
000000f0: 1e77 643d f00a 3fbe 23f8 a8bc dda4 ab3d
00000100: c7ca 8dbd d1d9 1abd c1df c73a e655 323e
00000110: 0fac 31bc 4de6 d1bd 0116 083e e792 58bd
00000120: 76e2 22be 109f ca3c ff68 dc3d 9c35 9a3c
00000130: 992d a7bd 806f ecbd caf0 8c3e f1e2 be3c
00000140: fc52 663d 797a 48be 659e 13be 70ee 8a3d
00000150: 112b 993d 3909 16bd 500a 1d3d 9681 873d
00000160: 116b 7ebd 52c6 ea3d 52d8 213e a5a6 58be
00000170: 9df3 b63d fcb6 113e d545 7bbd b34c 043d
00000180: 971b 913c e658 663d 666b 2e3d dc94 263e
00000190: 6c0a e0bd c714 00bd 45f4 14be 216b f23d
000001a0: 8929 af3d 50f4 d2bd d7b3 d53d 99d2 803d
000001b0: d8a3 1ebb 9c37 ac3d e9f0 573d be1c 23be
000001c0: 0525 773c fe75 593e c929 803d eb9a a13d
000001d0: e58a 263d 9e03 cc3b df34 90bd 23bf 4d3e
000001e0: 88a3 a73d 8be2 0abd 886a 8c3d 4470 fc3c
000001f0: 4c04 d1bd 80b1 f2bd f750 1a3e 6468 993c
00000200: 0129 3f3c d198 403e 3fce 083e 294d 263c
00000210: 3f1c 603e 8010 fbbc c1c3 223d 8baf 58be
00000220: 9c2a 703d 89b9 503b cd30 813c e286 7f3d
00000230: 0116 7c3d 6408 ffbd 3162 01be ffd3 6b3e
00000240: a371 253c 27c4 adbd 75e2 db3d 0c18 683d
00000250: 7052 35be d63d 98bc f5d0 da3d 7ce4 0abe
00000260: 4718 9d3d 2942 d23d 0ae7 033e 46f4 cbbd
00000270: 6c10 4dbe 9518 0cbd f5b4 ef3d a862 64bd
00000280: ff9c 863d eb87 a53d 1bb1 a33c 298a 76bd
00000290: 7928 c0bc 10fa f1bd 1832 403e 0475 0abe
000002a0: 0f13 cfbd 748f 8b3d 95c8 833d 55f5 16be
000002b0: cba9 cfbb 997d 2b3e f32e 02be 75db 003b
000002c0: 5abd 35bd 6275 b1bd 7298 f53c 7a4e 9fbc
000002d0: 2ee2 b93b 1f1e 89bd 8030 1bbe 12fd 3bbc
000002e0: 404f 383e a44e d0bd a10f 3b3e 5f5c ed3d
000002f0: 08fe a3bc a21f 8e3d 305b a63c f1cd 9ebd
00000300: 363d a3bd 8b4e 2b3e d362 3a3e 5000 833d
00000310: efd8 bfbd 1d2f c83c 6d87 ee3d 09f2 afbc
00000320: e300 a3bd af17 2bbe 6579 16be 7136 f33d
00000330: 52c5 0b3e ed98 f03a 8f6a e63d 5c58 debd
00000340: ec0e bd3d 6196 023e a84f 843d 1d62 563d
00000350: 5dd6 0c3e a62d 313d b399 fbbd 256c 17bd
00000360: 07f4 2b3c 1b80 f4bd 9515 c8bd cd4b 073e
00000370: 656a ae3c 2b43 b93d 05de 13be 2d29 db3d
00000380: 6ea9 493e cfc6 a93c 289f 183e 7dfc 83bd
00000390: e707 9ebd 2c81 edbd b8c8 8cbb 41dd fcbd
000003a0: 2eaf f43d 7432 89bd 8c55 093e 63da b83d
000003b0: a5fc e6bd 33b9 d73d ecf2 413e 7962 283e
000003c0: e930 90bd 0ee7 55be 6f05 f33d 7d27 5cbd
000003d0: 362d 3abe 0419 1fbe eafe 623e 2b6e d3bb
000003e0: fd34 113e 5f42 303d c2eb 233e 9b26 a1bd
000003f0: 3bbd 243d 6c90 abbd 17a1 bd3c 5c59 81bd

lstm.bias_ih_l0 f4 [160]
-0.07993158 -0.031217571 0.12818722 0.16243196 -0.014155969 0.16591313 -0.09299619 -0.09743241
-0.081126004 0.09894886 0.1405568 0.008114959 -0.09866543 0.088581115 0.055722315 0.10709722
-0.047423135 -0.037008982 -0.11743871 -0.00017777228 0.1029075 -0.03597089 0.23601708 -0.065850124
0.07521315 0.008055011 0.07024536 0.201228 -0.06283298 -0.065426245 -0.12784982 0.1194432
0.017567148 0.13863625 -0.08775399 0.035142437 0.0017583754 -0.033089664 -0.068822585 0.024191117
0.13463442 0.0019742704 0.105701216 -0.047682106 -0.08011259 0.21428414 0.039156605 -0.02037522
-0.04258811 0.11071684 0.06496293 -0.06775145 0.16740355 0.10136754 0.14044496 -0.090079404
0.023506766 0.013288811 0.051245682 -0.042474054 0.108629726 0.119844615 0.11332945 -0.10203035
0.04586836 -0.04044411 0.07026017 0.09142519 -0.066159464 0.084789336 -0.11806981 0.0070920964
0.122815676 0.18177211 0.18269916 0.17219108 0.0719284 -0.045772944 0.20677936 0.14707042
0.081982456 -0.055803567 -0.23589356 -0.0033827112 -0.13951886 -0.16998814 0.1728451 0.0036229135
0.21383564 0.060753718 0.038783725 -0.0023119445 0.047999214 0.13002332 -0.08991579 -0.00035749286
-0.07735994 -0.036287997 0.037443083 -0.05688664 0.0023678578 -0.16100594 -0.18484794 0.012923093
0.22405964 -0.24261877 0.15929504 0.024508903 -0.043190207 0.0776975 0.065107964 -0.23932889
-0.07416346 0.16853277 0.16601932 0.030493762 -0.04048346 -0.2471482 0.022865754 0.13949977
0.086424366 0.13858503 0.027141811 0.13434914 -0.05991839 -0.050318416 -0.07353986 0.032570526
0.182705 -0.015094935 -0.041023225 0.08106334 -0.040158622 0.09571599 0.17126428 0.109247126
0.10672915 0.1484741 0.0645687 0.23105522 -0.018596306 -0.039371185 0.25396046 -0.023363767
0.15793885 0.16251525 -0.028931635 -0.027623711 -0.0230673 -0.065362364 0.012549429 -0.03231122
-0.11566408 -0.011770756 0.16463867 0.14728868 0.009435288 0.12867604 0.11169523 -0.032511782
00000000: 2bb3 a3bd febb ffbc 8343 033e 9054 263e
00000010: 70ee 67bc 22e5 293e c974 bebd a58a c7bd
00000020: 6425 a6bd b3a5 ca3d 1fee 0f3e 9bf4 043c
00000030: 1a11 cabd 046a b53d 153d 643d ca55 db3d
00000040: c33e 42bd bb96 17bd b583 f0bd 6268 3ab9
00000050: 2bc1 d23d 3656 13bd 76ae 713e 6edc 86bd
00000060: 5a09 9a3d 2af9 033c cddc 8f3d b60e 4e3e
00000070: 94ae 80bd 32fe 85bd 10eb 02be a39e f43d
00000080: fbe8 8f3c a9f6 0d3e 5db8 b3bd 84f1 0f3d
00000090: 4a79 e63a 0789 07bd dbf2 8cbd 732c c63c
000000a0: 9bdd 093e c362 013b e179 d83d 504e 43bd
000000b0: 1212 a4bd 4d6d 5b3e ad62 203d efe9 a6bc
000000c0: df70 2ebd 83bf e23d 490b 853d 46c1 8abd
000000d0: d66b 2b3e c999 cf3d ced0 0f3e 8d7b b8bd
000000e0: 4391 c03c 50b9 593c fee6 513d 46f9 2dbd
000000f0: 4379 de3d 1871 f53d 4519 e83d 4af5 d0bd
00000100: 76e0 3b3d b9a8 25bd 90e4 8f3d 213d bb3d
00000110: 9d7e 87bd 08a6 ad3d 96ce f1bd d164 e83b
00000120: c986 fb3d 7822 3a3e 7d15 3b3e dc52 303e
00000130: 324f 933d 697c 3bbd f8bd 533e a199 163e
00000140: 6be6 a73d 4892 64bd 158e 71be 7ab0 5dbb
00000150: 08de 0ebe 5f11 2ebe 4efe 303e 676e 6d3b
00000160: bbf7 5a3e e4d8 783d afdb 1e3d fe83 17bb
00000170: d39a 443d d524 053e c525 b8bd e16d bbb9
00000180: e36e 9ebd b9a2 14bd eb5d 193d f701 69bd
00000190: 102e 1b3b bede 24be c748 3dbe 61bb 533c
000001a0: e46f 653e 0e71 78be 3d1e 233e e5c6 c83c
000001b0: 37e8 30bd de1f 9f3d 5357 853d a212 75be
000001c0: 03e3 97bd db93 2c3e f800 2a3e 0ece f93c
000001d0: fcd1 25bd 6b14 7dbe f650 bb3c 07d9 0e3e
000001e0: 42ff b03d 3ce9 0d3e 8158 de3c d292 093e
000001f0: fc6c 75bd af1a 4ebd 119c 96bd ac68 053d
00000200: 0517 3b3e bf50 77bc f807 28bd 8904 a63d
00000210: 5e7d 24bd bf06 c43d e75f 2f3e f5bc df3d
00000220: d094 da3d 9809 183e 983c 843d bd99 6c3e
00000230: 4857 98bc ae43 21bd 1b07 823e 5f65 bfbc
00000240: b9ba 213e 666a 263e 0902 edbc 1f4b e2bc
00000250: a2f7 bcbc b4dc 85bd 1f9c 4d3c c558 04bd
00000260: 4ae1 ecbd 21da 40bc 0a97 283e d8d2 163e
00000270: 7796 1a3c a7c3 033e 78c0 e43d 132b 05bd

lstm.bias_hh_l0 f4 [160]
0.16686425 -0.05613444 -0.018615706 -0.11657137 0.17555276 0.082381316 0.10608109 -0.12004682
0.15580712 -0.05510503 0.15006356 0.17983927 0.09784639 0.07634045 -0.052916415 0.096706346
-1.2598002e-05 0.0047879773 0.043313753 0.11903211 0.00655442 0.13240312 -0.041337438 0.14714885
0.16563977 -0.034506395 0.10717476 0.15994221 0.04577035 0.10776451 -0.066453695 0.071621686
-0.14650786 0.19635914 0.083481304 0.13107118 -0.09703635 0.16190022 0.079728976 0.04540142
0.08426886 0.17155486 -0.02081763 -0.039142027 0.011306923 0.12531897 0.12983945 -0.073017776
0.07987438 0.18612678 -0.012405769 -0.08204145 0.11611309 0.1597598 0.16761935 0.08615167
-0.11033155 -0.03485821 0.17519993 0.13854708 0.15026651 0.20894091 0.012336021 0.160708
0.15376487 0.21068598 -0.04141074 -0.012980146 0.18057387 -0.045432564 0.07840034 0.08106744
-0.051047858 0.12741074 -0.02140574 0.13882446 0.18085316 0.22008625 0.037058063 0.0442429
0.09416154 -0.07278762 -0.21205588 0.014927615 0.013438159 0.0072254166 0.13848695 -0.20713802
-0.012189348 -0.018312717 0.027668593 -0.10621305 0.21731089 0.107332855 -0.20075746 -0.023656925
-0.114810884 -0.02672224 -0.097246446 0.1742093 -0.20851007 0.04595303 -0.18464313 0.0026858053
0.20784009 -0.08572007 0.08448668 0.25477284 -0.061259232 -0.1656455 0.1904868 0.016508145
-0.03429698 0.024242908 0.11246913 -0.23131818 0.029014818 -0.14875133 0.23343897 0.05530315
-0.076184526 -0.038616404 -0.014399536 0.17383668 0.01790939 0.08588465 0.19701527 0.04834987
0.008717303 -0.017222714 0.0024128943 0.12275506 0.024157757 0.106459714 0.028589077 -0.0036833452
0.17983003 0.0015377465 0.11995053 0.20438771 -0.047783136 0.023109982 0.19444357 -0.06698435
-0.058820404 0.06332729 0.10689257 0.18712041 -0.07715268 -0.047488745 0.08716349 0.19300443
0.057190128 0.071589835 0.16241008 -0.05975231 0.08823999 -0.07013026 0.21698283 -0.008031503
00000000: 76de 2a3e 3aed 65bd f77f 98bc f8bc eebd
00000010: 1ac4 333e 89b7 a83d 0b41 d93d 1bdb f5bd
00000020: e78b 1f3e d0b5 61bd 43aa 193e c927 383e
00000030: b063 c83d 6258 9c3d e2be 58bd fa0d c63d
00000040: 025c 53b7 77e4 9c3b c369 313d 1bc7 f33d
00000050: 76c6 d63b af94 073e 7251 29bd 30ae 163e
00000060: 799d 293e 9456 0dbd 717e db3d e4c7 233e
00000070: b179 3b3d a4b3 dc3d e018 88bd 64ae 923d
00000080: 2806 16be 5f12 493e 3ff8 aa3d 8637 063e
00000090: feba c6bd 2cc9 253e f248 a33d d7f6 393d
000000a0: 2795 ac3d 14ac 2f3e bc89 aabc 6453 20bd
000000b0: ac40 393c 9e53 003e a2f4 043e 588a 95bd
000000c0: 2e95 a33d 0598 3e3e 9141 4bbc 5905 a8bd
000000d0: b3cc ed3d 1398 233e 68a4 2b3e 4970 b03d
000000e0: 82f5 e1bd 7bc7 0ebd 9c67 333e 49df 0d3e
000000f0: 77df 193e 9bf4 553e 061d 4a3c a390 243e
00000100: 8a74 1d3e 11be 573e 4f9e 29bd aeaa 54bc
00000110: 5be8 383e 7f17 3abd 5c90 a03d b006 a63d
00000120: 8f17 51bd f677 023e 175b afbc 0028 0e3e
00000130: 9231 393e 4a5e 613e 32ca 173d 0b38 353d
00000140: c4d7 c03d ad11 95bd 2d25 59be f592 743c
00000150: b92b 5c3c 30c3 ec3b 86cf 0d3e fd1b 54be
00000160: d5b5 47bc 8d04 96bc 3fa9 e23c 3a86 d9bd
00000170: bf86 5e3e 54d1 db3d 5d93 4dbe 2bcc c1bc
00000180: f821 ebbd 99e8 dabc 2529 c7bd ec63 323e
00000190: aa83 55be 3f39 3c3d 1713 3dbe 5604 303b
000001a0: 08d4 543e 018e afbd 5a07 ad3d 9671 823e
000001b0: f6ea 7abd f99e 29be f90e 433e 173c 873c
000001c0: fd7a 0cbd 1099 c63c 3756 e63d acde 6cbe
000001d0: 7cb0 ed3c 4552 18be a00a 6f3e 8e85 623d
000001e0: a206 9cbd 3c2c 1ebd 08ec 6bbc 3e02 323e
000001f0: b7b6 923c 4be4 af3d 5fbe 493e 830a 463d
00000200: 05d3 0e3c a616 8dbc a621 1e3b 0167 fb3d
00000210: 7de6 c53c 8d07 da3d a433 ea3c 4764 71bb
00000220: 5d25 383e 368e c93a a0a8 f53d 034b 513e
00000230: 40b8 43bd 2551 bd3c 371c 473e 172f 89bd
00000240: aaed 70bd bdb1 813d 7eea da3d 7e9c 3f3e
00000250: 3902 9ebd 8f83 42bd c682 b23d f4a2 453e
00000260: 3240 6a3d b19d 923d d44e 263e d7be 74bd
00000270: 2bb7 b43d 74a0 8fbd bf30 5e3e 9196 03bc

lstm.weight_ih_l1 f4 [160, 40]
-0.007359151 0.053565532 -0.030185657 0.06892906 -0.05684167 -0.011579737 0.075393766 -0.035566546
0.11407716 0.035779428 -0.077629335 0.077336185 0.05468873 -0.07083029 0.08367358 0.07157206
-0.05967544 -0.014593338 -0.0072777774 0.069723375 -0.009286679 -0.03368078 -0.025775028 0.009775444
0.05263355 0.12141792 -0.01675471 0.061639562 -0.050192315 -0.1611694 -0.0056648054 0.12186818
-0.117159024 -0.09845737 -0.06810329 -0.08872714 -0.14192457 -0.033562627 0.12814158 0.041925166
-0.04443426 -0.023898186 0.01593633 -0.027433194 -0.14231311 0.014247096 0.07593546 0.14147021
0.1893912 0.14622933 0.03282553 0.084261395 0.116589814 -0.030204087 -0.121925816 -0.022584105
-0.022180319 0.075625174 0.035015326 -0.04975741 0.0044185435 0.09118509 0.10125187 0.15772037
0.045030598 -0.109428436 0.08697557 -0.0970596 -0.06347813 -0.104622945 0.08405002 -0.16016565
-0.016405456 0.06170123 0.14853473 0.11434971 -0.13260578 -0.019847913 -0.033441857 0.062693685
0.18310149 0.12140557 0.023744833 0.14836322 0.07789593 0.09223201 -0.07935542 -0.013090669
0.009324844 -0.06823435 0.0830554 -0.03158534 -0.058186073 0.18696079 0.0071394923 -0.04781829
-0.15516278 -0.05602266 -0.06791096 0.10991637 -0.12979722 0.10165818 -0.12005957 -0.09546644
0.009462738 -0.079102546 -0.05152674 0.111532874 -0.10975239 0.025852062 -0.11026422 -0.007515138
-0.0775729 -0.07813338 -0.10141036 -0.19636339 0.103913434 -0.1266644 0.08508677 -0.0012959852
0.08742773 0.0014629035 -0.0089071365 -0.037627045 0.07051785 -0.16592526 -0.116086565 0.09796655
-0.019751042 0.06294703 0.08024037 -0.116361625 0.040903512 0.119948335 -0.09393717 -0.06241053
-0.13995707 -0.18622771 -0.0983511 0.1761673 0.08072378 -0.026334452 -0.09192041 0.046232067
-0.029765313 0.11096896 0.12072973 0.13320562 -0.042796105 -0.13323604 0.12774803 0.04746356
-0.10108094 0.046101216 0.04670787 0.11862904 0.08351995 0.079887204 0.12545943 0.11906948
0.18362075 -0.07474971 -0.032130238 0.08395827 -0.09022809 0.040649645 -0.11137863 -0.1651473
-0.024137475 0.112385824 0.07506691 -0.061948165 0.049724147 0.17699574 -0.087740675 -0.08628567
-0.020478196 0.006858857 -0.013480158 0.09258603 0.018791514 0.075786926 -0.11634499 0.18446255
-0.07251276 0.119213305 -0.01891462 -0.04085685 -0.023156306 -0.16514201 -0.018753298 0.09365082
-0.17376737 0.1023399 -0.10508257 -0.056686364 0.049199846 -0.005185784 -0.08393441 -0.084028006
0.16853052 0.027447488 0.010742132 0.07300034 0.01937798 -0.119764425 0.07920898 0.14117245
0.1910745 -0.111870445 0.048439644 0.024193667 -0.032556515 0.10692236 -0.00072086765 0.12801331
-0.0053305323 -0.10433476 0.10347804 0.1735347 -0.05275245 0.096634984 0.043429058 0.074130304
0.12402608 -0.18361692 0.05584361 0.08178338 0.12090599 0.08213835 -0.12451054 -0.19657771
-0.035042755 0.09626439 -0.06329243 0.118542604 -0.13969944 -0.122357674 -0.0827508 0.050708216
-0.024400331 -0.16288711 -0.17853239 -0.14053747 -0.08724347 0.026010305 -0.10155959 0.07615888
0.036392234 -0.010575399 -0.1271692 -0.01439744 -0.045956213 -0.038471933 -0.14721483 -0.06455255
00000000: 0825 f1bb 8867 5b3d e947 f7bc ae2a 8d3d
00000010: d0d2 68bd f0b8 3dbc 0c68 9a3d 3aae 11bd
00000020: 49a1 e93d 738d 123d 21fc 9ebd 6f62 9e3d
00000030: 4a01 603d 790f 91bd 0e5d ab3d 5f94 923d
00000040: 3c6e 74bd e518 6fbc 6c7a eebb 21cb 8e3d
00000050: 2827 18bc dcf4 09bd 2726 d3bc 2f29 203c
00000060: 4796 573d f5a9 f83d 2c41 89bc c479 7c3d
00000070: 7596 4dbd 9709 25be d59f b9bb 0696 f93d
00000080: 12f1 efbd 05a4 c9bd bd79 8bbd 93b6 b5bd
00000090: ad54 11be f778 09bd 8c37 033e b9b9 2b3d
000000a0: b300 36bd 21c6 c3bc e88c 823c 94bb e0bc
000000b0: 87ba 11be a76c 693c 0d84 9b3d 91dd 103e
000000c0: c4ef 413e 24bd 153e 1074 063d 3d91 ac3d
000000d0: a4c6 ee3d 906e f7bc 3eb4 f9bd 4d02 b9bc
000000e0: 80b3 b5bc 5fe1 9a3d 3b6c 0f3d 6dce 4bbd
000000f0: 6ec9 903b 40bf ba3d 245d cf3d 7381 213e
00000100: 0172 383d 041c e0bd 3f20 b23d 2fc7 c6bd
00000110: d200 82bd 8e44 d6bd 6b22 ac3d 7702 24be
00000120: bc64 86bc 6eba 7c3d 7d19 183e 2e30 ea3d
00000130: cfc9 07be 1798 a2bc 54fa 08bd 8c65 803d
00000140: f57e 3b3e 7ca3 f83d 8684 c23c 87ec 173e
00000150: e787 9f3d 23e4 bc3d 1885 a2bd 3f7a 56bc
00000160: 3bc7 183c 73be 8bbd f318 aa3d a15f 01bd
00000170: 8554 6ebd a672 3f3e 67f2 e93b 1cdd 43bd
00000180: fee2 1ebe 0478 65bd e714 8bbd d51b e13d
00000190: 90e9 04be 2a32 d03d cbe1 f5bd e983 c3bd
000001a0: 9a09 1b3c 8400 a2bd b40d 53bd 596b e43d
000001b0: dcc5 e0bd b4c7 d33c 35d2 e1bd 8c41 f6bb
000001c0: 8ade 9ebd 6504 a0bd 3cb0 cfbd 7c13 49be
000001d0: 91d0 d43d 50b4 01be f941 ae3d 0cde a9ba
000001e0: 4f0d b33d e5be bf3a 3def 11bc d11e 1abd
000001f0: aa6b 903d 50e8 29be cbbe edbd b0a2 c83d
00000200: f0cc a1bc 5fea 803d 1055 a43d 014f eebd
00000210: 718a 273d 79a7 f53d 2262 c0bd 2fa2 7fbd
00000220: e850 0fbe 7ab2 3ebe 4d6c c9bd 3365 343e
00000230: 8252 a53d 59bb d7bc c540 bcbd d65d 3d3d
00000240: 63d6 f3bc b243 e33d 2641 f73d 0e67 083e
00000250: f84a 2fbd 076f 08be 61d0 023e 2669 423d
00000260: 8603 cfbd a1d4 3c3d c050 3f3d c8f3 f23d
00000270: 820c ab3d e79b a33d 7078 003e b3da f33d
00000280: 1407 3c3e 6016 99bd ff9a 03bd 50f2 ab3d
00000290: 81c9 b8bd 3e80 263d 7b1a e4bd 601c 29be
000002a0: f4bb c5bc 8a2a e63d aebc 993d 5cbd 7dbd
000002b0: 8cab 4b3d 5f3e 353e 62b1 b3bd 8bb6 b0bd
000002c0: e4c1 a7bc 43c0 e03b e1db 5cbc bf9d bd3d
000002d0: a9f0 993c 2d36 9b3d 4846 eebd c0e3 3c3e
000002e0: 9281 94bd 1b26 f43d d5f2 9abc 8359 27bd
000002f0: 4bb2 bdbc fd1a 29be 84a0 99bc 00cc bf3d
00000300: 13f0 31be 9597 d13d 8835 d7bd f62f 68bd
00000310: c785 493d 82ed a9bb cee5 abbd e016 acbd
00000320: 4493 2c3e 8ed9 e03c c4ff 2f3c 3481 953d
00000330: 92be 9e3c 0d47 f5bd 5138 a23d 838f 103e
00000340: 09a9 433e 551c e5bd a668 463d cc31 c63c
00000350: fb59 05bd 1cfa da3d 9cf8 3cba ec15 033e
00000360: bfab aebb 76ad d5bd 4bec d33d 15b3 313e
00000370: f412 58bd 90e8 c53d abe2 313d a1d1 973d
00000380: 6301 fe3d 1306 3cbe 45bc 643d 0b7e a73d
00000390: 8f9d f73d 2738 a83d 62ff febd ab4b 49be
000003a0: fe88 0fbd 4426 c53d 769f 81bd 77c6 f23d
000003b0: 5f0d 0fbe a996 fabd 4079 a9bd 6bb3 4f3d
000003c0: 34e3 c7bc e1cb 26be 32d1 36be 0ee9 0fbe
000003d0: b4ac b2bd 9013 d53c 79fe cfbd 30f9 9b3d
000003e0: 0610 153d 7044 2dbc a538 02be 3de3 6bbc
000003f0: 953c 3cbd bf94 1dbd 7cbf 16be 2134 84bd

lstm.weight_hh_l1 f4 [160, 40]
-0.0077784797 -0.20697859 -0.07395578 -0.112209156 0.032062214 -0.03301481 -0.1417152 0.07895701
-0.12116282 -0.029593615 0.10532803 -0.040800963 -0.037858784 0.14198552 0.034871407 0.031504508
-0.099754505 0.0699805 -0.014436959 0.16891718 0.0026760604 0.05505652 0.021426726 -0.036909036
-0.01957324 0.056898233 0.011558446 0.108354606 -0.076896116 0.024451084 0.1261424 0.09991745
0.14647073 0.030081743 0.1468408 0.16094242 0.076444335 0.15235493 -0.02127177 0.08498097
-0.18802287 -0.21171625 0.06488469 0.048096236 0.0763759 0.032839514 -0.12854348 -0.12895349
0.01086531 0.003919382 -0.028653016 -0.09052213 0.15218285 -0.019134725 -0.006322848 0.0776223
-0.14765117 -0.16633515 0.019640507 -0.03927131 0.012817338 -0.0828834 0.057736967 0.041965578
0.19583397 -0.07715871 0.019190814 -0.121657796 -0.007998751 0.08675904 0.06779152 -0.2064122
-0.10663018 -0.002863586 0.044963427 0.06135366 -0.011185233 0.14835504 -0.028404484 0.16563828
0.11156255 -0.17989278 0.19845043 0.12196381 -0.09576709 -0.06186669 -0.08953657 -0.20530204
-0.063395515 0.08901159 -0.15224974 0.14352903 0.18859497 0.08806353 0.17306186 -0.07254846
-0.111340374 -0.13119666 -0.11900218 0.1404521 -0.18682903 -0.21208191 -0.05264012 0.012983271
-0.07016423 -0.045520242 0.08061819 -0.02874738 0.106717415 0.16461635 0.007427656 0.084298946
-0.08348512 0.058170788 -0.06389289 0.1306039 -0.10274883 0.045059238 0.015467162 0.029468877
-0.009980786 -0.109777175 0.13133416 0.18759735 -0.06494298 0.16823927 0.049837537 -0.1495404
-0.11812167 0.056717087 -0.1530623 0.16986956 -0.068869926 0.17601827 0.11577548 0.039720036
0.012490814 -0.056450594 0.07021785 -0.011086102 -0.12041109 -0.09921665 -0.1768058 -0.19691287
0.09390434 0.18337978 0.09972771 -0.111586764 -0.042034592 0.17695399 0.029050162 -0.07259827
0.11454024 -0.17443818 -0.08389334 0.0501781 -0.12713468 0.07420424 0.1547142 -0.033192668
-0.18552527 0.0583076 -0.05685187 0.06561127 -0.06384527 0.060215324 -0.093778916 -0.1625127
0.045449514 0.09214578 -0.15610489 -6.569638e-05 -0.03939228 -0.0069936654 -0.04300424 -0.020780515
0.12427132 0.03844754 -0.17132276 -0.026478598 -0.07072271 -0.07782083 -0.050059326 -0.109531686
0.07339382 -0.011409536 -0.037342504 -0.0042169113 -0.02970528 0.019391669 -0.056225076 -0.09213241
0.14526138 0.01720239 0.16069822 0.18610413 -0.034199025 0.085884616 0.16449356 0.07223499
-0.022331772 -0.11349946 0.050850336 0.010916888 0.18929037 0.04799383 -0.07264817 0.066602916
-0.074374296 -0.17260218 -0.084342316 -0.021001663 -0.051770598 0.117911324 -0.06722086 0.030105986
0.0957008 0.022974703 -0.10775777 -0.07684484 -0.14880757 -0.1141772 -0.0027578326 -0.13578814
0.03747527 0.06901407 -0.16698556 0.06439073 -0.14536116 0.20526427 0.0032279396 -0.19813548
0.19796702 -0.1293332 0.14713766 0.1070577 0.012343001 0.16555311 -0.042160302 0.04951148
0.06601663 -0.18151595 0.19065385 0.08706569 0.11337437 0.18128633 -0.09408899 -0.049831882
-0.18360695 0.00015230558 -0.10094811 0.15797389 0.00926863 0.021954523 0.02570089 0.080367416
00000000: 9ee2 febb 32f2 53be 2176 97bd eacd e5bd
00000010: ab53 033d 8a3a 07bd ca1d 11be 36b4 a13d
00000020: 3624 f8bd 4f6e f2bc 39b6 d73d e91e 27bd
00000030: d011 1bbd a764 113e 52d5 0e3d df0a 013d
00000040: 174c ccbd f051 8f3d ff88 6cbc a0f8 2c3e
00000050: d860 2f3b f282 613d 1a87 af3c ee2d 17bd
00000060: 0f58 a0bc 1f0e 693d a35f 3d3c 05e9 dd3d
00000070: b67b 9dbd a44d c83c 792b 013e 85a1 cc3d
00000080: 6cfc 153e fd6d f63c 6f5d 163e 17ce 243e
00000090: d98e 9c3d ee02 1c3e 2342 aebc 810a ae3d
000000a0: 1189 40be 25cc 58be 44e2 843d 8f00 453d
000000b0: f86a 9c3d ba82 063d e7a0 03be 620c 04be
000000c0: 6a04 323c 296e 803b bbb9 eabc ab63 b9bd
000000d0: d2d5 1b3e 6dc0 9cbc e52f cfbb 71f8 9e3d
000000e0: de31 17be c353 2abe 21e5 a03c f4da 20bd
000000f0: d0ff 513c c6be a9bd 997d 6c3d 19e4 2b3d
00000100: b388 483e 6305 9ebd 0e36 9d3c b927 f9bd
00000110: 310d 03bc b9ae b13d 48d6 8a3d b85d 53be
00000120: ec60 dabd 00ab 3bbb 922b 383d fa4d 7b3d
00000130: 4442 37bc 62ea 173e 85b0 e8bc 159d 293e
00000140: e87a e43d d035 38be 9736 4b3e 29c8 f93d
00000150: 8921 c4bd ed67 7dbd f35e b7bd b33a 52be
00000160: 82d5 81bd b54b b63d 5be7 1bbe 46f9 123e
00000170: 0a1f 413e a75a b43d 2137 313e 4994 94bd
00000180: 6c06 e4bd 6b58 06be 6ab7 f3bd add2 0f3e
00000190: 1c50 3fbe 002c 59be 2b9d 57bd c9b7 543c
000001a0: 44b2 8fbd 6f73 3abd 261b a53d a07f ebbc
000001b0: a98e da3d 3091 283e b263 f33b eda4 ac3d
000001c0: 3ffa aabd 7e44 6e3d 47da 82bd 07bd 053e
000001d0: fb6d d2bd 0990 383d fb69 7d3c b768 f13c
000001e0: 7386 23bc dbd2 e0bd 767c 063e 8519 403e
000001f0: d300 85bd ea46 2c3e 7222 4c3d 1e21 19be
00000200: c6e9 f1bd 2d50 683d 5dbc 1cbe 49f2 2d3e
00000210: ad0b 8dbd 223e 343e b21b ed3d 7ab1 223d
00000220: 45a6 4c3c bd38 67bd 60ce 8f3d 7ba2 35bc
00000230: 179a f6bd 1932 cbbd 940c 35be 87a3 49be
00000240: eb50 c03d e9c7 3b3e 0b3e cc3d 9a87 e4bd
00000250: 772c 2cbd 6d33 353e 9bfa ed3c 67ae 94bd
00000260: 1394 ea3d ec9f 32be 45d0 abbd 8d87 4d3d
00000270: 982f 02be 65f8 973d 666d 1e3e 09f5 07bd
00000280: 56fa 3dbe f3d3 6e3d 82dd 68bd 345f 863d
00000290: 4fc1 82bd 58a4 763d 290f c0bd bb69 26be
000002a0: 4529 3a3d edb6 bc3d f6d9 1fbe 7ac6 89b8
000002b0: cd59 21bd 1e2b e5bb 3725 30bd e63b aabc
000002c0: f681 fe3d 2b7b 1d3d 3c6f 2fbe a5e9 d8bc
000002d0: 11d7 90bd 8760 9fbd 020b 4dbd 2652 e0bd
000002e0: 804f 963d 10ef 3abc 74f4 18bd 042e 8abb
000002f0: 7d58 f3bc 47db 9e3c 444c 66bd ebaf bcbd
00000300: 66bf 143e 07ec 8c3c 138e 243e 1592 3e3e
00000310: 4714 0cbd 46e4 af3d 0071 283e f0ef 933d
00000320: 1ff1 b6bc 6872 e8bd 7148 503d bfdc 323c
00000330: 56d5 413e 2e95 443d 90c8 94bd 1c67 883d
00000340: 8d51 98bd a0be 30be aabb acbd ae0b acbc
00000350: 680d 54bd 7e7b f13d 17ab 89bd d4a0 f63c
00000360: c8fe c33d 7235 bc3c 1bb0 dcbd d460 9dbd
00000370: 0361 18be bcd5 e9bd c1bc 34bb 0c0c 0bbe
00000380: ab7f 193d 4057 8d3d 43fe 2abe 49df 833d
00000390: 8ed9 14be cc30 523e d78b 533b 07e4 4abe
000003a0: deb7 4a3e ec6f 04be 41ab 163e 1141 db3d
000003b0: 4c3a 4a3c c186 293e 48b0 2cbd 8dcc 4a3d
000003c0: ba33 873d 51df 39be c33a 433e 7f4f b23d
000003d0: d230 e83d 20a3 393e bab1 c0bd 841c 4cbd
000003e0: 7603 3cbe 38b4 1f39 e2bd cebd e8c3 213e
000003f0: 74db 173c f9d9 b33c ac8a d23c ac97 a43d

lstm.bias_ih_l1 f4 [160]
0.14410417 0.19305035 0.07340889 0.15141316 0.06082907 -0.0016064589 0.003235277 0.045040265
-0.026775165 0.15147474 0.12567104 0.04529904 0.1352389 0.15291964 0.1715805 0.0012680427
0.040285025 0.062476065 0.15847586 -0.032176327 0.09750695 0.0077491724 0.0037723603 0.13899374
0.05967953 0.063132085 0.20014332 0.1854963 0.119128615 0.11190779 -0.05307917 0.0369934
0.20676966 -0.0051820055 0.113993205 -0.039909128 -0.021028291 0.060883038 -0.08392795 -0.092348546
0.01557533 -0.0048725484 -0.047085594 -0.049010385 -0.1422564 -0.022641642 0.071929514 0.0011039277
-0.07955663 0.20417894 0.21477775 0.14551525 0.06007296 -0.03391305 -0.024612833 -0.029696964
-0.06589287 0.0015612167 0.15000695 -0.12994865 0.18365034 0.15913315 0.15835263 0.13227421
0.05084496 -0.0037951386 0.113499805 0.19527602 0.0020646416 0.06116668 0.015896745 0.12367387
0.098569065 0.08132555 0.056023993 0.004949909 -0.1119823 -0.041460052 0.16085592 0.026494175
0.07077101 -0.006140432 0.048443124 0.15611765 -0.07434541 0.14964992 -0.1423443 -0.08544674
-0.06418202 -0.020543259 -0.17372036 -0.12539122 0.117684096 -0.058456797 0.20258263 0.07383989
-0.21693549 -0.03869545 -0.0070713446 -0.058862746 -0.14232816 -0.13239793 0.10414442 0.09361293
-0.012866683 0.0689971 -0.084695764 -0.050047208 -0.0740271 0.1700438 -0.15816632 0.052680556
0.042138062 -0.11217423 0.032935906 0.02537839 -0.11251955 0.19799195 0.026376521 0.057964154
0.16673203 0.118573695 0.06811136 0.034075897 0.1330683 0.16955546 0.008283544 0.097119726
0.037984654 0.099447705 0.17065234 -0.07599445 0.0042133797 0.033968855 0.068013504 0.046999093
0.118127055 0.13531269 -0.05779943 0.09433231 0.10297745 0.045827907 0.15484402 -0.04623481
0.084557824 -0.020065835 0.06669918 -0.048306916 0.035314213 0.014542069 0.16746758 0.09917916
0.16888033 0.1719207 0.1759786 0.014553145 0.116588056 0.02588044 0.21160713 -0.06311305
00000000: 0b90 133e feae 453e 6657 963d 0d0c 1b3e
00000010: e727 793d d18f d2ba f106 543b 247c 383d
00000020: 9757 dbbc 321c 1b3e e9af 003e 7c8b 393d
00000030: 117c 0a3e f796 1c3e ccb2 2f3e 7434 a63a
00000040: e901 253d e7e6 7f3d 7f47 223e 53cb 03bd
00000050: b9b1 c73d c5ec fd3b b439 773b 6054 0e3e
00000060: 8672 743d 654b 813d 5ff2 4c3e bef2 3d3e
00000070: b4f9 f33d e92f e53d 8b69 59bd 6486 173d
00000080: 6dbb 533e d0cd a9bb 4575 e93d c177 23bd
00000090: 8643 acbc 7e60 793d 6be2 abbd 3c21 bdbd
000000a0: ab2f 7f3c e6a9 9fbb d3dc 40bd 1dbf 48bd
000000b0: a9ab 11be f77a b9bc c84f 933d abb1 903a
000000c0: 96ee a2bd 4914 513e b3ee 5b3e f301 153e
000000d0: 100f 763d 69e8 0abd daa0 c9bc 0c47 f3bc
000000e0: d7f2 86bd bda1 cc3a 6c9b 193e 4211 05be
000000f0: d60e 3c3e cdf3 223e 3127 223e e472 073e
00000100: ce42 503d dcb7 78bb 9672 e83d 70f6 473e
00000110: f04e 073b ea89 7a3d e439 823c ba48 fd3d
00000120: 94de c93d 038e a63d 6a79 653d d932 a23b
00000130: fa56 e5bd 04d2 29bd 6ab7 243e 500a d93c
00000140: 64f0 903d ad35 c9bb 4c6c 463d 4edd 1f3e
00000150: 6842 98bd d43d 193e b4c2 11be b3fe aebd
00000160: dd71 83bd 564a a8bc c0e3 31be 8e66 00be
00000170: 5c04 f13d 6570 6fbd d271 4f3e 5e39 973d
00000180: 5624 5ebe 1f7f 1ebd bdb6 e7bb 101a 71bd
00000190: 79be 11be 5393 07be ab49 d53d 23b8 bf3d
000001a0: c8ce 52bc 5a4e 8d3d f974 adbd 4dfe 4cbd
000001b0: 859b 97bd f61f 2e3e 5af6 21be 91c7 573d
000001c0: f698 2c3d 9abb e5bd cde7 063d 57e6 cf3c
000001d0: a670 e6bd 67be 4a3e 9313 d83c d26b 6d3d
000001e0: cdbb 2a3e c4d6 f23d f87d 8b3d 2b93 0b3d
000001f0: 0e43 083e f29f 2d3e b4b7 073c b5e6 c63d
00000200: cc95 1b3d 3dab cb3d 7dbf 2e3e faa2 9bbd
00000210: 6410 8a3b ed22 0b3d aa4a 8b3d 1f82 403d
00000220: 99ec f13d 698f 0a3e 18bf 6cbd 4c31 c13d
00000230: d7e5 d23d 0bb6 3b3d 6e8f 1e3e b660 3dbd
00000240: a72c ad3d 1b61 a4bc 9499 883d 79dd 45bd
00000250: a3a5 103d dc41 6e3c 9f7c 2b3e 721e cb3d
00000260: f7ee 2c3e fb0b 303e bc33 343e 5070 6e3c
00000270: b8c5 ee3d 3703 d43c 8aaf 583e 6a41 81bd

lstm.bias_hh_l1 f4 [160]
-0.12388525 0.070534706 -0.005544114 0.011857306 0.066300854 -0.045617763 0.122709535 -0.034123536
0.1709165 0.17397754 -0.08598781 0.17275035 0.18849814 -0.074212104 -0.07513236 -0.070546955
0.15021957 0.15601663 0.056335013 0.09377323 -0.08384755 0.04104973 -0.10242202 -0.033756804
0.17515408 0.047453832 0.089422874 0.043502077 -0.1149748 0.020703997 0.14361227 -0.0763547
0.069514625 -0.07439765 0.07014135 0.1654119 -0.03356367 -0.043036155 0.14754632 0.03464944
-0.12213969 -0.018579544 -0.09548535 0.012038074 0.08602773 -0.0012791133 -0.0063549653 0.1583392
0.14770201 0.092969894 -0.024851749 0.13456881 0.10267525 -0.083148375 0.033930626 0.1576537
0.15804794 -0.0687181 0.0022533238 0.042885512 0.035822544 0.045075227 0.019008925 -0.051678207
0.04984968 0.009565977 0.006270521 0.13791223 0.14089672 -0.083003156 0.15108529 -0.100440785
-0.0374244 0.01745885 0.018348925 -0.10254738 0.13143425 0.13074245 0.18222111 -0.032911304
0.033378128 0.0051386654 0.020702222 0.06442599 -0.008039142 -0.07632247 -0.017620962 -0.080832034
0.03283029 -0.1770968 -0.17021157 0.121902704 0.071183816 0.06143839 -0.040446937 -0.093891
0.055560604 -0.05925214 0.053688563 -0.10211188 0.05017834 -0.1475468 -0.043572493 -0.1557561
0.03625031 0.17575523 -0.121238284 -0.030023554 -0.015164591 0.032901164 -0.15074682 -0.20561168
0.18425493 0.07777122 -0.01675401 0.023135794 -0.030185373 0.019520018 0.17841403 0.16733694
0.038123004 0.109646074 0.17536971 0.23260778 0.1335006 0.12959637 0.10410601 0.10332426
0.07084305 -0.010514124 0.19593774 0.22232911 0.011497131 0.12720756 -0.027841907 0.084361516
0.07131859 -0.022930639 -0.023046685 0.0021826806 0.22869143 0.25370327 -0.02058947 0.21142267
0.16999085 0.021631153 0.1292093 0.22526875 0.23717299 0.10171747 -0.041309547 0.14158393
0.16696046 -0.017318679 0.18121602 0.20255885 -0.013835197 -0.032117333 0.015967628 0.16830073
00000000: 8db7 fdbd 8074 903d 66ab b5bb 2545 423c
00000010: bec8 873d b1d9 3abd 234f fb3d 1fc5 0bbd
00000020: bc04 2f3e 2b27 323e 601a b0bd 78e5 303e
00000030: a805 413e 84fc 97bd ffde 99bd ec7a 90bd
00000040: 29d3 193e d3c2 1f3e 8bbf 663d 2e0c c03d
00000050: 44b8 abbd c323 283d a3c2 d1bd 9344 0abd
00000060: 975b 333e f35e 423d 5723 b73d 3c2f 323d
00000070: e877 ebbd 6e9b a93c 180f 133e da5f 9cbd
00000080: af5d 8e3d cc5d 98bd 45a6 8f3d bd61 293e
00000090: 0f7a 09bd ae46 30bd 6216 173e 92ec 0d3d
000000a0: 6024 fabd 2134 98bc d38d c3bd 583b 453c
000000b0: 4e2f b03d eca7 a7ba 503d d0bb ac23 223e
000000c0: 323f 173e 0067 be3d e595 cbbc 68cc 093e
000000d0: 6747 d23d b249 aabd d7fa 0a3d f96f 213e
000000e0: 52d7 213e 13bc 8cbd 80ac 133b b8a8 2f3d
000000f0: a9ba 123d cda0 383d 9bb8 9b3c 87ac 53bd
00000100: 2e2f 4c3d 9eba 1c3c f178 cd3b dd38 0d3e
00000110: 3b47 103e 8ffd a9bd 1ab6 1a3e e6b3 cdbd
00000120: 544a 19bd dd05 8f3c 7c50 963c 5c04 d2bd
00000130: b396 063e 59e1 053e 2c98 3a3e 01ce 06bd
00000140: 81b7 083d 4062 a83b b597 a93c c6f1 833d
00000150: 9bb6 03bc f54e 9cbd d659 90bc 448b a5bd
00000160: 0e79 063d dd58 35be f14b 2ebe 20a8 f93d
00000170: d2c8 913d d2a6 7b3d b0ab 25bd ed49 c0bd
00000180: 8493 633d 5fb2 72bd 8ae8 5b3d 0920 d1bd
00000190: ce87 4d3d 8216 17be 1279 32bd 877e 1fbe
000001a0: 347b 143d 2ef9 333e c74b f8bd f5f3 f5bc
000001b0: e874 78bc 5fc3 063d 605d 1abe de8b 52be
000001c0: 53ad 3c3e 8446 9f3d b53f 89bc 4787 bd3c
000001d0: 5147 f7bc 72e8 9f3c 2bb2 363e 605a 2b3e
000001e0: de26 1c3d 1f8e e03d 1e94 333e bc30 6e3e
000001f0: 62b4 083e e9b4 043e 8835 d53d ab9b d33d
00000200: 2916 913d 6f43 2cbc e7a3 483e 3eaa 633e
00000210: 765e 3c3c b342 023e b614 e4bc bbc5 ac3d
00000220: 7b0f 923d 09d9 bbbc 67cc bcbc 4e0b 0f3b
00000230: 162e 6a3e 65e5 813e 40ab a8bc 2f7f 583e
00000240: 1512 2e3e d133 b13c 714f 043e daac 663e
00000250: 7add 723e 4051 d03d 3334 29bd 61fb 103e
00000260: aff7 2a3e e7df 8dbc b190 393e 966b 4f3e
00000270: 06ad 62bc 778d 03bd 8bce 823c 0757 2c3e

fc.weight f4 [1, 40]
-1.38484 -1.4131534 1.3988996 1.3771952 1.4026486 1.3065944 -1.3967367 -1.4212515
1.3977809 -1.2969095 -1.3475999 1.4044616 1.3006587 1.4308833 1.4376559 -1.396446
-1.3923295 -1.2770224 -1.4126215 1.3808861 -1.3066313 -1.395703 -1.4139035 -1.3696505
1.4031991 1.438693 -1.3928076 -1.3990026 -1.3191231 1.3805084 -1.3441831 -1.4057016
1.4127616 -1.3844719 1.229079 1.3005298 1.4331794 1.3847204 1.3978318 1.2823634
00000000: 7042 b1bf 36e2 b4bf 240f b33f ef47 b03f
00000010: fd89 b33f 7c3e a73f 45c8 b2bf 92eb b5bf
00000020: 7cea b23f 2101 a6bf 277e acbf 66c5 b33f
00000030: fc7b a63f 2f27 b73f 1c05 b83f bebe b2bf
00000040: da37 b2bf 7875 a3bf c8d0 b4bf e0c0 b03f
00000050: b23f a7bf 65a6 b2bf cafa b4bf b550 afbf
00000060: 079c b33f 1827 b83f 8547 b2bf 8412 b3bf
00000070: 07d9 a8bf 80b4 b03f 310e acbf 08ee b3bf
00000080: 5fd5 b43f 6036 b1bf 7652 9d3f c377 a63f
00000090: 6c72 b73f 853e b13f 27ec b23f 7c24 a43f
