models/lstm_trial_11.pth (torch, 89292 bytes, 9 tensors)

lstm.weight_ih_l0 f4 [140, 44]
-0.091588624 -0.0672477 0.00813928 0.09157726 0.050419003 0.17802121 -0.044307683 -0.17698589
0.084661976 -0.1734534 -0.102815636 0.013814207 -0.22376849 0.036381055 0.10579904 -0.08643913
-0.27268496 -0.15457368 0.13699009 0.1515368 0.13504267 0.060314007 0.10636511 -0.027353775
-0.0120345615 0.06916267 -0.03296544 -0.059924934 0.15260768 -0.14099906 0.17787765 0.041970376
0.094762035 -0.14797416 -0.06252797 0.23810597 -0.017206153 -0.059647664 -0.112928845 -0.06251019
0.15180863 -0.0034158882 0.0024535353 -0.036809023 -0.2789934 0.005319017 -0.10263171 -0.25897923
-0.034581423 0.0026575674 -0.032808922 -0.047475323 0.1040156 -0.07257964 -0.020700362 0.016921172
0.033052444 -0.14859521 0.18078323 0.037851933 0.0584806 -0.13354449 0.014192955 -0.10293141
-0.08377504 0.0589441 0.058642793 -0.1624171 0.019523049 -0.028365633 -0.11698567 -0.041934837
-0.019399067 -0.059270747 0.103660785 -0.064459786 0.041922532 0.10034141 -0.08419907 0.1928728
-0.042306073 -0.10675754 -0.059985884 -0.021166954 0.1525997 0.034271415 -0.04992832 -0.08183437
-0.040080424 -0.009656991 -0.25029117 -0.01757919 -0.00676063 -0.02474571 -0.1282353 -0.13484007
0.07939843 0.05723565 -0.06616411 0.07666141 0.08265278 0.12836258 0.09655435 0.07412462
-0.10657667 -0.23240684 0.122699715 -0.07527207 0.085195504 0.09434136 0.16594508 0.12780948
0.10175075 0.02499356 0.11447463 -0.034846846 -0.042684335 -0.23118441 -0.0011672525 0.12966315
-0.026033847 -0.16400096 0.0943992 0.042102687 0.05958961 -0.115678415 -0.105463915 -0.13706753
0.14814968 -0.17074946 -0.039919846 -0.14657602 -0.18684329 -0.10537865 0.046783213 0.054822255
-0.23251018 -0.09509581 0.08638646 0.090885185 -0.10720083 -0.10749827 -0.019552547 0.009332372
-0.035773717 -0.0068587414 0.05503076 -0.008347756 -0.09633147 -0.19247584 0.13831739 -0.16152544
0.120600745 0.1191412 0.29165548 -0.19235897 0.14004618 0.026771456 0.15067017 -0.22377661
-0.028563075 -0.18122312 0.113348745 -0.12855674 0.0987751 -0.13890691 -0.22821186 0.056265846
0.07266329 -0.08693249 -0.16798812 -0.09462517 -0.070185825 0.07357067 0.04833602 0.14853768
-0.14418648 -0.2867076 -0.064046845 0.117010586 -0.16597968 0.096544966 0.13594775 -0.023981802
0.014762572 -0.1518471 -0.06011196 0.018800206 -0.076690465 -0.19525902 0.19278607 -3.2656106e-05
-0.13418181 -0.3275308 -0.076979384 0.052339196 0.023471493 -0.08277657 0.13356774 -0.15941465
0.10659803 -0.01785933 0.098765224 -0.055260718 -0.145568 -0.023044104 0.17889422 0.103098564
-0.00016375563 -0.13447627 -0.105871715 -0.09855249 -0.01660574 0.061244898 0.11716857 0.052608266
-0.032597072 0.0067529473 -0.28287625 -0.15883535 0.16053312 -0.12579869 -0.029295413 0.021106644
-0.016962154 -0.025851587 0.15346737 -0.052600548 -0.23003651 0.15053226 0.046253875 -0.0361134
-0.025545562 0.03114416 -0.07474376 0.20322925 0.059335332 -0.22458683 0.05924734 0.17518419
0.015075309 0.0026680243 0.058517314 0.08207633 0.00015298951 0.2626549 0.10857682 -0.18108302
0.021018917 0.054778866 -0.20402028 -0.13028052 -0.025916737 -0.1436774 0.01385918 -0.11170153
00000000: d192 bbbd 2ab9 89bd 9d5a 053c dc8c bb3d
00000010: 2884 4e3d 314b 363e f97b 35bd ca3b 35be
00000020: 4263 ad3d c59d 31be 0191 d2bd fc54 623c
00000030: 9123 65be 4d04 153d 2bad d83d 0007 b1bd
00000040: 5d9d 8bbe 9048 1ebe 2147 0c3e 772c 1b3e
00000050: a048 0a3e d20b 773d f3d5 d93d 0615 e0bc
00000060: 9c2c 45bc 28a5 8d3d c506 07bd d973 75bd
00000070: 3045 1c3e 0f62 10be 8f25 363e 21e9 2b3d
00000080: 9912 c23d 8a86 17be aa0e 80bd 0dd2 733e
00000090: ebf3 8cbc 1c51 74bd 3d47 e7bd 5805 80bd
000000a0: b973 1b3e 18dd 5fbb 7ecb 203b 0fc5 16bd
000000b0: 39d8 8ebe 264b ae3b 9330 d2bd ed98 84be
000000c0: 40a5 0dbd 952a 2e3b a662 06bd 7c75 42bd
000000d0: 2206 d53d a2a4 94bd ce93 a9bc 459e 8a3c
000000e0: 0062 073d 5829 18be 3d1f 393e a10a 1b3d
000000f0: 5b89 6f3d e3bf 08be 9189 683c b4cd d2bd
00000100: 4092 abbd 5e6f 713d 6d33 703d ab50 26be
00000110: cdee 9f3c 0b5f e8bc 2f96 efbd ddc3 2bbd
00000120: cbea 9ebc e2c5 72bd 1b4c d43d 7e03 84bd
00000130: f6b6 2b3d cc7f cd3d 9070 acbd 7380 453e
00000140: 2249 2dbd b2a3 dabd c2b3 75bd 5266 adbc
00000150: 1943 1c3e 2f60 0c3d a381 4cbd c798 a7bd
00000160: 5f2b 24bd 5b38 1ebc 2a26 80be 3c02 90bc
00000170: 4688 ddbb 84b7 cabc 1d50 03be 8413 0abe
00000180: a59b a23d ee6f 6a3d 0d81 87bd a800 9d3d
00000190: dc45 a93d 7b71 033e 49be c53d a6ce 973d
000001a0: df44 dabd 0ffc 6dbe fd49 fb3d 3e28 9abd
000001b0: fb7a ae3d 0b36 c13d 82ed 293e 7de0 023e
000001c0: b262 d03d 4bbf cc3c ad71 ea3d 91bb 0ebd
000001d0: c5d5 2ebd 9bbb 6cbe 7ffe 98ba 6bc6 043e
000001e0: ef44 d5bc deef 27be 5e54 c13d de73 2c3d
000001f0: 3c14 743d cee8 ecbd 77fd d7bd 6e5b 0cbe
00000200: 8db4 173e f2d8 2ebe fe82 23bd 0618 16be
00000210: d953 3fbe c3d0 d7bd c19f 3f3d 4d8d 603d
00000220: 2617 6ebe 98c1 c2bd 62eb b03d 0322 ba3d
00000230: 1c8c dbbd 0e28 dcbd aa2c a0bc cee6 183c
00000240: 7687 12bd 4bbf e0bb ef67 613d 07c5 08bc
00000250: 6f49 c5bd 6318 45be 13a3 0d3e ed66 25be
00000260: 86fd f63d 4d00 f43d de53 953e c0f9 44be
00000270: 4468 0f3e d04f db3c 4849 1a3e b225 65be
00000280: 1cfd e9bc 8e92 39be 6323 e83d 61a4 03be
00000290: 9a4a ca3d 9d3d 0ebe 5fb0 69be 0477 663d
000002a0: 7ed0 943d a909 b2bd 1405 2cbe d7ca c1bd
000002b0: 96bd 8fbd 38ac 963d fefb 453d 431a 183e
000002c0: 9fa5 13be 57cb 92be fe2a 83bd 3fa3 ef3d
000002d0: 94f6 29be 5eb9 c53d e335 0b3e 7c75 c4bc
000002e0: b7de 713c ce7d 1bbe f537 76bd e402 9a3c
000002f0: e40f 9dbd fbf1 47be b669 453e 3af8 08b8
00000300: f566 09be 1eb2 a7be 5ea7 9dbd a061 563d
00000310: 4a47 c03c c386 a9bd fbc5 083e 983d 23be
00000320: 1150 da3d bb4d 92bc 6c45 ca3d 1059 62bd
00000330: c70f 15be fdc6 bcbc 0c30 373e 5725 d33d
00000340: d1b5 2bb9 26b4 09be 45d3 d8bd e3d5 c9bd
00000350: c308 88bc eedb 7a3d 13f6 ef3d c47b 573d
00000360: 8284 05bd d447 dd3b 28d5 90be bca5 22be
00000370: cb62 243e 5fd1 00be effc efbc d7e7 ac3c
00000380: 37f4 8abc b5c6 d3bc 8d26 1d3e ac73 57bd
00000390: b18e 6bbe 2125 1a3e b474 3d3d a5eb 13bd
000003a0: ed44 d1bc 0a22 ff3c 4213 99bd 541b 503e
000003b0: 9b09 733d 17fa 65be 57ad 723d 7c63 333e
000003c0: 6efe 763c 05da 2e3b daaf 6f3d a317 a83d
000003d0: cf6b 2039 b47a 863e 865d de3d d46d 39be
000003e0: dd2f ac3c ce5f 603d b1ea 50be 4268 05be
000003f0: 564f d4bc 2b20 13be 9d11 633c c6c3 e4bd

lstm.weight_hh_l0 f4 [140, 35]
-0.15610413 -0.20633788 -0.13869615 0.30934462 -0.32939065 0.27369085 -0.04723041 -0.2419611
-0.06706671 0.20447464 -0.19041541 -0.2624401 -0.13888772 0.06921405 -0.1763158 0.13372196
0.045697097 0.23120564 0.03375368 -0.19144987 -0.24527979 0.015126444 0.23887646 0.030715972
-0.0743499 -0.14441437 -0.21266696 -0.1213086 0.19569257 -0.08155615 -0.15216044 0.05658121
-0.33233213 0.03757951 -0.34474576 -0.27744406 -0.16236332 -0.22701629 0.2985105 -0.13897835
0.14652874 0.20525081 -0.32556358 0.14221558 0.042435706 0.013062099 -0.077880636 -0.10141653
0.19041878 -0.032729425 0.11885136 0.08310015 0.3495317 0.0006641149 0.032810487 -0.25184792
0.033554744 0.22170787 0.09675629 -0.16269916 -0.2956882 0.046372216 -0.1730209 0.11229417
0.010360248 -0.17626747 0.19578789 0.045872137 0.19619992 0.009035775 -0.17776084 -0.28773022
-0.2881505 0.27787954 -0.2528934 0.050781816 0.07065611 0.017726393 0.05653 0.027716238
-0.15303336 -0.11088155 -0.09673683 0.086890854 -0.22410403 0.028610285 0.03899843 0.11992594
0.07619979 0.030528016 -0.24929394 0.013150857 0.10657437 0.028338555 -0.096785 -0.09195496
-0.23310348 -0.05319367 0.0036871128 -0.011011976 -0.08273821 0.13376613 -0.09677421 0.2008779
-0.02672991 -0.25663623 -0.19030868 -0.10721116 0.42293966 -0.29877707 0.05462542 0.20907316
-0.16949745 0.00016623495 0.18801239 -0.101145595 -0.29532504 -0.12702087 0.0399441 -0.15796143
0.057950694 0.1385555 0.1757234 0.30390355 -0.27103215 -0.26970774 -0.02994061 0.18048483
0.20290121 -0.094306566 -0.14254506 -0.06035901 -0.250328 0.055017356 -0.17852516 -0.13226709
0.35847515 -0.15848576 0.0076904916 0.0031835388 -0.18878135 -0.08536773 -0.25277624 0.13571608
-0.28175694 0.12828673 0.13483343 -0.21269402 0.12551361 0.18278001 -0.2117134 -0.17297347
-0.019707398 0.10100396 -0.02570533 0.12780505 0.1365857 0.098353274 0.17344044 0.036466245
-0.14115924 -0.11960465 0.20400146 0.10396882 -0.030484078 -0.11056415 -0.20973729 0.07185833
0.005927947 -0.16951485 -0.24804124 0.30869457 -0.15408105 0.18729745 0.15721302 -0.18722434
-0.04389164 -0.10369784 0.24322748 -0.051820476 0.17419638 0.20127173 -0.13920791 -0.26030642
0.13619706 -0.17078981 0.061198868 -0.2695321 0.09565098 -0.3557185 0.046559628 0.17274086
0.14538135 -0.044905264 -0.13186881 -0.20748933 -0.16114941 -0.092001215 0.22229479 -0.25921473
-0.19519167 -0.17053282 0.13198246 0.010227202 0.08978219 -0.13178685 0.080423445 -0.2918425
-0.011221553 -0.22341569 0.19603188 -0.039779473 0.34846157 0.013573868 0.3042933 -0.27759346
0.118845984 0.06502025 -0.08404277 -0.04030282 0.20306359 0.20984752 0.03179459 -0.021282999
0.2562367 -0.36386937 0.016657643 -0.2199878 -0.30959156 0.11200569 0.07469618 0.36897328
-0.21583754 -0.15975389 0.33749452 0.11943806 0.25618717 0.24532172 -0.28096417 0.2808463
0.2167438 -0.24110253 0.3273582 -0.20723099 0.18421434 -0.20475304 -0.25982594 -0.0014523852
-0.07786794 -0.3031851 0.23080298 -0.020411737 -0.2459262 0.084916346 0.2325692 -0.20722866
00000000: c3d9 1fbe 3d4a 53be 5d06 0ebe 6b62 9e3e
00000010: e4a5 a8be 3521 8c3e ad74 41bd a7c4 77be
00000020: 455a 89bd cd61 513e 42fc 42be 8c5e 86be
00000030: 9538 0ebe 19c0 8d3d 218c 34be 69ee 083e
00000040: e12c 3b3d 2cc1 6c3e 4c41 0a3d 6f0b 44be
00000050: a02a 7bbe e8d4 773c 089c 743e 10a0 fb3c
00000060: c344 98bd 5ce1 13be 5ec5 59be a570 f8bd
00000070: a263 483e e906 a7bd f2cf 1bbe b3c1 673d
00000080: 7027 aabe f9ec 193d 8482 b0be 260d 8ebe
00000090: 9242 26be f576 68be 5ed6 983e 5750 0ebe
000000a0: a10b 163e 452d 523e 45b0 a6be f6a0 113e
000000b0: 10d1 2d3d 6a02 563c e27f 9fbd 78b3 cfbd
000000c0: 24fd 423e 4a0f 06bd 5868 f33d 6930 aa3d
000000d0: d2f5 b23e ff17 2e3a 4a64 063d 36f2 80be
000000e0: b370 093d 6307 633e 2928 c63d 9c9a 26be
000000f0: 7264 97be cbf0 3d3d 642c 31be 7cfa e53d
00000100: 08be 293c 767f 34be 9f7c 483e 6ce4 3b3d
00000110: a2e8 483e ca0a 143c f006 36be 6051 93be
00000120: 7688 93be 3a46 8e3e 3e7b 81be 9800 503d
00000130: 27b4 903d f136 913c 008c 673d 2a0d e33c
00000140: c7b4 1cbe de15 e3bd f61d c6bd d5f3 b13d
00000150: 877b 65be 1e60 ea3c d1bc 1f3d bb9b f53d
00000160: a30e 9c3d e415 fa3c e946 7fbe b176 573c
00000170: aa43 da3d 4226 e83c 3737 c6bd e252 bcbd
00000180: aeb2 6ebe 9be1 59bd 7da3 713b 936b 34bc
00000190: a772 a9bd fdf9 083e 8f31 c6bd f0b2 4d3e
000001a0: aff8 dabc d365 83be 47e0 42be 8691 dbbd
000001b0: 8c8b d83e 4ff9 98be e8be 5f3d 4617 563e
000001c0: bd90 2dbe 5b4f 2e39 5286 403e 6c25 cfbd
000001d0: d834 97be c211 02be 6d9c 233d a4c0 21be
000001e0: b55d 6d3d 7ee1 0d3e d6f0 333e 3f99 9b3e
000001f0: bac4 8abe 2217 8abe 0346 f5bc 04d1 383e
00000200: 56c5 4f3e cd23 c1bd 55f7 11be 023b 77bd
00000210: fe2a 80be e159 613d 4dcf 36be 0671 07be
00000220: 0e8a b73e 174a 22be 8500 fc3b eba2 503b
00000230: e64f 41be 47d5 aebd e36b 81be 28f9 0a3e
00000240: 7242 90be 995d 033e c611 0a3e 76cc 59be
00000250: a486 003e af2a 3b3e 66cb 58be f51f 31be
00000260: 6971 a1bc 2adb ce3d fc93 d2bc 54df 023e
00000270: 1fdd 0b3e 716d c93d 5f9a 313e a15d 153d
00000280: 0c8c 10be 48f3 f4bd c2e5 503e 9bed d43d
00000290: bfb9 f9bc 756f e2bd 5fc5 56be 762a 933d
000002a0: 393f c23b 4d95 2dbe 86fe 7dbe 370d 9e3e
000002b0: 6cc7 1dbe e7ca 3f3e 73fc 203e bdb7 3fbe
000002c0: b8c7 33bd 885f d4bd a010 793e b541 54bd
000002d0: 8960 323e 2d1a 4e3e 858c 0ebe e246 85be
000002e0: 3e77 0b3e 86e3 2ebe aaab 7a3d 1d00 8abe
000002f0: a9e4 c33d bc20 b6be 4fb5 3e3d fbe2 303e
00000300: d9de 143e 95ee 37bd 9e08 07be 1578 54be
00000310: 5a04 25be 226b bcbd 3fa1 633e cbb7 84be
00000320: 53e0 47be 28a0 2ebe 6926 073e ff8f 273c
00000330: badf b73d 22f3 06be 0cb5 a43d 616c 95be
00000340: 9bda 37bc 15c7 64be 95bc 483e cdef 22bd
00000350: 8e69 b23e ee64 5e3c 55cc 9b3e bb20 8ebe
00000360: 8665 f33d 5629 853d 9e1e acbd 9214 25bd
00000370: e7ef 4f3e 45e2 563e 0b3b 023d af59 aebc
00000380: 7531 833e 164d babe 9c75 883c 7b44 61be
00000390: c982 9ebe 3d63 e53d 50fa 983d 11ea bc3e
000003a0: 8404 5dbe 8696 23be 15cc ac3e f19b f43d
000003b0: f72a 833e 9e35 7b3e 89da 8fbe 16cb 8f3e
000003c0: 16f2 5d3e 95e3 76be 7e9b a73e 5c34 54be
000003d0: afa2 3c3e c8aa 51be e807 85be f65d beba
000003e0: 3a79 9fbd 143b 9bbe 9e57 6c3e 8436 a7bc
000003f0: 14d4 7bbe 9fe8 ad3d 9f26 6e3e c033 54be

lstm.bias_ih_l0 f4 [140]
0.2291421 0.23554398 0.09417579 0.22163683 0.17285211 -0.015195846 0.03446366 0.2912143
-0.18901078 0.33168072 0.021280784 -0.019915428 0.1296369 -0.14393243 0.08037489 0.24116798
0.04881804 0.0028689974 -0.030451342 -0.046400797 0.19533873 0.1319969 -0.041422836 0.14025506
0.025955057 0.18079661 0.027002284 -0.10065197 0.035969373 -0.11955776 -0.0040121013 0.18819585
-0.110514015 0.2182638 -0.11479027 -0.019060183 0.32258663 0.087971844 0.17484094 0.3591626
0.017129192 -0.0033424082 0.19166028 -0.2838176 0.335881 0.059433326 -0.018368887 -0.01001557
0.083215244 -0.0013324266 0.27275082 0.15571776 0.19984089 -0.03701953 0.1634384 -0.029971438
-0.024685817 0.020220956 0.07753508 0.10630473 0.12024332 0.27174214 0.115181305 -0.018205171
0.01250039 0.029217804 -0.021619743 0.124882065 0.2623321 -0.20697096 -0.11344066 -0.33613545
-0.13257176 0.21652672 -0.40424722 0.11933256 0.17250293 -0.3048959 -0.00446347 0.23135135
-0.21397775 0.08402195 -0.16134162 -0.021710157 -0.11706802 0.31097758 0.20793065 0.23056133
0.3559337 -0.23152833 -0.31671488 -0.14817983 0.24484901 0.22871907 -0.1158415 -0.31921855
-0.2954818 -0.27713042 0.22560087 -0.12939103 -0.12011828 0.3743485 -0.15559074 0.26964474
-0.20880292 0.03598157 0.26132843 0.29570073 0.31461748 0.12935048 0.14706096 0.065620124
0.048199143 -0.20100957 -0.0041036895 0.10361023 0.18534212 0.30768973 -0.07334798 0.25818878
-0.064644024 0.008632101 0.11577226 0.01827811 0.19801304 -0.09847791 0.16919358 0.06963644
0.04850739 0.17243436 0.22584397 -0.018455246 -0.117495716 0.19418289 -0.07242771 -0.012355719
0.073295355 0.18957758 0.13672626 0.22077239
00000000: 3aa4 6a3e 7132 713e 3ddf c03d c4f4 623e
00000010: 2500 313e fff7 78bc c429 0d3d 0a1a 953e
00000020: 0b8c 41be 0ed2 a93e 0a55 ae3c ae25 a3bc
00000030: 89bf 043e 0663 13be 979b a43d bdf4 763e
00000040: 6df5 473d ca05 3c3b 1875 f9bc c30e 3ebd
00000050: e006 483e 322a 073e feaa 29bd 069f 0f3e
00000060: b39f d43c bf22 393e e533 dd3c 9f22 cebd
00000070: 9f54 133d b3da f4bd f277 83bb 6ab6 403e
00000080: 2c55 e2bd 8c80 5f3e 2917 ebbd 1a24 9cbc
00000090: 132a a53e 952a b43d 8109 333e 29e4 b73e
000000a0: 8552 8c3c 4e0c 5bbb 9842 443e 8a50 91be
000000b0: 98f8 ab3e 5c70 733d 597a 96bc 5818 24bc
000000c0: c16c aa3d d1a4 aeba ffa5 8b3e 7a74 1f3e
000000d0: 17a3 4c3e caa1 17bd 655c 273e a986 f5bc
000000e0: e939 cabc 6ba6 a53c b6ca 9e3d 4bb6 d93d
000000f0: 2142 f63d c921 8b3e 2de4 eb3d 0323 95bc
00000100: 70ce 4c3c 2d5a ef3c e31b b1bc 2bc2 ff3d
00000110: 6550 863e 32f0 53be 9453 e8bd f219 acbe
00000120: e4c0 07be 2eb9 5d3e 7ef9 cebe a164 f43d
00000130: 9ca4 303e 511b 9cbe 4d42 92bb 5ee7 6c3e
00000140: fc1c 5bbe b313 ac3d bd36 25be 80d9 b1bc
00000150: 5cc1 efbd 7438 9f3e c6eb 543e 4518 6c3e
00000160: f13c b63e c315 6dbe 7428 a2be 74bc 17be
00000170: b3b9 7a3e 5535 6a3e 4f3e edbd 9d70 a3be
00000180: 6449 97be 0ae4 8dbe ea03 673e 157f 04be
00000190: 9300 f6bd 9baa bf3e 2e53 1fbe e00e 8a3e
000001a0: 6fd0 55be 6961 133d d7cc 853e 1666 973e
000001b0: 8b15 a13e 7474 043e 2697 163e d863 863d
000001c0: 776c 453d 74d5 4dbe 3e78 86bb 9a31 d43d
000001d0: 53ca 3d3e 8289 9d3e 7737 96bd 5231 843e
000001e0: 1664 84bd a86d 0d3c 021a ed3d fabb 953c
000001f0: eec3 4a3e c9ae c9bd 1541 2d3e 8d9d 8e3d
00000200: afaf 463d a292 303e a443 673e 752f 97bc
00000210: 98a1 f0bd e1d7 463e fb54 94bd a46f 4abc
00000220: e01b 963d a020 423e f801 0c3e 2812 623e

lstm.bias_hh_l0 f4 [140]
0.21552274 0.3984824 0.049897015 0.07496847 0.20306261 0.20253195 0.04717697 -0.012239485
-0.067811914 0.17004909 0.18112117 0.16347095 0.15067948 -0.073787495 -0.005613686 0.29579368
-0.11655629 0.058651954 -0.007874862 0.010315102 0.09240265 0.19662818 -0.09455388 0.25982812
0.18245097 0.26994362 0.04284962 -0.011253572 -0.00587782 -0.022142565 0.09316478 0.0018539416
0.048547644 -0.059732836 -0.14416105 0.16550773 0.27410415 0.28875437 0.31170723 0.3631989
0.19631098 0.008898813 0.005025041 -0.17291987 0.14928816 0.28801176 0.031669773 -0.048474744
-0.22382136 0.13520522 0.075885564 0.07814969 -0.069399096 -0.007380716 -0.005183742 -0.044623513
-0.07246909 -0.13605846 0.040907767 0.2517929 0.03182563 0.11537477 0.004575853 -0.13762216
-0.22746405 -0.06556656 -0.014917818 0.17255227 0.14107606 -0.07197613 -0.23109818 -0.26427785
-0.25515723 0.43096638 -0.3876882 0.3335553 0.1292994 -0.22726561 0.09934605 0.0847344
-0.008959344 -0.061116766 -0.12614493 -0.008197181 -0.27811593 0.3256792 0.26297724 0.41657606
0.0843197 -0.39515096 -0.30087787 -0.24738055 0.12768342 0.2960426 -0.29755813 -0.09773733
-0.31317756 -0.26475745 0.14919552 -0.2574199 -0.31000856 0.3023709 -0.24259788 0.020912891
-0.16004549 0.22173773 0.017385228 0.20440994 0.5029006 0.31154934 0.14499386 0.14465974
0.27900434 0.015932474 0.009958106 0.12211303 0.23007062 0.28800327 -0.09575477 0.010235106
0.062672876 0.121030465 0.35969192 0.14948557 0.15423033 0.026087113 0.04126427 -0.06084019
-0.030358564 0.021645997 0.25461742 0.19163434 0.1320442 -0.0019618738 -0.1410306 0.050481543
0.30289486 0.26287863 0.105915196 0.089431316
00000000: feb1 5c3e e305 cc3e d060 4c3d 1289 993d
00000010: a5ef 4f3e 8964 4f3e a33c 413d 1f88 48bc
00000020: f9e0 8abd 5921 2e3e d477 393e ee64 273e
00000030: b94b 1a3e e61d 97bd 03f3 b7bb 4572 973e
00000040: 10b5 eebd 083d 703d 9105 01bc ac00 293c
00000050: 9a3d bd3d e658 493e 77a5 c1bd 3108 853e
00000060: 6dd4 3a3e 0d36 8a3e 1583 2f3d e760 38bc
00000070: ba9a c0bb 5364 b5bc 2dcd be3d f5ff f23a
00000080: e5d9 463d 6baa 74bd f49e 13be dc7a 293e
00000090: 6157 8c3e 9dd7 933e 1798 9f3e 35f5 b93e
000000a0: bf05 493e 54cc 113c 19a9 a43b e811 31be
000000b0: ffde 183e 4776 933e 2ab8 013d 748d 46bd
000000c0: 6d31 65be 3d73 0a3e e469 9b3d f20c a03d
000000d0: 1d21 8ebd efd9 f1bb 61dc a9bb 25c7 36bd
000000e0: ad6a 94bd e952 0bbe e78e 273d 00eb 803e
000000f0: 985b 023d 9b49 ec3d 09f1 953b d3ec 0cbe
00000100: 56ec 68be c347 86bd dd69 74bc 8bb1 303e
00000110: 3e76 103e 3968 93bd 00a5 6cbe 6d4f 87be
00000120: f8a3 82be a0a7 dc3e 117f c6be c3c7 aa3e
00000130: 1067 043e 51b8 68be f175 cb3d 3b89 ad3d
00000140: 36ca 12bc 9355 7abd 232c 01be 784d 06bc
00000150: 3665 8ebe 6dbf a63e f4a4 863e 7549 d53e
00000160: cfaf ac3d 3a51 cabe aa0c 9abe 5451 7dbe
00000170: 71bf 023e e592 973e 8a59 98be 822a c8bd
00000180: cf58 a0be 4a8e 87be b6c6 183e 8bcc 83be
00000190: 71b9 9ebe 5cd0 9a3e 946b 78be 8351 ab3c
000001a0: f7e2 23be 370f 633e 776b 8e3c d750 513e
000001b0: 18be 003f 6583 9f3e 4579 143e af21 143e
000001c0: a8d9 8e3e d284 823c 5327 233c 6516 fa3d
000001d0: a297 6b3e 2a75 933e 141b c4bd 25b1 273c
000001e0: a35a 803d d2de f73d 8a29 b83e bf12 193e
000001f0: 8eee 1d3e a4b4 d53c b904 293d 9033 79bd
00000200: 86b2 f8bc f252 b13c 375d 823e cb3b 443e
00000210: 9836 073e c892 00bb 536a 10be bcc5 4e3d
00000220: 0915 9b3e 0798 863e 11ea d83d c427 b73d

lstm.weight_ih_l1 f4 [140, 35]
0.1905743 0.2970197 0.21785933 -0.25270012 0.05390103 -0.24978425 -0.15738216 0.34188676
-0.1602706 -0.055802204 0.08448493 0.15592255 0.23659006 -0.055543136 0.1998986 -0.09251635
-0.34800425 -0.3567111 -0.057854295 0.7723764 0.30238387 0.12946892 0.08823405 -0.21854882
0.14532027 0.026000427 0.23602322 0.50067616 -0.16274619 -0.010941764 -0.028456733 -0.09235063
0.20113106 -0.40359434 0.6072879 0.0061909356 0.20809518 -0.03427377 -0.16956836 0.14131342
-0.15470928 -0.0057944497 0.065324 -0.17517728 -0.30590484 0.1152614 0.054397255 0.0068459604
0.10583251 0.23443346 -0.2401858 -0.14366509 -0.026719725 -0.194237 0.25322786 0.22807153
-0.08481274 -0.19898729 -0.15565829 0.18113488 0.17791532 0.0990998 0.16014618 -0.14631101
-0.11812926 0.2177264 0.03190378 0.21066207 -0.035786785 0.16300508 0.07594205 0.041281838
0.046021927 0.20449306 0.09127698 0.11461695 0.2211463 0.023557717 0.027109131 0.098128565
-0.020908639 -0.022085808 0.0057556108 0.0075128595 -0.035297412 0.14880072 0.006167391 0.21177575
0.17974354 -0.04482955 -0.045025274 -0.035518378 -0.062350202 -0.049113076 -0.22195664 0.020990012
-0.033664703 -0.12029405 0.12196144 -0.10463706 -0.148944 0.040834684 0.0890305 0.016755268
-0.1812681 0.011678591 -0.011007808 -0.13912429 0.18303113 0.018768804 0.27119488 0.16520916
-0.19607721 0.10843347 0.064468086 0.0742891 0.0909503 -0.12933823 0.08284275 -0.06651369
0.13842818 0.11718584 -0.023251923 0.14002004 -0.17092305 0.034474466 -0.004919717 -0.029247375
0.05255233 -0.14817466 -0.1533408 -0.10706481 -0.16534023 -0.0534751 0.109854996 -0.030803962
-0.025178974 -0.24564731 0.12812783 -0.12482717 -0.14286765 -0.014261356 0.016586052 0.027384251
0.0059788786 0.20999171 0.13259943 -0.0498216 -0.13964935 -0.0014698046 -0.08856767 -0.14132567
-0.01122538 -0.031094152 0.061209917 0.025110673 0.12318514 0.1379606 0.0067636725 -0.106368855
-0.25175154 -0.03861092 -0.06436554 0.07549934 -0.053314 -0.082961805 -0.10146893 -0.20124722
0.05617065 -0.009073182 0.08905362 0.011943114 0.05534675 -0.0716563 -0.0060573616 -0.13866608
-0.070693456 -0.18805215 -0.071681954 -0.15292223 -0.08481621 0.065501966 -0.15757622 -0.019071938
0.10837234 0.117396414 0.03979843 0.098217614 0.02205066 -0.15760629 0.2230993 -0.07263661
0.12460283 -0.05411562 -0.041211024 -0.14475106 -0.075301655 -0.0070745437 0.052415006 0.025623461
-0.19964753 -0.054938704 -0.21827182 -0.015319385 -0.06755763 -0.16068484 -0.08078504 -0.007840185
0.08121353 0.07065263 0.009925254 -0.11345953 0.064273044 0.052102726 -0.16686213 0.20985289
0.1112331 -0.13519602 -0.062040523 0.17096762 -0.08743618 -0.11712803 0.069651306 -0.0028485146
0.013455591 0.07826576 0.13408275 -0.078766994 0.111953266 -0.13635579 -0.24957284 0.06216115
-0.01680062 0.13164194 -0.22212273 -0.102150485 0.066934906 -0.13931736 0.160816 0.097593285
-0.18275383 0.13848566 -0.1008207 0.16004045 0.0766895 -0.0043978663 0.0420899 -0.09767155
0.075797245 0.03131641 -0.015685096 0.14376178 -0.24010621 0.059705075 0.18793486 0.060561076
00000000: e925 433e f712 983e 8416 5f3e e961 81be
00000010: 54c7 5c3d 71c7 7fbe ca28 21be c80b af3e
00000020: fa1d 24be da90 64bd 6f06 ad3d 29aa 1f3e
00000030: aa44 723e 3381 63bd 38b2 4c3e 3679 bdbd
00000040: 9d2d b2be d6a2 b6be a0f8 6cbd 76ba 453f
00000050: 0fd2 9a3e 8093 043e 0eb4 b43d 43cb 5fbe
00000060: d6ce 143e d9fe d43c 12b0 713e 502c 003f
00000070: f0a6 26be 1645 33bc 181e e9bc 5422 bdbd
00000080: 4df5 4d3e eba3 cebe 3877 1b3f 55dd ca3b
00000090: e716 553e a762 0cbd 54a3 2dbe 77b4 103e
000000a0: 1c6c 1ebe 5edf bdbb 97c8 853d ac61 33be
000000b0: 8f9f 9cbe 2b0e ec3d a8cf 5e3d 1454 e03b
000000c0: b7be d83d 530f 703e 44f3 75be f11c 13be
000000d0: 53e3 dabc 10e6 46be 15a7 813e 958b 693e
000000e0: 4db2 adbd 53c3 4bbe e364 1fbe 6c7b 393e
000000f0: 6f2f 363e d6f4 ca3d 5cfd 233e 8ed2 15be
00000100: c1ed f1bd abf3 5e3e 8aad 023d ccb7 573e
00000110: 2a95 12bd ceea 263e 8187 9b3d 2517 293d
00000120: 7d81 3c3d a166 513e 6def ba3d 4bbc ea3d
00000130: 2d74 623e 1dfc c03c f813 de3c a1f7 c83d
00000140: 9848 abbc 4ced b4bc 9099 bc3b 6f2e f63b
00000150: 0594 10bd 375f 183e d317 ca3b bedb 583e
00000160: b10e 383e 319f 37bd 6c6c 38bd b87b 11bd
00000170: ed62 7fbd cb2a 49bd 9a48 63be 3ff3 ab3c
00000180: 00e4 09bd ba5c f6bd ebc6 f93d f44b d6bd
00000190: c784 18be 4542 273d 9f55 b63d 5842 893c
000001a0: 589e 39be 9057 3f3c 185a 34bc 9976 0ebe
000001b0: 836c 3b3e 09c1 993c 0eda 8a3e 972c 293e
000001c0: 77c8 48be 5e12 de3d d807 843d e224 983d
000001d0: 2744 ba3d 3e71 04be 76a9 a93d 5438 88bd
000001e0: 1ec0 0d3e 21ff ef3d d17a bebc 6a61 0f3e
000001f0: 7406 2fbe 1935 0d3d 9435 a1bb 3198 efbc
00000200: 1d41 573d 19bb 17be 5f05 1dbe cc44 dbbd
00000210: f34e 29be b508 5bbd a8fb e03d 9758 fcbc
00000220: 2344 cebc f88a 7bbe f133 033e 63a5 ffbd
00000230: e64b 12be 76a8 69bc 79df 873c f054 e03c
00000240: 78ea c33b 1108 573e 25c8 073e bc11 4cbd
00000250: 3d00 0fbe 75a6 c0ba f762 b5bd adb7 10be
00000260: a8ea 37bc 2ab9 febc 40b7 7a3d e6b4 cd3c
00000270: 7e48 fc3d 8b45 0d3e cca1 dd3b ead7 d9bd
00000280: 94e5 80be 7c26 1ebd 15d2 83bd 669f 9a3d
00000290: c85f 5abd e1e7 a9bd f1ce cfbd c013 4ebe
000002a0: 3213 663d afa7 14bc bf61 b63d 0dad 433c
000002b0: 46b3 623d 8ac0 92bd d57c c6bb 7bfe 0dbe
000002c0: bbc7 90bd be90 40be fdcd 92bd a597 1cbe
000002d0: 1fb4 adbd e525 863d a95b 21be c13c 9cbc
000002e0: 51f2 dd3d 886d f03d ae03 233d 5126 c93d
000002f0: 96a3 b43c 8b63 21be 2574 643e 81c2 94bd
00000300: c52f ff3d 57a8 5dbd e4cc 28bd 9f39 14be
00000310: c137 9abd 93d1 e7bb 1eb1 563d 4be8 d13c
00000320: 6770 4cbe 6807 61bd a682 5fbe 28fe 7abc
00000330: a85b 8abd 918a 24be a172 a5bd 1f74 00bc
00000340: 4753 a63d 53b2 903d 889d 223c 785d e8bd
00000350: 96a1 833d ab69 553d e8dd 2abe ade3 563e
00000360: 2ece e33d d370 0abe 341e 7ebd 2312 2f3e
00000370: bd11 b3bd d2e0 efbd 58a5 8e3d 25ae 3abb
00000380: d774 5c3c cc49 a03d fd4c 093e 9750 a1bd
00000390: c147 e53d daa0 0bbe 0690 7fbe b19c 7e3d
000003a0: 74a1 89bc 25cd 063e 2474 63be 4634 d1bd
000003b0: 2b15 893d 36a9 0ebe f3ac 243e fdde c73d
000003c0: d223 3bbe 2fcf 0d3e 157b cebd a5e1 233e
000003d0: 620f 9d3d fa1b 90bb 7566 2c3d 0608 c8bd
000003e0: 963b 9b3d a345 003d 087e 80bc 4a36 133e
000003f0: 67de 75be 4f8d 743d ff71 403e e40e 783d

lstm.weight_hh_l1 f4 [140, 35]
0.10485621 0.050792538 0.098820835 -0.04968328 -0.01652193 0.048891947 0.0897816 -0.096441224
-0.08449794 -0.08017257 0.12069558 -0.12946662 0.19632623 0.13152575 -0.19539565 -0.013471633
-0.0701017 0.22238359 0.07556095 -0.15206829 0.10133458 -0.11548256 0.19149338 -0.14753416
0.02323753 -0.21466614 0.029595729 0.17647655 -0.05579563 -0.17576143 0.07704265 -0.02532069
0.20080031 -0.22262996 -0.19740856 -0.19790341 0.13136643 -0.23664564 0.25986102 0.0688625
-0.03005022 -0.14913324 0.016841462 0.0020373429 0.030235324 0.02770509 -0.100660466 0.013990129
0.10770876 -0.16394544 0.02031606 0.049137726 0.065064125 0.2878574 -0.07613991 0.038203567
0.018786907 0.046418782 -0.33867902 0.16452861 0.15180926 0.301458 -0.0123153785 -0.2806631
-0.061956502 -0.028447853 -0.08248064 -0.1540933 -0.0190038 0.03373127 -0.014267956 -0.015911639
0.10749081 0.04018316 -0.16765283 -0.11789977 -0.07275142 0.14452247 -0.09074709 0.07902739
-0.03502015 -0.08185842 -0.053823717 0.060332924 0.11174061 0.074410684 0.08036916 0.06811062
0.085072875 -0.0050318837 0.07906048 0.0747643 -0.23023851 -0.0046530855 -0.043855757 -0.075761266
-0.16928305 0.046987284 0.23212291 -0.10012786 0.04669938 0.21915412 -0.14252578 0.14601038
0.1428857 -0.002400614 0.11544285 -0.10455914 0.066834755 0.029342221 -0.22405024 -0.055693116
0.10534141 0.1699674 0.18223892 -0.08853433 0.14264199 -0.20214076 -0.086049795 0.036239628
0.06459346 -0.027613185 -0.23286177 -0.08910062 0.008749668 -0.096386835 0.0038845434 -0.07167742
0.16215873 -0.09762764 -0.19044657 -0.08886902 -0.022875879 0.07508802 -0.03227925 -0.0044219177
0.0525525 0.14048839 -0.016033554 0.06269809 0.13381097 0.010309349 0.14243723 -0.11427604
0.035848364 0.06760851 0.07396647 -0.11240072 0.036779027 0.14710188 -0.05716045 0.21816845
0.053442877 -0.21913104 0.14767013 0.11896022 -0.1418567 0.086166605 -0.005504664 0.02000354
-0.02470259 -0.13994615 -0.22723809 -0.048189186 -0.017768864 -0.017177507 0.059864406 0.04867797
-0.08389879 0.03963416 -0.0028795975 -0.08169078 -0.092411846 0.056455176 0.1182435 -0.023640301
-0.077141404 -0.03067629 0.13010359 -0.24810849 0.0465784 0.0902419 0.101477295 -0.18028706
0.15928738 0.07647981 0.074354574 0.089237206 -0.09216351 -0.14425987 0.03120706 0.08159337
0.08701146 0.026927339 -0.08361316 0.014705675 0.020960774 -0.0417545 -0.0053923344 -0.18306558
-0.037996493 -0.10025237 -0.07928307 -0.0009858606 0.102554075 0.08166878 -0.040947903 -0.0058071
0.18153323 -0.10140475 -0.10830338 0.08422265 0.11267398 -0.2012715 -0.16793664 0.0021598318
0.104324736 -0.084739566 -0.13232853 -0.0013568368 -0.047751084 0.13259017 -0.111782275 -0.09725898
0.1849927 0.005266585 0.010598653 -0.13371919 0.036442094 0.014212303 -0.00025611563 0.022174645
-0.2192478 0.04401232 -0.21458271 -0.09685561 -0.2046969 0.22135118 -0.07737247 0.017671635
-0.016223704 0.19135977 -0.014299632 -0.04108845 -0.10539222 0.19300973 0.077304386 0.009460582
-0.014525793 -0.18424934 -0.095034085 0.18242918 0.23189163 0.056032035 0.07201803 -0.17787558
00000000: dabe d63d d60b 503d 9462 ca3d b280 4bbd
00000010: 0059 87bc ec42 483d 6adf b73d fa82 c5bd
00000020: 420d adbd 8431 a4bd 3f2f f73d e692 04be
00000030: be09 493e b0ae 063e cc15 48be 20b8 5cbc
00000040: 7b91 8fbd 86b8 633e b3bf 9a3d cab7 1bbe
00000050: 8188 cf3d 1f82 ecbd d716 443e 3213 17be
00000060: a25c be3c 71d1 5bbe be72 f23c 45b6 343e
00000070: f589 64bd cefa 33be 89c8 9d3d 566d cfbc
00000080: 999e 4d3e 1cf9 63be 7825 4abe 31a7 4abe
00000090: ec84 063e 3c53 72be 810c 853e c807 8d3d
000000a0: e12b f6bc 62b6 18be 1bf7 893c f184 053b
000000b0: 12b0 f73c c9f5 e23c 1327 cebd db36 653c
000000c0: 6996 dc3d 50e1 27be de6d a63c a444 493d
000000d0: 5740 853d 0c62 933e 3eef 9bbd 587b 1c3d
000000e0: 00e7 993c 9f21 3e3d 5667 adbe 307a 283e
000000f0: e373 1b3e b458 9a3e 71c6 49bc 13b3 8fbe
00000100: 1ac6 7dbd 790b e9bc 9ceb a8bd a2ca 1dbe
00000110: dbad 9bbc cd29 0a3d 25c4 69bc 2059 82bc
00000120: 2424 dc3d 1997 243d 2fad 2bbe 6f75 f1bd
00000130: b2fe 94bd b3fd 133e 9cd9 b9bd 1dd9 a13d
00000140: 4a71 0fbd 63a5 a7bd 4276 5cbd a81f 773d
00000150: 43d8 e43d a164 983d 9698 a43d 957d 8b3d
00000160: b03a ae3d 80e2 a4bb 76ea a13d 061e 993d
00000170: a5c3 6bbe e978 98bb 18a2 33bd b928 9bbd
00000180: 8958 2dbe bd75 403d a1b1 6d3e d60f cdbd
00000190: d947 3f3d f069 603e 47f2 11be bf83 153e
000001a0: a150 123e 9f53 1dbb 4d6d ec3d 1a23 d6bd
000001b0: a9e0 883d 195f f03c 6d6d 65be 771e 64bd
000001c0: 3dbd d73d ef0b 2e3e d79c 3a3e 7d51 b5bd
000001d0: be10 123e fdfd 4ebe e03a b0bd 0170 143d
000001e0: 9349 843d 0c35 e2bc 5173 6ebe 637a b6bd
000001f0: c45a 0f3c 7666 c5bd d393 7e3b 9ccb 92bd
00000200: f00c 263e 00f1 c7bd 6d04 43be f600 b6bd
00000210: 3266 bbbc bfc7 993d 3f37 04bd bce5 90bb
00000220: 4a41 573d 30dc 0f3e cd58 83bc db67 803d
00000230: be05 093e 8be8 283c 11db 113e 8e09 eabd
00000240: bcd5 123d 5576 8a3d bc7b 973d 5932 e6bd
00000250: 9ba5 163d e0a1 163e 1321 6abd 8d67 5f3e
00000260: ebe6 5a3d e363 60be d736 173e 6aa1 f33d
00000270: e242 11be 1e78 b03d 7860 b4bb 77de a33c
00000280: 165d cabc 0b4e 0fbe 1ab1 68be 0662 45bd
00000290: 0290 91bc d8b7 8cbc 6134 753d 8d62 473d
000002a0: 21d3 abbd 6e57 223d a1b7 3cbb 7f4d a7bd
000002b0: 6c42 bdbd 8b3d 673d a629 f23d 4ea9 c1bc
000002c0: 50fc 9dbd d84c fbbc e039 053e 2710 7ebe
000002d0: fec8 3e3d bfd0 b83d 54d3 cf3d 2c9d 38be
000002e0: 3b1c 233e 72a1 9c3d 3647 983d ffc1 b63d
000002f0: 39c0 bcbd dcb8 13be f3a5 ff3c 6d1a a73d
00000300: 1033 b23d b996 dc3c 603d abbd 12f0 703c
00000310: eeb5 ab3c c406 2bbd 2eb2 b0bb 8b75 3bbe
00000320: 36a2 1bbd 1d51 cdbd 2a5f a2bd fe37 81ba
00000330: df07 d23d f641 a73d fdb8 27bd 7c49 bebb
00000340: d9e3 393e 4bad cfbd 2ace ddbd ed7c ac3d
00000350: 9ec1 e63d 1e1a 4ebe 95f7 2bbe f78b 0d3b
00000360: 35a8 d53d f08b adbd 2181 07be e3d7 b1ba
00000370: a496 43bd b8c5 073e 1bee e4bd b72f c7bd
00000380: ba6e 3d3e 5193 ac3b f9a5 2d3c afed 08be
00000390: 4e44 153d b8da 683c 4247 86b9 9aa7 b53c
000003a0: 7f82 60be 4346 343d 92bb 5bbe 3c5c c6bd
000003b0: 109c 51be e2a9 623e 7575 9ebd 1bc4 903c
000003c0: 93e7 84bc d1f3 433e 0149 6abc 5d4c 28bd
000003d0: e0d7 d7bd 58a4 453e c351 9e3d 8f00 1b3c
000003e0: 97fd 6dbc dcab 3cbe 3ba1 c2bd b7ce 3a3e
000003f0: 0075 6d3e d981 653d 307e 933d 0425 36be

lstm.bias_ih_l1 f4 [140]
-0.17647287 0.039975528 0.08709453 -0.07338022 0.051505554 0.22989307 0.021363836 0.026282646
0.065975 0.005459133 0.24092555 0.0013227612 0.223354 0.12836555 0.16028912 -0.060752932
0.14213279 -0.021679526 -0.050160367 -0.13964489 0.18864976 -0.0053687626 -0.0561591 -0.02856617
0.0053372304 0.21158284 0.047366876 0.06204304 0.18577574 0.17972445 0.09156349 -0.016566351
-0.18080075 0.033609428 -0.052069157 -0.05313965 -0.223945 -0.0060631074 -0.008871796 0.13869116
0.0002220578 0.06931121 0.17690308 -0.016172754 0.01480711 0.1648824 0.21709366 -0.058080476
0.15657642 0.14504135 0.06424859 -0.056784146 -0.0841492 0.22531593 0.042690683 0.19847721
0.2028402 -0.0194064 -0.011648861 0.08020043 -0.09007406 0.12107072 -0.06316046 0.030875692
-0.08361777 0.010706289 -0.0649974 0.03168944 0.003446501 0.19924434 -0.10173733 -0.036453534
0.23578496 0.03681756 -0.0911346 -0.089838244 0.15654218 0.19995053 -0.008051041 0.2064755
-0.19094409 0.21480404 -0.06447852 -0.02629772 0.2006408 0.13965036 -0.14280303 0.07882824
-0.18670848 -0.024034569 -0.18772899 -0.07492003 -0.21669105 -0.071573645 -0.20864943 -0.10299185
-0.05780858 0.20562644 0.24078871 0.0367505 -0.1660748 -0.037273735 -0.09283246 0.03602738
-0.06601798 0.025718693 -0.18347207 0.16494139 0.068477966 -0.04319327 0.0024027717 0.08756645
-0.07288434 0.06501844 0.20211619 0.25871646 0.15455015 0.1837598 0.27028432 -0.014212528
0.015250454 0.14737318 -0.019949956 0.012034221 0.048952598 0.1968217 0.048444625 0.07110692
-0.08224921 0.0614875 0.0329062 0.2314774 -0.15629613 0.21942438 -0.0075991373 0.05912096
0.27290517 0.14909403 0.08209918 0.18188012
00000000: 4eb5 34be 61bd 233d 9e5e b23d 5e48 96bd
00000010: 7df7 523d 1769 6b3e 3603 af3c b44e d73c
00000020: e71d 873d 87e2 b23b 30b5 763e 8060 ad3a
00000030: e9b6 643e 4272 033e d522 243e 11d8 78bd
00000040: 428b 113e 4399 b1bc f574 4dbd 12ff 0ebe
00000050: 672d 413e 72ec afbb 1607 66bd 9a03 eabc
00000060: efe3 ae3b 2ca9 583e c503 423d d820 7e3d
00000070: ff3b 3e3e b009 383e a485 bb3d 28b6 87bc
00000080: d523 39be 0aaa 093d 7846 55bd f6a8 59bd
00000090: d751 65be 08ad c6bb 025b 11bc 0e05 0e3e
000000a0: 30d8 6839 09f3 8d3d 1526 353e b97c 84bc
000000b0: 8599 723c efd6 283e cd4d 5e3e cbe5 6dbd
000000c0: 9255 203e b885 143e c494 833d 7e96 68bd
000000d0: 6a56 acbd 38b9 663e 6ddc 2e3d 9c3d 4b3e
000000e0: 57b5 4f3e 2cfa 9ebc ddda 3ebc 1f40 a43d
000000f0: c078 b8bd edf3 f73d 455a 81bd 05ef fc3c
00000100: cb3f abbd 6e69 2f3c 5b1d 85bd c9cc 013d
00000110: b1de 613b b506 4c3e a95b d0bd 4d50 15bd
00000120: 9d71 713e 03ce 163d c7a4 babd 1dfd b7bd
00000130: 984c 203e d5bf 4c3e 83e8 03bc 506e 533e
00000140: d986 43be 97f5 5b3e 500d 84bd 516e d7bc
00000150: c874 4d3e 8100 0f3e f53a 12be b370 a13d
00000160: 8230 3fbe 25e4 c4bc 073c 40be ac6f 99bd
00000170: 42e4 5dbe 3495 92bd 32a8 55be 64ed d2bd
00000180: b1c8 6cbd bd8f 523e 5191 763e b187 163d
00000190: 830f 2abe 58ac 18bd f21e bebd 7291 133d
000001a0: 6f34 87bd 02b0 d23c 1ae0 3bbe 65e6 283e
000001b0: 2d3e 8c3d 6deb 30bd d277 1d3b 0a56 b33d
000001c0: 6344 95bd 6328 853d 8cf7 4e3e 7c76 843e
000001d0: 6542 1e3e 872b 3c3e b562 8a3e aadb 68bc
000001e0: 0add 793c ffe8 163e 176e a3bc 2e2b 453c
000001f0: 8582 483d a18b 493e df6d 463d 81a0 913d
00000200: 4672 a8bd 51da 7b3d a7c8 063d 6908 6d3e
00000210: 180c 20be c9b0 603e 2f02 f9bb d228 723d
00000220: 3aba 8b3e 1bac 183e 9d23 a83d c83e 3a3e

lstm.bias_hh_l1 f4 [140]
-0.028768066 0.063594885 0.04881473 -0.08545989 0.115289986 0.17246585 0.04626185 0.20215961
-0.005620867 -0.0121283885 0.13155197 0.20557891 0.0050383033 0.21543881 -0.009765515 -0.1064357
0.11794547 -0.06765827 -0.0006455599 -0.15487513 -0.025920866 0.18604825 0.1360032 -0.036606632
0.05062098 -0.06280189 0.04422065 -0.049857434 0.061433602 -0.085408844 0.14318347 0.1609945
-0.20409253 -0.0021059278 -0.018331032 -0.19755085 -0.09145998 0.20404114 0.13893986 -0.016014377
0.05004579 -0.03050524 0.13464096 0.13442753 0.23866464 -0.017976329 0.023539178 0.044700094
0.22070746 0.1896265 0.0774446 -0.114957966 0.12308587 -0.059936777 0.09335559 0.024078289
0.114008464 0.19504681 -0.07693307 -2.6950394e-05 -0.00043600085 0.01802892 0.051113285 -0.045537286
0.2137934 -0.114054106 -0.067304365 -0.025344329 0.20931262 -0.110466056 0.13360357 0.1627998
-0.08348631 0.03260781 -0.20479462 -0.112258375 0.12559278 -0.043519203 0.05483441 0.22520027
-0.027669612 0.21662067 0.053239565 -0.23420228 -0.036452882 -0.07527502 -0.026207272 -0.24345523
-0.10677797 -0.11478155 -0.09638021 -0.21631575 -0.16712566 -0.014613598 -0.06768964 -0.11840434
0.018587992 0.14319116 0.16982637 0.02441315 0.12216285 0.23276272 -0.005393583 0.13979606
-0.22086723 0.014415814 -0.1693142 -0.0115458565 -0.018216006 -0.029023133 0.24348465 0.18670979
0.16922636 -0.15231133 0.024526983 0.22928685 0.1205527 0.1447999 0.10005443 0.16880655
0.25895447 -0.0015882137 0.06624609 0.018233057 0.019459827 0.126097 -0.10542182 0.09899141
-0.06682089 0.27495185 0.013289353 -0.01741534 0.013255181 0.10242921 0.09024621 0.17207335
-0.04266569 -0.12358999 0.24559325 -0.10865821
00000000: 02ab ebbc 093e 823d f4f1 473d 9805 afbd
00000010: 281d ec3d e39a 303e 117d 3d3d ee02 4f3e
00000020: 402f b8bb 26b6 46bc 8fb5 063e 4783 523e
00000030: 5a18 a53b fe9b 5c3e 8aff 1fbc f6fa d9bd
00000040: 658d f13d 6b90 8abd cb3a 29ba 9697 1ebe
00000050: ff57 d4bc 6f83 3e3e 6c44 0b3e d6f0 15bd
00000060: f257 4f3d 479e 80bd b620 353d 4f37 4cbd
00000070: cda1 7b3d d5ea aebd b09e 123e bedb 243e
00000080: a2fd 50be 9b03 0abb f62a 96bc c54a 4abe
00000090: 5f4f bbbd 29f0 503e 4046 0e3e 9530 83bc
000000a0: d0fc 4c3d 20e6 f9bc 52df 093e 5fa7 093e
000000b0: 8164 743e 1843 93bc 3cd5 c03c 7217 373d
000000c0: 2301 623e 732d 423e 469b 9e3d 156f ebbd
000000d0: 7214 fc3d 4480 75bd 3731 bf3d d53f c53c
000000e0: 457d e93d 5aba 473e 168f 9dbd 8813 e2b7
000000f0: 0b97 e4b9 63b1 933c 2a5c 513d 4e85 3abd
00000100: a8ec 5a3e 3395 e9bd dfd6 89bd e99e cfbc
00000110: 0c56 563e 073c e2bd 60cf 083e feb4 263e
00000120: dffa aabd c48f 053d aeb5 51be b8e7 e5bd
00000130: 659b 003e 3141 32bd 0c9a 603d e69a 663e
00000140: 62ab e2bc cfd1 5d3e bb11 5a3d b9d2 6fbe
00000150: 9e4f 15bd ca29 9abd a2b0 d6bc 544c 79be
00000160: 69ae dabd 9712 ebbd fd62 c5bd e081 5dbe
00000170: fd22 2bbe df6d 6fbc dea0 8abd fa7d f2bd
00000180: d845 983c b4a0 123e f7e6 2d3e 16fe c73c
00000190: 8430 fa3d 5a59 6e3e a7bc b0bb b326 0f3e
000001a0: 052b 62be 4e30 6c3c b460 2dbe d52a 3dbc
000001b0: bc39 95bc ecc1 edbc 0a54 793e da30 3f3e
000001c0: ad49 2d3e 80f7 1bbe d0ec c83c 2cca 6a3e
000001d0: 55e4 f63d 6d46 143e 56e9 cc3d a0db 2c3e
000001e0: ae95 843e 9c2b d0ba 08ac 873d 7e5d 953c
000001f0: 376a 9f3c 921f 013e 65e7 d7bd 02bc ca3d
00000200: 64d9 88bd 7dc6 8c3e 96bb 593c 9daa 8ebc
00000210: 422c 593c 68c6 d13d 01d3 b83d ff33 303e
00000220: 38c2 2ebd c01c fdbd cc7c 7b3e 3288 debd

fc.weight f4 [1, 35]
1.5770631 -0.022509715 2.0140533 -2.030875 -2.0139492 -2.0454648 2.1084936 2.0698335
1.9869865 1.9874344 -2.0191329 2.0520315 -2.0329492 -2.0980296 2.0208387 -1.491014
-1.9636362 -1.9545332 -2.0257533 -2.0204911 -1.9999484 -1.959315 -2.0697813 2.0504947
-2.0713263 -1.8659207 -2.0418494 1.9544624 2.0454426 2.0370896 1.4447441 2.0688958
2.006151 2.104243 -2.04963
00000000: 34dd c93f 4b66 b8bc 40e6 0040 dbf9 01c0
00000010: 8be4 00c0 e5e8 02c0 8ff1 0640 2778 0440
00000020: 9355 fe3f 4064 fe3f 7939 01c0 7c54 0340
00000030: d71b 02c0 1e46 06c0 6c55 0140 8cd9 bebf
00000040: 6e58 fbbf 252e fabf f1a5 01c0 ba4f 01c0
00000050: 4ffe ffbf d5ca fabf 4c77 04c0 4e3b 0340
00000060: 9c90 04c0 7dd6 eebf a9ad 02c0 d32b fa3f
00000070: 88e8 0240 ad5f 0240 60ed b83f ca68 0440
00000080: c764 0040 ebab 0640 232d 03c0
