models/lstm_trial_0.pth (torch, 592190 bytes, 9 tensors)

lstm.weight_ih_l0 f4 [412, 44]
0	0x3c3a85e5	0.011384462
1	0xbcb342f6	-0.021882515
2	0xbd1bbf0f	-0.038024005
3	0x3df8b279	0.12143416
4	0xbdd02bb9	-0.101645894
5	0xbc874560	-0.016512573
6	0x3d0227d5	0.031776268
7	0xbd0a7fc6	-0.03381326
8	0xbd106194	-0.035249308
9	0x3c6f3fba	0.014602596
10	0x3c4b167a	0.012395496
11	0x3d85c1de	0.06531118
12	0x3dc4fbdb	0.0961835
13	0xbd836af4	-0.06416884
14	0xbce4da14	-0.027936019
15	0x3c297388	0.010342486
16	0x3d687b53	0.056758236
17	0x3d2adfc6	0.041717313
18	0xbcd6b3ab	-0.02620872
19	0x3d3805b3	0.04492731
20	0xbd8eae74	-0.06966868
21	0xbd1327b3	-0.035926532
22	0xbcb2bd8b	-0.021818897
23	0xbd783e46	-0.060606264
24	0x3d156db9	0.036481593
25	0xbce6e0e2	-0.028183404
26	0x3dd5363a	0.104107335
27	0x3d9b27af	0.075759284
28	0xbd4c190e	-0.04982858
29	0x3ca01996	0.01954345
30	0x3df27bae	0.11839996
31	0x3c989d3b	0.01862966
32	0x3c0faeea	0.00876973
33	0xbe09492a	-0.13406816
34	0x3cd625f8	0.026141152
35	0xbb1ab31e	-0.0023605297
36	0xbd6213b5	-0.055194575
37	0xbd35bbb2	-0.044368453
38	0xbada914d	-0.0016675383
39	0xbe057dd7	-0.13036285
40	0x3d982f3c	0.07430884
41	0x3d440688	0.04785779
42	0xbcdde1f6	-0.027085286
43	0x3cf03ae6	0.02932496
44	0xbc3d4c00	-0.011553764
45	0xbdabbf26	-0.08386068
46	0xbdd697ca	-0.1047817
47	0xbd48c531	-0.04901618
48	0x3dfbf858	0.12303227
49	0x3ca8a1dc	0.020584993
50	0xbd873b25	-0.06603078
51	0x3b1142cf	0.0022165065
52	0xbdfe6492	-0.12421526
53	0x3d9f379f	0.07774281
54	0xbd0ce554	-0.03439839
55	0xbd75b00d	-0.05998235
56	0xbd8dc4a0	-0.06922269
57	0xbd1ca9bc	-0.03824781
58	0x3cc8ca55	0.024510542
59	0x3c8ef5c1	0.017451169
60	0x3dc396ef	0.09550273
61	0x3c336e5e	0.010951607
62	0xbcc53ce0	-0.024076879
63	0x3daa4cdb	0.0831544
64	0x3ccecb8f	0.025243549
65	0xbd2da640	-0.042394876
66	0x3beb4f6c	0.0071810987
67	0x3d80e133	0.06292953
68	0xbc027695	-0.0079628425
69	0x3caec9e4	0.021336503
70	0xbd749cfa	-0.059720017
71	0x3d54eb82	0.05198241
72	0x3dc2d048	0.09512383
73	0xbd205e74	-0.039152578
74	0x3d2b717f	0.041856285
75	0x3d421adb	0.047388893
76	0x3df7fbb9	0.12108559
77	0xbc692a13	-0.014231223
78	0xbd7cb8ae	-0.06169956
79	0x3d9224b7	0.07135909
80	0x3bfd8c7e	0.0077376952
81	0xbd8ede76	-0.06976025
82	0x3b8d3988	0.004309837
83	0x3d44522a	0.04792992
84	0xbde00e66	-0.10940246
85	0xbb965a2e	-0.004588387
86	0x3d8d882c	0.06910738
87	0xbdb40568	-0.08790094
88	0x3cfef995	0.03112487
89	0xbda830b4	-0.082124144
90	0x3ca27a15	0.019833604
91	0xbd12a284	-0.03579952
92	0xbcacdc1c	-0.02110105
93	0x3bae5ea2	0.0053213397
94	0xbdaa2ae5	-0.08308963
95	0xbbfe83a1	-0.007767156
96	0x3c0aad5d	0.008464185
97	0xbaa76f09	-0.001277418
98	0xbc30f115	-0.010799666
99	0x3dc24d29	0.094873734
100	0x3dfae6c9	0.1225105
101	0xbd8709f0	-0.06593692
102	0xbd02b24f	-0.03190833
103	0x3d35c323	0.04437555
104	0x3d761b79	0.060084794
105	0x3cd3f06a	0.025871474
106	0xbdd0ab39	-0.10188908
107	0xbca0a01b	-0.019607594
108	0x3d09ccef	0.033642706
109	0xbcb3e5f1	-0.02196023
110	0x3d9cf924	0.07664707
111	0xbda26351	-0.07929099
112	0x3df100fd	0.117677666
113	0xbd0e4ef6	-0.03474327
114	0xbd450429	-0.04809967
115	0x3cc65133	0.02420864
116	0x3d9f8c0f	0.07790386
117	0xbc30a38d	-0.010781181
118	0xbd5ed7dd	-0.054405082
119	0x3b7cac62	0.0038554897
120	0x3d808bb4	0.06276646
121	0x3d1cbf55	0.038268406
122	0x3d681fb5	0.056670863
123	0x3d203553	0.039113354
124	0x3ce2917a	0.02765726
125	0x3c3d9eae	0.011573477
126	0xbd7a1773	-0.06105752
127	0xbdd0ff96	-0.10204999
128	0x3d56512a	0.052323498
129	0x3db68a1b	0.0891306
130	0x3d3e394b	0.046441358
131	0xbc9e9274	-0.019356944
132	0xbdc0e17b	-0.09418007
133	0xbcb832b4	-0.022485115
134	0x3d479ae7	0.04873171
135	0x3cac7124	0.021050043
136	0xbc192383	-0.009346846
137	0xbcb0a489	-0.021562831
138	0xbd86fbf8	-0.06591028
139	0xbba03b6e	-0.004889897
140	0x3c834539	0.016024219
141	0xbd91a9da	-0.07112475
142	0x3ce435c9	0.027857678
143	0xbd9d3451	-0.07675994
144	0xbb902b2b	-0.0043996773
145	0x3db7a8e0	0.08967757
146	0x3ceb3d87	0.028715862
147	0xbd52be21	-0.051450852
148	0xbdff9c58	-0.12480992
149	0xbd29c7ec	-0.041450426
150	0x3c989d0a	0.01862957
151	0xbc1f2dd3	-0.009715515
152	0x3dba714d	0.09103642
153	0xbdb488e0	-0.08815169
154	0xbd8cf08f	-0.068818204
155	0x3c3eab26	0.011637485
156	0x3d9be596	0.076121494
157	0xbd02843a	-0.031864382
158	0xbd0ae766	-0.033912085
159	0x3d0b1917	0.033959474
160	0xbdd2b33f	-0.10288095
161	0x3ceba37e	0.028764483
162	0x3dc6ab6f	0.09700667
163	0x3c316c43	0.010829034
164	0x3b13cf2d	0.0022553906
165	0xbd8a4ed1	-0.06753314
166	0x3c5ac9fc	0.013353821
167	0x3d141ac6	0.036158346
168	0xbd5bbdbd	-0.053647745
169	0x3e047499	0.12935103
170	0x3b54e404	0.003248454
171	0xbd23f864	-0.040031806
172	0xbd0b7af9	-0.034052823
173	0x3d568ee7	0.052382376
174	0x3c45f6fc	0.012082811
175	0xbdaf7de6	-0.08568935
176	0x3c02ddf6	0.00798749
177	0x3de67e57	0.11254566
178	0x3c294461	0.010331244
179	0xbddc4830	-0.10755956
180	0xbdd5c061	-0.10437084
181	0xbd9e9f35	-0.0774521
182	0xbb7a5dda	-0.0038202913
183	0x3da89b14	0.08232704
184	0x3d67d9ed	0.056604315
185	0x3da188f4	0.0788745
186	0x3d5bcee2	0.053664096
187	0x3cc9c971	0.024632188
188	0x3d1f4c04	0.038890854
189	0xbdc1c99e	-0.094622836
190	0xbd056761	-0.032569293
191	0xbd8f3a09	-0.06993491
192	0xbdd63b90	-0.104605794
193	0xbd611abd	-0.05495714
194	0x3d0bc6d4	0.034125164
195	0xbdcce621	-0.10004831
196	0x3c121cc2	0.008917989
197	0x3d110651	0.035406414
198	0x3d787b8e	0.060664706
199	0x3d9e1e0d	0.077205755
200	0xbbf0a48b	-0.007343834
201	0x3caa4381	0.020784141
202	0xbdab2771	-0.08357132
203	0xbd48f690	-0.049063265
204	0xbbd2d6b8	-0.006434288
205	0x3ce27b04	0.027646549
206	0x3cb64006	0.022247326
207	0x3d8f14ab	0.06986364
208	0x3dbc075c	0.09181091
209	0xbdf8d05d	-0.12149117
210	0x3d487f5f	0.048949596
211	0xbd8a36fb	-0.06748768
212	0x3b09ab6e	0.002100672
213	0x3cd37379	0.025811898
214	0xbd42acad	-0.047527958
215	0x3cefaeec	0.029258214
216	0x3d5f585b	0.05452762
217	0x3ddf9c0f	0.10918438
218	0x3c392ef5	0.011302699
219	0xbc8f4871	-0.017490597
220	0x3b602ce4	0.0034206444
221	0x3ceb84ef	0.028749911
222	0x38abdd50	8.195138e-05
223	0x3c9e89c7	0.019352807
224	0xbdb77a10	-0.089588284
225	0x3d790349	0.06079415
226	0x3dccfa7e	0.10008715
227	0xbb920290	-0.004455872
228	0xbb8f68dc	-0.004376514
229	0xbd8cf0b7	-0.0688185
230	0x3c3d6240	0.011559069
231	0x3cdf2e9e	0.027243908
232	0x3dbdef8c	0.092742056
233	0x3c83b4c2	0.016077403
234	0x3cb052f1	0.021523925
235	0xbbc634fd	-0.006048797
236	0xbd41351f	-0.0471698
237	0xbd95c0b2	-0.07312144
238	0x3a9d2fb6	0.0011992368
239	0xbdc4d0f7	-0.096101694
240	0xbe0037ab	-0.12521236
241	0xbcf3278f	-0.029681949
242	0x3cc0b74b	0.0235249
243	0x3d763269	0.06010667
244	0xbd50b732	-0.05095596
245	0xbdb7461f	-0.089489214
246	0xbddbb779	-0.10728354
247	0xbb8e2345	-0.0043377005
248	0x3d30d5f0	0.043172777
249	0xbd417a12	-0.047235556
250	0x3c84cd60	0.016211212
251	0x3d5101bf	0.051027056
252	0x3d8bdcad	0.068292
253	0x3d8f25b1	0.06989611
254	0xbdd96aee	-0.10616098
255	0x3d153f4b	0.036437314

lstm.weight_hh_l0 f4 [412, 103]
0	0xbcdf5905	-0.027264128
1	0xbbeac5ed	-0.007164708
2	0x3dbf1bae	0.09331451
3	0xbdb7539f	-0.08951496
4	0x3d9eb3c7	0.077491336
5	0xbd0c6984	-0.034280315
6	0xbdd21b0e	-0.102590665
7	0xbcca9546	-0.024729382
8	0xbd231d78	-0.039823025
9	0xbdf7f742	-0.121077076
10	0xbcf1605c	-0.029464893
11	0xbdac1ec8	-0.084043086
12	0x3d8193f3	0.06327047
13	0xbd73ff31	-0.05956954
14	0x3d1cd07d	0.038284767
15	0xbbcb89c9	-0.0062114936
16	0xbd092776	-0.0334849
17	0xbde43b96	-0.111441776
18	0x3cdb0416	0.026735347
19	0xbcf02859	-0.029316114
20	0xbd9eb2e3	-0.07748964
21	0x3daee19e	0.08539127
22	0xbd04f67b	-0.032461625
23	0x3c9fa69c	0.019488625
24	0x3bc78712	0.0060890997
25	0xbc9b510f	-0.01895955
26	0x3d19887d	0.03748368
27	0xbcbcef75	-0.0230634
28	0x3da781c3	0.08179047
29	0xbd814821	-0.063125856
30	0xbd55068f	-0.052008208
31	0x3da90637	0.082531385
32	0x3d87f6e5	0.06638888
33	0x3cc26ce8	0.023733571
34	0xbd43495f	-0.047677394
35	0xbd0076f5	-0.031363446
36	0xbd538c83	-0.051647674
37	0xbd8a6ec3	-0.06759407
38	0x3d8eecef	0.06978785
39	0x3c35a33a	0.0110862795
40	0xbde161cb	-0.11004981
41	0xbd235c03	-0.03988267
42	0xbc678053	-0.014129716
43	0x3d8a97e3	0.06767251
44	0x3df2457a	0.11829658
45	0x3d2e52e8	0.042559534
46	0x3dd50929	0.10402138
47	0xbdaa065d	-0.08301995
48	0x3c8236c4	0.015895255
49	0xbc645b9c	-0.013937857
50	0x3daef593	0.08542933
51	0x3d48dd49	0.04903916
52	0xbde66f2d	-0.11251674
53	0xbcecd550	-0.02891031
54	0x3c3698c1	0.011144818
55	0x3d83ac22	0.06429316
56	0x3d1a44c1	0.037663225
57	0x3c699414	0.014256496
58	0x3d342d13	0.0439883
59	0x3da0126f	0.07816016
60	0xbd5a6cc5	-0.053326387
61	0xbdb8fefd	-0.0903301
62	0x3db59a4a	0.08867319
63	0xbab9da38	-0.0014179414
64	0x3de231b3	0.110446356
65	0xbd80f1fd	-0.062961556
66	0x3de0bd7e	0.10973643
67	0x3dcd3c67	0.100212865
68	0x3df4f95b	0.11961623
69	0xbd374c1e	-0.044750325
70	0xbb0d7b1c	-0.0021588271
71	0x3d738c71	0.059460107
72	0x3c2a761e	0.010404138
73	0xbbdc63d2	-0.0067257667
74	0xbd8f0b20	-0.06984544
75	0xbd79e68f	-0.061010893
76	0xbdda699f	-0.10664677
77	0xbcdf008a	-0.027221937
78	0x3d4847fa	0.048896767
79	0x3d292156	0.041291557
80	0xbd5b455e	-0.05353295
81	0x3c858dd6	0.016302984
82	0x3db6812f	0.089113586
83	0x3d1bd9fc	0.038049683
84	0x3ce5c299	0.028046893
85	0xbd398901	-0.045296673
86	0xbca2fb1c	-0.019895129
87	0x3c83f903	0.016109949
88	0xbd9c2028	-0.07623321
89	0xbc41d179	-0.011829727
90	0xbdacd47c	-0.08438966
91	0x3d634875	0.055489022
92	0xbddafe39	-0.106930204
93	0xbd82bbc7	-0.06383472
94	0xbbfc8cd9	-0.00770722
95	0x3d044871	0.032295648
96	0x3d078c4c	0.033092782
97	0xbd0ecfae	-0.034866028
98	0xbda4c8fd	-0.08046148
99	0xbd65264d	-0.05594473
100	0x3e193d3d	0.14964767
101	0x3cbbf25c	0.022942714
102	0xbc3e0d1b	-0.011599804
103	0x3d8e8b31	0.069601424
104	0xbdf3dc05	-0.119072
105	0x3dd43ba2	0.103629366
106	0xbc0284be	-0.0079662185
107	0xbd1c8b0a	-0.038218535
108	0x3d98c246	0.0745893
109	0xbd8001ac	-0.06250319
110	0xbbf2d584	-0.007410707
111	0xbc9d4fc5	-0.019203076
112	0xbd80d97d	-0.062914826
113	0x3c2d2ce6	0.010569787
114	0xba290ffc	-0.000644922
115	0x3cb66c91	0.022268565
116	0xbd86c96c	-0.06581387
117	0x3a144042	0.0005655327
118	0x3c06214a	0.008186648
119	0x3c54486f	0.012956723
120	0xbd494288	-0.049135715
121	0x3dac71e3	0.0842016
122	0xbd580298	-0.05273685
123	0xbd8a3620	-0.06748605
124	0xbd217757	-0.039420452
125	0xbd032901	-0.032021526
126	0x3ba8ed42	0.0051552365
127	0x3c924030	0.017852873
128	0xbdf6e0c7	-0.120545916
129	0xbdbac9fc	-0.09120557
130	0x3d23dad6	0.04000362
131	0x3bf58c21	0.0074935113
132	0xbd90b873	-0.07066431
133	0x3dea9160	0.11453509
134	0xbe0ded1c	-0.13859981
135	0x3db2403a	0.087036565
136	0xbc9f1499	-0.019419001
137	0xbd505e97	-0.050871458
138	0xbd79b0ce	-0.06095963
139	0xbd9a8a0a	-0.0754586
140	0xbd0d5d8e	-0.03451305
141	0xbdd20e9b	-0.10256692
142	0x3dd39a15	0.10332123
143	0x3d7a4b45	0.06110694
144	0xbdcb9927	-0.09941321
145	0x3d114513	0.035466265
146	0xbbe76774	-0.007061893
147	0xbc3d5c55	-0.011557658
148	0x3d463b64	0.048396483
149	0x3cdb0ca9	0.026739435
150	0x3c06527e	0.008198379
151	0x3d31299c	0.043252572
152	0xbe094344	-0.13404566
153	0x3dcf6d0f	0.10128223
154	0xbc6097ec	-0.013708096
155	0xbe003312	-0.12519482
156	0xbd3b2663	-0.045690905
157	0xbda37770	-0.07981765
158	0x3dc24b10	0.09486973
159	0xbca0bd8a	-0.01962163
160	0x3ddb8452	0.107185975
161	0x3c87dca1	0.016584696
162	0x3dc8cad4	0.098043114
163	0x3dbb2890	0.09138596
164	0xbd2bf62b	-0.04198281
165	0xbcca06a9	-0.024661379
166	0xbd42dddd	-0.047574867
167	0xbe049dbc	-0.12950796
168	0x3d32647b	0.043552857
169	0xbaaea12d	-0.0013323181
170	0xbc486277	-0.012230507
171	0xbd82cf94	-0.06387249
172	0xbcb051c3	-0.021523362
173	0x3bfe054c	0.0077520963
174	0x3c46cab1	0.012133286
175	0x3d6564e3	0.056004416
176	0xbd9ae7e4	-0.07563761
177	0xbd07613e	-0.03305172
178	0xbc6a5a24	-0.014303718
179	0xbdea0374	-0.1142644
180	0xba2e33f6	-0.0006645316
181	0xbdc6572e	-0.09684597
182	0xbdcd2da8	-0.10018474
183	0x3cdf1fcd	0.027236843
184	0x3de8cc15	0.113670506
185	0xbdf5f464	-0.120095044
186	0xbd15f2d6	-0.03660854
187	0x3d9bf587	0.0761519
188	0x3b1e211a	0.0024128617
189	0x3d736c1b	0.05942927
190	0xbd5a4439	-0.05328772
191	0xbcb6441a	-0.02224927
192	0x3d957c13	0.07299056
193	0x3d99f102	0.07516672
194	0x3cada13b	0.021195045
195	0x3e0c99db	0.13730566
196	0x3c1473a3	0.009060773
197	0x3d33ec08	0.04392627
198	0x3c96eb14	0.01842264
199	0xbdb93028	-0.09042388
200	0x3ccb6624	0.024828978
201	0xbd8a3a6a	-0.06749423
202	0xbd1f0a2f	-0.03882807
203	0x3ce600f6	0.02807663
204	0xbcdab697	-0.026698394
205	0xbb134b0e	-0.0022475156
206	0x3d903c47	0.07042747
207	0x3d2259af	0.03963631
208	0x3d5a00c6	0.053223394
209	0xbd088ef2	-0.03333945
210	0xbd639fd8	-0.05557236
211	0x3caab617	0.02083878
212	0xbcbdbcf1	-0.023161383
213	0x3b915956	0.0044356985
214	0x3d814ad9	0.06313104
215	0x3c43e501	0.011956454
216	0xbd9be03d	-0.076111294
217	0x3d54c3cb	0.051944535
218	0x3df7694d	0.120806314
219	0x3d31d736	0.04341813
220	0x3c689cb1	0.014197514
221	0xbcc0f990	-0.0235565
222	0xbe142fe5	-0.14471395
223	0x3be060e2	0.006847487
224	0x3cc307fc	0.023807518
225	0x3d41bb0b	0.04729752
226	0xbe0273b1	-0.12739445
227	0x3d874432	0.06604804
228	0xbde537be	-0.111922726
229	0x3ccad95f	0.024761854
230	0x3de52550	0.111887574
231	0x3d427d60	0.04748285
232	0xbdb4c13e	-0.088259205
233	0x3dcd1c6b	0.10015186
234	0x3d2d02b0	0.04223889
235	0xba860b94	-0.0010226839
236	0xbd78adea	-0.060712732
237	0x3bf06138	0.007335808
238	0x3a6ca0e3	0.00090266595
239	0xbd753270	-0.059862554
240	0x3c627db4	0.013823915
241	0xbe1f2272	-0.15540484
242	0x3b6899fa	0.0035492168
243	0x3d5b307a	0.053513028
244	0xbc6e9ece	-0.014564229
245	0xbce64a64	-0.028111644
246	0x3d6cd06e	0.05781596
247	0xbdca812d	-0.098879196
248	0x3d95bd30	0.07311475
249	0xbd3cf04b	-0.0461276
250	0x3c609e9f	0.013709693
251	0x3d8aad11	0.06771291
252	0x3d8bc3f6	0.06824486
253	0xbb2c6054	-0.0026302533
254	0x3cc00349	0.023439066
255	0x3ded29ba	0.11580224

lstm.bias_ih_l0 f4 [412]
0	0x3d768432	0.060184665
1	0xbd59c376	-0.05316492
2	0xbb099847	-0.0020995305
3	0x3dc0e28e	0.09418212
4	0xbcf6a6a2	-0.030108754
5	0x3d89e0d3	0.06732335
6	0xbd123e35	-0.035703856
7	0x3db192df	0.086705916
8	0xbdadda1a	-0.08488865
9	0xbc8d18d3	-0.017223751
10	0x3dd5c3c7	0.10437732
11	0xba8d8c65	-0.0010799287
12	0xbc442a39	-0.011972957
13	0x3dd84619	0.10560245
14	0x3dc878b8	0.0978865
15	0xbd5fd046	-0.054641984
16	0xbb07edfe	-0.002074122
17	0x3d000013	0.03125007
18	0x3cfb3f8e	0.030669954
19	0x3b222bc9	0.0024745336
20	0x3d3ed521	0.046589974
21	0x3d521cff	0.051297184
22	0x3dc3d5ee	0.09562288
23	0x3d462b64	0.048381224
24	0xbd986fbf	-0.07443189
25	0xbce513dc	-0.027963571
26	0xbd676b78	-0.056498975
27	0x3d89a6b4	0.06721249
28	0xbd8193dc	-0.0632703
29	0x3df45b54	0.11931482
30	0xbd4755c8	-0.04866579
31	0x3d3c263c	0.0459349
32	0xbd93e50b	-0.07221421
33	0xba584d30	-0.0008251248
34	0xbd84af23	-0.06478717
35	0xbc18c08e	-0.009323252
36	0x3d15b37b	0.03654812
37	0x3e0e7214	0.13910705
38	0xbce94df1	-0.028479548
39	0xbc5be7d2	-0.0134219695
40	0xbdc18d34	-0.094507605
41	0xbd7ca40e	-0.061679892
42	0x3d5958bb	0.053063136
43	0xbda83a2e	-0.08214222
44	0x3cb3c9c9	0.021946805
45	0x3d0cb6cd	0.03435402
46	0x3d69f704	0.057120338
47	0x3d0b562d	0.03401773
48	0xbdb84da2	-0.08999182
49	0x3d49cb42	0.049266107
50	0x3d272972	0.04081101
51	0xbd71d452	-0.059040375
52	0x3d1fe46b	0.039036196
53	0xbdb12797	-0.08650129
54	0xbd5195a6	-0.051168106
55	0x3daade52	0.083431855
56	0x3d7ae056	0.0612491
57	0x3d817cf5	0.06322662
58	0xbd8c76e5	-0.06858615
59	0x3c906020	0.017623961
60	0xbd9893a4	-0.07450035
61	0x3d4e8d2d	0.050427604
62	0xbd069470	-0.032856405
63	0xbb7eda9e	-0.003888763
64	0xbcb74730	-0.022372812
65	0x3d5809c5	0.052743692
66	0xbcfcdd6f	-0.030867307
67	0xbcb3709c	-0.021904282
68	0x3da0d48a	0.078530386
69	0xbdcd051d	-0.10010741
70	0xbd0cd19d	-0.03437959
71	0x3daff87a	0.08592315
72	0x3a9b9469	0.0011869791
73	0x3db44617	0.08802431
74	0x3dbcb1e4	0.092136174
75	0x3d013698	0.031546205
76	0xbd9af730	-0.075666785
77	0xbd9f2e84	-0.07772544
78	0x3dd38b1b	0.10329267
79	0x3bcf912e	0.0063344454
80	0x3caf169c	0.021373086
81	0x3c720c07	0.014773375
82	0x3d9bf67b	0.07615372
83	0x3da078be	0.0783553
84	0x3dae5c75	0.085137285
85	0x3d4f3b69	0.050593767
86	0xbd2cdbd3	-0.04220183
87	0x3da183e6	0.07886486
88	0x3d8c586f	0.06852805
89	0xbd3adc69	-0.045620356
90	0x3cc0406b	0.023468217
91	0x3d8e6ea3	0.06954696
92	0xbd74ecc6	-0.059796117
93	0xbcb750a6	-0.022377323
94	0x3d2ae942	0.04172636
95	0xbd890ebc	-0.066922635
96	0xbd3a4dd4	-0.04548438
97	0xbd325c18	-0.04354486
98	0x3d8c9a2c	0.068653435
99	0xbde4b762	-0.1116779
100	0xbc402b95	-0.011729141
101	0x3b6937f8	0.0035586338
102	0xbc92cb75	-0.017919281
103	0x3d6154a3	0.055012356
104	0xbc1f098b	-0.009706865
105	0xbcde707c	-0.027153246
106	0x3da2570a	0.07926758
107	0x3de3eb06	0.111288115
108	0xbddc0b6c	-0.10744366
109	0xbd931f5d	-0.071837164
110	0xbcf3be1a	-0.029753733
111	0x3daf8f24	0.08572224
112	0x3cfe2442	0.031023148
113	0x3d472ccb	0.048626702
114	0x3dc91cfc	0.098199815
115	0xbd6a7aae	-0.057245903
116	0x3d3f7bfc	0.0467491
117	0x3bbe5329	0.0058082533
118	0x3bce4109	0.006294374
119	0xbd7146e8	-0.058905512
120	0xbd873808	-0.06602484
121	0xbd3eeb5e	-0.046611182
122	0xbcc0cb18	-0.023534343
123	0xbdb09231	-0.08621634
124	0xbd24026c	-0.040041372
125	0x3de22276	0.11041729
126	0x3db4ca8e	0.08827697
127	0x3d9bfeb0	0.07616937
128	0x3d4fa937	0.050698485
129	0x3cb5fc9c	0.02221518
130	0xbd878068	-0.066162884
131	0x3d3a2bf7	0.045452084
132	0x3db4731c	0.08811018
133	0x3d0dfb14	0.034663275
134	0xbdb7c0ca	-0.089723185
135	0x3c890bb8	0.01672922
136	0x3cfefb2f	0.031125633
137	0x3c919833	0.01777277
138	0x3d82e798	0.06391829
139	0x3d3a2058	0.045441
140	0x3c94be9f	0.018157301
141	0x3d58ce29	0.052930985
142	0xbcafe060	-0.021469295
143	0x3d1342ca	0.035952367
144	0x3d733eb5	0.059385974
145	0x3d7c736a	0.061633505
146	0x3d9f4b08	0.07777983
147	0xbc46852f	-0.012116714
148	0x3dd80d2b	0.105493866
149	0xbcc2f4dc	-0.023798399
150	0xbca67bc4	-0.020322688
151	0xbceb7a0c	-0.02874472
152	0xbcaada68	-0.020856097
153	0x3d8468ce	0.064653024
154	0xbd47803f	-0.04870629
155	0xbd10bdc0	-0.03533721
156	0xbc73c1c6	-0.014877742
157	0x3d929726	0.071577355
158	0xbd08d985	-0.033410568
159	0x3d8a6da2	0.06759192
160	0x3deca2c7	0.11554485
161	0x3c99dad9	0.018781113
162	0xbda18c22	-0.07888056
163	0xbcd289a5	-0.0257004
164	0x3d6c37cd	0.057670403
165	0xbc5f4488	-0.013627179
166	0xbccd3c92	-0.025053296
167	0x3cd89d6d	0.026442254
168	0xbd3d0183	-0.04614402
169	0x3df6b7dc	0.12046787
170	0xbdc4d303	-0.0961056
171	0xbd128779	-0.035773728
172	0xbaaf28ba	-0.0013363578
173	0x3db8d634	0.09025231
174	0xbd8e209b	-0.06939813
175	0x3b47498f	0.0030408835
176	0xbd4bdffb	-0.04977415
177	0x3ddb23f9	0.107002206
178	0xbccb41a4	-0.024811573
179	0xbdc72780	-0.09724331
180	0xbd6fc8b5	-0.05854102
181	0x3cdef0be	0.027214404
182	0xbd8078be	-0.0627303
183	0xbd75e467	-0.060032275
184	0xbdbe7e8d	-0.093014814
185	0xbda67f7d	-0.08129785
186	0x3d253a7f	0.04033899
187	0x3df183d0	0.11792719
188	0xbd8eee1b	-0.06979009
189	0xbd88cd6d	-0.06679807
190	0xbdc505a1	-0.09620214
191	0x3d792666	0.060827635
192	0x3d21976d	0.03945105
193	0xbb8c685c	-0.0042849015
194	0xbade42cb	-0.0016957162
195	0xbdc478f5	-0.09593383
196	0x3d25f56c	0.040517256
197	0xbb22cbe4	-0.0024840767
198	0x3d2cfd03	0.04223348
199	0x3ce65ed8	0.028121397
200	0xbc8bbe00	-0.017058372
201	0x3ccd94cc	0.025095366
202	0x3cd4c1d9	0.02597134
203	0x3d6235c5	0.05522706
204	0x3d784c0a	0.06061939
205	0xbd53d038	-0.051712245
206	0x3dcb6b3f	0.09932565
207	0xbd86e8b3	-0.065873526
208	0x3dd3969c	0.10331461
209	0xbccde342	-0.025132779
210	0x3d3fa122	0.046784528
211	0xbb2d1348	-0.0026409198
212	0xbc6639e9	-0.014051893
213	0x3b894511	0.0041891416
214	0xbcfb975c	-0.030711822
215	0x3d1facc6	0.03898313
216	0xbd9d7045	-0.07687429
217	0xbda30cfd	-0.07961462
218	0x3df81d7f	0.12115001
219	0xbc3c3f5d	-0.011489716
220	0xbe02233c	-0.12708753
221	0xbdbc5ccd	-0.09197388
222	0x3cfa1552	0.030527744
223	0x3d283b19	0.041071985
224	0x3da3f896	0.080063984
225	0xbe262e05	-0.16228493
226	0xbd9dda5c	-0.07707664
227	0xbdc04c71	-0.0938958
228	0xbe18354a	-0.14864078
229	0x3d1c9c0a	0.038234748
230	0xbcadca0d	-0.02121451
231	0xbb5a9c2a	-0.0033357241
232	0xbd0e4e61	-0.034742717
233	0x3e039069	0.12848057
234	0x3e1d54f2	0.15364435
235	0xbe1e9282	-0.15485576
236	0x3c3d115d	0.011539784
237	0xbce1cac0	-0.027562499
238	0x3df610e0	0.120149374
239	0xbd61b2d1	-0.055102173
240	0xbdd34f26	-0.10317831
241	0xbd18ea6b	-0.037332933
242	0x3b983f85	0.004646244
243	0x3e09b09d	0.13446279
244	0xbe22a98d	-0.15884991
245	0x3d6650f8	0.05622956
246	0xbc3b52f6	-0.011433354
247	0xbde3f339	-0.111303754
248	0xbe237586	-0.159628
249	0xbd541a4e	-0.0517829
250	0x3d8afcbe	0.06786488
251	0x3db62509	0.08893783
252	0x3d4f1a95	0.05056246
253	0xbe2568c3	-0.16153245
254	0x3d57dd45	0.052701253
255	0x3da077dc	0.07835361

lstm.bias_hh_l0 f4 [412]
0	0xbd685efc	-0.05673121
1	0xbb313286	-0.002703817
2	0xbd0f68c1	-0.03501201
3	0x3cc35ee8	0.023848966
4	0xbd0bb811	-0.034111086
5	0x3d44b989	0.048028503
6	0xbd83051e	-0.063974604
7	0x3d99ec95	0.075158276
8	0x3dd0a83b	0.101883374
9	0xbd5a9b45	-0.053370733
10	0xbd7d448d	-0.061832953
11	0x3d86df1d	0.06585524
12	0xbd4f5759	-0.05062041
13	0xbd902da1	-0.07039953
14	0x3dd11856	0.1020972
15	0xbd5df6f4	-0.05419059
16	0x3d9fcd47	0.078028254
17	0xbcb4db4f	-0.02207723
18	0x3d925a08	0.07146078
19	0x3dd43af4	0.10362807
20	0xbd936a2a	-0.071979836
21	0x3d4fe25d	0.050752986
22	0xbc7178fe	-0.014738319
23	0xbd261828	-0.04055038
24	0xbdc56ca7	-0.096398644
25	0xba94fbcc	-0.0011366545
26	0xbdd0561d	-0.10172675
27	0x3d901fa6	0.070372865
28	0x3d9b9ca0	0.07598233
29	0xbd634b4b	-0.055491727
30	0x3dd9f05e	0.106415495
31	0xbce36437	-0.027757747
32	0xbda00560	-0.07813525
33	0xbdb2705d	-0.08712838
34	0x3d889fbb	0.06671091
35	0x3bdacc58	0.0066771917
36	0x3d54562d	0.051839996
37	0x3da4665d	0.08027337
38	0xbd97fffc	-0.07421872
39	0x3d96a41c	0.0735552
40	0xbd85da55	-0.06535784
41	0xbd80a484	-0.06281379
42	0x3de2c68a	0.110730246
43	0xbd1a6a97	-0.03769931
44	0x3cf78b04	0.030217655
45	0xbd444fb8	-0.04792759
46	0x3c505298	0.012715004
47	0x3cb897ce	0.022533324
48	0xbd75bf83	-0.059997093
49	0x3c41b73c	0.011823472
50	0xbcc38a8e	-0.023869779
51	0x3d808a81	0.062764175
52	0xbda6c31a	-0.081426814
53	0xbc8a0f37	-0.016852958
54	0xbd675ca6	-0.05648484
55	0x3d8335d0	0.06406748
56	0x3d0ef47a	0.03490112
57	0x3de07a38	0.109608114
58	0xbdab89a0	-0.08375859
59	0xbd92503f	-0.07144212
60	0x3cb10074	0.021606661
61	0xbceca616	-0.02888779
62	0x3d80cba4	0.06288841
63	0xbd3c8a19	-0.046030138
64	0x3bdbe3c8	0.0067105033
65	0xbbaeb7f0	-0.0053319857
66	0x3cede7b7	0.029041154
67	0xbdb2ecaf	-0.0873655
68	0xbd81e2da	-0.063420966
69	0xbde1075e	-0.10987733
70	0xbd107031	-0.035263244
71	0x3db12ed0	0.08651507
72	0xbcd86a52	-0.026417885
73	0x3d0cf386	0.03441193
74	0x38ec8c80	0.00011279527
75	0xbd1e4238	-0.03863737
76	0xbba68c86	-0.0050826697
77	0x3d4d5781	0.05013228
78	0x3ddc09ce	0.107440576
79	0xbd819a71	-0.063282855
80	0xbbfd4535	-0.0077291974
81	0x3c162486	0.009163981
82	0x3c8b0d3e	0.016974088
83	0x3da549dc	0.08070728
84	0x3daa9403	0.08329012
85	0xbd4d499f	-0.05011904
86	0xbbeafbe2	-0.00717114
87	0x3db37526	0.08762579
88	0xbb0eb68c	-0.0021776287
89	0xbd60db2b	-0.054896515
90	0xbd00c8ee	-0.03144162
91	0x3e08faeb	0.13376968
92	0x3ccffa73	0.025387978
93	0x3dbad21d	0.09122107
94	0x3d889302	0.066686645
95	0x3ce06a1a	0.027394343
96	0xbda10378	-0.0786199
97	0x3cd383a5	0.025819609
98	0xbca790fb	-0.020454874
99	0xbdcbc34e	-0.09949361
100	0x3c2be331	0.010491178
101	0x3bf167f8	0.0073671304
102	0xbd80df28	-0.06292564
103	0x3cdf22f4	0.027238347
104	0x3d094022	0.033508427
105	0xbb9bc004	-0.0047531147
106	0x3cd42f51	0.025901468
107	0xbd99e3af	-0.0751413
108	0xbd61db38	-0.055140704
109	0xbb51f82a	-0.0032038786
110	0xba41c6aa	-0.0007391969
111	0xbd82f39b	-0.0639412
112	0xbb3ac51e	-0.0028498839
113	0x3d94fa75	0.072743334
114	0xbcf7e387	-0.03025986
115	0xbcd449c2	-0.025914077
116	0xbd6b1bd5	-0.05739959
117	0x3b8fcd90	0.0043885186
118	0xbd9076e4	-0.070539266
119	0x3d817e64	0.06322935
120	0xbd13ebeb	-0.03611366
121	0x3d9130e0	0.070894
122	0xbd626103	-0.0552683
123	0xbdae9b99	-0.08525772
124	0xbd94fdaa	-0.07274945
125	0x3d50436b	0.050845545
126	0x3c3b1f21	0.011420996
127	0x3d59853a	0.05310557
128	0xbd095533	-0.033528518
129	0x3d029b8c	0.031886622
130	0x3de1375f	0.10996889
131	0xbdb38763	-0.08766057
132	0x3d98fc3c	0.07469985
133	0xbd94d6d1	-0.072675355
134	0x3dc4e7c9	0.09614522
135	0xbd3a5d74	-0.04549928
136	0xbd5faca2	-0.054607995
137	0x3d9b77bf	0.07591199
138	0xbd2de0e2	-0.042450793
139	0x3de0a9dd	0.10969899
140	0x3e12ab4c	0.14323157
141	0x3bfb7b18	0.007674586
142	0x3d9ac81c	0.07557699
143	0xbd0f23f8	-0.03494641
144	0xbc80c7bd	-0.015720243
145	0x3d2ed03d	0.04267906
146	0xbcd0ca33	-0.025487041
147	0x3de19d83	0.11016371
148	0x3d558fe1	0.052139167
149	0x3da4e0a5	0.0805066
150	0xbd36978d	-0.044578124
151	0xbd389506	-0.045063995
152	0x3c856487	0.016283287
153	0xbd9a982f	-0.07548558
154	0xbcfdca46	-0.03098024
155	0x3cb7c7f3	0.02243421
156	0x3d82beca	0.063840464
157	0x3d42999e	0.047509782
158	0x3da113cd	0.07865105
159	0x3dd9ff1b	0.10644361
160	0xbd60d8be	-0.0548942
161	0x3db993a6	0.09061365
162	0x3c179b43	0.009253326
163	0x3c0ad86e	0.008474452
164	0xbd89f144	-0.06735471
165	0x3d841560	0.064493895
166	0x3d49ef73	0.049300622
167	0xbd2f51c0	-0.042802572
168	0x3d1befff	0.038070675
169	0x3dc571b0	0.09640825
170	0x3daa97d3	0.083297394
171	0x3c15b840	0.009138167
172	0x3b4ac10a	0.0030937814
173	0xbd9d68c4	-0.07685998
174	0xbd3e2ca3	-0.046429288
175	0x3db3ec05	0.087852515
176	0x3dd0fcd2	0.10204472
177	0xbcf5ad6d	-0.029989922
178	0x3d7ec937	0.062203612
179	0x3ce3da12	0.027813945
180	0x3cadf4ff	0.021234987
181	0xbd83c084	-0.06433204
182	0x3d8d9a74	0.06914225
183	0x3d59b642	0.05315233
184	0x3d2cc429	0.04217926
185	0xbba18beb	-0.0049300096
186	0x3dc72fc7	0.0972591
187	0x3c4cf319	0.012509131
188	0x3d7449cb	0.059640687
189	0x3d804f33	0.06265106
190	0xbdce2ba7	-0.1006692
191	0xbda87769	-0.08225901
192	0xbbdda5f6	-0.006764169
193	0xbc2152ab	-0.00984637
194	0x3e0bd90c	0.13657016
195	0xbdb3e58b	-0.08784016
196	0xbcc71cca	-0.02430572
197	0xbd363e58	-0.04449305
198	0x3c7c8c0d	0.01541425
199	0xbda9d796	-0.08293073
200	0x3d92776c	0.07151684
201	0x3d8f1683	0.06986716
202	0x3cfef98b	0.03112485
203	0x3d05136f	0.032489236
204	0xbd70ed5b	-0.05882011
205	0x3cf8d1bb	0.030373445
206	0x3cafe2ed	0.021470511
207	0xbdf418e5	-0.11918811
208	0x3e058b46	0.1304141
209	0x3da5d76c	0.08097729
210	0x3d6906b6	0.056891166
211	0x3e13a780	0.14419365
212	0xbe0e3898	-0.13888776
213	0x3d050345	0.03247382
214	0xbcbdc760	-0.023166358
215	0xbddd1153	-0.1079432
216	0xba705caa	-0.00091690815
217	0xbe1e8a29	-0.15482391
218	0x3daa8036	0.083252355
219	0xbd38a61e	-0.045080297
220	0xbdcbffcc	-0.09960899
221	0xbd95f379	-0.07321829
222	0xbdc1dea0	-0.094662905
223	0xbdd6f6e3	-0.10496309
224	0xbcca3522	-0.024683539
225	0xbe14b002	-0.14520267
226	0xbd473da9	-0.048642788
227	0xbdbb9d68	-0.09160882
228	0xbe0dd1e3	-0.13849597
229	0x3e2c5be9	0.16831936
230	0xbca0dc15	-0.019636193
231	0xbde7bfa2	-0.11315848
232	0xbd9c00e8	-0.0761736
233	0x3e23952a	0.1597487
234	0x3d34c3b1	0.04413194
235	0xbe063619	-0.13106574
236	0x3dfd9a04	0.12382892
237	0xbdce2384	-0.10065368
238	0x3d8f3ff8	0.06994623
239	0xbde9a9c0	-0.1140933
240	0xbdbe14ea	-0.09281333
241	0xbe296ed0	-0.16546178
242	0x3d71a442	0.05899454
243	0x3d78c367	0.060733225
244	0xbe126621	-0.14296772
245	0x3e11e504	0.14247519
246	0x3e0fb3ac	0.14033383
247	0x3ca89aeb	0.020581683
248	0xbdb81661	-0.089886434
249	0x3bb42544	0.0054976065
250	0x3ddb1f8d	0.10699377
251	0xbc8cacda	-0.017172266
252	0x3d0dc079	0.034607384
253	0xbe0a8622	-0.1352773
254	0x3e152e7d	0.14568515
255	0xbd051d18	-0.03249845

lstm.weight_ih_l1 f4 [412, 103]
0	0xbd8f266c	-0.0698975
1	0x3d1fcedf	0.039015647
2	0xbdc5978d	-0.09648047
3	0xbd8ece29	-0.06972916
4	0x3d97bb00	0.07408714
5	0xbd230a12	-0.039804526
6	0xbd8b73aa	-0.068091705
7	0xbdbbc6ba	-0.091687635
8	0x3df7d20d	0.12100611
9	0x3d6ff836	0.05858632
10	0x3d580a3e	0.052744143
11	0xbd82dbb9	-0.06389565
12	0x3d5fe029	0.054657135
13	0xbc95bdc9	-0.018278973
14	0xbae5aa01	-0.0017521979
15	0x3d43ce8f	0.04780441
16	0xbd92cc39	-0.07167859
17	0x3c95b3e8	0.018274263
18	0x3d6eaa73	0.05826802
19	0xbc838f5f	-0.016059576
20	0xbd1018d3	-0.035179924
21	0x3cfd32d7	0.030908031
22	0xbd4cd751	-0.05001003
23	0x3d393179	0.045213196
24	0x3d4d58a1	0.05013335
25	0x3b225122	0.0024767597
26	0x3d23b20d	0.039964724
27	0xbd285bf2	-0.04110331
28	0x3dc5b487	0.096535735
29	0x3bc19eec	0.0059088375
30	0x3d556d6e	0.052106313
31	0x3b42895e	0.0029683928
32	0xbdd9bf51	-0.10632194
33	0xbe0021a0	-0.12512827
34	0xbda66ff7	-0.08126824
35	0x3d987756	0.074446365
36	0x3d3506bb	0.04419587
37	0x3e0d0e2a	0.13774934
38	0xbda125c0	-0.07868528
39	0x3d4eaf30	0.05046004
40	0xbc059973	-0.008154261
41	0xbd4d2235	-0.05008145
42	0x3d3cc00b	0.046081584
43	0xbd6c9c91	-0.0577665
44	0x3cd64e20	0.0261603
45	0xbd811f55	-0.06304804
46	0x3d4401fa	0.047853447
47	0xbdb9db69	-0.09075052
48	0xbccd31dd	-0.02504819
49	0xbd384944	-0.044991747
50	0xbccdd27c	-0.02512478
51	0x3c99aa38	0.018757924
52	0x3d75f982	0.060052402
53	0xbccf3d93	-0.025297916
54	0xbce255de	-0.027628835
55	0xbde263ca	-0.110541895
56	0xbc20e9f0	-0.0098214
57	0x3bd1fef0	0.0064085647
58	0x3dc97f8b	0.0983878
59	0xbd1185ff	-0.03552818
60	0x3d8b0343	0.067877315
61	0x3db90fe5	0.09036235
62	0x3d26565b	0.0406097
63	0xbd2ce5bb	-0.042211276
64	0xbde5a10e	-0.11212359
65	0x3d432399	0.04764137
66	0xbd0d47a7	-0.03449216
67	0xbe125b21	-0.14292575
68	0xbb7497ea	-0.0037321993
69	0xbc5e4eee	-0.013568623
70	0xbc8bbb3b	-0.017057052
71	0xbd4c2d7c	-0.049848065
72	0xbd835f35	-0.06414644
73	0xbd3e2f87	-0.046432044
74	0xbe121d8c	-0.14269084
75	0xbcf43ed2	-0.029815111
76	0xbd5a9a5a	-0.053369857
77	0x3c3afb2a	0.011412421
78	0xbd1c3162	-0.038133033
79	0x3aeb4461	0.0017949456
80	0xbd96dbe9	-0.07366163
81	0x3db689c4	0.089129955
82	0xbd980953	-0.074236535
83	0xbb135ee0	-0.002248697
84	0x3c0f1790	0.008733645
85	0xbce08ada	-0.02740996
86	0x3c834d71	0.016028138
87	0x3d656dc3	0.05601288
88	0x3c8d2822	0.01723105
89	0xbcf6c859	-0.03012483
90	0xbd33537d	-0.043780793
91	0x3d61f44e	0.055164628
92	0x3dd169b4	0.102252394
93	0xbdc7ca77	-0.09755414
94	0x3dd3b040	0.103363514
95	0x3d2361c5	0.039888162
96	0x3d92a33b	0.0716004
97	0xbc02745a	-0.007962311
98	0x3da8526e	0.08218847
99	0xbdc51805	-0.09623722
100	0x3a860ac4	0.0010226597
101	0x3d93e251	0.07220901
102	0x3e07dd75	0.13268073
103	0x3dd7beb4	0.105344206
104	0xbd95ddc0	-0.07317686
105	0xbc800049	-0.015625136
106	0xbca59ca6	-0.020216297
107	0xbc836ee5	-0.01604409
108	0x3d46f426	0.04857268
109	0xbdaa21ec	-0.08307251
110	0xbd8d6012	-0.069030896
111	0xbda45c21	-0.08025385
112	0xbdd3198f	-0.10307609
113	0xbdee6b05	-0.11641506
114	0x3d793940	0.060845613
115	0x3db1a328	0.08673698
116	0xbcce74c6	-0.025202166
117	0xbc44f9fa	-0.01202249
118	0xbd32114a	-0.04347352
119	0x3d9a4828	0.07533294
120	0x3d3ed8dc	0.046593532
121	0xbd029320	-0.03187859
122	0xbd843638	-0.06455654
123	0xbd0b7149	-0.034043584
124	0xbd76a8ad	-0.060219456
125	0x3d102644	0.035192743
126	0x3c678fb8	0.014133386
127	0xbb0dda1a	-0.0021644891
128	0x3d025222	0.03181661
129	0x3d8ad67f	0.06779193
130	0x3dd61f06	0.10455136
131	0x3b2a25da	0.0025962503
132	0xbdb23f9f	-0.08703541
133	0xbb6ddde6	-0.0036295592
134	0xbd48245e	-0.048862807
135	0x3da1754d	0.078837015
136	0xbd094ac5	-0.03351857
137	0x3bb6886c	0.005570462
138	0xbd08dbe5	-0.033412833
139	0xbd31b762	-0.043387778
140	0xbd207282	-0.039171703
141	0xbd65698c	-0.05600886
142	0x3bd67ed9	0.006545883
143	0x3cad3913	0.02114538
144	0x3b2bed00	0.0026233792
145	0xbd2dfff8	-0.04248044
146	0x3cf0fadc	0.029416494
147	0xbd517728	-0.051139027
148	0x3d7d35c4	0.061818853
149	0xbd858e9a	-0.0652134
150	0xbdb87a36	-0.09007685
151	0xbda78116	-0.08178918
152	0x3d8f4a03	0.069965385
153	0x3d0931a1	0.033494595
154	0xbd9e5b5e	-0.07732271
155	0x3d4606df	0.048346397
156	0xbdbfb02c	-0.09359774
157	0xbca92b9a	-0.020650674
158	0xbdcb8111	-0.09936727
159	0x3df774a3	0.120827936
160	0xbdb8f1dc	-0.09030506
161	0xbce57c2a	-0.028013308
162	0x3d9f2a44	0.077717334
163	0xbcd5c5ab	-0.026095232
164	0xbcc4ac3c	-0.024007909
165	0xbacc0388	-0.0015565017
166	0xbcc1bcfa	-0.023649681
167	0x3d5ab88f	0.053398665
168	0x3db4e675	0.08833019
169	0x3d7f3615	0.062307436
170	0xbd8d6159	-0.06903333
171	0x3d7d35ce	0.06181889
172	0xbd32d02f	-0.04365557
173	0xbc3fa915	-0.011698027
174	0xbc32a36e	-0.0109032225
175	0x3d811f9f	0.06304859
176	0xbd5b788f	-0.05358177
177	0x3cee7716	0.029109519
178	0x3d33ca42	0.04389406
179	0x3d7c26ec	0.061560556
180	0xbd860c5e	-0.065453276
181	0xbcc72f7f	-0.02431464
182	0xbd331b70	-0.04372734
183	0x3cdd1938	0.026989564
184	0x3ccefb5a	0.025266338
185	0xbd7cb1f5	-0.06169315
186	0xbda42256	-0.080143616
187	0xbd615a7e	-0.05501794
188	0x3da2060d	0.0791131
189	0xbd641042	-0.055679567
190	0x3a9802fa	0.0011597567
191	0xbd4df1b9	-0.050279353
192	0x3d8d386d	0.06895528
193	0xbd70c774	-0.058783963
194	0xbce86a27	-0.02837093
195	0xbd8b6b43	-0.06807568
196	0x3d00b412	0.03142173
197	0x3d6bd5af	0.05757683
198	0xbd5bce20	-0.053663373
199	0x3d59971b	0.05312262
200	0x3cfc96ce	0.030833628
201	0xbd7aab54	-0.061198547
202	0x3da5836c	0.08081707
203	0x3c80688a	0.015674848
204	0x3d31852e	0.0433399
205	0x3d8a024d	0.0673872
206	0xbd2f26ea	-0.04276172
207	0x3c2fae61	0.0107227275
208	0x3d36fd65	0.04467525
209	0x3d4469c8	0.047952443
210	0x3dabaa4e	0.083820924
211	0x3c1959dd	0.009359804
212	0x3d8cde1d	0.06878302
213	0x3be8448a	0.0070882486
214	0x3d0e1180	0.034684658
215	0xbdca1f75	-0.09869281
216	0xbd86ee69	-0.06588442
217	0x3d906b33	0.07051697
218	0x3d10de77	0.03536841
219	0xbdb3bffa	-0.08776851
220	0xbdb91733	-0.09037628
221	0x3b428800	0.0029683113
222	0x3d4042e9	0.04693881
223	0x3daf56c3	0.0856147
224	0xbd5a5c7f	-0.053310867
225	0x3c8bfb2f	0.017087547
226	0xbd80c4f0	-0.06287563
227	0x3a8b8e3f	0.0010647251
228	0x3befe962	0.0073215226
229	0x3bbd80c9	0.0057831747
230	0xbd658d8d	-0.056043196
231	0xbd558997	-0.05213317
232	0xbd753c3e	-0.059871905
233	0x3d236ea5	0.03990044
234	0xbd2325be	-0.039830916
235	0xbd1192ac	-0.035540268
236	0x3d7ca049	0.061676297
237	0x3d920ed9	0.07131738
238	0xbc4ebb42	-0.012617888
239	0xba9b0419	-0.0011826783
240	0xbdae60a7	-0.08514529
241	0xbd689588	-0.05678323
242	0xbd5cf80f	-0.053947505
243	0x3d384c43	0.044994604
244	0xbce44029	-0.027862625
245	0x3d0b76f9	0.034049008
246	0x3d90f706	0.07078366
247	0xbb17b180	-0.002314657
248	0xbd9c2107	-0.07623487
249	0x3da83de7	0.08214932
250	0x3c24fc36	0.010069897
251	0xbdd115e6	-0.10209255
252	0x3d5935b2	0.053029723
253	0xbda9c1dc	-0.08288929
254	0x3d3f4557	0.046696987
255	0x3d570315	0.052493174

lstm.weight_hh_l1 f4 [412, 103]
0	0x3c9173aa	0.017755348
1	0xbd89314a	-0.06698854
2	0xbd107498	-0.035267442
3	0x3d136097	0.035980787
4	0xbda39564	-0.079874784
5	0xbd9cd3ba	-0.07657571
6	0xbd50c2d2	-0.050967045
7	0x3e0074e2	0.12544587
8	0x3df60fc9	0.120147295
9	0xbd41fd51	-0.047360722
10	0xbc04ee9a	-0.008113528
11	0xbcad89d7	-0.021183891
12	0x3d2d0227	0.04223838
13	0x3d27491a	0.0408412
14	0xbc3572ff	-0.0110747805
15	0x3e0e5073	0.13897876
16	0xbd36b664	-0.044607535
17	0xbc422261	-0.011849017
18	0xbd9d5c10	-0.07683575
19	0xba8ede8b	-0.0010900063
20	0xbd80e755	-0.06294123
21	0xbd35f039	-0.044418547
22	0x3dbea283	0.093083404
23	0xbb509273	-0.0031825572
24	0xbdb1d9c8	-0.086841166
25	0xbd50d2a2	-0.050982125
26	0xbd94df25	-0.07269124
27	0x3e088456	0.13331732
28	0xbda9903d	-0.082794644
29	0x3db80c46	0.08986716
30	0xbdf598e3	-0.119920515
31	0xbd3edcc3	-0.046597254
32	0x3da5f024	0.08102444
33	0xbcc666f9	-0.024219023
34	0xbccbcf85	-0.024879226
35	0xbdaf61b6	-0.08563559
36	0xbb95231a	-0.0045513036
37	0x3ccb06e1	0.024783554
38	0x3ccfc14d	0.025360728
39	0xbbd0c200	-0.006370783
40	0x3d0c1827	0.03420272
41	0xba04dbe2	-0.00050681655
42	0x3b86ee9c	0.0041178
43	0x3c8d66c0	0.01726091
44	0xbb93bf6e	-0.004508904
45	0xbd33deb6	-0.043913566
46	0x3d16a252	0.036775894
47	0xbab35ebb	-0.0013684848
48	0x3e0513c9	0.12995829
49	0xbc3a04b7	-0.011353663
50	0x3c32422e	0.010880036
51	0x3c9011c9	0.017586606
52	0xbd1cd554	-0.038289383
53	0x3c9a7a32	0.018857095
54	0xbd15e1ab	-0.036592167
55	0xbe124e73	-0.14287739
56	0x3d00ca4f	0.031442937
57	0x3cd11e4d	0.025527144
58	0xbc363efa	-0.011123413
59	0xbd656634	-0.05600567
60	0xbd69a9d0	-0.05704671
61	0xbd72ed3d	-0.05930828
62	0xbd08cf42	-0.03340078
63	0x3d5544ff	0.052067753
64	0xbcc82932	-0.024433706
65	0x39e7e6f8	0.0004423184
66	0xbc1d124f	-0.009586885
67	0xbdfd1ad8	-0.12358636
68	0xbd892061	-0.06695629
69	0xbdc0b5ea	-0.09409697
70	0x3df84989	0.12123401
71	0xbd12b4e5	-0.035817046
72	0x3d12d40b	0.03584675
73	0xbd6a9d87	-0.057279136
74	0x3bde57c8	0.0067853667
75	0x3de0ac36	0.10970347
76	0xbd137a0c	-0.036005065
77	0x3da0198f	0.07817375
78	0x3da269b1	0.07930315
79	0x3c8a396b	0.016873082
80	0xbd415b5a	-0.04720626
81	0x3d45510f	0.048173007
82	0xbd30ad3d	-0.043133963
83	0xbc05bcde	-0.008162705
84	0x3d89180d	0.066940404
85	0x3db97c5b	0.09056922
86	0x3d318df3	0.043348264
87	0x3d8d3a01	0.06895829
88	0xbc1350d6	-0.008991441
89	0xbd050a80	-0.032480717
90	0xbc7f332b	-0.015576164
91	0xbcb3d899	-0.021953868
92	0xbda92d3c	-0.08260581
93	0xbd8948cb	-0.06703337
94	0x3e167286	0.14692125
95	0xbd886259	-0.06659383
96	0xbdcb1ff6	-0.099182054
97	0xbdad9a6e	-0.08476721
98	0x3c2afffe	0.01043701
99	0x3e13091a	0.1435894
100	0x3d65fc08	0.05614856
101	0x3d27f954	0.041009262
102	0xbd839652	-0.06425156
103	0xbdfd2a48	-0.1236158
104	0xbe03d156	-0.12872824
105	0x3daed9db	0.085376464
106	0x3dedc3a2	0.116095796
107	0xbd12fbde	-0.03588473
108	0xbe052504	-0.13002402
109	0x3d1b7721	0.037955407
110	0xbc054786	-0.008134728
111	0xbd9dad6b	-0.076990925
112	0xbcfb7836	-0.03069697
113	0xbd6209da	-0.055185176
114	0x3d0445b2	0.03229303
115	0x3e00a70f	0.12563728
116	0x3dccfe46	0.10009436
117	0xbba9da61	-0.0051835035
118	0x3cf5db2f	0.030011741
119	0x3dfd941a	0.12381764
120	0xbddc1b32	-0.107473746
121	0x3cff84ea	0.031191308
122	0x3df8409e	0.121217
123	0xbdb51afa	-0.08843036
124	0x3bd528cf	0.006505109
125	0xbbf07314	-0.007337937
126	0x3e07242f	0.13197397
127	0x3caf9217	0.021431966
128	0x3d258e39	0.040418837
129	0xbde4eb3f	-0.11177682
130	0x3e08bb83	0.1335278
131	0x3b9f7682	0.004866422
132	0x3baa9b16	0.005206476
133	0xbd4fd103	-0.05073644
134	0x3ce7e215	0.028306047
135	0x3d45c0b7	0.04827949
136	0xbdf9411e	-0.12170623
137	0xbe12ccd4	-0.14335948
138	0xba8fe7bc	-0.0010979096
139	0x3d19733d	0.037463415
140	0xbe133acc	-0.14377898
141	0x3deb72e1	0.11496521
142	0xbd06239b	-0.0327488
143	0x3e14c488	0.14528096
144	0xbd496579	-0.049169037
145	0xbcd4188f	-0.025890617
146	0xbda48ad9	-0.080342956
147	0x3d817f60	0.06323123
148	0x3bfa3585	0.0076357746
149	0xbd543ad3	-0.05181391
150	0x3deec98f	0.11659538
151	0x3d69e63d	0.057104338
152	0x3d5ba81c	0.05362712
153	0xbdecd276	-0.1156358
154	0x3cf75518	0.030191943
155	0xbd33a280	-0.043856144
156	0x3d613888	0.054985553
157	0x3d2146ee	0.039374284
158	0x3d716533	0.0589344
159	0x3da6d2e4	0.08145693
160	0x3d050941	0.03247953
161	0x3aa0d42d	0.0012270265
162	0xbddc6adf	-0.107625715
163	0xbdab3178	-0.08359045
164	0x3da4467c	0.08021256
165	0xbd2ca85f	-0.04215276
166	0xbd1dde26	-0.038541935
167	0xbd31fe36	-0.043455325
168	0x3d36c865	0.044624705
169	0xbd018c97	-0.031628218
170	0xbd7b1211	-0.061296526
171	0xbd8394f7	-0.06424897
172	0x3d67519e	0.05647432
173	0x3d3772a1	0.044787053
174	0xbbe3ecd7	-0.0069557237
175	0xb9729768	-0.00023135322
176	0x3ae1f576	0.0017239291
177	0xbd856cd0	-0.06514895
178	0x3d2f6919	0.04282484
179	0x3d7ce614	0.061742857
180	0xbc71b633	-0.014752912
181	0x3da5321a	0.08066197
182	0xbc962af0	-0.018331021
183	0xbd0f6463	-0.035007846
184	0x3baec0b4	0.0053330306
185	0xbd998cb4	-0.0749754
186	0xbe075285	-0.13215072
187	0xbc67cf8a	-0.014148602
188	0xbd83dd09	-0.064386435
189	0x3cef7739	0.029231654
190	0x3e12ed8b	0.14348428
191	0xbdaa06c2	-0.0830207
192	0xbcfc8866	-0.030826759
193	0xbd04e23a	-0.03244231
194	0x3d35f1f5	0.0444202
195	0xbc174f32	-0.00923519
196	0xbd6a325c	-0.057176933
197	0x3dc7478b	0.097304426
198	0x3d79585c	0.06087528
199	0x3baed82e	0.005335829
200	0xbdb4cd12	-0.088281766
201	0x3d9d8a9e	0.07692455
202	0x3d2bac1c	0.041912183
203	0x3d843707	0.06455808
204	0x3d9f0f67	0.0776661
205	0xbd59ba86	-0.0531564
206	0x3d0fa07b	0.035065155
207	0xbd6a4a35	-0.057199676
208	0xbcb6acc7	-0.022299184
209	0x3d1d74de	0.03844153
210	0x3d333556	0.043752037
211	0xbc53f505	-0.012936835
212	0x3e07bf47	0.1325656
213	0x3ddd1f6b	0.10797008
214	0xbdcc2528	-0.099680245
215	0xbdbdc28b	-0.09265622
216	0xbc8eaef0	-0.017417401
217	0x3bd3a25a	0.006458563
218	0x3bdf8d87	0.0068222913
219	0x3d994760	0.07484317
220	0x3de2a4ca	0.11066587
221	0x3d337596	0.04381331
222	0xbb61c6be	-0.0034450735
223	0x3d900bcc	0.070335
224	0xbd9a8f92	-0.07546915
225	0x3c0f5e2e	0.0087504815
226	0xbda66f50	-0.081267
227	0xbd08b97f	-0.033380028
228	0x3e0acc65	0.13554533
229	0x3d9e82fd	0.07739828
230	0xbd1d254f	-0.03836566
231	0xbd5b32b6	-0.05351516
232	0x3c6fbadf	0.014631956
233	0xbae3e634	-0.0017387331
234	0x3c437736	0.011930278
235	0x3da4a3b9	0.0803904
236	0xbcac898b	-0.02106168
237	0xbd559e46	-0.052152894
238	0x3d9fb29e	0.077977404
239	0xb982c090	-0.00024939002
240	0xbd08b4ec	-0.033375666
241	0xbd0223d4	-0.03177245
242	0x3d896e0b	0.06710442
243	0xbd72bb1d	-0.059260476
244	0x3e190543	0.14943413
245	0xbd31bf85	-0.043395538
246	0xbbb38ba9	-0.0054792953
247	0xbd8a7ddd	-0.06762288
248	0x3cf8590c	0.030315898
249	0x3cb68ee6	0.022284936
250	0x3dd16d31	0.10225905
251	0xbdbfbe8c	-0.09362516
252	0xbd5e1f88	-0.05422929
253	0x3d1592d8	0.036516994
254	0xbc8cc322	-0.01718289
255	0x3e06d833	0.13168411

lstm.bias_ih_l1 f4 [412]
0	0x3d90ae62	0.07064511
1	0x3cf16132	0.029465292
2	0xbce51bfc	-0.027967446
3	0x3d81237f	0.063055985
4	0x3ddcb074	0.10775843
5	0x3dd9f0ce	0.10641633
6	0x3dfb4d88	0.12270647
7	0x3de6040b	0.1123124
8	0x3dec14df	0.11527418
9	0x3c5722fd	0.0131309
10	0x3cd9c008	0.026580825
11	0xbc65786c	-0.014005762
12	0x3d60cc15	0.054882128
13	0x3bdc0b00	0.0067151785
14	0x3e0d5e58	0.1380552
15	0x3cf7c5c1	0.030245664
16	0x3d2aedd2	0.04173071
17	0x3db3feda	0.087888435
18	0xbb1cdd2d	-0.0023935542
19	0x3d20f870	0.03929943
20	0x3d45ecb1	0.04832143
21	0x3da0acc7	0.07845455
22	0x3d24e7a9	0.04025999
23	0x3de9fe53	0.114254616
24	0x3cf63019	0.030052232
25	0xbb8112f2	-0.003939026
26	0xbc9f38d0	-0.01943627
27	0x3de4e14a	0.11175783
28	0xbd6fb041	-0.0585177
29	0x3e082f22	0.1329923
30	0xbcea63e1	-0.02861208
31	0x3db64c21	0.08901239
32	0x3c49b456	0.012311062
33	0x3d0b356c	0.033986494
34	0x3c6de1bc	0.014519151
35	0x3da6ab2c	0.08138117
36	0xbcbc8d20	-0.023016512
37	0x3e005c3e	0.12535188
38	0x3d7d255b	0.061803203
39	0xbd4e9189	-0.050431762
40	0x3e050815	0.12991364
41	0x3ded04c0	0.115731716
42	0x3cd46327	0.025926186
43	0x3dc86ba9	0.097861595
44	0x3d9a5f98	0.07537764
45	0x3dc49ccc	0.09600219
46	0x3da51cbe	0.08062123
47	0xbb2ff816	-0.0026850752
48	0xbdd6b864	-0.104843885
49	0x3e0d76ae	0.13814804
50	0x3cb02e0c	0.021506332
51	0xbc5ed9bf	-0.013601719
52	0x3bbd9574	0.0057856385
53	0x3ce9ccd1	0.028540047
54	0x3cc8e897	0.02452497
55	0x3c4dcba5	0.01256076
56	0xbac321e3	-0.0014887418
57	0xbc15fac2	-0.009154024
58	0x3d118181	0.035523895
59	0x3d8fbd19	0.070184894
60	0x3d238cdf	0.039929267
61	0xbd5fd039	-0.054641936
62	0xbcb253fe	-0.021768566
63	0x3dd09a08	0.10185629
64	0x3db60316	0.08887307
65	0x3d9c8903	0.076433204
66	0x3d98fd8c	0.07470235
67	0xbc8a33cb	-0.0168704
68	0x3cb0675c	0.02153366
69	0x3dc1ab11	0.094564565
70	0x3d6044da	0.054753162
71	0x3d9452d0	0.07242358
72	0x3e149f11	0.14513804
73	0x3ce63003	0.028099066
74	0x3e135c6b	0.14390723
75	0x3cb1b78d	0.02169397
76	0x3c0db3f3	0.00864886
77	0xbb14f710	-0.0022730269
78	0x3d934ccf	0.071923845
79	0x3d4a514b	0.049393933
80	0x3d7ca062	0.06167639
81	0x3d8769ba	0.066119626
82	0x3d7f0cf6	0.06226822
83	0x3d8f036a	0.06983073
84	0x3d0ed2d6	0.034869038
85	0xbcc0ccae	-0.023535099
86	0xbda81b11	-0.082082875
87	0x3dfe9040	0.12429857
88	0x3d8d0724	0.068861276
89	0xbcc43916	-0.023953002
90	0x3e0df705	0.13863762
91	0x3d1c193b	0.03811
92	0x3e081019	0.13287391
93	0x3d56af61	0.052413348
94	0xbda40674	-0.08009043
95	0xbd7971a9	-0.06089941
96	0x3d6054be	0.054768316
97	0xbd6e5c23	-0.058193337
98	0x3d9200f9	0.07129092
99	0x3db500d2	0.08838047
100	0x3d6c5364	0.057696715
101	0x3d12e97e	0.035867207
102	0xbd138cda	-0.036023
103	0x3cb94b55	0.022618929
104	0x3d7065d6	0.05869087
105	0x3d6c3949	0.05767182
106	0x3d0f39b8	0.034967154
107	0x3e13ef45	0.14446743
108	0x3def4e40	0.11684847
109	0x3dc50955	0.096209206
110	0x3d6963c1	0.0569799
111	0x3c10ca1a	0.008837247
112	0x3d8bd98f	0.068286054
113	0x3c546e87	0.012965805
114	0xbbbbdeee	-0.0057333624
115	0x3dbf41fc	0.093387574
116	0x3dde8c5e	0.10866617
117	0x3dce8dd2	0.10085644
118	0x3df70fce	0.120635614
119	0xbc96da8d	-0.01841476
120	0x3db66218	0.08905429
121	0x3df7d65f	0.12101435
122	0x3dff61cb	0.124698244
123	0xbd7556c2	-0.05989719
124	0xbc76cd84	-0.015063647
125	0xbce1c2be	-0.02755868
126	0x3dca5dd6	0.09881179
127	0x3e101c1e	0.14073226
128	0xbc82d008	-0.015968338
129	0xb9110488	-0.00013829966
130	0x3d56c082	0.052429684
131	0xbd1838bf	-0.037163492
132	0xbcd6414f	-0.026154188
133	0x3de45ddd	0.111507155
134	0x3db943cb	0.090461336
135	0x3dd41fa0	0.103575945
136	0xbd408ff1	-0.047012273
137	0x3ded10e5	0.11575488
138	0x3df6c2b7	0.12048858
139	0x3dc5e20f	0.09662258
140	0x3df505ed	0.11964021
141	0x3c68e71a	0.014215255
142	0x3c84cbdf	0.016210495
143	0xbb54ee81	-0.0032490792
144	0x3daa0feb	0.08303817
145	0x3dfa5b8d	0.12224493
146	0x3d014bac	0.031566307
147	0x3dfcc2db	0.12341853
148	0x3cbe0dce	0.023199942
149	0xbd23497c	-0.039865002
150	0x3d2cceb8	0.04218933
151	0x3d8f12a5	0.06985978
152	0x3d0441dc	0.03228937
153	0x3d40ae1f	0.047041055
154	0xbcce17b4	-0.025157787
155	0xbc4477e7	-0.011991478
156	0xbd6d40b3	-0.05792303
157	0xbd3962c9	-0.045260224
158	0xbd4a1b95	-0.04934271
159	0x3c666fc0	0.014064729
160	0xbcf47faf	-0.02984604
161	0x3dd6199f	0.104541056
162	0x3dcabf13	0.09899726
163	0x3d84de76	0.064877436
164	0xbd59a533	-0.053136062
165	0xbcd35733	-0.025798416
166	0x3ccb429b	0.024812033
167	0x3d309d67	0.04311886
168	0xbd2bb0ed	-0.041916776
169	0xbd572b28	-0.05253139
170	0x3da2290f	0.079179876
171	0x3d715b4c	0.058924958
172	0x3d14c776	0.036323033
173	0x3caca268	0.021073535
174	0xbd89ee4a	-0.06734903
175	0xbc125cb3	-0.008933234
176	0x3c11d06e	0.008899791
177	0xbcf8a411	-0.03035167
178	0xbb20dbc4	-0.0024545053
179	0x3d15bdca	0.03655795
180	0x3b58b6f3	0.003306803
181	0x3e00099d	0.12503667
182	0xba4d5cd6	-0.0007833963
183	0x3dddc63a	0.10828824
184	0x3d0a986e	0.033836775
185	0xbd8ae6cd	-0.06782303
186	0x3cee5461	0.02909297
187	0x3c3829ba	0.011240417
188	0x3c8f58ad	0.017498339
189	0x3dc033ab	0.09384855
190	0x3d491e87	0.04910138
191	0x3bbc897c	0.005753694
192	0xbd96a1b6	-0.07355063
193	0xbcc020a9	-0.023453074
194	0x3d8f03ea	0.069831684
195	0x3e0b8329	0.13624252
196	0x3e07af55	0.13250478
197	0x3da5de26	0.08099012
198	0xbd8939f4	-0.06700507
199	0xbc38afc2	-0.011272373
200	0xbbb5603f	-0.005535155
201	0x3d31c125	0.043397088
202	0x3ce678ab	0.02813371
203	0x3d42919d	0.04750215
204	0xbcd02266	-0.025407027
205	0x3e061616	0.13094363
206	0xbdfc5cb2	-0.12322368
207	0xbe18989d	-0.14901967
208	0x3e01bb03	0.12668996
209	0xbc9be4b1	-0.019029947
210	0xbdec93ed	-0.11551652
211	0xbe24b8f6	-0.16086182
212	0xbc11fe3a	-0.00891071
213	0x3dd161bb	0.10223719
214	0xbd7a6545	-0.061131734
215	0xbd87ba6a	-0.066273525
216	0x3cb1bab2	0.021695469
217	0x3e01901c	0.1265263
218	0x3dd8ecbe	0.1059203
219	0x3d1a6774	0.037696317
220	0x3d0d1c07	0.034450557
221	0xbcc918ac	-0.024547897
222	0x3d64279b	0.055701833
223	0x3d2141aa	0.039369263
224	0x3cad5a91	0.02116135
225	0xbc65bbad	-0.014021796
226	0xbdff6fe0	-0.1247251
227	0xbc643cb1	-0.013930486
228	0x3d8fc637	0.07020228
229	0x3e06aaea	0.13151136
230	0xbdb10f75	-0.08645526
231	0xbdf3b151	-0.11899055
232	0xbdf5bdc5	-0.11999086
233	0x3b08f96a	0.0020900615
234	0xbe05aeb8	-0.13054931
235	0x3dcbacda	0.09945078
236	0xbe194aae	-0.14969894
237	0xbd4d9ce3	-0.050198447
238	0x3de94c59	0.11391515
239	0xbd3eb67b	-0.046560746
240	0xbc7d2a40	-0.015451968
241	0x3dbf9ecb	0.09356459
242	0xbc90d918	-0.017681643
243	0xbdd1bec9	-0.102414675
244	0x3df293bf	0.118445866
245	0xbd24c1df	-0.040223952
246	0x3d9cbb90	0.07652962
247	0xbca47e71	-0.020079823
248	0xbc9abc36	-0.018888574
249	0xbb4002de	-0.0029298584
250	0x3de559ff	0.11198806
251	0xbc0978d7	-0.008390627
252	0xbd9a6509	-0.07538802
253	0xba21d82c	-0.0006173875
254	0x3dc68fd8	0.09695405
255	0x3d882906	0.066484496
