models/lstm_trial_12.pth (torch, 179340 bytes, 9 tensors)

lstm.weight_ih_l0 f4 [212, 44]
000000 99 71 43 be fd 9c 37 3e 1c 10 c3 3d a0 f1 db 3a
       -0.19086303 0.1793098 0.09524557 0.0016780384
000010 a3 af bf bc ce fc 4d 3e 4e 3d 01 be 4b 5f 9b bd
       -0.02339918 0.20115969 -0.12621042 -0.07586535
000020 56 93 49 3e 70 59 4e 3e ff 7a 0f be 5f 54 5d bd
       0.1968511 0.20151305 -0.14011763 -0.05403554
000030 0b 26 fb 3d 78 4e 07 be 0b f4 16 3e 6a 1f 5f bd
       0.122631155 -0.13213527 0.14741533 -0.05447332
000040 eb 5e 21 3e b3 52 47 be 77 35 9b 3c 81 78 24 3e
       0.15758865 -0.19465141 0.018946392 0.16061594
000050 aa b1 fe 3d 3b 3d 98 3d 58 e7 9c bd 63 3c 0e 3e
       0.124362305 0.07433554 -0.07661313 0.13890223
000060 ac 86 12 be e8 ea 9b bd 96 36 65 bd 13 21 df 3d
       -0.14309186 -0.07613164 -0.05596026 0.1089498
000070 e4 9a 01 bd 71 29 8f 3e f6 73 c3 bb f7 75 64 3e
       -0.031641856 0.27961305 -0.0059647514 0.22310625
000080 5c b5 6c be bb c0 78 3d d6 f4 56 bc 05 40 86 3d
       -0.23116058 0.060730677 -0.013119897 0.065551795
000090 fd e8 1c 3e 84 cf 53 3e ae 40 8b bd 7d 98 d1 3d
       0.15323253 0.2068463 -0.06799446 0.10234163
0000a0 c3 29 a7 3d 54 48 4d 3d fe 68 96 3e 6e 35 92 be
       0.08162262 0.050117806 0.29376978 -0.2855639
0000b0 11 c1 a8 bd 0c a3 0b bd 1b a4 34 bd 0f c0 6e bc
       -0.082399495 -0.03409104 -0.044101816 -0.0145721575
0000c0 c0 f9 00 3e 95 c1 a5 bc 07 f5 99 bd f5 fc 82 3c
       0.12595272 -0.020233909 -0.075174384 0.01598976
0000d0 bf 5e 14 3b 16 8e c1 bd 73 13 07 3e b8 1b fd 3c
       0.002263948 -0.09450929 0.13191013 0.030897006
0000e0 1c 5a 0e be af 54 0d bd 58 32 09 bd 55 b4 a5 3d
       -0.13901561 -0.03450459 -0.033495277 0.08091036
0000f0 f8 d9 a9 bd 93 e4 22 3e 59 38 aa be ee fe a0 bc
       -0.08293527 0.15907507 -0.33246115 -0.01965281
000100 2c 36 01 3e 2a 96 25 3e 1a 48 de bd b8 77 5c be
       0.12618321 0.16170564 -0.10853596 -0.21530044
000110 9e f3 e4 3c d6 dd fd 3d 27 3d 74 bd 75 7c 2d 3e
       0.027948197 0.123958275 -0.059628632 0.16942008
000120 63 f6 95 3e 49 32 e9 bd d4 2b 44 3c 4f fd 28 bd
       0.2928954 -0.11386544 0.01197334 -0.0412572
000130 21 49 3f 3e ea 18 8c 3d 3c 0d 01 be b5 de 1b bd
       0.1868024 0.068406895 -0.12602705 -0.038054187
000140 fc fd 94 bc 76 38 1a be 3d 16 b9 be 18 e7 e2 3d
       -0.018187515 -0.150606 -0.3614978 0.11079234
000150 3b 6c a2 3e 02 2c 72 be 67 46 c5 bd 76 7e c5 3e
       0.31723198 -0.236496 -0.09632569 0.38573045
000160 d3 96 a0 bd f3 5a 02 be b0 d8 ad bd 67 78 1b 3e
       -0.078412674 -0.12730007 -0.084885955 0.15182649
000170 7d 36 a9 bb ca f6 e3 bc c1 b8 c4 3e 46 e3 8e 3d
       -0.005163966 -0.02782764 0.38422206 0.06976943
000180 e5 e5 76 be f0 f9 9c bd f1 aa 48 be 37 72 81 3d
       -0.24111135 -0.07664859 -0.19596459 0.06320613
000190 f9 42 5f bd bf 06 51 3e 5a 31 a6 bd d4 41 97 3d
       -0.05450723 0.2041273 -0.08114882 0.073856026
0001a0 bb 37 1b be 23 42 7b bd 78 36 ce bd 88 5e 29 3e
       -0.15157978 -0.06134237 -0.10068983 0.16539967
0001b0 5e 78 13 3e f7 56 44 3d 1c e0 4f bc 8e 38 a0 3d
       0.14401385 0.0479345 -0.012687709 0.07823287
0001c0 dc b3 90 bd fa 16 0a 3e 6b 11 86 bd 69 a8 67 bd
       -0.070655555 0.13485327 -0.06546291 -0.056557093
0001d0 d7 1d c1 bd 0e 4d eb 3b ff d1 c4 3d 7a 7f 52 3e
       -0.094295196 0.0071808165 0.09610366 0.20556441
0001e0 ab 6d 36 bc 58 c1 c5 3d d9 22 fb 3b 0a 66 d9 bc
       -0.011134545 0.09656018 0.0076640663 -0.026537914
0001f0 20 e8 9b 3c 7c 25 ea bd 66 22 df 3d 38 78 8b be
       0.019031584 -0.11432931 0.10895233 -0.27240157
000200 8d b7 d2 3d af 9f 3e be ea 16 b4 be b3 b7 b9 3d
       0.10288916 -0.18615602 -0.35173732 0.09068241
000210 18 4b 04 3e d0 ec ac bd 01 81 9c bd 29 9c c5 3e
       0.12919271 -0.08443606 -0.07641793 0.38595703
000220 5e dd 68 bc cd f7 8e 3d e2 a1 37 3d b3 01 b0 bd
       -0.014212934 0.06980858 0.044832118 -0.08594074
000230 3d e4 28 3d 8a 67 e5 bd b7 a7 c5 bd 57 37 c6 bd
       0.04123329 -0.11201389 -0.0965113 -0.09678524
000240 81 55 48 be 8d e8 fc 3d 41 d1 1d bd 43 0c 80 bd
       -0.19563867 0.12349043 -0.03852964 -0.06252339
000250 6c 01 4a 3c 6d f7 27 be 88 95 b2 3d bd fa 14 3e
       0.012329441 -0.16402979 0.08719927 0.14548774
000260 11 c4 e7 3d 33 12 06 3e c2 03 0e 3e fb 1c 92 3c
       0.113166936 0.1309288 0.13868621 0.017836085
000270 bb 6a c4 3d 7c 60 f4 bd 27 ec 8a bd 01 7b 08 3e
       0.0959067 -0.119324654 -0.06783324 0.13328172
000280 85 90 1d 3b 21 39 97 3e 1c e6 69 3e 4b d6 17 3e
       0.002404244 0.29535773 0.22841686 0.1482784
000290 1c 7f aa 3b 0d 86 75 be c6 20 54 3c 36 91 48 be
       0.005203141 -0.23976918 0.012947267 -0.19586644
0002a0 1a fb 27 be f6 bc 99 3e f5 e1 eb bc 85 f7 28 be
       -0.16404381 0.30026978 -0.028794268 -0.16500671
0002b0 b1 c7 3a be 03 5b 33 3c be 8c 98 3d 02 be cd be
       -0.18240239 0.010946992 0.074487194 -0.40184027
0002c0 30 95 42 3e 6b 2b 2a be 5d 2e 77 bd 53 7f 0f 3e
       0.19002223 -0.16618125 -0.06034695 0.14013414
0002d0 d3 97 1e bd ae 1f 1a be 84 b1 64 3d a4 ad e3 bb
       -0.03871901 -0.15051147 0.055833355 -0.00694819
0002e0 5e d1 da 3c 18 df 80 bd 15 36 81 be 9f a9 40 3d
       0.026711162 -0.06292552 -0.25236574 0.047036763
0002f0 59 62 9d bd 2e 0f b5 3d 15 11 66 bb 71 3b 22 3e
       -0.07684774 0.08840786 -0.0035105397 0.15842988
000300 61 8d d0 3d 00 6b 23 be 19 53 65 3d 5c 1f 6f 3e
       0.10183216 -0.15958786 0.05598745 0.23351806
000310 b3 f5 29 3d 40 25 10 3c ea 55 e8 bc 32 52 0b be
       0.041494083 0.008797944 -0.02836128 -0.13605574
000320 44 9b 0f 3e f0 d3 97 3d 36 c8 d5 bd 74 ff ee bc
       0.14024073 0.07413471 -0.10438578 -0.029174544
000330 6e 5b b3 bd da b3 89 3d 51 ee 03 be 40 62 8e 3d
       -0.08757673 0.06723757 -0.12883879 0.069523335
000340 b8 06 3d be 19 f8 64 bd 95 ba fb 3d d3 d4 12 be
       -0.18459594 -0.055900667 0.12291447 -0.14338998
000350 ea 2c b7 bd bf 9c 2f bd 10 ec 7f be e7 34 49 3e
       -0.089441136 -0.042874094 -0.24992394 0.19649087
000360 c6 3a bc 3d ca e5 1b be 48 1f bc bd d6 e3 8e 3e
       0.09190898 -0.15224376 -0.09185654 0.279082
000370 64 1e 56 3d d6 a4 fd 3b 2a d7 a4 3c ea 1e ed 3c
       0.052275077 0.0077405972 0.02012213 0.028945405
000380 dc 19 1b be 82 00 9e 3e f7 f0 c5 3d 0a 76 33 be
       -0.15146583 0.30859762 0.09665101 -0.17525497
000390 68 cf 06 bd 94 23 1e 3e 15 fb b1 3b a0 f2 9e 3d
       -0.03291264 0.1544326 0.0054315426 0.07761121
0003a0 4e 0c 0a 3e 25 55 d4 39 fd f2 c9 3d 3b 5a b4 bc
       0.13481256 0.0004049923 0.098607995 -0.022015681
0003b0 9f 25 83 bd e5 7c 95 bc 14 8c a8 3e 83 73 a7 3d
       -0.0640366 -0.01824803 0.3291937 0.08176329
0003c0 c3 e5 4f 3d ae 9d 04 3e fe 85 ab bd 9b 7a bc bd
       0.050756227 0.12950775 -0.08375166 -0.09203073
0003d0 50 b9 08 be 04 22 0c bd 82 48 75 bd e9 ee 8e bd
       -0.13351941 -0.034212127 -0.059883602 -0.06979162
0003e0 75 8e 39 3e 5c 70 8c 3d a8 b5 91 be d2 ed 32 3d
       0.1812075 0.06857368 -0.28458905 0.043683834
0003f0 e6 2f 86 3d 04 e2 64 be aa 7f 32 3d f3 00 18 be
       0.06552105 -0.22351843 0.04357878 -0.14844112

lstm.weight_hh_l0 f4 [212, 53]
000000 9f ad 4f 3c 17 92 32 3e 3a 10 29 3e 52 b6 4a 3e
       0.012675672 0.17438541 0.16510096 0.19796112
000010 d9 36 01 3e f5 ad ac 3d 9c 21 d3 bd 3b b6 aa 3d
       0.12618579 0.08431617 -0.10309145 0.08335539
000020 3c fe 95 be 98 16 40 be ec f8 6d 3d 56 cf 06 3e
       -0.29295528 -0.18758619 0.05809872 0.1316503
000030 19 20 a8 bb 8e 46 85 be c0 71 8d be 8f 81 72 3d
       -0.0051307795 -0.2603039 -0.27625847 0.059205588
000040 77 ba b0 3c d7 e6 ab bd e5 c0 be bb ce 56 3e 3e
       0.021573288 -0.083936386 -0.0058213347 0.18587801
000050 88 7a 10 bd 60 e5 02 3c c6 3b 8e 3e c3 6b 20 3e
       -0.035273105 0.007989258 0.2777998 0.15666108
000060 ce c0 de bd 9b f9 af bd 9c 06 62 3e bc 16 79 be
       -0.10876618 -0.0859253 0.22072834 -0.24325079
000070 67 5d 30 3e d4 b8 ab 3e 9f a3 20 3e cf ab d7 be
       0.1722313 0.3353945 0.15687416 -0.42123267
000080 93 ed de 3c aa aa a2 3d 8b 8b b5 3d 5e 59 d1 3d
       0.027212894 0.07942708 0.08864506 0.102221236
000090 7b f6 3f be a1 59 14 be 09 ab 4f bd 87 af ab 3d
       -0.18746369 -0.14487316 -0.05070022 0.083830886
0000a0 97 62 81 bd 3d db 80 bd cf 3e 77 3d 0c ce 87 bd
       -0.06317633 -0.062918164 0.060362633 -0.06631097
0000b0 af 9d 86 bd 43 99 28 bd 5c f3 8a bc dd 42 40 3e
       -0.065730445 -0.041161787 -0.016961746 0.18775506
0000c0 3a 72 2d 3d 9c ea fe bd d6 29 46 3e 88 10 7f 3e
       0.042345263 -0.12447092 0.19351897 0.2490865
0000d0 e0 ed 1c be b5 c6 73 bd e2 af 1f be 3b 0f c8 3d
       -0.15325117 -0.059515674 -0.15594438 0.0976853
0000e0 c7 1f 80 3d c8 e2 32 3e 5a 28 dc 3d 8e 74 c1 be
       0.06256061 0.17469323 0.10749884 -0.37784237
0000f0 e5 4f 3f 3e 6a 4b 92 3d 93 c5 5e be 53 03 5f 3e
       0.18682821 0.0714329 -0.21755056 0.21778612
000100 35 09 26 3c 16 65 1d bd 5d 0b 0e bd 4a 4f 85 be
       0.010134031 -0.03842648 -0.034678806 -0.26037055
000110 c0 46 73 3e 8d 4a 6c bd 9b c5 5d 3d 4c 3a 81 bc
       0.23757458 -0.057688285 0.05414353 -0.015774868
000120 3b 91 9c 3e 66 fe 27 3e ec a1 9b bc f0 4a 9a bd
       0.30579552 0.16405639 -0.018998109 -0.075338244
000130 11 45 5d 3d a5 1f 25 3d 6e 5a 9e be 70 21 f0 bd
       0.054020945 0.04031338 -0.30928367 -0.11725128
000140 22 26 54 be 1a f1 59 3e a3 23 f9 3d aa da 65 bd
       -0.20717672 0.21283379 0.12165 -0.056116737
000150 b5 c1 85 bd 95 ce 61 39 b2 8f 39 3d 5f 7b f1 3d
       -0.06531087 0.0002153463 0.045303054 0.11791109
000160 37 13 02 3d 93 dc 76 3d d1 2a a9 bd 3d 85 cc bd
       0.031756606 0.06026895 -0.0826012 -0.09986351
000170 e0 5f 60 be 6a 27 40 3b 29 39 e2 3d 35 1f 15 be
       -0.21911573 0.0029320368 0.11046059 -0.14562686
000180 46 6c 4d 3c 38 d6 66 3e d8 5c 45 be f3 28 a0 bd
       0.012538021 0.22542655 -0.19273698 -0.078203104
000190 bd 86 c4 3e 74 ec 9d be 7d 15 27 3d 74 d2 d7 3c
       0.38384047 -0.30844462 0.040791977 0.026345469
0001a0 3c c2 10 be 59 7b 19 bc 45 9f 5a 3e 40 9f 0d 3d
       -0.14136595 -0.009367787 0.21349819 0.0345757
0001b0 9d 38 d4 3b 83 da 0e 3d 76 19 a8 3d 1c df ac 3c
       0.0064764754 0.034876358 0.08207981 0.02110248
0001c0 75 81 98 bd 5e 91 e0 3d 10 62 23 3e 57 9a 0b be
       -0.07446567 0.109652266 0.15955377 -0.13633095
0001d0 e2 96 3c bd 2e ee 73 be 19 31 74 be 58 87 df bd
       -0.04604233 -0.23821327 -0.23846854 -0.10914487
0001e0 1f 06 dc be 61 fe 78 3e 9a 79 62 3d bc 2f 98 3e
       -0.4297342 0.24315788 0.05529175 0.29723918
0001f0 a7 71 88 3d 4f 14 de 3e 30 63 de bc 63 1a c8 bd
       0.066623025 0.4337487 -0.027146906 -0.09770658
000200 78 b6 20 3e ad a1 25 3d 3f 43 24 be f3 1f 80 be
       0.15694606 0.04043739 -0.16041277 -0.25024375
000210 af 4a 3c 3d 91 2d dd bc d8 69 98 3e ec 59 df bd
       0.04596966 -0.026999267 0.29768252 -0.10905823
000220 a0 78 7a be 25 b5 8c bd e7 75 63 bd 85 a1 72 3e
       -0.24460077 -0.06870488 -0.055532362 0.23694427
000230 3a 97 c3 bd 5f e7 99 bd 9a e1 95 3b c9 6c 2e bc
       -0.095503286 -0.07514834 0.004574013 -0.010646054
000240 e7 21 af 3a cb 3a 43 be c8 fd df bd 33 db 5a bc
       0.0013361544 -0.19065396 -0.10937077 -0.013357925
000250 fc 83 f1 bd bd 3d cd bd 63 f2 ca 3d df c1 b2 be
       -0.11792752 -0.10021541 0.09909513 -0.34913537
000260 04 2b 8c 3c e1 63 be 3c 5a 51 26 bd 1a a0 e0 3d
       0.017110355 0.023240985 -0.040604927 0.10968037
000270 c1 53 21 be 6b 07 42 3d 3c 3b e3 3d a8 36 9d 3d
       -0.15754606 0.047370356 0.110952824 0.076764405
000280 5b 61 64 bd 42 97 8c 3d 48 9a 42 3e e3 d0 28 3e
       -0.055756908 0.06864788 0.19004166 0.16485934
000290 2e 45 03 bd ee 23 6a bc c5 43 18 3e 6c 1d 13 be
       -0.032048397 -0.014290793 0.14869602 -0.14366692
0002a0 98 40 9e be b7 35 9b 3e 61 8c d5 3d 54 cc 5d 3d
       -0.30908656 0.3031442 0.10427166 0.05414994
0002b0 fc 5c 9e bd 6e 9b 87 be c6 83 d4 bc d5 da c3 3d
       -0.07732579 -0.2648577 -0.02594174 0.09563223
0002c0 13 75 fe 3d 39 7b 59 bd 7d 28 58 be 0b 71 57 bd
       0.12424674 -0.05309603 -0.21109195 -0.05259804
0002d0 e1 b3 57 be 81 15 9e 3c 07 f6 cf 3c ff 13 7d 3e
       -0.21064712 0.019297363 0.02538587 0.24714659
0002e0 80 22 96 be 22 cf de 3c 3e f8 a5 bd 5b 50 95 bc
       -0.29323196 0.027198378 -0.08103989 -0.018226793
0002f0 8a 84 1b 3e cc ac 4f 3d fa 63 5f be b1 07 a6 3e
       0.15187278 0.0507019 -0.21815482 0.32427743
000300 5b 6f 55 3e 98 12 84 be 46 16 9c 3c d0 43 e8 bd
       0.2084326 -0.25795436 0.01905359 -0.11341059
000310 e4 d1 03 bb 47 09 58 3e fa ce c8 3d 6a 17 38 3e
       -0.0020114118 0.21097289 0.09805103 0.17977682
000320 88 92 9b bd 24 c0 22 be 94 ed 12 3d 38 9c ee bd
       -0.07596308 -0.15893608 0.035871103 -0.1165089
000330 13 47 93 be c5 8a d3 bd 1a 9a 30 3d 10 b0 02 be
       -0.28765163 -0.103292026 0.043115713 -0.12762475
000340 01 4d 11 3d ed b3 0d 3e 47 ac 25 3d 02 96 b5 bb
       0.035473827 0.13838167 0.0404475 -0.005541564
000350 2a 96 98 3e 12 26 fa 3d 5b d3 78 3d 87 0b 81 bc
       0.29802066 0.122142926 0.06074844 -0.015752567
000360 5a 75 c2 bc c3 fb b6 3d 12 14 a1 be 5c 23 47 be
       -0.023737598 0.089347385 -0.31460625 -0.19447082
000370 7d 6e 5d be ff 49 4c be 95 91 0e be 9c 1b e7 3c
       -0.21624179 -0.19950102 -0.13922723 0.028211407
000380 d9 43 dc 3d 49 30 2a 3e 65 6e ed bc 3d 80 09 3e
       0.107551284 0.16619982 -0.028983304 0.13427825
000390 09 7f 94 3d 68 8f dd 3d fb e9 07 be de f7 d3 bc
       0.072507925 0.10818368 -0.1327285 -0.025875028
0003a0 c1 1e 8c bc 38 9b 94 3c 90 a6 1b 3e 65 3e f0 bc
       -0.017104508 0.01814042 0.15200257 -0.029326627
0003b0 f5 a5 4b bd c4 ad b6 bd 8e b5 65 3d ed a5 02 be
       -0.049718816 -0.08919862 0.056081347 -0.12758608
0003c0 33 bd 7f 3d 1f 2f 65 3c 89 12 4b 3d 2f 5c 5d 3e
       0.062436294 0.013988285 0.049578223 0.21617197
0003d0 7d 58 58 3e 63 fb 02 3e a3 c3 af bd a2 03 73 be
       0.21127506 0.12791209 -0.085822366 -0.23731855
0003e0 95 62 5e bd d5 8f 4d be fd ec 2f be bf d4 e0 3d
       -0.054293234 -0.20074399 -0.17180248 0.10978078
0003f0 39 8b 3b be bc d4 01 be 9c bf 80 be e1 9e 2c 3e
       -0.18314828 -0.12678808 -0.25146186 0.16857482

lstm.bias_ih_l0 f4 [212]
000000 93 17 0d be 79 9f 80 3e 84 b1 a9 3d a6 59 29 be
       -0.13778524 0.25121668 0.082858115 -0.16538104
000010 0f e2 01 3f 92 00 6d 3e f7 7e 82 be a4 00 53 3e
       0.50735563 0.23144749 -0.2548749 0.20605713
000020 a8 c6 0c be a6 64 18 3e c5 1d 86 3c 9a b6 fc 3d
       -0.13747656 0.14882144 0.016371617 0.12339516
000030 d3 86 9a 3c e0 7a 24 3e 16 31 27 be d7 9b ab 3d
       0.018863117 0.16062498 -0.16327319 0.083793335
000040 09 be 12 bd 1e ef f7 bd 4c 47 16 be c3 bb 89 bd
       -0.035825763 -0.12106155 -0.14675635 -0.06725266
000050 0e 8f 6e be f9 5b 2f 3d c4 e2 52 3d dd 27 36 3e
       -0.23296759 0.04281232 0.05148579 0.17788644
000060 2b 3d a8 3d e5 b9 64 3d 0c 47 80 bd 71 c9 fb bd
       0.08214792 0.055841345 -0.06263551 -0.12294281
000070 81 4f 58 3c 2f 0a 25 3e 3f da 1b be b4 64 07 3e
       0.013202549 0.16117166 -0.15219973 0.13222009
000080 ee a0 1e bd da 0d 31 3c 43 74 8b 3e 86 57 5a 3e
       -0.038727693 0.010806525 0.27237138 0.2132245
000090 5a 46 8c bd ce f3 85 bd ba d3 75 3e 02 48 65 3e
       -0.06849356 -0.06540643 0.24006549 0.2239075
0000a0 6d 97 16 bd 61 fd df bc 94 18 a9 3e b9 3f fc 3d
       -0.036765505 -0.0273425 0.33026564 0.12316842
0000b0 fe de 5b be 35 62 48 bd e0 27 1a be ce d4 ac 3d
       -0.21471784 -0.048921783 -0.15054274 0.08439027
0000c0 f5 54 61 bb e8 d7 be 3c e5 4f 23 3c 41 0a e6 bd
       -0.0034382914 0.023296311 0.009967779 -0.112324245
0000d0 da 7c d1 bd bf 87 3f 3e 83 4d b5 3d b6 33 79 3e
       -0.10228892 0.18704127 0.08852675 0.24336132
0000e0 69 16 1b be 7c ce cf bd a6 fc e2 bd 08 5c f5 bc
       -0.15145268 -0.10146806 -0.11083345 -0.02995111
0000f0 3b c2 18 be 55 b4 25 bd f5 72 8a bc 04 dc 22 be
       -0.14917843 -0.04045518 -0.016900519 -0.15904242
000100 99 77 b1 be d1 d4 8d be 02 0c 23 3d ce 41 f0 bd
       -0.34661558 -0.2770143 0.039806373 -0.11731301
000110 ae e5 f3 bd cb b7 be bc f1 94 20 be 73 64 f4 bd
       -0.11909042 -0.023280999 -0.15681817 -0.11933222
000120 96 fd 43 be 42 01 20 3e a2 c0 9c 3c ab e0 95 3e
       -0.19139704 0.1562548 0.019134823 0.2927297
000130 e6 1e d6 bd ff 0c 05 be 45 bc b9 3d 0d 7c 37 be
       -0.10455112 -0.12993239 0.09069113 -0.17918415
000140 d1 d1 05 bd f1 f1 5b bd 51 7c 50 be b0 ef e1 3d
       -0.0326708 -0.05369753 -0.20359923 0.11032045
000150 79 6b 1e be 33 24 85 be 82 08 40 be ee 9c 26 be
       -0.15470685 -0.2600418 -0.18753245 -0.16270801
000160 c8 f0 77 3d c5 a4 e1 b9 7a b5 a5 3d 5d 4f 82 3e
       0.06053236 -0.00043038107 0.080912545 0.25451174
000170 9c 11 44 be 02 30 25 be dd 88 40 3e 5e 87 d4 bc
       -0.19147342 -0.16131595 0.18802209 -0.025943454
000180 08 a3 f4 bd 3e e4 ab bd 1b c2 85 3c 90 3c 0e be
       -0.11945158 -0.08393143 0.016327908 -0.1389029
000190 f0 5e 8e be 71 ce c9 ba 9c db 15 3e 06 38 b2 bd
       -0.27806807 -0.0015396607 0.14634556 -0.08702092
0001a0 83 7d 69 be f3 dd ee 3d 06 5f 94 3e e5 22 3a 3e
       -0.22801785 0.11663427 0.28978747 0.18177374
0001b0 23 4e 9a 3d 76 10 62 bd cf f6 6f 3d da e8 fa bd
       0.07534435 -0.05519148 0.058584984 -0.12251444
0001c0 56 8c ba bd 81 da 93 bd 8a dc b3 bd f6 be 80 bc
       -0.09108798 -0.07219411 -0.08782299 -0.015716057
0001d0 b8 96 00 3d c9 63 dd 3d c7 cc ac 3c fe eb ef bd
       0.031393737 0.10810048 0.02109374 -0.11714934
0001e0 a1 1f 64 bd 38 26 2e be f6 02 0c 3d c5 f3 5d 3d
       -0.055694226 -0.17006767 0.03418251 0.054187555
0001f0 a0 32 d8 3d 22 43 97 bc 4b 16 01 be 24 d0 c6 3d
       0.10556531 -0.018464629 -0.1260616 0.097076684
000200 2c ff 0f 3e 18 2e 46 bd 8f f3 8c be cc 5e 09 be
       0.14062184 -0.048383802 -0.2752957 -0.13415068
000210 a8 42 72 3d d7 a6 95 3d 74 76 a5 3d 1d 3f 5a bc
       0.0591456 0.07307213 0.08079234 -0.013320711
000220 86 05 42 3d f7 ca e3 3d 11 96 5a bd eb a9 b2 3d
       0.04736855 0.11122697 -0.05336577 0.087238155
000230 10 27 25 3d f4 12 33 be db 2b 88 be af cd fd bd
       0.040320456 -0.17487699 -0.2659596 -0.12392747
000240 bf 8c 97 3d 52 53 04 be 64 0e dd bc 5f 20 07 bd
       0.07399892 -0.12922409 -0.026984401 -0.032989856
000250 a4 eb 47 3d 1b 38 18 be 83 9d 3b 3e c4 7e d7 bd
       0.04880871 -0.14865153 0.18321805 -0.105222255
000260 47 2f aa 3b dd ce b4 bd da e7 ac be 3f 53 e3 3d
       0.005193624 -0.088285185 -0.3377064 0.11099862
000270 41 2f f4 3d 7c ee c0 3d 66 69 be bd 1f ab 12 be
       0.119230755 0.09420487 -0.09297447 -0.1432309
000280 8d 37 ba 3c 1a ba c8 3d 70 84 84 be 22 9d a3 3e
       0.022731567 0.09801121 -0.25882292 0.3195582
000290 a6 5d a3 bd 24 1c 0c 3e 98 f0 00 3e 82 3a 0a 3d
       -0.079768464 0.1368261 0.12591779 0.033747204
0002a0 82 5f 3f 3e 07 23 00 3e 90 6e 84 3e 97 28 1a bc
       0.18688777 0.12513362 0.25865602 -0.009409091
0002b0 f0 2e 5a 3e 52 05 0a be 12 bf 3a 3e 18 4c 40 3c
       0.21306968 -0.13478592 0.1823695 0.011736892
0002c0 50 83 4c 3d f7 b3 7c 3d 6d 44 9b bd 96 93 af 3d
       0.049929917 0.061695065 -0.075814106 0.08573072
0002d0 00 28 6c 3c e9 a2 a3 3d 47 0d 4a 3e 69 24 82 3e
       0.014413834 0.07990057 0.19731627 0.25418404
0002e0 84 99 bd 3d ff 25 eb ba 58 ef fd 3d f6 30 1d bd
       0.092577964 -0.0017940401 0.12399167 -0.03837677
0002f0 b6 38 70 3e ef 94 de 3d 8f fd 85 3e cc f1 49 3e
       0.23459134 0.108682506 0.26170012 0.19721144
000300 bc f0 de 3c 36 ae 1b 3e 85 0a 76 3e 25 9b a8 3d
       0.0272144 0.15203175 0.2402745 0.082327165
000310 92 cf 0d 3e af 18 b4 3d 2b a2 c6 3e bf c2 a9 bd
       0.13848713 0.087937705 0.387956 -0.08289098
000320 fa 19 2f 3d d0 97 5a bc 9f 5e 1e 3e 5c 1e 13 bd
       0.042749383 -0.013341859 0.15465783 -0.035917625
000330 24 79 ec 3d fa 5d f1 bd f2 39 06 bd ab 54 20 bd
       0.11546543 -0.11785503 -0.032770105 -0.039143246
000340 ef 5d 29 bd 3d 95 ec bb 54 4c 31 bd f3 1e 30 bd
       -0.041349348 -0.007219939 -0.043285683 -0.042998265

lstm.bias_hh_l0 f4 [212]
000000 5b a2 02 be bd d9 fe 3d b2 b2 07 bd 0f e6 59 bd
       -0.12757246 0.12443874 -0.0331294 -0.053197917
000010 d1 15 20 3f 1d dc fc 3d cc 65 d7 bd 8a d7 52 3d
       0.6253329 0.12346671 -0.10517463 0.051475085
000020 4c d2 af bd 2a 26 53 3e e3 f3 cc 3d eb 2b 3f 3e
       -0.08585033 0.20620027 0.10007455 0.18669097
000030 1d c6 83 bd af ff 84 3d 75 c5 3b 3d 15 b8 25 be
       -0.064342715 0.0649408 0.045842607 -0.16183503
000040 0b 85 d6 bc b0 f3 af 3d 18 fd 6c be ea 33 f4 bd
       -0.026186487 0.085914016 -0.23143423 -0.11923964
000050 fc c7 0e bd e7 5f b1 bc 71 31 60 bd ef 2e bc 3d
       -0.03485869 -0.021652175 -0.05473465 0.091886394
000060 fd 57 35 3e e6 eb 24 3e e9 d2 83 3d 58 06 17 be
       0.17709346 0.16105613 0.06436712 -0.14748514
000070 65 30 ea 3c 62 5a 9b bd 35 56 37 be c7 9b 43 3e
       0.02858753 -0.075855985 -0.17903979 0.19102393
000080 85 1e 52 bd 66 0d 6c bd 8d 01 8e 3e 83 f7 eb 3c
       -0.051298637 -0.057629965 0.27735558 0.028804546
000090 6e 22 1f bb 43 cb 8c bd 84 ee ad 3d 4b b3 bb 3e
       -0.0024281996 -0.068747066 0.08492759 0.36660227
0000a0 08 a9 47 3b f8 79 55 3d 90 19 42 3e c9 b3 f6 3b
       0.003046574 0.05211827 0.18955064 0.0075287563
0000b0 26 fe 1a bc 90 a7 0c be 0c 2c ca bd 7a 55 18 bd
       -0.009460008 -0.13735795 -0.098716825 -0.03719089
0000c0 e5 36 d5 3d cc 53 c3 3d d5 57 2f bd 30 87 58 be
       0.10410861 0.09537467 -0.042808373 -0.2114532
0000d0 86 50 c8 bd 3e 5f 52 bd 5e 0b 30 3e 6e 68 69 3e
       -0.097809836 -0.05136036 0.17191836 0.22793743
0000e0 e9 a3 57 be 6b 5c a5 3c 7c d4 b3 bd 37 34 d0 3d
       -0.2105862 0.02018567 -0.087807626 0.10166209
0000f0 cc ab b8 be 31 5f 21 be 03 6a 93 bd 7a ea 3b be
       -0.3606857 -0.15758969 -0.071979545 -0.18351164
000100 3b 22 7a be 8a 9c e1 bc 6b 64 57 3d 1a ce f0 3c
       -0.2442712 -0.027540464 0.052586 0.029395152
000110 db 9d de bd c1 67 0a be 91 cc 3e be 6c 84 3b be
       -0.10869952 -0.13516141 -0.18632723 -0.18312234
000120 b1 df 46 bc 67 3b b7 3d 73 6e ff bc 87 ca 68 3e
       -0.012138293 0.08946877 -0.031180596 0.22733508
000130 d1 12 06 3d 1c 5c 30 bd 63 78 1c 3b 91 63 50 3d
       0.03273279 -0.043056592 0.0023875467 0.050876204
000140 aa 7b 24 be 1e 67 e5 3d 8b 80 ca bd a8 5b f9 3c
       -0.16062799 0.11201309 -0.09887799 0.030439213
000150 74 86 84 be bf c0 65 be 88 f9 a4 3c fc 0f 91 be
       -0.2588383 -0.22436808 0.020138517 -0.28332508
000160 90 5a c0 bd 04 b5 ef 3d 98 9f c7 3c ae 2c 05 3d
       -0.093922734 0.11704448 0.024368092 0.032513313
000170 5f 1b 0d bc 82 d8 a0 bc 73 24 98 3d 63 ba 3f 3d
       -0.008612483 -0.019634489 0.07428827 0.04680861
000180 81 3d 04 be 24 f2 82 be ff d8 34 3c 00 5f a5 bd
       -0.12914087 -0.25575364 0.011038064 -0.080747604
000190 40 6b 5c be 5c bc 0b be dc 3d 0c 3e 22 ea 54 bd
       -0.21525288 -0.13646072 0.13695472 -0.0519811
0001a0 03 1a 55 be c3 83 e3 bc dc 02 9a 3e 5e 1f 02 bd
       -0.20810704 -0.02777279 0.30080307 -0.031768195
0001b0 25 ec a7 3d b1 2a ae bd 63 63 04 3e e5 ef 8c be
       0.08199338 -0.085042365 0.12928538 -0.27526775
0001c0 f2 17 04 be e9 a6 38 3d f1 af 68 be bc 8e 11 3d
       -0.1289976 0.045081053 -0.22723366 0.035536513
0001d0 7d ec 69 3d 28 6b aa bd bf 70 36 bd ad db ea bc
       0.0571103 -0.0832122 -0.044541117 -0.028669203
0001e0 25 19 eb bc 48 ce 30 bd 2c 64 d5 3d 15 b5 a4 3d
       -0.028698513 -0.043165475 0.10419497 0.08042351
0001f0 ae 0a b9 bb d2 41 03 3e 22 2f 47 be 65 63 1f 3d
       -0.005647025 0.12818077 -0.19451573 0.03891315
000200 a3 ef 91 3d 2a 16 ab bd 9c bb 7f bd ba 0d 07 be
       0.07125785 -0.08353837 -0.062434778 -0.1318883
000210 b2 d3 13 3e a4 ea 40 bd 97 4f ca 3d 9b 37 04 3e
       0.14436224 -0.04709877 0.09878462 0.12911837
000220 f9 27 5f 3d 4f c9 cf bd 03 16 ff bd 0a da fb bc
       0.05448148 -0.101458184 -0.1245537 -0.030743618
000230 e2 2b 6c 3e 1e f1 b0 be e7 87 85 be db 7b 32 be
       0.23063615 -0.34558958 -0.26080248 -0.1743006
000240 dd 91 19 3e f6 cd 2d be de 86 f1 bc aa 39 5c be
       0.14997049 -0.16973099 -0.029483255 -0.21506372
000250 1c 2d 2a 3e 0d 85 05 bc 8b f6 81 3e 69 38 82 bd
       0.1661877 -0.008149398 0.2538341 -0.06358416
000260 07 d4 a5 bd 51 d5 9a bc 14 7e b6 be 0b 23 3b 3c
       -0.08097082 -0.018900545 -0.35643065 0.011421929
000270 f6 fe 0c 3e 9b 58 94 3d 07 72 0d be ae 98 a0 be
       0.13769135 0.07243463 -0.13813029 -0.31366485
000280 67 01 82 3e 55 a9 26 be c4 bc 00 be 84 cf a1 3e
       0.25391695 -0.16275533 -0.12572008 0.31603634
000290 78 9c 34 bc 82 c1 1d bd b9 05 05 3d 1f 8e a3 bb
       -0.011023633 -0.03851462 0.03247616 -0.0049913074
0002a0 4c 64 53 3e 5e 10 7b 3d ad 7c f3 3d ca 81 80 3d
       0.20643729 0.061294906 0.118890144 0.06274755
0002b0 b9 12 80 3e 98 05 35 bd 0e a1 2f 3d a3 c3 07 be
       0.25014284 -0.044194788 0.042878203 -0.13258223
0002c0 38 a2 dd bd f7 ea b6 3d 77 1a 47 3d b2 d4 20 3e
       -0.108219564 0.08931535 0.048609223 0.15706137
0002d0 c6 63 41 3e eb 02 05 bd 17 5a 40 3e 90 20 11 3e
       0.18885717 -0.032473486 0.18784367 0.14172578
0002e0 bf 5d 71 3e 53 d1 02 bd dd 09 56 bd 1c 23 81 bd
       0.23570918 -0.03193791 -0.0522555 -0.06305525
0002f0 e6 ec f0 3d 9b bf 38 bd 90 b2 10 3e dc 51 16 3e
       0.11763935 -0.045104604 0.14130616 0.14679664
000300 71 b7 a7 bd 75 a2 9a 3e 09 d6 f9 3d 33 a3 ab 3b
       -0.081892855 0.3020207 0.12199027 0.0052379607
000310 45 95 87 bd 9e fb ae 3d 81 8d bc 3e 7a a5 47 3d
       -0.06620268 0.08544086 0.3682671 0.048741795
000320 19 e2 ba 3d 40 cd 14 be 0a 76 29 3e 89 b4 e4 bd
       0.09125156 -0.14531422 0.16548935 -0.11167247
000330 a4 f7 1e 3e 2c 16 e1 bd cd 9e 3d 3e b9 f5 3f bd
       0.15524155 -0.10990557 0.18517609 -0.0468652
000340 d0 89 0a 3d 04 42 91 bd 95 1c 95 b9 7d 80 95 bb
       0.033822834 -0.070926696 -0.0002844079 -0.004562436

lstm.weight_ih_l1 f4 [212, 53]
000000 5b bb 91 3d 2f 41 b9 3c dc ef 99 3c bc 09 2b 3d
       0.07115813 0.02261409 0.018791132 0.04175733
000010 c0 79 34 be fb 2a 3a 3c ed e5 8e bc 24 58 29 3d
       -0.17624569 0.011362786 -0.017443622 0.041343823
000020 a9 cd b7 3c 5f 3f b6 3d 38 89 02 b9 e5 e9 10 be
       0.022436934 0.08898806 -0.00012448884 -0.14151724
000030 9d d7 20 bd 1a f4 25 3c c1 76 f5 3c 3f 1c c7 3d
       -0.039268125 0.010128999 0.029963853 0.097221844
000040 f6 56 27 bd 02 d3 75 bd d2 7d af bd 56 b9 e1 bd
       -0.040854417 -0.060015686 -0.0856892 -0.11021678
000050 2b db 04 be 50 6f 19 3c 0a da 1f be 1e 6b e5 bc
       -0.12974231 0.009364918 -0.15610519 -0.028005179
000060 d4 a3 9f bd 02 d6 88 bc 4c 97 89 bd 2a 2f 0e 3e
       -0.077949196 -0.01670361 -0.06718311 0.13885179
000070 ce 88 2c 3d d3 93 d9 bc 59 f4 45 bd 2c d1 47 3e
       0.042122655 -0.026559746 -0.04832873 0.19513386
000080 76 46 2b be 72 c7 64 bd 1f 3b 92 bb 6a e4 21 3e
       -0.16726097 -0.05585427 -0.004462614 0.1580979
000090 86 53 1b 3d 52 a8 04 3e 40 ad 2b bd a1 b2 d6 bb
       0.03792145 0.12954834 -0.04191327 -0.006552056
0000a0 30 c8 83 3d 98 03 28 3e 82 1f 02 bd d0 b9 5f 3e
       0.06434667 0.16407621 -0.03176833 0.21848226
0000b0 27 70 35 bc 63 47 bb 3d 70 60 3e 3d 04 bc 28 3d
       -0.0110741025 0.09144475 0.04647869 0.04119493
0000c0 e9 36 89 3d 81 67 00 be 11 b6 e3 bd ef 03 37 3e
       0.066999264 -0.12539484 -0.11118711 0.17872594
0000d0 40 11 45 bd 43 78 cb 3d 17 6d ff 3d 4b b5 f0 bd
       -0.048112154 0.099350475 0.12471979 -0.11753329
0000e0 e1 d4 df 3d be fa ad 3d 80 7b 1c 3d 1b 06 4b bd
       0.10929275 0.08495091 0.038203716 -0.04956637
0000f0 6f 70 95 bd 84 2a fb 3d 24 0c 4f 3c 4f 3d 85 bd
       -0.07296836 0.122639686 0.012637172 -0.06505834
000100 b5 44 f5 bc 56 40 df bd 2a 49 eb 3d 50 34 24 bc
       -0.029939989 -0.10900943 0.11488564 -0.010022238
000110 38 cc 37 bd 00 b3 a6 bd 8b 00 ea bc e5 a4 87 bc
       -0.044872493 -0.0813961 -0.028564712 -0.01655812
000120 fb c8 7f 3d 0e 50 b0 3d 65 1a 15 3e a7 26 64 bd
       0.06244753 0.08609019 0.1456085 -0.055700924
000130 0a c8 a8 bc 24 2a a3 3d a5 33 2f 3e 65 f2 57 3d
       -0.020603199 0.07967022 0.17109545 0.0527214
000140 a7 3e 08 3e c3 48 f5 bd 49 66 54 3d 75 47 47 bc
       0.1330515 -0.11976769 0.05185536 -0.012163033
000150 c4 47 34 bd 31 e3 b1 3d 18 94 38 bd 3c 28 ec bc
       -0.044013754 0.086859114 -0.04506311 -0.028827779
000160 2f 8d a0 3d 3c ae 34 3d 37 05 95 3d cb d5 14 bd
       0.07839429 0.044111475 0.07276385 -0.0363367
000170 2c 23 bd bc e6 11 d7 bd ce c1 25 3e 96 fb b0 bd
       -0.02308806 -0.10501461 0.16187212 -0.08641736
000180 8e 35 96 bc e0 c1 fa 3c d4 f9 80 3e 7d 20 a1 bc
       -0.018336084 0.030610025 0.25190604 -0.019668812
000190 c3 ae 41 bd 0c 92 89 bc 6d 8f 39 be eb 03 2e bd
       -0.047285806 -0.016793273 -0.18121119 -0.042484205
0001a0 97 ae 1c be 71 70 13 3e bc b1 b4 bd 79 da 9b bd
       -0.15300976 0.14398362 -0.08822963 -0.0761003
0001b0 50 79 e5 bd e5 e1 46 3d ad c2 7e bc 10 da fa 3a
       -0.11204779 0.048555274 -0.015549344 0.0019138474
0001c0 c1 45 dc 3b fd b6 d1 bd 37 9c 8b 3d 02 7e c2 bc
       0.0067221825 -0.1023998 0.06816905 -0.023741726
0001d0 d3 b0 04 3c c0 cd 11 be 35 b3 97 3d b1 63 76 bd
       0.008098799 -0.14238644 0.07407228 -0.060153667
0001e0 a8 ba dc 3d 9f 67 95 3d a3 bb 10 be 45 35 68 3d
       0.10777789 0.07295155 -0.14134078 0.056691427
0001f0 15 00 a1 bd 9e 55 92 bd 23 96 b9 bc 7c 93 a6 3d
       -0.07861344 -0.071452364 -0.022654599 0.08133599
000200 f2 08 f5 b9 16 9c ef 3d d3 ed 54 3d c3 50 62 3c
       -0.00046736706 0.11699693 0.05198462 0.0138132
000210 27 f4 2b bd 74 6d 1d 3c 3b 26 94 bd ba 40 b5 bd
       -0.04198089 0.009608615 -0.072338544 -0.08850236
000220 83 9b 1a 3e 69 ad 0b bc a0 ef 26 be b0 de 5d 3d
       0.15098386 -0.008525231 -0.16302347 0.05416745
000230 33 4b 66 bd 56 67 8a 3d 4d d9 92 bd 13 b3 f8 bc
       -0.05622406 0.06757991 -0.07170353 -0.030358827
000240 bf 4a 39 3d 66 45 25 3d b6 51 00 be c6 e9 b2 3c
       0.0452373 0.040349387 -0.1253117 0.021839987
000250 20 6a c2 bc 89 75 95 3d 55 82 fd 3c 46 ee 4c 3d
       -0.023732245 0.07297809 0.030945936 0.050031923
000260 7a a6 43 3e d5 85 5b bd 68 1b cb bb ab 0c 3a be
       0.19106475 -0.05359443 -0.0061983354 -0.18168895
000270 4a 2a 18 bd c1 7c 15 3d b9 2f 1e 3e 80 9a 5a bd
       -0.037149705 0.036495928 0.15447892 -0.05337
000280 9e f8 f3 3d fc 46 de bd 12 96 2b 3d 4d 4b 73 bd
       0.11912654 -0.10853383 0.041891165 -0.059397984
000290 6a 7f f2 3c ed 59 68 bd 2e 51 8a 3d 63 06 0c bd
       0.029601771 -0.056726385 0.06753765 -0.03418578
0002a0 bb 93 c1 3d 93 a0 d5 3d aa da 1c be 4e 03 b4 3d
       0.094520055 0.10431018 -0.15317789 0.08789693
0002b0 bd df 25 3e 3e 8e 23 be 14 ac 98 bc 77 42 8e 3d
       0.1619863 -0.1597223 -0.01863674 0.06946271
0002c0 cb ba 07 be d6 d5 02 3d 90 d4 a9 bd fe e6 be 3d
       -0.1325485 0.03194221 -0.08292496 0.09321402
0002d0 84 dd 9e bc 1d 7f 7e 3d a6 53 3f 3b 37 c9 87 3d
       -0.019392736 0.062132943 0.0029194145 0.066301756
0002e0 34 8d e6 3d 51 45 4a 3d 8a de 91 3d e6 b3 0b 3e
       0.11257401 0.04938251 0.07122524 0.13642845
0002f0 9d 72 c9 bc 0e 6a 7e 3d fa 03 d4 bd a1 95 0f be
       -0.024590785 0.06211286 -0.10352321 -0.14021923
000300 c2 05 49 bc 6b f4 bb 3d 64 84 1a 3c 7b 4a a7 bd
       -0.012269439 0.091774784 0.009430978 -0.08168503
000310 c4 d9 9f bd d3 76 4a bd 7d 8f 9c bc c8 c1 90 3c
       -0.07805207 -0.049429726 -0.01911139 0.017670527
000320 c9 d8 e1 bd 9a 02 a8 bd 30 01 00 3e 02 c8 21 3e
       -0.110276766 -0.08203621 0.12500453 0.15798953
000330 b1 56 a7 bd 89 12 2f bd e2 09 0a 3e ff f8 01 3d
       -0.08170832 -0.042742286 0.13480332 0.0317316
000340 4d 65 c0 3c c0 d9 9d 3d 7d 91 e6 3b 11 89 6c bc
       0.023485804 0.07707548 0.0070363865 -0.014436976
000350 af 57 f4 bd d4 69 26 3e b2 09 24 be fd cc 9b bc
       -0.11930787 0.16251308 -0.16019323 -0.019018644
000360 9f e4 7d 3c 44 f5 73 3d 6c 2a 1b 3e 0e 22 1e be
       0.015496402 0.059560075 0.15152901 -0.15442678
000370 9d 83 e5 bd f3 fe bb 3d 35 20 74 3d 6b 9a 63 3d
       -0.11206744 0.09179487 0.059601028 0.055567186
000380 b3 76 5e bd 23 86 53 3d 3e bc 0b bd ff 50 55 bd
       -0.05431242 0.051641595 -0.03411507 -0.052079197
000390 0b 73 6f bd 28 a6 be 3d 56 5d c9 3d cf ef a4 bd
       -0.058459323 0.093090355 0.098322555 -0.08053552
0003a0 93 c6 f6 3c 48 82 1f 3e a4 a7 14 3d 54 5f d2 bb
       0.030123984 0.15577042 0.036292687 -0.0064200554
0003b0 12 fe a1 bd 5a db b4 bd 31 67 1a bd d2 aa 39 3e
       -0.07909788 -0.088309005 -0.037696067 0.18131569
0003c0 5a b5 87 bd 4d 94 fd bd b2 66 c3 bd 78 f5 57 3e
       -0.06626387 -0.12381802 -0.09541072 0.21089733
0003d0 8f a9 ea bd 0a a8 9d bd a3 16 b4 bd 32 b3 09 3e
       -0.11458122 -0.076980665 -0.0879338 0.13447264
0003e0 d8 5a 41 3e ed 62 c9 3c 1e ff 68 3d 38 fc dd 3d
       0.1888231 0.024583304 0.056883924 0.108391225
0003f0 13 1a 89 3d 19 82 bc 3d ed 36 55 3c 6a db 37 3e
       0.066944264 0.09204502 0.013013584 0.17954794

lstm.weight_hh_l1 f4 [212, 53]
000000 db fc e9 3d 76 6f 7b bd fa eb 4c be 4d 3c 47 be
       0.114251815 -0.061385594 -0.20011893 -0.19456597
000010 5c 3b 6d 3e ce d0 22 3e 52 c1 b2 bc 08 22 24 3e
       0.23167175 0.15899965 -0.021820698 0.16028607
000020 9b d9 21 be 0d e1 2a 3e c5 f3 12 bd 93 7d a8 bc
       -0.15805666 0.16687413 -0.035877008 -0.020567691
000030 e1 39 ad bc 5e d5 4c be c5 22 c2 3c fc f8 bd bd
       -0.021145763 -0.20003268 0.02369822 -0.092760056
000040 38 af 4a 3d e4 4c 5e 3e ae 82 1e be 49 54 59 3e
       0.049483508 0.21709019 -0.15479538 0.21223558
000050 17 9b 82 be 04 37 4a 3e 2a 2a 5c be ec 42 56 3e
       -0.2550895 0.1974755 -0.2150046 0.20923966
000060 45 9b 30 be 9b 16 28 3e 4a bf cb bd 5b 5b 3f 3e
       -0.1724673 0.16414873 -0.09948595 0.18687193
000070 6a 51 a3 bd 69 3f cf 3c ee 6c ba 3d f2 d8 a7 bd
       -0.07974513 0.025298791 0.09102808 -0.08195676
000080 d0 3d 0d be 24 8f bf 3d 2a 68 a5 3d c0 61 94 3d
       -0.13793111 0.09353474 0.08076508 0.07245207
000090 86 ca 1c bd 9a 28 40 be 34 0b 63 bd cf 50 00 bd
       -0.03827908 -0.18765488 -0.055430606 -0.031327065
0000a0 f1 e4 3b 3c a7 04 31 be d3 7a 43 bd bb f7 17 be
       0.011468158 -0.17286931 -0.047724556 -0.14840595
0000b0 45 fb 27 bd a5 63 13 3e 43 be 23 3e ca 11 a8 bd
       -0.041011114 0.1439348 0.15990548 -0.08206518
0000c0 33 19 2a bd 4e 78 38 3e 8e 12 a9 bc 90 6f 38 be
       -0.041527938 0.18014643 -0.02063873 -0.18011308
0000d0 74 0e 05 be eb 69 95 3d 5a b1 3e be f8 5b 69 be
       -0.12993795 0.07295593 -0.18622342 -0.2278899
0000e0 92 aa 6c bd 17 ac 79 3d ff 1a 4a 3e 8d 3b ad bd
       -0.057779856 0.060955133 0.1973686 -0.08458624
0000f0 b9 2a cb 3d 5d e1 83 be af cc d4 3d 7f 10 24 3c
       0.09920258 -0.25757876 0.10390603 0.010013699
000100 7c e4 c2 bd 06 8d 14 be 09 c0 95 bd c1 93 37 3d
       -0.09516236 -0.14506921 -0.073120184 0.044818643
000110 17 f2 d7 3d 8b 69 68 3e 8a ba 75 3c dd d9 29 bd
       0.10544222 0.22696511 0.014998088 -0.041467536
000120 0e 3e 22 3d 9b 7f 2b be 83 9f d7 3c 2c 5c 02 be
       0.03960996 -0.16747896 0.026321178 -0.12730473
000130 77 6c 5c 3e 74 61 80 bc a5 4c 15 bd 2f 4e 9a bd
       0.21525751 -0.01567147 -0.036450047 -0.075344436
000140 f1 d6 a9 3d 6f ca 6b be ea 8a 17 bd 16 a6 15 3e
       0.0829295 -0.23026441 -0.036997713 0.14614138
000150 a0 1f 04 be 16 9f 6d be 7f 46 ae 3d a7 98 10 3e
       -0.12902689 -0.23205218 0.0850954 0.14120732
000160 88 95 89 3e 1b 47 ee bd e0 a9 d5 bd 0d 59 41 be
       0.26871896 -0.11634656 -0.10432792 -0.18881626
000170 7c 5d 88 3d 7e 3a 99 bd 5a 53 6f 3d e6 9f c5 3c
       0.06658456 -0.074818596 0.0584291 0.024124097
000180 f6 e8 a7 bd c5 16 01 bd 58 59 f1 3c ca 1a 35 3e
       -0.08198731 -0.031515855 0.029461548 0.17686
000190 be b0 1c be 57 ae 9b bd 6b 81 b8 bd d9 4e 28 be
       -0.15301797 -0.07601612 -0.090090595 -0.16436328
0001a0 2f 9e 49 bd 15 3b f2 bb fc 7a e4 3d 4a f4 39 bc
       -0.04922312 -0.007392297 0.1115627 -0.011349747
0001b0 72 ab 7c be 49 17 2d bd 1d 64 9c 3d d4 ae 96 3e
       -0.24674776 -0.042258535 0.076362826 0.29430258
0001c0 25 b9 47 be 7e 4e 3b 3d e2 ed 71 be d5 8d d2 3c
       -0.19504221 0.045729153 -0.23625901 0.025702396
0001d0 fb e5 b8 3d 4b 10 1c bd 59 78 c7 bd ec 35 1b be
       0.0902824 -0.038101476 -0.09739751 -0.15157288
0001e0 a8 e1 06 3d 08 92 ec 3c 1e a9 be 3d c3 e6 82 3e
       0.032930046 0.028878227 0.093096 0.25566682
0001f0 28 89 a5 bc ba cc c3 3c 0d 3c 8e be a5 5d af bc
       -0.020207003 0.023901332 -0.2778019 -0.021406958
000200 57 99 32 be 8d 9c 90 3d 7b e6 50 bd dd 6a a0 3d
       -0.17441307 0.0706111 -0.051001053 0.078328826
000210 72 f8 6a be fe 70 83 3e 43 b6 37 bc 74 77 1d 3e
       -0.22946337 0.25672144 -0.011212888 0.15377599
000220 c3 fe eb 3d 97 a5 52 be 73 70 91 be 8e b3 f9 3d
       0.11523201 -0.2057098 -0.28406104 0.121924505
000230 d9 97 41 3e bd 36 44 3e 02 e7 98 bc 90 cf 51 bb
       0.18905582 0.19161506 -0.01866484 -0.0032014586
000240 a9 72 fb bd 87 2b dc 3d 39 40 86 be 55 f6 c5 bd
       -0.12277729 0.1075049 -0.26220873 -0.09666125
000250 35 c5 56 be 7b 81 9c bc cf 5f 8c be b5 4b 85 3e
       -0.20973666 -0.01910471 -0.27416846 0.26034322
000260 65 bb 27 3d 7c f3 a8 bd 60 f6 82 bd 3c aa b4 3d
       0.040950198 -0.08249566 -0.063946486 0.08821532
000270 31 04 1d be d1 35 8a be 96 32 2a be fc 9b 30 3e
       -0.1533363 -0.26994184 -0.1662086 0.17247003
000280 7d 78 4b bc 6f d2 a0 3c e6 02 27 bd e3 51 33 3e
       -0.012418863 0.019631593 -0.04077425 0.17511706
000290 85 74 28 ba 62 e5 4a be 70 15 38 3b 21 6b a7 3d
       -0.0006426054 -0.19814065 0.002808895 0.0817473
0002a0 83 97 4b 3d eb 2b 1d bc 7e 9b 1d 3d 8f a9 3c bd
       0.04970504 -0.00959299 0.038478367 -0.04606014
0002b0 40 f7 c1 bb 0f e4 4b 3d 0e 50 42 bd 0e d5 51 3e
       -0.005919367 0.04977804 -0.047439627 0.2049143
0002c0 18 fd 9d 3d fd dd 92 3d f8 15 7f 3c 39 51 6f be
       0.077142894 0.07171247 0.015569203 -0.23370828
0002d0 99 6a 8d 3d c2 93 5f be 09 1e 2a 3e d3 ee 1b bc
       0.069050975 -0.21833709 0.1661302 -0.009517389
0002e0 04 ef 19 bd 36 63 18 3d 57 7b 0e 3e 61 2e 39 be
       -0.03758146 0.03720399 0.13914238 -0.18084098
0002f0 08 dd da 3d a9 8b 63 3d b6 6d 18 be cc 9d 93 bd
       0.106866896 0.055553112 -0.14885601 -0.07207832
000300 9c 90 2b 3e 24 3b bf 3c 16 03 af 3c 2a b4 3d bd
       0.16754383 0.02334363 0.021363776 -0.046314396
000310 e3 48 0b bc 51 a7 a3 bd 44 ec 24 3a f4 b2 4d be
       -0.008501264 -0.079908974 0.000629131 -0.20087796
000320 65 02 e6 bc 90 e9 39 bd db b9 26 be 5f 81 57 bd
       -0.028077314 -0.04538876 -0.16281836 -0.052613612
000330 c3 77 97 bd 35 bb e3 3d 0a ce 38 3c 45 37 69 bd
       -0.073958896 0.11119691 0.011279592 -0.056937475
000340 8f 7e ed bd 20 6b 5b 3d df 37 ed bd 0c f0 38 be
       -0.11596405 0.05356896 -0.11582922 -0.1806032
000350 1e bd a8 3d f5 35 26 bc 07 4c 88 be ca a8 79 be
       0.08239196 -0.0101447 -0.26620504 -0.24380794
000360 3f 3b 38 3e 4e 33 45 3e fe 21 1f be 9e 92 41 3e
       0.1799135 0.19257852 -0.1554031 0.18903586
000370 58 b5 4d 3c f3 e1 dd 3d c4 04 92 3d 81 22 9b bd
       0.012555443 0.10834112 0.07129815 -0.075749405
000380 f8 59 17 be 80 7c de bd bb c2 9c 3d 9d 32 09 be
       -0.14780414 -0.1086359 0.076543294 -0.13398214
000390 df 4a 92 3d e7 29 20 3e fc 73 d6 bd db df 15 3e
       0.07143187 0.15640984 -0.10471341 0.14636175
0003a0 51 12 80 be 6a 77 19 3e 2e fd ed bd fb 07 42 3e
       -0.25013974 0.14986959 -0.11620556 0.18948357
0003b0 26 2f 37 be 3a 76 36 3d 5a bd a0 bd b9 1e 1e 3e
       -0.1788908 0.044546343 -0.07848616 0.15441407
0003c0 85 ff c8 bd 1b 17 2e 3e 05 7b a6 3d 43 d3 15 be
       -0.098143615 0.17001002 0.08128933 -0.14631371
0003d0 fb 36 7e bd 3d 93 37 3e 71 ad cc bc 3b ee 2f 3d
       -0.062064152 0.1792726 -0.024985047 0.042951804
0003e0 0a 9f cb bc da 62 0f be 8d c6 db bd 02 e2 dc 3c
       -0.02485611 -0.14002553 -0.1073123 0.026963238
0003f0 cb 5c b0 3c a0 ff 20 3d 68 a2 9c 3d 8e cc da bc
       0.021528622 0.039306283 0.07648164 -0.026708867

lstm.bias_ih_l1 f4 [212]
000000 0e 97 58 3b 44 f8 15 3e 86 db b8 3d 7b c5 26 3e
       0.003304902 0.14645487 0.09026246 0.1628627
000010 d9 21 12 3e 94 8b 1c 3e f5 23 c8 3c d3 c8 90 bd
       0.14270724 0.1528762 0.024431208 -0.07069554
000020 62 ea 45 3e fd 3c db 3c 48 73 49 3e b9 f8 9a 3d
       0.19327691 0.02676248 0.19672883 0.07566971
000030 63 dc 02 3e a6 28 05 bd a5 83 14 be d6 e7 3c 3e
       0.12779383 -0.03250947 -0.14503343 0.18447813
000040 43 5c 42 3c 37 0b 33 3e a3 27 19 3e be ba c6 3d
       0.011862817 0.17484747 0.14956526 0.09703587
000050 34 2f 24 3d fb b6 4f 3e 6d f0 15 bd 1b 73 5e 3e
       0.04008408 0.20284645 -0.03660624 0.21723597
000060 32 37 ef 3d 98 55 1a 3e d9 5e 47 3d 35 bb 00 3e
       0.116804495 0.15071714 0.04867444 0.12571414
000070 5b ef b8 3d 23 e0 27 3d 51 3c a1 3d 7e f0 28 3e
       0.090300284 0.040985238 0.078728326 0.1649799
000080 66 46 94 3c 79 99 eb 3d 4b d3 49 3e 6d 55 5c 3e
       0.018099975 0.11503882 0.19709508 0.21516962
000090 0e 60 63 bd ee d9 26 3e 13 dd ec 3d 9b 4f 31 3e
       -0.055511527 0.16294071 0.11565604 0.17315523
0000a0 b5 c0 23 bb 38 b2 0f 3e 69 4c 6f 3e a2 a5 79 3e
       -0.0024986689 0.14032829 0.23368992 0.2437959
0000b0 40 72 a9 3d 85 2f 0c 3e 27 bd 3c 3c 82 21 61 3e
       0.082737446 0.13690002 0.011519707 0.21985438
0000c0 17 72 b1 3d 21 37 6a 3e f4 81 19 3d 5d 50 54 3e
       0.08664339 0.22872593 0.03747745 0.20733781
0000d0 51 28 f0 3c 4f c5 99 3d e7 29 1d 3e b6 4a 45 3d
       0.0293161 0.07508337 0.15348016 0.048166953
0000e0 ee e3 b0 3d 65 e5 f0 3d 9f 35 02 3e 9e 43 8a 3d
       0.08637224 0.117625035 0.12715767 0.06751178
0000f0 f2 6e c9 3c 96 97 d3 3d a0 4b 50 bd 41 c1 3f 3e
       0.024589036 0.10331647 -0.05085337 0.18726064
000100 da 25 22 3e af a2 79 bc 3c 47 22 3e 9a d3 d6 bd
       0.15834752 -0.015236541 0.15847486 -0.104895785
000110 04 5c 05 3e de 85 5c 3e 60 6d 98 3c 5a d5 ea 3d
       0.13023382 0.21535441 0.018606842 0.11466475
000120 ef 5b a5 3c 29 ce 61 bc 13 14 2a be 13 c1 e6 3d
       0.020185439 -0.013782063 -0.1660922 0.11267295
000130 3d 08 35 3d 85 e0 ea 3d fb 07 24 3e c6 7b 44 3e
       0.04419731 0.11468605 0.1601867 0.19187841
000140 cf e4 05 3e 79 cc fa 3d 52 40 c1 3d 17 32 1f 3e
       0.13075565 0.12246031 0.09436096 0.15546452
000150 7f 1e 7c bc 59 99 4a 3e 8d 83 b2 3c e8 6f 8e 3c
       -0.01538813 0.1978506 0.021791244 0.017387345
000160 fc 60 22 3e c0 86 12 bd 7d 85 1e 3e e3 55 eb 3d
       0.15857309 -0.03577304 0.15480609 0.11490991
000170 6f 81 0b 3e d3 d5 2d 3e c2 ab 9a 3d 9a 8e 29 3e
       0.13623594 0.16976099 0.075522915 0.16558304
000180 5b d1 0c bd d6 f9 8a 3c 4e a9 1e bd 66 3b 1f bd
       -0.034379344 0.016964834 -0.03873568 -0.038875006
000190 a3 49 56 3e 15 c1 96 3d a7 d3 69 3e b1 af 4f 3e
       0.20926528 0.07361046 0.22834645 0.20281865
0001a0 c3 46 09 3b 11 46 42 bd 2e 7a 5a 3e c6 ec 5f be
       0.0020946718 -0.0474301 0.2133567 -0.21867666
0001b0 e6 68 bb bd ce 1b 71 be f6 f7 b3 3d 30 e0 60 3e
       -0.09150867 -0.23545763 0.08787529 0.2196052
0001c0 c0 57 1b be 7f ed 09 3e 5b ea 5e bd 49 5d 96 bc
       -0.15170193 0.13469504 -0.054422718 -0.018355029
0001d0 70 2c 71 3e 27 70 08 bd 41 5f 4e be c2 57 06 be
       0.23552108 -0.03331008 -0.20153524 -0.13119414
0001e0 9d f1 6d 3d 1c e7 76 3d 51 dd 3e 3e 81 ce e5 3d
       0.05809175 0.060278997 0.18639113 0.11221028
0001f0 f0 93 33 3e 9d c3 5e 3e 9a a7 8c bd f7 30 93 3d
       0.17536902 0.21754308 -0.06867905 0.07187074
000200 3d be 4d be 30 64 5f 3e b6 43 cc bd 7d 29 0b 3c
       -0.20092101 0.21815562 -0.09973852 0.008493778
000210 c6 d9 63 be 76 a4 bb 3d 5b 8b 3f be 0e 48 15 3e
       -0.22251043 0.09162228 -0.18705504 0.14578268
000220 0f a9 ea 3d a3 f9 8f bd d9 d1 16 3d da f7 65 3c
       0.114580266 -0.07030036 0.03682122 0.014036143
000230 3a 28 1e 3e 5f 52 75 3c bf 5a 9c bd d3 c9 62 be
       0.15445033 0.014973252 -0.07634496 -0.22147302
000240 12 b2 70 bd 73 2e 92 3d f5 03 cd bd 65 7e 45 3d
       -0.05876357 0.07137766 -0.1001052 0.048216242
000250 cd c3 44 3d 23 9c 04 be d4 c1 d8 bd 03 65 73 3e
       0.048038293 -0.12950186 -0.10583845 0.23769002
000260 c7 05 45 3e d0 8c 01 be 2f 7e 2b be 13 0d e2 bc
       0.19240485 -0.12651372 -0.16747354 -0.027594125
000270 1b 05 20 be d8 38 6e bd 4f 62 6f be d7 d8 17 bb
       -0.15626948 -0.05815968 -0.23377346 -0.0023170018
000280 47 13 0f 3e 93 ea 9b 3e e4 b3 7b bd 25 46 a7 3e
       0.13972197 0.30452403 -0.061450854 0.32670704
000290 ad 6e 84 bd 75 ad a2 3e 3f 6d 35 3e 48 07 42 3e
       -0.06466422 0.31772962 0.17717455 0.1894809
0002a0 bd 15 21 be fd b4 f6 3d 87 a7 97 bd a6 c4 c2 3d
       -0.15730949 0.120462395 -0.07405 0.09510164
0002b0 d0 be 92 3e f7 50 24 be 4c c4 0a be 8c ef 52 3e
       0.28661203 -0.1604651 -0.13551444 0.20599192
0002c0 68 95 63 3e c4 1a 64 be bf f1 92 3e 9c bb f9 3d
       0.22224963 -0.22275835 0.28700063 0.12193987
0002d0 3e db c4 3c eb a9 08 3e 6b a3 fc 3d 12 6e 78 3e
       0.024030324 0.13346069 0.12335857 0.24260738
0002e0 8c cf 29 be 53 3a b7 3d 6b a5 db 3d 40 67 92 3e
       -0.16583079 0.08946671 0.1072491 0.28594398
0002f0 81 ad d6 3d d6 40 06 be 35 e5 b6 3d a9 bb 22 3e
       0.10482312 -0.1311067 0.089304365 0.15891899
000300 6a c7 11 be 11 08 3a 3d 11 6f 75 3e c4 4b 7f 3c
       -0.14236227 0.04541785 0.2396815 0.015582029
000310 93 cd f1 3d 43 5b 03 3e 37 5d 82 3c 93 df 88 3c
       0.11806788 0.12827782 0.015913589 0.016708171
000320 76 83 af 3d 22 19 05 3e 96 ee 58 3e 83 eb 99 3e
       0.08569996 0.12997869 0.21184763 0.30062494
000330 e7 d9 3a 3d 9a df 03 3e 0d e2 8e 3e d3 9e a5 3e
       0.045617964 0.12878266 0.27906838 0.32347736
000340 ed f1 05 bb a1 cf f1 3d 3d 73 16 be 81 5b b3 3d
       -0.0020438388 0.1180718 -0.14692397 0.08757687
