models/lstm_trial_7.pth (torch, 203518 bytes, 9 tensors)

lstm.weight_ih_l0 f4 [228, 44]
00000000: 4452 01be 23da 0c3e 9e14 893b 7778 003e
00000010: 3669 513d 093e 643d faf9 8c3b 8789 7c3d
00000020: e23c 15be 2926 e5bd e21f d9bd 6f01 2e3e
00000030: bf39 ebbd 7924 143e 5dd2 0d3e 3d59 b4bc
00000040: 12b6 a2bc f13d 03be 512b da3d e19c 6bbc
00000050: f986 2a3d 4b41 afbc bd4f a53d 70d4 fabd
00000060: 6bcc cc3c 9ee3 07bc 30c7 e7bb 604a 36bd
00000070: 3e35 a73d 9e32 943c d58b 05be 6c0a adbd
00000080: 6702 0a3e 6392 fb3d 4734 bcbd 64c7 35bd
00000090: fdea 4d3d 0fed af3c 0fcf 82bc 11b4 593d
000000a0: 4b6c afbd 29fa 3a3e f576 06bc df26 b43d
000000b0: d962 013e 862e b2bd 78c0 eb3d 86db 49bc
000000c0: 03d6 d7bc d649 753d 64d7 3c3d 474a 88bd
000000d0: fc92 a63d b9c0 2ebd a656 18be cefd 96bd
000000e0: b9bc 8e3d cc99 ec3c 9725 75bd a668 d63d
000000f0: fb23 a5bd 2d64 ecbd 5c47 683d f2be e8bc
00000100: 5ce2 15be 682c 923d 0fc1 08bb 1957 063e
00000110: 6813 0f3e 4aba 3e3d c827 b6bd 77c8 c93c
00000120: e28d 0fbd 6229 4c3d c873 fd3c 482e e53a
00000130: d4ce 00be ce5c 983d ee85 653d ef65 94bd
00000140: c8dc 183d 0adf 37bd 57de 77bd 27f1 693d
00000150: e322 cabd 0799 59bd b6a1 9fbd 82d3 36be
00000160: 1d40 cd3d b522 923d d26e 983d e466 193d
00000170: 2e7a 5dbd 2166 c63b 4eb5 053d 05ca 183d
00000180: ef70 10be e961 bcbd 900c e7bc 5124 0a3e
00000190: 7bb4 b33d 6dc7 a7bd 450d cebd e0a6 98bd
000001a0: 078a fcb9 16d3 6fbd 9b5b 19ba 238f bbbd
000001b0: b0e5 dc3c b358 30bd 3ec2 003c 2a47 c93d
000001c0: 93c3 9b3d a99a 933d 3756 db3c b556 08bd
000001d0: bdc9 e63d 0f06 2cbc 61e9 1c3d 5a11 c13d
000001e0: 7b74 01be 5292 8cbd a5ed 0e3e 3c71 533d
000001f0: 20b0 24bb a9a7 e6bd 4df1 5e3d 543b 12bd
00000200: 60ba 4e3d b215 d4bd d975 f5bb a6cb a63d
00000210: df26 0f3e efc3 b2bd 0aae 053e ce3a 9f3d
00000220: a205 173e dff5 8dbd 63cf ad3d f4f6 423e
00000230: eec3 fdbd 4c59 e73d 0821 2fbe 372c e53d
00000240: 722b 1e3d b859 c73b 9e8b 483d 6951 1a3e
00000250: 5973 caba 0661 cb3d e40e 893d 625b 17be
00000260: ae8b 613d f338 7fbd 1af3 64bb 9462 cf3d
00000270: a753 86bd 236a c63c 2434 243d 90b5 883d
00000280: bf52 053e 00d9 bcbd 498d fd3d 6e2a 34bd
00000290: fba1 06bd db10 9a3d 0054 0c3d 451d fdbd
000002a0: 67ef 8ebd f02e ac3c a68b dabd a341 06bd
000002b0: 18b8 473e 4c2e 5e3d 3e95 6ebd 4ac4 b13c
000002c0: 3891 0d3c bce5 7a3d 1db2 aa3c 3490 f83c
000002d0: 2fda 7abd 46d2 b2bc 6cdf b43d af89 13bd
000002e0: 15de 143a 851d 923c 1595 523d f6d0 9a3c
000002f0: 5bf7 873d 7e15 fd3d bba5 fabc 27a3 02be
00000300: a8ed eb3d 3b15 953d 4670 a83d 31c4 90bd
00000310: f10b 3ebd 7767 303c 8a25 043d f030 68bd
00000320: 50bb dbbd 06ef e73d c038 6c3d 4a10 9a3d
00000330: 6677 db3d 2db6 283c 6957 803d 8fcc 97bd
00000340: 5a5f 81bc 524c 1e3e 792b a53d a1e9 b6bd
00000350: 679e 5a3c 0716 d33d 2262 05be 47cb 343d
00000360: b8ed ff3d 2bd6 c23d 5cb8 443b 435f 953d
00000370: c631 3f3e 3ac0 1d3e bd19 ebbc eb26 813d
00000380: 19a0 a53d 6e4d d73d 3a8b 02bc 3af7 58bc
00000390: 7fb4 77bd 80a8 cbbd 58d5 a23c c480 f9bd
000003a0: 90c4 cf3d 1db5 ce3d 3e89 13bd cb43 acbd
000003b0: bb8d 89bd 04ad c0bd f64c cabb 3674 a0bb
000003c0: c67a 6dbd a0a4 e4bd 2960 f23d 7eb9 e73c
000003d0: 9328 183e f88b e73d 6aab b1bc 2b19 2dbe
000003e0: 516b 7a3d 8a88 2d3e e97a 9dbd d65e 0dbd
000003f0: 154e 9bbd 26ac 85bd bfb5 203d 67a8 e23d
-0.12629038 0.13755088 0.004183366 0.12545954 0.051125728 0.055723224 0.0043022605 0.061654594
-0.14574006 -0.11188919 -0.10601784 0.16992734 -0.114856236 0.14467038 0.13849778 -0.022015208
-0.019862209 -0.12816598 0.10652793 -0.014380665 0.041632626 -0.021393439 0.080718495 -0.122475505
0.024999818 -0.008294014 -0.0070733055 -0.044504523 0.08164452 0.018090542 -0.13041623 -0.084492534
0.13477479 0.122837804 -0.091896586 -0.044379607 0.05027293 0.021475343 -0.015967874 0.05315024
-0.08565577 0.18259491 -0.0082070725 0.087964766 0.12635364 -0.0870028 0.1151132 -0.012320405
-0.026347166 0.05988487 0.04610385 -0.06654792 0.08133504 -0.042664263 -0.14876804 -0.07372628
0.0696959 0.02888193 -0.0598503 0.10469179 -0.08063503 -0.115425445 0.05670868 -0.028411362
-0.1463713 0.07137376 -0.0020867025 0.13119163 0.13972247 0.046564378 -0.088943064 0.024631722
-0.03504742 0.049844153 0.030938998 0.0017485106 -0.12578899 0.07439576 0.05603593 -0.07246005
0.03731993 -0.04489044 -0.060514774 0.057114746 -0.09869935 -0.053124454 -0.07794516 -0.17854121
0.10021994 0.07135526 0.07443012 0.03745164 -0.054071598 0.006054655 0.03264361 0.037302036
-0.14105581 -0.091983624 -0.028204232 0.13490416 0.08774658 -0.08192334 -0.10061125 -0.07453704
-0.00048168024 -0.058550917 -0.0005850137 -0.091581605 0.026964992 -0.04305334 0.007858811 0.098280266
0.07605662 0.072072335 0.026774509 -0.033285815 0.11268947 -0.010499491 0.038308505 0.09427138
-0.1264209 -0.06863846 0.13957842 0.05162166 -0.0025129393 -0.112624474 0.05442934 -0.03570111
0.05047071 -0.103557006 -0.007490855 0.081443116 0.13979672 -0.087287776 0.13054672 0.07774888
0.14748242 -0.06931662 0.084868215 0.19039518 -0.12390886 0.11296329 -0.17102444 0.11190074
0.03861565 0.0060836934 0.048961274 0.15070118 -0.0015445753 0.09930615 0.06692293 -0.14780954
0.05506485 -0.06231017 -0.003493494 0.10126224 -0.06558924 0.024220532 0.040088788 0.06675255
0.13019846 -0.09221077 0.12380464 -0.043985777 -0.03286932 0.07522746 0.034259796 -0.12359098
-0.06979256 0.021018475 -0.10671167 -0.03277744 0.1950382 0.05424337 -0.058247797 0.021700043
0.00864058 0.061254248 0.020836884 0.030342199 -0.061243232 -0.021828782 0.08831677 -0.036019977
0.0005678845 0.017836342 0.051411707 0.018898468 0.06638976 0.12357615 -0.030596605 -0.1275755
0.11519939 0.0727944 0.082245395 -0.070686705 -0.046398107 0.010766855 0.032262363 -0.056687295
-0.107290864 0.11324887 0.05767131 0.07522638 0.10716133 0.01029734 0.06266672 -0.07412063
-0.015792537 0.15458801 0.080649324 -0.0893128 0.01334343 0.10306936 -0.13025716 0.044139173
0.12496513 0.095135055 0.0030017113 0.0729356 0.18671331 0.1540536 -0.028698796 0.06306251
0.08087177 0.105128154 -0.0079677645 -0.013242537 -0.06047487 -0.09944248 0.01987712 -0.12182763
0.10144913 0.10093138 -0.036019556 -0.08411368 -0.06716486 -0.09408 -0.0061737252 -0.004896666
-0.057978414 -0.11164212 0.11834747 0.028286692 0.14859228 0.11305994 -0.021688182 -0.16904132
0.0611375 0.16946617 -0.07689459 -0.03451427 -0.07583252 -0.06526975 0.039235827 0.110672764

lstm.weight_hh_l0 f4 [228, 57]
00000000: 5618 b8bd f9ef eb3c 949f a4bd f24f 16be
00000010: 5293 61bd 9cd7 313d 2a0c d83d eb88 66bd
00000020: 214c dfbc 5941 1ebd e8bc 61bd d40f 24bd
00000030: e7fe 7a3c 3d7b a43d ff30 25bc 3cfb c4bb
00000040: 2ccd bbbd 988d bdbd c236 ec3d 8d84 94bd
00000050: fe58 b13d 454d 993d 011b 5e3d e9c5 0ebe
00000060: a936 073e 61e1 a4bc 8631 1abe 93c8 00bd
00000070: c6ef 9f3c 9bbe f3bd 0ef9 283d afbd bdbd
00000080: c8bb c83c 208b 20be dd19 003d 777d 23bc
00000090: bce3 9b3c 4c0b 093d f523 1f3c 0f6e c0bd
000000a0: 1e6b e6bd b637 bd3d d498 3d3d 7a03 c1bb
000000b0: 68a1 2d3d 8fe4 44be 7863 6cbc caf5 2d3d
000000c0: 2098 7d3c 70d7 033c 60ab 11be d01c 8e3d
000000d0: db7c 9dbc a121 e9bd 14eb 8cbd a73d 68bd
000000e0: 7586 9bbd 0efc b83c 7d8b 04bd 35a6 113c
000000f0: 8fb6 a3bd 4f6e 503e bd25 b2bc 7a4c 253e
00000100: 4dda 393d 1267 823c e1f9 943d a8bf 783e
00000110: c3e7 30bd 49f1 31bd c01b 4c3e bf0b 0a3c
00000120: 8aad 033e ebd8 cc3c 21a0 353d a551 83bb
00000130: 8595 59be 9f6e 153e b5a0 f73d 3baa 10be
00000140: 0ee6 fdbc 1f35 dc3d 62f9 f63c 6a68 4c3e
00000150: 6993 b63d 24ab 323d e0b3 c3bd 811b 01be
00000160: 4c57 3b3e 670c 2a3e 6d2e c8bd 3733 1bbe
00000170: d925 a93d 33bf ac3c 4fb8 7d3d 672b e1bd
00000180: ac10 95bc b027 a3bd 49b9 713c 6ccb 5fbe
00000190: 6daf 983c 155f 473d 88d9 49bc 616e 5f3d
000001a0: c37a db3d f23e d13c 4248 543e 6c5f d1bd
000001b0: 8f4f 863d 2d77 c9bd d513 103e bf7e e93d
000001c0: 0ab9 823c cb01 243e ecfa c6bd 44e8 923d
000001d0: defc 053e 7894 67bd 00a7 51bd bc2a 7a3d
000001e0: 6b37 063e 993e 5d3e 0bb3 553e 2f3b 233e
000001f0: dd75 a9bd cfb8 24bc 0cd5 36be e9a4 1f3e
00000200: 8d5c 053b a081 49bc abf7 893d 30f7 b1bc
00000210: 66d1 56bd ad14 313d b3c8 603d 9e1b fabc
00000220: ee86 9b3d d507 38bd f474 053e 8951 0dbe
00000230: c9f4 40bc 7aea 4a3c 9a14 49bd 020d 5fbd
00000240: c663 0ebe 9384 93bd b773 b03a 6691 b6bd
00000250: 9d25 d3bd e453 bb3d b16f ccbc 50cc 363d
00000260: fe68 133e 9217 08bc 5fe4 9dbd fd9b d23d
00000270: f5d3 d2bd fd4f eabd 3a9f cfbc 2efb 0bbe
00000280: 823c 913d 4a5c 8ebd e5a2 223d 8b3a 103e
00000290: 6971 363b 8e42 be3d a5d5 79bd 7d93 f83d
000002a0: 034a 023e 914a cb3d f001 2f3e 6990 b4bc
000002b0: 4618 3c3d 3853 22bd 113c 06bd 32fa 1d3c
000002c0: 2e4e 1f3d 235f a13d c3e2 403e 3c44 e53d
000002d0: 2261 dd3d 9998 2d3e 26a6 eabd f703 b93d
000002e0: 1a5f 4cbb 2359 25bd aa7d ef3d 750c a73c
000002f0: 68f0 093e 5808 2fbe bd23 0ebe 6c9c 61bd
00000300: 5241 223d 7ca1 e8bc 4ce7 54be d800 273e
00000310: 2b0d 183c 038b a13d 19e5 a7bd 4836 b7bd
00000320: 9fc6 37bd 6f10 e8bb 17af 393e 1101 693c
00000330: 15ab 7abd afa9 2abc 718f 873c 20b1 b3bd
00000340: 3259 afbd 6085 ff3c 8c50 13bc 3865 a1bd
00000350: cb78 533b 62d2 c2bd 6505 6cbd 0e7f b43d
00000360: 6700 b3bd 3d4e 893b ee40 74bd c765 01bc
00000370: 41d7 7d3d 211b 5abe 714f 1b3e a6e2 05be
00000380: 0e6b 563d b044 b93d fab5 1fbc fa91 5b3e
00000390: a0ee 35be ff6c 7cbd f96a f93d 67e9 7dbc
000003a0: d425 193e 1f93 cdbd 8e95 fc3b 9057 ee3c
000003b0: 2e20 1cbd bdf2 133e 5f84 e4bc 2f33 8dbc
000003c0: 0d6d 80be 163a 333d 36b4 2a3e 0f6c 5a3d
000003d0: 936c 2bbb 8783 d93d dab4 d8bc 0177 c6bd
000003e0: 6ab6 353e 4452 7abd 994f 1c3d a071 3a3b
000003f0: 492a c13d 341a 1abe 699e fbbc 4c4f 68bc
-0.08989017 0.028800951 -0.080382496 -0.14678934 -0.055072136 0.04341851 0.10549195 -0.05628292
-0.02725798 -0.03863654 -0.055111796 -0.040054157 0.0153195625 0.08031318 -0.010082482 -0.006011395
-0.09169993 -0.092555225 0.11533882 -0.072518446 0.08659552 0.07485441 0.05422497 -0.13942684
0.13204445 -0.020127 -0.15057954 -0.031441282 0.019523513 -0.119015895 0.041253142 -0.09264695
0.024503604 -0.15678072 0.031274665 -0.009978644 0.01902949 0.03345804 0.009713163 -0.09395992
-0.112509 0.09239142 0.046288326 -0.005890307 0.042390257 -0.19227813 -0.014428012 0.04247073
0.015478164 0.00804697 -0.1422553 0.06939089 -0.019224575 -0.11383367 -0.06880775 -0.05669942
-0.07594005 0.022581127 -0.03235959 0.0088897245 -0.07993805 0.2035458 -0.02174651 0.16142455
0.045374203 0.015918288 0.07274223 0.24291861 -0.043189775 -0.043442998 0.19932461 0.008425652
0.12859169 0.025005778 0.044342164 -0.0040075355 -0.21248443 0.1459298 0.12091199 -0.14127438
-0.030993488 0.107523195 0.030148212 0.19961706 0.08914835 0.043620244 -0.09555793 -0.12608148
0.1829502 0.16606294 -0.0977448 -0.15156256 0.08259172 0.021087265 0.06194335 -0.109946065
-0.018196426 -0.07966554 0.014753648 -0.21854943 0.018638337 0.04867466 -0.01231993 0.054548625
0.10716774 0.02554271 0.20730689 -0.102232784 0.06558143 -0.09837184 0.14070065 0.11401128
0.015957374 0.16016309 -0.09715828 0.071732074 0.13084742 -0.056538075 -0.051184654 0.06107591
0.13107078 0.2160591 0.2086908 0.15940545 -0.08274434 -0.010053827 -0.17854708 0.15590252
0.0020349354 -0.012298971 0.06736692 -0.021724313 -0.05244579 0.04323261 0.0548789 -0.030530747
0.07594095 -0.044929344 0.13032895 -0.13800634 -0.011777111 0.012385005 -0.049091913 -0.054455765
-0.13905248 -0.07203021 0.001346222 -0.08914451 -0.103099085 0.0914686 -0.024955602 0.04462844
0.1439552 -0.008306401 -0.07709574 0.10283659 -0.10294334 -0.11441038 -0.02534448 -0.13670036
0.07091619 -0.069511965 0.03970613 0.14084832 0.0027838594 0.09290038 -0.060994763 0.12137506
0.12723546 0.09926332 0.17090583 -0.022041516 0.045921586 -0.039630145 -0.032772128 0.009642171
0.038892917 0.07879474 0.18836503 0.11194655 0.10809542 0.16952743 -0.114574715 0.09033959
-0.0031184615 -0.04036821 0.116938904 0.020391682 0.13470614 -0.17093027 -0.1388082 -0.055080816
0.039613076 -0.028397314 -0.20791358 0.16308916 0.009280483 0.078878425 -0.08197994 -0.089459
-0.044867154 -0.007082037 0.18133198 0.014221446 -0.061198313 -0.010416432 0.01654789 -0.08774018
-0.085619345 0.031191528 -0.008991372 -0.07880634 0.0032268043 -0.095127836 -0.057622332 0.08813296
-0.08740311 0.004190235 -0.059632234 -0.007897801 0.06197286 -0.21299411 0.15167023 -0.13074741
0.05234819 0.09046304 -0.009747976 0.21442404 -0.1776681 -0.061627384 0.121786065 -0.015497542
0.14955837 -0.10037827 0.007708258 0.029094487 -0.038116626 0.14448066 -0.02789515 -0.01723632
-0.250832 0.043756567 0.16670308 0.05332571 -0.0026157245 0.1062079 -0.026453424 -0.09690667
0.17745367 -0.06111361 0.038161848 0.0028449073 0.094318934 -0.15049058 -0.030715184 -0.014179062

lstm.bias_ih_l0 f4 [228]
00000000: fc7e 83bd 96c3 f9bc 901c 7c3d addf 6d3d
00000010: 9947 013e 674c 6bbd 5685 bb3d e95b fe3d
00000020: 0bd6 82bd 1fc7 c43d 9d06 ddbd fe27 043e
00000030: 9a9c b23d 5b54 44bd 1fc0 eebd ba24 5a3c
00000040: 242d 603c 854e d43c 6ce9 d6bd 96ce 6ebd
00000050: 5195 2d3d aec4 0dbe 78f5 a33d b958 2bbd
00000060: 7595 fd3d 5392 203d 73e6 d2bd 3e18 95bd
00000070: af49 ab3d d521 05bd d593 943d 7bda 833c
00000080: 5c8a 03be 3f66 c03d 2212 513d b4c5 edbd
00000090: 52f2 bb3c dae8 07be 54ba 1c3e 5306 05be
000000a0: 1ad6 c2bd f973 533d d8b4 c1bd a4b2 2abb
000000b0: ff0c 9ebd e09e 8bbd 0ca9 533d 935a bebc
000000c0: a0d7 a33d a44b ad3d f87a bbbd 17fb 7e3c
000000d0: 81aa edbc 2465 043e 3d15 a63b 0468 fcbb
000000e0: 4dfa 5abc 0614 d63d 5168 4e3d 7b39 1e3d
000000f0: 7cc2 a1bd 4df5 27bd 7fab 3d3d 55ea 6d3d
00000100: c0f0 dfbc c296 7abd a80c 65bd b75e babd
00000110: bc8b 783d aebc 233e 9f2c 2e3d 345e a4bd
00000120: d10d a1bd aefd 8b3d 3a83 0abc 57e1 eebd
00000130: 97f5 503d a4f4 813d 7a71 7f3c 3a17 3dba
00000140: 96b0 8cbc 996d 143e eb6f 173e 0a4b 863d
00000150: 0aeb f73d 7473 02be dbe4 333e 42e2 713d
00000160: e51e 2dbd 44a4 5ebd c890 89bd 2391 943d
00000170: f00d 803d e41e 903c 3d01 913d 2796 fc3b
00000180: 78f9 b73d fb16 c63c 3127 8b3d a740 d83d
00000190: dcfa af3d e888 a4bc 1663 35bd a2d3 e4bc
000001a0: 2de1 84bc 9b1a 20bd b436 cd3d 1f5e dbbd
000001b0: 8ebc 2fbd 6f34 f33c 4653 bf38 1b55 e6bd
000001c0: 6851 b73d cfe5 13bb 6130 5fbe 8dfe e1bd
000001d0: b182 a83d 861b fabd fe27 8dba fc1c 8b3d
000001e0: 4b27 243e 3aac 523e 7ae3 d0bc 1507 4a3e
000001f0: d1ad 0e3e d14a 30be 0ea4 6f3d d191 8b3d
00000200: c1b0 453e 8ca5 b93d 878b b13b 7725 0eba
00000210: 0b08 243d 9ccf d2bd efb9 2f3e 4f76 1ebd
00000220: 5c09 d6bd 090b 96bb 3522 403e 94bd 61bd
00000230: e642 0d3e 1218 b03d 06a8 27bb aa1d e03d
00000240: 5f0f 95bc dbb1 d03d 3dec 76bc fd7b a6bc
00000250: 1b76 92bc cb50 6a3d 5321 79bd 9d00 6c3c
00000260: 8d04 9f3d e8d5 84bc b3ce 09be 036c aabd
00000270: 3911 25be dbf8 21be 4d39 78bd 307e b4bb
00000280: 7dc4 c4bc fc27 0c3e bd91 193d 3922 5a3e
00000290: c83f 70bd ae12 333e be75 34be 2278 9abc
000002a0: 8ca5 193e 7919 e03c e06d 3f3d 8296 3c3e
000002b0: 0ba6 b03d 4a16 663d 121e efbd 17d5 f23c
000002c0: 967c a33d 1183 3c3e f98f 0e3e 25f9 e43d
000002d0: 152d 48bd 5991 06bb ac04 fdbb 865b ac3b
000002e0: 7a9a b73d 8b2f c13d 34e3 9d3d e484 bebb
000002f0: af2c 26bd 8a43 c73d 4c4d dd3d 702f 05bb
00000300: 4645 f63c 3f08 9e3d 382a 103e 645b 9d3d
00000310: f1f3 83bd 8fbd b9bd 95c4 88bd 56b7 8f3d
00000320: 3739 293e 8e4e b1bd f809 d33d 303e d43d
00000330: d24a e93d 163a 2c3e 817d 453c b496 bfbc
00000340: 7e84 1fbc 18ea cc3d 7d55 27bd 7ea9 593d
00000350: 9eda 463c 8c33 93bd a6ca b23d 2b6c ab3d
00000360: 8b7a 83bb 53e4 93bd a3a3 fc3c 8e8b fabd
00000370: d9f4 c3bd 66b7 ccbc e117 993d e744 d0bd
00000380: 20b8 043d f5ef 063d 6056 0bbe ba87 3fbb
-0.06420705 -0.03048877 0.061550677 0.058074642 0.12624969 -0.05744591 0.09156291 0.12419874
-0.06388482 0.09608292 -0.10792277 0.12905881 0.08721276 -0.04793201 -0.11657738 0.01331442
0.013682637 0.025916347 -0.104937404 -0.058302484 0.042378727 -0.13844559 0.08005804 -0.04183266
0.12382022 0.039202046 -0.10297861 -0.072800145 0.083636634 -0.032502968 0.07254759 0.01609539
-0.12845749 0.09394502 0.051042683 -0.116099745 0.022942696 -0.1327242 0.15305454 -0.12990694
-0.09513493 0.051624272 -0.09458321 -0.002604642 -0.077173226 -0.068174124 0.051674888 -0.023236549
0.080001116 0.08461693 -0.09154314 0.015562794 -0.029011967 0.12929207 0.00506845 -0.0077028293
-0.01336534 0.10453038 0.050392453 0.038629036 -0.07898423 -0.04100542 0.04630613 0.058084805
-0.027336478 -0.06117893 -0.055920273 -0.09100097 0.060680136 0.15989944 0.042523023 -0.0802578
-0.078639634 0.06835495 -0.008454138 -0.11664074 0.051015463 0.063454896 0.01559102 -0.0007213239
-0.017174046 0.14494933 0.14788787 0.06557281 0.12105377 -0.12739354 0.1756777 0.059053667
-0.04226579 -0.054355875 -0.06717068 0.07254245 0.06252658 0.017592855 0.07080314 0.0077083292
0.08983129 0.02418088 0.067945845 0.105592065 0.085927695 -0.020084813 -0.04428395 -0.027932946
-0.016220653 -0.039087873 0.100201994 -0.107113115 -0.04290443 0.029688088 9.1231006e-05 -0.11246701
0.08951074 -0.0022567397 -0.21795799 -0.1103488 0.082280524 -0.12212281 -0.0010769365 0.06792638
0.16030614 0.20573512 -0.025499094 0.19729264 0.13933493 -0.1721604 0.058506064 0.06814922
0.19305708 0.09064779 0.0054182443 -0.0005422453 0.040046733 -0.102935046 0.17160772 -0.038687047
-0.10451004 -0.004578952 0.18763049 -0.055112436 0.13795051 0.08598341 -0.0025582328 0.10943158
-0.018195806 0.10190173 -0.015070972 -0.020322794 -0.017878583 0.057205956 -0.060822796 0.014404443
0.0776454 -0.01621528 -0.13457756 -0.08321383 -0.16119851 -0.15817587 -0.06060152 -0.005508207
-0.024019474 0.13687128 0.037492502 0.21302117 -0.058654577 0.17487594 -0.1762304 -0.018856112
0.15004557 0.027355896 0.046735644 0.18416789 0.0862542 0.0561736 -0.11675657 0.029642625
0.07982747 0.18409373 0.13922109 0.11180333 -0.04887112 -0.0020533411 -0.007721504 0.005259934
0.08965011 0.09432896 0.07709351 -0.0058141816 -0.040569957 0.09729679 0.10805759 -0.0020322464
0.030062329 0.077164166 0.14078605 0.07683447 -0.064430125 -0.090693586 -0.0667812 0.070173904
0.16525732 -0.08657561 0.10304636 0.10363424 0.11391224 0.16819033 0.012053848 -0.02338729
-0.009736178 0.10005587 -0.040853012 0.053140156 0.012137083 -0.07187566 0.08730058 0.08370241
-0.004012411 -0.07221284 0.030839747 -0.12233649 -0.09568185 -0.024989795 0.07475258 -0.10169392
0.032402158 0.032943685 -0.13607168 -0.0029225186

lstm.bias_hh_l0 f4 [228]
00000000: 4713 a03d de1f 77bd 8885 ddbd 7895 dabd
00000010: 0292 d63a 54e8 d7bd 6205 0c3b f1c7 ebbd
00000020: 8b62 b0bd 73ea 84bd 4d5e dabd 222d 7ebc
00000030: 17e7 783d 0fc6 8a3c b7ad d5bc fcae cf3b
00000040: f0f8 0fbd bcad 5b3d ee39 adbd fd9d 44bc
00000050: c05e 9d3d e0a3 9c3d c101 0b3e 040c e8bc
00000060: 218c 0e3e 6ff3 1d3d bc5d 55bc d441 febd
00000070: 49e8 5b3d 1cc5 c23d 3e6b ba3c 66ea 583d
00000080: 51cf f6bd 92ef 7ebc 3b81 bcba adfe a73d
00000090: 99d8 0bba b4f6 7f3d 25c9 8dbd 07c5 f6bd
000000a0: 5ed3 043c 4fb6 2f3c 3f11 b23b f9a6 91bd
000000b0: a045 8fbc 0cf7 cf3d 8226 48bc 3415 af3c
000000c0: b815 e53d 52cf b83d 9d0c c23d c502 933d
000000d0: 0edd ca3d 9342 693d ecd5 3bbd cb1c 8bbd
000000e0: 9bbc 82bc 6b07 80bc 7784 a33c ebe4 013e
000000f0: 2233 363d eda3 94bb b87f ec3d dfa7 a23c
00000100: 1c29 95bd 01a8 46bc 12a4 6e3d 6499 f1bd
00000110: 7bbe 0d3e ffc9 91bc d659 aa3b d360 07ba
00000120: b7f3 eebd 92ee 723d 1a2d ffbd ff23 883d
00000130: 7275 193d 395f c53c 604c a7bd 6ebb 9cbd
00000140: 9cd5 e33d 1766 013e 5c0f 973c dd35 1b3e
00000150: b1ba a3bd a1b7 863d 347c 4a3b 49ec 83bc
00000160: 1297 323d 36f0 a53d d2f8 cbbd 8b75 6fbd
00000170: 020d 3c3d 4aff 113e 7165 e0bd 4395 7cbd
00000180: ba2a 92bd 152c ccbc 1bdb cebd ff9c 0f3e
00000190: 4572 f23d 954f 29bd d2fe 223e 0911 d6bd
000001a0: edda 383d c5c4 d2bd dfbf 58bd ace1 77bd
000001b0: df7e f73d ccfc 863d f134 d13d d9c2 1d3d
000001c0: 4432 ae3d 49ff 183e 6cea 41bd 182b 43be
000001d0: c36c 5d3e 3b0b f8bc f8bc 023e a37c 11bd
000001e0: 4462 4f3e 4bdb 153e 2bf7 3e3d 1cf8 003e
000001f0: 5b85 c33d ed8a 2abe 7932 debd 7ccf 0ebd
00000200: 7e73 e33d 4772 a83d f107 5a3e cdae cfbc
00000210: 7738 3cbd ffd2 24be 040e c73d 4058 b43d
00000220: 8dcd a33b 09c5 18be 0aa0 5c3c 0c7a 16be
00000230: 447a e9bb 3ef2 a93d 5f92 65bd c947 4c3d
00000240: 2a67 9ebd a14c f03d a74b 3ebd 342e 31be
00000250: f7c2 23be 6046 193e d23d 45be b6ef e4bd
00000260: 4be5 1cbd 1226 17be 0eea 38be f8a2 c1bd
00000270: ef69 b0bd f6db 01be fa5d e6bd ca77 57be
00000280: 8e9f 123e bc86 bf3d d99a 963d 1dbb 38bb
00000290: 7c82 a3bd 0b3d e83d f5bf cdbb bf4d 483e
000002a0: 51bc b03d 8bb6 7ebd 6171 ee3c 315a a33d
000002b0: 675d b6bc b85e 363d 645a f33d 4a9d 3b3e
000002c0: 1e0c 75bd a27c 64bb 79ce a1bd e48f c93d
000002d0: 5c84 d53d 986b 71bc 760c a5bc e912 9d3d
000002e0: 8d63 053e 6088 d0ba ba21 963b b408 263e
000002f0: 3fd4 a3bc 359a a8bc 8287 fe3d cfd0 01be
00000300: bf86 653d 7981 833d 2e15 c43c fa98 c6bd
00000310: ab5f 663d 5463 f93d b3c0 79bd 3029 b8bd
00000320: 7ee9 283e a042 70bd da01 d13d 401c 863d
00000330: 928c cabd 21e2 98bd e145 16bd 926f fb3d
00000340: 9c80 0b3d 506c 243e b92b 51bd 8bd1 b33d
00000350: 5cdf eebd 4d2d 053e 4fe8 56bd 5c03 0c3e
00000360: 9b00 2ebc 917d 13bd 7185 10bd e6e6 a13d
00000370: dde3 143c c4f5 77bd 2ae4 603d b842 853d
00000380: b30d c93d c5a4 85bc fe7d c7bd c22f 6a3d
0.07816177 -0.060333125 -0.10816485 -0.1067304 0.0016370418 -0.1054236 0.0021365513 -0.11512745
-0.086125456 -0.0649003 -0.10662518 -0.01551369 0.06076726 0.016940145 -0.02608381 0.0063379984
-0.035149515 0.053632483 -0.08458315 -0.012000558 0.07684088 0.07648444 0.13574888 -0.028326042
0.13920642 0.038562234 -0.013022836 -0.124148995 0.05368832 0.09510252 0.022756215 0.052957915
-0.12051261 -0.015560048 -0.0014381775 0.082028724 -0.0005334705 0.062491134 -0.06923131 -0.12049299
0.0081070345 0.010724618 0.005434185 -0.07111926 -0.017489254 0.10154542 -0.012216212 0.021372415
0.11185783 0.09023918 0.09475062 0.071782626 0.09905444 0.056948256 -0.04585831 -0.06792601
-0.015959075 -0.015628537 0.019960625 0.12684982 0.044482358 -0.004536143 0.11547798 0.019855438
-0.072832316 -0.012125016 0.05826194 -0.11796835 0.13842194 -0.017796515 0.0051986976 -0.0005164269
-0.11667579 0.05930955 -0.12459774 0.06647491 0.03746552 0.024093257 -0.08168864 -0.07652937
0.11124727 0.126366 0.018439941 0.15157266 -0.07994593 0.06577993 0.0030896785 -0.01610388
0.043601103 0.08102457 -0.09959568 -0.058461707 0.045910843 0.14257541 -0.109568484 -0.061665785
-0.07137056 -0.024923364 -0.10100385 0.14024733 0.118382014 -0.04133566 0.15917519 -0.10452468
0.04513066 -0.10291437 -0.052917358 -0.06051795 0.120847456 0.06591186 0.10215176 0.0385159
0.08505681 0.14941134 -0.047342703 -0.19059408 0.2162352 -0.030278793 0.12767398 -0.035519253
0.20252329 0.14634435 0.046622436 0.12594646 0.0954692 -0.16654558 -0.10849471 -0.03486584
0.11106013 0.08224922 0.21292092 -0.025351906 -0.045952287 -0.16096114 0.0971947 0.08805895
0.004998869 -0.14918913 0.013465891 -0.14694995 -0.007125171 0.08298157 -0.056047793 0.049873147
-0.07734521 0.11733366 -0.046458866 -0.17302781 -0.15992342 0.14968252 -0.19261864 -0.11178534
-0.03830461 -0.14760616 -0.18058035 -0.09454912 -0.08613955 -0.12681565 -0.11248393 -0.2104179
0.14318678 0.093518704 0.073537536 -0.00281877 -0.07983872 0.11339768 -0.0062789866 0.19560908
0.086296685 -0.062185805 0.029106798 0.07976187 -0.022261335 0.044523925 0.11882475 0.1832172
-0.05982601 -0.0034864326 -0.0790071 0.09841898 0.10425636 -0.014735125 -0.020147543 0.076696225
0.13026257 -0.0015909784 0.0045816572 0.16214257 -0.019998668 -0.020581344 0.1242819 -0.1267731
0.056036707 0.06421179 0.02393588 -0.09697147 0.05624358 0.121771485 -0.060974788 -0.08992231
0.1649532 -0.05865729 0.10205431 0.06548357 -0.09890093 -0.07465006 -0.036687735 0.1227714
0.0340582 0.16056943 -0.051067088 0.087802015 -0.11663696 0.13005562 -0.05246764 0.13673156
-0.010620262 -0.03600842 -0.03528351 0.079053685 0.00908753 -0.060537115 0.054905094 0.06506866
0.09817066 -0.01631392 -0.09740828 0.05717445

lstm.weight_ih_l1 f4 [228, 57]
00000000: c5c3 0cbc 5e89 8c3c c034 25bd 4443 4cbd
00000010: 2b4f 9bbd 4bc3 b73d 6962 bcbc 6ccb de3d
00000020: a98a 9e3c b879 6b3d c92e 8e3d 0a42 07be
00000030: e08d b6bd 77e3 013e 30a3 753d a706 c93d
00000040: 7499 a03d ad79 31be 3178 89bd 2864 3f3d
00000050: 89de 9f3d 36b1 14bd d132 a3bc e4e6 59bd
00000060: 7b8b 0e3e 4336 02be bfa6 a13d 1ad7 eb3b
00000070: a2c9 a4bd 681a b0bd 5c3d a7bd e5cf 053e
00000080: e1f6 5abc 492b 44bd facc 16be 58bd 70bd
00000090: 451f 34be f47b f9bd ec43 15bc 5de3 33bc
000000a0: 768f 7dbd 1f7f e43d 6ec0 a23d b64a 453d
000000b0: e50f 77bd d304 3fbe 57bf c43c dee6 1a3d
000000c0: 03dc 813d f208 25bb f9bb c03d 3b32 36bd
000000d0: a30e 96bc 569c d1bd 7654 033e fbab 063e
000000e0: ff4d c5bd f037 96bc 3d47 eebb 0b11 943b
000000f0: ee4d 4abc 4bfe 473d 46e0 76bd 422f 113e
00000100: fa45 a83d 04b6 d63d 8aff 73bd f8ee 8d3c
00000110: 681c 30bd 4a81 093d 4f07 d0bd 45c3 d33c
00000120: 0518 a33d 7eb0 073d 78c3 a53d 7475 b1bd
00000130: 725d 3c3e 82f7 9ebd 7598 6eba a640 2bb9
00000140: 17f8 46bd 213e 8f3d 9f4d d73d 28f5 813d
00000150: c112 3b3d c7ce 003d 2c23 78bd 9686 9ebd
00000160: 0221 7a3d e2c7 963d 4a3d a8bd b62c bcbc
00000170: 4ff2 debc 0e7a 51bd 852f d23d 26cd 023d
00000180: 15c3 1f3d af8d 14bd 9aab dfbc cc81 93bd
00000190: 2be8 223e 56d5 153d 6e56 863d b9b5 29bd
000001a0: 1861 6b3d c540 ba3c 5823 8bbd f33e 9b3c
000001b0: 442b 71bd d919 743c 4b0e 10bd 286c 48bd
000001c0: 33b7 423d 283d e6bc 9532 3dbc 9bb1 273c
000001d0: 3691 9c3d b002 6b3d 7602 083d 8c46 f1bc
000001e0: f4fa 35ba 349f 1ebe 7a2e 8c3d 56b8 0dbd
000001f0: 2e48 0abe f839 56bc 4140 793d 746f b1bd
00000200: a6d9 923d 0253 2dbd 94ae 2d3d 69d8 6c3d
00000210: 9633 923d 4b70 293c d732 ad3c d235 693d
00000220: 3647 4b3b 516b 153e c921 84ba c296 45bb
00000230: d03b f03d e69c 08be 1284 b33d c02b bc3a
00000240: 548c 0a3d d15f dc3d d0f2 c1bd d02d cd3c
00000250: 4dcd adbd a47c 40bd b22e 063e dd51 0ebc
00000260: 539c 533e 2891 f1bd b41a 21bd 379d b43d
00000270: 4848 af3d e107 c53d bcf7 05bd 9843 123d
00000280: 1e4d 9f3b 83a6 58bd 26fa 443d a33f 29be
00000290: 99c3 6a3d 8803 ba3d cacf 27bd d1c1 e639
000002a0: ba9d c53d 8af1 d03d e787 16be 64aa a33d
000002b0: ea4a 153e b43e 8dbd 88c8 f8bc a773 d6bd
000002c0: 8690 833d d432 0dbd 1822 8dbd d0e4 d63d
000002d0: 8b2b 02be b673 e1bc 1d95 a7bd c7e7 fc3d
000002e0: b1a7 3dbe 1a68 0cbe 2abb 143b aa6b ff3b
000002f0: 253d d9bd 2fbf d83c 9fab 313e f805 7bbd
00000300: 46b1 373d b4e6 263e 9dc4 f83d c48a 81bc
00000310: c3f3 f53d 0c5f d8bd a4a9 d53d 9f62 69bd
00000320: d616 cc3d 3433 2dbd ff8e c43d 6cb1 1cbd
00000330: c9e3 cf3d fa92 f73c 9578 00be ba1c ea3d
00000340: 0866 7f3d 3c8d c03d a642 f5bd e8a3 a33d
00000350: 0000 583d 9472 943d de68 3c3d 7dfe bfbc
00000360: b31f 29bd 555b 9b3b 1992 0bbe e57c 3dbd
00000370: 90f2 94bd cb34 4bbb bb37 c1bd e52b fb3c
00000380: c799 84bd 6b40 4cbd 949e 45bb bd13 6d3a
00000390: eab2 15bd 7b87 613d 14d0 1dbd db56 123e
000003a0: 2b23 f6bd baf5 f3bd 516a 5d3d 2675 fe3c
000003b0: 4d55 9ebc f78f a53d eb4e 05be dc37 fdbc
000003c0: 8780 043e 4d9e b4bd 4ae0 dfbd b667 e8bd
000003d0: ba89 9fbd d0c6 ae3d e808 1f3e 449d 0e3e
000003e0: a138 973d 1efd 1abd 661e f63c 14cd 6dbd
000003f0: b3f2 02be 22bc 0a3e 3c9a f93d 1e9b 0ebe
-0.008591597 0.017155346 -0.04033351 -0.049868837 -0.075834595 0.08972796 -0.022996144 0.108786434
0.019353228 0.057489127 0.06942517 -0.13208786 -0.08913779 0.12684427 0.05997008 0.09815722
0.07841769 -0.17331572 -0.06712378 0.046726376 0.07806117 -0.036301814 -0.019921692 -0.05319871
0.13920395 -0.12716012 0.078931324 0.007197273 -0.08046271 -0.085987866 -0.08166 0.13067587
-0.013364525 -0.047892842 -0.1472663 -0.058774322 -0.17590053 -0.12181845 -0.009110432 -0.010979501
-0.061904393 0.11157059 0.07946859 0.048166953 -0.060317893 -0.18654184 0.02401702 0.03781783
0.06340792 -0.0025182334 0.09410853 -0.044481497 -0.018317526 -0.10234897 0.12825188 0.13151543
-0.09634017 -0.01833722 -0.007271676 0.0045186332 -0.012347681 0.048826497 -0.060272478 0.14178184
0.08216472 0.104839355 -0.059569873 0.017325863 -0.04299584 0.033570565 -0.10157644 0.025849948
0.07963566 0.0331273 0.08093923 -0.086649805 0.18395022 -0.07762052 -0.00091016974 -0.00016331914
-0.04857644 0.06994272 0.10512852 0.06345588 0.045672182 0.0314472 -0.060580418 -0.07740514
0.061066635 0.07362343 -0.08214815 -0.022970539 -0.027215151 -0.05114179 0.1026297 0.031933926
0.039004404 -0.036267933 -0.027303506 -0.07202491 0.15908878 0.036580406 0.06559454 -0.04143307
0.057465643 0.022735963 -0.06793851 0.018950915 -0.058879152 0.014898741 -0.03516988 -0.04893127
0.047537994 -0.028105333 -0.011547704 0.010235216 0.07644884 0.05737561 0.033205472 -0.029452585
-0.0006941997 -0.15490419 0.06844802 -0.034599625 -0.13504097 -0.013075344 0.060852293 -0.08663836
0.071704194 -0.04231549 0.04240282 0.057823572 0.071387455 0.010341714 0.021142406 0.056936093
0.0031017787 0.14591719 -0.001008087 -0.0030149673 0.11730158 -0.13341102 0.08765425 0.00143563
0.033825234 0.10760463 -0.09470141 0.02504626 -0.08486424 -0.046993867 0.1310375 -0.00868651
0.20665102 -0.117952645 -0.039332107 0.08819049 0.085587084 0.096206434 -0.03270696 0.035708994
0.004861488 -0.052893173 0.048090123 -0.16528182 0.057315443 0.09082705 -0.040969647 0.00044013423
0.096492246 0.1020232 -0.1470028 0.07991484 0.14579359 -0.06896725 -0.030369058 -0.10471278
0.0642405 -0.0344723 -0.068912685 0.10492861 -0.12711923 -0.027520996 -0.08182738 0.123488955
-0.18521 -0.13711587 0.0022694566 0.007794817 -0.106073655 0.026458351 0.17350625 -0.06128499
0.044846795 0.16298944 0.12146876 -0.015813239 0.120093845 -0.10565004 0.10432747 -0.056978818
0.09965293 -0.04228516 0.09597587 -0.03825514 0.101508684 0.030221451 -0.12545998 0.114312604
0.062353164 0.09401938 -0.11975603 0.07990247 0.052734375 0.072484165 0.045998447 -0.02343678
-0.041289996 0.0047411122 -0.1362995 -0.046261687 -0.072728276 -0.003100681 -0.09434458 0.030660579
-0.06474643 -0.04986612 -0.0030154334 0.0009043774 -0.03654758 0.055060845 -0.038528517 0.14290945
-0.120184265 -0.11912103 0.05405647 0.03106172 -0.019327784 0.080841 -0.13018386 -0.030910425
0.12939654 -0.08819256 -0.109314516 -0.11347906 -0.07789941 0.08534014 0.15530741 0.1392718
0.07383848 -0.037839048 0.030043792 -0.058056906 -0.12787895 0.1354833 0.12187621 -0.1392636

lstm.weight_hh_l1 f4 [228, 57]
00000000: 6e76 2bbd 6566 d2bd d81e e8bd 49a5 c6bb
00000010: 18c5 2bbe 096b a53d 621c dd3d 75c4 0f3d
00000020: d7ad 3b3d 0c59 883d b921 7f3d bebd 8f3d
00000030: 3c5a b33d 151a 7cbd 7120 c0bc de1d 3cbd
00000040: 8e1b a5bd 5475 1d3e a829 6e3c 88df 083e
00000050: cdb8 523c 964a bcbc 05a3 a73d 27f3 29bd
00000060: 7655 09bd 16c8 dfbd d3f2 54bd d960 27bd
00000070: 6514 0b3d beba dd3b fbf1 20be 46e8 46bd
00000080: 1740 97bd 5a02 1ebe 2aab 373d 4e7a cc3d
00000090: fb49 babd b0fd 083e 653e 113e b14d e53d
000000a0: 33f6 6f3c 8ece 06bd be15 5d3d 0cb2 e13c
000000b0: eb3a acbd 592c db3d 5af6 ee3d 0743 babd
000000c0: 97bb eb3d ef11 b63d 996c 943d 2776 d4bb
000000d0: 838b 943c 6ad3 33be 93e1 343d 5487 2f3d
000000e0: 917a c23d 4629 c83d 35be 27be 7b98 fabd
000000f0: f874 973a d13c afbc c89d 413d e0f3 713d
00000100: 9f38 dfbc 0363 1bbe a7ef a8bd 00b3 01be
00000110: ca26 1e3e 0919 2d3c f458 8ebc 6fed 043d
00000120: 7cec 5a3d 72ad a3bd c160 9d3d 9a17 81bc
00000130: 97ad 923d ef1c 993d 5315 a6bd b73f 513e
00000140: 43db acbd b897 2abb 6d87 123c 54ce a83c
00000150: 3b4e 13be ac29 0b3d 3eb5 f63d c081 83bd
00000160: 3efa ccbc 77cb b3bd 3d2c 0fbe 7ab3 17bd
00000170: 553d dd3d 1899 06bc dd49 2c3e 8eec 7f3b
00000180: e15a 913d ecfa c9bd d858 3dbe 09aa e8bb
00000190: 9227 ba3d 64f2 33be 2eee a63c 86b3 9db7
000001a0: 00ce a03b e178 763c 9866 bf3b dcf6 8f3d
000001b0: d93c 2e3e 5fb8 c43d b772 65be 42de 663c
000001c0: 377a d9bc 2543 fd3d 99ec 323e 2dfe 10be
000001d0: 540b 183d ca95 c43c b2f6 9d3c 9d90 acbc
000001e0: 34af dd3d 8f21 8d3d 73a1 cfbd b93a b73c
000001f0: 9c19 36bd 7622 0b3d cbd6 0b3c efdd cbbc
00000200: bf23 943c 680f d0bd c437 0fbe f15a 103d
00000210: a73c fabd 5654 103e 1f3f 513e b912 47be
00000220: a105 1f3e 101c e7bb ae9c 893d 4a8b a2bd
00000230: 4d31 55bc de18 353c fbdb dbbb e790 203d
00000240: d80e dabb 88d1 eb3d 3074 5f3a 2d20 43be
00000250: 905d 543d 1fe7 b83c 616c 2c3d 6c6d 223d
00000260: 398d 99bc bca1 a33c 2e17 94bd e9f3 40be
00000270: 3196 28be 7104 8b3b e078 c1bd fa9b ca3d
00000280: 844b 0c3d 7d02 1ebd 1440 1c3e 03cf 99bb
00000290: 6197 1a3d df6b 923d 4bed 323e fabc a0bd
000002a0: a8b9 0cbe 07e0 273d bcb6 183e 056f 2e3e
000002b0: 89c9 ac3c f6e1 2cbb 1598 55be d73f b1bd
000002c0: b2ce 8abd 7637 69bd cf28 843d 035a 8fbd
000002d0: 4fb8 043d 99b7 6fbe 1c7b 043e 6356 4a3e
000002e0: cb1d 77bb cb26 4d3c 0791 aa3d 4ba3 adbb
000002f0: e7c5 d43d a72c c2bd 1bff 033e 3407 013e
00000300: 809a dcbd 21ea 3d3d 9822 c1bd 34f0 b53d
00000310: 03db 32be 0b17 fc3c 71c7 0cbe f8e8 e3bc
00000320: c32f 073e 3874 d5bd 8ff2 bc3b 663b 64be
00000330: 2ec2 d3bd 9da2 bbbd a241 e83d 84cb 43bd
00000340: befc 5d3e 2266 ebbc 30a7 df3d c445 2f3d
00000350: e335 36be 4ae2 82bd 1c1f 2c3e 0656 04be
00000360: bf0c 503e b830 cebd f18f dcbd d4cb e53d
00000370: 311b 36be 55e4 bdbd fe86 c53c a392 2e3e
00000380: f9cd 73bd 4018 d6bd 862a 063e 8a22 dc3c
00000390: 855e ce3a 5589 f9bd 08b9 92bd 6675 34be
000003a0: 478a 51bd 2e4f d33d 5550 07bc d0f6 55bc
000003b0: cf5a e6bc bfcc 62bd 31a7 16be e1e3 093d
000003c0: 8dab 30bc 46d6 483d 307b 5b3e 101c 12be
000003d0: ab67 3abd bb64 3bbd 0975 5bbc 3b34 803d
000003e0: 2086 d73d e2e7 aabd 118b cd3d 6e68 6dbd
000003f0: d4d5 333d a0f1 42be f174 8abc ed6a 24bd
-0.04186099 -0.102734365 -0.11334008 -0.006062184 -0.16774404 0.08077056 0.10796429 0.035099465
0.045820083 0.06657609 0.06228802 0.07018612 0.08757445 -0.06154831 -0.02345297 -0.04592692
-0.08061896 0.15376788 0.014536299 0.1336652 0.012861443 -0.022984784 0.081853904 -0.041491654
-0.033528768 -0.10926835 -0.051989388 -0.040863845 0.033954997 0.006766646 -0.15717308 -0.048561357
-0.07385271 -0.15430585 0.04484097 0.09984265 -0.09096142 0.13378024 0.14183958 0.11196459
0.014646101 -0.03291183 0.053975813 0.02755072 -0.08409675 0.10701818 0.116680816 -0.09094816
0.11510389 0.08890139 0.07247276 -0.0064838114 0.01813293 -0.17561117 0.044160437 0.04285367
0.09496034 0.09773497 -0.16381152 -0.122361146 0.0011555245 -0.021391304 0.047269613 0.059070468
-0.027248679 -0.15174489 -0.08248835 -0.1266594 0.15444484 0.010565051 -0.0173764 0.032452997
0.053448185 -0.079920664 0.0768447 -0.015758324 0.07162016 0.07476222 -0.08109536 0.20434462
-0.08440258 -0.0026030373 0.008943421 0.020606197 -0.14385311 0.03397529 0.12046288 -0.06421232
-0.025021669 -0.08779042 -0.1398172 -0.037036397 0.10802714 -0.008215211 0.16825052 0.003905091
0.07097412 -0.09862313 -0.18490922 -0.007100348 0.09089579 -0.17572933 0.020377245 -1.8799456e-05
0.0049073696 0.015043468 0.0058410875 0.070295066 0.17015399 0.096054785 -0.22407041 0.014091076
-0.026547534 0.123663224 0.17473067 -0.1415946 0.03712018 0.023997206 0.019282673 -0.02106505
0.10824433 0.068911664 -0.10138216 0.022366868 -0.044458017 0.03396841 0.008535097 -0.0248861
0.018083451 -0.101591885 -0.13986117 0.03524298 -0.122186 0.14094672 0.20434235 -0.19440736
0.15529491 -0.007052906 0.067193374 -0.079367235 -0.0130122425 0.011053292 -0.0067095733 0.03920069
-0.0066546015 0.11514574 0.0008524088 -0.19055243 0.05184704 0.022571145 0.042095546 0.039655134
-0.018744098 0.019974582 -0.07230984 -0.18843044 -0.16463543 0.004242473 -0.09446883 0.098930314
0.034251705 -0.03857659 0.15258819 -0.004693867 0.037742022 0.07149481 0.17473333 -0.078485444
-0.13742697 0.040985133 0.14913458 0.17034538 0.021092193 -0.00263798 -0.20858796 -0.086547546
-0.06777705 -0.056937657 0.06453096 -0.0699959 0.032402333 -0.2340988 0.12937587 0.19759516
-0.0037706967 0.012521456 0.08328443 -0.005299007 0.103893094 -0.09481173 0.12890284 0.12600404
-0.10771656 0.04636586 -0.09430426 0.08883706 -0.17466359 0.030772706 -0.13747956 -0.02782105
0.13201813 -0.104225576 0.00576622 -0.22288284 -0.10339771 -0.091618754 0.113406435 -0.04780151
0.21678445 -0.028735224 0.1092056 0.042791143 -0.17793994 -0.063908175 0.16808742 -0.1292344
0.20317362 -0.10067886 -0.10769642 0.11220518 -0.1778381 -0.092720665 0.02411222 0.17048125
-0.059522603 -0.10453844 0.13102159 0.026871938 0.0015744722 -0.12184397 -0.07164198 -0.17622909
-0.051157262 0.10317837 -0.008258899 -0.013059333 -0.028119473 -0.055371042 -0.14712216 0.033664588
-0.010783088 0.049032472 0.21433711 -0.14268517 -0.04550902 -0.04575036 -0.013394603 0.06259962
0.10523629 -0.083450094 0.100362904 -0.05796092 0.043905094 -0.19037485 -0.016901465 -0.040141035

lstm.bias_ih_l1 f4 [228]
00000000: 7768 26bd a890 2a3d 4a99 b33d 0763 68bd
00000010: ac42 1a3e 5ef0 5d3d 4081 903c 5f01 b13d
00000020: 1b27 bcbd 5424 b23d c9a1 52bd c3af d53d
00000030: 0ffb 34bd dce0 8b3d 2657 34bd e33e 3e3d
00000040: 6fb1 73bd 7d5d 2539 0370 71bd 3f2f 483c
00000050: 45dd 883d 67bc b73c 9140 733d 9521 9b3a
00000060: 9100 2a3e 12fc 273e ac80 23bd ee28 12bd
00000070: a666 e03d 684a 793d 5dd0 3b3d 5ec0 2b3e
00000080: a05c 3b3e 5baa 923d 8958 2fbc e1e9 1bbc
00000090: ffa3 343e 3b2e 033e 85e6 1f3e 7d0a a4bc
000000a0: 4d3f 9abd 910a f43d 4848 ee3d 223f a73d
000000b0: 7ba2 0d3b 78ce 1fbd 4d74 963c 3cfe 023e
000000c0: e741 1e3e ff27 153e 22de e5bd 8033 283e
000000d0: 477d 3a3e 989e ff3d efa5 a5bd 287e 0bbc
000000e0: 53d8 ef3d bf35 dc3b 01c3 333e e683 10bc
000000f0: 0596 c63d 1ea1 123e b7c2 f03d 8bec ebbd
00000100: 338d 753d 6f40 293c 7c66 623d a350 9cbc
00000110: 0e5c 603c 7204 033e a108 7f3d da75 0e3d
00000120: 85ce d03d 7a96 8abc a548 c13d 50f5 f93b
00000130: dd95 1e3c 2774 35bd a835 1d3e a044 e6bb
00000140: faa9 053e 899b 123e e6fb 983d 97f9 243c
00000150: 3d4f 083e 1b9b a53c 9044 c73c 864b 183e
00000160: 8b39 ca3d a713 403e 664a 143e e820 df3c
00000170: 0e91 9b3d 3487 133e 439c d43d 11e4 0f3d
00000180: 8db2 6f3d a202 19be ff08 2e3e 935d 07bc
00000190: 70fd 4c3e 7cad f5bd 86dc a13b 84c5 11be
000001a0: f2b5 d63d ab02 4c3c 1a6a 233e 02cb 00be
000001b0: aaf9 2e3e 508c ebbc a4bb 013e 1da2 883d
000001c0: 362a 4e3e 4030 993d 0a61 4a3e 5520 58be
000001d0: 49b5 173c e0d8 46be 9908 71bd 7f9b a4bc
000001e0: a3f1 ec3c 4928 443d 61f7 ebbd a757 28be
000001f0: 6231 04be c913 093e e42c cc3d d156 7cbc
00000200: d2ae b93d 3122 43bc b15d a3bd e0ae 903d
00000210: 0fa9 863d 613a 213d a8be 903d d537 21bd
00000220: 0b18 ee3c bbd4 d3bd 8eb4 343e 55e3 4fbd
00000230: 8226 2fbe 6059 c1bd e6dc 193d 6d72 7a3d
00000240: 4a79 47be aff6 a83d 1cc3 91bd 6a58 5dbc
00000250: 1143 09be 8ffa 9a3c a2e0 3fbe 9dbe e73d
00000260: b375 233e 47d1 96bc 8712 d5bd 31d4 1cbe
00000270: fabb 4fbc ce12 813c 5198 28bd 58c7 8a3d
00000280: 0b2d 37bd 4f88 34be 5212 403e 63ac 55be
00000290: 7918 5cbc a0e4 0e3e 0b23 2d3e 020c 06be
000002a0: a8a9 26be 8aa5 943d ec5c 363e 13e4 2c3e
000002b0: 149d ad3b 1665 383e d618 683e 8f9e 0f3d
000002c0: 537d 033d 1366 e2bc 9588 463e 37f3 2e3e
000002d0: 7093 ed3d b4d1 1b3e 9817 3b3e 741d 0e3e
000002e0: ae88 91bc 73fb 093e 9809 0a3e ad7f 223e
000002f0: ab1d 103e 7792 e0bc 4724 a0bd c688 0f3e
00000300: 6ef1 52bb 2112 ac3d 5543 113e 9345 aa3d
00000310: 4678 27bc 7195 503d 6717 75bc 432f 553e
00000320: a007 a83b cda0 e83c e56e 423e 52c1 8a3d
00000330: 03b4 133b 4434 253d 1dff fe3d 4bae b13d
00000340: 8afd 9c3b d172 443e d163 6e3c dde2 1f3e
00000350: ab55 ce3d 2f54 303e 8a8e 223e 563d a2bd
00000360: b52f 5d3e d7e6 87be b5c8 153e 547f 873d
00000370: 5080 413e d913 18bd cf49 f83b dc41 fe3c
00000380: e7f0 273e 34cc 553e c303 803d 4296 2f38
-0.04062697 0.04164186 0.08769472 -0.056735065 0.15064496 0.05418431 0.017639756 0.0864284
-0.09187146 0.08698335 -0.05142382 0.104339145 -0.04418474 0.06829998 -0.044028424 0.046446692
-0.059495386 0.00015770453 -0.058944713 0.012218296 0.06682829 0.022428704 0.059387747 0.001183557
0.16601779 0.16404751 -0.039917633 -0.035683565 0.10957079 0.060861975 0.045853008 0.16772601
0.18297052 0.07161399 -0.010702261 -0.00951621 0.17640685 0.12810604 0.1561528 -0.020024532
-0.07531605 0.11916078 0.1163488 0.081663385 0.0021611738 -0.039015263 0.018366003 0.12792295
0.15454827 0.14566039 -0.11224009 0.16425896 0.18211852 0.12481421 -0.0808829 -0.008513965
0.117111824 0.006720274 0.17554857 -0.00882051 0.09696583 0.14319274 0.11755889 -0.11519726
0.05994911 0.010330304 0.055273518 -0.01908142 0.013693823 0.12794665 0.06226409 0.03478036
0.101956405 -0.016917456 0.09437684 0.0076281205 0.009679285 -0.044300225 0.153525 -0.0070272237
0.13053122 0.14317144 0.07469921 0.0100692725 0.13311477 0.020215562 0.024324685 0.1487256
0.09874257 0.18757497 0.14481506 0.02723737 0.07596026 0.14407045 0.10381367 0.03512961
0.05851989 -0.1494241 0.16995619 -0.008262056 0.20018554 -0.1199598 0.0049396185 -0.14235502
0.10483922 0.012451808 0.15958443 -0.12577441 0.17087427 -0.02875343 0.12669235 0.06671546
0.2013329 0.07479906 0.1976358 -0.21106084 0.00925953 -0.19418669 -0.05884609 -0.020093678
0.028923815 0.04788998 -0.11521793 -0.16439687 -0.12909463 0.13386454 0.099695 -0.015401558
0.090665475 -0.011910007 -0.079768546 0.07064605 0.06575214 0.039362315 0.07067615 -0.039359886
0.029064199 -0.103433095 0.17647001 -0.05075391 -0.17104533 -0.09440875 0.03756418 0.06114428
-0.19479862 0.08250176 -0.07117292 -0.013509849 -0.1340449 0.018918304 -0.18738034 0.113156535
0.15962867 -0.018410338 -0.104039244 -0.1531532 -0.012679094 0.015756037 -0.041160885 0.06776303
-0.04472069 -0.17630123 0.18756989 -0.20866542 -0.013433569 0.13954401 0.16907899 -0.13090518
-0.16275656 0.072581366 0.17808884 0.16883878 0.005298266 0.18007311 0.22665724 0.035063323
0.03210194 -0.027636563 0.1938804 0.17084967 0.11600387 0.15216714 0.18270719 0.13878423
-0.01776537 0.13474827 0.13480222 0.15869017 0.14073817 -0.02741359 -0.07819419 0.14017019
-0.003218736 0.08401895 0.14185841 0.083140515 -0.0102215465 0.05092377 -0.014959193 0.2081881
0.005127862 0.028396988 0.18987615 0.06775154 0.0022537715 0.040333048 0.12451003 0.08675822
0.0047909664 0.19184424 0.014550165 0.15613885 0.100749336 0.17219613 0.15874687 -0.07921855
0.2160023 -0.26543304 0.14627345 0.06616083 0.18896604 -0.037128303 0.007577158 0.031037264
0.1640049 0.20878679 0.062507175 4.186319e-05

lstm.bias_hh_l1 f4 [228]
00000000: c128 133e 37d9 913d 73a7 d73d 9b7f 203e
00000010: ad9c fb3d 839b cebd 187c 0fbe bff8 893c
00000020: 5c7e 0e3e 763b 073e b11c 073e 5719 1d3e
00000030: 0d69 153e 1935 b63d 1aba e23c 23d4 853d
00000040: 8bf7 9b3d 794b 91bd 5882 b23d c7d9 f5bd
00000050: 5f21 b0bd fe86 963d 9a07 903d b567 0b3e
00000060: 7331 123e b25c c43d 3c2a d83d 64cd 033e
00000070: 1b93 a63c 15d1 90bd 689e 56bb 2356 303e
00000080: 7555 213d b6a1 1c3d b0a5 4f3e cee1 443e
00000090: 4006 ba3d a3e7 183e ffe0 e73d 6d86 8e3c
000000a0: 1fea acbd 7fb4 4d3e 6071 85bd 9623 2dbd
000000b0: 9f6b 8cbd 768e 493e a393 8ebd dbf3 e53d
000000c0: 5630 3dbc 25a0 7e3d 119a fc3d 388d 8b3d
000000d0: b6ca 513d e441 0f3c 0e89 df3d bab5 d7bc
000000e0: 1db2 883d 2ad4 013e e86c 07bd d979 713d
000000f0: 09a6 37bc e9fd cd3d 4a5f 5abd 79e2 8a3d
00000100: 8173 1fbd b731 e83d 91c2 aabc 0816 513d
00000110: 224d b3bc 2d18 4e3c fb59 0dbd e052 98ba
00000120: 03b0 283e eec2 bfbd bb41 63bd 38ef 2abc
00000130: 49b2 bc3d ce51 edbb fdf1 69bd 909b 39bc
00000140: cb6a 1f3e bdff 313e 48d7 2d3d 979c fa3d
00000150: 8003 463e 9464 543d b288 c1bd 4f44 603d
00000160: b5c1 8b3d 8d62 313e 995b 2a3d ef27 3e3e
00000170: a9d1 973d 5d23 383e 8561 033e d6e5 4abd
00000180: c2e7 ba3d 5656 883c bbba d03d 7b46 c6bc
00000190: 8784 c53d 461d 813d bc31 183d 7f37 2ebd
000001a0: d3df 35bc 4a98 2ebd 9c04 cf3b 42cd a23d
000001b0: 4442 023e ab0e 503e 649d 743d 10ad 80bd
000001c0: b001 013c 6b54 98bc 351c 523d 8877 debd
000001d0: 4d11 46be f6df 34be 64e3 22be 7e94 253e
000001e0: 673e 7bbc 0e06 cd3b 76ac 0abd ed41 0bbe
000001f0: f75c 05be 9ab6 163e 5252 25bd 7ae1 383d
00000200: 02d9 ac3d c0b3 713c ee76 633c 91c3 c4bc
00000210: 6006 613d 72f5 843d 1506 383d e4e6 13be
00000220: 2e13 293e 1e32 0dbe 1316 543e 28ad 25be
00000230: 59ec f9bd cc4e 7bbd b0d7 b13d c0a3 fbbc
00000240: 0961 d6bd 5d77 ab3d 74d5 62bd 1826 2dbe
00000250: d1f4 be3d 68de 283e a673 493d 0042 443e
00000260: 06c5 e43d 0e5f 3a3e f150 4cbc a998 28be
00000270: b665 f1bd f8a7 2b3e 34c5 a8bd 21fc 4d3e
00000280: f4ce cebb a467 97bd 8b27 193e ddce 7abc
00000290: 838b 833a c223 083e 8109 073e f663 33be
000002a0: 06eb 833c 466d c53d 147e 8d3c cb42 473e
000002b0: 1767 9cbc 6f5e c63d 227e 93bc 3359 0c3e
000002c0: 774f aa3d 40a8 15bd e88c edbc 3f86 4c3c
000002d0: e3ac 003e 10b4 e13c 1058 d73d 83fc c53c
000002e0: e916 f73b 23df 1ebd 0f7d 903d ed3f 20bd
000002f0: 3fc7 a9bb 9708 dcbc 0d11 fa3d 0b27 fabc
00000300: 9652 613e 11ae 363e 7e9c c03d aafd 053e
00000310: e7fc a93d 9867 3abc 998c 6a3e 9027 0a3e
00000320: bd3c af3d fd09 033e e1a5 003e 61c6 013e
00000330: b95c cd3d 970a 40bb 385e 223e 14cd 013e
00000340: 858a 123d 5531 083e 680f ec3d c779 5abc
00000350: 051e f2bc 1844 283e edc5 463c 648e b33d
00000360: 1126 a9bc 50aa 6abe a443 583e d05f 373e
00000370: 18b4 193e 3b0d 873c b1e9 853d 58b7 2abc
00000380: 201e f1bc 6fcd e73d ec67 4e3e f640 bc3d
0.14371015 0.071215086 0.10529985 0.15673678 0.12285743 -0.10088255 -0.14012182 0.016842244
0.1391539 0.13206276 0.13194539 0.15341698 0.14590855 0.08896846 0.02767663 0.065346025
0.076155744 -0.070944734 0.08716267 -0.12004428 -0.08600115 0.073499665 0.070327 0.1361378
0.14276676 0.09587993 0.105549306 0.12871319 0.020333817 -0.07071129 -0.0032748226 0.17220359
0.03938814 0.038240157 0.20278049 0.19226763 0.09083223 0.14932112 0.113222115 0.017398084
-0.084430926 0.20088385 -0.06515765 -0.042270266 -0.068564646 0.19683251 -0.06961753 0.11228152
-0.011547169 0.062164444 0.12334073 0.06814045 0.05121871 0.008743737 0.10914813 -0.026331771
0.066745974 0.1267859 -0.033062845 0.058954094 -0.011209019 0.10058195 -0.05331353 0.067814775
-0.038928512 0.11337607 -0.02084473 0.0510464 -0.021887366 0.012579006 -0.03450964 -0.0011621378
0.16473393 -0.09363352 -0.055482607 -0.010433011 0.09213693 -0.007242418 -0.057115544 -0.011328593
0.15568082 0.17382713 0.042441636 0.122368984 0.19337273 0.05185373 -0.09449901 0.054752644
0.06824056 0.1732275 0.04159126 0.18569921 0.074130364 0.1798224 0.1283017 -0.049535595
0.091262355 0.01664273 0.10191866 -0.02420353 0.09644418 0.063044116 0.037156805 -0.042533394
-0.011100727 -0.042625703 0.006317688 0.07949306 0.12720591 0.20318095 0.059720412 -0.06283009
0.0078739375 -0.018594941 0.05129643 -0.108626425 -0.19342537 -0.1766356 -0.15907055 0.16169927
-0.015334702 0.0062568253 -0.033855878 -0.13599367 -0.13023745 0.14718094 -0.04036171 0.045136906
0.084398285 0.014752328 0.0138833355 -0.024019035 0.05493772 0.064921275 0.044927675 -0.14443547
0.16511223 -0.1378865 0.20711546 -0.16179335 -0.12203283 -0.061354443 0.08683717 -0.03071773
-0.10467727 0.08372376 -0.055379346 -0.16909063 0.09324039 0.16491091 0.049182557 0.19165802
0.11170392 0.18200323 -0.01247047 -0.16464485 -0.11786978 0.16763294 -0.082407385 0.20115711
-0.006311292 -0.07392815 0.1495649 -0.015308109 0.0010036085 0.1329489 0.13187219 -0.17518601
0.016103279 0.09639983 0.017272033 0.19459073 -0.019092126 0.096859805 -0.01800448 0.13705902
0.08315938 -0.03653741 -0.028997853 0.012483179 0.12565951 0.02755168 0.105148435 0.024168259
0.007540573 -0.03878702 0.07055103 -0.039123464 -0.0051812227 -0.026859565 0.122102834 -0.030536195
0.2200416 0.17839839 0.094048485 0.13085046 0.083001904 -0.011377238 0.22905196 0.13491654
0.08556507 0.12796779 0.12563278 0.12673332 0.10027451 -0.0029303187 0.15856254 0.12675887
0.035776634 0.13300069 0.11526376 -0.013334698 -0.02955533 0.16432226 0.01213215 0.08767393
-0.020648034 -0.22916532 0.21119553 0.17907643 0.15010107 0.016485801 0.06538714 -0.010419689
-0.02943331 0.1131848 0.2015683 0.09192078

fc.weight f4 [1, 57]
00000000: 78b1 843f 3608 73bf 48ab 8abf 16f3 7dbf
00000010: b5e6 79bf 4ed4 733f c2f8 8abf 81c7 873f
00000020: 5696 82bf d991 7abf 463d 77bf d313 813f
00000030: c9b5 803f 037f 84bf db29 893f 50e3 853f
00000040: 01dc 89bf 79b9 863f 3e65 813f b825 873f
00000050: ba62 85bf 6e2f 81bf ccbd 8a3f 6c6e 82bf
00000060: 2705 843f fad9 6abf d1fd 80bf 66c2 85bf
00000070: 477a 7c3f 25c6 7a3f ba3a 85bf f46a 85bf
00000080: 41dc 72bf 06ab 8bbf 4f8d 83bf dd85 893f
00000090: 6b0a 76bf 096a 773f 0aa7 733f 1b34 803f
000000a0: 05ac 7abf 339a 70bf a8c2 88bf 3554 733f
000000b0: 02d0 85bf fd04 863f 1bb5 73bf 5514 82bf
000000c0: 59c7 833f f2f2 7fbf 9032 75bf 6720 813f
000000d0: a640 843f ceeb 7bbf 09ee 74bf 2cb4 7d3f
000000e0: 00c3 863f
1.0366659 -0.94934404 -1.0833521 -0.99199045 -0.97617656 0.95245826 -1.0857165 1.0607759
-1.0202129 -0.97878796 -0.9657787 1.0084175 1.0055476 -1.0351261 1.0715898 1.0459995
-1.0770265 1.0525352 1.0109022 1.0558386 -1.0420754 -1.0092599 1.0839171 -1.0189948
1.0314072 -0.91738856 -1.0077459 -1.0449951 0.9862408 0.97958595 -1.0408547 -1.0423265
-0.9486733 -1.0911567 -1.0277499 1.0743977 -0.96109647 0.9664617 0.95176756 1.0015901
-0.9791873 -0.9398529 -1.0684404 0.95050365 -1.0454104 1.0470272 -0.9519822 -1.0162455
1.0295211 -0.9998008 -0.9578028 1.0088013 1.0332229 -0.98406684 -0.9567571 0.99103045
1.0528259
